models/DQN_heuristic.pth (torch, 916745 bytes, 22 tensors)

conv1.weight f4 [32, 1, 5, 5]
00000000: bb08 f5be e4d9 0dbe fa9a b83d 1933 b13b
00000010: 7f3f 3d3e a5a0 ab3e 0698 a53c c69a a7be
00000020: 8837 b0be 9a12 48bc eb95 4dbe 9a3b 9d3b
00000030: af14 8c3d 11e2 15bc e7ab 8ebe f569 c1be
00000040: b2bd 0e3e b0e8 3abe 1776 22be 907d 3cbe
00000050: 64fe 4a3e f65f 013c f881 cebd 3a87 3a3e
00000060: a4e7 dfbd c36e 3dbd d44c 203e ef6c 3bbe
00000070: 4216 bd3d ff36 d3bc d1dd 76be 913d 6ebe
00000080: 7731 fabd 81cd 50be a0c5 5dbe 498f 9cbd
00000090: ade2 363d 1a5b bdbb b406 2d3e 89b6 a2be
000000a0: 8535 e23c 1499 843d 051e 9ebe 2398 bdbd
000000b0: c761 5dbb cdf2 b1be d787 95bd c2b1 7f3b
000000c0: 175b 52bd 7015 ee3d 84c5 633d f11c 9abd
000000d0: d225 12be 12d4 953c 7810 44be 214e 4b3e
000000e0: 7e96 173e 7860 4ebe 8b05 19bc d879 5dbe
000000f0: e23f d5bd 5a41 99be 474a 7d3d b048 ab3d
00000100: 590a 6fbc 5216 8a3b c2d0 713c d133 ea3d
00000110: 71f5 babd 8a0b 4ebe e084 833e 6016 58be
00000120: f216 5fbe 191f 41be 57e0 9cbe d48d dc3d
00000130: 8375 7bbe 63fd f23d 9936 c93d b7d6 7ebd
00000140: cf85 6ebd a096 92bd b5e5 8c3c 1d05 2bbe
00000150: d24f 25bd 1093 b1be 9354 fd3d c66e 68be
00000160: d0c4 453e 1541 3b3e 5050 e03d 3ea9 2dbe
00000170: 5e5a af3d 2a95 50be 169f 5fbe 89a3 adbe
00000180: 5e5b aebd b773 8abd d841 1dbe 53fb f53d
00000190: 176c 2cbe 0fb1 da3d 0056 4ebe c8dc fe3d
000001a0: ded6 143e a7ab 45be 9909 423d 2702 c7be
000001b0: a600 11be 4f36 933d 5784 463e 8b71 1fbe
000001c0: 7c40 e6bd 5ea8 18be 93f3 87be 9d3a 74be
000001d0: 3e47 a53c 5f7b 0d3e 13c0 563d e5df 1f3e
000001e0: 5a48 93be 30a4 bebb 9f03 38be 7811 da3d
000001f0: dbb5 20be d383 c53c b42b d5bc e3aa 3c3e
00000200: 4130 7e3e 611a 86be e25d a0bd 571a 94bc
00000210: 9160 04be d096 293d 4198 2e3e ffa9 61be
00000220: edef 0b3d 0162 37bd bf83 88bd a9a1 74be
00000230: 9159 a3be 5dcb 043e 925c 613e 1dd0 4abd
00000240: 2b8c e0bc 6023 6fbb 10c2 1fbe 71d4 56be
00000250: d015 563d 2ebf 553e 9e9e f03d 78af 54bc
00000260: 559a 0e3e f7c0 02be 1f7d a1be 9e12 5f3d
00000270: 2fb3 9cbd 63a4 49be 9495 8f3d db79 bcbe
00000280: bc7c 8cbc 5720 32be 5376 aabd f20f 03be
00000290: 95e4 753d c499 51be 63e2 04bd 653f 103e
000002a0: d29b 18be 5eb1 723e f6c5 68bd 1c3e c3bd
000002b0: 5e45 3ebd e82a 8b3d c102 e93d 4624 2abd
000002c0: 9c46 d2bd 2fc9 77bd ce11 d9bc 5606 87be
000002d0: eda7 6fbe 5f0b 3fbe 6406 c73d 36ad 813e
000002e0: ed4c 1dbe 654a ed3a 08a8 223e a837 c0bd
000002f0: e767 aebe ea02 02bc 0f93 813e 0a39 64be
00000300: 86c6 1abe 1a11 b73d 54be a2bd 1eb6 91be
00000310: 2c94 133d 424c be3c a41f 67bd 3088 d2bd
00000320: d624 dabd 77a5 93bd b9cf b03c 1c96 34be
00000330: c18a ef3d 76d1 743d 0e4d 153e 879b 45bc
00000340: 428a bc3d a48f db3d 50e1 df3d 5c89 523e
00000350: 4b5c fdbc 077d a7be ca37 abbe a62d 51be
00000360: e0c2 21be 63c2 27be 4973 1f3c bb80 98be
00000370: 1149 65bd 1a6a e4bc e2d3 c73d eced 7fbe
00000380: 5bfa f6bd 2a05 bebe 8146 153d 53db 023e
00000390: a63c 0ebe 2558 42bd fdde 9abe cdc7 8fbd
000003a0: 5979 1cbe 84cd 3a3e 8ed4 9ebe f8e0 95be
000003b0: d387 ad3d fa97 c2bd 13fd b3bd 385d 0a3e
000003c0: 1781 c23d ece5 263e 4164 e1bd df7e 3bbe
000003d0: 62ea e83d ec26 1b3e e638 5cbe ccd2 6c3e
000003e0: d68d b63d 6ec7 c6bd fe3c 17bb cc0f 2b3e
000003f0: 338b 2bbd aa9a 0dbd 8b97 83be c2a9 16bd
-0.47858223 -0.1385265 0.090139344 0.0054077026 0.18481253 0.33521 0.020214092 -0.3273527
-0.34417367 -0.012211466 -0.2007672 0.004798365 0.068398826 -0.009148137 -0.27865526 -0.3777615
0.1393955 -0.18252826 -0.1586536 -0.18407273 0.19823605 0.007896414 -0.10083383 0.18215647
-0.10932854 -0.04624821 0.15654308 -0.18303274 0.09232761 -0.02578306 -0.24108054 -0.23265673
-0.12216466 -0.20390894 -0.21657419 -0.07644517 0.04464977 -0.0057786824 0.16897088 -0.31779888
0.02761341 0.0647451 -0.30882278 -0.092575334 -0.0033780204 -0.34755555 -0.073013 0.0039015864
-0.0513564 0.11625183 0.055608287 -0.075250514 -0.1427224 0.0182896 -0.19146907 0.19854023
0.14803502 -0.20153987 -0.0093397 -0.21628511 -0.10412575 -0.29932672 0.061838415 0.083634734
-0.014589869 0.0042140866 0.014759244 0.114356644 -0.091288455 -0.2012159 0.25687313 -0.21102285
-0.21786097 -0.18859519 -0.30639908 0.10769239 -0.24556546 0.11864736 0.09824867 -0.062216487
-0.05823308 -0.07157636 0.017199377 -0.1670117 -0.040359326 -0.34682512 0.12369647 -0.22698507
0.1931336 0.18286546 0.109528184 -0.16959092 0.08562158 -0.20369402 -0.2183803 -0.3391383
-0.08513521 -0.06760352 -0.15357149 0.12010827 -0.16838108 0.106783025 -0.20149994 0.124444544
0.1453509 -0.19303761 0.047372434 -0.3886883 -0.14160404 0.07188093 0.19386421 -0.15570657
-0.11242768 -0.14907977 -0.2655302 -0.23850484 0.020175572 0.13816594 0.05242927 0.15612753
-0.28766137 -0.0058179125 -0.17970131 0.10647863 -0.15694372 0.02411071 -0.026021816 0.18424563
0.24823095 -0.26192 -0.07830407 -0.018078966 -0.12927462 0.04140359 0.17050268 -0.22037505
0.034164358 -0.0447712 -0.066657536 -0.23889793 -0.3190427 0.12968202 0.22007969 -0.04951488
-0.027410587 -0.003648959 -0.15601373 -0.20979477 0.052266896 0.2087371 0.11749004 -0.012981288
0.1392606 -0.12768923 -0.31540772 0.054461114 -0.07651364 -0.19691615 0.07010952 -0.36811718
-0.017149322 -0.17395149 -0.0832335 -0.12799051 0.060032446 -0.20468813 -0.03244246 0.14086683
-0.1490319 0.23700473 -0.056829415 -0.09533331 -0.046452872 0.06795293 0.113774784 -0.0415385
-0.10267374 -0.060494598 -0.026497748 -0.2637202 -0.23403902 -0.18656681 0.09718016 0.25327462
-0.15361376 0.0018103836 0.15884411 -0.093856156 -0.34063646 -0.007935265 0.2530751 -0.22287384
-0.15114793 0.08938809 -0.079464585 -0.28459257 0.03602998 0.023229722 -0.05642666 -0.10279882
-0.10651557 -0.07209294 0.021583425 -0.17635387 0.11696387 0.05977007 0.14580175 -0.012061006
0.09206058 0.10720757 0.10931647 0.20560211 -0.030927798 -0.32712576 -0.33441 -0.2042757
-0.15796995 -0.16382746 0.009732076 -0.29785714 -0.055977885 -0.027882624 0.0975721 -0.24993104
-0.1205947 -0.37113315 0.03644419 0.12778978 -0.13890323 -0.047447342 -0.30248252 -0.07020531
-0.15280665 0.1824246 -0.3102154 -0.292732 0.08473172 -0.095016435 -0.087885045 0.13512123
0.09497278 0.16298646 -0.1100545 -0.18310116 0.1137283 0.15151566 -0.2150608 0.23127288
0.08913772 -0.09706007 -0.0023077126 0.16705245 -0.041880798 -0.034571327 -0.25701556 -0.036782987

conv1.bias f4 [32]
00000000: cd4a 8dbe 2fb8 283d b9be efbd d201 8f3c
00000010: 52be b0bc cd6a 3ebe 48fd 74be ec15 9cbc
00000020: f1e6 1bbe 4695 45be 9567 ffbd daab 4fbe
00000030: 23d6 92be 5731 10be f4d9 e8bd bee2 dcbd
00000040: 7661 d0bd 5444 6a3c 4b40 1fbe 1f23 dbbc
00000050: 8728 0fbc 2193 8cbe bb90 35be 8f19 98be
00000060: cede a8bd 7455 90bd 562a 4d3c e969 b5bc
00000070: efc6 2abe 1c1e 6cbd 8e71 4bbe 6ebe d9bd
-0.2759613 0.041191276 -0.11706299 0.017456923 -0.021575127 -0.18595429 -0.23924744 -0.019053422
-0.15224816 -0.19295225 -0.124709286 -0.202804 -0.28678998 -0.14081322 -0.11369696 -0.10785435
-0.10174839 0.014298517 -0.1555187 -0.026750145 -0.00873769 -0.27456 -0.17730992 -0.29707
-0.082456216 -0.07047549 0.012522301 -0.022145228 -0.1667745 -0.057645902 -0.19867536 -0.10632025

conv2.weight f4 [32, 32, 5, 5]
00000000: 93ea 423e e024 8ebd 1304 a9bd 4345 603e
00000010: c6c1 17bb 4169 683e 51e4 fd3d 0461 5abd
00000020: ca0e 843d b0b2 c93d a80b 4bbd 444a 8f3e
00000030: 5b64 8a3d 01d6 1d3d 94e6 fdbc 51e8 e6bd
00000040: 16e7 46be 54bb 2cbe 3cd8 953d 0d1a 98bc
00000050: 0bec cc3d a7f6 83be 2100 01be 859b 2f3e
00000060: 5c76 5bbd e268 17be 2d33 cdbc d86d cdbc
00000070: 7913 81bc 696f c53c 3e5e dbbd abec 7fbd
00000080: f29f 31bd c240 313b 238e 08be 9f61 99bd
00000090: eb1f 2fbe 7529 01be 6c60 b3bc d027 0bbe
000000a0: 1233 cebc c2d4 b13d 4202 eb3c 6341 97bd
000000b0: 4c32 f4bd baf8 d53d 458b 583e 9890 c33d
000000c0: f32c 92bd ae16 86bd 1906 4e3e 0b66 40bd
000000d0: 8786 8abd 4359 9ebd 8c03 393e f7a0 4ebd
000000e0: d3cd 8bbe 8370 333d 50ed 2bbd 5fe6 2b3d
000000f0: caed 3fbd 9cb4 e23d 292b 673e 3119 acbd
00000100: 653b 843d 0940 b7bc 47dd 2abc 114f 0e3e
00000110: 226e 14bd 381b 86bd 395a 5a3d 8ef0 5ebe
00000120: fb39 1bbd 22ee 30be 19d1 e6bd 3be3 b33d
00000130: dc8c 30bd 5bc6 17bd 7b8c 1ebc aa1f debd
00000140: 6c1f 57be c0bf 47bd 8c04 88bd 732c b6bc
00000150: 9b25 11be 805c 5bbd f54d b8bd 6318 17be
00000160: 18a7 473d 55d8 80bd 903f 4fbd f989 bb3d
00000170: 5db1 7c3d a344 583d 046b 27be 2102 353e
00000180: 49a6 3abe 618f 1b3d 17f9 613d a747 2dbc
00000190: 9e5b 183e 78fe 10be d5b9 afbc 9fd7 79be
000001a0: a452 b1bd 26bb 1bbd 0aab 5c3b 587f 503d
000001b0: 658a 4cbe f43b 36bd b305 9fbe 9b86 ebbd
000001c0: 170c d2bd 3d61 9cbd edec adbc c618 333c
000001d0: 0e4b 0ebe f896 413d 4895 b7bc 1a3f 2cbe
000001e0: 9359 afbe 94f6 a43d 3aa3 823d 6ab4 81bd
000001f0: 6585 d7bd 2315 4a3e b5c3 583d f952 f2bd
00000200: 98fa 8d3d 3f5e 8fbd a1df 2fbd 788e 2dbe
00000210: f811 d7bc 4fb4 91be 2330 08be 27b1 3dbc
00000220: 44e5 73bd eac4 33bd 2f6a 25bd 07e8 5abe
00000230: 9778 d13d 02ca d13c 8388 913d 8332 0d3e
00000240: 955a 13be c61d 1f3d c5f8 3bbe 812e 4dbd
00000250: f56e 96bd d3a1 ab3d 40cb dd3d e575 98bd
00000260: 0c05 7ebd ca55 a23d f813 70bc 7a25 7fbe
00000270: e0bd e83d 4fb7 afbd 860c cf3b d11d fe3d
00000280: 53b3 7dbe d684 eb3c 64d6 f1bd cd1c 0c3d
00000290: bfec 213d eb3a b7bd e914 10be a500 d43c
000002a0: dbf8 d13d 4b25 2a3e 50e2 823d 726a 7bbc
000002b0: 1aa8 64bb 0159 1ebe 3438 563e c905 adbe
000002c0: bbb3 21bd 91bf cd3d 042f 06be 439c 613c
000002d0: cf52 20be 32c7 aa3d 98f9 b23c c2fc 103e
000002e0: 2a56 813d 69ac 97bd 9440 82be 99bf 33be
000002f0: 56b4 fabc 8556 04be 5911 a3be ece6 5abb
00000300: ea88 a9bc efca 25be 52d9 babd dc21 8fbd
00000310: fdbe 553d 5fb8 ed3c 01fd e2bd 4e0e 09be
00000320: f9c7 2dbe 2777 5fbd 39de e3bd 0146 f23c
00000330: 0909 323c 501d 833c 31d9 2b3d aecf 7c3d
00000340: e402 a1bc 95d2 f0bc 28bb 3f3d adb8 263e
00000350: bcdd 983d 763e 6b3d df08 bd3d bc99 bdbd
00000360: 959a 40be 22b4 1dbd d95e c5bc a3fb 463e
00000370: 0455 853c 7b3b 0f3e ea71 2f3e 0e82 163d
00000380: 5d88 0b3e da78 cdba dc09 6e3e 3075 05bc
00000390: 0447 563c a7d5 583d d686 053c 631c b83b
000003a0: 1ea2 8bbe 7cd0 f9bd 1df2 cdbd 1ed1 8ebd
000003b0: 5b5b b23d fc6c a53d 327f 15bd 7873 edbd
000003c0: 89ab 013d ef9b c43d 0b87 cd3c afdd 0fbe
000003d0: dce6 27bd 6e1a 153d 7b3a 27bd e639 7dbd
000003e0: 9728 a13d a6da 61be 9487 68bd 63e7 25be
000003f0: aefc c7bd 586b cbbd cda4 28be dcf8 c73d
0.19034795 -0.06940627 -0.0825273 0.21901421 -0.002315627 0.22696401 0.123970635 -0.053315178
0.06448133 0.09848535 -0.049571663 0.27986348 0.067574225 0.03853417 -0.030993737 -0.112747796
-0.1942409 -0.16868335 0.07316634 -0.01856711 0.10005959 -0.25774118 -0.12597705 0.1714917
-0.053579673 -0.14786103 -0.025048817 -0.025076792 -0.015756356 0.024100976 -0.10711335 -0.062481564
-0.043365426 0.0027046655 -0.13335471 -0.07489323 -0.1710202 -0.12613471 -0.021896563 -0.13589406
-0.025170837 0.086831585 0.0286876 -0.073855184 -0.11923656 0.104478315 0.21146877 0.095490634
-0.0713748 -0.065472946 0.20119514 -0.046972316 -0.0676394 -0.07731869 0.1806776 -0.050446477
-0.2730547 0.04380847 -0.041974366 0.041967746 -0.046857633 0.11069605 0.22575058 -0.084032424
0.06456641 -0.022369402 -0.010428733 0.13897349 -0.036237843 -0.0654816 0.0533087 -0.21771452
-0.03789709 -0.1727834 -0.11270351 0.08783575 -0.043103084 -0.0370544 -0.009677048 -0.10845883
-0.2100808 -0.04876685 -0.06641492 -0.022237992 -0.14174502 -0.05355501 -0.08999244 -0.14755397
0.048743337 -0.06291262 -0.050597727 0.091571756 0.061692584 0.052799832 -0.16349417 0.17676593
-0.18227495 0.037978534 0.05516919 -0.010576165 0.14878699 -0.14159572 -0.021450916 -0.24398659
-0.086583406 -0.038020276 0.0033671283 0.050902694 -0.19974668 -0.04449077 -0.31059036 -0.11500283
-0.10256212 -0.07635734 -0.02123114 0.010931199 -0.13895819 0.047263116 -0.02241005 -0.16820946
-0.34248027 0.080548435 0.06378789 -0.063332394 -0.1052349 0.19734626 0.052921016 -0.11832232
0.069325626 -0.07000398 -0.04293788 -0.16948879 -0.026253685 -0.28457877 -0.13299613 -0.011577881
-0.059544817 -0.043888964 -0.040384468 -0.21377574 0.10228079 0.02560902 0.07106116 0.137888
-0.14390023 0.038846754 -0.18356617 -0.050093178 -0.07345382 0.08380475 0.108297825 -0.074443616
-0.06201653 0.07926519 -0.014653198 -0.2491664 0.11364341 -0.08579885 0.0063186316 0.12408031
-0.24775438 0.028749865 -0.1180847 0.034207154 0.03953242 -0.089467846 -0.14070477 0.025879214
0.102525435 0.16615789 0.06390822 -0.015345203 -0.0034890235 -0.1546364 0.20919877 -0.33793476
-0.039478045 0.10046304 -0.13103873 0.013770166 -0.15656589 0.08338775 0.021847531 0.1415892
0.063152626 -0.074059315 -0.25439894 -0.17553557 -0.030603569 -0.1292363 -0.31849173 -0.00334018
-0.020695169 -0.16190694 -0.09123482 -0.0698888 0.052184094 0.029018579 -0.11083413 -0.13384363
-0.16970815 -0.054556992 -0.1112637 0.029574396 0.010866412 0.016005188 0.041955177 0.061721496
-0.019654699 -0.029397288 0.046809345 0.16281386 0.074641675 0.057432614 0.09230208 -0.09257838
-0.18808968 -0.038501866 -0.024093078 0.1943193 0.01627589 0.13987534 0.17133299 0.036745124
0.13626237 -0.0015676275 0.23245949 -0.008145615 0.013078455 0.05293813 0.008149823 0.0056186183
-0.27272123 -0.12197968 -0.10055945 -0.0697348 0.08708831 0.08077428 -0.036498256 -0.115942895
0.03165773 0.096000545 0.025088808 -0.1404941 -0.04099165 0.03640216 -0.040827256 -0.061822794
0.0786907 -0.22056064 -0.056769922 -0.16201548 -0.09764992 -0.099325836 -0.16469117 0.09764263

conv2.bias f4 [32]
00000000: c524 81bd 71bd 30bd 7460 c5bd ab3e e0bc
00000010: a82c e3bd 39e3 82bd 959d 5dbd 08ad aebc
00000020: 9051 55bd 2fdf 06bd 36cf b4bd e2cd a4bd
00000030: 254c b9bd 4cef 20bd 1d9b 60bd 11e2 62bd
00000040: 8f3d 6abd 6721 59bd ce0d 73bb d0d0 9bbd
00000050: 7900 14bc 6d19 1dbd 20b0 93bd c96d b23c
00000060: 85ca 7dbd 19d8 453d 5d34 9abc 94ac 62bd
00000070: 21b0 cfbb 1d01 3abd 3e15 1a3b cf21 81bd
-0.06305841 -0.043149415 -0.096375376 -0.027373632 -0.11092502 -0.063909955 -0.05410536 -0.021322742
-0.052079737 -0.03292769 -0.08828585 -0.080470815 -0.090477265 -0.03929071 -0.054835428 -0.055391375
-0.057187613 -0.05301037 -0.0037087086 -0.07608187 -0.009033316 -0.038354326 -0.072113276 0.021780865
-0.061960716 0.04830179 -0.018823797 -0.055340365 -0.006338135 -0.045411218 0.0023511196 -0.063052766

conv3.weight f4 [32, 32, 5, 5]
00000000: 1655 843c b8a9 043e eabc bfbd 4dc9 f9bc
00000010: 306b 2cbe 8e55 bc3d 401b 363d 8ef5 983c
00000020: 03ab 39be 27bc 97be 3454 bc3c 9f07 5e3e
00000030: 0cc6 d13d 3cc6 b2bd 1188 633d f216 753c
00000040: b648 183e b108 4e3e 34a2 9ebd fb0a 9d3d
00000050: ce1f b6bd c5b8 783e 8855 b93d 1419 fbbb
00000060: 75b5 52be cd54 3bbd a813 27be 339b 8c3c
00000070: ae31 f73c 20ee acbc bad7 923d 66d8 cfbd
00000080: 2f23 c63d e9dd f9bc 63a3 9a3d 5245 04bc
00000090: d59c 093d 48cb aabc 2941 73be 29c0 41bd
000000a0: 38e1 f83d 01cf b93c 2b35 6d3d cc3b 64be
000000b0: 4c90 abbd d81d 173e 83ad 923e 9c61 a83c
000000c0: e864 11be 6c02 00bb 0289 073e 6a2c 333e
000000d0: 55d9 813d bc48 373e 89b8 3bbe d32f d73d
000000e0: e457 1d3e acad 3abd 2d9a 91bb 83cc 0ebd
000000f0: 6884 c13c f30e e1bd c1ff c33d 7bce e33c
00000100: 5ca9 94bd 8f21 613e 0841 2c3e 9825 503d
00000110: b969 903c 612c e73a 6891 513b 870a 4d3e
00000120: 3a82 4fbd c28d 82bd acad d2bc f118 353e
00000130: 158e c73d bb94 003e 41f6 113d 7822 373b
00000140: f077 f23d 1edf 1c3e e55d 3c3e 79b4 e63d
00000150: 3823 eb3c 699a 163e 7ecd 1b3e d259 623e
00000160: 8a8c 4c3d aa2a 883d 6149 d93c db35 593e
00000170: e491 993e 85d1 29bd 8d7f 36bd 0669 283d
00000180: fd08 c53e 5aa1 d7bc 1b43 d6bc 1ad6 1bbe
00000190: 4b2c 8cbe 1cac bbbd 6697 57bd fc04 1c3d
000001a0: fbd1 843c 415d e9bd 17e8 f5bd 96cf c2bd
000001b0: 58aa ed3d b902 e83c 9e2b bdbd defa b2bd
000001c0: 7b90 263d 9fa1 9c3b ecab 243d 6714 6bbe
000001d0: 7a24 39be 356f 91bd 64b8 2dbe efde d4bc
000001e0: e678 c2bc 60e7 a33d 9886 803d a69c 123d
000001f0: d040 103e fc11 c0bd ddc6 82bd fc8c 31bd
00000200: b678 bb3d 2298 9bbd 4116 ef3d e571 483d
00000210: e887 603d 887e cebd d5ad b1bc 2ee5 de3c
00000220: aca2 ddbd f27d 023d 3dbc 59bc 6d79 10bc
00000230: c840 703e 7951 79bd 7a37 1e3e 8218 cdbd
00000240: 7fac 0c3e 9784 3e3e 34c8 e73d 3913 7d3e
00000250: ad38 a5bd 6001 723d 0502 63bd 8ec6 003c
00000260: f381 0ebe 4a66 7dbe 3171 48bc 91b9 58be
00000270: e14c 313d 4509 d03d 18e9 23be d23a 6dbc
00000280: 849f 3bbe 2a94 53be 3348 093c 8c8c 98bd
00000290: d69b 1f3e 15a2 79bd 1caa 463e 6ccc 07bc
000002a0: 96c6 bfbd c6a1 873e ab21 f3bd f8ae 113e
000002b0: f722 d6bd 014a 6dbd 30c5 093e 71b1 b2bc
000002c0: fdee 22bd 12ed da3d ff63 923c 51d9 c8bc
000002d0: e68c 8ebd 72b9 d03d 01c8 17bd 53b5 dd3c
000002e0: bddb 023d 59ca 143e 02a7 2cbd 6330 05bd
000002f0: 3c46 f23c a377 9bbb e7ad 8a3e 5d06 4cbd
00000300: 98fe 75bd dbc8 1b3d 24dc 973d 9575 d3bd
00000310: 6c5e febd eca7 cbbd 21c6 26ba 6567 4d3e
00000320: 1826 25be 8122 4abe f038 913d dc89 18bd
00000330: fa7a f7bd 306a 89be a838 92be 7dcc b8bd
00000340: a0eb 8b3b 1022 1c3c b21e 1c3e 1b51 4bbe
00000350: 6153 0dbe ff60 f23c 0ba1 ac3d 917b f93d
00000360: 00c1 87bd f7ae 853d 4171 a63c 9162 b43c
00000370: f824 16be 2bcf cc3c dda0 97bd a339 97bc
00000380: 1aa6 d1bd 872c a73c 74ca 13be 1539 8c3d
00000390: 6156 7cbc 97c3 edbc 74ab 7d3c d5d5 353e
000003a0: 8e5c ed3d dc24 55bd b8e9 b53b db7a 083e
000003b0: f2bd cabd e036 7abd 802d 633d cca9 0d3c
000003c0: caef 9c3d 5751 c13c b861 6cbd 3357 bd3d
000003d0: 72e6 c0bd d532 c03c afda 693e 546b 2c3c
000003e0: a6e7 1fbe 270f 403d 8ee3 9ebc 82d1 0e3e
000003f0: 6abc c6bd 6dd4 723d eead a9bc b553 8f3d
0.016153853 0.12955368 -0.093622044 -0.030491496 -0.16837764 0.09196006 0.04445958 0.018671777
-0.18131642 -0.29635736 0.02298937 0.21682595 0.102428526 -0.087292165 0.055549685 0.014959084
0.14871487 0.20120503 -0.077457815 0.0766811 -0.08892785 0.24289234 0.09049517 -0.0076629017
-0.20577033 -0.04573517 -0.16316092 0.017163849 0.030175056 -0.02110964 0.07170053 -0.101486966
0.096746795 -0.030501323 0.07550695 -0.008073168 0.033596832 -0.020848885 -0.23755325 -0.0473024
0.12152332 0.022681715 0.057912033 -0.22288436 -0.08377132 0.14757478 0.28648004 0.020554356
-0.14198649 -0.0019532694 0.13235858 0.17497411 0.06340281 0.1789884 -0.18332113 0.105071686
0.15365559 -0.045575783 -0.004443428 -0.034863006 0.023622707 -0.109891795 0.095702656 0.027808418
-0.07258865 0.21985458 0.16821682 0.050817102 0.017628537 0.0017637127 0.0031977538 0.20023547
-0.050661303 -0.063746944 -0.025717579 0.17685296 0.09743897 0.12556736 0.035635237 0.002794413
0.118392825 0.15319487 0.18395193 0.11264891 0.028703317 0.1470734 0.15215108 0.22104576
0.049938716 0.066487625 0.026524248 0.2121195 0.29994118 -0.04145958 -0.044555236 0.041115783
0.3848342 -0.026322056 -0.026155045 -0.15218392 -0.27377543 -0.09163687 -0.05263462 0.03809069
0.016213408 -0.1139474 -0.12007158 -0.0951225 0.11604756 0.02832161 -0.09236835 -0.08739255
0.04066513 0.004780009 0.04020302 -0.22957002 -0.18080321 -0.07101289 -0.1696487 -0.02598521
-0.02373929 0.08003116 0.06275672 0.035793923 0.14087224 -0.0937843 -0.063855864 -0.043347344
0.09153883 -0.075973764 0.116741665 0.048936743 0.05481711 -0.10082728 -0.021689335 0.02720889
-0.10822043 0.031858392 -0.013289508 -0.008818013 0.23462212 -0.060868714 0.1545085 -0.1001444
0.13737677 0.18605267 0.113174826 0.24714364 -0.08067451 0.059083343 -0.055421848 0.007859839
-0.13916759 -0.24746051 -0.012234018 -0.21164538 0.043286208 0.10158018 -0.16006887 -0.014479356
-0.18322569 -0.20661989 0.00837903 -0.07448682 0.1558679 -0.06094559 0.19400829 -0.008288484
-0.09364049 0.2649061 -0.11871656 0.14226902 -0.10455888 -0.057931904 0.13454127 -0.021813126
-0.0397787 0.10689749 0.017869947 -0.024517687 -0.06960468 0.10191621 -0.037055973 0.027064001
0.03194784 0.14530315 -0.04215146 -0.03251685 0.029574506 -0.0047444864 0.27085802 -0.049810756
-0.060057253 0.038033348 0.07415035 -0.10325161 -0.12420353 -0.09944138 -0.0006361921 0.20058973
-0.16127813 -0.19739725 0.07090938 -0.037240848 -0.12084003 -0.26838827 -0.2855885 -0.09023378
0.004270032 0.0095296055 0.15246084 -0.19855158 -0.13801338 0.029587267 0.08429154 0.121817715
-0.06628609 0.065275125 0.020317676 0.022019656 -0.1466254 0.02500113 -0.07403729 -0.0184601
-0.102367595 0.020406974 -0.14432698 0.06846825 -0.015401454 -0.029023929 0.015482772 0.17757352
0.11589919 -0.052037105 0.005551543 0.13328116 -0.098995104 -0.06108749 0.055463314 0.00864644
0.07662924 0.023598356 -0.05771038 0.092451476 -0.09418954 0.023461739 0.22837327 0.010523636
-0.1561571 0.04688945 -0.019395616 0.13947108 -0.09703906 0.059284616 -0.020712819 0.06998388

conv3.bias f4 [32]
00000000: 2aa3 5fbd ab67 a5bc 5999 88bd 604f a0bb
00000010: e377 6bbd c2c4 b23b e49d d0bd 07ca 28bd
00000020: d6c3 05bc 205b b8bc aeb9 04bd 9cc0 5bbd
00000030: 5ce1 8dbd e700 91bd 75c3 a0bd 677d 32bd
00000040: 9184 ddbd 8b9b 5abd be40 33bc 49a2 86bd
00000050: 921a 34bd 2756 7cbd 148a dfbd 3a07 a6bd
00000060: 1100 78bd b2bf 7abc 0530 bebd f6c7 91bd
00000070: a6ef a13b 9b62 12be 0b40 58bd bcf8 38bd
-0.054598965 -0.020191034 -0.06669874 -0.0048922747 -0.05748738 0.0054555843 -0.10186365 -0.041208293
-0.008164367 -0.02250439 -0.03240364 -0.053650483 -0.069277495 -0.0708025 -0.078497805 -0.043576624
-0.10816301 -0.053370994 -0.010940729 -0.06573922 -0.043970652 -0.0616056 -0.10915008 -0.08106847
-0.06054694 -0.015304493 -0.09286503 -0.07118218 0.0049418984 -0.14295428 -0.05279545 -0.045159087

conv4.weight f4 [32, 32, 5, 5]
00000000: 6b98 3e3d 0c64 84bd ae61 ddbd ddc5 65be
00000010: 6b45 dbbd b939 28bd 2ec7 14bd 8f07 d43d
00000020: 0fc0 4cbe 8b14 6c3d 6028 193e b22c 68be
00000030: f83b 963d ff47 4c3e d8f9 06be 5ab3 ca38
00000040: 9c83 55be 96e0 8ebe 174a 2c3e f1b7 8d3d
00000050: 022c c0bd a50d 3abe 4256 1bbe c14e 96bd
00000060: 64a0 de3d 4f9c 5a3e 0e10 2cbd f7ff e23d
00000070: 8b5f 0d3e df38 023d 16b6 1f3b e83d a93c
00000080: 4f0a 82bd 21b5 a73b a6e4 6fba d617 3cbb
00000090: 384f bebd 125d 073e ddd8 bcbc 6542 073d
000000a0: d1d8 71be 0c3a 55be 4088 64bd 0291 0cbd
000000b0: 685a 183e 677a b1be 3d58 a0bd c643 54bd
000000c0: 6f95 8f3d 7edc 763d d023 e5bc 0ffe 0c3e
000000d0: 0493 6bbd 26df b4be 6914 09be 0a27 21be
000000e0: b98a 2abc 73e6 4d3e 7a5e 45be 322c b0bd
000000f0: eeb5 07be db22 133e 5391 193e f255 5bbe
00000100: 74fb 36be b341 4dbe fbfa 1dbe f327 0bbe
00000110: d97b 96be 0d7d 82bd e715 013e 6680 8bbd
00000120: 9c2a 043e 0c75 d03d c16f 363d 31d7 9fbc
00000130: 9bc8 1bbe 9de6 303e fd1c 143d 3b23 45bd
00000140: 882a 42bd 96f3 55bd e69c 2c3e caef 25bd
00000150: 7cf5 b23d 1305 90bd d220 05be 9d3a 013c
00000160: c4b7 20bd 742e b43d f54e 3d3d 6ac0 063e
00000170: fa89 edbd b432 2fbe 0dd4 55bd d52d c1bd
00000180: bd6f e73d 4389 1e3e 50b2 79be d26b 59be
00000190: aeb4 3c3e fb11 7d3d f736 823d 0501 733d
000001a0: e4c3 9c3c b678 973d 1f6f 753c 33eb 903d
000001b0: acfc cc3d a5b3 d23d 3f2e 46bd a8b7 30be
000001c0: 92a5 e53d 9a02 723c b47e dcbc 18ba 04be
000001d0: 41d4 aa3c 149c c53c 5b3f 16bd 5205 b33d
000001e0: e792 e8bd 2702 c9bc 1054 963d 2ca3 0e3d
000001f0: da5f cfbd 028f 2ebd 3d51 cd3d a5cf 403e
00000200: 5b9d 303d bafc 983d 768a d6bd be34 e03d
00000210: c1ad 073d 3f95 b93d 9ea0 cfbc f062 d1bd
00000220: bf09 963d 5f66 35bd 1c11 fcbc f058 83bc
00000230: a706 9cbd ff07 943d 45af c1bc 5384 d1bd
00000240: e8ed 87be 8971 92bd d757 cb3b 594e 84bd
00000250: 3132 21be c4b5 20be 85fa 4bbe 80b8 14be
00000260: 43b8 c83d 11f3 0a3e 58f9 e03b 0eb0 d0bc
00000270: f4a6 85bd df1d d93d 1d06 693e 3de3 f33d
00000280: 5d50 403d 06fe b63c 4d98 0f3e be2f fa3d
00000290: 26d2 763c 82c4 36be ede3 80bd 3584 9ebd
000002a0: d154 adbe b22a e4bd 611e dcbd 4b5d 43be
000002b0: 7b72 1bbd caad 193d 6f9c 17bc 18de 15be
000002c0: ff09 2e3d 0f7b dc3c 95a7 1b3e 8bd0 5ebd
000002d0: 55c2 f2bd 9cb4 8abd c945 8ebd e704 91bd
000002e0: 4ce5 c6bd 9c5a 07bd 71e1 85bd ad25 ca3d
000002f0: f6ee 143e 0aef 513e 140f 4a3d 096d 6a3a
00000300: a6c6 183d d75e 583d 6d18 c73d 4dbf e2bc
00000310: 7abd 4c3d 02d2 d5bd a867 dbbd a7f8 b33a
00000320: 7137 0cbe 4be6 7bbe 5c94 a63c ef86 b03d
00000330: 0115 9ebd 8eb1 5ebe eea1 f2bd 098d 98bd
00000340: 0af9 7fbd 0a4c 3abe 9d45 ccbd a88b e23c
00000350: 6e7e d33c dfdd b23d e5b0 413d c487 9c3d
00000360: a49a 313e 8546 553e 311d 843e e962 bdbd
00000370: 579a 573d d8fd 393d dd72 203e c425 a13d
00000380: 10f9 c6bd 97e8 8dbd 2b1a a8bd b01e ef3c
00000390: 1e6e 2fbd da20 64bd 9df5 08be 70d4 88be
000003a0: 78d2 25be e39f 08bd d012 afbd 2d8d 153d
000003b0: 3923 1bbb 657c c8bd b746 203e f31b 253e
000003c0: 27d3 65be ec27 e7bd 3273 9f3d 1d76 cf3d
000003d0: 4fcb 1c3e b435 393d 2bb3 e83c 53e2 813d
000003e0: 126b acbd e619 aabc 3107 22bc d379 9fbd
000003f0: 475d d23d 65ce 0f3b 53b3 453c 96d0 40be
0.046532076 -0.06464395 -0.108096465 -0.2243876 -0.107066 -0.041070674 -0.036322765 0.10353004
-0.1999514 0.05763678 0.14956808 -0.226733 0.07335657 0.1994934 -0.13181245 9.6655174e-05
-0.20850986 -0.2790572 0.16825138 0.0691985 -0.09383394 -0.18169267 -0.15169623 -0.0733924
0.10870436 0.2134869 -0.0420075 0.11083978 0.13805978 0.031792518 0.0024370006 0.020659402
-0.063496225 0.005118028 -0.0009151198 -0.002870073 -0.092924535 0.13219097 -0.023052627 0.033022303
-0.23617865 -0.20822924 -0.055794 -0.034317978 0.14878237 -0.34663698 -0.0782933 -0.051822446
0.07010924 0.06026887 -0.027971178 0.1376879 -0.057513252 -0.353265 -0.13386692 -0.15737548
-0.010409051 0.2010744 -0.19274321 -0.086021796 -0.13252994 0.14368765 0.14996843 -0.21419504
-0.17869359 -0.20044594 -0.15427773 -0.13589458 -0.29391363 -0.06371508 0.12606011 -0.068115994
0.12906879 0.10178575 0.04454017 -0.019511791 -0.15213244 0.17275472 0.036160458 -0.0481293
-0.047403842 -0.052234255 0.16856727 -0.040511884 0.08738229 -0.07032218 -0.13000801 0.00788751
-0.039237753 0.08797923 0.046217877 0.13159338 -0.115985826 -0.17109185 -0.05220418 -0.0943257
0.11300609 0.15482049 -0.24384427 -0.21232536 0.18428299 0.061784726 0.0635814 0.059327144
0.019136377 0.07396071 0.014980107 0.07076111 0.10009131 0.10288171 -0.048383947 -0.1725756
0.11213221 0.014771128 -0.026915886 -0.12961614 0.020853164 0.024122275 -0.036681514 0.08741249
-0.113561444 -0.02453716 0.073402524 0.03482358 -0.10125704 -0.04261685 0.100252606 0.1882921
0.043118816 0.07470079 -0.10475628 0.1094756 0.03312469 0.090616696 -0.025345143 -0.10223949
0.07326078 -0.04428708 -0.030769877 -0.01603362 -0.07618456 0.07228088 -0.023643145 -0.10230317
-0.26548696 -0.07150561 0.0062055397 -0.06460256 -0.15741803 -0.15694338 -0.19919784 -0.14523506
0.0980077 0.13569285 0.0068656616 -0.025474574 -0.065259844 0.106014006 0.22756238 0.11908577
0.04695164 0.022337925 0.14022942 0.12216137 0.015064752 -0.178484 -0.062934734 -0.0774006
-0.33853772 -0.11140956 -0.10747982 -0.19078557 -0.037950974 0.037519254 -0.009253605 -0.14635503
0.04249 0.026914148 0.15200646 -0.0543981 -0.11853472 -0.0677273 -0.06946904 -0.07081013
-0.09711704 -0.033045396 -0.0653714 0.09870467 0.14544281 0.20501342 0.049330786 0.0008942639
0.03729882 0.05282482 0.09721456 -0.02767911 0.049985386 -0.104404464 -0.1071313 0.001373072
-0.13693024 -0.24599569 0.020334415 0.086194865 -0.0771885 -0.21747419 -0.11847292 -0.07448775
-0.06249336 -0.18193069 -0.09974215 0.027654484 0.025817122 0.08733725 0.04728784 0.07643083
0.17344147 0.20827682 0.2580352 -0.09247381 0.052637424 0.0454081 0.15668817 0.07868531
-0.09715474 -0.069291286 -0.08208116 0.029189438 -0.042829625 -0.055695392 -0.13374944 -0.26724577
-0.16193569 -0.033355605 -0.0854851 0.03651159 -0.0023672117 -0.097893514 0.15651976 0.16123943
-0.2244383 -0.11286911 0.07785644 0.1012995 0.15311931 0.04521723 0.028405746 0.06341996
-0.084188595 -0.020764302 -0.00988941 -0.07786908 0.102716975 0.002194309 0.01206668 -0.18829569

conv4.bias f4 [32]
00000000: b9a4 53bd ad1f 433c 7d91 bdbc 7bfd 6abc
00000010: 2752 dabd 5cfc 16bd d0f2 d7bc b9b4 87bd
00000020: be3f 90bd 126c ddbb 8043 69bd 56f3 15bd
00000030: c140 70bc e721 4e3d 384d 29bc 8734 d53b
00000040: 7036 18bd 52a1 f1bb 61b4 5cbd 87cc 0dbd
00000050: e9e6 95bd 9358 22bd 9657 9cbc 98ce 3dbd
00000060: 62c4 fcbc 2ee5 a2bd c10a 72bd 7ce5 e6bd
00000070: 7996 a5bd 4d2c 16bd 3e10 47bc 87b1 88bd
-0.051670764 0.011909408 -0.023140663 -0.014342661 -0.106602006 -0.036861762 -0.0263609 -0.06626267
-0.07043408 -0.0067572678 -0.05694914 -0.036609016 -0.014663876 0.0503253 -0.010333352 0.006506506
-0.03716129 -0.007373967 -0.05388296 -0.03461888 -0.07319433 -0.039635252 -0.019084733 -0.0463396
-0.030855361 -0.07953869 -0.059092287 -0.112742394 -0.08085341 -0.036663342 -0.0121498685 -0.06674486

conv5.weight f4 [32, 32, 5, 5]
00000000: 52ff 6dbd 6023 1abd c9a3 e53d 6f00 113e
00000010: 440a 063e a02c 39be c7c4 ccbc 2ae5 833c
00000020: a7a7 b03c 7bb3 c93c d46d 2ebe 178f 45bd
00000030: 5484 45bd 1976 98bd 7c00 89bd 7e82 cebd
00000040: 2a6e 143e bfa5 343e 1885 0bbc cec3 233d
00000050: 723b 5ebd 5d40 4b3c 58f2 7e3c 6046 2a3b
00000060: 1946 16bd eac5 05bb 9836 943d 2264 eabd
00000070: b81a f5bc 4b26 f0bc 2ddd 2ebe ffdf 05be
00000080: 2345 c5bd 5ee4 89bd 081a c2bd bded 4ebe
00000090: 4be0 2fbe 8dd1 06be 3eb5 07be dd5e 52bd
000000a0: 7a11 cebc 1d96 b3bd 40d3 2fbd 08ec 0dbd
000000b0: 50ac 7cbd 1bba 24bd 45d3 fcbd bcb8 17be
000000c0: db8a 71be 7841 3bbe 75c6 693d b7f9 f03c
000000d0: cb53 de3d d59f 183d 83ca 753c 2942 85bd
000000e0: 7b70 6f3d c32f cd3b f49f 763d 5c94 713d
000000f0: 3725 a0bd d1bd febc fdeb dcbd 38b1 073c
00000100: 9355 9dbc 7179 d9bc 39b8 a8bd 2535 afbd
00000110: ee39 aabd 6c10 163d 1207 5b3b 650b 09be
00000120: 31f8 eebd f72b dc3b fabc af3d b3ab a03c
00000130: 6423 3e3d 0175 acbc 7536 3dbc fed2 2dbd
00000140: 838a 4d3c 2942 98bc 80b0 543c b329 0f3c
00000150: 4287 80bc 11c7 9d3d 7c67 81bd a19e b3bd
00000160: 2a6e f8bd ba09 cdbc c48f 0d3d b785 25be
00000170: f477 1dbe 2b6c 96bd 0978 bcbd a0f0 9f3d
00000180: 4447 3bbe 33f4 7fbe 3d22 7eba f114 1bbe
00000190: 1ed4 343e 4f0d 493d 3aef 233c 6f8b 963d
000001a0: 29ef c23c e018 33bd 3ffd f63c cd43 b23b
000001b0: d999 c13c 6875 64bd 8f63 55bd 2839 5dbd
000001c0: 5473 29bd ca53 b7bd 4da7 b6bd be2f 32be
000001d0: 87a7 6d3d 3b7c 2e3d b2a9 b3bd d2c1 733d
000001e0: 0b77 dbbd d954 283e 31d0 9b3d 620e 283d
000001f0: 41e9 3bbd fa5c fb3b 1554 883d c7e7 3b3c
00000200: 622b 7b3d d342 463d 8ce4 c13c f472 6cbd
00000210: 9728 393d c592 3a3d 4b71 af3c 4528 a1bd
00000220: c623 b7bd a145 a1bc cb4c 92bc 73e4 d73d
00000230: 0280 04be 4acf e4bd 235e 44be f18e 19be
00000240: ec2a fbbd d112 65bd 1762 73bd 7e54 5dbe
00000250: 6d5b cabd 4b3e 0d3e 4c01 97bb 9a2d e13d
00000260: 5210 f6bc 22df dcbc 42b2 203d c2f2 f1bc
00000270: e23a 0ebd 951f c5bd dd07 acbc 8209 3cbd
00000280: a87e e2bd d848 19be e739 50bd d384 2bbd
00000290: 6994 87bd 4ea1 85bd e9d9 00be 8975 97bd
000002a0: d95f d6bd 582f cebd 27e4 7abd 80a1 16be
000002b0: 59d0 3fbe 413f 1cbe e454 1dbe 68e8 00bd
000002c0: 20d3 983c ec8d bb3d 85cc e73d 021c fa3d
000002d0: 11f7 acbd adae 10bd 1ad8 5cbd 9bff 31bd
000002e0: d6cb c63d 183a 3b3d ad63 ad3d 1896 cd3d
000002f0: 5a06 783c 6ede 033d 9be8 e8bd 3860 9a3d
00000300: efb2 c43d fd13 d63c 6826 363c 9cc1 85bd
00000310: fc28 24bc 199b f33d 1389 d83d afb2 873d
00000320: ee2b a13d cbe9 ea3d 579c dd3d a3ea 533d
00000330: 5d7f 38bb 0684 403d edb0 573d cee0 0c3e
00000340: f8d2 a03d 50ed cdbc 2548 ae3d fc53 2b3e
00000350: 82e8 dd3c d20f 133d da27 85bd 560d 1a3d
00000360: 3add a43d 49bb 2dbd 45c6 6cbc 493d 8abc
00000370: 5c6b 853c 7e2e 14bc 508a 88be e9c2 133e
00000380: 82e3 1fbe e31a 4cbd cc03 ff3d d300 6dbc
00000390: 0add d3bc 3721 3b3d 6b59 bc3c 6996 4b3b
000003a0: 4bdf 92bd 67aa 973d ca76 b53c 518b c1bd
000003b0: 1315 7ebc 3a30 56bd 9805 ccbc e5ad 99bd
000003c0: cd25 82bd 61d8 3cbe d4f6 63be 6552 52be
000003d0: d2fd 25be 16f1 e6bd d420 39be fab8 aabe
000003e0: e865 34be 2232 9bbd 414b cbbd cde7 00bd
000003f0: 6273 783b f5f2 a93c e70b df3c 816f 94bd
-0.05810482 -0.037631392 0.1121288 0.14160322 0.13089854 -0.1808343 -0.024996174 0.016100485
0.021564318 0.024621716 -0.17034084 -0.048232164 -0.0482219 -0.074444 -0.066895455 -0.10083483
0.14495149 0.17641352 -0.008515619 0.039981656 -0.05425591 0.012405482 0.015560709 0.0025981888
-0.036687944 -0.0020412155 0.072369754 -0.1144488 -0.029919967 -0.029315135 -0.1707656 -0.13073729
-0.096323274 -0.06733011 -0.09477621 -0.20207877 -0.17175405 -0.13165875 -0.13252732 -0.05136
-0.025154818 -0.08768866 -0.042926073 -0.034648925 -0.061687768 -0.040216547 -0.12344984 -0.14816564
-0.23588125 -0.18286693 0.05707403 0.029415948 0.10855826 0.037261803 0.015001896 -0.0650676
0.05845688 0.006261797 0.060211137 0.058979377 -0.07819598 -0.03109637 -0.10787199 0.008281998
-0.019205844 -0.026547166 -0.08238263 -0.085550584 -0.083118305 0.036636755 0.0033420962 -0.13383253
-0.116684325 0.006719108 0.08580966 0.019613123 0.04642047 -0.021051886 -0.011548628 -0.042437546
0.012545231 -0.018586235 0.012981534 0.008737969 -0.015689496 0.077039845 -0.06318566 -0.087704904
-0.12130387 -0.025029052 0.034560934 -0.1616429 -0.1537779 -0.0734485 -0.092025824 0.078095675
-0.18288904 -0.24995498 -0.0009694433 -0.15144707 0.17659041 0.049084958 0.0100057665 0.073508136
0.023795681 -0.043724895 0.030150054 0.0054402114 0.02363293 -0.05577603 -0.0520969 -0.054009587
-0.04136975 -0.08951528 -0.08918629 -0.17401025 0.058021095 0.042598944 -0.08772601 0.059511013
-0.10716065 0.16438617 0.07608069 0.04102934 -0.045876745 0.007670996 0.066566624 0.011468834
0.06132067 0.048403572 0.02366855 -0.057726815 0.045204725 0.045550127 0.021416327 -0.07869009
-0.0894237 -0.019686522 -0.017858883 0.1054162 -0.12939456 -0.1117235 -0.19176535 -0.14995934
-0.12264046 -0.055926148 -0.059419718 -0.21614262 -0.09880719 0.13793294 -0.004608309 0.10995026
-0.030037079 -0.026961867 0.0392325 -0.029534701 -0.034724124 -0.096251644 -0.020999843 -0.045907505
-0.11059314 -0.14969194 -0.05083647 -0.041874718 -0.06620104 -0.06524907 -0.12583126 -0.07395465
-0.104675 -0.10067624 -0.06125274 -0.14710045 -0.18731822 -0.15258504 -0.15364414 -0.03147164
0.01865536 0.09157929 0.11318306 0.12212373 -0.08445562 -0.035322834 -0.053917028 -0.043456655
0.09706847 0.0457097 0.08466277 0.10038394 0.015138233 0.032194547 -0.11372491 0.075378835
0.096044414 0.026132578 0.011117555 -0.06531069 -0.010019537 0.11894817 0.1057302 0.06625878
0.07869707 0.11470374 0.10820835 0.05173744 -0.0028152086 0.047000907 0.052658964 0.13757631
0.07852739 -0.025137573 0.08509854 0.16731256 0.027088407 0.03590376 -0.06501742 0.037610374
0.08050008 -0.042414937 -0.014451568 -0.016874926 0.016286545 -0.009044288 -0.26668024 0.14429821
-0.15614131 -0.04983033 0.12451896 -0.014465529 -0.025862236 0.045685973 0.022991857 0.0031064993
-0.07171496 0.074055485 0.02215137 -0.094504006 -0.015507954 -0.052292086 -0.024905011 -0.07503871
-0.06354866 -0.18441917 -0.22262126 -0.20539244 -0.16210106 -0.11276452 -0.18078929 -0.3334425
-0.17616999 -0.075779215 -0.09926463 -0.031471062 0.003791057 0.020745734 0.027227355 -0.0724783

conv5.bias f4 [32]
00000000: 2d64 fc3c a77e 84bd d1cb b8bd 022f 2b3d
00000010: 2095 82bd f26a 2ebd 9b31 733d 388a dabc
00000020: 836a 21be 7de5 84bc fe52 c33d ae76 4d3d
00000030: 0101 71bd 2ff8 9b3d c638 0e3c 3067 133c
00000040: e914 913d 232a 1ebd 5750 fb3c d4d1 c9bc
00000050: bca7 5d3d 8267 333d 21db d23c 807e b3bc
00000060: a77a 413d 552c fbbc 174c bcbd e855 673d
00000070: 21e3 96bd 3851 edbc c9fc 19bd 13f6 abbd
0.030809486 -0.064694695 -0.0902325 0.041792877 -0.063760996 -0.04258246 0.05937348 -0.026677236
-0.15763287 -0.01622271 0.09537314 0.05016201 -0.058838848 0.07615697 0.008680528 0.00899677
0.070840664 -0.038614403 0.030677957 -0.024636187 0.054115042 0.043799885 0.025739254 -0.021910906
0.04723611 -0.030660788 -0.091942005 0.05647841 -0.0736754 -0.028969392 -0.03759459 -0.08396544

conv6.weight f4 [32, 32, 5, 5]
00000000: 45cb 3fbd b4a8 a9bb 818b 4bbc 8a9e 1e3d
00000010: 1866 083c d28b 6bbc 9dbb 30bc 1501 bf3c
00000020: 7a60 243d 5ae3 4dbd 51c8 a73c 729b 993c
00000030: bd74 e23c d12f 09bc 4d0e fcba ac86 42bc
00000040: 3e61 98bc 6da4 2e3d 1e6e 8d3c 4952 343c
00000050: e9b2 01bd 969e 2ebd 0e74 43bb d95f 11bc
00000060: 2116 febc 79bf 97bd 1e91 c83d a891 133c
00000070: b85b 71bd 307a e73c 15eb 8f3d 4b31 01bc
00000080: 1482 ab3d 4626 89bc 6c73 443d 99ad 1a3e
00000090: 9671 153e b03c 32bc 34d5 053d 9e45 a73d
000000a0: c626 f63d 6a7e 003d 8d4f ca3d 2bde 01bd
000000b0: 4061 903d a1f1 073e 57f3 1e3e a050 1d3e
000000c0: fbd9 ce3d b63f ac3d c0d0 eebc 69a4 14be
000000d0: a43f 073e aca0 e13d 34f0 703c fea3 80bd
000000e0: f6a7 7dbd 5ecc 9cbc 0559 0cbd e442 873b
000000f0: de6a 16bd 679e 563d ed23 253e 9d7e 163d
00000100: c3f7 4bbd c07b 14bd 0d74 8cbd 7bb5 d23c
00000110: 7009 25bd f371 50bd 9e0c 113e 63ae a43d
00000120: b1a7 183d 4a3f 493c e67d 873d 3643 49bd
00000130: 1177 7bbd b775 89bd a210 a7bd 7753 09bd
00000140: 765a 47bd 8646 513b a2d7 b63d 406c f8bb
00000150: 328a 40bd 1751 b0bd a3ad 3a3d f725 c13d
00000160: c70c b03d 7fa8 613d 642a 433d d732 ae3c
00000170: 1421 b63d a5f4 ae3d c423 eb3d dfee f23d
00000180: 431a b13d 72de d0bc 9de5 98bd 9f39 a5bd
00000190: f5a4 17ba f104 e7bd 7d99 653d 942e 893d
000001a0: 0832 1bbd 5632 16bc 156d a1bc 8e84 153e
000001b0: 8ec9 333e 5192 3d3e f5ff 71bd 54a5 eabc
000001c0: 2c86 a0bd 6816 94bd 38cf 07bd b4a5 87bd
000001d0: 8642 bfbc e318 32bd 32bc 563d c7ab 4f3c
000001e0: 8225 18bd 0b2e dfba 7e3b 21be 859b c33d
000001f0: b0d2 d63d 924d c23d cc4f 083e 23e6 123d
00000200: 5c99 6a3c f630 133d 06a1 4dbc a8bd 653b
00000210: 670b 45bc 4d67 c53d c851 643d 427f 823d
00000220: 4669 693b 0dc6 bcba 5292 863d 1257 84bc
00000230: ec75 1e3e 78c5 973d 1b8c 403d a064 a43d
00000240: 64b6 b53d cd3d 8d3d 82cc a23d 9c94 973d
00000250: a557 cc3d ac2c d13d 3a33 903d 1534 9dbb
00000260: 4d1e 31bd d810 243d 9383 3b3d cd64 94bd
00000270: 5752 d5bb d28f 1abd c101 d7bd 9be9 133c
00000280: 1768 3abc fbfc 8f3d 02dc a03b c40f 3cbd
00000290: 91a0 4b3d a4bb adbc 8b4c 383d be60 af3d
000002a0: 31c7 f13c 8638 da3d 319b df3d 8815 e13c
000002b0: 19a3 39bc 9701 f5bb 9b34 85bc 6e02 2abd
000002c0: c7d6 ecbd 2b9a 18be e639 a4bd 5512 743c
000002d0: 828b a9bd e3db 84bd 6cb2 0dbd a3b6 c03b
000002e0: db51 873d 3add a4bc 6dae a9bd 7946 05be
000002f0: 963a 33bd dca5 7b3e ceaa dd3c b697 debd
00000300: 353d 30bb 1684 3d3d de75 6a3d 4820 1dbc
00000310: b130 adbd b3be d93d 5f78 893c 4c61 c33c
00000320: 148a 0bbd 6d7d 8ebd f99a 47bd f5b8 c5bd
00000330: 87d4 d8bd 32fb e23d 0be9 45bb 6c04 6f3d
00000340: 808a a7bc 2fef 1ebe ceb4 963d 0069 4abd
00000350: c3af 053d 4f31 8cbd 4777 12be 88c3 863e
00000360: 9bc8 8f3e 6bee 1e3e 97e4 fc3d 51fd f0bc
00000370: 360e 643e 3367 773e 6c1e 3d3e 2a2b 203e
00000380: 88c4 d93d f9ad 603c 55b3 b6bd 9f60 1dbd
00000390: 9e88 d8bd f8ca 77bd 3067 c2bb 735c 97bd
000003a0: 06ab 35bd 6421 84bd 0df3 353d 7274 a63d
000003b0: 3928 babd 4df0 00bd ff0f 013d 165e 093e
000003c0: 6c13 cabc b2bc d1bd d5c2 48bd 330f 6abc
000003d0: d65c ce3c e6c2 aa3b c26b 92bc 8c98 f33c
000003e0: d828 b93d f46f d23c 7efb d2bd d4a4 86bd
000003f0: 789a 933c 4278 5d3d 880f 753d a255 cfbd
-0.046824712 -0.0051775817 -0.012423397 0.038725413 0.008325122 -0.0143765975 -0.010786918 0.023315946
0.04013107 -0.050265647 0.02048126 0.01875088 0.027643556 -0.008373217 -0.0019230336 -0.011872929
-0.018601056 0.042637277 0.017264422 0.011005946 -0.031664763 -0.042631708 -0.0029823813 -0.0088729495
-0.031016411 -0.074095674 0.09793304 0.009006895 -0.05892536 0.028256506 0.0702726 -0.0078852875
0.0837442 -0.016741883 0.047961637 0.15105285 0.14594111 -0.010878727 0.03267403 0.08167575
0.12019114 0.031370558 0.09878454 -0.031706017 0.07049799 0.13275768 0.15522514 0.15362787
0.1010017 0.084105894 -0.029152274 -0.14515842 0.1320787 0.11016974 0.014705706 -0.06281279
-0.06192776 -0.019140419 -0.034264583 0.004127847 -0.03672301 0.052397158 0.16126986 0.03674184
-0.04979683 -0.03625083 -0.068580724 0.025721302 -0.040292203 -0.05088992 0.1416497 0.08041074
0.037269298 0.012283156 0.0661581 -0.049136363 -0.061392847 -0.067119054 -0.08157469 -0.033526864
-0.048670255 0.0031932904 0.089278474 -0.007581264 -0.047006793 -0.08609217 0.04557575 0.09431069
0.08596187 0.05509233 0.04764785 0.021264477 0.08893028 0.08542756 0.11481431 0.11861967
0.08647587 -0.025496695 -0.0746567 -0.08067631 -0.00057847734 -0.112802394 0.05605458 0.06698337
-0.03788951 -0.009167274 -0.019705335 0.14601347 0.17557356 0.18512847 -0.05908199 -0.028643288
-0.07838091 -0.07230836 -0.033156604 -0.06623402 -0.02334715 -0.043480765 0.05242557 0.012675232
-0.037145145 -0.0017027272 -0.1574535 0.09551147 0.10489404 0.094874516 0.1331169 0.035864007
0.01431879 0.035935365 -0.012550598 0.003505567 -0.012026644 0.09638844 0.055742055 0.06371929
0.0035615726 -0.0014402285 0.06570877 -0.0161548 0.15474671 0.07410711 0.047008615 0.08027005
0.08872679 0.06896553 0.07949163 0.07401392 0.09977654 0.102135986 0.07041021 -0.0047974684
-0.043241788 0.040055126 0.045779776 -0.07245789 -0.00651006 -0.037734814 -0.104983814 0.009027864
-0.011377356 0.07030674 0.0049090395 -0.045913473 0.049713675 -0.021207638 0.044994872 0.08563374
0.029513927 0.10655312 0.10918272 0.027476087 -0.011330389 -0.007476996 -0.016260436 -0.041506223
-0.11564403 -0.1490256 -0.08018856 0.014896949 -0.08278562 -0.064872526 -0.034593984 0.005881147
0.066074096 -0.02012502 -0.08285222 -0.13015164 -0.043757044 0.24574989 0.027058985 -0.1086878
-0.002689195 0.046268545 0.057241313 -0.009590216 -0.08456553 0.10632076 0.01678103 0.023850106
-0.03406723 -0.06957517 -0.048731778 -0.096544184 -0.105874114 0.11083068 -0.003019872 0.058353826
-0.020451784 -0.15520929 0.073587045 -0.049416542 0.032638323 -0.06845342 -0.14303313 0.26321054
0.28082737 0.15520637 0.123482876 -0.029417666 0.22271046 0.24160461 0.18468636 0.15641466
0.106331885 0.013713353 -0.089209236 -0.038422223 -0.10572933 -0.0604963 -0.005932711 -0.0739068
-0.044352554 -0.06451681 0.044421244 0.08127679 -0.09089703 -0.03147917 0.031509396 0.13414797
-0.024667464 -0.10241069 -0.04901393 -0.01428585 0.025190752 0.005211222 -0.017873649 0.029735826
0.090409935 0.025688149 -0.103018746 -0.06574407 0.018017992 0.054069765 0.059829265 -0.10123755

conv6.bias f4 [32]
00000000: 1cbb ecbd c91d 69bd 1b6b 873c 2267 9b3c
00000010: 4a5c f6bc a0d4 70bd 3728 903d c8c4 b2bd
00000020: 5cc7 b33c ad60 c6bd e9ea d4bc 098e 9fbd
00000030: 656f abbc 5047 7d3d 1328 233c a761 81bc
00000040: 9f95 3dbe 5210 44bd 44cf e73c e627 9c3d
00000050: 00a0 9fbd 1e5d c13b b76a 30be 7423 29be
00000060: 1ec9 b83d c8d1 3fbe a5e0 a7bc 5ff4 0b3d
00000070: 2f11 9fbd 2578 b2bd c18c ddbd c0ab 7ebd
-0.11559126 -0.05691317 0.016530564 0.018970076 -0.030073304 -0.058796525 0.070389204 -0.08728939
0.021945648 -0.09686408 -0.02599092 -0.07790763 -0.02092714 0.061835587 0.009958285 -0.015793635
-0.18514107 -0.047867127 0.028297074 0.076247975 -0.077941895 0.005900993 -0.17228208 -0.1651743
0.09022735 -0.18732369 -0.020492861 0.034168597 -0.077669494 -0.08714322 -0.10817862 -0.062175512

conv7.weight f4 [32, 32, 5, 5]
00000000: 6dfd 8abc 56e0 a13b e908 13bd 0ba8 da3a
00000010: f60f 4dbc c789 003d 5a16 50bc 72a5 81bc
00000020: 7321 aabb 3532 afbb b55d 57bd ad20 20bd
00000030: 1b11 e1bd 3c64 94bd 0f1c 6cbd f3d7 5abd
00000040: 5874 e0bd ead3 0dbe cfdd 02be 70ab 8ebd
00000050: 8067 31bd 9a63 ce3b 8a50 cdbd 5fea 80bd
00000060: 1d68 80bd 9abf bebd f99e c7bc 6f3a f93b
00000070: 18ee 6bbc 9bb1 303b 881c 0fbe fc61 40bd
00000080: e851 dabc 1269 003d 06a1 a93c 1829 50bd
00000090: 20e3 c5bc ffad 76bd b9a1 773d f053 c33c
000000a0: 6a72 c6bc 7877 54bd 4b75 d43c 438b 5b3d
000000b0: 7064 263d 1096 0c3d 5d88 503d 6a33 423c
000000c0: b49b 4b3d 72b1 9c3d 71e1 b7bd e4ca 35bd
000000d0: 7cf6 3b3c 34fa b93d 2682 b83d 03eb e4ba
000000e0: c94a 75bc b93c 47bd 3f66 91bd c353 68bd
000000f0: 31cb 83bd 43f8 a83c 54ad 90bd 45db 32bd
00000100: 1ba1 aebc 89ae 10be 62ea 9ebd 842d 74bd
00000110: aff9 bdbc 64a0 82bd 23a7 37bd ba3b e4bc
00000120: ef51 dbbd ce7c 27bd 009b 2abd 7cd6 c7bc
00000130: 797c 93bc 438e 87bd 6f7d ae3a a808 03bd
00000140: d3f1 93bb 51fe 82ba ceff 97bd 9624 e0bd
00000150: 5992 fcbd bb2b af3c d5f2 803c 3f40 84bd
00000160: 99f1 48bd 8271 f6bd 5421 07bc fab3 30bc
00000170: 44ed a13b a52f a1bd 18c4 92bd de6b 8ebd
00000180: 17f8 8cbd f3ce adbd f57e 46bd 8d90 c4bc
00000190: 2158 a43c 2c43 b7bc 3921 78bd b122 dfbd
000001a0: ef70 d6bd c9e0 8bbc 1cd0 54bd b6cc 61bd
000001b0: cc66 1bbe 0037 aabd 008c 8dbc a18a 90bd
000001c0: 89c8 75bd a936 13be 1edd 43be 20d5 34bd
000001d0: 0198 71bd 20ee a8bd 3ee0 0abe ccf8 74bd
000001e0: c540 f03c 36d6 50bd 35e0 feba f52a 22bd
000001f0: c9c8 543d b98e 64bd 6339 d4bc b54b cbbc
00000200: be1c 983c 52e3 463a 4191 91bd ca6a b5bd
00000210: 7c2a f2bd 7fea 02be a746 98bd d1e0 6dbd
00000220: 34f6 a6bd 09ff 18be 9ac5 37be b4e1 fdbd
00000230: 7980 e0bc 87f6 3dbd a191 b2bd 0970 86bd
00000240: 092f e4bd 8163 933c 8d6b 40bd 019c cfbc
00000250: e2d7 85bd affd 6cbd 5604 943c 9276 0cbd
00000260: 3233 643c 56fd 5dbd 0211 19bd f393 54bd
00000270: f2f1 393c 88d0 1c3d 14f3 013d 29a7 9b3d
00000280: 875f acbd 8c87 f2bc 43d9 bebc d9f0 cebd
00000290: f2dc cabc cb04 49bd 30eb 783d df05 3d3c
000002a0: 8dff 77bd 9492 c0bd d014 26bd 37f6 53bd
000002b0: c53c 273d 14e2 ed3b 54a2 28bd ac7e c7bc
000002c0: 0349 6ebd e484 f2bd 16b2 1cbd ab12 91bd
000002d0: 4f38 a63d e2e2 983d 88a3 09bd a5f0 90bd
000002e0: 8404 2f3c 65fc 393d f8cf 183d 0282 023d
000002f0: 82c2 5f3d 83cc 3d3d d96b c83d 1b5e 5f3c
00000300: c99f 4c3d bf02 2f3d 67d6 363d b723 633d
00000310: 1286 323d abe6 773d 5b95 cd3c 63e2 bb3c
00000320: 54e9 e6bc c4c1 29bd abe1 5ebd bcdc 1bbc
00000330: d117 f1bb ff4e 123c e107 41bd 31f5 79bd
00000340: feeb 913c c62f f1bc 1375 58bd 79d2 13bd
00000350: 10be 20bd 2307 90bd 1a99 2bbd 64c0 043b
00000360: 7ec4 1d3d 553f 10bd 5cf5 febc 1761 52bd
00000370: c0f8 8c3b 3582 5fbc c49a 03bd eeba 70bc
00000380: 4d5f 73bd 2dca 42bd 9121 a23c 3696 2d3d
00000390: 5481 a0bc 25e0 67ba 79d7 78bc c03d 433d
000003a0: f607 df3c aa46 5bbc 9f35 f4bc 3603 883d
000003b0: 0371 bb3d 744a 053d 4396 02be a48e fbbd
000003c0: c604 8c3d c006 e03d bee3 bb3d 7c3b 82bd
000003d0: adbb 5abc 5e57 613d 9f6c 8a3d 399d 8d3d
000003e0: e45e bb3b d841 14bc 766e 10bd dbb8 f1bd
000003f0: 08dc 6cbb 88a0 123c 8ae5 7abd 15a4 6bbd
-0.016966546 0.004940073 -0.03589717 0.0016682161 -0.012516012 0.031381395 -0.0127006415 -0.01582596
-0.0051919757 -0.0053465613 -0.0525796 -0.039093662 -0.10989591 -0.07245681 -0.057643946 -0.0534286
-0.10959691 -0.1385037 -0.12779926 -0.06966293 -0.043311596 0.0062984945 -0.10025127 -0.06294703
-0.06269858 -0.09313889 -0.024367796 0.007605843 -0.014400028 0.002696133 -0.13975728 -0.046968445
-0.026650384 0.031350203 0.020706665 -0.05082044 -0.024156153 -0.06022453 0.060456965 0.023843735
-0.024224479 -0.051871747 0.025934836 0.053599607 0.04062313 0.0343228 0.050911296 0.011853078
0.049709037 0.076510325 -0.089785464 -0.044382945 0.011472341 0.090809256 0.09009199 -0.0017465058
-0.014971443 -0.048641894 -0.0709958 -0.056720506 -0.0643524 0.020626193 -0.0706431 -0.043666143
-0.021317055 -0.1412908 -0.07759549 -0.05961372 -0.023190347 -0.06378248 -0.04483713 -0.027860511
-0.10708987 -0.040890507 -0.041651726 -0.024394266 -0.01800369 -0.06618931 0.0013312529 -0.031990677
-0.0045149117 -0.0009994005 -0.07421838 -0.10944478 -0.12332601 0.021383157 0.015740791 -0.064575665
-0.04905853 -0.12033369 -0.008247692 -0.010785097 0.0049416143 -0.078704156 -0.07166308 -0.06954168
-0.06883257 -0.08486738 -0.04846092 -0.023994708 0.020061554 -0.022370897 -0.06057856 -0.10895289
-0.10470759 -0.01707496 -0.05195628 -0.05512687 -0.15175933 -0.08311272 -0.017278671 -0.07057691
-0.0600057 -0.1437632 -0.19127318 -0.044148564 -0.058982853 -0.08248544 -0.13562104 -0.059807584
0.02932776 -0.050985537 -0.0019445481 -0.03959175 0.051949296 -0.055800173 -0.02590627 -0.024816373
0.018568393 0.0007586974 -0.07107783 -0.08858259 -0.118245095 -0.12784766 -0.07435351 -0.05807573
-0.08152428 -0.14941038 -0.17946473 -0.12396565 -0.02740501 -0.046377685 -0.08719183 -0.06564338
-0.11141784 0.017991783 -0.04697757 -0.025342943 -0.06535317 -0.05785912 0.018068474 -0.034292765
0.013928222 -0.054196678 -0.037369736 -0.051898908 0.011349188 0.03828481 0.031725958 0.07600243
-0.08416658 -0.02960565 -0.023296958 -0.10104532 -0.024763558 -0.049076837 0.060771167 0.011537044
-0.060546447 -0.094029576 -0.040547192 -0.05174848 0.04082944 0.0072596166 -0.041170433 -0.024352394
-0.0581751 -0.11841753 -0.038255773 -0.07083639 0.08116209 0.074651495 -0.03360322 -0.07077149
0.010682229 0.045406718 0.03730771 0.031862266 0.054628856 0.046337616 0.09786195 0.013633276
0.04995707 0.04272723 0.044638064 0.055453982 0.04358489 0.060522716 0.025095632 0.022935098
-0.028187431 -0.041444555 -0.054414432 -0.009513076 -0.0073575755 0.008929967 -0.047126655 -0.06102485
0.017812725 -0.029441725 -0.052846026 -0.036089394 -0.039243758 -0.07032611 -0.041894056 0.0020256275
0.038517468 -0.035216648 -0.031122856 -0.051362123 0.0043021142 -0.013641884 -0.032130018 -0.014693005
-0.059417058 -0.04755609 0.019791396 0.04237958 -0.019592918 -0.0008845351 -0.015188091 0.04766631
0.027225476 -0.013383547 -0.029810725 0.066412374 0.09152415 0.032541707 -0.12752633 -0.12283066
0.06836848 0.109387875 0.09174298 -0.06359002 -0.013350409 0.05501496 0.06758999 0.069147535
0.005718099 -0.0090489015 -0.035261594 -0.118028365 -0.003614189 0.008949406 -0.06125406 -0.057529528

conv7.bias f4 [32]
00000000: a84b 16be 45ee 11be 335a 04bd 3c99 013e
00000010: 8724 253e 0e70 82be 329e 013e fee5 d73c
00000020: 0fd6 d9bd 27a7 12be 3551 cebd 2453 033e
00000030: a4d0 313e 2dbd 2b3e 54f4 dd3d 0cfe 173e
00000040: 89fe 953d 9b88 a8bd 47aa 073e b58f 343e
00000050: e99e da3c b7e6 883d 7609 9a3d 6cbc c43d
00000060: 9697 f73d a8c0 f13c 6491 f03d 75dd d83d
00000070: 86e0 b23c 8762 793d 38e7 c93c d977 08bc
-0.14677298 -0.14251049 -0.032312583 0.1265611 0.16127215 -0.25476116 0.12658003 0.026354786
-0.106365316 -0.14321576 -0.10074083 0.12824684 0.17364746 0.16771384 0.108376175 0.14843005
0.07323939 -0.082291804 0.1324855 0.17632945 0.026687102 0.0668463 0.07521336 0.09606251
0.120894596 0.029510811 0.11746481 0.105891146 0.021835577 0.06088498 0.024646387 -0.008329355
