models/DQN_wb__reward_2__quantum.pth (torch, 497422 bytes, 17 tensors)

conv1.weight f4 [32, 1, 5, 5]
-0.19341464 0.18479069 -0.116235115 -0.19870305 0.041164972 -0.08276298 -0.014213085 0.052234244
-0.16638146 0.14613953 0.023662854 0.04892507 -0.17057176 -0.11045747 -0.02727728 0.030546308
-0.14183481 -0.0030918599 0.19116047 -0.13665605 0.04845972 0.04456823 -0.020513082 0.13013637
0.039809253 -0.18345165 0.17811628 -0.07084711 0.03701339 0.123342514 0.13753398 -0.15572627
-0.048721004 -0.08448496 0.08224881 -0.13264742 -0.17198412 -0.00096769334 -0.008830261 0.048300244
-0.12920442 -0.0906771 0.022493124 -0.00600791 -0.14404555 -0.15687342 -0.0073794844 0.02078147
0.12742162 0.18431914 -0.18599604 0.14167677 0.090068296 -0.15327998 0.08303857 0.022702122
-0.14256914 0.001490736 0.03548136 0.027479673 0.18929854 -0.0874022 0.06337412 0.046610404
-0.1963023 -0.013343358 -0.09675026 0.17767966 0.08092325 -0.08464029 -0.15567465 0.15811364
0.10970414 -0.14964001 -0.0066247466 0.022534156 0.15290616 -0.1736478 -0.048560906 0.06858831
0.15496726 0.15687178 0.19069432 -0.12884545 -0.18041761 0.13605666 0.08159526 0.09407647
-0.15606688 -0.18480189 -0.09939184 0.19422857 0.03512695 -0.032562282 -0.1674968 0.15404625
0.05775435 -0.124940395 -0.17541865 0.085833885 0.18779095 -0.11766322 -0.18753023 0.16486871
-0.14991526 0.023802495 -0.10134959 -0.14943348 0.18422034 -0.1558836 0.18581901 -0.099230744
0.05615456 -0.16509388 -0.1346271 -0.19854188 -0.096513346 -0.013917446 0.15917008 -0.18984778
0.025091195 -0.080796815 -0.10255428 0.101596974 -0.14682062 0.17297433 -0.021042991 0.11852007
0.16621505 -0.12607186 -0.15833826 -0.026769066 -0.039449144 0.12524688 0.19881181 -0.08538425
0.15102105 0.006779838 0.12627922 0.12371347 0.15603831 0.15303937 0.1575533 -0.040739942
-0.05809393 -0.17002825 -0.16424702 0.046125125 0.16917327 0.17329477 0.0075673345 0.026371313
0.106702305 0.19625454 -0.110822156 -0.0021926165 0.15850261 -0.105047844 -0.06223097 -0.16506489
0.0072327377 -0.03325062 0.19670753 0.15791197 0.05073438 0.19705787 -0.07844653 0.13891454
0.10105529 -0.17784594 -0.032251835 -0.00093886856 0.014281583 -0.1409695 0.17212217 -0.07815631
-0.039948013 0.062447906 0.1694529 0.10356381 0.091547206 0.13741648 0.11575396 -0.12522128
-0.09016569 -0.07950139 0.087568834 -0.056967426 0.120049834 -0.15687163 0.18438867 -0.06316783
-0.027976204 -0.012685895 0.0313251 0.08874955 -0.1056541 -0.16274838 0.04924016 -0.03794804
-0.11761413 -0.16760944 -0.18409407 -0.13227192 -0.1489191 -0.00032753946 0.17260794 -0.1961845
-0.15953949 0.16990414 0.14647324 -0.18104456 -0.17979816 -0.17297421 -0.1128701 -0.044757772
-0.043438148 0.046364 0.112644576 -0.14778428 0.06242187 0.16195099 0.055590965 0.13457327
-0.08281181 0.16754344 -0.14407587 0.10703804 0.011995435 -0.16435555 -0.0753923 -0.15917344
0.1547466 -0.0971453 -0.08318491 -0.18761118 0.03662887 -0.14943491 0.17974162 -0.17972818
0.115527414 0.14139378 0.031562664 -0.09058354 0.19966994 0.10868955 -0.035038542 0.027510716
-0.12860656 0.020360684 -0.1314048 -0.03592086 0.05509453 0.15710448 0.01475656 -0.110200144
00000000: 7d0e 46be c539 3d3e ad0c eebd d078 4bbe
00000010: 9a9c 283d a37f a9bd 00de 68bc 93f3 553d
00000020: e75f 2abe 9aa5 153e 9ad8 c13c a765 483d
00000030: 5daa 2ebe 8737 e2bd 9a74 dfbc 403c fa3c
00000040: 253d 11be cda0 4abb 92bf 433e 90ef 0bbe
00000050: b37d 463d 2d8d 363d 0d0b a8bc 7842 053e
00000060: 070f 233d c0da 3bbe 1d64 363e 4a18 91bd
00000070: 5a9b 173d 009b fc3d b5d5 0c3e b576 1fbe
00000080: ad8f 47bd 7306 adbd 1072 a83d bad4 07be
00000090: 9b1c 30be cdac 7dba cdac 10bc 7ad6 453d
000000a0: 2a4e 04be eab4 b9bd 8043 b83c 00de c4bb
000000b0: ad80 13be 6da3 20be 9acf f1bb e73d aa3c
000000c0: d07a 023e 28be 3c3e bf75 3ebe b713 113e
000000d0: ba75 b83d 6df5 1cbe 2010 aa3d cdf9 b93c
000000e0: a5fd 11be cd64 c33a e754 113d 0d1d e13c
000000f0: 7ad7 413e edff b2bd 4aca 813d 8dea 3e3d
00000100: 7803 49be 1a9e 5abc 0025 c6bd a8f1 353e
00000110: 17bb a53d e357 adbd 2d69 1fbe 8be8 213e
00000120: 90ac e03d 3b3b 19be 6714 d9bb 8d99 b83c
00000130: 6f93 1c3e bbd0 31be cde7 46bd 0778 8c3d
00000140: bdaf 1e3e ffa2 203e 5f45 433e 10f0 03be
00000150: 65bf 38be 7052 0b3e 6a1b a73d 2aab c03d
00000160: ffcf 1fbe b53c 3dbe f38d cbbd dbe3 463e
00000170: 47e1 0f3d 0760 05bd 4884 2bbe 4dbe 1d3e
00000180: d38f 6c3d c0e0 ffbd f2a0 33be adc9 af3d
00000190: 454c 403e 6af9 f0bd ed07 40be 58d3 283e
000001a0: 6383 19be 73fd c23c 6090 cfbd 1705 19be
000001b0: 42a4 3c3e f39f 1fbe 5747 3e3e 7d39 cbbd
000001c0: 5302 663d 5f0e 29be b0db 09be 904e 4bbe
000001d0: caa8 c5bd 0006 64bc 7bfd 223e 7567 42be
000001e0: 0d8c cd3c cd78 a5bd fa07 d2bd 1312 d03d
000001f0: 2558 16be 2f20 313e 5a62 acbc a7ba f23d
00000200: 4734 2a3e fb18 01be 6d23 22be cd4a dbbc
00000210: 6d95 21bd b840 003e 5395 4b3e f0dd aebd
00000220: 43a5 1a3e 6729 de3b 574f 013e 7d5d fd3d
00000230: 82c8 1f3e 5ab6 1c3e a755 213e edde 26bd
00000240: e7f3 6dbd e31b 2ebe 5f30 28be b3ed 3c3d
00000250: c23b 2d3e 2f74 313e 67f7 f73b a708 d83c
00000260: bd86 da3d f3f6 483e baf6 e2bd 00b2 0fbb
00000270: 824e 223e 5323 d7bd e7e5 7ebd c506 29be
00000280: 9a00 ed3b cd31 08bd b36d 493e adb3 213e
00000290: dace 4f3d 8ac9 493e 93a8 a0bd 9d3f 0e3e
000002a0: 13f6 ce3d 3f1d 36be 801a 04bd 671e 76ba
000002b0: 4dfd 693c 4f5a 10be cb40 303e 6a10 a0bd
000002c0: 87a0 23bd 60c9 7f3d 1085 2d3e 4319 d43d
000002d0: 1a7d bb3d e8b6 0c3e 6a10 ed3d 023a 00be
000002e0: caa8 b8bd a0d1 a2bd 4a57 b33d ad56 69bd
000002f0: b0dc f53d f5a2 20be 62d0 3c3e 235e 81bd
00000300: 5a2e e5bc 80d8 4fbc c04e 003d 53c2 b53d
00000310: 2d61 d8bd 83a7 26be 0db0 493d 676f 1bbd
00000320: addf f0bd cfa1 2bbe 2883 3cbe 4a72 07be
00000330: 407e 18be 9ab9 abb9 23c0 303e 97e4 48be
00000340: 525e 23be 5afb 2d3e 15fd 153e bf63 39be
00000350: 021d 38be 2720 31be 7028 e7bd ed53 37bd
00000360: 33ec 31bd 2de8 3d3d 33b2 e63d c354 17be
00000370: 13ae 7f3d 7bd6 253e 5ab3 633d 93cd 093e
00000380: 3d99 a9bd 8290 2b3e a088 13be c336 db3d
00000390: 8088 443c d24c 28be 4767 9abd 5dfe 22be
000003a0: e575 1e3e 1df4 c6bd da5c aabd 251d 40be
000003b0: 2708 163d 7705 19be 300e 383e aa0a 38be
000003c0: a399 ec3d 88c9 103e da47 013d dd83 b9bd
000003d0: 4776 4c3e a098 de3d 9384 0fbd 275e e13c
000003e0: 70b1 03be 73cb a63c fb8e 06be c021 13bd
000003f0: cdaa 613d ffdf 203e 80c5 713c 9db0 e1bd

conv1.bias f4 [32]
-0.036366653 -0.09575708 0.09287589 0.14586388 0.07272124 -0.19872136 -0.09623499 0.024709702
-0.17085047 0.09498777 -0.09387457 -0.16437812 0.101023935 0.19421656 -0.13464966 -0.14649646
0.11861286 0.005343962 -0.0019025803 -0.09319959 0.19677036 -0.005101466 0.13405883 0.033000875
-0.17403069 -0.08070052 0.026469423 0.015782857 -0.15620461 -0.044490337 0.043466832 -0.16189487
00000000: 33f5 14bd 4a1c c4bd b735 be3d 575d 153e
00000010: e0ee 943d 9d7d 4bbe da16 c5bd 006c ca3c
00000020: 6df3 2ebe f388 c23d 5041 c0bd bd52 28be
00000030: a3e5 ce3d b5e0 463e 9ae1 09be 2b03 16be
00000040: 4deb f23d 671c af3b 0060 f9ba 6ddf bebd
00000050: 2b7e 493e 332a a7bb b846 093e ed2b 073d
00000060: 1a35 32be 5046 a5bd 67d6 d83c 0d4b 813c
00000070: 1af4 1fbe 803b 36bd 470a 323d c5c7 25be

conv2.weight f4 [32, 32, 5, 5]
0.02106669 -0.0069020274 0.0100237345 0.0047472315 0.025443783 0.033293787 0.011167765 -0.0027743627
-0.0016110254 0.01760685 0.031262554 0.0047044274 0.02835853 0.00025737396 -0.03202958 -0.012665719
0.010655773 -0.0032457963 -0.0007546731 0.015890863 -0.0025528348 0.00941905 0.020011675 0.024047114
-0.03097885 0.006594115 0.018680083 0.021893114 -0.023987826 -0.021332169 -0.028132888 -0.0149386395
0.005489564 0.034240384 0.0072350423 0.020335898 -0.017081296 -0.007935675 0.011588635 -0.019415233
0.03419401 0.01666341 -0.0052708853 0.005841895 0.03319328 -0.03346897 0.030508159 -0.0049472144
-0.023474043 0.033228382 0.0034904883 0.016808987 0.023675876 -0.032255802 -0.034845013 0.009699032
-0.023263473 0.011764109 0.015522449 -0.0051226714 -0.012041191 0.0038422123 -0.010207676 0.021385806
0.0073968144 -0.017218353 0.005226496 -0.019010674 0.021968983 -0.028844247 0.004013763 0.0022909385
0.015687278 -0.0042994763 -0.026401456 -0.023736313 -0.026366323 0.0018078976 -0.021628335 -0.012907207
-0.03532606 0.0037256088 0.010063395 0.024840591 -0.02063801 0.011037712 0.009505177 0.01751297
-0.027460173 0.008722232 0.01725453 0.034210604 0.0059234533 0.031348683 -0.013844427 0.030808972
0.023043912 0.008277507 -0.011781574 0.0061392155 -0.027057853 -0.002901208 0.021742038 0.010922083
-0.031078067 0.002136761 0.017815541 0.024828874 -0.02491022 -0.0066490113 0.024562035 -0.0155877555
-0.033940192 0.007788852 0.0029422168 0.004351616 0.01655809 0.022672161 0.0086906 -0.021957295
-0.0126301935 0.012970689 -0.027070906 0.01729805 0.0014068998 0.030828508 0.015131705 -0.023280539
-0.014165135 0.030515479 0.0042720637 0.009486127 0.023778848 -0.029471446 0.027137922 -0.0037384846
0.0071860044 -0.032180134 0.014982476 -0.031238895 -0.0025160236 -0.009319086 -0.018874448 0.026490496
-0.016615463 0.015725842 -0.0049415412 0.01796369 -0.033029374 0.02419222 -0.03432592 -0.014192281
0.032943044 0.011258869 -0.030876651 -0.03523999 0.017124645 0.02472019 -0.028995072 -0.032600123
-0.0174922 -0.024693565 0.032040644 -0.01564937 -0.003654288 -0.021530086 0.021076126 -0.011794371
0.032407396 -0.02060823 -0.019858854 -0.002460689 0.014338679 0.0072906716 0.016895354 -0.026306475
-0.033848394 -0.03316725 -0.021338621 -0.0016622844 -0.023067266 0.015668547 -0.015063668 0.017524745
-0.0038975216 0.005599795 0.006799998 -0.011969655 0.01480382 0.00964918 -0.035008382 0.03241672
0.017830014 0.01848992 -0.004677466 0.007011116 0.0039129644 -0.0013601294 -0.020059397 0.034442745
-0.011391337 -0.0024520447 0.028834937 0.008266005 0.00954809 -0.035306085 0.006077576 0.008596857
-0.010923907 0.009792445 0.012610144 -0.018834336 -0.013627299 -0.010356337 0.002740009 0.030900432
-0.028749702 -0.01170496 0.031975947 -0.002878141 -0.018743219 0.011242735 0.0022020086 -0.019993016
-0.00090951216 -0.004393632 -0.020539176 -0.02190277 0.019931136 0.017175369 -0.033454366 0.024536341
-0.018565279 0.026038641 -0.01018512 0.034677003 0.019232817 -0.029264009 -0.004099232 0.008315957
-0.019055517 -0.023001505 0.030925952 -0.0035357794 -0.025966927 0.0031964846 -0.0039099674 -0.032646444
-0.018398892 -0.016695669 0.024351181 -0.0019494983 -0.018339455 0.015366244 -0.0047689034 -0.030587524
00000000: 0d94 ac3c 672a e2bb 973a 243c aa8e 9b3b
00000010: 7b6f d03c 115f 083d 00f9 363c 15d2 35bb
00000020: 0b29 d3ba 3e3c 903c 2a0d 003d 9927 9a3b
00000030: 2650 e83c 26f0 8639 7331 03bd e083 4fbc
00000040: 8d95 2e3c 6db7 54bb 41d5 45ba 8e2d 823c
00000050: 764d 27bb 5c52 1a3c 86ef a33c 74fe c43c
00000060: 5bc7 fdbc 7213 d83b f906 993c 3059 b33c
00000070: 1e82 c4bc cdc0 aebc f176 e6bc 32c1 74bc
00000080: cde1 b33b a53f 0c3d ef13 ed3b 7897 a63c
00000090: 13ee 8bbc a204 02bc 42de 3d3c b20c 9fbc
000000a0: 050f 0c3d b481 883c 64b7 acbb 5e6d bf3b
000000b0: adf5 073d c216 09bd 3fec f93c 3e1c a2bb
000000c0: a34c c0bc 7c1a 083d adc0 643b 00b3 893c
000000d0: e9f3 c13c a91e 04bd a5b9 0ebd b0e8 1e3c
000000e0: 0a93 bebc 40be 403c df51 7e3c 15dc a7bb
000000f0: 6a48 45bc a0cd 7b3b 193e 27bc 4931 af3c
00000100: fa60 f23b 810d 8dbc 0743 ab3b 46bc 9bbc
00000110: 4cf8 b33c c54a ecbc e285 833b 9223 163b
00000120: 9b82 803c 9fe2 8cbb de47 d8bc a872 c2bc
00000130: 30fe d7bc faf6 ec3a e82d b1bc c078 53bc
00000140: 0fb2 10bd 5829 743b f0e0 243c 7f7e cb3c
00000150: 0b11 a9bc 85d7 343c 9abb 1b3c 5c77 8f3c
00000160: 28f4 e0bc b1e7 0e3c 5f59 8d3c 6b20 0c3d
00000170: 8719 c23b 7a67 003d bcd3 62bc 1963 fc3c
00000180: 96c6 bc3c 619e 073c 8107 41bc 792b c93b
00000190: 6ea8 ddbc 3122 3ebb 5c1c b23c 89f2 323c
000001a0: 6e97 febc e708 0c3b e6f1 913c ec65 cb3c
000001b0: 8510 ccbc f3df d9bb 5236 c93c c963 7fbc
000001c0: df04 0bbd a039 ff3b 35d2 403b 0098 8e3b
000001d0: d5a4 873c f8ba b93c 0563 0e3c c9df b3bc
000001e0: dfee 4ebc 0383 543c cec3 ddbc a4b4 8d3c
000001f0: b967 b83a 118c fc3c f9ea 773c d4b6 bebc
00000200: e214 68bc 99fb f93c abfc 8b3b b36b 1b3c
00000210: dccb c23c 1a6e f1bc 5950 de3c 5d01 75bb
00000220: 9378 eb3b 51cf 03bd 0f79 753c b6e8 ffbc
00000230: dfe3 24bb 14af 18bc 969e 9abc 9902 d93c
00000240: 271d 88bc 7bd3 803c a7ec a1bb 9728 933c
00000250: cf49 07bd c32e c63c 5699 0cbd be86 68bc
00000260: 49ef 063d 1f77 383c 08f1 fcbc cf57 10bd
00000270: fc48 8c3c ff81 ca3c 1387 edbc b587 05bd
00000280: cd4b 8fbc 294a cabc 0d3d 033d 1c33 80bc
00000290: c77c 6fbb dd5f b0bc d7a7 ac3c 2d3d 41bc
000002a0: 9ebd 043d 97d2 a8bc 09af a2bc 8343 21bb
000002b0: c7ec 6a3c 96e6 ee3b 2068 8a3c ad80 d7bc
000002c0: 9da4 0abd 62da 07bd 55ce aebc 02e1 d9ba
000002d0: 90f7 bcbc 535b 803c 9acd 76bc 0e90 8f3c
000002e0: 906d 7fbb 7c7e b73b 85d2 de3b 5f1c 44bc
000002f0: b98b 723c 9817 1e3c f364 0fbd 65c7 043d
00000300: 4010 923c 2c78 973c 6e45 99bb 81bd e53b
00000310: 5338 803b 5f46 b2ba 9b53 a4bc d613 0d3d
00000320: bba2 3abc 7cb2 20bb 3f37 ec3c 236e 073c
00000330: 986f 1c3c 1d9d 10bd 6726 c73b d5d9 0c3c
00000340: 30fa 32bc 7e70 203c c79a 4e3c 774a 9abc
00000350: 0945 5fbc a0ad 29bc b991 333b e722 fd3c
00000360: 7f84 ebbc 29c6 3fbc 36f9 023d 319f 3cbb
00000370: 618b 99bc 7333 383c 934f 103b 65c8 a3bc
00000380: 546c 6eba 75f8 8fbb c641 a8bc 706d b3bc
00000390: 9f46 a33c 5cb3 8c3c 7207 09bd 7000 c93c
000003a0: 3616 98bc fd4e d53c 7ddf 26bc 7909 0e3d
000003b0: 248e 9d3c 13bb efbc da52 86bb a73f 083c
000003c0: 511a 9cbc a76d bcbc 6c58 fd3c 89b8 67bb
000003d0: 98b8 d4bc 1d7c 513b 2f1f 80bb 47b8 05bd
000003e0: 46b9 96bc 5bc5 88bc 217c c73c 4f86 ffba
000003f0: a03c 96bc b3c2 7b3c 7644 9cbb b092 fabc

conv2.bias f4 [32]
0.021547927 0.018340303 0.002666252 0.013082813 -0.032158475 0.033631485 -0.010415334 -0.029151294
-0.032714155 -0.022663968 0.033312462 0.031245155 -0.0014387206 -0.017980032 -0.011856853 0.028878765
-0.029631216 0.030447386 -0.014564776 -0.01883783 0.020759305 0.034501273 0.03188373 -0.033638317
-0.017914712 0.007727996 -0.003539088 -0.027872758 -0.026069134 -0.034718566 -0.026718643 -0.0064001046
00000000: 4785 b03c 673e 963c 49bc 2e3b 4b59 563c
00000010: 9bb8 03bd 2bc1 093d 14a5 2abc b2ce eebc
00000020: 47ff 05bd c9a9 b9bc a672 083d d7f5 ff3c
00000030: 7493 bcba dc4a 93bc 3f43 42bc 2993 ec3c
00000040: 2abd f2bc cc6c f93c 19a1 6ebc cb51 9abc
00000050: 6b0f aa3c 3551 0d3d 8498 023d 55c8 09bd
00000060: e0c1 92bc 213b fd3b 0bf0 67bb 6955 e4bc
00000070: f08e d5bc 0e35 0ebd 0ee1 dabc f8b7 d1bb

conv3.weight f4 [32, 32, 5, 5]
-0.016877348 0.02443105 0.0031370153 0.004474904 -0.0150951855 -0.004783229 6.211603e-05 -0.03354332
-0.019155521 0.016092055 -0.03421551 0.0024333736 0.015629338 0.02220917 -0.0013185263 0.012401243
0.009790473 -0.034308452 0.018862402 -0.030890485 0.020876102 -0.011099824 -0.014690558 -0.019738646
0.022245027 0.019872338 0.027451929 0.025511004 -0.0019549353 -0.015557566 0.009367976 0.032175865
-0.002056467 0.0046982695 0.014732133 0.009327081 -0.021315213 -0.006690269 0.00069186586 0.010549863
-0.014387987 0.02292628 -0.02314907 0.033722833 -0.018175289 -0.0049139815 -0.014208065 -0.015048836
-0.028561134 0.03125735 0.021541677 0.00577521 0.029072186 -0.005720508 -0.02483356 -0.02140865
0.007989201 -0.025058208 0.026497565 -0.0038708341 -0.03206623 -0.024477357 0.0056156423 -0.025441172
-0.007861214 -0.019729009 0.020211041 -0.012705918 -0.011010898 -0.032164034 0.016747005 0.0068059494
-0.01875708 0.017863655 -0.020204049 -0.0025273864 -0.017820636 -0.029517783 0.032894358 0.01317573
-0.03374522 -0.03217342 -0.031105645 -0.02666611 0.013903162 -0.015812099 0.010529236 0.01198023
0.02923206 2.0306352e-05 -0.021973573 0.023893934 -0.005096313 -0.015444996 0.026089115 -0.006465268
-0.004388701 0.008025582 0.02845649 -0.016998056 -0.0151133295 -0.0057802508 -0.016450532 0.022909688
-0.03471267 0.029781736 -0.002485425 -0.024893094 -0.016929295 -0.007892879 0.012520109 -0.0039726947
0.021099687 0.02486977 0.024114957 -0.022478167 0.014486412 -0.030074723 0.016754612 0.025791964
-0.02890986 -0.03124859 0.023622964 -0.011201247 0.010323243 -0.025164675 -0.023909107 -0.0018982267
-0.02686651 -0.016491473 -0.032610077 -0.0013717493 -0.0031694854 -0.027786424 0.028645786 0.006434134
-0.013846336 -0.009581172 0.030967398 0.016005173 -0.011047802 0.03295018 -0.005691549 0.0038638546
0.028891046 -0.031152584 0.00014417595 0.02267815 0.018456992 0.022381559 -0.0204202 0.023495845
-0.022720756 0.009275763 0.032928094 -0.02670429 -0.002778902 -0.002981367 -0.025421627 0.013136562
0.035024237 0.0011420742 -0.033486985 0.009928803 -0.013001043 0.03509239 0.014964231 0.02211111
-0.026828604 0.000739555 0.009544475 0.010663339 0.0042279274 0.00045707836 -0.026174778 -0.03129405
0.032445084 -0.025373159 0.008953673 -0.014339075 -0.0327377 0.013619776 0.000998362 -0.025789578
0.0017292305 0.00023731205 0.005385609 0.03329745 0.009521197 0.003582811 -0.00028001945 -0.014828388
-0.021093465 0.016334843 0.027988842 0.0041972618 0.0011289202 -0.013056319 -0.02790178 0.0002493787
0.0049261996 -0.014412212 0.030164817 -0.020449748 -0.015365254 -0.0096831545 0.0040051267 0.00970502
-0.029060759 -0.0037843783 -0.033976417 -0.018487576 -0.017879942 -0.014587501 0.032664128 -0.02392745
-0.027011832 -0.022158315 0.011484802 0.0038037659 0.0011428498 0.006582061 0.035172485 0.018996425
-0.0079460675 0.009395718 -0.009441425 0.020604579 -0.017420473 -0.018229112 0.025002077 -0.031763405
0.016993294 0.031530898 0.005812287 0.013483553 -0.034023583 0.028699944 -0.011259173 -0.0146905
-0.033551306 0.026739754 -0.03408071 -0.0033291292 -0.030164847 -0.002083715 0.032738585 -0.030213788
-0.0067486 -0.017653205 0.025731828 0.0023962255 -0.029633556 -0.0053831814 0.0013501027 -0.035139937
00000000: 5d42 8abc a023 c83c 6296 4d3b 37a2 923b
00000010: cc51 77bc a2bc 9cbb 4a44 8238 b864 09bd
00000020: 0aec 9cbc 7cd3 833c 9025 0cbd 3c79 1f3b
00000030: 1909 803c 01f0 b53c 67d2 acba 952e 4b3c
00000040: 3868 203c 0587 0cbd 5385 9a3c 0b0e fdbc
00000050: 5c04 ab3c 09dc 35bc abb0 70bc f1b2 a1bc
00000060: 343b b63c 50cb a23c dee2 e03c 74fc d03c
00000070: 5f1e 00bb 29e5 7ebc 247c 193c d7ca 033d
00000080: cbc5 06bb f1f3 993b 0b5f 713c 9dd0 183c
00000090: 3e9d aebc 0b3a dbbb 555e 353a 55d9 2c3c
000000a0: 97bb 6bbc e5cf bb3c 1ea3 bdbc f420 0a3d
000000b0: 58e4 94bc 7705 a1bb f2c8 68bc 658f 76bc
000000c0: 0af9 e9bc b507 003d 2c78 b03c f93d bd3b
000000d0: cb28 ee3c 1973 bbbb c06f cbbc 3161 afbc
000000e0: 23e5 023c df46 cdbc 6c11 d93c d2ad 7dbb
000000f0: e157 03bd bd84 c8bc 6c03 b83b 016a d0bc
00000100: 52cc 00bc bb9e a1bc a091 a53c 7c2c 50bc
00000110: 0e67 34bc 6fbe 03bd 0431 893c 7104 df3b
00000120: 73a8 99bc cd56 923c f682 a5bc 82a2 25bb
00000130: 95fc 91bc 47cf f1bc 3cbc 063d 04df 573c
00000140: 6e38 0abd 47c8 03bd 44d1 febc e372 dabc
00000150: 17ca 633c 6088 81bc d182 2c3c ba48 443c
00000160: 1378 ef3c 8f57 aa37 ec01 b4bc 36bd c33c
00000170: f9fe a6bb 020d 7dbc d7b8 d53c 99da d3bb
00000180: 18cf 8fbb bb7d 033c 961d e93c 823f 8bbc
00000190: e69d 77bc 4268 bdbb 44c3 86bc 19ad bb3c
000001a0: df2e 0ebd d4f8 f33c 83e2 22bb 9aec cbbc
000001b0: 4eaf 8abc 2251 01bc 2521 4d3c 612d 82bb
000001c0: 40d9 ac3c b0bb cb3c bb8c c53c 2224 b8bc
000001d0: 6a58 6d3c 445f f6bc f840 893c ab49 d33c
000001e0: 5fd4 ecbc 0bfd ffbc f284 c13c 6f85 37bc
000001f0: d222 293c 2626 cebc 08dd c3bc ebcd f8ba
00000200: 2817 dcbc 2019 87bc 2592 05bd 45cc b3ba
00000210: 24b7 4fbb 5ba0 e3bc 91aa ea3c 6ed5 d23b
00000220: bedb 62bc 59fa 1cbc 57af fd3c 481d 833c
00000230: d701 35bc c5f6 063d 2c80 babb b938 7d3b
00000240: eaac ec3c b433 ffbc f02d 1739 87c7 b93c
00000250: 1e33 973c 8859 b73c 4348 a7bc 5c7a c03c
00000260: e120 babc 5ff9 173c 9cdf 063d f5c2 dabc
00000270: 3d1e 36bb 0a63 43bb 0441 d0bc bc3a 573c
00000280: 9375 0f3d a7b1 953a a629 09bd 6bac 223c
00000290: 5402 55bc 0abd 0f3d 892c 753c 5c22 b53c
000002a0: a9c7 dbbc b2de 413a 6e60 1c3c 49b5 2e3c
000002b0: 6d8a 8a3b 05a4 ef39 7d6c d6bc 312e 00bd
000002c0: 23e5 043d 5fdb cfbc 6db2 123c 71ee 6abc
000002d0: f717 06bd 7b25 5f3c 78db 823a aa44 d3bc
000002e0: 59a7 e23a f8d6 7839 c379 b03b e862 083d
000002f0: cbfe 1b3c 98cd 6a3b 93cf 92b9 c4f2 72bc
00000300: 34cc acbc a6d0 853c db48 e53c 2f89 893b
00000310: 47f8 933a 2cea 55bc 4692 e4bc 0bbf 8239
00000320: f56b a13b 3321 6cbc 351c f73c 3b86 a7bc
00000330: 8cbe 7bbc 18a6 1ebc 703d 833b ce01 1f3c
00000340: d410 eebc 5503 78bb db2a 0bbd 4273 97bc
00000350: f578 92bc 6a00 6fbc d2ca 053d 8003 c4bc
00000360: eb47 ddbc 5b85 b5bc c02a 3c3c 9a48 793b
00000370: adcb 953a 54ae d73b 0611 103d 649e 9b3c
00000380: 3930 02bc 7ff0 193c 35b0 1abc efca a83c
00000390: 61b5 8ebc 3855 95bc 28d1 cc3c 581a 02bd
000003a0: 8535 8b3c 8b26 013d ff74 be3b 1fea 5c3c
000003b0: 505c 0bbd 251c eb3c 6578 38bc 6cb0 70bc
000003c0: 186d 09bd 540d db3c 3798 0bbd 852d 5abb
000003d0: 451c f7bc f08e 08bb e518 063d e882 f7bc
000003e0: 5c23 ddbb 749d 90bc 8ecb d23c fe09 1d3b
000003f0: 12c2 f2bc 6665 b0bb eef5 b03a e5ee 0fbd

conv3.bias f4 [32]
-0.0012091973 -0.0010686797 0.0011068733 -0.021080974 0.004815459 0.0041725086 0.023296718 -0.021750877
-0.021374207 -0.026294202 0.02319705 0.03460056 -0.031143378 -0.010117309 0.014874795 0.012605284
0.017044907 -0.024775103 -0.007650968 0.029555306 0.021325387 0.014706027 0.0015931131 0.007516023
-0.024125855 -0.024906175 0.008695026 -0.020288993 0.008825664 0.013606238 0.027081387 -0.019072613
00000000: ee7d 9eba f112 8cba 8114 913a 02b2 acbc
00000010: ffca 9d3b 8ab9 883b c2d8 be3c e52e b2bc
00000020: f618 afbc f066 d7bc bd07 be3c 51b9 0d3d
00000030: 6620 ffbc 12c3 25bc 6ab5 733c 6586 4e3c
00000040: c3a1 8b3c 28f5 cabc f9b4 fabb f81d f23c
00000050: 94b2 ae3c 8cf1 703c 01d0 d03a f848 f63b
00000060: 96a3 c5bc 0908 ccbc 9575 0e3c 1a35 a6bc
00000070: 8599 103c b3ec 5e3c c9d9 dd3c 2b3e 9cbc

MLP1.weight f4 [50, 1344]
-0.015904441 0.0013868208 0.012250536 -0.005497155 -0.0077183293 0.001958824 0.009606048 -0.0167766
0.009116847 -0.0121530825 0.005720534 0.02215699 0.02648166 0.020591341 -0.0029439298 -0.012361117
0.015114156 0.013687801 0.018177254 -0.010498657 -0.020562252 0.00086307595 -0.02287968 -0.01320571
0.012266879 0.026086766 -0.017417844 0.011803791 0.023960905 0.004897408 -0.022376075 -0.007228253
-0.0019209321 -0.016469136 -0.026230294 -0.0066218693 -0.020141082 0.022303846 0.013986469 -0.015998092
-0.02233128 0.025760913 -0.020219184 0.02455277 0.010337922 -0.0231979 0.0015845144 0.022705581
0.020410111 -0.016742473 0.00038365833 0.021041578 -0.023716189 0.024803406 0.0154912 0.01759199
-0.0054741004 0.0022385905 0.002950004 -0.016542172 0.021496113 0.010330313 0.0053969244 -0.015951943
-0.01730945 -0.014547241 0.025705306 0.008271229 0.022040693 -0.022429623 0.020186225 0.022712052
0.018627042 -0.0016962038 -0.011802081 0.017842859 0.0023756302 -0.0057059107 -0.0060961996 0.02320258
0.00435029 -0.023006555 -0.0045477985 -0.014715019 0.015351643 0.02407569 0.0021441255 -0.009910564
-0.003925852 -0.014269299 0.018607905 0.009647872 0.02172041 -0.021995865 0.0024222042 -0.02632986
0.009729217 -0.020250984 0.026227735 0.0069510387 -0.01022803 -0.0023297227 0.008067438 0.014530072
-0.0031578266 0.00061556307 0.022196023 0.0060675587 0.015560246 -0.0023587344 -0.0073508224 0.027251065
0.005311213 -0.024080038 -0.0010290948 -0.014509362 -0.018986085 -0.0048748152 -0.026152194 -0.026970683
-0.00594202 -0.009053025 0.023683023 0.0035578345 0.017595878 -0.0058724433 0.018568832 -0.024897777
-0.0139709255 -0.004772676 0.018734755 -0.020302253 -0.024906402 0.021704659 0.0015648936 0.003935295
-0.012157293 -0.025055032 -0.022087188 -0.022015033 -0.019203026 -0.019875435 0.00059759093 0.0015034723
-0.020442333 -0.015540456 0.0034565928 -0.01333797 0.026287107 -0.020660492 0.021717643 0.014217583
-0.026075685 -0.005973321 -0.01901964 0.01746316 0.016672032 -0.022554582 -0.0019235074 -0.011047807
0.01987813 0.014410195 -0.02651077 -0.0008778452 -0.019095859 0.004067877 0.010026181 0.019597255
0.017066948 -0.026119273 0.00858811 -0.008991289 -0.0007518158 0.0047322577 -0.012447053 -0.014915505
0.00820839 -0.02466725 -0.024371833 0.009690547 -0.0032699355 0.016943526 -0.023078596 -0.010369545
0.008215156 0.02462175 0.0064666625 0.017324483 -0.011522864 0.012177028 0.005308293 0.016814865
0.010214396 -0.011087202 0.022573467 -0.0063899676 -0.007282133 0.027030505 -0.0034925858 0.0054509286
0.011706341 -0.0032307266 -0.016633134 0.023572877 0.0032175018 0.0051736594 0.0036377192 -0.020684302
-0.016418085 0.024212236 -0.009658085 -0.0067321863 -0.0135488035 -0.016666638 0.009393004 -0.027066585
-0.009503133 -0.005967175 -0.0025027848 0.023121908 -0.00018314875 -0.009829922 0.025761737 0.0042095175
0.013765184 0.019107942 0.016560469 -0.018401146 0.012678863 0.018492661 -0.022807661 0.009562395
0.0007488665 -0.021194968 -0.013007369 0.016054712 -0.01516323 0.009658505 0.02261043 -0.014917945
-0.008330738 0.0043376605 -0.024496077 0.002852518 0.013129539 -0.015976788 0.014857473 -0.013328172
0.025198191 -0.025427088 -0.021858374 -0.0047910353 0.0139260655 -0.00057505013 0.017875101 0.008447325
00000000: 084a 82bc fcc5 b53a 79b6 483c 7a21 b4bb
00000010: 0aea fcbb 9d5f 003b b062 1d3c 156f 89bc
00000020: d45e 153c b91d 47bc 5173 bb3b 9382 b53c
00000030: 11f0 d83c 2caf a83c f2ee 40bb 4886 4abc
00000040: 5da1 773c cc42 603c 77e8 943c 8f02 2cbc
00000050: 2b72 a8bc 0c40 623a 2b6e bbbc c35c 58bc
00000060: 05fb 483c eab3 d53c deaf 8ebc b064 413c
00000070: a949 c43c 707a a03b 084e b7bc fbda ecbb
00000080: c9c7 fbba 48ea 86bc eae0 d6bc 44fc d8bb
00000090: e9fe a4bc 8eb6 b63c 8127 653c 6e0e 83bc
000000a0: 17f0 b6bc 8d08 d33c b4a2 a5bc e422 c93c
000000b0: 6360 293c 8609 bebc 7baf cf3a 0e01 ba3c
000000c0: 1b33 a73c 8327 89bc c025 c939 635f ac3c
000000d0: 7448 c2bc 8330 cb3c cdce 7d3c 141d 903c
000000e0: 1560 b3bb 51b5 123b db54 413b 7383 87bc
000000f0: 9e18 b03c 7940 293c afd8 b03b a6ad 82bc
00000100: 8ccc 8dbc 8d57 6ebc ef93 d23c 0d84 073c
00000110: af8e b43c 54be b7bc 955d a53c a00e ba3c
00000120: bd97 983c 2853 deba 845d 41bc 302b 923c
00000130: 76b0 1b3b a6f8 babb a1c2 c7bb 5613 be3c
00000140: e18c 8e3b 3e78 bcbc b305 95bb 4317 71bc
00000150: 7585 7b3c 623a c53c 7584 0c3b eb5f 22bc
00000160: 6fa4 80bb c7c9 69bc 9b6f 983c 1c12 1e3c
00000170: 00ef b13c ac30 b4bc d8bd 1e3b b8b1 d7bc
00000180: 4b67 1f3c 64e5 a5bc 8cdb d63c 8ac5 e33b
00000190: 7893 27bc 43ae 18bb 4a2d 043c 8a0f 6e3c
000001a0: 8af3 4ebb bd5d 213a 6fd4 b53c 5fd2 c63b
000001b0: 67f0 7e3c ff94 1abb 2bdf f0bb a03d df3c
000001c0: af09 ae3b 8043 c5bc b1e2 86ba adb8 6dbc
000001d0: b588 9bbc eabc 9fbb 203d d6bc 9ff1 dcbc
000001e0: 47b5 c2bb 2453 14bc e602 c23c 8f2a 693b
000001f0: 3b25 903c a06d c0bb aa1d 983c 6cf6 cbbc
00000200: 4fe6 64bc 1c64 9cbb a179 993c e950 a6bc
00000210: 8308 ccbc f8cd b13c 1e1d cd3a a6f3 803b
00000220: 622f 47bc 3640 cdbc 31f0 b4bc df58 b4bc
00000230: aa4f 9dbc cfd1 a2bc a6a7 1c3a 2910 c53a
00000240: ae76 a7bc 669d 7ebc 0188 623b 8087 5abc
00000250: 0f58 d73c 3140 a9bc 33e9 b13c def0 683c
00000260: ad9c d5bc d9bb c3bb 13cf 9bbc e70e 8f3c
00000270: c993 883c 63c4 b8bc 331e fcba dc01 35bc
00000280: 76d7 a23c bd18 6c3c 1d2d d9bc 321f 66ba
00000290: eb6e 9cbc d34b 853b da44 243c 6c8a a03c
000002a0: fccf 8b3c 16f8 d5bc 25b5 0c3c 3350 13bc
000002b0: 8115 45ba 0e11 9b3b b9ee 4bbc 2a60 74bc
000002c0: 7c7c 063c f912 cabc 70a7 c7bc 1ac5 1e3c
000002d0: 6a4c 56bb 26cd 8a3c 530f bdbc 06e5 29bc
000002e0: dd98 063c 8db3 c93c 4ce6 d33b 13ec 8d3c
000002f0: 65ca 3cbc 2882 473c 30f1 ad3b 54bf 893c
00000300: 485a 273c 18a7 35bc feeb b83c ef62 d1bb
00000310: f69e eebb 146f dd3c dee3 64bb b49d b23b
00000320: f4cb 3f3c 99ba 53bb 3642 88bc e81b c13c
00000330: b9dc 523b cd87 a93b cd66 6e3b 2072 a9bc
00000340: 387f 86bc bd58 c63c f23c 1ebc ac99 dcbb
00000350: cdfb 5dbc 7988 88bc 1de5 193c beba ddbc
00000360: 07b3 1bbc 4b88 c3bb c305 24bb 286a bd3c
00000370: 9e0b 40b9 ae0d 21bc 470a d33c feef 893b
00000380: 5e87 613c 4288 9c3c d2a9 873c 00be 96bc
00000390: 01bb 4f3c ec7d 973c 22d7 babc 97ab 1c3c
000003a0: 954f 443a 12a1 adbc dc1c 55bc 2c85 833c
000003b0: 326f 78bc b53e 1e3c 8239 b93c 656a 74bc
000003c0: a67d 08bc ef22 8e3b ffab c8bc 50f1 3a3b
000003d0: 471d 573c c1e1 82bc c26c 733c 685e 5abc
000003e0: 706c ce3c 784c d0bc 5510 b3bc 1efe 9cbb
000003f0: 272a 643c f6be 16ba ce6e 923c a666 0a3c

MLP1.bias f4 [50]
0.017924681 0.016895104 -0.013956173 0.011581417 0.015177967 0.005133332 0.0015213501 -0.009427397
-0.011552103 -0.005987576 0.008555015 -0.0037529399 -0.022090154 0.017932089 0.016387232 -0.02606353
0.017106393 0.016713591 -0.0034897374 -0.018748285 -0.022566734 0.024479916 0.010721096 0.017279468
0.009898724 -0.0137118725 -0.019812133 -0.014013142 -0.0011842692 -0.027242167 0.01603051 0.018441593
0.0028155625 0.017413432 -0.0022615509 -0.012970066 -0.009376277 -0.017310735 0.023874246 0.010530419
0.012638952 0.023828296 -0.02288059 0.009171059 -0.015623807 0.023861866 0.017486697 0.009301748
0.02681371 0.011229873
00000000: c8d6 923c 9a67 8a3c 6fa8 64bc fcbf 3d3c
00000010: 02ad 783c 8335 a83b 0a68 c73a 5e75 1abc
00000020: 0845 3dbc 6e33 c4bb 552a 0c3c e2f3 75bb
00000030: 69f6 b4bc 51e6 923c 843e 863c 2f83 d5bc
00000040: b522 8c3c f1ea 883c 14b4 64bb 0196 99bc
00000050: dfdd b8bc 1b8a c83c 89a7 2f3c ac8d 8d3c
00000060: 422e 223c c3a7 60bc 0e4d a2bc 6197 65bc
00000070: 7b39 9bba f72a dfbc 6b52 833c d312 973c
00000080: 4d85 383b 9da6 8e3c 8736 14bb 6680 54bc
00000090: f59e 19bc 3ecf 8dbc ec93 c33c c787 2c3c
000000a0: 9b13 4f3c 8f33 c33c 1370 bbbc 3642 163c
000000b0: fffa 7fbc f679 c33c 4340 8f3c 5c66 183c
000000c0: 6da8 db3c 80fd 373c

to_quantum_input.weight f4 [4, 50]
-0.0013724027 -0.039990198 0.09173063 -0.07823469 -0.13503982 -0.103388 0.03550646 -0.007649215
0.065924786 0.122037455 -0.12954915 0.08730506 -0.07363505 -0.060194064 -0.13497455 0.054992367
0.13716596 -0.08695352 -0.009303496 0.005979694 -0.010445456 0.003679656 -0.032774605 0.12979019
-0.003776223 -0.050865803 -0.10062109 0.08527394 -0.06675783 -0.118753254 0.12160602 0.022226699
-0.080951475 -0.13656947 0.0411463 0.031592064 -0.105277486 0.058573652 0.11873494 0.0908044
-0.08131505 -0.06983816 0.04519171 -0.08088692 0.05573142 -0.019421319 0.02390861 0.06450402
-0.027739016 0.107369505 0.07666135 0.042855762 0.030050857 -0.057240278 -0.043389205 0.086573996
0.07007922 -0.12801518 -0.10782258 0.13507669 -0.05845935 0.12073883 -0.03793252 -0.09584907
0.107941456 0.13643026 0.11400076 0.13016118 0.0051466194 0.00081117515 -0.0862524 -0.026670763
0.10970382 0.119736694 0.13513476 -0.11061431 0.048205663 -0.12916104 0.1140791 -0.1218179
0.078163914 0.0714739 -0.036685545 -0.060339388 -0.10846711 0.11549724 0.09545146 0.09816529
-0.06103017 0.062037382 0.05226144 0.08122314 -0.012907439 -0.040998466 -0.03513427 0.041562073
0.027694443 0.008759043 -0.1018896 0.12678453 0.0939193 0.13422316 0.028501773 -0.023026628
-0.06557308 -0.117436536 0.02108612 -0.06249891 0.063044794 0.08864186 -0.06769236 0.009636034
0.044378966 -0.0120882895 0.111295685 0.05995457 0.09382459 -0.06291608 -0.09180366 -0.06367907
0.04678245 0.09164002 0.097008616 -0.07263445 -0.030748436 -0.12513342 0.0047205654 0.08068748
-0.10634765 -0.09410375 -0.11968114 0.043639306 0.06976988 -0.05996099 -0.024401948 0.022611449
0.052697808 -0.06177931 -0.04856782 -0.029267717 -0.044163123 0.041279063 0.0960113 0.040468834
-0.09454196 -0.03666973 0.1261097 0.043364085 -0.096479654 0.03128805 -0.066554695 0.036413245
-0.14055552 -0.018986162 0.113385364 -0.12625097 0.04861105 -0.023498185 0.120778695 0.011921203
-0.069248706 0.023530722 -0.07157965 0.111274935 -0.05988889 0.093756564 -0.12981361 0.092773885
0.11473625 0.008262704 -0.06768386 0.027436284 0.006841513 -0.10392604 -0.12739779 -0.110602066
-0.09621448 0.017714439 0.038565785 0.13431418 0.082006186 0.090240404 -0.118797086 -0.035124984
0.12745315 -0.12428026 0.063468285 -0.11829697 0.10197274 -0.038896788 0.05790409 0.109299734
-0.04403346 -0.0537019 -0.13695896 0.030692719 -0.13346383 0.096847765 0.049235784 -0.11790925
00000000: 31e2 b3ba c3cc 23bd 45dd bb3d 8239 a0bd
00000010: e147 0abe 16bd d3bd 396f 113d 44a6 fabb
00000020: 9303 873d c6ee f93d 88a8 04be ffcc b23d
00000030: f9cd 96bd 0d8e 76bd c536 0abe ad3f 613d
00000040: 3c75 0c3e b014 b2bd b16d 18bc 4ff1 c33b
00000050: 6b23 2bbc 6226 713b aa3e 06bd b8e7 043e
00000060: 827a 77bb a958 50bd 6e12 cebd 1aa4 ae3d
00000070: 54b8 88bd e834 f3bd 940c f93d c414 b63c
00000080: e3c9 a5bd ded8 0bbe 0689 283d ae66 013d
00000090: b99b d7bd edea 6f3d 4e2b f33d a8f7 b93d
000000a0: 8188 a6bd 4f07 8fbd f11a 393d 0ba8 a5bd
000000b0: a146 643d 7519 9fbc fddb c33c af1a 843d
000000c0: ef3c e3bc 8be4 db3d a000 9d3d 8689 2f3d
000000d0: 372d f63c c874 6abd e1b8 31bd b54d b13d
000000e0: b285 8f3d 6916 03be 16d2 dcbd 8b51 0a3e
000000f0: 1273 6fbd eb45 f73d 215f 1bbd 844c c4bd
00000100: 6910 dd3d 60b4 0b3e 3b79 e93d f948 053e
00000110: f9a4 a83b 0ba5 543a 19a5 b0bd a57c dabc
00000120: 65ac e03d 8338 f53d c460 0a3e c189 e2bd
00000130: 4d73 453d cb42 04be 4ea2 e93d aa7b f9bd
00000140: 6714 a03d e860 923d 9543 16bd 6f26 77bd
00000150: 0124 debd d189 ec3d 0e7c c33d e20a c93d
00000160: c6fa 79bd e91a 7e3d 1710 563d 5158 a63d
00000170: b979 53bc 02ee 27bd f4e8 0fbd fe3c 2a3d
00000180: 75df e23c 1782 0f3c 7fab d0bd ced3 013e
00000190: c358 c03d cc71 093e 8d7c e93c 57a2 bcbc
000001a0: 2e4b 86bd 9182 f0bd ccbc ac3c dbfe 7fbd
000001b0: a11d 813d dd89 b53d 4ba2 8abd 75e0 1d3c
000001c0: b8c6 353d f60d 46bc feee e33d ec92 753d
000001d0: 1b27 c03d 25da 80bd 8f03 bcbd 2c6a 82bd
000001e0: f49e 3f3d c3ad bb3d 74ac c63d 5fc1 94bd
000001f0: 25e4 fbbc fa22 00be f9ae 9a3b 7a3f a53d
00000200: cccc d9bd 78b9 c0bd 631b f5bd 21bf 323d
00000210: 83e3 8e3d a899 75bd 98e6 c7bc a53b b93c
00000220: a8d9 573d 4d0c 7dbd 0def 46bd dac2 efbc
00000230: 64e4 34bd 3c14 293d 93a1 c43d a6c2 253d
00000240: 379f c1bd 0033 16bd e722 013e 8a9e 313d
00000250: 2097 c5bd e627 003d d44d 88bd 0e26 153d
00000260: c9ed 0fbe de88 9bbc 9636 e83d ef47 01be
00000270: 611c 473d 447f c0bc d25a f73d 2651 433c
00000280: 44d2 8dbd 80c3 c03c 5a98 92bd 1de4 e33d
00000290: 0d4e 75bd 7103 c03d dced 04be 3c00 be3d
000002a0: d7fa ea3d 4b60 073c d69d 8abd 0fc2 e03c
000002b0: c52e e03b 2dd7 d4bd 9174 02be 5683 e2bd
000002c0: 190c c5bd df1d 913c 28f7 1d3d a889 093e
000002d0: dcf2 a73d f6cf b83d e34b f3bd 37df 0fbd
000002e0: 1483 023e a686 febd a9fb 813d af45 f2bd
000002f0: 15d7 d03d 3d52 1fbd d72c 6d3d 8ad8 df3d
00000300: 6e5c 34bd 86f6 5bbd f83e 0cbe 4c6f fb3c
00000310: beaa 08be 1f58 c63d 76ab 493d 687a f1bd

to_quantum_input.bias f4 [4]
-0.08152354 0.09372502 -0.13281895 0.07304183
00000000: d0f5 a6bd e7f2 bf3d b101 08be f496 953d

quantum_layer.q_params f4 [3, 4, 3]
-1.0239615 0.73464024 -0.5618604 0.9763452 1.0041937 -0.5756681 -1.0204341 -1.7842155
0.057214174 0.4623627 -1.490168 -0.7581188 1.5518279 -0.9981031 0.5010299 -1.5757785
0.42819342 -1.8621168 -0.9140094 1.035917 -0.2750521 0.006132852 0.077862754 -0.81321377
-0.18317845 -0.30839932 0.83345765 -1.1136757 1.0307997 0.11336919 -1.5363139 -0.22503187
-0.91569823 1.2314674 0.69199777 0.4541081
00000000: 2c11 83bf 6211 3c3f 15d6 0fbf c2f1 793f
00000010: 6b89 803f fc5e 13bf 969d 82bf 2c61 e4bf
00000020: 6959 6a3d ceba ec3e d3bd bebf 1314 42bf
00000030: 4ca2 c63f af83 7fbf 7f43 003f 1cb3 c9bf
00000040: 2b3c db3e d859 eebf 85fc 69bf ee98 843f
00000050: a1d3 8cbe 17f6 c83b 8276 9f3d c72e 50bf
00000060: 2293 3bbe 84e6 9dbe 7b5d 553f ed8c 8ebf
00000070: 3ff1 833f 1b2e e83d efa5 c4bf c16e 66be
00000080: 336b 6abf b9a0 9d3f c426 313f db80 e83e

from_quantum_output.weight f4 [50, 4]
-0.24990848 -0.4692963 -0.20952173 0.29584324 -0.3839748 0.28200755 0.2685318 0.50862944
-0.30078447 0.13645968 0.25839913 0.37917182 0.15382522 -0.54067564 0.015070918 -0.30071953
-0.51415044 0.13729198 0.30830353 -0.003549076 0.258061 0.020874772 -0.32015178 -0.24030247
-0.04520293 0.09245769 0.40793386 0.13711788 -0.19390944 -0.3151836 0.3542479 -0.5403035
-0.32474023 0.40132943 0.029371541 -0.48023257 0.23413365 -0.08285205 -0.2307209 0.010428947
-0.014642996 0.32113284 0.047846965 0.3554172 -0.12424092 -0.48263076 -0.31328815 -0.7765986
-0.12814477 0.28000173 0.21550183 -0.14253488 0.13880986 0.21112534 -0.117368504 0.06473159
0.012521536 -0.34711033 -0.1314569 -0.5135613 0.55111176 0.39774776 -0.4434337 -0.3420247
-0.17476252 0.4978749 0.48197457 0.012011895 0.14580578 -0.3679607 0.2624227 0.6943409
-0.46699664 -0.28566197 0.1843649 0.26364806 -0.21853267 -0.35166106 0.39166662 -0.57823086
-0.40163124 -0.4198723 0.022791954 0.17589067 -0.25091746 -0.49545288 0.18810341 -0.26912767
0.34283158 0.07787205 -0.23028672 -0.11381926 -0.14082384 0.371762 0.41693875 -0.24484043
-0.316471 0.15574354 -0.45422775 -0.4592296 0.1602481 0.030961722 0.069017015 0.091902725
0.23774736 -0.0038499353 -0.2796629 -0.5859173 0.2800264 0.2088555 -0.41027477 -0.25578573
0.32546917 0.35916403 -0.07120803 0.14009918 0.43895555 0.24401827 0.31040153 0.09961888
-0.45081186 0.22901966 0.23094651 0.34626383 0.39965555 0.1841068 -0.3911244 0.08087641
0.49146456 0.13847336 0.094005406 0.2252752 -0.4392814 0.14992294 -0.07798277 -0.04775541
0.52468336 0.14793533 0.24932684 -0.030353026 0.4994827 -0.45302713 0.23444101 -0.6111736
0.17773561 -0.07011363 0.38544628 0.010099465 -0.21377823 0.3645187 0.31622773 -0.4363486
-0.026189536 -0.2655499 0.035969056 0.22273244 -0.43167552 0.3253798 -0.37464017 -0.49040923
-0.46874797 0.20893039 0.45830014 0.17578112 0.009822202 -0.084273 0.47702876 0.5073416
0.13822645 -0.30014542 -0.45186293 0.2969677 -0.25271302 -0.16415605 -0.16273159 -0.18310688
0.019558882 0.21363628 0.37427384 -0.33148304 -0.29693174 -0.08062113 0.4615981 0.012902387
0.18136363 -0.45517123 -0.16383478 0.49174055 0.24572566 0.36037484 0.510536 0.44004843
0.24061209 0.4022031 -0.40108326 -0.40784785 0.2329965 -0.4153062 -0.25602692 0.5927118
00000000: 02e8 7fbe 9b47 f0be dd8c 56be c478 973e
00000010: 5898 c4be 4b63 903e 007d 893e 8a35 023f
00000020: 6c00 9abe 16bc 0b3e e44c 843e cf22 c23e
00000030: 5c84 1d3e b869 0abf 03ec 763c e9f7 99be
00000040: 5d9f 03bf 4596 0c3e f6d9 9d3e 9d97 68bb
00000050: 9220 843e 9201 ab3c efea a3be da11 76be
00000060: b526 39bd 755a bd3d b5dc d03e a168 0c3e
00000070: 3290 46be bf5f a1be fb5f b53e 5551 0abf
00000080: 5a44 a6be 0d7b cd3e 969c f03c 0be1 f5be
00000090: bbc0 6f3e 56ae a9bd 1a42 6cbe 2dde 2a3c
000000a0: 2de9 6fbc 866b a43e 2efb 433d 3ef9 b53e
000000b0: 0672 febd 611b f7be 4e67 a0be 2acf 46bf
000000c0: 6238 03be 635c 8f3e 83ac 5c3e aaf4 11be
000000d0: 2c24 0e3e 3e31 583e e65e f0bd ff91 843d
000000e0: 2127 4d3c 72b8 b1be a39c 06be c178 03bf
000000f0: a915 0d3f 98a5 cb3e be09 e3be dd1d afbe
00000100: f2f4 32be 75e9 fe3e 5fc5 f63e 8acd 443c
00000110: 1c4e 153e 5865 bcbe 455c 863e 53c0 313f
00000120: 2f1a efbe 4942 92be 27ca 3c3e e1fc 863e
00000130: 07c7 5fbe eb0c b4be 8788 c83e f006 14bf
00000140: 9ca2 cdbe 81f9 d6be 31b6 ba3c af1c 343e
00000150: 4178 80be 00ac fdbe 2e9e 403e 1acb 89be
00000160: 9f87 af3e 627b 9f3d 48d0 6bbe 121a e9bd
00000170: 2034 10be 9757 be3e ff78 d53e 73b7 7abe
00000180: 7d08 a2be 3c7b 1f3e 8a90 e8be 2420 ebbe
00000190: 1418 243e 70a3 fd3c cb58 8d3d 7f37 bc3d
000001a0: 0b74 733e 324f 7cbb fa2f 8fbe adfe 15bf
000001b0: 9f5f 8f3e 37de 553e 890f d2be 59f6 82be
000001c0: e5a3 a63e 59e4 b73e 84d5 91bd 2976 0f3e
000001d0: c8be e03e eddf 793e f3ec 9e3e fc04 cc3d
000001e0: d0d0 e6be 2184 6a3e 3e7d 6c3e 7e49 b13e
000001f0: a79f cc3e 7e86 3c3e 7541 c8be 88a2 a53d
00000200: 3ea1 fb3e f6cb 0d3e e885 c03d 8bae 663e
00000210: 7ee9 e0be 6685 193e 6eb5 9fbd 2d9b 43bd
00000220: a651 063f 5c7c 173e 894f 7f3e e9a6 f8bc
00000230: 32bc ff3e 2cf3 e7be 4e11 703e e075 1cbf
00000240: 5300 363e bc97 8fbd 3759 c53e 3a78 253c
00000250: aee8 5abe 32a2 ba3e 9ae8 a13e 1569 dfbe
00000260: 708b d6bc 28f6 87be 4a54 133d f913 643e
00000270: 9304 ddbe 2e98 a63e d6d0 bfbe eb16 fbbe
00000280: bcff efbe d9f1 553e 51a6 ea3e f7ff 333e
00000290: 4ded 203c 5397 acbd 1d3d f43e 24e1 013f
000002a0: 3c8b 0d3e a9ac 99be 945a e7be 260c 983e
000002b0: 9a63 81be 8618 28be 1ca3 26be 5f80 3bbe
000002c0: f339 a03c 78c3 5a3e d2a0 bf3e 25b8 a9be
000002d0: 7007 98be b11c a5bd 9656 ec3e 8964 533c
000002e0: 63b7 393e 340c e9be 4ec4 27be 6bc5 fb3e
000002f0: 829f 7b3e 0d83 b83e 7db2 023f 074e e13e
00000300: 0463 763e 91ed cd3e c95a cdbe 6fd1 d0be
00000310: a296 6e3e 04a3 d4be f615 83be f6bb 173f

from_quantum_output.bias f4 [50]
0.3494199 -0.41283074 0.05902336 0.36538908 0.18656607 0.08648869 -0.021272872 0.34378314
0.37080306 -0.16855267 -0.4501807 -0.12763253 0.25125504 0.22097637 -0.11484472 0.529463
-0.09306596 -0.34327272 -0.080222055 0.16598698 0.5085142 -0.15042587 0.18706614 0.1208426
0.42777926 -0.5229054 0.52618724 0.026385447 0.5757444 0.34183624 -0.35388142 0.5145205
0.52216715 -0.096996464 0.4269244 0.4649722 0.17836899 0.34151688 -0.36073646 0.22003241
-0.4456446 -0.3688729 -0.17017002 0.5004802 0.15698697 -0.24794516 -0.1957766 -0.34745076
-0.1865308 -0.25709096
00000000: 2ae7 b23e 8d5e d3be 7bc2 713d 4714 bb3e
00000010: 2d0b 3f3e fb20 b13d 7244 aebc 5804 b03e
00000020: e6d9 bd3e 1299 2cbe 167e e6be 1ab2 02be
00000030: 80a4 803e a147 623e b533 ebbd e38a 073f
00000040: 5e99 bebd 71c1 afbe 764b a4bd 7ef8 293e
00000050: fd2d 023f 3d09 1abe 448e 3f3e 537c f73d
00000060: e205 db3e 21dd 05bf 35b4 063f 4b26 d83c
00000070: fc63 133f 2905 af3e f22f b5be 9eb7 033f
00000080: bfac 053f 15a6 c6bd d695 da3e d610 ee3e
00000090: 5ca6 363e 4ddb ae3e 73b2 b8be 2d50 613e
000000a0: 872b e4be e9dc bcbe 0d41 2ebe 781f 003f
000000b0: 31c1 203e 56e5 7dbe a979 48be 11e5 b1be
000000c0: ee01 3fbe 6da1 83be

MLP3.weight f4 [50, 50]
-0.0023638755 0.016869823 -0.11836589 0.029930573 -0.13559872 -0.16443753 0.065605864 -0.20911962
-0.1462379 -0.036233786 0.1994427 -0.10385966 -0.20016311 -0.022734798 0.124383606 -0.07978147
0.09174203 0.09269569 0.04222709 -0.021831373 0.02017273 0.15114701 -0.021933446 -0.11921727
-0.23398016 -0.051151957 0.00039302022 0.057130303 -0.20516105 -0.10644344 0.010861343 0.010631376
-0.19813511 0.008827263 -0.099510446 -0.22981472 -0.04087638 -0.08694373 0.079443224 -0.22209387
0.008467962 -0.006236213 0.14610316 -0.038843155 -0.1211963 0.11362976 -0.0349948 0.2269083
-0.06998484 0.18565214 -0.07772158 0.1346223 0.10977729 -0.16963327 -0.17151529 -0.2588949
-0.01323988 -0.21024016 -0.2067227 0.0992252 0.08570974 0.06683247 -0.0013220335 -0.10959383
0.16027606 -0.12913047 -0.039285135 0.0989855 0.0030621155 -0.15420969 0.010366718 0.20779754
-0.17302567 -0.19738136 -0.048921015 0.19997068 -0.023858747 -0.06578001 -0.12552044 -0.20184463
0.027730824 -0.06894459 -0.20147721 0.086162455 -0.15710084 -0.16091959 -0.21752827 -0.23228386
0.014651272 -0.23742878 0.18021865 0.21569327 -0.04238405 -0.20313801 -0.1388471 -0.026868375
0.08282932 0.0888793 -0.021827929 0.24224101 -0.12351398 -0.07345683 0.103457704 -0.12762222
-0.036124032 -0.15166147 -0.0732643 0.082875825 -0.16876556 -0.03159851 0.07346974 0.060331654
-0.031379964 0.010988027 0.031558797 -0.10173923 0.070753746 0.15402971 0.005129207 -0.14655037
-0.10673281 0.07796306 -0.09719561 -0.094407916 -0.08674595 -0.046656277 -0.03398623 -0.07474503
0.033431754 -0.04481143 -0.010865961 0.09532926 -0.10403365 0.028058037 -0.050580505 -0.027639894
0.06135554 -0.1195013 -0.019377246 -0.12632777 -0.10030199 0.03923345 0.06506296 0.047468424
0.1064126 -0.06997718 0.120638125 0.10230097 -0.06270114 -0.06119342 0.16341946 0.03933277
-0.22017725 0.1306505 -0.114179276 -0.0037044836 0.06551777 0.0862919 0.08079789 -0.15374489
-0.14452954 -0.04210201 0.028242914 -0.06364279 0.062252734 0.17545325 -0.04800205 -0.05532283
-0.19563293 0.115374714 0.08632698 0.07476492 -0.0025643148 0.0012918432 0.114870094 -0.17184743
0.19742614 0.14066876 0.034236945 0.11073602 -0.013273479 -0.014352847 0.04002331 0.0678895
0.16295303 0.057330843 -0.07095575 -0.055491757 0.023456588 0.31392816 -0.07431128 -0.14020544
-0.0062782415 0.107412376 0.10137084 0.061693486 -0.13864581 0.0038403948 -0.09238853 -0.00877379
0.041998643 0.05795356 0.1252434 0.08034675 0.07377094 -0.12446433 -0.09288285 -0.12093067
-0.08084571 -0.0025485377 0.16626374 0.003985536 0.009529715 -0.088022836 -0.0056711384 -0.06863827
0.0308387 0.121605836 -0.0608487 -0.0122299995 -0.073841356 0.034794793 0.028194798 -0.14399998
-0.015812239 -0.036386885 0.011037679 0.09206863 -0.094371505 -0.013602422 -0.06624852 0.09698115
-0.0692559 -0.022298738 -0.018621668 0.030958517 0.08534416 -0.1076455 0.15759772 0.0074834744
0.14473079 0.13163492 0.09628441 -0.15590747 0.11068397 0.10446188 0.14439467 0.13781634
0.12388253 0.13858883 -0.08526454 -0.004517827 0.030560708 -0.010453363 -0.00045125405 -0.0071477573
00000000: 40eb 1abb 9532 8a3c d169 f2bd f630 f53c
00000010: 64da 0abe 5062 28be 5e5c 863d 7423 56be
00000020: 63bf 15be e169 14bd b53a 4c3e 60b4 d4bd
00000030: 8ff7 4cbe 543e babc d5bc fe3d 7864 a3bd
00000040: 3fe3 bb3d 3dd7 bd3d 50f6 2c3d b5d7 b2bc
00000050: 4841 a53c 48c6 1a3e c5ad b3bc 2f28 f4bd
00000060: 7f98 6fbe b784 51bd 480e ce39 7701 6a3d
00000070: bd15 52be 05ff d9bd c6f3 313c 392f 2e3c
00000080: eee3 4abe 39a0 103c 22cc cbbd 8d54 6bbe
00000090: fe6d 27bd 8e0f b2bd 21b3 a23d 936c 63be
000000a0: 35bd 0a3c 2559 ccbb 119c 153e 001a 1fbd
000000b0: c435 f8bd b8b6 e83d b556 0fbd a65a 683e
000000c0: 3654 8fbd 981b 3e3e 7e2c 9fbd 6eda 093e
000000d0: ead2 e03d 58b4 2dbe b4a1 2fbe df8d 84be
000000e0: 15ec 58bc 3249 57be 1eaf 53be 9536 cb3d
000000f0: 9788 af3d 76df 883d 1548 adba bb72 e0bd
00000100: 681f 243e c73a 04be 73e9 20bd e9b8 ca3d
00000110: c6ad 483b 25e9 1dbe 2bd9 293c e1c8 543e
00000120: a42d 31be 571e 4abe 6761 48bd 1dc5 4c3e
00000130: 6b73 c3bc abb7 86bd 6e88 00be 5cb0 4ebe
00000140: c12b e33c d232 8dbd 0b50 4ebe f175 b03d
00000150: 0bdf 20be 1bc8 24be bbbf 5ebe d2db 6dbe
00000160: e40b 703c 8820 73be 3d8b 383e b2de 5c3e
00000170: e69a 2dbd 6903 50be ef2d 0ebe 111b dcbc
00000180: 6ba2 a93d 5a06 b63d 7cd0 b2bc 070e 783e
00000190: e6f4 fcbd 8970 96bd a2e1 d33d 66af 02be
000001a0: cbf6 13bd 254d 1bbe 980b 96bd cdba a93d
000001b0: e1d0 2cbe 706d 01bd 4e77 963d 531e 773d
000001c0: 4788 00bd 2007 343c cc43 013d a85c d0bd
000001d0: 57e7 903d f7b9 1d3e e812 a83b 4d11 16be
000001e0: bb96 dabd 19ab 9f3d 7e0e c7bd f058 c1bd
000001f0: dca7 b1bd a71a 3fbd 2535 0bbd ec13 99bd
00000200: bcef 083d 318c 37bd 2507 32bc fd3b c33d
00000210: 980f d5bd f8d9 e53c 812d 4fbd 0f6d e2bc
00000220: f24f 7b3d 19bd f4bd 08bd 9ebc 115c 01be
00000230: 216b cdbd 41b3 203d bb3f 853d 406e 423d
00000240: d9ee d93d 3250 8fbd 1f11 f73d 2c83 d13d
00000250: 7569 80bd f4a5 7abd 6e57 273e 661b 213d
00000260: 2576 61be 3fc9 053e d3d6 e9bd ecc6 72bb
00000270: 2e2e 863d cfb9 b03d 5d79 a53d 4d6f 1dbe
00000280: 8dff 13be 2873 2cbd af5d e73c 2757 82bd
00000290: b9fc 7e3d 04aa 333e cc9d 44bd 319a 62bd
000002a0: 0054 48be 9449 ec3d 33cc b03d 5a1e 993d
000002b0: 100e 28bb 1153 a93a 0341 eb3d c6f8 2fbe
000002c0: 142a 4a3e 790b 103e 0a3c 0c3d 91c9 e23d
000002d0: 0279 59bc 3428 6bbc 7bef 233d a609 8b3d
000002e0: 29dd 263e bfd3 6a3d 4051 91bd 534b 63bd
000002f0: 0828 c03c 31bb a03e 8330 98bd 0492 0fbe
00000300: b5b9 cdbb 05fb db3d 849b cf3d 4fb2 7c3d
00000310: 2bf9 0dbe 22af 7b3b 3336 bdbd f1bf 0fbc
00000320: c506 2c3d b660 6d3d ce3f 003e d68c a43d
00000330: 3815 973d 28e7 febd 5d39 bebd 80aa f7bd
00000340: 7092 a5bd 5e05 27bb 0b41 2a3e 1999 823b
00000350: 8622 1c3c 5145 b4bd f5d4 b9bb 3992 8cbd
00000360: 71a1 fc3c 7b0c f93d 7d3c 79bd 5660 48bc
00000370: 233a 97bd fc84 0e3d c7f8 e63c bb74 13be
00000380: ab88 81bc 6a0a 15bd 62d7 343c 7a8e bc3d
00000390: d945 c1bd b1dc 5ebc 4ead 87bd 0e9e c63d
000003a0: 0ad6 8dbd d8ab b6bc 788c 98bc b79c fd3c
000003b0: ebc8 ae3d 3e75 dcbd 4c61 213e ef37 f53b
000003c0: 4f34 143e 4ecb 063e c330 c53d 35a6 1fbe
000003d0: 47ae e23d 1cf0 d53d 32dc 133e ba1f 0d3e
000003e0: 20b6 fd3d 3bea 0d3e 2d9f aebd 480a 94bb
000003f0: 735a fa3c 9544 2bbc 4b96 ecb9 bc37 eabb

MLP3.bias f4 [50]
-0.1428655 -0.22934702 -0.073608704 0.19071421 0.042402644 -0.015986973 -0.12118771 -0.023242079
0.124751516 0.024912309 0.016881665 -0.031131197 -0.0732546 -0.16037148 0.01320269 -0.11514058
0.0010744217 -0.0780557 -0.07293047 -0.25904816 -0.17606577 -0.103702374 0.14518371 -0.027703514
-0.09110191 0.14150639 0.046903845 0.1801793 0.0064737606 0.12536359 0.12313037 -0.2667486
0.015536669 -0.00068496994 0.04340513 0.2109922 -0.008238179 -0.1286341 -0.12576637 0.12399707
0.07971137 0.1292069 -0.18364352 -0.0045794253 -0.015237502 0.021090526 0.079197764 0.14999448
0.071496226 0.07101271
00000000: 554b 12be f2d9 6abe 29c0 96bd 964a 433e
00000010: 65ae 2d3d 1df7 82bc 4331 f8bd 2c66 bebc
00000020: b97d ff3d e614 cc3c 6b4b 8a3c da06 ffbc
00000030: 8206 96bd 6c38 24be 1850 583c d3ce ebbd
00000040: 9cd3 8c3a abdb 9fbd 925c 95bd f6a1 84be
00000050: 964a 34be e961 d4bd 0aab 143e 7bf2 e2bc
00000060: a393 babd 0de7 103e 3f1e 403d ec80 383e
00000070: d721 d43b 505f 003e c72b fc3d 4693 88be
00000080: 838d 7e3c 8e8f 33ba 94c9 313d 570e 583e
00000090: 6df9 06bc a8b8 03be e6c8 00be 2df2 fd3d
000000a0: b73f a33d d04e 043e 0c0d 3cbe 010f 96bb
000000b0: b7a6 79bc 0ac6 ac3c 7032 a23d 2798 193e
000000c0: 9d6c 923d 1d6f 913d
