models/DQN_wb_kaggle.pth (torch, 916528 bytes, 22 tensors)

conv1.weight f4 [32, 1, 5, 5]
0	0x3c3c3e01	0.011489392
1	0xbd3b779c	-0.045768365
2	0xbe161d14	-0.1465953
3	0xbde5724a	-0.112034395
4	0x3e1e723a	0.15473261
5	0xbe2e6482	-0.17030528
6	0xbe22007a	-0.15820494
7	0x3da3ac38	0.079918325
8	0x3cfecd2f	0.031103699
9	0x3d52acae	0.05143421
10	0xbdcfad8d	-0.10140524
11	0x3e4d6a33	0.20060043
12	0xbe1baeca	-0.15203395
13	0x3e0e84cb	0.13917844
14	0x3e1db476	0.15400872
15	0x3e5e6427	0.21717893
16	0xbdf6dcf6	-0.12053864
17	0xbe5496b5	-0.20760615
18	0x3d3489b4	0.044076636
19	0x3d9de4f9	0.07709689
20	0xbdd3cb8c	-0.10341558
21	0x3de5ac84	0.11214545
22	0xbdab0143	-0.0834985
23	0xbe029f25	-0.12756021
24	0xbe4b22ef	-0.19837545
25	0xbc94a15b	-0.018143347
26	0x3dceee90	0.10104096
27	0x3dab3c07	0.08361059
28	0x3dd79826	0.10527067
29	0x3c9dd124	0.019264765
30	0xbb82dd25	-0.0039936476
31	0xbdb0c78f	-0.08631813
32	0x3e10e1b6	0.14148602
33	0x3e26ffc7	0.16308509
34	0x3ca7b0bd	0.020470018
35	0xbdbf6d79	-0.09347052
36	0xbe4b5e41	-0.19860174
37	0xbde827f2	-0.11335744
38	0xbdaf2674	-0.08552256
39	0x3e251e5f	0.16124867
40	0x3d9bffd5	0.076171555
41	0x3e28dac1	0.16489698
42	0xbdd13902	-0.102159515
43	0x3d1d26eb	0.038367193
44	0xbb2f318b	-0.002673241
45	0x3e377c64	0.17918545
46	0x3d132877	0.035927262
47	0xbdb149f9	-0.08656687
48	0x3a5243fb	0.0008020994
49	0x3d049155	0.032365162
50	0xbd98f6f6	-0.07468979
51	0x3e6cfd00	0.23143387
52	0xbd3fec0e	-0.04685598
53	0xbe0a6ea6	-0.13518772
54	0x3e1db6bd	0.1540174
55	0xbe0e544e	-0.13899347
56	0x3d5bb0db	0.05363546
57	0xbdd15dda	-0.10222979
58	0xbd6f050e	-0.05835443
59	0xbe32029b	-0.17383806
60	0x3e68bcc2	0.22728255
61	0x3d16dda8	0.03683248
62	0x3e22123d	0.1582727
63	0x3d106273	0.03525014
64	0x3dcc8d72	0.09987916
65	0xbdb55e52	-0.08855881
66	0x3b09771f	0.0020975543
67	0xbe2a29a2	-0.16617444
68	0xbd6cf096	-0.057846628
69	0xbe13d656	-0.14437231
70	0xbe1679e9	-0.14694943
71	0x3dae208e	0.08502303
72	0x3cbbf992	0.022946153
73	0x3e766c54	0.24064761
74	0xbd99ab4c	-0.075033754
75	0x3ca18ffa	0.019721974
76	0x3ccdc366	0.025117587
77	0x3e56ba97	0.20969616
78	0x3e0d58c5	0.13803394
79	0x3d5f467a	0.05451057
80	0xbca9afc4	-0.020713694
81	0x3bdcf84c	0.0067434665
82	0xbd66d909	-0.056359325
83	0xbd88eef4	-0.06686202
84	0x3d3a5dc3	0.045499574
85	0x3c495310	0.01228787
86	0xbe21b453	-0.15791444
87	0xbd7fbc7e	-0.06243562
88	0x3dfd2517	0.1236059
89	0x3d8f9f6c	0.07012829
90	0xbde63277	-0.11240094
91	0xbd5edc22	-0.054409154
92	0xbde7d8f1	-0.11320675
93	0xbd878f4f	-0.06619131
94	0x3c7ace41	0.015307964
95	0x3dc23a2b	0.09483751
96	0xbc493939	-0.012281709
97	0xbe16dba9	-0.14732231
98	0x3e055389	0.13020147
99	0x3daa1fe7	0.08306866
100	0x3e41f885	0.18942459
101	0x3e29b0bc	0.16571325
102	0x3c9d3187	0.019188656
103	0xbdecfd5c	-0.11571762
104	0x3d9dc1d7	0.07702988
105	0x3e5497f1	0.20761086
106	0x3d23ff48	0.040038377
107	0x3e3c7d26	0.18407115
108	0xbe2adf46	-0.16686735
109	0xbde0ff4d	-0.10986195
110	0xbe08b5e4	-0.13350636
111	0xbd31d822	-0.04341901
112	0xbcf5ac52	-0.029989395
113	0xbe16ee79	-0.14739408
114	0x3d917eea	0.07104285
115	0x3e581caa	0.21104684
116	0x3e0bf8df	0.13669156
117	0xbe3a8d3a	-0.18217936
118	0x3e1ca45d	0.15297075
119	0xbc13880f	-0.009004607
120	0xbd265111	-0.040604655
121	0xbdb4343e	-0.08799027
122	0xbd9a109f	-0.075227015
123	0x3d811863	0.063034795
124	0x3dd2f184	0.10299972
125	0x3d24e47c	0.040256962
126	0x3cf1b2b4	0.029504158
127	0xbd8c6ee3	-0.068570875
128	0xbd8742b1	-0.06604517
129	0xbdfe223a	-0.12408872
130	0xbd6978b9	-0.056999896
131	0xbe463f7d	-0.19360156
132	0x3e0ac250	0.13550687
133	0x3d9c9868	0.07646257
134	0x3c1a6f65	0.009425973
135	0xbe3f40aa	-0.18677011
136	0x3e0ed123	0.13946967
137	0xbd76f1f3	-0.060289335
138	0xbdef2fc2	-0.11679031
139	0xbe149e46	-0.14513502
140	0x3b3472fe	0.002753436
141	0x3c32b7b1	0.010908053
142	0xbde635a5	-0.11240701
143	0x3dc95e6a	0.09832461
144	0xbde81f73	-0.113341235
145	0xbdea3ab9	-0.11436982
146	0x3e1fcba2	0.15605024
147	0xbdcfb3a8	-0.101416886
148	0xbe49e8b2	-0.19717672
149	0x3e2bbfbc	0.1677236
150	0x3e2e32b9	0.17011537
151	0xbd5ad2a4	-0.05342354
152	0xbd106087	-0.035248306
153	0xbe0581be	-0.13037774
154	0xbd79a9c3	-0.060952913
155	0xbe331f32	-0.17492369
156	0x3e032142	0.12805656
157	0x3d74a955	0.0597318
158	0x3d2dc297	0.042421903
159	0xbdc84efa	-0.097806886
160	0x3e0c3f3e	0.13696
161	0x3e245017	0.16046177
162	0xbdd2e013	-0.10296645
163	0x3e05d462	0.13069299
164	0x3e0af465	0.13569792
165	0xbe273d72	-0.16332033
166	0xbe7a721e	-0.24457595
167	0x3d25f384	0.040515438
168	0xbc0c3efc	-0.0085599385
169	0xbd654371	-0.05597252
170	0x3d816814	0.063186795
171	0x3e19dd9e	0.15025946
172	0xbe4bf73d	-0.19918533
173	0xbd9ec206	-0.07751851
174	0x3ddfe8d3	0.109330796
175	0x3d70a184	0.058747783
176	0x3e25ff7b	0.1621074
177	0x3e38c0db	0.18042319
178	0x3dd99935	0.10624925
179	0xbcb53e57	-0.022124453
180	0xbda719fc	-0.08159253
181	0x3cc7ce0c	0.024390243
182	0xbb0a3f90	-0.0021095015
183	0xbe2bb63a	-0.16768733
184	0x3e5fec24	0.21867424
185	0xbd8380fe	-0.06421088
186	0xbe14e127	-0.14539014
187	0xbe219cab	-0.1578242
188	0x3de7955b	0.11307784
189	0x3e4c5e86	0.19957933
190	0xbe4082b9	-0.18799867
191	0x3e5bac65	0.21452482
192	0xbe12ecf6	-0.14348206
193	0xbdafa5f4	-0.08576575
194	0xbdc7c1bf	-0.09753751
195	0xbd7906a8	-0.060797364
196	0xbd0c8048	-0.034302026
197	0xbd33a185	-0.04385521
198	0xbe38a239	-0.18030633
199	0xbc66dda0	-0.014090925
200	0xbd938b58	-0.07204312
201	0xbdf06d86	-0.1173964
202	0x3e6a7d21	0.22899295
203	0xbda6891a	-0.08131619
204	0x3e0d21ba	0.13782397
205	0xbd568235	-0.05237027
206	0x3e063e64	0.13109738
207	0xbd91b3de	-0.07114385
208	0x3ba33194	0.0049802754
209	0x3dd6c5db	0.10486957
210	0xbd015a94	-0.031580523
211	0x3c5086ce	0.012727452
212	0xbc93f4dd	-0.018061096
213	0xbe33207e	-0.17492864
214	0x3e457e77	0.19286524
215	0x3e1a163f	0.15047549
216	0x3e3913ef	0.1807401
217	0x3c67b877	0.014143101
218	0xbe12fa20	-0.14353228
219	0xbd3d3b86	-0.046199344
220	0x3d8df32b	0.06931146
221	0xbe4a4c18	-0.1975559
222	0x3e489499	0.19587936
223	0xbe618a2f	-0.22025369
224	0x3ca766be	0.020434733
225	0xbe456330	-0.19276118
226	0xbc84bc70	-0.016203135
227	0xbe231209	-0.15924849
228	0xbdfffd96	-0.124995396
229	0xbe5100ab	-0.20410411
230	0x3e351cab	0.17686717
231	0xbd1387c6	-0.036018156
232	0xbd5387db	-0.051643234
233	0xbe4de67b	-0.20107453
234	0xbcc639e0	-0.024197519
235	0x3de13563	0.10996511
236	0x3e290ce8	0.1650883
237	0x3e210ff7	0.15728746
238	0x3a336891	0.000684389
239	0x3d3d9c39	0.046291564
240	0x3cd081fa	0.025452603
241	0xbd644090	-0.055725634
242	0xbdc15032	-0.09439124
243	0x3dbc1e40	0.09185457
244	0xbddb8060	-0.10717845
245	0x3e7bec34	0.24601823
246	0xbdc289ab	-0.09498914
247	0xbc34aba3	-0.0110272495
248	0xbd09e4f8	-0.033665627
249	0xbd98caae	-0.07460533
250	0xbb1242d8	-0.0022317674
251	0xbd7e80bc	-0.06213449
252	0xbd17b906	-0.037041686
253	0x3dccc052	0.0999762
254	0x3d023296	0.031786524
255	0xbe1e64f9	-0.15468206

conv1.bias f4 [32]
0	0x3e38d610	0.18050408
1	0x3d3e32be	0.04643511
2	0x3be6c9c7	0.0070430967
3	0x3e07e727	0.13271771
4	0xbdc1cc18	-0.09462756
5	0x3e4f9435	0.2027138
6	0x3dc2e5ac	0.09516463
7	0x3e0d8245	0.13819225
8	0xbdec0d05	-0.11525921
9	0xbbc38f43	-0.005968006
10	0x3d247a3e	0.04015564
11	0xbde28823	-0.11061122
12	0x3dfe7ad5	0.12425772
13	0x3dc91c96	0.098199055
14	0xbcabed72	-0.020987246
15	0xbe266974	-0.16251165
16	0xbe04fe7b	-0.12987702
17	0x3d1768be	0.036965124
18	0x3db7c665	0.08973388
19	0xbd3a77cd	-0.045524407
20	0x3d29d0ad	0.041458774
21	0xbd043444	-0.032276407
22	0xbe4c9d29	-0.19981827
23	0x3e52878e	0.20559523
24	0xbe1bffb9	-0.15234269
25	0x39e72b8b	0.00044092195
26	0x3ca53492	0.020166669
27	0x3d20f52c	0.039296314
28	0x3e03aebd	0.12859626
29	0x3d144bda	0.03620515
30	0xbdedc572	-0.11609925
31	0x3b8237d9	0.0039739427

conv2.weight f4 [32, 32, 5, 5]
0	0x3c232681	0.0099579105
1	0xbc8ec58d	-0.017428184
2	0x3cd8c777	0.0264623
3	0xbdae8953	-0.08522286
4	0x3d24c793	0.04022939
5	0x3d674f63	0.056472193
6	0xbd1d2a47	-0.038370397
7	0x3cff0718	0.031131312
8	0xbcf2f115	-0.029655972
9	0xbd6d628b	-0.057955306
10	0x3c19abb9	0.009379321
11	0xbd9cd5fb	-0.07658001
12	0x3c94ce48	0.018164769
13	0xbc93ab20	-0.018025935
14	0x394a93c6	0.00019319271
15	0xbd19fe55	-0.037596066
16	0x39929310	0.0002795686
17	0xbcb45556	-0.022013348
18	0xbd2435e2	-0.04009045
19	0x3ccb90bf	0.024849294
20	0x3c3e427e	0.011612533
21	0x3c26ec50	0.010188177
22	0xbd90540a	-0.07047279
23	0x3bdd2c86	0.0067496924
24	0xbc73db75	-0.014883866
25	0x393cd9c7	0.00018010206
26	0xbb8377b2	-0.0040120715
27	0x3cba4c03	0.022741323
28	0xbd17de7a	-0.037077405
29	0xbd2f4a3c	-0.042795405
30	0x3c9126d3	0.017718708
31	0x3b9ad818	0.0047254674
32	0x3d0e2441	0.034702543
33	0x3bd4e691	0.006497212
34	0x3cd5a480	0.026079416
35	0xbd042870	-0.032265127
36	0x3cf041b7	0.02932821
37	0xbc458b1a	-0.01205709
38	0x3c8c40b2	0.017120693
39	0x3cf2fcda	0.029661585
40	0xbad98a0a	-0.0016596925
41	0x3d3380e0	0.043824077
42	0xbcb66fe5	-0.022270152
43	0x3c9efcb6	0.019407611
44	0x3b2f34c0	0.0026734322
45	0xbc0739fb	-0.00825357
46	0x3c82b0d3	0.015953457
47	0xbc3470da	-0.011013234
48	0x3c025f7c	0.007957336
49	0x398094dd	0.00024524974
50	0x3c571fca	0.013130138
51	0xbd5ef086	-0.0544286
52	0x3ba7c808	0.005120281
53	0xbc4a01e6	-0.012329554
54	0xbd2c8674	-0.042120412
55	0xbcd1afc8	-0.025596514
56	0xb6f46f40	-7.284718e-06
57	0x3cd8bbab	0.026456675
58	0xbd124d20	-0.035718083
59	0xbcbe6f25	-0.023246357
60	0xbccf59a2	-0.025311295
61	0xba7ab5ae	-0.00095638155
62	0xbc9b62ca	-0.018968005
63	0x3c2f96bb	0.010717089
64	0x3c55007f	0.013000607
65	0x3c30db7e	0.0107945185
66	0xbc5147d7	-0.012773476
67	0xbd3eee21	-0.046613816
68	0xbcccaa86	-0.024983656
69	0xbd06b32e	-0.032885723
70	0x3c92f99d	0.01794129
71	0xbcabd567	-0.020975782
72	0xbb3b48bf	-0.0028577296
73	0xbd1582a1	-0.03650153
74	0xbca0a2aa	-0.019608814
75	0x3c0e4ccb	0.008685301
76	0xbd819b35	-0.063284315
77	0xbd5ab740	-0.053397417
78	0x3c92d19b	0.017922213
79	0x3c87f117	0.016594453
80	0x3cbacae7	0.02280183
81	0x3d0b811a	0.034058668
82	0xbca88c3d	-0.020574683
83	0xbc6f2ca1	-0.014598043
84	0xbcd2b612	-0.025721584
85	0x3c9be2e7	0.019029094
86	0xbcaa7073	-0.020805573
87	0x3c736e52	0.014857845
88	0x3ca68574	0.020327307
89	0x3cd3519e	0.025795754
90	0x3c1d43ad	0.009598655
91	0x3c72f4da	0.014828885
92	0x3cb849ce	0.02249613
93	0xbc956af3	-0.018239474
94	0x3c8a5b8a	0.016889352
95	0xbc7f0880	-0.015565991
96	0x3bebe33d	0.00719872
97	0x3be29a10	0.0069153383
98	0x3d0544ff	0.032536503
99	0x3ba90f21	0.005159274
100	0xbb75e760	-0.0037521943
101	0x3bb6f8fa	0.0055838795
102	0xbc63302f	-0.013866468
103	0x3c595c08	0.013266571
104	0xbb9efd9f	-0.0048520113
105	0xbd14db50	-0.036341965
106	0x3ce920b4	0.028457977
107	0x3d0dfda7	0.03466573
108	0x3c214675	0.009843458
109	0x3d5914d2	0.05299837
110	0xbcb7cde4	-0.022437043
111	0xbac8901b	-0.0015301736
112	0xbd06827e	-0.03283929
113	0x3ba696c0	0.005083889
114	0x3c286bbe	0.010279594
115	0xbd2e5315	-0.042559702
116	0x3cb60ea8	0.022223786
117	0xbce700e3	-0.028198665
118	0xbd054b09	-0.032542262
119	0xbce8377d	-0.028346771
120	0xbd59b263	-0.05314864
121	0xbbaa9e3f	-0.0052068527
122	0x3d56448d	0.05231147
123	0x3d20002c	0.039062664
124	0xbcac397f	-0.02102351
125	0x3d220214	0.039552763
126	0xbd49ff7c	-0.049315915
127	0x3b81cfb5	0.003961528
128	0x3d07942f	0.033100303
129	0xbd83e643	-0.06440403
130	0x3bf45f1b	0.0074576265
131	0xbd434856	-0.047676407
132	0xbd93b9bd	-0.07213161
133	0x3c0ea9c9	0.008707472
134	0xbd0eb026	-0.034835957
135	0x3cbae5de	0.022814687
136	0x3b97e02b	0.004634877
137	0x3bee5d8a	0.0072743343
138	0xbc810499	-0.015749263
139	0xba2fd781	-0.0006707833
140	0x3c306fb9	0.010768824
141	0x3c791d85	0.015204792
142	0xbd4e30e5	-0.0503396
143	0xbbacd751	-0.005274691
144	0xbcd66055	-0.026168982
145	0x3d29ac75	0.041424233
146	0xbd619a01	-0.05507851
147	0xbcbd73e4	-0.02312655
148	0xbc674605	-0.014115815
149	0xbd97d227	-0.0741313
150	0x3c92a868	0.017902568
151	0xbd368415	-0.044559557
152	0x3d3e6fb1	0.046493236
153	0xbd25ffbe	-0.040527098
154	0xbc8c646c	-0.017137729
155	0x3d15a1e5	0.036531348
156	0x3d4693f6	0.04848095
157	0xbd998eed	-0.07497964
158	0x3bfe914c	0.0077687856
159	0x3d0938e1	0.03350151
160	0xbb7c77ff	-0.0038523672
161	0xbca3e0ac	-0.020004593
162	0x3b9446c0	0.0045250356
163	0x3a3e3ee4	0.0007257296
164	0xbb27e7ce	-0.0025620344
165	0xbd80a825	-0.06282071
166	0x3d05bdeb	0.032651823
167	0x3baf17f7	0.005343433
168	0x3cf701db	0.030152252
169	0x3b0fb0ab	0.002192537
170	0xbd3a3f0b	-0.04547028
171	0xbd14e94a	-0.036355294
172	0xbc87b00d	-0.01656344
173	0x3cdd8586	0.027041208
174	0xbc15d8e6	-0.009145951
175	0x3cbc7dcb	0.023009202
176	0xbc839dd1	-0.016066464
177	0xbb8dad29	-0.004323621
178	0x3cd5c20f	0.02609351
179	0xbd98ffb8	-0.074706495
180	0x3d1e5974	0.038659528
181	0x3cd8cd42	0.026465062
182	0x3d6eb779	0.058280442
183	0xbd1a5599	-0.03767929
184	0xbda3c61f	-0.07996773
185	0xbcca6039	-0.024704086
186	0xbd1e78d7	-0.03868946
187	0x3c923bbe	0.017850753
188	0x3cfa5666	0.030558776
189	0x3cda56fd	0.026652807
190	0x3d57a08b	0.05264334
191	0x3b5e4747	0.0033916996
192	0xbaa8e95f	-0.0012886933
193	0x3d0fe310	0.035128653
194	0x3d84be49	0.064816065
195	0xbd66f2bd	-0.056383837
196	0x3cc598fc	0.0241208
197	0xbb391438	-0.002824081
198	0x3c13f6b2	0.009030985
199	0xbbee3eb3	-0.007270658
200	0x3ccd2956	0.025044125
201	0x3b89d674	0.004206473
202	0x3c6e4a16	0.014544031
203	0xbd865519	-0.065592
204	0x3d05bfa7	0.032653477
205	0xbb97ffca	-0.0046386467
206	0x3d01c4d5	0.031681854
207	0xbc9c04fa	-0.019045342
208	0xbd10f29d	-0.035387624
209	0xbd22fed7	-0.039793815
210	0x3c5c4e22	0.013446363
211	0xbd79c0e1	-0.06097496
212	0x3d33eafd	0.043925274
213	0xbc2c64a4	-0.0105220415
214	0x3cbf35c9	0.023341076
215	0xbc469696	-0.012120863
216	0xbcab8004	-0.020935066
217	0x3bcbb58e	0.0062167114
218	0x3c982380	0.018571615
219	0xbc071ffb	-0.008247371
220	0xbd5f05da	-0.05444894
221	0xbc760a2b	-0.015017073
222	0xbc0c4c02	-0.008563044
223	0x3c2f0c56	0.010684093
224	0xbbb455c6	-0.005503389
225	0x3c8b08c8	0.01697196
226	0xbc074d9e	-0.0082582515
227	0xbcadc911	-0.02121404
228	0xbcaf1408	-0.021371856
229	0x39d7e2d9	0.0004117701
230	0x3b198961	0.0023427831
231	0xbd548db6	-0.05189296
232	0xbcfcd10c	-0.0308614
233	0xbd0b78a2	-0.03405059
234	0x3d909c6a	0.070610836
235	0xbccfa25b	-0.025345972
236	0xbcd350e5	-0.02579541
237	0xbcc480f7	-0.023987276
238	0xbd61c827	-0.05512252
239	0x3c06e7f6	0.008234015
240	0xbd18b190	-0.03727871
241	0xbdd1e068	-0.1024788
242	0x3cf5e1b7	0.030014856
243	0x3cd4eb22	0.025991026
244	0xbd0bd6bb	-0.03414033
245	0xbcfb9e9b	-0.030715277
246	0xbdf71bb8	-0.12065834
247	0xbd18421e	-0.03717243
248	0xbd22acd2	-0.039715596
249	0xbcf43abd	-0.029813165
250	0xbc3534d5	-0.011059959
251	0x3ccfd39b	0.025369456
252	0x3cda0f25	0.02661855
253	0xbc588f7a	-0.013217801
254	0x3d1aaac0	0.037760496
255	0x3c8c6651	0.017138632

conv2.bias f4 [32]
0	0xbc43182e	-0.01190762
1	0x3cc96083	0.024582153
2	0xbce6473d	-0.028110141
3	0xb88c5a3a	-6.692526e-05
4	0x3d39fea0	0.045408845
5	0xbcf9eb51	-0.030507715
6	0x3c6b692a	0.014368335
7	0xbc441d4a	-0.011969874
8	0xbc9845ac	-0.01858791
9	0x3cd08934	0.025456049
10	0x3d370c8c	0.0446897
11	0xbd1b4e23	-0.037916314
12	0xbcc223bb	-0.023698678
13	0xba1f778c	-0.00060831825
14	0x3c1d718d	0.009609592
15	0xbc80316d	-0.015648568
16	0xbd2b37df	-0.04180133
17	0x3bcbed99	0.006223392
18	0xbc83b530	-0.016077608
19	0x3c0e3641	0.008679927
20	0x3bde2de6	0.006780374
21	0xbccafd68	-0.024779037
22	0xbcac7018	-0.021049544
23	0x3d31e7d1	0.043433968
24	0xbcfd56ba	-0.030925144
25	0xbd28945f	-0.041157123
26	0xbce6bdd2	-0.028166685
27	0x3cc6200d	0.024185205
28	0x3c3c516e	0.011494024
29	0xbcecffa9	-0.028930502
30	0x3c81298b	0.01576688
31	0x3d4ca0f3	0.04995818

conv3.weight f4 [32, 32, 5, 5]
0	0xbb583843	-0.003299252
1	0x3cba8f85	0.022773514
2	0xbcbb9b11	-0.02290109
3	0xbc91776a	-0.017757136
4	0xbce5b8c5	-0.028042207
5	0xbd3a1353	-0.045428585
6	0x3c1e11a1	0.009647758
7	0x3d1346da	0.03595624
8	0x3d2f1182	0.042741306
9	0x3d1ba7f6	0.038001977
10	0xbc531e25	-0.012885605
11	0x3c7f9e12	0.015601652
12	0xbd05043c	-0.03247474
13	0xb9f56ec0	-0.00046812557
14	0x3ca3f44c	0.02001395
15	0xbd4b9e6c	-0.04971163
16	0x3c3fa92d	0.0116980495
17	0x3b97bb74	0.0046305005
18	0x3d246bbf	0.040141817
19	0x3d847959	0.06468458
20	0xbcfaa5bc	-0.030596606
21	0x3c39009f	0.011291652
22	0xba9efec2	-0.0012130367
23	0x3b9552a8	0.0045569725
24	0xbb01e027	-0.0019817443
25	0x3d7ac02e	0.061218433
26	0x3cd2f8d9	0.025753425
27	0xbd2d5677	-0.042318787
28	0xbd208eaf	-0.039198574
29	0xbcf1ddec	-0.029524766
30	0xbd2cd0b0	-0.042191207
31	0x3bc4ad41	0.006002099
32	0x3ac6c592	0.0015165082
33	0x3c737293	0.01485886
34	0xbcca5c58	-0.024702236
35	0x3cc4eb49	0.024037974
36	0xbd10a3d8	-0.035312504
37	0xbcfcbe9a	-0.030852605
38	0x3d36a902	0.044594772
39	0xb8757513	-5.8521586e-05
40	0xbd1b7d32	-0.037961192
41	0xbcde4b61	-0.027135553
42	0xbc90cdac	-0.017676197
43	0xbce13758	-0.02749221
44	0xbd2f0495	-0.04272898
45	0xbc74d60b	-0.01494361
46	0xbc5045af	-0.012711926
47	0x3c547d04	0.012969259
48	0x3d592fc2	0.05302406
49	0xbd1b7ad9	-0.037958954
50	0xbc818a0a	-0.015812892
51	0xbd0f957e	-0.035054676
52	0xbd6e4283	-0.0581689
53	0xbccfc819	-0.025363969
54	0xbcf9c3e5	-0.030488918
55	0xbd72b4a9	-0.059254322
56	0xbd0d801c	-0.034546003
57	0x3d09a856	0.033607803
58	0x3ca07f34	0.019591905
59	0x3c4b7d1f	0.012419968
60	0x3c8095a1	0.015696349
61	0x3c986e72	0.018607352
62	0xb9bef8dd	-0.00036425042
63	0xbc5687d7	-0.01309391
64	0xbc2abb49	-0.010420629
65	0x3c7ac610	0.015306011
66	0x3c1aa459	0.009438598
67	0xbd26e3ad	-0.040744472
68	0x3bc73cb7	0.006080236
69	0xbd1f84fb	-0.03894518
70	0xbd6451b9	-0.055742
71	0x3d566ac7	0.052347925
72	0xbc071be6	-0.008246398
73	0xbcdebb29	-0.027188854
74	0xbaea0d04	-0.0017856662
75	0xbc32ca6f	-0.010912522
76	0x3ce91eb7	0.028457029
77	0x3cef18d5	0.029186646
78	0xbc47b211	-0.01218845
79	0x3cd2e839	0.025745498
80	0x3d0eb849	0.034843717
81	0xbc90b861	-0.017666044
82	0x3b5984e2	0.0033190777
83	0xbca8abc5	-0.020589719
84	0x3cbd2916	0.02309088
85	0xbd35ccc5	-0.044384737
86	0xbafba243	-0.0019198138
87	0xbd907c9a	-0.07055016
88	0xbd31dfeb	-0.043426435
89	0x3cbb30f2	0.022850487
90	0xbd2cb81e	-0.042167775
91	0xbd3f1ba3	-0.046657216
92	0xbd91209c	-0.07086298
93	0x3cc8e7aa	0.024524529
94	0xbce90533	-0.028444862
95	0xbe079d8f	-0.13243698
96	0xbdaa3153	-0.08310189
97	0xbda208c8	-0.07911831
98	0xbc016c10	-0.007899299
99	0xbc12a6d7	-0.0089509105
100	0x3d9dcff3	0.07705679
101	0xbd2f4eb0	-0.04279965
102	0xbd02dd3c	-0.031949267
103	0xbdcf1297	-0.101109676
104	0x3d3fde8c	0.046843097
105	0xbd00c221	-0.031435136
106	0xbbf050cc	-0.0073338505
107	0x3cb76489	0.022386806
108	0x3bc438de	0.0059882244
109	0x3d597931	0.053094093
110	0xbc7bc00f	-0.015365615
111	0xbcf2d22e	-0.029641237
112	0xbd313745	-0.0432656
113	0x3cc993c3	0.024606591
114	0xbcb65cdb	-0.022261074
115	0x3ca467ad	0.020068968
116	0x3b2b54f4	0.0026143165
117	0xbd0b94e9	-0.03407756
118	0xbc4a4b42	-0.012347044
119	0x3d48d7ac	0.049033806
120	0xbcc40f7c	-0.023933165
121	0xba5c4eac	-0.0008404057
122	0xbbc77c4f	-0.006087817
123	0xbbdbb8d3	-0.0067053824
124	0x3b804008	0.003913883
125	0xbd56075b	-0.05225311
126	0x3bc60bd3	0.00604389
127	0xbd3a6a7c	-0.045511708
128	0xbc070cc3	-0.008242789
129	0xbc974b78	-0.018468603
130	0xbc4b8a76	-0.012423148
131	0x3b802159	0.0039102254
132	0xbd16330e	-0.036669783
133	0xbc775386	-0.015095597
134	0xbcd2a9fc	-0.02571582
135	0xbc59e761	-0.013299794
136	0xbdaee368	-0.08539468
137	0xbd0e277d	-0.034705628
138	0xbd2ed843	-0.042686712
139	0x3d1348bb	0.035958033
140	0x3d0f7521	0.035023812
141	0xbd29dd51	-0.04147083
142	0xbbf97075	-0.007612283
143	0xbd689ecd	-0.05679207
144	0xbd0ff2d1	-0.035143677
145	0x3d0fd81b	0.035118204
146	0x3d2eae05	0.042646427
147	0xbd035d06	-0.032071136
148	0x3c858355	0.016297976
149	0x3ce48ac3	0.027898198
150	0x3bc6e2b7	0.006069507
151	0x3d0f7632	0.03502483
152	0x3c399e41	0.011329235
153	0xbc90e2c4	-0.017686255
154	0xbc696da1	-0.014247329
155	0xbc8bc2b6	-0.017060619
156	0xbbf11b73	-0.0073580085
157	0xbd1f2157	-0.038850155
158	0xbce9a730	-0.028522104
159	0xbd1c3d3e	-0.038144343
160	0xbcf74be5	-0.030187557
161	0xbc54b64f	-0.012982919
162	0x3c85566b	0.016276559
163	0xbd2bf8ee	-0.041985445
164	0x3d0eb91b	0.0348445
165	0xbd8f8de6	-0.07009487
166	0x3c974694	0.018466271
167	0xbd102c1b	-0.035198312
168	0xbc7a01db	-0.015259231
169	0xbca94c85	-0.02066637
170	0xbc592059	-0.013252341
171	0xbd095a17	-0.033533182
172	0x3b239749	0.0024962
173	0x3ba7ddf9	0.0051228967
174	0x3c8724fe	0.016497131
175	0x3c04e47b	0.008111115
176	0xbd22fe57	-0.03979334
177	0xbcbf5fcc	-0.02336111
178	0xb9ab6ba8	-0.00032695872
179	0xbae49401	-0.0017439128
180	0x3d1ff22e	0.03904932
181	0xbd0b32ec	-0.03398411
182	0xbd27a807	-0.040931728
183	0xbc6c8b32	-0.014437484
184	0xbd81737e	-0.063208565
185	0xbd37d926	-0.044884823
186	0xbcdf1f78	-0.027236685
187	0xbccf6fad	-0.025321806
188	0xbd36e60d	-0.044652987
189	0xbc341cae	-0.010993166
190	0xbc4bcf00	-0.012439489
191	0xbbf1611a	-0.0073663117
192	0xbb996b8e	-0.004682011
193	0x3d058829	0.032600556
194	0x3c4220d7	0.01184865
195	0x3c1aa8c7	0.009439654
196	0xbc9c3aea	-0.019071061
197	0xbd0dda12	-0.034631796
198	0x3c5e11d5	0.013554056
199	0x3d05d82d	0.032676864
200	0xbb47dafb	-0.0030495513
201	0xbc892ead	-0.01674589
202	0x3c9facc3	0.019491559
203	0x3cc69bf1	0.02424428
204	0x3c612bcf	0.013743355
205	0x3c8be20b	0.01707556
206	0xbb708e18	-0.0036705788
207	0xbc715cb8	-0.0147315785
208	0xbd515349	-0.051104818
209	0x3c3f1290	0.0116621405
210	0xbb7af102	-0.0038290625
211	0xbab1131c	-0.0013509723
212	0xbc16941c	-0.009190585
213	0x3b2aea54	0.0026079612
214	0xbd2aec24	-0.041729107
215	0xbd1fcb62	-0.03901232
216	0xbc0e38d8	-0.008680545
217	0xbcbe0282	-0.023194555
218	0xbd1ff839	-0.039055083
219	0x3bc21bd6	0.0059237285
220	0xbc0a1b08	-0.008429296
221	0x3c4c5e73	0.01247369
222	0xbbb2d274	-0.005457217
223	0x3c5a6f8c	0.013332259
224	0xbc750ac8	-0.014956184
225	0x3d4ae90f	0.04953867
226	0xbc5a0cd9	-0.013308727
227	0x3cc181df	0.023621498
228	0x3d33a61a	0.04385958
229	0xbc7005da	-0.014649833
230	0x3ce8da6e	0.028424468
231	0xbce226e5	-0.027606437
232	0xbd1df098	-0.038559526
233	0xbb2d61dc	-0.0026456034
234	0xbc5f3fdd	-0.013626066
235	0xbdaed7ed	-0.08537278
236	0x3cd8151d	0.026377255
237	0x3c8e5c0e	0.01737788
238	0xbc1f9658	-0.009740435
239	0x3c970ac1	0.018437745
240	0xbd87df80	-0.06634426
241	0x3cc45453	0.02396599
242	0xbd5bcab3	-0.053660106
243	0xbd234a29	-0.039865647
244	0xbd03b90f	-0.032158908
245	0xbdc1b69a	-0.094586566
246	0xbd73413c	-0.059388384
247	0xbc8e5a14	-0.017376937
248	0xbd63484e	-0.055488877
249	0xbd102ed7	-0.03520092
250	0x3c9d0587	0.019167675
251	0x389211b9	6.9651236e-05
252	0xbb946927	-0.0045291367
253	0x3ccc03fa	0.02490424
254	0xbc10792c	-0.008817952
255	0xbc9428f9	-0.018085944

conv3.bias f4 [32]
0	0x3d20c533	0.039250564
1	0xbab7ec66	-0.0014032244
2	0x3c1b9e70	0.009498224
3	0xba7fdcfe	-0.00097604084
4	0x3d5d67cf	0.054054078
5	0xbc855566	-0.016276073
6	0x3d3eaf34	0.046553805
7	0xbbea7741	-0.0071553295
8	0x3cad17e8	0.021129563
9	0x3d6bd5c7	0.05757692
10	0x3c84073f	0.016116736
11	0xbc78830d	-0.015167964
12	0x3b87fcaf	0.0041499953
13	0x3d0a415d	0.03375374
14	0x3c890644	0.01672662
15	0x3c8bc7c0	0.017063022
16	0xbb4d254d	-0.003130275
17	0x3d52c5ab	0.051458042
18	0x3b95e966	0.0045749424
19	0x3cefda2b	0.029278835
20	0x3d0af0c0	0.033921003
21	0xbc18849e	-0.009308962
22	0x3b0f836d	0.0021898404
23	0xbb9e25de	-0.0048262915
24	0x3c9b788b	0.018978378
25	0x3c1a7e07	0.009429461
26	0x3cc4af84	0.024009474
27	0x3b464159	0.0030251353
28	0xbc9b28e0	-0.01894039
29	0x3cc339f6	0.023831349
30	0xbaca6187	-0.0015440442
31	0xbc634a7a	-0.013872737

conv4.weight f4 [32, 32, 5, 5]
0	0xbca1af58	-0.01973693
1	0xbd85fcfa	-0.06542392
2	0xbd156681	-0.03647471
3	0xbd137970	-0.036004484
4	0xbd27cbf3	-0.040965986
5	0x3cc609a4	0.024174519
6	0x396b41ab	0.0002243581
7	0xbc4ca6b6	-0.012490919
8	0xbd075b97	-0.03304633
9	0xbbf7927a	-0.007555303
10	0xbb7e0085	-0.0038757634
11	0x3b089dff	0.0020846126
12	0x3b1d7dfb	0.002403139
13	0x3c1843cb	0.009293507
14	0x3cd27dcf	0.025694756
15	0x373a1303	1.109089e-05
16	0x3cebf65b	0.028803995
17	0x3d71e57d	0.059056748
18	0x3d90d252	0.070713654
19	0x3d7950fc	0.06086825
20	0xbca75f3c	-0.020431153
21	0xbb63b1c9	-0.003474342
22	0x3cf572a6	0.029961895
23	0x3c5f7136	0.013637831
24	0x3d1404e2	0.03613747
25	0x3b247b4d	0.0025097907
26	0xbc9e480a	-0.01932146
27	0x3bb552ba	0.0055335434
28	0x3cf2aa16	0.029622119
29	0x3d85fd11	0.06542409
30	0x3cf9e3d2	0.030504141
31	0xbcb09712	-0.021556411
32	0x3d038e7f	0.032118317
33	0x3d658f2e	0.05604475
34	0x3ac0e275	0.0014715927
35	0x3c6c0468	0.014405347
36	0x3b4462bc	0.0029966077
37	0x3c5e1f32	0.013557242
38	0x3c923ce7	0.017851306
39	0x3c95a4f7	0.018267138
40	0x3c001c72	0.007819282
41	0x3c7fa8f2	0.015604245
42	0xbc01c7b5	-0.007921149
43	0x3c614246	0.013748711
44	0xbc9ac890	-0.018894464
45	0x3c969aa8	0.018384293
46	0xbd72df69	-0.05929509
47	0xbd2af7d5	-0.041740257
48	0xbbe945ba	-0.0071189078
49	0xbc91d91a	-0.017803717
50	0xbcff6c98	-0.031179711
51	0xbcf46717	-0.029834313
52	0xbd69ac83	-0.057049286
53	0xbc4ad975	-0.012380947
54	0x3c3debbd	0.011591849
55	0x3cdef83b	0.027217975
56	0xb9891e79	-0.0002615338
57	0xbb46eaac	-0.0030352278
58	0x3a0d93b4	0.00054007326
59	0x3cc9c86d	0.024631703
60	0x3d4849cc	0.048898503
61	0x3d3b7a62	0.04577101
62	0xbbe6ae25	-0.0070398026
63	0x3cdcb651	0.026942404
64	0x3ce1fbe5	0.027585933
65	0x3bd4f843	0.0064993217
66	0x3d3c5085	0.045975227
67	0x3d490884	0.049080387
68	0xbb4c4d7e	-0.0031174119
69	0xbc764d4d	-0.015033078
70	0xbbd3638f	-0.0064510773
71	0x3b124b56	0.0022322736
72	0xbca09e15	-0.01960663
73	0x3d2d139a	0.04225502
74	0x3d117dbb	0.035520297
75	0x3cd39a38	0.025830373
76	0xbbeaefb0	-0.0071696863
77	0x3cf1f961	0.029537858
78	0x3cec8197	0.028870387
79	0x3ce11139	0.027474033
80	0xbb998f55	-0.004686276
81	0xbc4c7f44	-0.012481514
82	0x3caab21f	0.020836888
83	0xbc714c7e	-0.01472771
84	0x3cd2b3e8	0.025720552
85	0xbcd58ab4	-0.026067115
86	0xbb439493	-0.0029843196
87	0xbcf9db99	-0.03050022
88	0x3cc5a236	0.0241252
89	0xbc007b29	-0.007841864
90	0xbc22490c	-0.009905111
91	0x3d0faea5	0.035078663
92	0x3c6956a4	0.014241848
93	0x3cd2526a	0.025674064
94	0xbbed3885	-0.0072394037
95	0x3d029d07	0.031888034
96	0x3d3a65f2	0.04550738
97	0x3c9d0f51	0.019172342
98	0xbc528601	-0.012849332
99	0x3ae51565	0.001747769
100	0xbcb06160	-0.021530807
101	0xbce72a01	-0.028218271
102	0xbc316891	-0.010828153
103	0xbc4a7b91	-0.012358562
104	0xbbeef5a2	-0.0072924653
105	0xbc260841	-0.010133804
106	0x3a6cb7d8	0.00090300804
107	0x3d0afab7	0.033930507
108	0x3c794434	0.015214015
109	0x39b608bd	0.00034720256
110	0x3cd0d45a	0.025491882
111	0x3d113651	0.03545219
112	0x3d05787f	0.032585617
113	0xbc796a7a	-0.01522314
114	0xbcff7292	-0.031182561
115	0x3cab9dea	0.020949323
116	0x3d32fbf8	0.043697327
117	0x3c574d5d	0.013141003
118	0x3c62b2ac	0.013836544
119	0x3c2d1ec1	0.010566414
120	0x3d1b40cb	0.03790359
121	0xbb73bf8f	-0.0037193035
122	0x3c84db74	0.016217925
123	0x3caa2dc7	0.020773781
124	0x3b4a0950	0.0030828305
125	0xbd3ee63a	-0.04660628
126	0xbb73d0e2	-0.0037203361
127	0x3c9eedac	0.01940044
128	0xbc382a7a	-0.011240596
129	0xbd33d173	-0.04390092
130	0x3d4fea45	0.050760526
131	0x3cbbac9d	0.022909457
132	0x3c747af0	0.014921889
133	0x3abee8cd	0.001456523
134	0xbd5dd3f7	-0.054157224
135	0x3d01db55	0.031703312
136	0x3cd7f53d	0.026362056
137	0x3cc1c89f	0.023655234
138	0xbca9b5a1	-0.02071649
139	0x3d18fe29	0.03735176
140	0x3c681131	0.014164255
141	0x3d1f7509	0.038929973
142	0x3a94dc31	0.0011357126
143	0xbd10084d	-0.035164166
144	0xbcf94d6e	-0.03043243
145	0x3cf51e7f	0.029921768
146	0x3bbeb6e5	0.0058201426
147	0xbd36f912	-0.044671126
148	0xbb240d8c	-0.0025032489
149	0xbd318772	-0.04334206
150	0xbc67805f	-0.014129727
151	0xbd944518	-0.07239741
152	0xbd639b64	-0.055568114
153	0xbda0bd68	-0.078486264
154	0xbc46bc24	-0.012129817
155	0x3ccf3ba4	0.025296994
156	0xbc7eb104	-0.0155451335
157	0xbd3a0544	-0.045415178
158	0xbd4aa72e	-0.04947584
159	0xbd8d4368	-0.06897622
160	0x3ce79cdd	0.02827304
161	0xbc61d5be	-0.01378387
162	0x3ce433e0	0.027856767
163	0xbd517fdc	-0.051147327
164	0xbca9aed9	-0.020713257
165	0x3c55dc15	0.01305296
166	0x3d8ddd2f	0.06926953
167	0x3cd41704	0.025889881
168	0xbc752b42	-0.014963927
169	0x3cd3f688	0.025874391
170	0x3da2cd53	0.07949319
171	0x3dad8adc	0.08473751
172	0x3d74ef8b	0.05979876
173	0xba0d0836	-0.00053799467
174	0x3c91b2f7	0.017785532
175	0x3c571d34	0.013129521
176	0x3ba40b61	0.0050062393
177	0xbcca36af	-0.024684278
178	0xbcf78b1e	-0.030217703
179	0xbc4b6509	-0.012414225
180	0x3d0d6921	0.034524087
181	0xbc357d36	-0.011077216
182	0xbca6f823	-0.020381993
183	0xbd941a1f	-0.07231545
184	0x3ca3f57b	0.020014515
185	0x3cb3da06	0.021954548
186	0xbd5a8d26	-0.053357266
187	0xbce9bc69	-0.028532224
188	0xbc37a3b3	-0.0112084625
189	0xbc4548ee	-0.012041314
190	0x3d19a34a	0.03750924
191	0xbd0eb331	-0.03483886
192	0xbd032e09	-0.032026324
193	0x390d971b	0.00013503099
194	0xbcf1241b	-0.029436162
195	0xbcb0909c	-0.02155333
196	0xbb1074df	-0.0022042317
197	0xbc29c218	-0.010361217
198	0xbd2f3da5	-0.0427834
199	0xbd5db974	-0.05413194
200	0x3cb18554	0.021670021
201	0x3c362853	0.0111180125
202	0xbcd2e297	-0.025742812
203	0xbd14e0ba	-0.03634713
204	0x3cf4ddc0	0.029890895
205	0x3c545b32	0.012961196
206	0xbaf07665	-0.0018345831
207	0xbce07175	-0.02739785
208	0xbc299857	-0.010351262
209	0x3d2b5520	0.04182923
210	0x3d106038	0.03524801
211	0xbb872991	-0.004124828
212	0x3d86a816	0.065750286
213	0x3c1f152e	0.0097096395
214	0xbb8de653	-0.0043304353
215	0x3d4e6320	0.0503875
216	0x3cf15e68	0.029463962
217	0x3c6e73eb	0.014554004
218	0x3cdb099f	0.026737986
219	0xbc39eb7b	-0.011347647
220	0xbbfb6e8d	-0.007673091
221	0x3d503ccc	0.05083923
222	0xbabcb272	-0.0014396443
223	0xbc4b9f97	-0.012428186
224	0x3b09088a	0.002090963
225	0xbb86f137	-0.0041181105
226	0xbd143fd8	-0.0361937
227	0x3b7eab7e	0.0038859542
228	0xbc1282dc	-0.008942332
229	0xbc78ce8f	-0.015185966
230	0x3c9e6d25	0.019339154
231	0xbcd1b886	-0.025600683
232	0xbd06d496	-0.03291758
233	0x3cc82e14	0.024436034
234	0x3c9d222e	0.019181337
235	0x3d471906	0.04860785
236	0x3d0cae08	0.034345657
237	0xbc081baa	-0.008307377
238	0x3c464861	0.012102217
239	0xbcb40301	-0.021974089
240	0x3d814c91	0.06313432
241	0x3d0eccd3	0.034863304
242	0x3cc12ebd	0.023581857
243	0xbca523ac	-0.020158611
244	0x3d11f9e6	0.035638712
245	0x3d031898	0.032005876
246	0x3c156edf	0.009120672
247	0xbc71dc69	-0.0147620225
248	0x3d08b2b6	0.033373557
249	0x3cb41d75	0.021986702
250	0xbcd7c551	-0.026339205
251	0xbcc9102e	-0.024543848
252	0xbc02f1b1	-0.007992194
253	0x3d3e59b4	0.046472266
254	0x3d1e90bd	0.038712252
255	0x3c360618	0.011109851

conv4.bias f4 [32]
0	0xbcaea554	-0.021319069
1	0x3bff278c	0.007786697
2	0x3c98270e	0.01857331
3	0x3d08214a	0.033234872
4	0xbcf9fee2	-0.030517045
5	0xbd199e28	-0.037504345
6	0x3ce6d489	0.028177517
7	0xbcdc5853	-0.026897585
8	0xbc37867a	-0.011201495
9	0x3c485d4c	0.012229275
10	0x3c613540	0.013745606
11	0xbcb0b1f5	-0.021569232
12	0x3c9f6496	0.019457143
13	0xbc94bd0e	-0.018156555
14	0x3d244edf	0.04011428
15	0xbbb61211	-0.005556353
16	0xbc936d23	-0.017996376
17	0xbcfa371b	-0.030543854
18	0x3d50b969	0.05095807
19	0xbc6f6dd0	-0.014613584
20	0xbcad848d	-0.02118137
21	0x3aed6126	0.0018110618
22	0xbcd8aa27	-0.026448322
23	0xbce1c100	-0.02755785
24	0x3d3a5196	0.045487963
25	0x3ccfbc13	0.025358235
26	0xbcb5b4e5	-0.022180984
27	0xbd071efe	-0.03298854
28	0xbc22f951	-0.009947137
29	0x3b850c87	0.0040603313
30	0xbcc04801	-0.023471834
31	0x3cdf214f	0.027237562

conv5.weight f4 [32, 32, 5, 5]
0	0xbca3fe5a	-0.020018745
1	0x3d2f4e48	0.042799264
2	0x3d49df52	0.04928524
3	0x3d4ca63f	0.049963232
4	0x3b415a5e	0.0029503326
5	0x3d00bbb9	0.031429026
6	0xbb0f7a9e	-0.0021893154
7	0x3ca711de	0.020394262
8	0x3cc4ea5d	0.024037534
9	0xbb97fa02	-0.0046379576
10	0x3d1aafbe	0.037765257
11	0x3c169e23	0.009192976
12	0xbb364366	-0.0027811169
13	0xbb7ed57f	-0.0038884578
14	0x3cf7fd51	0.030272158
15	0x3c3484fc	0.011018034
16	0xbcbf427a	-0.023347128
17	0x3ce51a90	0.027966768
18	0x3cb9ef41	0.022697093
19	0x3c4293ad	0.011876029
20	0x3ca732e2	0.020410005
21	0xbc4fe41c	-0.012688663
22	0xbbc008d8	-0.0058604293
23	0xbc8dadea	-0.017294843
24	0xbd08c6a7	-0.033392575
25	0x39ef68d6	0.0004566374
26	0x3c45648b	0.012047897
27	0x3d4bffee	0.04980462
28	0x3d11b91f	0.035576936
29	0x3ba2c9a0	0.004967883
30	0xbcc4101c	-0.023933463
31	0x3d0e12ef	0.034686025
32	0xbc43e0fc	-0.011955496
33	0x3d3d2a2c	0.046182796
34	0x3cf7224a	0.030167717
35	0xbccba26b	-0.02485772
36	0xbbfb633d	-0.0076717422
37	0xbc4c82cf	-0.012482359
38	0x3c02bee9	0.007980087
39	0x3ce15e5c	0.027510814
40	0xbc0550ed	-0.00813697
41	0x3ce3c4ef	0.027803866
42	0xbcc20160	-0.023682296
43	0xbce96016	-0.0284882
44	0x3c07c6ab	0.008287112
45	0xbc65d147	-0.014026946
46	0x3cdc3722	0.026881758
47	0xbbf2a23e	-0.0074045947
48	0xbcfac63b	-0.030612102
49	0x3d09557d	0.033528794
50	0xbd10527b	-0.03523491
51	0x3b54615a	0.003240666
52	0xbbf3e733	-0.0074433326
53	0xbb99a7d9	-0.0046891985
54	0xbaeb41db	-0.0017948704
55	0xbb65b919	-0.0035052954
56	0xbca52fc2	-0.020164374
57	0xbc97d910	-0.01853612
58	0x3b6cba13	0.003612165
59	0xbcd54ca3	-0.02603752
60	0x3ab338aa	0.0013673503
61	0x3cb0f1c4	0.021599658
62	0x3d1c170e	0.038107924
63	0x3cb091a6	0.021553826
64	0x3c8c599a	0.01713257
65	0xbcc3f88b	-0.023922225
66	0x3cb52849	0.022113936
67	0x3c9d43a2	0.019197289
68	0xbd05b241	-0.0326407
69	0x3c8a24b7	0.01686321
70	0xbc726af6	-0.014796009
71	0x3d0f42a5	0.034975667
72	0x3ce1a4fa	0.027544487
73	0xbca75b72	-0.020429347
74	0xbbc58df5	-0.0060288855
75	0xbb3f8628	-0.002922425
76	0x3b6118f8	0.0034347158
77	0xbc40f7b6	-0.011777809
78	0x3c1ae731	0.009454534
79	0xbb6e88e6	-0.0036397516
80	0xbc1967ba	-0.009363109
81	0x3d251d4d	0.040311147
82	0x3cde8e6e	0.027167525
83	0x3bd50120	0.0065003783
84	0x3ced77dd	0.02898782
85	0x3b202ed0	0.0024441965
86	0x3b83f63a	0.004027155
87	0x3d0ccebc	0.034376845
88	0x3c9a841a	0.018861819
89	0xbd2589cf	-0.040414628
90	0xbb5c2d4e	-0.003359634
91	0x3cc54f71	0.024085732
92	0xbcf1e152	-0.029526386
93	0xbcd56e6b	-0.026053628
94	0xbc7b7294	-0.015347142
95	0x39d9aa9a	0.00041516573
96	0xbca7ffba	-0.020507682
97	0xbc626690	-0.013818398
98	0x3c0f2dc9	0.008738943
99	0x3c5bac5c	0.013407793
100	0x3b25d94e	0.0025306526
101	0xbcd398d6	-0.025829714
102	0xbcf3050d	-0.029665494
103	0xbb8bd8b3	-0.004267776
104	0x3cb6c581	0.022310974
105	0x3d46b746	0.048514627
106	0x3d390620	0.045171857
107	0xbc08bc52	-0.00834568
108	0x3c625071	0.013813124
109	0x3c66c776	0.014085641
110	0xbbae9edc	-0.005328996
111	0x3bbf6eec	0.0058420803
112	0x3cebf97b	0.028805485
113	0x3bf88865	0.007584619
114	0xbcab0033	-0.020874118
115	0x3d477373	0.048694085
116	0x3d3f5865	0.04671516
117	0xbcccd375	-0.025003174
118	0xbc8ccae1	-0.017186584
119	0xbcf6df85	-0.03013588
120	0xbcc0cd8d	-0.023535514
121	0xbca6e77e	-0.020374056
122	0xbc088fca	-0.008335063
123	0x3c932a82	0.017964605
124	0x3c19bdc4	0.009383623
125	0xbccc3a41	-0.024930121
126	0xbd0d8c0c	-0.034557387
127	0xbd4c141b	-0.04982386
128	0x3bd959cf	0.0066330205
129	0xbd168078	-0.03674361
130	0xbccc98dc	-0.024975233
131	0xbd859561	-0.065226324
132	0xbc4dac04	-0.012553219
133	0xbc9f4e6a	-0.01944657
134	0xbd1fa93f	-0.038979765
135	0xb9b8542f	-0.00035157937
136	0xbd8d3bcc	-0.06896171
137	0xbcdd67e9	-0.027027087
138	0xbd46b4c5	-0.04851224
139	0xbcdcf3f3	-0.026971793
140	0xbbd0d83c	-0.0063734334
141	0xbcc0dea1	-0.023543658
142	0xbcc2477a	-0.023715723
143	0xbd2f3238	-0.0427725
144	0xbcf30dae	-0.029669609
145	0xbd6a71da	-0.057237484
146	0xbd930f3d	-0.07180641
147	0xbb38000c	-0.00280762
148	0xbca8bdb9	-0.02059828
149	0xbd309c4d	-0.04311781
150	0x3cd17cdf	0.025572238
151	0xbc59f5ec	-0.013303261
152	0xbd113440	-0.03545022
153	0xbce3186a	-0.027721602
154	0xbbc1a8f4	-0.0059100334
155	0xbca820d6	-0.02052347
156	0xbcfd8212	-0.030945811
157	0xbd045235	-0.03230496
158	0xbc352542	-0.011056246
159	0xbcffceca	-0.031226534
160	0xbd10af5b	-0.035323482
161	0x3bac861b	0.00526501
162	0x3c937e36	0.018004518
163	0x3bafa64a	0.0053603994
164	0xbc76eab7	-0.015070609
165	0xbcf05452	-0.029337082
166	0xbcc402fe	-0.023927208
167	0xbc9ef1c4	-0.019402392
168	0xbd10a707	-0.03531554
169	0xbc02c311	-0.007981078
170	0x3adf30d3	0.00170281
171	0x3a861f6a	0.0010232751
172	0x3ca192b8	0.019723281
173	0xba8bf80d	-0.0010678783
174	0x3ba2c896	0.0049677594
175	0xbd0475e6	-0.032339
176	0xbc9e189b	-0.019298842
177	0x3d0bae88	0.034101993
178	0x3d062129	0.032746468
179	0x3c30533a	0.01076203
180	0xbca1d01f	-0.01975256
181	0xbce16e0f	-0.0275183
182	0xbc331c3d	-0.0109320255
183	0x3d48f2df	0.049059745
184	0x3d0dd861	0.034630183
185	0xbc0ece23	-0.008716139
186	0x3d09066d	0.033453394
187	0x3d34872c	0.044074222
188	0xbc4ff8dc	-0.01269361
189	0x3d31792d	0.043328453
190	0xbd0efcc1	-0.034909014
191	0x3cd02d8d	0.025412345
192	0xbba78890	-0.005112715
193	0xbc498d83	-0.012301805
194	0xbcdf6098	-0.02726774
195	0xbcfb7fc1	-0.030700566
196	0x3d2e2c66	0.04252281
197	0x3c649d76	0.013953557
198	0xbb1e84bd	-0.0024188005
199	0x3ce34b42	0.027745847
200	0xbd1d4afd	-0.038401593
201	0xbcc1a5d5	-0.023638645
202	0xbca20563	-0.01977796
203	0x3c624f35	0.01381283
204	0x3be84688	0.007088486
205	0x3c4c9c90	0.012488499
206	0xbca51b18	-0.02015452
207	0x3c25abaa	0.010111729
208	0xbbb2b761	-0.0054539894
209	0x3c928fe9	0.017890887
210	0x3c5882c3	0.01321477
211	0x3b7db9f3	0.003871557
212	0xbce03f32	-0.027373884
213	0xbc0b6ba8	-0.008509554
214	0x3c1e61bf	0.009666859
215	0xbccbb929	-0.024868565
216	0x3b98625c	0.004650397
217	0x3cf30f86	0.029670488
218	0xbcb9a146	-0.022659909
219	0x3cb4a4eb	0.022051295
220	0xbcab231f	-0.02089077
221	0x3b12b4b0	0.002238553
222	0x3c9147b5	0.017734388
223	0x3bcef1eb	0.00631546
224	0x3cdf3261	0.027245702
225	0x3a1a0c4a	0.0005876465
226	0x3b210296	0.0024568192
227	0x3ca2ddd3	0.019881165
228	0xb9e9ea93	-0.00044615995
229	0xbc32fe49	-0.010924884
230	0xbc7c979b	-0.015417005
231	0xbba4c2da	-0.005028111
232	0xbcd6e48e	-0.02623203
233	0x3cc4ec2a	0.024038393
234	0xbcca89e0	-0.024723947
235	0xbb5fec8c	-0.0034168093
236	0x3b79b183	0.003810019
237	0x3b95f7b0	0.004576646
238	0xbb8f238d	-0.0043682517
239	0x3c82ace8	0.015951589
240	0x3cbf8a13	0.023381269
241	0x3cb32bfc	0.02187156
242	0xbbe0fc93	-0.0068660467
243	0x3ca9ada6	0.020712685
244	0x3cd2c0d0	0.025726706
245	0x3cda8a5f	0.026677309
246	0xb8bcacf2	-8.996752e-05
247	0x3d02ebf0	0.03196329
248	0xbc9a7dfa	-0.018858898
249	0xbd012b81	-0.03153563
250	0x3c6629ee	0.014048083
251	0x3c322f93	0.0108756
252	0xbbf4f232	-0.007475161
253	0xbd024c70	-0.031811178
254	0xbc34774e	-0.011014773
255	0x3c7f6b01	0.015589477

conv5.bias f4 [32]
0	0xbd07a116	-0.033112608
1	0xbcf336a2	-0.029689137
2	0xbb98102f	-0.004640601
3	0x3def60a3	0.11688354
4	0xbd05fb96	-0.032710634
5	0xbc51d654	-0.012807447
6	0x3a8f65fd	0.0010940429
7	0xbd2efa9b	-0.042719465
8	0xbc9b479d	-0.018955046
9	0xbc30f7b6	-0.010801246
10	0xbc882294	-0.01661805
11	0xbd4d5054	-0.050125435
12	0xbbb8d3bd	-0.0056404755
13	0xbc28ca9d	-0.010302213
14	0xbcdbc00e	-0.026824977
15	0x3c554c15	0.013018628
16	0xbc97511a	-0.01847129
17	0x3c7883f1	0.015168176
18	0xbbebaf0c	-0.007192498
19	0x3c7176ef	0.014737829
20	0xbbdcc972	-0.0067378813
21	0x3ae58247	0.0017510139
22	0x3d0a3d0c	0.033749625
23	0x3b454256	0.0030099354
24	0xbd5a5f7c	-0.053313717
25	0x3d074e8a	0.033033885
26	0xbb11bd3d	-0.002223804
27	0x3cb1af23	0.021689957
28	0x3d5dabac	0.054118797
29	0x3c24799a	0.010038758
30	0x3c138af8	0.009005301
31	0xbcbf050a	-0.023317832

conv6.weight f4 [32, 32, 5, 5]
0	0xbd2e1da9	-0.042508755
1	0xbba7dbff	-0.005122661
2	0x3c392f6b	0.011302809
3	0xbce64be3	-0.028112357
4	0xbc52fa41	-0.012877048
5	0xbd6c27dd	-0.057655204
6	0xbd26d966	-0.04073467
7	0x3c585eab	0.013206164
8	0xbd329d72	-0.043607183
9	0xbd2dcbb4	-0.042430595
10	0xbd1ce92a	-0.0383083
11	0x3c14772e	0.009061618
12	0xbb9380a4	-0.004501419
13	0x3ca40dcd	0.020026112
14	0x3d080c4c	0.033214852
15	0xbcc74aab	-0.024327597
16	0xbcecef21	-0.02892262
17	0x3bfe0df0	0.0077531263
18	0x3c124710	0.008928075
19	0xbcb9a6bd	-0.022662515
20	0xbcd1968e	-0.025584485
21	0x3ca82592	0.020525727
22	0xbb869828	-0.004107494
23	0x3c8e10b1	0.017341943
24	0xbc194720	-0.009355336
25	0x3b5d00b7	0.003372235
26	0xbd15ac69	-0.036541376
27	0xbccaf92e	-0.024777021
28	0xbd60c36f	-0.05487388
29	0xbc8974bd	-0.016779298
30	0xbd479bea	-0.048732676
31	0xbd04e614	-0.032445982
32	0xbd5707f7	-0.05249783
33	0xbd0af27d	-0.03392266
34	0xbd9b29eb	-0.075763546
35	0xbdb21d99	-0.086970516
36	0xbbc2ca29	-0.0059445095
37	0xbd522696	-0.05130633
38	0xbc0ded73	-0.008662569
39	0xbd7f27a2	-0.062293656
40	0xbc7dc8de	-0.015489785
41	0xbc560bd7	-0.013064346
42	0xbca1c95b	-0.019749334
43	0xbcf37221	-0.029717507
44	0xbd25c781	-0.040473465
45	0xbc9d1ae9	-0.01917787
46	0xbd007a80	-0.031366825
47	0xbc8b3e79	-0.016997563
48	0xbca48e3f	-0.02008736
49	0xbb17377a	-0.0023073838
50	0xbd92c36d	-0.07166181
51	0xbd5caecf	-0.053877648
52	0xbd77d395	-0.060504515
53	0xbd69614e	-0.056977563
54	0xbd702e5f	-0.058637973
55	0xbdc0cfe4	-0.09414652
56	0xbdfb7b45	-0.12279371
57	0xbd9cf69b	-0.07664224
58	0xbdc98ae6	-0.09840946
59	0xbda23750	-0.07920706
60	0xbd837b4f	-0.064200036
61	0xbd88b7d5	-0.06675688
62	0xbd7a2696	-0.061071955
63	0xbd5e8779	-0.054328416
64	0xbde003d7	-0.109382324
65	0xbda13b6b	-0.07872661
66	0xbdc56b77	-0.09639638
67	0xbd996675	-0.07490245
68	0xbd22c26e	-0.039736204
69	0xbd836d72	-0.064173594
70	0xbd8d3f8d	-0.06896887
71	0xbdc500b2	-0.09619273
72	0xbd90f2e6	-0.07077579
73	0xbd7fb1f3	-0.062425565
74	0xbd147ad5	-0.036249954
75	0x3d527404	0.051380172
76	0x3c862382	0.016374353
77	0x3d8eded6	0.06976096
78	0x3d920fa0	0.071318865
79	0x3d20d147	0.039262082
80	0x3cf327ab	0.029682001
81	0x3d4e779e	0.050407045
82	0x3d72b2e7	0.059252646
83	0x3d8ab895	0.067734875
84	0x3cb2a658	0.021807835
85	0x3cf9c6b5	0.030490259
86	0x3cabf9c5	0.020993123
87	0x3d93c843	0.07215931
88	0x3c39e346	0.01134569
89	0x3d2e0c42	0.04249216
90	0x3d80ec20	0.06295037
91	0x3bf40445	0.007446798
92	0x3c87af55	0.016563097
93	0x3d8b051c	0.06788084
94	0x39c4153e	0.0003739986
95	0x3d98752d	0.074442245
96	0x3ccbbd0f	0.024870424
97	0x3d17f52f	0.03709906
98	0x3d6a5491	0.057209555
99	0x3d72d7a2	0.059287675
100	0x3bff32d8	0.0077880435
101	0xbd04d678	-0.032431096
102	0xbd4b36c7	-0.049612787
103	0xbb12caf2	-0.0022398797
104	0x3c0d5b9c	0.008627798
105	0xbd64d193	-0.055863928
106	0xbc8a2eb3	-0.016867971
107	0xbc48fbb5	-0.012267043
108	0xbbb53c42	-0.005530865
109	0xbcb8dd07	-0.022566332
110	0xbb8900bf	-0.004180997
111	0xbcc94b17	-0.024571938
112	0xbc53fcc8	-0.012938686
113	0xbc550330	-0.013001248
114	0xbd0b11cc	-0.03395252
115	0xbd232598	-0.039830774
116	0xbcf47bcb	-0.029844185
117	0x3cc2f35d	0.023797685
118	0xbc01ed1b	-0.0079300655
119	0xbc094e3b	-0.008380468
120	0xbc8bf2a3	-0.017083472
121	0xbcce7431	-0.025201889
122	0x3d08c9ca	0.033395566
123	0x3d20375a	0.039115287
124	0x3d2c32fc	0.04204081
125	0xbd16bc4f	-0.03680068
126	0xbd3f3c15	-0.046688158
127	0xbd50de3a	-0.05099318
128	0xbc355e00	-0.011069775
129	0xba4c995e	-0.0007804836
130	0xbab7a7c9	-0.0014011796
131	0xbd0eed8c	-0.03489451
132	0xbcd64e16	-0.026160281
133	0xbbf07b90	-0.0073389485
134	0xbc673d3e	-0.014113722
135	0x3c80b646	0.015711915
136	0xbd0f813d	-0.03503536
137	0xbcb32d54	-0.0218722
138	0xbab63d98	-0.0013903854
139	0xbc500132	-0.0126955975
140	0xbc1952bd	-0.009358105
141	0x3baab5a9	0.005209644
142	0x3ca13645	0.019679198
143	0xbc9cbe53	-0.019133722
144	0x3d0630ec	0.0327615
145	0xbbf555ba	-0.007487026
146	0x3d028956	0.031869255
147	0x3d2696a5	0.04067101
148	0x3c5ce940	0.0134833455
149	0xbc16cad0	-0.009203628
150	0xbbbbef89	-0.005735342
151	0xbcf067a8	-0.029346302
152	0x3c2921c7	0.010322995
153	0xbc6b4a04	-0.014360908
154	0x3c8b93ec	0.017038308
155	0x3b503b74	0.0031773718
156	0x3c263d01	0.01014638
157	0xbb2a98a4	-0.0026030922
158	0x3cc0035f	0.023439107
159	0x3d1249ff	0.0357151
160	0x3cc3c36b	0.023896893
161	0x3c84b433	0.016199207
162	0xbc90d0bc	-0.017677657
163	0x3cc671f4	0.024224259
164	0x3c09de26	0.008414781
165	0x3a24d97d	0.0006288512
166	0x3b669eff	0.0035189984
167	0xbc96dfc8	-0.018417254
168	0xbb3adf6d	-0.002851452
169	0x38f2f082	0.00011584257
170	0x3d0bdd0b	0.03414635
171	0x3bdb9256	0.006700794
172	0xbb6b0403	-0.0035860545
173	0x3d37e023	0.044891488
174	0x3cfb2b67	0.030660344
175	0xbd0fd476	-0.035114728
176	0xbcfcb7c4	-0.030849345
177	0xbd0a7930	-0.03380698
178	0x3ca242ad	0.019807184
179	0xbc7817c0	-0.015142381
180	0x3ca8ec4f	0.020620493
181	0xbd36dc61	-0.044643763
182	0x3c3e670f	0.011621251
183	0xbcdcaa5f	-0.026936708
184	0x3c85a9ff	0.016316412
185	0xbcb2d890	-0.02183178
186	0xbc9a6d31	-0.018850895
187	0x3c96a78e	0.018390443
188	0x3c798e3e	0.015231667
189	0xbc34b48e	-0.011029376
190	0xbba25145	-0.0049535357
191	0x3c84eab0	0.016225189
192	0xbc938b33	-0.018010711
193	0x3c6158ca	0.013754079
194	0x3d1c0534	0.0380909
195	0x3d0ad2fe	0.033892624
196	0xb99476dc	-0.00028317317
197	0x3b339391	0.002740119
198	0xbc2991de	-0.010349719
199	0x3d3acef5	0.045607526
200	0xbd512af3	-0.05106635
201	0xbc74e62e	-0.014947457
202	0xbc5864bd	-0.013207612
203	0xbbe45163	-0.00696771
204	0xbd484626	-0.048895024
205	0xbca45170	-0.020058364
206	0xbcb17c86	-0.021665823
207	0xba7bd603	-0.00096067804
208	0x3cc9ff64	0.024657913
209	0x3c18e087	0.009330875
210	0xbc9794fd	-0.01850366
211	0x3cfd6e19	0.030936288
212	0xbb96eec6	-0.0046061007
213	0xbc9424be	-0.018083926
214	0x3cdf7190	0.02727583
215	0xbcb98c76	-0.022649985
216	0x3c05b175	0.008159985
217	0x3ce897d5	0.028392712
218	0x3cc520fc	0.02406358
219	0xbc984a7e	-0.018590208
220	0x3d0faede	0.035078876
221	0x3cecdd42	0.028914098
222	0x3d47da47	0.04879215
223	0x3d2c58df	0.04207694
224	0x3d3744f9	0.04474351
225	0xbcbb0f94	-0.022834577
226	0x3c275f9e	0.010215668
227	0xbcbc6c3f	-0.023000835
228	0xbb9e3d6d	-0.0048291
229	0x3b3be25d	0.0028668859
230	0xbc807639	-0.015681373
231	0xbd2299bb	-0.03969739
232	0xbc80fc10	-0.015745193
233	0xbb9aa23b	-0.0047190464
234	0x3c9c561f	0.019084034
235	0xba4bd7ac	-0.0007775973
236	0x3c846dbf	0.016165612
237	0x3c0b8921	0.008516581
238	0x3c9a37c6	0.018825423
239	0x3cc709ee	0.024296727
240	0x3bd4e35a	0.006496829
241	0xbb3195eb	-0.0027097415
242	0x3ce425cf	0.02785006
243	0x3a5f9181	0.00085284567
244	0x3d559f42	0.052153833
245	0x3b0f6f48	0.0021886397
246	0x3c636b3e	0.013880549
247	0x3c5081f9	0.0127263
248	0x3cf96b18	0.030446574
249	0x3d4f1bf9	0.050563786
250	0xbd337486	-0.043812297
251	0xbd229762	-0.03969515
252	0xbcdb5aba	-0.02677666
253	0xbd6210bc	-0.05519174
254	0xbd47e3fb	-0.048801403
255	0xbd5bde5c	-0.053678855

conv6.bias f4 [32]
0	0x3d99d034	0.07510415
1	0x3cbf5281	0.02335477
2	0xbcd7bb3a	-0.026334394
3	0x3dde5b2a	0.10857232
4	0x3c81a482	0.015825514
5	0xbc6f2f4c	-0.014598679
6	0x3cb7d49a	0.022440244
7	0x3c1bc631	0.009507702
8	0xbb9a3f88	-0.0047072805
9	0xbc9ee050	-0.01939407
10	0x3d9f54e2	0.07779862
11	0x3d45087e	0.048103802
12	0x3c3dc061	0.011581511
13	0xbbfc1304	-0.0076926965
14	0x392567a0	0.0001577423
15	0xbd17ae0e	-0.037031226
16	0x3b011398	0.0019695517
17	0xbd77f24e	-0.060533814
18	0x3d6f0dae	0.058362655
19	0x3ccf19c8	0.025280848
20	0x3c28ced8	0.010303222
21	0x3c9d6d83	0.019217258
22	0xbd1c2e24	-0.03812994
23	0x3d8773d0	0.06613886
24	0x3cf75590	0.030192167
25	0xbccc07e3	-0.024906104
26	0xbd036863	-0.032081973
27	0x3d082948	0.033242494
28	0x3d054e69	0.03254548
29	0x3c89e7b8	0.016834125
30	0x3cfe4558	0.031038925
31	0xbc95f30e	-0.018304374
