models/DQN_heuristic.pth (torch, 916745 bytes, 22 tensors)

conv1.weight f4 [32, 1, 5, 5]
0	0xbe3addf6	-0.18248734
1	0x3e108d54	0.14116412
2	0x3dc817c9	0.09770162
3	0xbaa2489d	-0.001238126
4	0x3dad7a68	0.08470613
5	0x3e9ec362	0.3100844
6	0x3d0f36e6	0.034964465
7	0xbe3fb2b8	-0.1872052
8	0xbe8505bb	-0.25980935
9	0xbd8e84b3	-0.06958904
10	0xbdf8f918	-0.12156886
11	0x3d64b796	0.055839144
12	0x3d002b3e	0.03129124
13	0xbcd4576f	-0.025920598
14	0xbe141940	-0.14462757
15	0xbe7fa09a	-0.24963608
16	0x3e02ac2a	0.12760988
17	0xbdf41154	-0.119173676
18	0xbce3a553	-0.027788794
19	0xbddf4c86	-0.109032676
20	0x3e513612	0.20430782
21	0x3d31552e	0.043294124
22	0xbdf3b06b	-0.118988834
23	0x3df07c42	0.1174245
24	0xbe04df7e	-0.1297588
25	0x3d84c73f	0.06483316
26	0x3e01e260	0.12684011
27	0xbe17b077	-0.1481341
28	0xbc671dc6	-0.01410622
29	0x3ce1493b	0.02750074
30	0xbe622989	-0.22086157
31	0xbe609daa	-0.21935144
32	0xbe89a593	-0.26884136
33	0xbe412837	-0.18862997
34	0xbe417e5b	-0.18895857
35	0xbc908f3c	-0.017646424
36	0x3d57673a	0.05258868
37	0x3b9f344c	0.004858529
38	0x3e37b3b4	0.17939645
39	0xbe690de6	-0.22759208
40	0x3d11dd26	0.035611294
41	0x3c60f337	0.013729862
42	0xbea80034	-0.32812655
43	0xbd8f1bc1	-0.069877155
44	0x3d0265af	0.031835254
45	0xbe7e474f	-0.2483189
46	0xbe043236	-0.12909779
47	0xbc0aaa47	-0.008463449
48	0xbd2eadab	-0.04264609
49	0x3e4ae0a0	0.1981225
50	0x3c54e0c9	0.012993046
51	0x3db51295	0.08841435
52	0x3da8963a	0.082317784
53	0x3da5e912	0.08101095
54	0xbe073ba3	-0.13206343
55	0x3e739f9b	0.23791353
56	0x3db98f97	0.09060591
57	0xbe2f0dee	-0.17095158
58	0x3c83bb74	0.016080596
59	0xbe735331	-0.23762204
60	0xbd23739e	-0.039905183
61	0xbede5557	-0.43424484
62	0x3dab955d	0.08378098
63	0x3dcb86a0	0.09937787
64	0xbe5ea646	-0.21743116
65	0xbcc7b2b7	-0.02437721
66	0x3dc113be	0.09427594
67	0x3e382dd6	0.17986235
68	0xba94aa43	-0.0011342246
69	0xbdf453ed	-0.1193007
70	0x3de36db3	0.11104908
71	0xbd304a2a	-0.04303948
72	0xbe90921c	-0.28236473
73	0xbdb546b4	-0.08851376
74	0xbeae4dac	-0.34043634
75	0x3e17c4c3	0.14821152
76	0xbe783485	-0.24238785
77	0x3cccf9ba	0.025021423
78	0xbc398b37	-0.011324695
79	0x3b02477b	0.0019879031
80	0xbe72d103	-0.23712544
81	0xbe1fdd9e	-0.15611884
82	0xbd0ec7ca	-0.034858502
83	0xbdc84ea4	-0.097806245
84	0xbda8d750	-0.082441926
85	0xbe8dc795	-0.27691332
86	0x3d70b049	0.05876187
87	0xbe80c04f	-0.2514672
88	0x3e6a777e	0.22897145
89	0x3e52391b	0.20529597
90	0x3c1815f8	0.0092825815
91	0xbe3a4a74	-0.18192464
92	0x3d6307a1	0.055427197
93	0xbe55152d	-0.20808859
94	0xbe45c16b	-0.19312064
95	0xbe5d8e11	-0.21636225
96	0xbd090c08	-0.03345874
97	0xbd30b7d2	-0.043144055
98	0xbe821fab	-0.25414786
99	0x3e302ea6	0.17205295
100	0xbd631e67	-0.055448916
101	0x3de47a97	0.11156195
102	0xbddcdba1	-0.107840784
103	0x3e4238e9	0.18967022
104	0x3d91bf1f	0.071165316
105	0xbda7d70a	-0.08195312
106	0x3d58dc00	0.052944183
107	0xbebbde49	-0.36693028
108	0xbd8c8db1	-0.06862963
109	0x3dc39efa	0.09551807
110	0x3dc77ad0	0.097402215
111	0xbe0db463	-0.13838343
112	0xbdba1b56	-0.09087245
113	0xbddfd019	-0.10928363
114	0xbe5a7b6f	-0.21336149
115	0xbe4699f0	-0.1939466
116	0x3d6db42f	0.058033165
117	0x3e28c1de	0.16480204
118	0x3da539a6	0.08067636
119	0x3e037d3b	0.1284074
120	0xbe57c959	-0.21072902
121	0xbdddeb9b	-0.10835954
122	0xbe1961f8	-0.14978778
123	0x3dc0167a	0.09379287
124	0xbe1ba60d	-0.15200062
125	0x3e11c0e5	0.1423374
126	0x3de2b806	0.11070256
127	0x3e50db68	0.20396197
128	0x3ea0891e	0.31354612
129	0xbd911618	-0.07084292
130	0x3d62c0c3	0.055359613
131	0xbd737397	-0.059436407
132	0xbdea73ff	-0.11447906
133	0x3e314480	0.17311287
134	0x3e3bf4b8	0.18355072
135	0xbe0cebc6	-0.13761815
136	0xbd984446	-0.07434897
137	0xbd8282c7	-0.063726
138	0xbdbee36a	-0.093207195
139	0xbe15a99d	-0.14615484
140	0xbe2e2a7c	-0.17008394
141	0x3dba1a0b	0.090869986
142	0x3e38225f	0.17981862
143	0xbc17812f	-0.009247108
144	0xbd9f51ab	-0.07779249
145	0x3b112d51	0.0022152255
146	0xbdfd344b	-0.1236349
147	0xbe5610c5	-0.20904835
148	0x3d4b05fa	0.049566247
149	0x3e7c02cf	0.24610446
150	0x3e18c997	0.1492065
151	0xbc969155	-0.018379847
152	0xbdb5f729	-0.08885033
153	0xbe477406	-0.19477853
154	0xbe8a9df5	-0.27073637
155	0x3d02bc64	0.031917945
156	0xbe07a619	-0.13246955
157	0xbe707a16	-0.23484072
158	0x3dbdfd96	0.09276883
159	0xbeb9bf6a	-0.3627885
160	0x3d655d88	0.0559974
161	0xbe4cfdc6	-0.20018682
162	0xbd6dac77	-0.058025803
163	0xbe756780	-0.23965263
164	0x3c815adb	0.015790394
165	0xbe918c2b	-0.28427252
166	0xbdb9b26a	-0.09067233
167	0x3e27f9ee	0.16403934
168	0xbe785399	-0.2425064
169	0x3e75de7c	0.24010652
170	0xbe186f02	-0.14886096
171	0xbd876e18	-0.066127956
172	0xbd96f89f	-0.073716395
173	0x3d81375d	0.06309388
174	0x3ddc470f	0.10755741
175	0x3daa2d07	0.083093695
176	0x3de903b3	0.11377659
177	0xbc9ab00c	-0.018882774
178	0x3d6a39c0	0.05718398
179	0x3d6bcb91	0.057567183
180	0xbdde3484	-0.1084986
181	0xbc5b7b02	-0.013396027
182	0x3c5082cf	0.0127265
183	0x3e8740ed	0.26416722
184	0xbd84af6c	-0.064787716
185	0x3c2b468c	0.010453831
186	0x3e414a8d	0.18876095
187	0xbdae64e6	-0.085153386
188	0xbe775bc7	-0.24156104
189	0x3bf41087	0.0074482593
190	0x3e9956f4	0.29949152
191	0xbe0a5ac0	-0.13511181
192	0xbdf39a24	-0.11894634
193	0x3e0c4971	0.1369989
194	0x3d14d65b	0.036337238
195	0xbea09126	-0.3136074
196	0x3dad7da8	0.08471233
197	0x3db589e4	0.08864191
198	0xbd437e02	-0.047727592
199	0xbc7f2749	-0.015573331
200	0x3d7a8252	0.06115944
201	0xbea7bdc6	-0.32761973
202	0x3ab36111	0.0013685544
203	0xbda0df2b	-0.07855066
204	0x3cd98bff	0.026556013
205	0x3e21a27a	0.15784636
206	0x3e0beadc	0.1366381
207	0xbcb770e7	-0.022392703
208	0xbe15c770	-0.1462686
209	0x3e0e7b4c	0.13914222
210	0x3e5fa55b	0.21840422
211	0x3e63ee6e	0.22258922
212	0x3d81b6b3	0.06333675
213	0xbe5b1cc6	-0.21397695
214	0xbe0d77c1	-0.13815214
215	0xbe6353bd	-0.22199912
216	0xbde678ba	-0.112534955
217	0xbdce1559	-0.100626655
218	0x3bca307a	0.0061703296
219	0xbeb94565	-0.36185756
220	0xbd2d99b4	-0.04238291
221	0xbdbbfdd4	-0.09179273
222	0x3d400bd2	0.046886273
223	0xbe939741	-0.28826335
224	0xbd9cb271	-0.076512225
225	0xbe8a72c5	-0.27040687
226	0x3d97566d	0.07389531
227	0x3e1d5f18	0.15368307
228	0xbeb42364	-0.3518325
229	0xbe83c3ce	-0.25735325
230	0xbe28ca8a	-0.16483513
231	0x3d05a85d	0.032631267
232	0xbcc042a1	-0.023469271
233	0x3e08ba87	0.13352405
234	0xbe52f71e	-0.2060208
235	0xbe4163ab	-0.18885677
236	0x3d69c09a	0.057068445
237	0xbdd489fa	-0.103778794
238	0xbd9eb099	-0.07748527
239	0x3e0e8829	0.13919128
240	0x3e079b87	0.13242923
241	0x3e035398	0.12824857
242	0xbe406163	-0.1878715
243	0xbdee7192	-0.116427556
244	0x3dcf8d58	0.10134381
245	0x3e39d8ba	0.18149081
246	0xbe07ec3d	-0.13273712
247	0x3eb46e81	0.35240558
248	0x3e2b81e1	0.16748764
249	0xbd82f04e	-0.06393491
250	0xbd10f48d	-0.03538947
251	0xbad125b2	-0.0015956669
252	0xbdef80e3	-0.11694505
253	0x3d196636	0.03745099
254	0xbeba5d27	-0.36399195
255	0x3c459095	0.012058397

conv1.bias f4 [32]
0	0xbe82ec83	-0.2557107
1	0x3d66de5f	0.056364413
2	0xbd90e1da	-0.07074328
3	0x3cbe25d0	0.02321139
4	0xbd3eb49a	-0.046558954
5	0xbdf44115	-0.11926476
6	0xbe5e77c1	-0.2172537
7	0xbb21b1ac	-0.002467255
8	0xbddcddf9	-0.107845254
9	0xbe2147cb	-0.15750043
10	0xbdc3c794	-0.09559551
11	0xbe11d9d8	-0.14243257
12	0xbe69acfb	-0.22819893
13	0xbde0a178	-0.10968298
14	0xbd86add1	-0.065761216
15	0xbe0133ae	-0.1261737
16	0xbbbba5ea	-0.0057265656
17	0x3c0d56d8	0.008626662
18	0xbdc2ee1d	-0.09518073
19	0xbc7f5f31	-0.01558666
20	0xbc0b1d85	-0.008490925
21	0xbe4a365c	-0.19747299
22	0xbdb2ce4e	-0.08730756
23	0xbe944f6f	-0.28966853
24	0xbc9375ba	-0.018000472
25	0xbd0f627f	-0.035006043
26	0x3c2c7874	0.010526765
27	0xbcb74b19	-0.022374677
28	0xbe0db277	-0.1383761
29	0xbc0f4d36	-0.008746436
30	0xbde82a81	-0.11336232
31	0xbd0e6e29	-0.034773026

conv2.weight f4 [32, 32, 5, 5]
0	0xbc4c8809	-0.012483605
1	0x3c49a04b	0.012306283
2	0xbda6b09e	-0.08139156
3	0x3dbf88f4	0.093522936
4	0x3d7b69bc	0.061380133
5	0x3d8a5641	0.06754733
6	0xbc39576e	-0.011312349
7	0x3e4a44b3	0.19752769
8	0xbd57bec7	-0.052672174
9	0x3dde4df7	0.10854714
10	0x3dc6b524	0.097025186
11	0x3e152264	0.145639
12	0x3ce0a83f	0.027423976
13	0xbd0c0660	-0.034185767
14	0xbbefb61d	-0.0073154108
15	0xbd7abd3c	-0.061215624
16	0xbdc1656e	-0.09443174
17	0xbe3fe822	-0.18740895
18	0x3c1ae565	0.009454106
19	0x3d10a055	0.035309155
20	0x3c81d4fb	0.015848627
21	0xbe2b9792	-0.16757038
22	0x3e858dcc	0.26084745
23	0x3e40b317	0.18818317
24	0x3dbef277	0.0932359
25	0x3cce2bee	0.025167432
26	0xbd2491e0	-0.04017818
27	0xbc3f9ea9	-0.011695542
28	0x3bfb8031	0.0076751937
29	0xbc42ceee	-0.011890156
30	0xbd82853c	-0.06373069
31	0xbd260272	-0.040529676
32	0xbcb6af42	-0.022300366
33	0xbd6371c5	-0.05552842
34	0xbdaa2301	-0.08307458
35	0xbda71111	-0.08157552
36	0xbe2eeccd	-0.1708252
37	0xbdcf50d8	-0.101228416
38	0xbd56b574	-0.05241914
39	0xbd80d3d0	-0.062904
40	0xbd5570b6	-0.052109443
41	0x3c9d0600	0.0191679
42	0x3d3e6cd5	0.04649051
43	0xbd93c220	-0.07214761
44	0xbdd33c91	-0.103142865
45	0x3cfd258e	0.030901697
46	0x3e2870b6	0.16449246
47	0x3d988674	0.0744752
48	0xbd9dcd1f	-0.07705139
49	0xbd79b787	-0.06096604
50	0x3e593d8c	0.21214885
51	0x3cbdd7d7	0.02317421
52	0xbde374c2	-0.11106254
53	0x3e9c2e60	0.3050413
54	0xbe89686d	-0.26837483
55	0x3e11aeda	0.14226857
56	0xbdfee1c2	-0.12445404
57	0x3d295c97	0.041348066
58	0xbb8d266a	-0.004307558
59	0xbce1c610	-0.027560264
60	0x3dec79d3	0.115466736
61	0x3d5b4df0	0.053541124
62	0x3e075020	0.13214159
63	0x3c30820e	0.010773195
64	0x3cecb749	0.02889599
65	0x3ced396b	0.028958043
66	0xbd85224f	-0.065006845
67	0x3d8461a0	0.06463933
68	0xbba5b834	-0.005057359
69	0x3d5b6e15	0.05357178
70	0x3d8da84c	0.06916866
71	0xbd7ec249	-0.062197004
72	0xbd588e0e	-0.05286985
73	0xbd70a458	-0.05875048
74	0xbd58360e	-0.052785926
75	0x3d262764	0.04056491
76	0x3c84c4f5	0.016207198
77	0x3bd3c853	0.0064630895
78	0x3bf12b5d	0.0073599056
79	0xbd648fd5	-0.05580123
80	0xbdc346a6	-0.095349595
81	0x3d208a27	0.039194252
82	0xbe2cfdf3	-0.16893749
83	0x3c9336df	0.0179705
84	0xbdb77945	-0.08958677
85	0xbdbbaefa	-0.091642335
86	0xbbb30510	-0.00546325
87	0xbe1d8b7d	-0.15385242
88	0xbc79fc41	-0.015257896
89	0xbd1f5d7a	-0.038907506
90	0xbc5b05f5	-0.0133681195
91	0x3df18601	0.11793137
92	0xba9a4bdb	-0.0011771874
93	0xbd0b4cef	-0.034008916
94	0xbdf1455f	-0.117808096
95	0x3d1d814a	0.038453378
96	0xbd2aa278	-0.04165885
97	0x3c7dbfa0	0.0154875815
98	0x3d5b9a5b	0.053614
99	0x3c2fb47c	0.010724183
100	0x3dcb9f39	0.09942479
101	0xbd613cc5	-0.054989595
102	0xbce26b6b	-0.027639112
103	0xbe0921f4	-0.13391858
104	0xbd25ec1b	-0.04050837
105	0xbe74e8f9	-0.23916997
106	0xbe0d75b8	-0.13814437
107	0x3c6070ba	0.013698751
108	0xbd6d1b4b	-0.057887357
109	0xbd6654be	-0.05623316
110	0xbe1b6312	-0.15174511
111	0xbe1fea81	-0.156168
112	0xbcbef26a	-0.023308951
113	0xbcd97d2a	-0.02654894
114	0xbd5572bb	-0.05211137
115	0x3cd87a33	0.026425457
116	0xbe0b840c	-0.1362459
117	0xbb2c5903	-0.0026298172
118	0xbcef27df	-0.029193817
119	0xbdccb6c0	-0.09995794
120	0xbde7e4b9	-0.11322922
121	0xbd211ce2	-0.039334185
122	0x3d03b3f9	0.032154057
123	0xbe01bf4b	-0.12670629
124	0xbd29d9d5	-0.041467506
125	0x3dfe6312	0.1242124
126	0x3e0ce965	0.13760908
127	0x3e2a1b0d	0.16611882
128	0xbda42d2c	-0.08016428
129	0xbd971e77	-0.073788576
130	0xbe017e43	-0.12645821
131	0xbe1df349	-0.15424837
132	0x3dde17b5	0.108443655
133	0xbda50804	-0.080581695
134	0xbe0fdaab	-0.14048259
135	0xbbc2e452	-0.005947628
136	0xbdaf2781	-0.08552457
137	0x3d135d41	0.035977606
138	0x3c9ceee6	0.019156884
139	0xbdd953ba	-0.10611673
140	0x3dbac966	0.09120445
141	0x3d1cc737	0.038275924
142	0x3d36fabd	0.044672716
143	0x3ddff510	0.10935414
144	0xbd4225b1	-0.047399227
145	0xbd47b84e	-0.04875975
146	0xbe590836	-0.21194538
147	0xbd6dd35f	-0.058062907
148	0x3da4fbf3	0.08055868
149	0x3d4e181c	0.05031596
150	0x3e316ea6	0.17327365
151	0x3c5e0c2d	0.013552708
152	0x3d1f23e8	0.038852602
153	0xbd3b1eee	-0.045683794
154	0x3c742bbb	0.014903004
155	0xbcf999bd	-0.030468816
156	0x3dde0583	0.10840895
157	0x3cbbc61d	0.022921616
158	0x3cbd88d9	0.023136543
159	0x3d4fb077	0.0507054
160	0xbddc3ec6	-0.107541606
161	0x3db9bed8	0.09069604
162	0xbbb4a754	-0.005513111
163	0xbd35f2fa	-0.044421174
164	0xbd8d8049	-0.06909234
165	0xbdc69293	-0.096959256
166	0x3d317dfd	0.043333042
167	0xbd9ddc5c	-0.07708046
168	0x3d3d647e	0.046238415
169	0x3d956031	0.07293738
170	0xbbaad83a	-0.0052137645
171	0xbd3535e2	-0.04424084
172	0xbd95d037	-0.073151045
173	0xbe4694c4	-0.19392687
174	0x3e1b0480	0.15138435
175	0xbe7580f5	-0.23974974
176	0x3d811109	0.06302077
177	0x3e03f06a	0.1288468
178	0xbd254c2b	-0.040355843
179	0x3bfa9c6b	0.007648041
180	0xbe72a461	-0.23695518
181	0x3d309135	0.04310723
182	0xbdedcd24	-0.11611393
183	0x3dbd3fec	0.09240708
184	0x3c088549	0.008332559
185	0xbe08d2c1	-0.13361646
186	0xbe1f91e4	-0.15582997
187	0xbd966c48	-0.07344872
188	0x3c18f5c9	0.0093359435
189	0xbcfce470	-0.030870646
190	0xbe053627	-0.13008939
191	0x3c13cd58	0.009021126
192	0xbcd532e7	-0.026025249
193	0xbd2b44e6	-0.041813754
194	0xbd301e87	-0.042997863
195	0xbd748ff3	-0.059707593
196	0x3b94c8f0	0.004540555
197	0xbda426a5	-0.08015183
198	0xbd8e0a75	-0.06935588
199	0xbded8612	-0.115978375
200	0xbda88da0	-0.08230138
201	0x3c3731c7	0.011181301
202	0xbcf72e70	-0.03017351
203	0xbb9675f8	-0.0045916997
204	0xbdf2d823	-0.11857631
205	0xbbec3e16	-0.0072095497
206	0x3d9fe8cb	0.078080736
207	0x3d1a5d91	0.037686888
208	0xbca68168	-0.020325378
209	0xbe24064e	-0.1601803
210	0x3cf0d332	0.02939758
211	0x3e532274	0.20618612
212	0x3ddfed45	0.109339274
213	0xbd98d52a	-0.07462533
214	0xbb800a41	-0.0039074724
215	0x3cbc3b49	0.022977488
216	0xbe07566a	-0.13216558
217	0x3d2f6f5a	0.042830803
218	0xbd8161e4	-0.06317499
219	0x3da55b91	0.080741055
220	0x3d26541f	0.040607568
221	0x3e1a2a4f	0.15055202
222	0x3e170f8a	0.14752021
223	0xbd537c61	-0.05163229
224	0x3d5ca82f	0.05387133
225	0x3d115d15	0.03548916
226	0x3e3e801c	0.18603557
227	0x3de14104	0.10998729
228	0xbbc3bdcc	-0.0059735533
229	0xbb71ec96	-0.0036914698
230	0x3e152416	0.14564547
231	0xbe039eba	-0.12853518
232	0xbe757ac1	-0.23972608
233	0x3d10bfeb	0.035339277
234	0x3cf0158e	0.029307153
235	0xbc8d3c79	-0.01724075
236	0x3d1323e6	0.035922907
237	0x3be48650	0.006974019
238	0xbd9b47ce	-0.07582055
239	0xbd8ca361	-0.068670996
240	0xbd6a29b7	-0.05716869
241	0x3d90547e	0.070473656
242	0x3d8fdff1	0.07025135
243	0xbc0ec96d	-0.008715016
244	0x3a41ac28	0.0007388019
245	0x3d2b7540	0.041859865
246	0xbd6ca36d	-0.057773042
247	0xbda5f707	-0.08103757
248	0x3d616f39	0.05503771
249	0xbe470e87	-0.19439135
250	0xbd99eb07	-0.07515531
251	0x3d7bfa1e	0.061517827
252	0x3d9e0a18	0.07716769
253	0x3ccaa4eb	0.024736842
254	0x38a90f97	8.061452e-05
255	0xbd7731ac	-0.060350105

conv2.bias f4 [32]
0	0xbd272d9c	-0.04081498
1	0xbc54ef5d	-0.012996522
2	0xbdc3253b	-0.095285855
3	0xbc8cf6cf	-0.017207531
4	0xbdc5eff5	-0.09664909
5	0xbd203f97	-0.039123144
6	0xbcfaf308	-0.030633464
7	0xbc36e109	-0.011162051
8	0xbd719a70	-0.058985174
9	0xbd6bf1ee	-0.05760377
10	0xbdb8ffb5	-0.09033147
11	0xbdadc84e	-0.08485471
12	0xbd19f0b8	-0.037583083
13	0xbd155456	-0.036457382
14	0xbcc4a888	-0.024006143
15	0xbdc5dce5	-0.09661273
16	0xbd1728a7	-0.036904003
17	0xbcfeeceb	-0.03111883
18	0x39875f84	0.0002582037
19	0xbda61304	-0.08109096
20	0x3c1a91d9	0.009434187
21	0xbc3442f1	-0.011002288
22	0xbd4492da	-0.04799161
23	0x3d632062	0.055450805
24	0xbc2c4d8b	-0.010516535
25	0x3cdce48d	0.02696445
26	0xbcb22bff	-0.021749495
27	0xbc1e9f66	-0.009681558
28	0x3aa388a6	0.0012476637
29	0x3bd63b23	0.0065378114
30	0x3bb9a18a	0.005665009
31	0xbd624bd3	-0.055248093

conv3.weight f4 [32, 32, 5, 5]
0	0xbca06f56	-0.01958434
1	0x3ce1055d	0.027468378
2	0xbe13c1c5	-0.14429386
3	0xbdca3c10	-0.09874737
4	0xbdd6a2ad	-0.10480247
5	0x3e0acf88	0.1355573
6	0x3dded4a8	0.10880405
7	0x3d3c13dd	0.04591738
8	0xbc17d4a5	-0.009267007
9	0xbd3e9845	-0.046531934
10	0xbb688748	-0.0035481025
11	0x3d473042	0.048630007
12	0x3da7013a	0.08154531
13	0xbdd76951	-0.105181344
14	0xbc672734	-0.014108468
15	0xbcd153d1	-0.025552662
16	0x3d746b0d	0.059672404
17	0x3d87a6fd	0.06623647
18	0xbde72f2e	-0.11288296
19	0xbd0f01ac	-0.034913704
20	0x3d938145	0.072023906
21	0x3d69df31	0.057097618
22	0x3d364b13	0.04450519
23	0xbdfcc245	-0.123417415
24	0xbe5180c7	-0.20459281
25	0xbe186db0	-0.14885592
26	0x3da5af2e	0.080900535
27	0xbd0e75d6	-0.034780346
28	0xbbbab542	-0.005697877
29	0xbc08e3da	-0.008355105
30	0xbd52444e	-0.05133467
31	0xbe0d2902	-0.13785174
32	0x3da42356	0.08014552
33	0xbe109e9d	-0.14123006
34	0x3cdfcd0b	0.027319452
35	0x3ccd455e	0.02505749
36	0x3daeb0e8	0.08529836
37	0x3dc6f0aa	0.09713872
38	0xbe588208	-0.21143353
39	0x3aa446fa	0.001253336
40	0xbb33f135	-0.0027457003
41	0x3e1120d9	0.14172687
42	0x3d2bc694	0.041937426
43	0xbe39f389	-0.18159308
44	0xbe2b61be	-0.16736504
45	0x3d8a8e37	0.067654066
46	0x3e679c89	0.22618307
47	0x3d8d0f10	0.068876386
48	0xbe3ba480	-0.1832447
49	0xbdbe5b40	-0.09294748
50	0x3e38e882	0.18057445
51	0x3e0c4120	0.13696718
52	0x3d3a8dba	0.045545317
53	0x3d8e0f3f	0.06936502
54	0xbc88a664	-0.016680904
55	0x3d9b9d74	0.07598391
56	0x3df3957a	0.11893745
57	0x3d914f8f	0.07095253
58	0xbd94df34	-0.07269135
59	0xbd61e3db	-0.05514894
60	0x3d65bbea	0.056087412
61	0xbd8cf1bb	-0.06882044
62	0x3d29bf76	0.041442357
63	0x3e18bb56	0.14915213
64	0xbd8f4672	-0.06995858
65	0x3e5ee60a	0.2176744
66	0x3e14069c	0.14455646
67	0x3d080d07	0.03321555
68	0xbb670d4d	-0.003525573
69	0x3c0325fc	0.008004662
70	0x3c9fe106	0.01951648
71	0x3dff5610	0.12467587
72	0xba022807	-0.0004965071
73	0xbc39e3d6	-0.011345824
74	0x3c6267f0	0.013818726
75	0x3dfd6172	0.12372102
76	0x3d84fee0	0.06493926
77	0x3da5595d	0.08073685
78	0x3c366e6e	0.011134727
79	0xbcfd6fb7	-0.030937059
80	0x3da487e9	0.08033735
81	0x3dbf38e4	0.09337023
82	0x3e1d9553	0.15388994
83	0x3d8032e7	0.06259709
84	0xbc035dda	-0.008017981
85	0x3da5f6bb	0.08103701
86	0x3e0a28c4	0.13492113
87	0x3e2186f2	0.15774134
88	0x3d96871c	0.07349989
89	0x3d72bd75	0.05926271
90	0xbcdfd3a8	-0.027322605
91	0x3e3d37f2	0.18478373
92	0x3e0e7792	0.139128
93	0x3c8364e0	0.016039312
94	0xbd31459c	-0.043279275
95	0x3ce93d2c	0.028471552
96	0x3e86b27f	0.26308057
97	0xbd65dfa2	-0.056121476
98	0xbcf3dbf2	-0.029767964
99	0xbca63183	-0.02028728
100	0xbe9c582f	-0.3053603
101	0xbe13a199	-0.14417113
102	0xbd39ff4a	-0.04540948
103	0x3dab84f4	0.08374968
104	0x3d671c23	0.056423318
105	0xbe0d388f	-0.13791107
106	0xbe1eb4f0	-0.1549871
107	0xbe068df6	-0.13140091
108	0x3e174e62	0.14775994
109	0x3d9c2693	0.07624545
110	0xbe19b882	-0.1501179
111	0xbdc05e4b	-0.09392985
112	0xbd34b28a	-0.04411558
113	0x3c52504f	0.01283653
114	0x3d311bb7	0.04323932
115	0xbe0425f9	-0.1290511
116	0xbdf62334	-0.12018433
117	0xbdf508a1	-0.119645365
118	0xbe11edfb	-0.14250939
119	0xbd8d244f	-0.06891691
120	0x3db4c6e7	0.08827
121	0xbb6e76ac	-0.0036386652
122	0xbe2406c4	-0.16018206
123	0xbd410fc0	-0.04713416
124	0x3daa7d11	0.08324636
125	0x3c114f54	0.008869011
126	0x3d204a21	0.039133195
127	0xb916ea52	-0.00014392406
128	0xbd815d60	-0.06316638
129	0xbce6ed7b	-0.028189411
130	0x3e09d0d6	0.13458571
131	0x3d94a454	0.072579056
132	0x3bdf2df0	0.006810896
133	0x3d43c008	0.047790557
134	0xbd32991c	-0.043603048
135	0x3d3e2d61	0.046429995
136	0x3d6c9603	0.05776025
137	0x3d4520f8	0.048127145
138	0xbd91402b	-0.07092317
139	0x3cc5c90e	0.024143722
140	0x3da7f84a	0.08201654
141	0xbd286611	-0.041112963
142	0x3e7f8a03	0.24954991
143	0x3ac3ecb5	0.0014947864
144	0x3e0e9d6e	0.13927242
145	0x3d8fddc2	0.07024719
146	0x3d05c587	0.03265908
147	0x3e384449	0.17994799
148	0xbd099cf2	-0.03359694
149	0x3db666dd	0.08906338
150	0x3e3ab41c	0.18232769
151	0xbdf46d22	-0.11934878
152	0xbe0c4a03	-0.13700108
153	0xbe3ddd99	-0.18541564
154	0xbd9ab05a	-0.07553168
155	0xbdf9649b	-0.12177392
156	0xbccaae1a	-0.024741221
157	0x3de772c0	0.11301184
158	0xbe9a9b58	-0.30196643
159	0xbd25a0c5	-0.040436525
160	0xbd0db014	-0.03459175
161	0xbdeb7164	-0.11496237
162	0x3c98e0dc	0.018661909
163	0xbdef3d24	-0.116815835
164	0x3dde5932	0.108568564
165	0xbb82b3d6	-0.0039887233
166	0x3e61625f	0.22010182
167	0x3cd2c563	0.025728887
168	0xbcde74ae	-0.027155247
169	0x3e6571cd	0.22406693
170	0xbccffe06	-0.025389683
171	0x3e5c504c	0.21515006
172	0xbd6bc104	-0.05755712
173	0xbce23958	-0.027615234
174	0x3e489989	0.19589819
175	0xbd3b079f	-0.045661565
176	0xbddbfca0	-0.10741544
177	0x3c979dbf	0.018507836
178	0xbc55c825	-0.013048206
179	0xbd31cbd1	-0.043407265
180	0xbcbaf2f0	-0.02282092
181	0x3e1fbd13	0.1559947
182	0x3d1faaf0	0.038981378
183	0xbd2646d9	-0.04059491
184	0x3d190311	0.03735644
185	0x3d5e9eb8	0.054350585
186	0xbc22369d	-0.009900716
187	0xbc90e31a	-0.017686415
188	0xbda52d92	-0.080653325
189	0x3db6cad4	0.08925405
190	0x3dd6d14b	0.10489138
191	0x3cfbade9	0.030722575
192	0x3d59c98e	0.053170733
193	0x3d24178b	0.040061515
194	0x3d043fe5	0.032287497
195	0xbd59da76	-0.053186856
196	0xbdcb20e6	-0.09918384
197	0xbda1745c	-0.07883522
198	0xbd9f7190	-0.07785332
199	0x3e38dcbf	0.18052958
200	0xbd870891	-0.06593431
201	0x3cc983d7	0.024598999
202	0x3d502792	0.050818987
203	0xbcdbe2df	-0.026841579
204	0xbe3027e1	-0.17202713
205	0xbe34f487	-0.17671405
206	0xbe132545	-0.14369686
207	0xbd1158c8	-0.03548506
208	0xbc03345a	-0.008008087
209	0x3da21bb2	0.07915439
210	0x3e0b7edb	0.1362261
211	0xbe1bd6bb	-0.15218632
212	0x3c7f135a	0.015568579
213	0x3bf99b44	0.007617386
214	0x3e2da5b2	0.16957739
215	0x3d09c6b2	0.033636756
216	0xbd8386c0	-0.06422186
217	0xbdb5bbd9	-0.0887372
218	0x3ce8c815	0.028415719
219	0x3db050da	0.08609171
220	0xbd749214	-0.059709623
221	0xbc8d27a8	-0.017230824
222	0xbcb81325	-0.022470066
223	0xbd49c475	-0.04925962
224	0x3b4beeea	0.0031117746
225	0xbbbecdfe	-0.005822896
226	0x3d358418	0.044315428
227	0x3d330bb6	0.04371234
228	0xbd436f20	-0.0477134
229	0xbd707f02	-0.058714874
230	0xbc9c744b	-0.019098422
231	0x3e5c568e	0.21517393
232	0x3d1a5a6f	0.0376839
233	0xbd9a14c7	-0.07523494
234	0xbcf850e8	-0.030312017
235	0x3dc89602	0.09794237
236	0x3d4834a0	0.048878312
237	0x3cea9234	0.028634168
238	0x3dd7b103	0.10531809
239	0xbcf773e9	-0.030206637
240	0xbd30c431	-0.043155853
241	0xbca34f61	-0.019935312
242	0xbbfee4ac	-0.0077787247
243	0xbd10279d	-0.03519403
244	0xbdff77f9	-0.12474055
245	0x3d164929	0.036690865
246	0x3dcd0bc7	0.10012012
247	0xbd6bcab3	-0.057566356
248	0xbd50f66b	-0.051016252
249	0x3a1c0f33	0.00059531926
250	0xbc8250d4	-0.015907682
251	0x3dd2ee33	0.10299339
252	0x3d08e9c8	0.033426076
253	0x3db00505	0.085947074
254	0xbb990ec1	-0.0046709483
255	0x3dcf212d	0.1011375

conv3.bias f4 [32]
0	0xbd0c03cd	-0.034183312
1	0xbbef0291	-0.007294007
2	0xbd7903e0	-0.06079471
3	0xbd8a2a74	-0.067463785
4	0xbd72bd45	-0.059262533
5	0x3b7c562a	0.0038503506
6	0xbdc5587a	-0.09636016
7	0xbcb40dd0	-0.021979243
8	0x3d122f14	0.03568943
9	0xbd354aec	-0.044260904
10	0xbd0e06aa	-0.034674324
11	0xbd8bb9bd	-0.06822536
12	0xbc17a0ac	-0.009254616
13	0xbb2fdc14	-0.0026834058
14	0xbd17cbb9	-0.03705952
15	0xbac3aafb	-0.0014928275
16	0xbd4d5c34	-0.05013676
17	0x3ce4cbde	0.027929243
18	0xbc9be835	-0.019031623
19	0xbd1c6f81	-0.038192276
20	0xbd23edb9	-0.040021632
21	0xbca0114d	-0.0195395
22	0xbd9fc007	-0.07800298
23	0xbd006dd5	-0.031354744
24	0xbdac5984	-0.08415511
25	0xbbd1f30c	-0.0064071473
26	0xbdeeadfe	-0.1165428
27	0xbd828fc3	-0.063750766
28	0xbb1c73d8	-0.002387276
29	0xbe19fc01	-0.15037538
30	0xbce825bf	-0.028338311
31	0xbd8eaf8f	-0.06967079

conv4.weight f4 [32, 32, 5, 5]
0	0xbd1531cb	-0.03642444
1	0xbdd9e544	-0.10639432
2	0xbe855e3b	-0.26048455
3	0xbe41f4ca	-0.18941036
4	0xbe31067d	-0.17287631
5	0x3cf9ee44	0.030509122
6	0x3cea52a9	0.028603869
7	0xbd264b26	-0.04059901
8	0xbe3a0d2b	-0.18169086
9	0x3d689a3b	0.05678771
10	0x3dfbf46e	0.12302481
11	0xbe091b8f	-0.13389419
12	0xbcc306d4	-0.023806967
13	0x3ddcef4f	0.10787832
14	0xbdb0368f	-0.08604156
15	0xbd12cb42	-0.035838373
16	0xbdd8d0c3	-0.10586693
17	0xbe6037b2	-0.21896246
18	0x3da5874e	0.08082448
19	0x3dab0f02	0.08352472
20	0xbce1ece1	-0.027578773
21	0xbe805568	-0.2506516
22	0x3c16391e	0.009168891
23	0xbcbedadb	-0.023297718
24	0x3e4a663f	0.19765566
25	0x3dc19a1c	0.09453222
26	0x3d3a3a28	0.04546562
27	0x3d819526	0.06327276
28	0x3cf2726f	0.029595582
29	0xbd30af50	-0.04313594
30	0x3ca07c2f	0.019590465
31	0xbc407fae	-0.011749191
32	0xbb493d00	-0.0030706525
33	0xbd47fd62	-0.04882563
34	0x3c3a996a	0.011389116
35	0xbcf20cfe	-0.02954721
36	0xbda7040a	-0.08155067
37	0x3e08dd53	0.13365678
38	0xbdc80e62	-0.09768368
39	0xbe1f0519	-0.15529288
40	0xbdb4d576	-0.08829777
41	0xbe0eeb33	-0.13956909
42	0xbd0338cd	-0.03203659
43	0xbd940f88	-0.07229525
44	0x3d1b968b	0.037985366
45	0xbe079600	-0.13240814
46	0x3c029d00	0.007972002
47	0xbdfea2be	-0.12433384
48	0x3cdbf518	0.026850268
49	0x3d5cb23f	0.053880926
50	0xbdf6a236	-0.12042658
51	0xbdb17a18	-0.08665866
52	0xbe44c56f	-0.1921594
53	0xbe970751	-0.2949777
54	0xbe6e0a0b	-0.23246019
55	0xbe2c169a	-0.16805497
56	0xbd806282	-0.06268789
57	0x3d9a0e3d	0.07522247
58	0xbe3d4652	-0.18483856
59	0xbe13a0bd	-0.14416786
60	0xbe3102ff	-0.17286299
61	0x3dac14da	0.084024146
62	0x3daffa89	0.08592708
63	0xbe0d369e	-0.13790366
64	0xbe6fb89c	-0.23410267
65	0xbceeed35	-0.029165844
66	0xbdcaa2be	-0.09894322
67	0xbdc6dab9	-0.09709687
68	0xbd8933ef	-0.06699359
69	0xbcf6dad0	-0.030133635
70	0xbba2a481	-0.004963458
71	0xbd10b637	-0.035330024
72	0xbd70c449	-0.058780942
73	0xbdd53f55	-0.1041247
74	0x3d8f39dc	0.06993458
75	0x3e038587	0.12843905
76	0x3d6f6fd6	0.058456264
77	0x3c47d179	0.012195938
78	0xbd6a13e9	-0.057147894
79	0xbce18bbe	-0.027532455
80	0xbb259936	-0.0025268323
81	0x3b967d61	0.004592583
82	0x3e026d63	0.1273704
83	0x3d47e726	0.048804425
84	0x3d8045c5	0.062633075
85	0xbcd50a0f	-0.026005773
86	0xbe29c670	-0.16579604
87	0xbd3ae24e	-0.045625977
88	0x3d1a59af	0.037683185
89	0xbd1d110d	-0.03834634
90	0x3c4e31f7	0.012585155
91	0xbd10c19d	-0.035340894
92	0xbd22f53c	-0.039784655
93	0xbc92b2a2	-0.017907444
94	0xbd2efef0	-0.042723596
95	0xbdd05fa6	-0.101744935
96	0xbdec6289	-0.115422316
97	0xbd2bb11f	-0.041916963
98	0xbdd1a342	-0.10236217
99	0xbe1c36eb	-0.15255325
100	0x3d4f309e	0.050583474
101	0x3c8ce443	0.017198687
102	0x3c1bc681	0.009507776
103	0xbca0f211	-0.019646676
104	0x3c698bae	0.014254494
105	0xbdd50976	-0.10402195
106	0xbd7f2a14	-0.06229599
107	0xbb8fdde6	-0.004390466
108	0xbb479b5d	-0.0030457594
109	0xbd037966	-0.032098196
110	0xbe3030cb	-0.17206113
111	0xbe1c9f14	-0.15295058
112	0xbcada75a	-0.021197964
113	0x3c81f8f3	0.015865779
114	0xbe4d3523	-0.20039801
115	0xbe234e48	-0.1594783
116	0xbc917d3c	-0.017759912
117	0x3c398810	0.011323944
118	0xbc86e267	-0.016465379
119	0xbd03ef72	-0.032210775
120	0xbdacb4fb	-0.08432957
121	0xbd33411e	-0.043763272
122	0x3e1d616f	0.15369199
123	0x3ce52130	0.027969927
124	0xbe3d52e9	-0.18488659
125	0xbdf3c27a	-0.11902328
126	0x3ca97571	0.020685883
127	0xbd516bb5	-0.051128108
128	0xbd95188b	-0.07280072
129	0xbd29336f	-0.041308817
130	0xbdb1dd90	-0.08684838
131	0x3b5ac2f5	0.0033380364
132	0xbdae4c3b	-0.085106336
133	0xbb77fbde	-0.0037839334
134	0xbd91de92	-0.0712253
135	0xbd66126c	-0.056169912
136	0x3d0c90c4	0.034317747
137	0xbd279e5a	-0.0409225
138	0x3cf7e797	0.030261798
139	0x3b96fea4	0.0046079922
140	0xbdb21c73	-0.086968325
141	0xba5dc1e4	-0.0008459373
142	0xbbf1b59b	-0.0073763854
143	0x3cd044ab	0.025423368
144	0xbdc3c4c3	-0.09559014
145	0xbdaf0341	-0.085455425
146	0x3d8e5084	0.06948951
147	0xbde5f969	-0.11229212
148	0xbdd724fd	-0.10505102
149	0xbdd404c2	-0.1035247
150	0xbdef36a1	-0.116803415
151	0xbbbb36f8	-0.00571334
152	0xbdb29a86	-0.08720879
153	0xbd7e3327	-0.0620605
154	0xbd202fd3	-0.03910811
155	0x3d9960a5	0.074891366
156	0x3e1e3f07	0.1545373
157	0x3cd6cdba	0.026221145
158	0x3daba5f2	0.08381261
159	0x3c237fe5	0.009979223
160	0xbd049065	-0.032364268
161	0x3dd0bb46	0.101919696
162	0x3e070719	0.13186301
163	0x3c025fd2	0.007957416
164	0x3d243e63	0.04009856
165	0xbe363a64	-0.17795712
166	0xbd85a389	-0.065253325
167	0xbe262c6b	-0.16227882
168	0xbe3ad515	-0.18245347
169	0xbe81c8ae	-0.2534842
170	0xbe0e96af	-0.13924669
171	0xbd9648ef	-0.0733813
172	0x3d93f8e2	0.07225205
173	0x3e29cabe	0.16581246
174	0xbdf21953	-0.118212365
175	0xbdd3a80c	-0.10334787
176	0xbd8802c0	-0.066411495
177	0xbce8ac6a	-0.028402526
178	0x3c85d22a	0.016335566
179	0xbdcabef1	-0.098997004
180	0xbd684c6d	-0.05671351
181	0xbcdcd744	-0.026958115
182	0xbdc7c884	-0.09755042
183	0xbe51fbf4	-0.20506269
184	0xbe04422c	-0.12915868
185	0xbdc6ec3f	-0.09713029
186	0xbdd6999d	-0.10478518
187	0x3e6ee13c	0.23328108
188	0x3cf5ab15	0.029988805
189	0xbcf58ab8	-0.029973373
190	0x3d7b6cab	0.06138293
191	0xbe0f82ca	-0.14014736
192	0x3d36c19f	0.044618245
193	0x3d7c4313	0.061587404
194	0xbdda113c	-0.106478184
195	0xbd8cbdff	-0.068721764
196	0xbdcc89d6	-0.099872276
197	0xbe4e1854	-0.20126468
198	0x3d1d26ee	0.038367204
199	0x3d96decd	0.073667146
200	0xbd785d3f	-0.0606358
201	0xbdb970a9	-0.09054691
202	0xbc13aede	-0.00901386
203	0xbbf870d2	-0.0075818086
204	0xbd9a040d	-0.07520304
205	0xbdfd6ae9	-0.12373907
206	0xbdd40079	-0.10351653
207	0xbe689d44	-0.22716242
208	0xbd049983	-0.032372963
209	0xbe410858	-0.18850839
210	0x3d693c3b	0.056942206
211	0x3c9176e2	0.017756883
212	0xbb92c586	-0.004479113
213	0xbd76510f	-0.060135897
214	0x3d48492d	0.04889791
215	0x3ddf1a78	0.108937204
216	0x3df20d25	0.11818913
217	0x3e779772	0.24178866
218	0x3df1b4b1	0.11802042
219	0xbdaa392e	-0.083116874
220	0x3d696364	0.056979552
221	0x3c8d73ec	0.01726719
222	0x3e5702c9	0.20997156
223	0x3e081a98	0.13291395
224	0xbdfce503	-0.12348368
225	0x3d33a154	0.043855026
226	0xbdc0e728	-0.094190896
227	0x3dc98581	0.09839917
228	0xbdc1f606	-0.09470753
229	0xbe15554d	-0.14583321
230	0x3d13999b	0.03603516
231	0xbdc4c290	-0.09607422
232	0xbe2965b0	-0.16542697
233	0xbc52732b	-0.012844841
234	0x3d31f581	0.04344702
235	0xbaf957cf	-0.0019023361
236	0x3de51762	0.111861005
237	0xbc5bf2dd	-0.013424602
238	0x3df6c394	0.12049022
239	0x3e529cec	0.20567673
240	0xbe1c3e7a	-0.15258208
241	0xba59ea56	-0.0008312812
242	0x3bdff70b	0.0068348697
243	0x3ddb685a	0.10713263
244	0x3e181ce0	0.14854765
245	0x3c30954d	0.010777784
246	0x3e01016c	0.12598199
247	0x3d749481	0.059711937
248	0x3d2d20e5	0.0422677
249	0x3d628398	0.05530128
250	0x3b468d98	0.0030296799
251	0xbdc2b79b	-0.09507676
252	0xbca32744	-0.019916184
253	0xbd5d08c7	-0.05396345
254	0x3c66ac2d	0.014079136
255	0xbdbbe4d2	-0.091745034

conv4.bias f4 [32]
0	0x3c4dc81f	0.01255992
1	0x3d1fda00	0.03902626
2	0xbd075e23	-0.03304876
3	0x3c6de90b	0.014520894
4	0xbddcf8a7	-0.10789614
5	0xbd5bd9c0	-0.05367446
6	0xbd095d52	-0.033536263
7	0xbd594209	-0.05304149
8	0xbc94b6b2	-0.018153522
9	0xbbe264a0	-0.006908968
10	0xbd8023eb	-0.06256851
11	0xbd16036f	-0.03662437
12	0xbd34e029	-0.04415909
13	0x3d3d356e	0.046193533
14	0x3cfef818	0.03112416
15	0xbd11e2c3	-0.035616647
16	0xbc9ac480	-0.018892527
17	0x3cbdb1ef	0.023156134
18	0xbd857aa1	-0.0651753
19	0xbd1df3f4	-0.03856273
20	0xbda5f243	-0.081028484
21	0xbd0b17a6	-0.0339581
22	0xbd61f6dd	-0.055167068
23	0x3bf1aca8	0.0073753186
24	0xbd8298c8	-0.06376797
25	0xbdaf4a79	-0.085591264
26	0xbc6a03bd	-0.014283118
27	0xbe0b14b6	-0.1358212
28	0xbdb2f348	-0.087378085
29	0x3a1612c7	0.0005724844
30	0xbc6ef4b1	-0.014584706
31	0xbd3e3aa9	-0.04644266

conv5.weight f4 [32, 32, 5, 5]
0	0xbccca3f5	-0.024980525
1	0x3bfbaa95	0.007680247
2	0x3d38e5a5	0.04514088
3	0x3e33bcfd	0.17552562
4	0x3e0d881a	0.1382145
5	0xbe340960	-0.17581701
6	0xbdf9cc3d	-0.121971585
7	0xbc8a1702	-0.016856674
8	0xbd0e65b7	-0.03476497
9	0x3bc4f0ef	0.006010167
10	0xbe38546f	-0.18000959
11	0xbda8db4d	-0.08244953
12	0xbd967e5d	-0.07348321
13	0xbd8fb42d	-0.07016788
14	0xbe018d33	-0.1265152
15	0xbe0db646	-0.13839063
16	0x3e80ab42	0.2513066
17	0x3e575184	0.2102719
18	0xbd0cd712	-0.034384795
19	0xbc882a51	-0.01662174
20	0xbcc63274	-0.02419398
21	0x3d426b63	0.047465693
22	0xbc8b640c	-0.01701548
23	0xbd246426	-0.04013457
24	0xbdf7b45f	-0.1209495
25	0x3d542bb9	0.05179951
26	0x3da83d09	0.082147665
27	0xbe0bc84e	-0.13650629
28	0xbd8837d1	-0.06651271
29	0xbd38f582	-0.04515601
30	0xbe2ed242	-0.17072394
31	0xbe0dab59	-0.13834895
32	0xbdba24b6	-0.09089033
33	0xbccabc08	-0.024747863
34	0xbdc35798	-0.095381916
35	0xbe27fafb	-0.16404335
36	0xbdeb708a	-0.114960745
37	0xbda063f8	-0.078315675
38	0xbd5c232c	-0.05374448
39	0x3c15cc60	0.009142965
40	0x3d43863c	0.047735438
41	0xbcdc84db	-0.02691882
42	0xbc1b6fa5	-0.009487067
43	0x3c38604a	0.011253426
44	0xbccdb1ee	-0.025109258
45	0xbc86ce7a	-0.016455878
46	0xbdb8332f	-0.089941375
47	0xbdc00d91	-0.093775876
48	0xbe574fad	-0.21026488
49	0xbe31683b	-0.17324917
50	0x3e095b31	0.13413693
51	0x3dd7a3c9	0.105292864
52	0x3e2040ba	0.15649691
53	0x3e0aaae5	0.13541754
54	0x3e27bda1	0.16380931
55	0xbd2212bc	-0.039568648
56	0x3dd9c0ed	0.10632501
57	0x3def14c0	0.116738796
58	0x3da0c8f7	0.07850831
59	0x3de5c660	0.11219478
60	0xbd116e9c	-0.035505876
61	0xbd1db3b8	-0.03850147
62	0xbd28cb75	-0.041209657
63	0xbc8f40e3	-0.017486995
64	0x3c86642b	0.016405186
65	0x3cb5231d	0.02211147
66	0xbd2c9928	-0.04213825
67	0xbe0a6506	-0.135151
68	0xbe136ad7	-0.14396225
69	0x3c5b6576	0.013390889
70	0x3d99fb37	0.075186186
71	0xbdb79f57	-0.089659385
72	0xbded994d	-0.116015054
73	0xbd04f924	-0.03246416
74	0x3d16e8bf	0.036843058
75	0x3e1b66d2	0.15175942
76	0x3e133c32	0.14378431
77	0x3d05215b	0.032502513
78	0x3ccd34dd	0.025049621
79	0xbc00ffb8	-0.007873468
80	0x3dc2f965	0.095202245
81	0x3def8916	0.11696069
82	0x3d8a1f21	0.067442186
83	0x3e1bd7b3	0.15219001
84	0x3da5aff7	0.08090203
85	0x3d8c55fb	0.06852337
86	0x3cf32390	0.029680043
87	0xbb1d0f50	-0.0023965426
88	0xbda3097a	-0.07960792
89	0xbbb6f894	-0.005583832
90	0xbc60902a	-0.013706246
91	0xbe36d59f	-0.17854927
92	0xbe1a35f4	-0.15059644
93	0xbdd0964d	-0.101849176
94	0xbdbfb44f	-0.09360563
95	0x3d359a36	0.04433652
96	0xbe252919	-0.16128959
97	0xbe8af413	-0.2713934
98	0xbdcb1577	-0.099162035
99	0xbe5d165d	-0.21590562
100	0x3e871a6e	0.26387352
101	0x3da4c1d0	0.08044779
102	0x3d06b5da	0.03288827
103	0x3da138f0	0.07872188
104	0x3c18dbfd	0.009329793
105	0x3d915b62	0.07097508
106	0x3e1ad848	0.15121567
107	0x3d5e687a	0.054298855
108	0x3cc2e45d	0.023790533
109	0xbd1ad92e	-0.037804775
110	0xbd58b56d	-0.052907396
111	0xbc05622a	-0.00814108
112	0xbdec812b	-0.11548074
113	0xbdc48963	-0.09596517
114	0xbd940388	-0.07227236
115	0xbe102f02	-0.14080432
116	0x3daeea43	0.085407756
117	0xbd276b63	-0.040873896
118	0xbdcbb931	-0.09947432
119	0x3d2bf819	0.04198465
120	0xbdbc846f	-0.09204947
121	0x3ca35e95	0.019942561
122	0x3c9f1dd1	0.019423397
123	0x3d588f15	0.05287083
124	0xbd93aaea	-0.07210334
125	0x3dc5f5e8	0.096660435
126	0x3d751797	0.05983695
127	0x3d35797d	0.044305313
128	0x3db10635	0.08643762
129	0x3e0ad2d6	0.1355699
130	0x3c8fbf0e	0.017547157
131	0xbcab57e3	-0.020915931
132	0x3d63d91c	0.055626974
133	0x3df9ea79	0.12202925
134	0x3df85dc9	0.12127263
135	0xbc7c4281	-0.015396715
136	0xbdd009eb	-0.10158142
137	0xbde9fa3f	-0.11424684
138	0xbd72dca1	-0.05929244
139	0x3d9b8e72	0.07595529
140	0xbe1231b0	-0.14276767
141	0xbe4331d0	-0.1906197
142	0xbe85c122	-0.2612391
143	0xbe249863	-0.16073756
144	0x3d2c3855	0.04204591
145	0xbe087361	-0.13325264
146	0xbe0c63a0	-0.13709879
147	0xbe88e2f0	-0.2673564
148	0xbe76528d	-0.24054928
149	0x3dc97f4b	0.09838732
150	0xbbe8ea4c	-0.0071080085
151	0x3e000219	0.125008
152	0x3c8f8270	0.017518252
153	0xbcb09a1c	-0.02155786
154	0x3dc81d96	0.09771268
155	0xbd791e78	-0.060820073
156	0xbd0569e5	-0.032571692
157	0xbda8690d	-0.08223162
158	0xbc83e065	-0.01609821
159	0x3cf0f049	0.029411452
160	0xbe145b93	-0.14488058
161	0xbe334c63	-0.17509608
162	0xbd917273	-0.071019076
163	0xbbc63ff4	-0.0060501043
164	0xbd02ad14	-0.03190334
165	0xbd54394d	-0.05181246
166	0xbe050db3	-0.12993507
167	0xbd8a3ed7	-0.06750267
168	0xbdabf68b	-0.08396634
169	0xbd83e986	-0.064410254
170	0xbd846c7d	-0.06466005
171	0xbe03a35c	-0.12855285
172	0xbe2da33b	-0.16956799
173	0xbe3c3eb9	-0.18383302
174	0xbe2647df	-0.16238354
175	0xb9b6b0cb	-0.00034845466
176	0x3d9ca6c6	0.07648997
177	0x3dc9ea97	0.098591976
178	0x3ded3feb	0.11584457
179	0x3e2fd253	0.17170076
180	0xbd16e764	-0.036841765
181	0x3d335ebb	0.043791514
182	0x3be17023	0.006879823
183	0x3d7b3ad9	0.06133542
184	0x3e47ccc1	0.19511701
185	0xbd443793	-0.047904562
186	0x3db86998	0.090045154
187	0x3dbbf479	0.09177489
188	0x3bf18d64	0.0073715914
189	0x3d83ebed	0.06441484
190	0xbcdad6f9	-0.026713835
191	0x3bf9f69c	0.007628275
192	0x3d2c1584	0.042012706
193	0xbc99f7d4	-0.018794931
194	0xbd9c4425	-0.07630185
195	0xbd660003	-0.056152355
196	0x3a5a985b	0.0008338743
197	0x3da47138	0.08029407
198	0x3d91acac	0.07113013
199	0x3dac76c9	0.08421094
200	0x3dc93af3	0.09825697
201	0x3e0c9ac5	0.13730915
202	0x3e623e4c	0.22094077
203	0x3e323036	0.17401204
204	0xbd6f8f8f	-0.058486518
205	0x3c26a969	0.0101722265
206	0xbdc4901d	-0.095978
207	0x3d963ae9	0.07335455
208	0x3dd4bef1	0.10387982
209	0xbe0cb378	-0.13740337
210	0x3e089763	0.13339
211	0x3ccf7b44	0.025327332
212	0x3ceffdee	0.029295888
213	0x3b8b8851	0.0042581935
214	0xbe4be318	-0.19910848
215	0x3db14eb6	0.08657591
216	0x3bbf6fc1	0.0058421795
217	0xbe136cef	-0.14397024
218	0xbcf54799	-0.029941367
219	0xbd9181c1	-0.07104827
220	0x3d1ac193	0.037782263
221	0xbc015c86	-0.007895594
222	0xbe866682	-0.26250082
223	0x3d4f2006	0.05056765
224	0xbe214254	-0.15747958
225	0xbd7d758e	-0.061879687
226	0x3e53a053	0.20666628
227	0x3d42631d	0.047457803
228	0xbcbc378b	-0.022975704
229	0x3dc41553	0.0957438
230	0x3d1739ea	0.036920466
231	0x3de904f1	0.113778956
232	0xbd1213bf	-0.035663363
233	0xbc1004f6	-0.008790245
234	0x3e400f5c	0.18755859
235	0xbe1583b2	-0.14601019
236	0x3caf33d5	0.02138702
237	0xbcd4a776	-0.025958758
238	0xbd9fd5dc	-0.07804462
239	0x3d7d3d8a	0.061826266
240	0xbd55f1d0	-0.052232563
241	0xbe3d1825	-0.18466242
242	0xbe3d590c	-0.18491
243	0xbe3d1540	-0.18465137
244	0xbe126e98	-0.143
245	0xbcd62db6	-0.026144844
246	0xbe31384e	-0.17306635
247	0xbebaf68b	-0.36516222
248	0xbe4f3923	-0.2023664
249	0xbe1880a0	-0.14892817
250	0xbe1dc683	-0.15407757
251	0xbdbeb3c1	-0.09311629
252	0xbcc0e1e1	-0.023545207
253	0x3c90cded	0.017676318
254	0x3d5a467a	0.053289868
255	0xbe1aba20	-0.15110064

conv5.bias f4 [32]
0	0x3d5adaba	0.05343125
1	0xbdb08e49	-0.08620889
2	0xbd908326	-0.070562646
3	0x3d1ecdf5	0.038770635
4	0xbd011f42	-0.03152395
5	0xbd268323	-0.040652405
6	0x3d4e91a6	0.05043187
7	0x3cb8ac55	0.022543112
8	0xbe11d42a	-0.1424109
9	0xbccecb46	-0.025243413
10	0x3de5009f	0.11181759
11	0x3db75a19	0.08952732
12	0xbd88db85	-0.06682495
13	0x3dbc60f6	0.09198181
14	0x3d0cda9b	0.034388166
15	0xbc3dac39	-0.011576706
16	0x3da07a77	0.07835858
17	0xbd8ca9f6	-0.06868355
18	0x3d2542d5	0.04034694
19	0x3bf74ff1	0.0075473716
20	0x3d878140	0.06616449
21	0x3c8f8716	0.017520469
22	0x3d6e3f8e	0.05816608
23	0xbc3dcae9	-0.011584022
24	0x3d6945f8	0.056951493
25	0xbd11f3de	-0.03563296
26	0xbdf0a728	-0.117506325
27	0x3da7d39b	0.081946574
28	0xbdca02e7	-0.09863835
29	0xbd2cf1c8	-0.042222768
30	0xbd362613	-0.044469904
31	0xbe22c168	-0.15894091

conv6.weight f4 [32, 32, 5, 5]
0	0xbd0fcd23	-0.035107743
1	0x3c93ba37	0.01803313
2	0x3d1a6db9	0.037702296
3	0x3d5181db	0.05114923
4	0x3c76aa8a	0.015055308
5	0xbb97c4ad	-0.0046316
6	0xbb22f68c	-0.0024866192
7	0x3d3a3483	0.045460235
8	0x3d18dee4	0.03732194
9	0xbcdf7ea8	-0.027282074
10	0x3c85aa8b	0.016316673
11	0x3c4aa373	0.012368071
12	0x3d6d5d8f	0.057950553
13	0xbaea03fb	-0.001785397
14	0x3b1b8d72	0.002373543
15	0x3b325ce0	0.0027216002
16	0x3cf9bf9a	0.03048687
17	0x3d911c3c	0.070854634
18	0x3b94220d	0.0045206607
19	0x3c304cb7	0.010760478
20	0x3b5db52d	0.0033829913
21	0xbd2e2255	-0.04251321
22	0x3ca7a0c0	0.020462394
23	0x3c86a7e3	0.016437477
24	0xbb573edd	-0.0032843866
25	0xbb320be0	-0.0027167723
26	0x3d833f71	0.06408585
27	0x3d31be28	0.043394238
28	0xbd8f70fe	-0.070039734
29	0x3b27199f	0.002549745
30	0x3d69c6ec	0.057074472
31	0x3cc08cda	0.023504663
32	0x3db1987e	0.08671664
33	0xbce62398	-0.028093144
34	0x3bb0e718	0.0053986423
35	0x3df6c9bf	0.12050199
36	0x3dc7489e	0.097306475
37	0xbd04fcf6	-0.032467805
38	0x3d2ffdcc	0.04296665
39	0x3de5a2e7	0.11212712
40	0x3dfeb7af	0.124373786
41	0x3dc2fc06	0.09520726
42	0x3dbee036	0.093201086
43	0xbcc9e329	-0.024644451
44	0x3db78523	0.08960941
45	0x3db0b292	0.086278096
46	0x3db6eeb9	0.089322515
47	0x3ddb8df5	0.107204355
48	0x3da19b41	0.078909405
49	0x3e011135	0.1260422
50	0x3a47e321	0.00076250924
51	0xbcd17c1e	-0.025571879
52	0x3b2a58db	0.0025992903
53	0x3d91e407	0.07123571
54	0xbd29af77	-0.041427102
55	0xbca4fc63	-0.020139879
56	0xbcad5d13	-0.021162545
57	0xbd42256d	-0.047398973
58	0x3cf14d6e	0.029455867
59	0x3c896c8b	0.01677539
60	0x3d9010a8	0.07034427
61	0x3d225db3	0.03964014
62	0x3ca7c017	0.020477338
63	0xbd85b96c	-0.06529507
64	0x3a98e520	0.0011664964
65	0xbd0cfeb7	-0.034422603
66	0xbd1027fb	-0.03519438
67	0x3d791747	0.060813215
68	0xbd1844c9	-0.037174974
69	0xbcba2676	-0.022723418
70	0x3e1e23a4	0.15443283
71	0x3d3b20a5	0.04568543
72	0x3d7bb9ad	0.06145637
73	0xbc2de824	-0.010614429
74	0x3d4f5ef0	0.05062765
75	0xbd59ab17	-0.05314168
76	0xbdc8793f	-0.09788751
77	0xbdcfbcf0	-0.10143459
78	0xbdee6c20	-0.11641717
79	0xbda3bdb8	-0.0799517
80	0xbd9341c1	-0.07190276
81	0xbc331f39	-0.010932737
82	0xb9eebebb	-0.00045537003
83	0xbd865265	-0.06558684
84	0xbdb60e09	-0.08889396
85	0xbdb6bc2e	-0.08922611
86	0xbca46197	-0.020066066
87	0x3d3c15d9	0.045919273
88	0x3d0862e5	0.03329744
89	0x3cde71e9	0.027153926
90	0x3dd85cb6	0.10564558
91	0x3da98aad	0.082784034
92	0x3dfd801f	0.12377953
93	0x3c8aef23	0.016959732
94	0x3d9f403e	0.07775925
95	0x3e317fbf	0.17333888
96	0x3d8510d7	0.064973526
97	0xbd266f6a	-0.040633596
98	0xbdafc800	-0.08583069
99	0xbda5bef1	-0.0809306
100	0x3cd7366d	0.02627107
101	0xbd9a6330	-0.0753845
102	0x3def8d74	0.11696902
103	0x3da5e14f	0.08099615
104	0xbda51cff	-0.08062171
105	0x3ca54b23	0.02017743
106	0xbdcd1932	-0.10014571
107	0x3e31c629	0.17360748
108	0x3e44f1cd	0.19232865
109	0x3c81eb15	0.015859166
110	0xbcf2f9ed	-0.02966019
111	0xbcaee94d	-0.02135148
112	0x3c6eae5d	0.014567939
113	0xbd18b8c4	-0.03728558
114	0x3cf10825	0.029422829
115	0xbd275857	-0.04085573
116	0xbca66d46	-0.020315778
117	0x3cadd37b	0.021219006
118	0x3dafb15a	0.08578749
119	0xbd3fe78b	-0.046851676
120	0xbd53bf12	-0.05169589
121	0xbb804d95	-0.0039154985
122	0xbe280bc2	-0.16410735
123	0x3e1eed36	0.15520176
124	0x3d86cd13	0.065820836
125	0x3d915cb7	0.07097762
126	0x3dc749c6	0.09730868
127	0x3ca1232b	0.01967009
128	0x3be54fd5	0.006998042
129	0x3d38030d	0.044924784
130	0x3dc4f275	0.096165575
131	0x3dcede74	0.10101023
132	0x3d58f554	0.052968338
133	0x3dc275df	0.094951384
134	0x3d532ea0	0.051558137
135	0x3d93f8cf	0.07225191
136	0xbcca8dd6	-0.024725836
137	0xbcf203ee	-0.02954289
138	0x3d1ff139	0.039048407
139	0x3cafe206	0.021470081
140	0x3d655df5	0.055997808
141	0x3d073f72	0.03301949
142	0x3d87cfef	0.06631457
143	0x3d881110	0.066438794
144	0x3ddde2ec	0.108342975
145	0x3d4495c1	0.04799438
146	0x3d84c940	0.06483698
147	0x3d30dbc0	0.04317832
148	0x3dd7dda6	0.10540323
149	0x3ddae3a2	0.10687949
150	0x3cf49278	0.029854998
151	0x3d0ef3aa	0.034900345
152	0x3c9d5da7	0.019209696
153	0x3d8d7abe	0.06908177
154	0x3d11beb7	0.03558227
155	0xbdb9f88f	-0.09080612
156	0xbcf40457	-0.029787226
157	0xbc2bd931	-0.010488794
158	0x3c31e29a	0.010857249
159	0x3c5d8909	0.013521441
160	0xbda8f96e	-0.082507
161	0x3c398f6a	0.0113256965
162	0x3c15ca89	0.009142526
163	0x3d86fdbf	0.06591367
164	0x3cf51779	0.02991842
165	0x3cb62796	0.022235673
166	0xbbf92b82	-0.0076040635
167	0x3d8f53b9	0.06998391
168	0x3e0300ad	0.12793227
169	0x3d9fac04	0.07796481
170	0x3d6bd915	0.057580072
171	0x3c3d63ba	0.011559421
172	0x3d5a9dfc	0.053373322
173	0x3caad7ff	0.020854948
174	0x3b120898	0.0022282954
175	0xbdabbb1f	-0.083853
176	0xbdd63a6c	-0.10460362
177	0xbd80852d	-0.06275401
178	0xbc757d65	-0.01498351
179	0x3e0bea09	0.13663496
180	0xbce351c0	-0.027748942
181	0x3a38eee4	0.00070546404
182	0xbc64891c	-0.013948705
183	0xbd6f6ace	-0.058451466
184	0x3c36cce0	0.011157244
185	0xbc8302f0	-0.015992612
186	0x3d84aca8	0.06478244
187	0x3b35866c	0.002769853
188	0x3dd71281	0.10501576
189	0x3e5bf23b	0.21479122
190	0x3d986477	0.07441037
191	0xbd3e8347	-0.046511915
192	0x3cc531c0	0.024071574
193	0x3d021879	0.03176162
194	0x3da5d643	0.08097508
195	0x3df76619	0.120800205
196	0xbc89b73f	-0.016811011
197	0x3aa0a14d	0.0012255103
198	0x3daee803	0.085403465
199	0x3e27cef8	0.16387546
200	0xbcc0e470	-0.023546427
201	0xbd97b945	-0.07408384
202	0xbd1b90a2	-0.03797973
203	0xbd89ab0f	-0.0672208
204	0xbdf0a166	-0.11749534
205	0x3dcd69c2	0.10029937
206	0xbb854440	-0.004066974
207	0x3d4e1558	0.050313324
208	0x3c9e4e8f	0.019324569
209	0xbe0021f8	-0.12512958
210	0x3da3e90e	0.08003436
211	0x3cc01dd6	0.023451727
212	0x3da638af	0.0811628
213	0xbcc37427	-0.023859097
214	0xbde1bf4f	-0.11022817
215	0x3e7945cf	0.24343036
216	0x3e76eed6	0.24114546
217	0x3ddf223e	0.10895203
218	0x3d9d2730	0.0767349
219	0xbd556115	-0.052094538
220	0x3e141d84	0.14464384
221	0x3e3dc83d	0.18533416
222	0x3e1c19ab	0.15244167
223	0x3e1fce99	0.15606155
224	0x3e03c8ee	0.12869617
225	0x3c9ea517	0.01936583
226	0xbdbe3ce8	-0.09288961
227	0x3cb40560	0.02197522
228	0xbdb2615b	-0.08709975
229	0xbd32b5b1	-0.043630306
230	0xbda0830f	-0.078374974
231	0xbdc0e57e	-0.09418772
232	0xbd02d4f0	-0.031941354
233	0xbd6e8b93	-0.058238577
234	0x3d24da63	0.040247332
235	0x3d579378	0.05263087
236	0xbdc8ebd3	-0.09810605
237	0x3bae7bbf	0.0053248103
238	0x3d3b3564	0.045705214
239	0x3e11926c	0.14216012
240	0x3d2b0d17	0.04176053
241	0xbcd98524	-0.026552744
242	0x3d2e9dfb	0.04263113
243	0x3dfd7b2a	0.12377007
244	0x3e0f89ab	0.1401736
245	0x3dbd6a6f	0.09248816
246	0x3c659196	0.014011761
247	0x3d5cc828	0.05390182
248	0x3d7aaecf	0.061201867
249	0x3bb218f4	0.0054351036
250	0xbdf4baca	-0.1194969
251	0xbdb4dd88	-0.08831316
252	0xbcd7fbe2	-0.026365224
253	0xbc315a41	-0.010824741
254	0x3bdbd633	0.006708884
255	0xbd8a8706	-0.06764035

conv6.bias f4 [32]
0	0xbe0cf88d	-0.1376669
1	0xbcbc78bf	-0.023006795
2	0x3d96a27d	0.07355211
3	0x3cb3c52a	0.021944601
4	0xbd39ca95	-0.045359213
5	0xbd6477d5	-0.055778343
6	0x3d8d9eb2	0.06915034
7	0xbd3cd6bd	-0.046103228
8	0x3d8b1ab5	0.06792203
9	0xbdc096b3	-0.094037436
10	0x3bbbeb01	0.0057348018
11	0xbd4c6ae1	-0.049906615
12	0xbd0fde59	-0.035124157
13	0x3dda109a	0.10647698
14	0xbc814df8	-0.015784249
15	0xbd652f52	-0.05595333
16	0xbe4480ac	-0.1918971
17	0x3bb099cd	0.005389428
18	0x3c41cf1a	0.011829162
19	0x3d694d8a	0.056958713
20	0xbdb759c4	-0.08952668
21	0x3c90b422	0.017664019
22	0xbe554e67	-0.2083069
23	0xbe6d2a7e	-0.2316074
24	0x3dcd8e7a	0.10036941
25	0xbe280f6f	-0.16412137
26	0x3aa6d1f5	0.0012727367
27	0x3d4a3774	0.04936929
28	0xbdaf06a9	-0.08546192
29	0xbd5256e2	-0.05135239
30	0xbe1649f3	-0.14676647
31	0xbdb36d09	-0.08761031
