models/DQN_wb_home.pth (torch, 916476 bytes, 22 tensors)

conv1.weight f4 [32, 1, 5, 5]
0	0xbe4c872d	-0.1997344
1	0x3c89f583	0.016840702
2	0xbe71f8e6	-0.23630103
3	0xbd62f062	-0.05540503
4	0xbd42ac6f	-0.047527727
5	0xbdcb1439	-0.099159665
6	0xbe5054a1	-0.20344783
7	0x3d469d6f	0.048489984
8	0xbd15f69e	-0.036612146
9	0x3bcb9250	0.00621251
10	0x3b1e92f2	0.0024196473
11	0x3e0a75b7	0.13521467
12	0x3d953273	0.07285013
13	0xbe8b155f	-0.27164742
14	0x3dae036d	0.08496747
15	0x3dcd85f2	0.10035314
16	0xbe1d2b21	-0.15348484
17	0xbe8211d8	-0.2540424
18	0x3def92d1	0.11697925
19	0xbc3c2202	-0.0114827175
20	0xbe11069a	-0.14162675
21	0xbde5c7c7	-0.11219745
22	0x3dfebd72	0.124384776
23	0x3c1a22ea	0.009407738
24	0xbd0adef4	-0.03390403
25	0x3d8c06a9	0.06837208
26	0x3b9e5cdf	0.0048328484
27	0xbdacee3e	-0.084438786
28	0xbd7a9def	-0.061185773
29	0xbd030f95	-0.031997282
30	0xbdc452c2	-0.09586097
31	0x3cd342e5	0.025788734
32	0xbe58a035	-0.21154864
33	0xbdb59df6	-0.08868019
34	0xbdb6765c	-0.08909294
35	0x3de2ec8c	0.11080274
36	0x3d79b501	0.060963634
37	0x3dceefde	0.10104345
38	0x3d8f1475	0.06986324
39	0xbe2276ff	-0.15865706
40	0xbe06804d	-0.1313488
41	0xbe09ed7d	-0.13469501
42	0xbdc4179f	-0.09574818
43	0x3da67a75	0.081288256
44	0xbe41e565	-0.18935163
45	0x3d118bc8	0.035533696
46	0x3d22d39c	0.039752588
47	0x3d62dbbf	0.055385347
48	0x3b0a1415	0.0021069099
49	0x3ddc952f	0.10770642
50	0xbc7d6946	-0.015466994
51	0x3ddf8a05	0.10914997
52	0xbd3f2412	-0.04666526
53	0xbd895619	-0.06705875
54	0x3e3cd521	0.18440677
55	0x3e01035e	0.1259894
56	0x3e7d4bd9	0.24735965
57	0x3db4758c	0.08811483
58	0x3d36d514	0.0446368
59	0x3de91290	0.11380494
60	0xbe8a934c	-0.27065504
61	0xbe915360	-0.28383923
62	0xbe37160b	-0.17879502
63	0x3e1236fe	0.1427879
64	0xbd970f76	-0.07375996
65	0x3df42c29	0.119224854
66	0x3d029fc8	0.03189066
67	0x3ddb0cfa	0.106958345
68	0xbe2a566e	-0.16634533
69	0x3e6d38cc	0.23166198
70	0xbe40e662	-0.18837884
71	0xbbabbedf	-0.0052412595
72	0x3e4c45cc	0.199485
73	0xbe3ec2d9	-0.18629016
74	0xbd878505	-0.06617168
75	0x3d4dfeb1	0.05029172
76	0x3e0fbf9b	0.14037935
77	0xbe4d003b	-0.20019619
78	0xbd4cfa92	-0.05004365
79	0x3e83c672	0.2573734
80	0xbcf50555	-0.02990977
81	0x3d991ec4	0.07476571
82	0xbe85cbf5	-0.2613217
83	0x3e15e2f0	0.14637351
84	0xbe08665b	-0.13320296
85	0x3c5e650d	0.013573897
86	0xbd4ede89	-0.050505195
87	0xbca1d6ab	-0.019755682
88	0xbe5723ad	-0.21009703
89	0xbe545eb7	-0.20739256
90	0xbd7d9044	-0.06190516
91	0x3d8fdebf	0.07024907
92	0xbdfa6fb2	-0.122283354
93	0xbd71cf8f	-0.059035834
94	0x3e346649	0.17617144
95	0x3c963b9b	0.018338969
96	0xbd9dfd10	-0.077142835
97	0xbcc49306	-0.023995887
98	0x3e338b58	0.17533624
99	0xbdaec56f	-0.08533751
100	0xbe8d0dc5	-0.27549568
101	0xbda9ea5f	-0.08296656
102	0x3ceaffe5	0.028686473
103	0x3ebd7e11	0.37010244
104	0xbd9a382c	-0.07530245
105	0xbe3bfc5e	-0.18357989
106	0x3e14f848	0.14547837
107	0xbe483e9c	-0.19555134
108	0x3d874a97	0.06606024
109	0xbce2045d	-0.027589971
110	0xbeb807d3	-0.3594347
111	0xbcedd809	-0.029033678
112	0xbeb513a3	-0.35366544
113	0xbd695438	-0.056965083
114	0xbd03657d	-0.03207921
115	0xbe1278a7	-0.14303838
116	0x3e54ef29	0.20794357
117	0xbddb0fd7	-0.106963806
118	0xbd259b57	-0.040431347
119	0x3d9d4d78	0.076807916
120	0x3e81ec87	0.2537577
121	0x3db3a059	0.08770818
122	0xbe309334	-0.17243654
123	0xbe90846e	-0.28226036
124	0xbd9222d7	-0.071355514
125	0xbe27e9e3	-0.16397814
126	0xbdac2be5	-0.0840681
127	0xbe144a9b	-0.14481585
128	0x3e19ddbf	0.15025996
129	0x3d613dc8	0.05499056
130	0xbd017e02	-0.03161431
131	0xbb0fa01e	-0.0021915506
132	0x3cf68499	0.030092524
133	0x3c63f3dc	0.013913121
134	0xbd0ef85c	-0.034904823
135	0xbe6d6460	-0.23182821
136	0xbe69bad6	-0.22825179
137	0x3d3ec90d	0.046578456
138	0x3e26443e	0.1623697
139	0xbd2d2260	-0.04226911
140	0xbeb51eae	-0.3537497
141	0x3e199c19	0.15000953
142	0xbe447399	-0.19184722
143	0x3e17636c	0.1478402
144	0x3daa79fa	0.083240464
145	0x3cbad0cc	0.02280464
146	0xbe6a7b92	-0.22898701
147	0x3e23c0f5	0.15991576
148	0xbe17c908	-0.14822781
149	0xbe83dde2	-0.2575522
150	0x3d13dc72	0.036098905
151	0xbc17e601	-0.009271146
152	0xbe338f3c	-0.17535108
153	0x3ea8d8cd	0.32977906
154	0xbe11485a	-0.14187756
155	0xbe3d121d	-0.18463941
156	0xbe29f5ef	-0.16597722
157	0xbe6b3881	-0.22970773
158	0x3e73efd7	0.2382196
159	0x3cc02cd2	0.023458872
160	0x3d78660a	0.060644187
161	0xbebf7eeb	-0.37401518
162	0xbebad155	-0.36487833
163	0xbd903d03	-0.07042887
164	0xbe45ebb0	-0.19328189
165	0x3e1ea93d	0.15494247
166	0x3e2e25cc	0.17006606
167	0xbed90d9a	-0.4239319
168	0x3d3ba67c	0.04581307
169	0xbe926a6c	-0.28596818
170	0xbe6c81a7	-0.23096333
171	0x3e7d673a	0.24746409
172	0x3d337a22	0.043817647
173	0x3df78c36	0.1208729
174	0xbea162b4	-0.31520617
175	0x3c8ca807	0.017169965
176	0x3d8dc389	0.06922061
177	0xbd369b5f	-0.044581767
178	0xbecbc7ae	-0.3980078
179	0xbe2dcc25	-0.16972406
180	0xbdab5c31	-0.083671935
181	0xbe4d83a9	-0.20069756
182	0x3da0e3ae	0.078559265
183	0x3e5679fb	0.2094497
184	0xbe127bd5	-0.1430505
185	0x3e2f3466	0.17109832
186	0x3e184693	0.14870672
187	0xbe3e355b	-0.18575041
188	0xbcff2f45	-0.03115047
189	0x3d8d53e8	0.069007695
190	0xbd78ab7e	-0.060710423
191	0x3b4ed0f6	0.0031557656
192	0xbda52f46	-0.08065657
193	0xbd15d73b	-0.036582213
194	0xbe6687d1	-0.22512747
195	0x3e0d1404	0.13777167
196	0xbe893757	-0.26800033
197	0xbe1b10aa	-0.15143076
198	0x3dbd6b49	0.09248979
199	0x3d63585d	0.05550419
200	0xbe89e9e5	-0.2693626
201	0xbbcf1a78	-0.006320294
202	0x3e647a67	0.22312318
203	0xbd49f9df	-0.04931056
204	0xbca3e343	-0.020005828
205	0xbd0bcf69	-0.03413335
206	0x3e5abdbe	0.21361443
207	0xbdc53fc9	-0.09631307
208	0xbd3a4e91	-0.045485083
209	0x3e320829	0.17385925
210	0xbdfeece7	-0.12447529
211	0xbe3e5522	-0.18587163
212	0x3de98454	0.11402193
213	0xbe923f64	-0.28563988
214	0x3d1d7af1	0.038447324
215	0x3dd0e3fd	0.10199735
216	0xbd1a7307	-0.037707355
217	0xbe088cc1	-0.13334943
218	0x3dec9857	0.11552494
219	0xbd860573	-0.06544008
220	0x3d16bebf	0.036803003
221	0x3d00eabd	0.031473864
222	0x3d509712	0.050925322
223	0xbdff8529	-0.1247657
224	0xbcefe8f7	-0.029285891
225	0x3e362405	0.17787178
226	0xbeabe426	-0.335725
227	0x3da3858c	0.079844564
228	0xbedf6c61	-0.43637374
229	0x3d444270	0.047914922
230	0x3df4eb49	0.119589396
231	0xbd91b831	-0.0711521
232	0xbd852e90	-0.06503022
233	0xbcdf50b0	-0.027260154
234	0x3e0baa83	0.13639264
235	0xbe6248b5	-0.22098048
236	0x3db38da0	0.08767247
237	0x3d32b50e	0.0436297
238	0x3e34608a	0.17614952
239	0xbea23574	-0.31681406
240	0x3e7b127a	0.24518767
241	0xbe85ff80	-0.26171494
242	0xbc2aba97	-0.010420463
243	0x3dd3090c	0.1030446
244	0xbe0b65b4	-0.13613015
245	0xbe2a5b6b	-0.16636436
246	0xbe2a132a	-0.16608873
247	0xbd88fb3c	-0.06688544
248	0x3ba28cb7	0.004960622
249	0x3e619759	0.22030391
250	0x3cbee0f1	0.02330062
251	0xbd6c7ac7	-0.057734277
252	0x3dfd3d8a	0.12365253
253	0xbda08c31	-0.078392394
254	0xbea3d80e	-0.32000774
255	0xbe65f9c9	-0.22458567

conv1.bias f4 [32]
0	0x3cfb50d5	0.030678192
1	0xbd549965	-0.0519041
2	0xbdaf8481	-0.08570195
3	0x3c8e7cf8	0.017393574
4	0xbca85d09	-0.020552175
5	0x3de03d71	0.10949219
6	0xbe040980	-0.12894249
7	0x3d8607d2	0.0654446
8	0xbcf252ef	-0.029580561
9	0x3ca90f48	0.02063717
10	0xbe1e45f6	-0.15456375
11	0xbdc427e6	-0.095779225
12	0xbc736cc7	-0.0148574775
13	0xbdbdb6a5	-0.09263352
14	0xbe465203	-0.19367222
15	0x3d800fa0	0.0625298
16	0x3c957bd6	0.018247526
17	0xbe5392ad	-0.20661421
18	0xbdf95a54	-0.12175432
19	0xbe6f6509	-0.23378386
20	0xbe02613b	-0.12732403
21	0x3cd20454	0.02563683
22	0x3d0c355f	0.034230586
23	0xbc6177b0	-0.013761446
24	0xbe535bf3	-0.20640545
25	0x3d7f486b	0.062324923
26	0xbd80995b	-0.0627925
27	0x3e0c357b	0.13692276
28	0xbe6bdd3f	-0.23033617
29	0xbe3cd668	-0.18441164
30	0xbe721f35	-0.23644717
31	0xbe73bc75	-0.2380236

conv2.weight f4 [32, 32, 5, 5]
0	0xbd796542	-0.060887583
1	0xbd0dad9f	-0.034589406
2	0xbc48eaab	-0.01226298
3	0xbdb623f4	-0.08893576
4	0xbbae4713	-0.0053185313
5	0x3d8c4c68	0.06850511
6	0xbd466e27	-0.048444893
7	0x3d4894dd	0.048970092
8	0xbdde3a81	-0.108510025
9	0x3c68701c	0.014186885
10	0xbda00988	-0.07814318
11	0xbc8c7438	-0.017145261
12	0xbcf07bce	-0.02935591
13	0x3b8d6b6c	0.004315784
14	0xbce3f87f	-0.027828453
15	0xbd264ebf	-0.040602442
16	0x3cb1180e	0.021617915
17	0xbb90508a	-0.0044041323
18	0x3cf61b01	0.030042173
19	0xbd9d26a4	-0.07673386
20	0xbd7060f6	-0.05868622
21	0xbd157362	-0.03648699
22	0xbc0809af	-0.00830309
23	0xbcf9f0be	-0.030510303
24	0xbc84d076	-0.016212683
25	0xbcba2b1b	-0.022725632
26	0xbd9485cb	-0.072520815
27	0x3caf8fe3	0.021430915
28	0xbcb23f67	-0.021758748
29	0xbd2b96b1	-0.041891757
30	0x3d293aeb	0.041315954
31	0xbddbbc57	-0.10729282
32	0x3c9e043c	0.019289128
33	0x3d6a507b	0.05720566
34	0xbdc9e001	-0.098571785
35	0xbd932377	-0.07184499
36	0x3b8e23f0	0.00433778
37	0x3c863a01	0.01638508
38	0x3d2a22b6	0.04153701
39	0xbcc09de5	-0.02351279
40	0x3d2364dd	0.039891113
41	0xbb5cb2b5	-0.0033675854
42	0xbd97b638	-0.07407802
43	0xbd4e83f4	-0.05041881
44	0xbd46cbbf	-0.04853415
45	0xbb6f9975	-0.0036559973
46	0xbda72fd2	-0.08163418
47	0x3dc5484e	0.09632932
48	0xbd876787	-0.06611543
49	0x3d93a895	0.07209889
50	0xbd312cb0	-0.043255508
51	0x3c011a0b	0.007879744
52	0x3ceda03c	0.02900707
53	0x3dc08fa0	0.09402394
54	0xbb641a36	-0.0034805662
55	0xbe1f1c39	-0.1553811
56	0xbc8bfe14	-0.017088927
57	0xbd7cf799	-0.061759565
58	0x3de8d4f1	0.1136874
59	0x3d50a0cc	0.050934598
60	0xbd9ad4f0	-0.07560146
61	0xbc9cf57b	-0.019160023
62	0x3bf7d165	0.0075628036
63	0x3c025249	0.007954189
64	0xbddcbd95	-0.107783474
65	0xbe2e6be2	-0.17033342
66	0xbd964395	-0.07337109
67	0xbdcb50b4	-0.09927502
68	0x3c6cc7b7	0.014451913
69	0xbe23be34	-0.15990525
70	0xbc19fdd5	-0.009398897
71	0x3ccfca5a	0.025365043
72	0xbda7a9df	-0.08186697
73	0x3d0071cd	0.03135853
74	0x3dd661ae	0.1046785
75	0xbd55f5fd	-0.052236546
76	0xbbdb35d0	-0.0066897646
77	0xbcbf2fb7	-0.023338182
78	0x3dba24f8	0.090890825
79	0xbdfae00b	-0.12249764
80	0x3d85c716	0.06532113
81	0xbdfdf5ba	-0.12400384
82	0xbd9ea795	-0.077468075
83	0x3d490c33	0.0490839
84	0x3d315073	0.043289613
85	0xbd509ec3	-0.050932657
86	0xbd881a3c	-0.06645629
87	0xbd56ab18	-0.05240926
88	0xbd7822e3	-0.060580146
89	0x3cf9cb2d	0.03049239
90	0xbde26cdb	-0.11055919
91	0xbd83dd47	-0.0643869
92	0x3987b08d	0.00025880747
93	0xbe3a7291	-0.18207766
94	0xbc9a97d0	-0.018871218
95	0x3c66cb8a	0.014086613
96	0xbcb8e05d	-0.022567922
97	0xbdb733e5	-0.08945445
98	0x3dbaa547	0.091135554
99	0xbd406520	-0.04697144
100	0xbdc6f67f	-0.09714984
101	0x3d901e4d	0.070370294
102	0xbe85c55e	-0.26127142
103	0x3e3ad363	0.182447
104	0xbcfd62da	-0.030930925
105	0x3d29cb46	0.041453622
106	0xbcc90b41	-0.0245415
107	0x3ddab24d	0.106785394
108	0xbd4277eb	-0.047477644
109	0xbcb4d6fc	-0.022075169
110	0xbda9b861	-0.082871206
111	0xbd322248	-0.043489724
112	0xbd4b9b4f	-0.04970866
113	0x3cf91732	0.030406568
114	0x3e0c573d	0.13705154
115	0xbd826d71	-0.063685305
116	0xbdbbb325	-0.091650285
117	0x3c787339	0.01516419
118	0xbe15d124	-0.14630562
119	0x3dd046c3	0.10169747
120	0x3e1dbca7	0.15403996
121	0xba3e6a8c	-0.00072638015
122	0x3c83ecbe	0.016104098
123	0x3d00f8bd	0.031487215
124	0x3d000320	0.03125298
125	0xbd529917	-0.05141553
126	0xbe0ba6eb	-0.13637893
127	0xbd4cd300	-0.050005913
128	0xbd7b56e3	-0.06136216
129	0xbe88cb94	-0.26717818
130	0x3d8f3aec	0.0699366
131	0xbd4b6d4f	-0.04966479
132	0x3d9627e6	0.07331829
133	0xbde8b5a9	-0.11362774
134	0xbddb9b02	-0.10722925
135	0xbc95f448	-0.018304959
136	0x3d2862cf	0.041109856
137	0xbce8784a	-0.02837767
138	0xbdc47ccd	-0.09594116
139	0xbc82697a	-0.015919436
140	0xbdc20c9c	-0.09475061
141	0xbdcc528a	-0.099766806
142	0x3bdfd7ca	0.006831144
143	0xbcb117ea	-0.021617848
144	0xbe193e58	-0.14965189
145	0x3d90df9b	0.07073899
146	0xbe0d676d	-0.13808985
147	0xbd19c0da	-0.037537433
148	0xbe035ac3	-0.12827592
149	0x3d544b96	0.051829897
150	0xbe8781b2	-0.26466137
151	0xbc9eb16f	-0.019371716
152	0x3e70b7b1	0.23507573
153	0xbe83b76c	-0.25725877
154	0xbdea4444	-0.11438802
155	0x3e4f8cf9	0.2026862
156	0xbc4aa44b	-0.012368272
157	0x3d928492	0.07154192
158	0x3d6383a0	0.05554545
159	0xbbb7f30a	-0.0056136893
160	0xbd645777	-0.055747475
161	0x3c937dff	0.018004416
162	0x3e06f184	0.13178068
163	0xbd9b4c76	-0.07582943
164	0x3d913d95	0.07091824
165	0x3e1a6ce9	0.15080608
166	0xbe09ef77	-0.13470255
167	0x3b78da54	0.003797193
168	0xbdda420f	-0.10657131
169	0x3de48c1e	0.11159538
170	0x3e44b208	0.19208539
171	0x3cb89a5f	0.022534547
172	0xbd174a4a	-0.036936082
173	0x39fbcf48	0.00048028887
174	0x3ec7f251	0.3905206
175	0xbc4e73e7	-0.012600875
176	0xbe0649b6	-0.13114056
177	0xbc4dd179	-0.012562149
178	0xbe50c922	-0.20389226
179	0xbd3340f0	-0.0437631
180	0x3a8ee736	0.0010902646
181	0xbcf2bec0	-0.029631972
182	0x3c9a0fc3	0.018806344
183	0xbd9bd5c2	-0.076091304
184	0x3acfcb3e	0.0015853418
185	0xbd3702e2	-0.044680484
186	0xbda796e9	-0.08183081
187	0xbcdee90f	-0.02721074
188	0x3bd819d9	0.006594878
189	0x3cc6c380	0.024263144
190	0x3d617e2d	0.05505197
191	0xbc304c83	-0.010760429
192	0xbc418ccc	-0.011813354
193	0xbd8bfc06	-0.06835179
194	0xbd73ca80	-0.05951929
195	0x3d8b7339	0.06809086
196	0xbd53f6b7	-0.051748957
197	0x3d4b6c92	0.049664088
198	0xbb9895e5	-0.0046565407
199	0xbdb841a9	-0.08996899
200	0x3d5daecc	0.054121777
201	0xbdb6e138	-0.08929676
202	0xbdce8348	-0.10083634
203	0x3cd4785f	0.025936304
204	0xbd82f227	-0.06393843
205	0xbccedc8e	-0.025251653
206	0xbc5d5051	-0.013507918
207	0x3d1496a6	0.036276482
208	0x3c277ba7	0.010222352
209	0xbc4e14a3	-0.012578162
210	0xbc6f7684	-0.014615659
211	0xbdb83eae	-0.0899633
212	0xbdd3bcf4	-0.10338774
213	0xbc4195df	-0.011815517
214	0xbc13e74c	-0.009027313
215	0x3dc512b4	0.09622708
216	0xbd539657	-0.051657047
217	0xbe165842	-0.14682105
218	0x3d679311	0.056536738
219	0xbd7524a3	-0.059849393
220	0x3bf8f872	0.0075979764
221	0x3d80cdbd	0.062892415
222	0xbc9d0057	-0.019165201
223	0xbde54297	-0.11194342
224	0x3cfcf8d5	0.030880371
225	0xbe251c42	-0.16124061
226	0xbc52544b	-0.01283748
227	0xbb048b67	-0.0020224692
228	0xbdc1f99c	-0.09471437
229	0x3c7fd3da	0.015614474
230	0xbe0c0f17	-0.13677631
231	0xbe2bc302	-0.16773608
232	0xbd48f908	-0.04906562
233	0xbdc1ca7a	-0.094624475
234	0xbd65334f	-0.055957135
235	0xbbaf0f07	-0.0053423676
236	0x3b609474	0.0034268172
237	0x3e2963db	0.16541998
238	0xbde0d296	-0.10977666
239	0xbd2de61e	-0.042455785
240	0xbc534a00	-0.012896061
241	0x3d271cf1	0.040799085
242	0xbd6f0606	-0.058355354
243	0xbc41e9e2	-0.011835547
244	0xbc9c96e3	-0.019114917
245	0xbd438485	-0.047733802
246	0xbd6b57e9	-0.057456885
247	0x3d585b1c	0.052821264
248	0x3cfddb65	0.030988405
249	0x3e02509f	0.12726067
250	0xbd695053	-0.05696137
251	0xbcae9907	-0.021313203
252	0x3db50d02	0.08840372
253	0xbdb2c5a0	-0.087291
254	0xbca9f5ca	-0.020747084
255	0xbd9128be	-0.07087849

conv2.bias f4 [32]
0	0xbb23b9b1	-0.0024982507
1	0xbd35d2ae	-0.044390373
2	0xbd319f03	-0.043364536
3	0x3ce818c4	0.028332122
4	0x3c337e9a	0.010955477
5	0xbda4ef1f	-0.08053421
6	0xbcd58a24	-0.026066847
7	0xbd97c8dc	-0.07411358
8	0xbc733e56	-0.014846405
9	0xbd9693b9	-0.073523946
10	0xbcf5d5c2	-0.030009154
11	0xbd6e5cdd	-0.05819403
12	0xbd17bce3	-0.03704537
13	0x3ca93081	0.020653011
14	0xbd909ca3	-0.07061126
15	0xbcbe76f0	-0.023250073
16	0xbd93bbdc	-0.07213566
17	0xbc1039ad	-0.0088028135
18	0x3c18e9cc	0.009333085
19	0xbda298a9	-0.07939274
20	0xbd71ee79	-0.059065316
21	0xbb994bb4	-0.004678214
22	0x3cb08b53	0.02155081
23	0xbd96b546	-0.07358794
24	0xbd09c28a	-0.033632793
25	0x3aa2a3ed	0.0012408473
26	0xbdbffd40	-0.093744755
27	0xbd539508	-0.0516558
28	0xbc098ead	-0.008395833
29	0xbd618a24	-0.05506338
30	0xbd08790b	-0.03331856
31	0x3c98c60f	0.01864913

conv3.weight f4 [32, 32, 5, 5]
0	0xbd579b01	-0.052638058
1	0xbe042b6a	-0.12907186
2	0xbc929fc8	-0.017898455
3	0x3d538cba	0.05164788
4	0x3c747d23	0.014922413
5	0xbd7d5b6b	-0.06185476
6	0xbd8b8137	-0.06811755
7	0xbd199be5	-0.03750219
8	0x3d431d75	0.047635514
9	0xbd477172	-0.048692174
10	0x3d562852	0.052284546
11	0xbd8800fe	-0.06640814
12	0x3ded0c12	0.11574568
13	0xbe0d0912	-0.13772991
14	0x3db7e4c6	0.08979182
15	0x3d551b12	0.05202777
16	0xbe02afc2	-0.12762359
17	0xbd2481a9	-0.040162716
18	0xbdd12e65	-0.10213927
19	0xbe0dd087	-0.13849078
20	0xbd69ddd6	-0.057096325
21	0xbe099ea5	-0.13439424
22	0xbcf91c90	-0.030409127
23	0xbd506438	-0.050876826
24	0x3cb32a6e	0.021870818
25	0x3d5cedb6	0.053937636
26	0x3d3934fa	0.045216538
27	0xbda7ca85	-0.081929244
28	0x3da4ee24	0.08053234
29	0x3e10a817	0.14126621
30	0x3d49dee6	0.04928484
31	0x3c972bf1	0.01845357
32	0xbd8c0d29	-0.068384476
33	0x3cab7f2d	0.020934666
34	0x3d923d0b	0.07140549
35	0xbe676776	-0.22598061
36	0xbdcb4693	-0.0992557
37	0xbbf35431	-0.007425808
38	0x3e16486c	0.14676064
39	0x3dbb804a	0.091553286
40	0xbe030f2b	-0.12798755
41	0xbe5ee8eb	-0.21768539
42	0xbc7a03ab	-0.015259664
43	0x3d72da70	0.05929035
44	0x3c59177b	0.013250227
45	0x3d2a7097	0.04161128
46	0xbcde8b61	-0.02716607
47	0xbd1c4041	-0.038147215
48	0x3c904d21	0.017614903
49	0x3d3638fb	0.044487935
50	0xbde1bd6e	-0.11022459
51	0xbe9117a4	-0.2833835
52	0xbe66d9ef	-0.22544073
53	0xbdbbed5a	-0.091761306
54	0xbd928565	-0.07154349
55	0x3d67cbf5	0.056590993
56	0x3e0166b9	0.12636842
57	0xbc068c61	-0.00821218
58	0xbdb3247e	-0.08747195
59	0xbd242cfd	-0.040081967
60	0x3d3971d4	0.04527457
61	0xbe23f739	-0.16012277
62	0xbdeed4b9	-0.116616674
63	0x3dd5be77	0.10436719
64	0xbe1f4c23	-0.15556388
65	0xbe086745	-0.13320644
66	0xbe0a7a63	-0.1352325
67	0x3ced32b0	0.028954834
68	0xbda1502e	-0.07876621
69	0xbcd0e0e6	-0.025497865
70	0x3de2c972	0.11073579
71	0xbea78725	-0.32720295
72	0xbdd8308a	-0.10556133
73	0xbcbc76a1	-0.023005785
74	0xbea29960	-0.3175764
75	0xbdcf25b5	-0.10114614
76	0xbcaf0744	-0.02136577
77	0xbd50604b	-0.050873082
78	0xbd0fb5c6	-0.035085462
79	0xbdb5f94c	-0.0888544
80	0x3d115ecc	0.035490796
81	0x3dc8be3e	0.09801911
82	0x3cf80004	0.030273445
83	0xbde0e594	-0.109812886
84	0x3ca11699	0.019664096
85	0x3de7f921	0.113268144
86	0xbcf8277f	-0.03029227
87	0x3d515745	0.051108617
88	0xbde32a2e	-0.110920295
89	0x3d89c0ff	0.06726264
90	0x3e0212be	0.12702462
91	0x3c4bea07	0.012445933
92	0xbd55b08e	-0.05217033
93	0xbc2303d5	-0.009949644
94	0xbdf7e472	-0.12104119
95	0x3e6d7276	0.23188195
96	0xbd886fc1	-0.0666194
97	0xbcd287a8	-0.025699452
98	0xbc476b7d	-0.012171623
99	0xbbf9378d	-0.007605499
100	0x3d5bceaf	0.053663906
101	0xbd5d1652	-0.053976364
102	0x3d186500	0.037205696
103	0xbdb36e08	-0.08761221
104	0xbcac5870	-0.021038264
105	0x3cb9cc40	0.022680402
106	0xbc544102	-0.012954952
107	0xbdc84863	-0.09779432
108	0xbd5d7ca8	-0.05407396
109	0xbc92c735	-0.017917255
110	0x3e129bf1	0.143173
111	0x3c48745c	0.0122347735
112	0x3c983d2f	0.018583862
113	0xbd7908e3	-0.06079949
114	0xbe3171ff	-0.17328642
115	0xbda89b50	-0.082327485
116	0xbd1a5702	-0.037680633
117	0x3d7a92f0	0.061175287
118	0xbd85ca51	-0.065327294
119	0xbcda7c54	-0.026670612
120	0x3dc1a2d5	0.09454886
121	0x3d220c97	0.039562788
122	0x3ccef34c	0.025262497
123	0x3ccec4e3	0.025240367
124	0x3cd8505e	0.02640551
125	0xbc4e360b	-0.012586127
126	0xbe21eca5	-0.15812929
127	0x3d24ba0d	0.040216494
128	0xbe209bd4	-0.15684444
129	0xbd091ef6	-0.033476792
130	0xbbc55be1	-0.0060229157
131	0xbdecaa33	-0.115559004
132	0xbc82cd35	-0.015966991
133	0x3db84a3d	0.08998535
134	0x3d9873b5	0.07443944
135	0x3d6cc5e4	0.05780591
136	0x3c884bf5	0.016637782
137	0xbda455cb	-0.08024176
138	0xbd7908a6	-0.060799263
139	0xbe0cf136	-0.1376389
140	0xbdbf1db3	-0.093318366
141	0x3e2720a6	0.16321048
142	0x3d52055f	0.051274654
143	0xbcc8389e	-0.02444106
144	0x3dcd9f1b	0.100401126
145	0x3de90cd9	0.113794036
146	0xbdc0b51a	-0.094095424
147	0x3e280010	0.16406274
148	0x3dfd7f29	0.123777695
149	0xbe045383	-0.12922482
150	0xbe0c8f01	-0.13726427
151	0xbdf64f17	-0.12026804
152	0x3dee5fd0	0.116393685
153	0xbd961011	-0.07327283
154	0xbe42161a	-0.18953744
155	0x3c83619e	0.016037758
156	0x3e095350	0.13410687
157	0xbe0cdd7d	-0.13756366
158	0x3b998924	0.004685538
159	0x3d29f7c3	0.04149605
160	0x3dc740cd	0.09729157
161	0xbdd6aa28	-0.104816735
162	0x3db901d5	0.090335526
163	0x3d0640bc	0.03277658
164	0xbd1bdab7	-0.03805038
165	0xbc82be07	-0.015959753
166	0x3c9bddae	0.019026604
167	0x3d1eb462	0.038746245
168	0x3e0e0b10	0.13871408
169	0x3c360a53	0.01111086
170	0xbe729630	-0.23690104
171	0xbdd971f6	-0.106174394
172	0xbdbd48c8	-0.092423975
173	0x3d1e0d75	0.038587052
174	0xbe31985e	-0.1734328
175	0xbde528d5	-0.11189429
176	0x3d693ca2	0.05694259
177	0xbd946e05	-0.07247547
178	0x3d8aee1b	0.06783696
179	0x3d886ac4	0.06660989
180	0xbda32c02	-0.07967378
181	0xbdc53ddd	-0.0963094
182	0xbd51609d	-0.05111753
183	0x3e23bce7	0.1599003
184	0xbc68df66	-0.014213419
185	0xbbdcb761	-0.0067357277
186	0xbdbe4481	-0.0929041
187	0xbd8b8a5f	-0.068135016
188	0x3dc9cece	0.09853898
189	0x3d42439b	0.047427755
190	0xbd381855	-0.04494508
191	0xbdc3cd1f	-0.09560608
192	0xbd504d80	-0.05085516
193	0x3ddfd41d	0.10929129
194	0xbc9abb46	-0.018888127
195	0xbd44482c	-0.04792039
196	0xbd64f5c3	-0.05589844
197	0xbdd42a8c	-0.10359678
198	0x3de4200a	0.111389235
199	0xbbfbe44e	-0.007687128
200	0x3e46a80e	0.19400045
201	0x3d58aede	0.05290114
202	0x3e5b36f5	0.21407683
203	0x3e25df25	0.16198404
204	0x3df5d648	0.120037615
205	0x3de45803	0.111495994
206	0x3df21b90	0.118216634
207	0xbbc52165	-0.006015944
208	0x3d899d94	0.06719509
209	0xbbc9b682	-0.00615579
210	0xbdc24bf8	-0.09487146
211	0x3d40d449	0.04707745
212	0x3e338c1f	0.1753392
213	0x3cdce691	0.026965411
214	0x3e60b177	0.21942697
215	0x3e08afc1	0.13348295
216	0x3d4a39cd	0.04937153
217	0x3e1a1bf3	0.15049724
218	0x3e3a845d	0.18214555
219	0xbd3be112	-0.04586894
220	0x3e419a37	0.18906485
221	0x3e12ee89	0.14348806
222	0x3e2f7722	0.1713529
223	0x3de0d4d9	0.109780975
224	0xbdbc6332	-0.091986075
225	0xbdec759d	-0.115458705
226	0x3c4779a3	0.012174997
227	0x3d25105a	0.040298797
228	0x3d99e1d0	0.075137734
229	0x3d99842f	0.07495915
230	0xbd9391e2	-0.07205559
231	0x3e1dcb94	0.1540969
232	0xbda6e67a	-0.08149429
233	0x3cf3ac4d	0.029745245
234	0x3d61771b	0.05504523
235	0x3d3c8fbb	0.04603551
236	0x3e134b1a	0.14384118
237	0xbdf36697	-0.11884802
238	0xbd23ea60	-0.04001844
239	0xbd9ff982	-0.07811262
240	0x3d83ee39	0.06441922
241	0x3d751d0a	0.059842147
242	0x3e03b730	0.12862849
243	0x3e0645ca	0.1311256
244	0xbdebbef4	-0.11511031
245	0x3de0fc64	0.1098564
246	0xbbfb1e74	-0.0076635424
247	0x3e3babae	0.1832721
248	0x3d873cb5	0.06603376
249	0x3c3425e8	0.010995366
250	0xbd4cd509	-0.050007854
251	0x3c1eb2e6	0.009686207
252	0x3d996f54	0.07491937
253	0x3d34b13b	0.044114333
254	0x3d72bf68	0.05926457
255	0xbe45c1eb	-0.19312255

conv3.bias f4 [32]
0	0xbd1c2ac3	-0.03812672
1	0xbd1fbf01	-0.039000515
2	0xbd40dec3	-0.047087442
3	0xbd89eb0b	-0.06734284
4	0xbd831313	-0.064001225
5	0xbd1e91bd	-0.038713206
6	0xbde7b763	-0.11314275
7	0xbdb04a19	-0.08607883
8	0xbd386eb8	-0.045027465
9	0xbd1dc0ad	-0.038513828
10	0xbd4dab86	-0.050212406
11	0xbd6f6428	-0.058445126
12	0xbd96752b	-0.07346567
13	0xbd2c86a0	-0.042120576
14	0xbd9b54bf	-0.075845234
15	0xbdc29754	-0.0950152
16	0xbd9b1d57	-0.075739555
17	0xbd03e5b8	-0.0322015
18	0xbd1f2f16	-0.038863264
19	0xbd2e575d	-0.042563785
20	0xbd6e1c80	-0.05813265
21	0xbd63295d	-0.05545937
22	0xbc1aad12	-0.009440677
23	0xbd2d62b1	-0.042330448
24	0xbd54c3e5	-0.051944632
25	0xbdf95861	-0.1217506
26	0xbd5181ec	-0.051149294
27	0xbd06c9e2	-0.032907374
28	0xbd2d3e2d	-0.042295624
29	0xbc997766	-0.018733691
30	0xbc8cc8c1	-0.01718557
31	0xbd60329f	-0.054735776

conv4.weight f4 [32, 32, 5, 5]
0	0x3e3d7b82	0.18504146
1	0xbcc55278	-0.024087176
2	0xbd9a279f	-0.075270884
3	0x3ccc6acd	0.02495327
4	0x3cb348f7	0.021885378
5	0xbd66e5d6	-0.056371532
6	0x3d0a7fe7	0.033813383
7	0xbe47935e	-0.1948981
8	0xbd0223ff	-0.03177261
9	0xbd55f4d4	-0.05223544
10	0xbd2f0be8	-0.042735964
11	0x3da1058e	0.078623876
12	0x3cc9203e	0.024551507
13	0xbd14ecf5	-0.036358792
14	0xbc06600d	-0.008201611
15	0xbe06d5e6	-0.13167533
16	0xbe245c0f	-0.16050743
17	0xbdb54098	-0.08850211
18	0x3d2b93e2	0.04188908
19	0x3e070649	0.13185991
20	0xbdf32a3b	-0.11873289
21	0xbd5eb599	-0.054372404
22	0xbdae44ad	-0.085091926
23	0xbc36665e	-0.011132805
24	0x3dd9b7ac	0.10630736
25	0x3def050b	0.11670884
26	0x3d161028	0.0366365
27	0x3bcb7568	0.0062090643
28	0x3d968112	0.07348837
29	0xbd84cdc0	-0.06484556
30	0xbcceaa23	-0.025227612
31	0xbd188165	-0.037232775
32	0xbde263af	-0.110541694
33	0xbd921fe0	-0.07134986
34	0xbe41ee33	-0.18938522
35	0xbcfa1421	-0.030527176
36	0x3e04d511	0.12971903
37	0x3db91fe1	0.090392835
38	0x3e040c48	0.1289531
39	0xbd5dca2a	-0.054147877
40	0xbb2860e9	-0.0025692529
41	0x3e490d67	0.19634019
42	0x3dbc2543	0.091867946
43	0x3c407c67	0.01174841
44	0x3d4eb41f	0.050464746
45	0xbd88c05e	-0.06677316
46	0xbd15f57a	-0.036611058
47	0xbd825fef	-0.06365954
48	0xbd144e1f	-0.036207315
49	0xbd665511	-0.05623347
50	0x3d9f3720	0.07774186
51	0xb8b7af8b	-8.7588174e-05
52	0x3da6ac0d	0.08138285
53	0xbc51dd50	-0.012809113
54	0x3d151dee	0.036405496
55	0x3d674b94	0.05646856
56	0xbdf9a409	-0.1218949
57	0xbd1595e1	-0.03651989
58	0xbdcd69fe	-0.10029982
59	0xbc60c0ee	-0.013717873
60	0xbd9ff346	-0.078100726
61	0xbcc848a3	-0.024448698
62	0x3c953dc2	0.018217925
63	0x3c249f96	0.010047814
64	0x3da231d7	0.079196624
65	0xbe08c9b5	-0.13358195
66	0xbc2136df	-0.009839742
67	0x3d638c5d	0.055553783
68	0x3d09c27f	0.03363275
69	0xbdb56faf	-0.088591926
70	0xbe299cb3	-0.16563682
71	0xbdb55404	-0.08853915
72	0xbdf1f6a2	-0.118146196
73	0xbd329f45	-0.043608923
74	0xbda26fb0	-0.07931459
75	0x3dd7c46e	0.10535513
76	0x3ca99440	0.020700574
77	0xbd8cd253	-0.06876054
78	0x3d9452a1	0.07242323
79	0xbbafa68b	-0.0053604296
80	0xbc910ca9	-0.017706232
81	0xbcc142b1	-0.023591371
82	0x3cfedca5	0.03111107
83	0x3dc48d51	0.095972665
84	0xbe0d5981	-0.13803674
85	0xbda815cd	-0.08207283
86	0x3da5480b	0.08070382
87	0x3d376f23	0.044783723
88	0xbd8c7bf7	-0.06859582
89	0xbd932506	-0.07184796
90	0xbdb21ca5	-0.0869687
91	0xbcf3db5f	-0.02976769
92	0x3dbef791	0.09324563
93	0xbd9a16d8	-0.07523888
94	0xbe28f408	-0.1649934
95	0x3d2e7a96	0.042597376
96	0xbc7422e5	-0.014900898
97	0xbe253606	-0.1613389
98	0xbe2fae61	-0.17156364
99	0xbcfccc4e	-0.030859139
100	0x3e134188	0.14380467
101	0x3d95d3b1	0.073157676
102	0x3d06be85	0.032896537
103	0x3c97e282	0.018540625
104	0xbda2ebd0	-0.07955134
105	0x3e257425	0.16157587
106	0xbc493710	-0.012281194
107	0x3cb852b7	0.022500379
108	0x3d352b1f	0.044230577
109	0xbddefd90	-0.10888207
110	0xbc4fb56e	-0.012677534
111	0xbc012816	-0.007883092
112	0x3da24487	0.07923227
113	0x3dabc179	0.08386511
114	0xbd4d3b71	-0.050105516
115	0x3da405b5	0.08008901
116	0x3c729789	0.014806637
117	0x3b6a508e	0.003575358
118	0x3dc81ef5	0.097715296
119	0x3d8479af	0.06468522
120	0x3e016789	0.12637152
121	0xbc3129c5	-0.010813181
122	0xbc88cbff	-0.016698835
123	0xbd4a0b2e	-0.049327068
124	0x3d5f8713	0.054572176
125	0xbd1936d0	-0.03740579
126	0xbbb7b3df	-0.005606159
127	0xbe132c35	-0.14372332
128	0xbdb12058	-0.08648747
129	0xbd5f3559	-0.054494236
130	0xbdd7e2ef	-0.10541331
131	0xbe32793a	-0.17429057
132	0xbd55602c	-0.05209367
133	0xbd86d199	-0.06582946
134	0xbdedb14b	-0.116060816
135	0xbc10139b	-0.008793737
136	0x3daf932f	0.08572995
137	0xbd91fdd9	-0.07128496
138	0x3cd255be	0.02567565
139	0xbcd07672	-0.025447104
140	0xbce55b4a	-0.027997632
141	0xbd601b0b	-0.05471329
142	0xbd2256ff	-0.039633747
143	0xbd7336f1	-0.059378568
144	0x3dac5f23	0.084165834
145	0xbdef0b35	-0.116720594
146	0x3c38def0	0.011283621
147	0xbddafa95	-0.10692326
148	0xbd3f3d1e	-0.046689145
149	0x3e2bb625	0.16768701
150	0xbd9e1f39	-0.07720799
151	0xbde9d4d2	-0.114175454
152	0x3cc7f0fb	0.0244069
153	0xbe7c6684	-0.24648482
154	0x3dce3abb	0.10069796
155	0x3c975a86	0.018475782
156	0x3e359b91	0.17735125
157	0x3e5f667f	0.21816443
158	0xbd674b8a	-0.056468524
159	0x3d15ff64	0.036620513
160	0x3dea5ae6	0.11443119
161	0x3dc31ed4	0.095273644
162	0x3e2044f7	0.15651308
163	0x3d519142	0.05116392
164	0xbd114baa	-0.03547255
165	0x3e11d16a	0.14240041
166	0xbcc771a5	-0.024346182
167	0x3df80aa0	0.121114016
168	0xbc8bdde0	-0.017073572
169	0xbde41278	-0.11136335
170	0x3e38ac03	0.18034367
171	0x3e02d62e	0.12777016
172	0x3e1ab5b7	0.15108381
173	0x3d9fe32c	0.078070015
174	0xbe239d84	-0.15978056
175	0x3d2cbf8d	0.042174865
176	0x3d71fcdc	0.059079036
177	0xbe590d95	-0.21196587
178	0xbe0ad2bf	-0.13556956
179	0xbe9addbd	-0.30247298
180	0x3cc84909	0.024448888
181	0xbe0338a0	-0.1281457
182	0xbe92e638	-0.28691268
183	0xbe2c2c06	-0.16813669
184	0xbe552b9f	-0.20817421
185	0xbe4d0f3c	-0.20025343
186	0xbe771e67	-0.24132691
187	0xbe58f252	-0.21186188
188	0xbe0c812d	-0.13721152
189	0xbdb547d1	-0.088515885
190	0xbe86224f	-0.2619805
191	0xbdfaf495	-0.122536816
192	0xbe6e353e	-0.23262498
193	0xbe36be38	-0.17846
194	0xbe2333d6	-0.15937743
195	0xbe0af460	-0.13569784
196	0xbe17e1d0	-0.14832234
197	0xbe9b0d4a	-0.30283576
198	0xbe9016e5	-0.28142467
199	0xbeb93eae	-0.36180633
200	0x3d0f8e63	0.0350479
201	0x3d9f1cde	0.07769178
202	0x3da327ad	0.07966552
203	0xbd034538	-0.032048434
204	0xbd9b3ea5	-0.07580308
205	0xbdcd0da6	-0.10012369
206	0xbdbdd9db	-0.09270068
207	0xbd3bc66a	-0.04584352
208	0xbd89be3b	-0.06725737
209	0xbd27895b	-0.040902477
210	0xbcf8cf27	-0.030372215
211	0xbc61ad87	-0.013774282
212	0xbb1a9351	-0.0023586343
213	0xbc4f5630	-0.012654826
214	0x3db349ca	0.087543085
215	0x3d211a32	0.039331622
216	0x3e01d041	0.12677099
217	0xbd2723df	-0.040805694
218	0x3dbccdd1	0.09218944
219	0x3df083f8	0.11743921
220	0x3db2fa38	0.08739132
221	0x3dbf0cdf	0.09328627
222	0xbbfd1bee	-0.0077242767
223	0x3d5494c5	0.05189969
224	0x3e06aed9	0.13152637
225	0x3d100370	0.03515953
226	0x3d55ea1c	0.052225217
227	0x3a5ee442	0.0008502641
228	0xbd50901e	-0.05091869
229	0x3c4693c3	0.01212019
230	0xbc8df2f7	-0.017327769
231	0xbd86fba1	-0.06590963
232	0x3b9ae314	0.004726777
233	0x3d3632f6	0.044482194
234	0xbd60bcc2	-0.054867513
235	0xbc0a5c27	-0.008444822
236	0xbdb84105	-0.089967765
237	0x3d049187	0.03236535
238	0xbd8fceec	-0.07021889
239	0xbd5c61a0	-0.05380404
240	0xbe83888a	-0.2569011
241	0xbe6abb2c	-0.22922963
242	0xbdfec744	-0.12440351
243	0xbdca4026	-0.098755166
244	0xbdb7a194	-0.089663655
245	0xbcfcc410	-0.030855209
246	0xbe0cb5bc	-0.13741201
247	0xbd21cec8	-0.039503843
248	0x3d9be1ed	0.07611451
249	0xbc4a5041	-0.012348236
250	0xbc540070	-0.012939557
251	0xbc72f1db	-0.014828171
252	0x3df20015	0.11816422
253	0x3e5ad556	0.21370444
254	0x3d83fb60	0.0644443
255	0x3df9a22d	0.12189136

conv4.bias f4 [32]
0	0xbd888fb7	-0.066680364
1	0xbdb64e6b	-0.08901676
2	0xbd94f1f2	-0.0727271
3	0x3d06b2d6	0.032885395
4	0xbd9d024c	-0.07666454
5	0x3cc629b6	0.024189811
6	0x3d1d2f7c	0.038375363
7	0xbd822886	-0.063553855
8	0x3d43b1cc	0.047776982
9	0xbd6d80d1	-0.057984177
10	0xbd96be55	-0.07360522
11	0xbe106b64	-0.14103466
12	0xbdb3ee66	-0.08785705
13	0xbd6c6d97	-0.0577217
14	0x3d7ab05a	0.06120334
15	0xbc5f13c3	-0.013615551
16	0xbd5a2bd6	-0.05326446
17	0xbdc17687	-0.094464354
18	0x3cf3b265	0.029748151
19	0xbd08c3fc	-0.03339003
20	0xbc941d66	-0.018080425
21	0xbd060fe7	-0.03273001
22	0x3cf382b5	0.029725412
23	0xbd8165ff	-0.06318282
24	0xbd002f95	-0.031295378
25	0x3d0598a6	0.03261628
26	0xbd5b2c00	-0.05350876
27	0x3cbf0e89	0.02332236
28	0xbce444cd	-0.027864838
29	0x3ce77cac	0.02825769
30	0x3d37a905	0.044838924
31	0xbd689d2d	-0.05679052

conv5.weight f4 [32, 32, 5, 5]
0	0x3d00a312	0.031405516
1	0x3dec4e79	0.11538405
2	0x3da6db29	0.0814727
3	0xbb0d46d9	-0.002155712
4	0x3b215ba3	0.002462127
5	0xbd8175cd	-0.06321297
6	0xbd144c2f	-0.036205467
7	0xbd85a57a	-0.06525703
8	0xbda6ce11	-0.08144773
9	0xbd5a75cc	-0.053334996
10	0xbce7a246	-0.02827562
11	0xbd52db60	-0.051478744
12	0xbd08f106	-0.033432983
13	0xbd6ebd91	-0.058286253
14	0xbc87ea82	-0.016591314
15	0x3d8534fe	0.06504248
16	0x3d421290	0.047380984
17	0xbd00c2f2	-0.031435914
18	0xbd84f51f	-0.06492066
19	0xbd0d5404	-0.03450395
20	0xbd8e6bd2	-0.06954159
21	0x3c1227df	0.008920639
22	0x3d52e41c	0.051487073
23	0xbcf0d2e0	-0.029397428
24	0xbdc31f30	-0.09527433
25	0xbd974faf	-0.07388245
26	0xbd4d14b6	-0.05006858
27	0xbd261032	-0.04054279
28	0xbd0dfc82	-0.03466464
29	0xbd209c92	-0.039211817
30	0x3dda5d1f	0.10662293
31	0x3d7cda89	0.06173185
32	0x3e0cdf79	0.13757123
33	0x3dec81af	0.11548173
34	0x3e1ce2fa	0.1532096
35	0x3d80ad9c	0.06283113
36	0xbc3d7972	-0.011564599
37	0x3be64df1	0.0070283343
38	0x3adcecbc	0.001685522
39	0xbd2a417f	-0.04156637
40	0x3d74ec34	0.059795573
41	0x3cbad58a	0.022806901
42	0x3d6b87bd	0.057502497
43	0x3d9294d3	0.07157292
44	0x3d9fa50f	0.07795154
45	0xbc057fc6	-0.008148139
46	0xbd5d51d0	-0.0540331
47	0xbe048a1a	-0.12943307
48	0xbe48082d	-0.19534369
49	0xbe503457	-0.20332466
50	0x3d8adcb2	0.067803755
51	0x3d196a64	0.037454978
52	0x3cd4f062	0.02599353
53	0xbb6c8cfa	-0.003609477
54	0x3d723e60	0.059141517
55	0x3e405827	0.18783627
56	0x3deff673	0.11716928
57	0x3da6f3f8	0.08152002
58	0x3da432d8	0.0801751
59	0x3dd07733	0.101789854
60	0x3dfde4bf	0.123971455
61	0x3dfb71a1	0.12277532
62	0x3de16065	0.11004714
63	0x3dbdbf9e	0.09265064
64	0x3d5c9cf6	0.053860627
65	0x3d18d528	0.037312657
66	0x3dc897d4	0.09794584
67	0x3dd15881	0.10221959
68	0x3dd2e9f8	0.10298532
69	0x3d6f2c71	0.058391992
70	0xbd354e0f	-0.044263896
71	0x3b9cb6ff	0.004782557
72	0x3d495a4e	0.049158387
73	0xbc51ae6c	-0.012797933
74	0x3d458af5	0.048228223
75	0xbe1ebcef	-0.1550176
76	0x3bfbd947	0.0076858136
77	0x3c82f9e4	0.015988298
78	0x3d87a485	0.066231765
79	0x3cba6474	0.022752978
80	0xbdb4931e	-0.08817123
81	0xbd65534d	-0.055987645
82	0xbd399732	-0.045310207
83	0xbd00ab1e	-0.03141319
84	0x3ceda684	0.029010065
85	0xbca3eefb	-0.020011416
86	0xbd18838b	-0.037234824
87	0xbd44bbad	-0.048030544
88	0xbcec9f2a	-0.02888449
89	0x3c9b68ec	0.01897093
90	0xbdccea29	-0.100056
91	0xbe0d9091	-0.13824679
92	0xbd2e6fa8	-0.042586952
93	0xbdb8e225	-0.09027509
94	0xbd44f50b	-0.048085254
95	0x38dbec12	0.00010486705
96	0xbb7a4876	-0.0038190163
97	0x3c569a66	0.013098335
98	0x3cf58b90	0.029973775
99	0x3cea66d9	0.028613495
100	0x3e2a2812	0.16616848
101	0x3da02112	0.07818808
102	0x3cdf69f3	0.0272722
103	0x3d1fe191	0.039033476
104	0x3d4d2832	0.05008716
105	0x3dffd7f3	0.12492361
106	0x3dc672e3	0.09689882
107	0x3d6dd763	0.058066737
108	0x3d75bd08	0.059994727
109	0x3df01e82	0.11724569
110	0x3de106fa	0.10987659
111	0x3d8bc2a5	0.06824235
112	0x3d30621a	0.043062307
113	0x3d356b91	0.044292036
114	0x3c4a0228	0.012329616
115	0x3d7721d7	0.060335007
116	0x3d45d1be	0.04829573
117	0x3cb40278	0.021973833
118	0xbc5a8e3e	-0.013339577
119	0x3a2d7cfe	0.00066180516
120	0xbdb0ba9d	-0.08629344
121	0xbc0f8b95	-0.008761306
122	0x3dbf1cf6	0.09331696
123	0x3dd37950	0.10325873
124	0x3e142cd1	0.14470221
125	0xbccab423	-0.024744099
126	0xbd706285	-0.058687706
127	0xbd5a884c	-0.05335264
128	0xbd063cef	-0.032772955
129	0x3ca470eb	0.020073375
130	0xbe139094	-0.14410621
131	0xbdde25a6	-0.108470246
132	0xbbe209a2	-0.006898121
133	0x3d20b3c2	0.03923393
134	0x3d78b846	0.06072261
135	0xbda04657	-0.07825916
136	0xbddfc057	-0.10925358
137	0xbdcaa4e9	-0.09894735
138	0x3d52b643	0.05144335
139	0x3cff9681	0.031199696
140	0xbd181a00	-0.03713417
141	0xbcac4091	-0.021026881
142	0x3c9c026a	0.01904412
143	0x3b8f514b	0.0043737045
144	0x3922854e	0.00015499184
145	0xbd03252a	-0.032017864
146	0x3d29b958	0.041436523
147	0xba572650	-0.0008207308
148	0x3d4bdba0	0.049769998
149	0xbd030f49	-0.031997
150	0x3c2f0605	0.0106825875
151	0x3d5e4f51	0.05427486
152	0x3dc233d8	0.09482545
153	0x3d9da5d6	0.07697646
154	0x3c6cd02b	0.014453928
155	0xbcbc9fe5	-0.023025462
156	0xbd707524	-0.058705464
157	0x3d083ceb	0.03326122
158	0x3db6b713	0.089216374
159	0x3de10e25	0.10989026
160	0xbc8bb5ab	-0.0170544
161	0xbc918189	-0.017761962
162	0xbd19f459	-0.037586544
163	0x3d19e5dd	0.03757273
164	0x3c37ef30	0.01122646
165	0x3c955c37	0.018232448
166	0x3d1ba451	0.0379985
167	0x3d6a36d3	0.05718119
168	0xbce982b8	-0.028504714
169	0xbd022907	-0.031777408
170	0x3d0efdff	0.0349102
171	0x3d3dc0fe	0.04632663
172	0x3c98e665	0.018664548
173	0xbd5a21b1	-0.053254787
174	0xbdb148b1	-0.08656443
175	0x3dece1e3	0.11566522
176	0x3ddec8fb	0.10878178
177	0x3d67d9db	0.056604248
178	0x3cd3a8e7	0.025837375
179	0x3ce9b894	0.028530397
180	0x3e6c548c	0.23079127
181	0x3e14e7c2	0.14541534
182	0x3dac5647	0.084148936
183	0x3de1e41c	0.110298365
184	0x3d4955da	0.04915414
185	0x3ded7ad1	0.11595691
186	0x3defe16a	0.11712916
187	0x3e0b032d	0.1357543
188	0x3e2db6c9	0.16964258
189	0x3e125d6c	0.1429345
190	0x3dfe8b11	0.124288686
191	0x3e14fd54	0.14549762
192	0x3e147d48	0.14500916
193	0x3e27b71c	0.16378444
194	0x3e0834b4	0.13301355
195	0xbc858031	-0.016296478
196	0x3bbbb9dd	0.0057289437
197	0x3e22d354	0.15900928
198	0x3db98e7d	0.090603806
199	0x3dc140ce	0.09436189
200	0x3dbaf1b9	0.09128136
201	0x3dd493c9	0.1037975
202	0x3de6b6f6	0.11265366
203	0x3e383b18	0.17991292
204	0x3e2ca973	0.16861515
205	0xbcb6f7d9	-0.02233498
206	0x3d38aea1	0.045088414
207	0x3d23b014	0.039962843
208	0x3d24ffa5	0.040282864
209	0x3d964b2e	0.07338558
210	0x3cb28bc4	0.021795161
211	0x3af47143	0.0018649477
212	0xbd38ef29	-0.045149956
213	0x3d059e66	0.032621764
214	0x3ce4661f	0.027880726
215	0xbd2146a6	-0.039374016
216	0xbd324d7f	-0.043530937
217	0xbda83898	-0.082139194
218	0xbd66a61f	-0.05631077
219	0x3cf41a7a	0.029797781
220	0xbe496945	-0.19669063
221	0xbe7bb6aa	-0.245814
222	0xbe42fd7e	-0.19042012
223	0xbe699d0a	-0.22813812
224	0xbe6f17ab	-0.23348872
225	0x3e063185	0.13104828
226	0x3d322cbb	0.04349969
227	0xbce665e0	-0.02812475
228	0x3d80b49c	0.062844485
229	0x3c0de14c	0.008659672
230	0x3e098801	0.13430788
231	0x3e141383	0.14460568
232	0x3d90cf5f	0.07070803
233	0x3e0f212d	0.139775
234	0x3dc564de	0.096383795
235	0x3dc9ae43	0.09847691
236	0x3da31220	0.079624414
237	0x3d87cc0c	0.06630716
238	0x3d599f20	0.05313027
239	0x3dbd137c	0.09232232
240	0x3d7e9e8b	0.062162917
241	0x3d413e48	0.047178537
242	0x3d1b3ede	0.03790175
243	0x3dd1c8f6	0.102434084
244	0x3e08b3d5	0.1334985
245	0x3cd81fc8	0.026382342
246	0x3d5b24e0	0.053501964
247	0x3de3989f	0.111130945
248	0x3c9cfcb3	0.019163465
249	0x3dc60d81	0.096705444
250	0xbd80420c	-0.062625974
251	0xbd2570dd	-0.040390838
252	0xbc59147a	-0.013249511
253	0xbc1730e9	-0.00922797
254	0x3cc2cb54	0.023778595
255	0x3d454911	0.048165385

conv5.bias f4 [32]
0	0xbdb4f2a5	-0.08835343
1	0x3d8cc94f	0.06874334
2	0x3d81e13f	0.063417904
3	0xbda70762	-0.08155705
4	0x3dccd9db	0.1000249
5	0x3d04abf9	0.03239057
6	0xba8eeb25	-0.0010903819
7	0x3ce5bc08	0.028043762
8	0x3cdfbb9a	0.027311135
9	0x3d4e0d4d	0.050305653
10	0x3d21336f	0.03935569
11	0xbd1f601b	-0.038910013
12	0xbdd7a533	-0.10529556
13	0xbc33bfd0	-0.010971025
14	0xbdadeeec	-0.08492836
15	0x3cad6de8	0.021170571
16	0x3d0285e4	0.03186597
17	0xbe23da35	-0.16001208
18	0xbd9d0073	-0.07666101
19	0xbdc17b6d	-0.0944737
20	0xbc93ccef	-0.018042056
21	0x3d59e7de	0.05319964
22	0xbe06c293	-0.13160162
23	0xbe42a1b2	-0.19006994
24	0xbc361021	-0.011112244
25	0x3d843f2f	0.06457364
26	0xbdb7760e	-0.08958064
27	0xbcd69c81	-0.026197674
28	0xbe087514	-0.13325912
29	0x3d136df1	0.03599352
30	0x3d107cd1	0.035275284
31	0x3d3a552b	0.04549138

conv6.weight f4 [32, 32, 5, 5]
0	0x3cd0cf82	0.025489572
1	0xbdb387c8	-0.087661326
2	0xbe0a7266	-0.13520202
3	0xbdac00d5	-0.08398596
4	0xbdd1fb74	-0.10253039
5	0x3e0d53a8	0.13801444
6	0x3d495b4d	0.049159337
7	0xbb7e6f4c	-0.0038823662
8	0xbd4701e1	-0.048585776
9	0xbdc5703b	-0.09640547
10	0xbc67b137	-0.014141372
11	0xbdcb2523	-0.09919193
12	0xbd91675a	-0.07099791
13	0xbdcc797b	-0.09984108
14	0xbdd138e6	-0.10215931
15	0xbdb7cc6b	-0.089745365
16	0xbd4fda67	-0.050745394
17	0xbd3c90f6	-0.046036683
18	0xbdb4ca33	-0.08827629
19	0xbdb20215	-0.08691803
20	0xbe2fcec4	-0.17168719
21	0xbe053390	-0.13007951
22	0xbd7765a5	-0.06039967
23	0xbd813e7a	-0.063107446
24	0xbd4edf66	-0.050506018
25	0x3ad19b27	0.0015991674
26	0x3ba12fe3	0.0049190386
27	0x3cef56b2	0.029216144
28	0x3c4e60db	0.012596334
29	0x3d4c1244	0.049822107
30	0xbdc794cf	-0.0974518
31	0xbd922713	-0.07136359
32	0xbd8ad6db	-0.06779262
33	0xbd13ae61	-0.036054973
34	0xbd54f354	-0.05198987
35	0xbd99bf73	-0.07507219
36	0xbcbf807a	-0.023376692
37	0xbb403daa	-0.002933363
38	0x3b87c866	0.0041437624
39	0xbc6733dc	-0.014111485
40	0xbb8928f3	-0.0041857897
41	0xbb2d9567	-0.0026486756
42	0xbc829237	-0.015938861
43	0x3c195294	0.009358067
44	0x3c9dfb58	0.01928489
45	0x3b1d3548	0.0023988057
46	0x3c9fa473	0.019487595
47	0x3aa7e48e	0.0012809203
48	0x3d2832c5	0.041064043
49	0x3d1657ae	0.03670471
50	0xbc85b190	-0.01632002
51	0x3cfe0611	0.031008752
52	0xbd034938	-0.03205225
53	0x3c933113	0.017967736
54	0x3cfa95c0	0.030588984
55	0xbda86d29	-0.08223946
56	0xbdcb5fe1	-0.09930397
57	0xbcd066a3	-0.025439566
58	0xbd787336	-0.06065675
59	0xbd37f135	-0.044907767
60	0xbd59e93f	-0.053200956
61	0xbcbbe15c	-0.022934608
62	0xbd43e356	-0.047824226
63	0xbcf8157e	-0.030283686
64	0x3bb3e9a8	0.0054905005
65	0xbb96ca32	-0.0046017403
66	0x3bf78bd1	0.007554509
67	0x3c718784	0.014741782
68	0x3cb99d71	0.022658082
69	0x3d1a375e	0.03765046
70	0xbcbe6a7f	-0.02324414
71	0xbcafe1f7	-0.021470053
72	0xbc464ab8	-0.012102775
73	0xbcde624b	-0.02714648
74	0xbd010c4b	-0.031505864
75	0xbdd31bd8	-0.10308045
76	0xbd667db4	-0.056272224
77	0xbd745b9d	-0.05965768
78	0xbcd40b7a	-0.025884379
79	0xbc6d81e4	-0.0144963
80	0xbdca7c49	-0.09886987
81	0xbdd96863	-0.10615613
82	0xbdff0c03	-0.12453463
83	0xbe0a5973	-0.13510685
84	0xbe2b68b7	-0.16739164
85	0xbe08e951	-0.13370253
86	0xbda81e66	-0.08208923
87	0xbdd2b286	-0.10287957
88	0xbe1cfd94	-0.15331107
89	0xbe36f975	-0.17868598
90	0xbe0e4273	-0.13892536
91	0xbda9757f	-0.08274364
92	0xbd8c6a79	-0.068562455
93	0xbdea5a64	-0.11443022
94	0xbe1ad3b5	-0.15119822
95	0xbda888a1	-0.08229185
96	0xbd564c7b	-0.05231903
97	0xbd3f124d	-0.046648312
98	0xbd1d048d	-0.038334418
99	0xbd6d2783	-0.05789901
100	0xbc1f4803	-0.009721759
101	0xbca3d8ab	-0.020000776
102	0xbadb0384	-0.0016709422
103	0x3d08e1d1	0.03341848
104	0x3c859882	0.016308073
105	0xbc444d32	-0.011981295
106	0xbcaeb3e7	-0.021326018
107	0xbb8a950c	-0.0042291936
108	0x3d3667f3	0.044532727
109	0x3d5e7cb8	0.05431816
110	0x3c7e7292	0.015530245
111	0xbc998fbd	-0.018745298
112	0x3cc5ba8b	0.024136802
113	0x3cdf2f8f	0.027244357
114	0x3c8ccdcd	0.017187977
115	0x3c8616e5	0.016368339
116	0xbc201a35	-0.009771873
117	0xbcab56d5	-0.020915428
118	0x3c694af2	0.01423906
119	0x3c8a8ee3	0.016913837
120	0xba0a6ba6	-0.0005280323
121	0x3cb50e21	0.022101464
122	0x3c40aff3	0.0117607
123	0xba72fdfc	-0.0009269414
124	0xbc4eef09	-0.012630233
125	0xbced7252	-0.028985176
126	0xbd5677c9	-0.05236033
127	0xbd93e25c	-0.07220909
128	0xbd85cf7d	-0.06533716
129	0xbd7a414b	-0.061097424
130	0x3c2a0c4d	0.010378909
131	0xbd3e10f0	-0.04640287
132	0xbc668915	-0.014070769
133	0xbcecfe64	-0.028929897
134	0xbd68fcec	-0.05688183
135	0x3d233565	0.039845843
136	0x3d2e504c	0.042557046
137	0x3cf9c744	0.030490525
138	0x3b8aceb2	0.004236066
139	0x3b71f363	0.0036918751
140	0x399d1b2b	0.00029965615
141	0xbcbed9b7	-0.023297174
142	0x3c4fef43	0.012691322
143	0x3cecd377	0.028909428
144	0xbc75639f	-0.014977365
145	0x3cbf913a	0.02338468
146	0xbbe3fb79	-0.006957468
147	0x3d09fc26	0.033687733
148	0x3d4e8e64	0.050428763
149	0x3c29ab05	0.010355716
150	0xbd2886b8	-0.041144103
151	0xbd3767eb	-0.04477684
152	0xbc256216	-0.010094186
153	0xbd9857fb	-0.07438656
154	0xbd7e745b	-0.062122684
155	0x3a7e6e62	0.00097057794
156	0xbd4bd0d6	-0.04975971
157	0xbd3ac9e1	-0.045602683
158	0xbcd466df	-0.025927959
159	0xbc800829	-0.015628891
160	0xbd10e113	-0.035370898
161	0xbcaaa079	-0.020828472
162	0xbb40da62	-0.0029427041
163	0xbbdccd03	-0.0067383065
164	0x3c6dadb6	0.014506748
165	0x3c6e62cf	0.014549925
166	0x3caa2ff1	0.020774813
167	0xbbbb21b9	-0.005710807
168	0x3a1462fb	0.0005660501
169	0x3987f9f1	0.00025935427
170	0x3d0dd5fa	0.034627892
171	0xbc8ed173	-0.017433858
172	0x3d03be44	0.032163873
173	0x3d532c08	0.051555663
174	0x3d02ec72	0.031963773
175	0x3b7d49f6	0.003864882
176	0xbcc71655	-0.02430264
177	0xbd3d04eb	-0.04614727
178	0xbba9e6d4	-0.0051849876
179	0xbd673228	-0.056444317
180	0xbd19c0e4	-0.03753747
181	0xbce19cfd	-0.027540678
182	0x3c004a73	0.00783025
183	0xbbde4e37	-0.0067842263
184	0x3c3a811b	0.01138332
185	0xbac67f8c	-0.0015144213
186	0xbccbdbe7	-0.024885131
187	0x3d198de5	0.037488837
188	0x3abca1b5	0.0014391454
189	0x3cb43b72	0.022001002
190	0xbcd0fadd	-0.025510246
191	0xbc81e319	-0.015855359
192	0x3cd5fecc	0.026122473
193	0x3cb53d70	0.022124022
194	0x3ced9905	0.02900363
195	0x3c979bb2	0.018506858
196	0xbd077d1a	-0.03307829
197	0x3cb62887	0.022236122
198	0x3bcb63e5	0.0062069767
199	0xbc04cdaa	-0.008105675
200	0xbcda4641	-0.026644828
201	0xbd42b79c	-0.047538385
202	0xbd8695e4	-0.06571558
203	0xbd4032a5	-0.0469233
204	0xbd617519	-0.055043314
205	0xbc553dde	-0.013015239
206	0x3c04c049	0.008102485
207	0x3b53bfef	0.0032310446
208	0xbd1822d5	-0.037142593
209	0xbd07d220	-0.033159375
210	0xba4d6ff4	-0.0007836812
211	0x3caf2163	0.021378225
212	0x3d029bfa	0.031887032
213	0x3c324f2e	0.010883136
214	0x3d85f437	0.06540721
215	0x3d0966a6	0.03354516
216	0x3ab1a5b8	0.0013553416
217	0x3b3919bb	0.0028244096
218	0x3b80cb12	0.003930458
219	0x3d1de7ef	0.038551267
220	0xbcc6988d	-0.024242664
221	0x3a891eab	0.001046141
222	0xbca84875	-0.020542363
223	0xbd112588	-0.035436183
224	0xbcb3a477	-0.021929009
225	0x3b2e3274	0.0026580365
226	0xbc14b506	-0.0090763625
227	0xbcb12885	-0.021625767
228	0x3b051c08	0.0020310897
229	0xbd40b7c4	-0.047050253
230	0x3ceadc73	0.028669572
231	0x3b7db85a	0.0038714618
232	0xbc992e9c	-0.018698983
233	0xbcb0866d	-0.021548474
234	0x3c814eba	0.01578461
235	0x3c902962	0.017597858
236	0xbc897769	-0.016780572
237	0x3af4db08	0.0018680999
238	0x3c8f8d5a	0.017523456
239	0x3ca79660	0.020457447
240	0xbc055431	-0.008137749
241	0x3c804723	0.01565892
242	0xbc929e12	-0.01789764
243	0x3c73a174	0.014870036
244	0x3cf6c73d	0.030124301
245	0xbcbb8a12	-0.022892985
246	0x3c79a998	0.015238188
247	0x3a8bb222	0.0010657946
248	0x3cc89041	0.024482848
249	0x3c92a3f5	0.017900446
250	0xbc9d2ec7	-0.019187344
251	0x3c6841dc	0.014175858
252	0x3c9938d5	0.018703857
253	0xbbf3a8b0	-0.0074358806
254	0x3d4c8934	0.049935535
255	0x3cc34343	0.023835784

conv6.bias f4 [32]
0	0x3dcfb9d4	0.10142866
1	0x3e18519a	0.14874879
2	0x3c6c8319	0.014435553
3	0xbd4abe17	-0.04949769
4	0x3dd4aa67	0.10384064
5	0xbd63b135	-0.05558892
6	0xbafe6032	-0.001940733
7	0xbd0639d8	-0.032770008
8	0x3e185f83	0.14880185
9	0xbdab5749	-0.08366258
10	0x3dc0ee65	0.0942047
11	0x3e9371e2	0.28797823
12	0xbed89f73	-0.4230915
13	0xbda996a5	-0.08280686
14	0x3dea005c	0.1142585
15	0x3e4de76b	0.2010781
16	0x3df4cc9d	0.119530894
17	0x3e28f84a	0.16500965
18	0x3e1ba76a	0.15200582
19	0xbe4a5c5b	-0.19761793
20	0x3da95969	0.08269007
21	0x3deb9b5d	0.115042426
22	0x3d094658	0.03351435
23	0x3dcdf0ba	0.100556806
24	0x3d40ef85	0.047103424
25	0xbd438c06	-0.04774096
26	0x3df3b856	0.11900394
27	0xbdf92ce1	-0.12166763
28	0x3dab5a1b	0.08366796
29	0xbdaeadbb	-0.0852923
30	0x3d1e4886	0.038643382
31	0x3defe9fc	0.11714551
