models/DQN_wb_10000_700_1e-3_10.pth (torch, 915386 bytes, 22 tensors)

conv1.weight f4 [32, 1, 5, 5]
0.4033902 -0.010406643 0.23204058 0.18248302 -0.1625512 0.15424769 0.026650475 -0.20714724
-0.0056148935 0.04411172 -0.08646066 -0.059683755 -0.30917773 -0.0072929612 0.13002548 0.10527128
-0.18356629 -0.35044095 0.07653295 0.15070812 -0.21957289 -0.026715469 0.12275488 -0.16578236
0.020582106 0.025024982 0.022638448 -0.2684384 -0.02204982 -0.096172854 -0.15792944 0.027356455
-0.06673603 -0.0078796195 0.1395399 0.1358313 0.025565429 -0.08132914 -0.32872924 0.1657527
0.16206826 0.12802261 -0.19302443 -0.2352362 -0.0850733 -0.15036742 -0.05064748 -0.048621517
0.084057584 -0.11775679 0.060499184 -0.20764501 -0.06911764 -0.0042370446 -0.22312278 0.0872945
0.067080475 0.054346196 -0.27634066 -0.0025103055 -0.15025726 -0.017678864 -0.13263065 0.07048274
-0.009752495 0.115370534 -0.059584167 -0.19843154 -0.14199406 -0.09489666 -0.16064492 0.101089746
-0.15389365 -0.2753709 -0.030082172 0.10854956 0.009243571 -0.022681406 -0.016578512 0.13142376
0.093460865 -0.070357904 0.23279813 -0.1372171 -0.089178346 -0.12738767 0.034583323 -0.23253834
-0.11442459 0.2569293 -0.07190416 0.12550338 0.09668521 -0.13079667 -0.15638445 0.029594176
-0.1467222 0.07362107 0.052984867 -0.22640687 0.15606825 0.16084453 -0.16911475 0.060257543
0.22612615 0.20465428 -0.009013838 -0.04109665 -0.13196136 0.08654003 -0.020612262 0.09263012
0.09688053 -0.09891383 -0.23508099 -0.12262052 -0.15155594 -0.108392775 0.18224126 -0.14216699
0.16016454 -0.24456277 0.13299648 -0.02236245 -0.33711144 0.30863857 0.120088644 0.07303396
0.06312952 0.18291111 -0.12624677 -0.05257267 0.10628889 -0.061091308 0.23902199 -0.05754519
-0.066537745 -0.104066715 0.09070274 -0.2407822 0.09807101 -0.012969712 -0.1691091 0.034815747
0.10727421 0.015600129 0.06436654 0.07172905 -0.099748865 -0.102897055 -0.11057513 -0.19011126
0.038059834 -0.067569934 0.08278735 -0.23842603 0.105283625 -0.05398755 -0.0057627833 -0.17859375
0.09085188 0.078186095 -0.10437655 -0.095319636 -0.30258414 -0.14896296 0.18912202 0.19388008
-0.10816276 -0.014500467 0.13036306 -0.26574558 -0.049808845 0.11045253 -0.00602486 -0.17758054
-0.26470256 0.0005052696 0.24222231 -0.17872027 -0.14215611 0.12184435 0.06207535 -0.17279054
-0.1625442 0.020596804 0.076296106 -0.09723061 -0.13065697 0.11323363 -0.17934483 -0.16197686
0.08058406 0.15904953 0.010010126 0.05888142 0.053751465 -0.2331078 0.025802685 -0.1285156
-0.06066173 0.14340016 -0.0087709185 0.21777557 -0.24229695 -0.05577414 0.039822396 0.22163965
-0.25761986 -0.2755785 0.21888247 -0.062008582 -0.046858013 -0.021682994 -0.18659846 0.013720559
0.04264416 -0.0030746595 -0.26459602 0.0014667187 -0.029752666 0.11436419 -0.05379741 0.03808664
-0.15366182 -0.28201488 -0.09937616 0.063427255 -0.08123919 0.11725453 -0.2502552 0.24825756
-0.2516235 0.2194397 0.09883733 -0.107967705 -0.1892631 -0.040393695 -0.038624037 -0.078120336
0.23154105 -0.19655046 0.021275282 -0.16822827 0.16566904 -0.1421546 -0.0033647139 -0.032002494
-0.11426474 -0.13836457 -0.0351847 -0.023167608 -0.089968264 0.06975766 -0.14454381 0.03662167
00000000: 2989 ce3e a080 2abc 0c9c 6d3e d4dc 3a3e
00000010: d273 26be 1bf3 1d3e 1952 da3c 681e 54be
00000020: 24fd b7bb 7eae 343d 4912 b1bd f476 74bd
00000030: 8b4c 9ebe cbf9 eebb 6625 053e 7898 d73d
00000040: cdf8 3bbe ff6c b3be 4fbd 9c3d 3b53 1a3e
00000050: b7d7 60be 66da dabc e966 fb3d dac2 29be
00000060: ce9b a83c 3101 cd3c 4474 b93c c270 89be
00000070: d3a1 b4bc 46f6 c4bd 41b8 21be a51a e03c
00000080: e6ac 88bd 8519 01bc 8ce3 0e3e 5c17 0b3e
00000090: 976e d13c e48f a6bd 334f a8be 13bb 293e
000000a0: 39f5 253e 5c18 033e 32a8 45be c2e1 70be
000000b0: e93a aebd ebf9 19be bb73 4fbd 5b27 47bd
000000c0: 6226 ac3d 792a f1bd fecd 773d e5a0 54be
000000d0: 8d8d 8dbd e8d6 8abb 4c7a 64be 75c7 b23d
000000e0: 7d61 893d 1e9a 5e3d 867c 8dbe f083 24bb
000000f0: 0add 19be 44d3 90bc 54d0 07be 4159 903d
00000100: eec8 1fbc 6347 ec3d 870e 74bd a331 4bbe
00000110: e466 11be 2e59 c2bd 1a80 24be 2408 cf3d
00000120: 4c96 1dbe 6afd 8cbe e36e f6bc 3b4f de3d
00000130: 5972 173c 5bce b9bc a9cf 87bc f393 063e
00000140: 6968 bf3d ce17 90bd a262 6e3e a482 0cbe
00000150: 23a3 b6bd ea71 02be 3ea7 0d3d 881e 6ebe
00000160: 7057 eabd 3d8c 833e 7d42 93bd f583 003e
00000170: e502 c63d 90ef 05be 3f23 20be 7c6f f23c
00000180: 583e 16be a5c6 963d a906 593d 34d7 67be
00000190: 5bd0 1f3e 6eb4 243e 6b2c 2dbe 9dd0 763d
000001a0: 9d8d 673e e490 513e c7ae 13bc f654 28bd
000001b0: e120 07be e63b b13d 0cdb a8bc dcb4 bd3d
000001c0: 4d69 c63d 5693 cabd 12b9 70be 7820 fbbd
000001d0: 7b31 1bbe 08fd ddbd 749d 3a3e 3994 11be
000001e0: 2c02 243e aa6e 7abe 3b30 083e 7531 b7bc
000001f0: df99 acbe e005 9e3e 09f1 f53d d492 953d
00000200: 0d4a 813d 0d4d 3b3e d546 01be 7156 57bd
00000210: fdad d93d e13a 7abd 2ec2 743e 81b4 6bbd
00000220: f144 88bd ee20 d5bd 5cc2 b93d 9c8f 76be
00000230: 74d9 c83d ea7e 54bc f02a 2dbe f59a 0e3d
00000240: 95b2 db3d af97 7f3c 9bd2 833d aee6 923d
00000250: 2249 ccbd b1bb d2bd 3775 e2bd 87ac 42be
00000260: a1e4 1b3d 1b62 8abd 6a8c a93d f425 74be
00000270: f19e d73d 0d22 5dbd bbd5 bcbb 48e1 36be
00000280: 8d10 ba3d 0820 a03d 5fc3 d5bd f136 c3bd
00000290: 4fec 9abe bf89 18be 34a9 413e 8088 463e
000002a0: 7084 ddbd 5e93 6dbc e57d 053e ce0f 88be
000002b0: 5c04 4cbd f034 e23d 306c c5bb acd7 35be
000002c0: 1887 87be 1274 043a 2009 783e 7202 37be
000002d0: 5f91 11be 8889 f93d b942 7e3d 01f0 30be
000002e0: fd71 26be a1ba a83c 2241 9c3d d820 c7bd
000002f0: f1ca 05be 09e7 e73d 2ca6 37be 43dd 25be
00000300: 4109 a53d e1dd 223e 8301 243c a52d 713d
00000310: 7f2a 5c3d d0b3 6ebe 2760 d33c 9899 03be
00000320: 6f78 78bd 7ed7 123e e6b3 0fbc 8f00 5f3e
00000330: b11c 78be 6d73 64bd cf1c 233d 81f5 623e
00000340: c0e6 83be a018 8dbe ba22 603e b6fc 7dbd
00000350: 30ee 3fbd 89a0 b1bc ab13 3fbe 32cc 603c
00000360: a5ab 2e3d 3a80 49bb 2179 87be ea3e c03a
00000370: ddbb f3bc c637 ea3d ac5a 5cbd bd00 1c3d
00000380: 8659 1dbe 4164 90be ba85 cbbd 26e6 813d
00000390: bc60 a6bd 2523 f03d 7321 80be 3b37 7e3e
000003a0: ccd4 80be cdb4 603e 3a6b ca3d 2c1e ddbd
000003b0: 30ce 41be dc73 25bd 3d34 1ebd 8efd 9fbd
000003c0: 1919 6d3e 8644 49be 8049 ae3c 0844 2cbe
000003d0: 25a5 293e fa90 11be 8882 5cbb 0c15 03bd
000003e0: a203 eabd 71af 0dbe d51d 10bd ffc9 bdbc
000003f0: 4841 b8bd 1bdd 8e3d 4b03 14be 9b00 163d

conv1.bias f4 [32]
0.076799534 -0.10281416 -0.0021187544 0.018799357 -0.109564394 -0.13738735 -0.014644777 -0.03059525
-0.11637089 0.026848735 -0.057199612 -0.17963052 -0.017325476 -0.18063213 0.104071006 -0.2820689
-0.026049985 0.08534695 0.036529884 0.03380375 -0.022077529 0.04052649 -0.07630112 -0.10524348
-0.19994377 -0.03784417 -0.16356859 -0.0027401997 -0.082641475 -0.05003778 -0.29587936 -0.062346224
00000000: 1349 9d3d 3b90 d2bd cdda 0abb 1c01 9a3c
00000010: 4c63 e0bd 45af 0cbe a6f0 6fbc e4a2 fabc
00000020: dc53 eebd e1f1 db3c 244a 6abd 10f1 37be
00000030: 28ee 8dbc a1f7 38be 2e23 d53d 566b 90be
00000040: c766 d5bc 62ca ae3d 5ca0 153d cd75 0a3d
00000050: efdb b4bc 1bff 253d c343 9cbd e589 d7bd
00000060: 0fbe 4cbe 7d02 1bbd 867e 27be ec94 33bb
00000070: ef3f a9bd 6af4 4cbd 807d 97be c15e 7fbd

conv2.weight f4 [32, 32, 5, 5]
-0.0412984 -0.020411627 -0.09820851 -0.15990297 0.05890251 0.061690226 0.042667687 -0.052461628
0.04754449 0.023749743 0.0823576 -0.039179273 -0.16367361 -0.007410045 0.05850877 -0.1870395
-0.11802457 -0.16603762 -0.0131970085 -0.19614929 -0.33107185 -0.0477999 -0.13338712 0.058074124
-0.2141885 -0.014929981 -0.061265774 -0.016317442 -0.0033210572 0.15972327 -0.078891024 -0.05264742
0.14302278 -0.17063749 0.029397024 0.038406778 -0.116471745 -0.012964436 0.027973495 0.06614486
-0.18804774 0.03329556 -0.076113895 -0.12397208 -0.090957105 0.15345496 0.10406867 0.09284748
0.011867494 0.07842451 -0.13320908 -0.13703658 -0.13516 -0.11390951 -0.07024172 -0.018431358
-0.050462656 -0.13449904 0.07299512 -0.04511092 0.022687638 0.044958517 -0.103163294 0.07598712
0.017534787 -0.17342441 -0.02274342 -0.026667621 -0.02693408 -0.014572099 -0.10571494 0.063162595
-0.07115974 0.023576213 0.08937577 0.0924306 -0.049405865 -0.046147265 0.03161772 0.08952385
-0.04670461 0.010550573 0.016500687 0.038897686 0.13607971 0.06704149 -0.24718824 -0.074999146
0.083611645 -0.02894627 0.062039915 0.066880524 0.0017311402 0.0024269244 -0.066162184 -0.025998276
0.056589633 0.09581547 0.07470475 0.017959649 0.03753536 0.025948994 -0.1263493 0.1509328
-0.063177355 -0.048418213 -0.020702349 0.0133751985 0.07073067 0.058853954 -0.29068708 -0.2208504
0.10577755 -0.04852386 -0.0076784026 -0.0570623 -0.025491212 -0.10420153 0.03619251 -0.14642121
-0.104165405 -0.16457577 0.00023957745 -0.07841451 -0.14994074 -0.1080675 -0.021118583 0.009612919
-0.13443737 0.11501191 0.0320239 0.11287363 0.08900702 0.057821736 0.016837172 -0.13548051
0.061198253 -0.13586962 0.045952413 0.036865212 -0.09803261 0.08789753 -0.13166331 0.053474344
-0.09452961 0.0156196095 0.06758272 -0.0016252254 -0.061024416 -0.041305102 0.12674522 -0.12239906
0.022927722 -0.03977607 0.15546206 -0.10769655 -0.07419185 -0.02857629 0.0070324615 -0.014499897
-0.07709489 0.021695908 -0.052901875 -0.03214102 -0.17585512 -0.028302418 -0.04356951 0.07582662
0.011930536 -0.08774454 -0.1300391 0.04025521 0.03478244 0.1103172 0.032642897 0.004541351
-0.09267318 -0.05545835 0.042666744 -0.056568436 0.02038494 0.0051914216 -0.0016227927 -0.054049633
0.08864542 -0.15122119 0.06376909 -0.05216208 0.06855851 -0.2105592 -0.0021918195 0.004772034
0.031419534 -0.01402858 0.020442571 -0.11806607 0.059802763 -0.1208689 0.051850136 -0.023314714
-0.13572885 0.009015775 -0.1443708 0.08605609 0.12681969 0.11579014 -0.05421025 0.12194684
-0.020406492 0.09666717 0.008790523 -0.12548383 0.02595969 -0.06297918 -0.008315154 0.0019199734
-0.08679238 0.06916453 -0.035124637 0.007938125 -0.0039596576 0.069939375 0.050817013 0.027669866
-0.0622726 0.0016415964 0.05432313 0.23693886 -0.26949105 -0.07116308 0.07874899 0.0015114131
0.17427368 -0.040891003 -0.0212158 -0.010909544 -0.009458334 -0.016806446 -0.14645875 -0.0041734446
-0.07369038 0.07096017 -0.15293644 -0.11024216 -0.028703958 0.08977581 0.10124802 -0.0053504533
-0.034949362 -0.10831124 -0.1936458 0.06227431 -0.17211528 0.023388704 0.0027444798 0.000517964
00000000: 8328 29bd 4936 a7bc 8b21 c9bd 9bbd 23be
00000010: c243 713d e4ae 7c3d 50c4 2e3d 01e2 56bd
00000020: 03be 423d d28e c23c 1aab a83d 727a 20bd
00000030: 0e9a 27be f6cf f2bb e4a6 6f3d 4887 3fbe
00000040: deb6 f1bd c405 2abe 4438 58bc 5cdb 48be
00000050: 4082 a9be d4c9 43bd a296 08be 22df 6d3d
00000060: 3b54 5bbe e19c 74bc d2f1 7abd 28ac 85bc
00000070: 18a6 59bb 7f8e 233e 9e91 a1bd d2a4 57bd
00000080: 9074 123e 98bb 2ebe 07d2 f03c 6d50 1d3d
00000090: bd88 eebd c968 54bc ac28 e53c f576 873d
000000a0: 968f 40be ed60 083d 9ae1 9bbd 13e5 fdbd
000000b0: b847 babd 4c23 1d3e f421 d53d d226 be3d
000000c0: e16f 423c 089d a03d f667 08be 5153 0cbe
000000d0: 6267 0abe 6449 e9bd e4da 8fbd 5cfd 96bc
000000e0: eeb1 4ebd 1eba 09be 777e 953d 3ac6 38bd
000000f0: 6ddb b93c 6c26 383d 4747 d3bd 239f 9b3d
00000100: 1da5 8f3c 2b96 31be 6950 babc 0e76 dabc
00000110: dca4 dcbc d0bf 6ebc 1381 d8bd 645b 813d
00000120: 33bc 91bd e722 c13c a50a b73d 414c bd3d
00000130: ce5d 4abd ea04 3dbd 9581 013d 4858 b73d
00000140: 554d 3fbd 4fdc 2c3c 732c 873c 2e53 1f3d
00000150: 7b58 0b3e 0c4d 893d ea1e 7dbe 2799 99bd
00000160: 953c ab3d ba20 edbc 911d 7e3d a8f8 883d
00000170: 6de7 e23a 090d 1f3b 0a80 87bd 56fa d4bc
00000180: 88ca 673d e73a c43d cefe 983d 1d20 933c
00000190: adbe 193d fc92 d43c b661 01be 218e 1a3e
000001a0: 2163 81bd 2d52 46bd f997 a9bc a623 5b3c
000001b0: 3edb 903d d810 713d f0d4 94be 9b26 62be
000001c0: e6a1 d83d f4c0 46bd 1c9b fbbb 29ba 69bd
000001d0: f2d2 d0bc 9d67 d5bd 993e 143d 71ef 15be
000001e0: ac54 d5bd 8d86 28be 1537 7b39 c997 a0bd
000001f0: 118a 19be 7e52 ddbd e100 adbc 817f 1d3c
00000200: f3a9 09be 5d8b eb3d 7e2b 033d 4a2a e73d
00000210: 5049 b63d 7cd6 6c3d 1cee 893c 67bb 0abe
00000220: 05ab 7a3d 6821 0bbe 9938 3c3d faff 163d
00000230: 52c5 c8bd 9f03 b43d bfd2 06be ea07 5b3d
00000240: bd98 c1bd 64e9 7f3c cf68 8a3d 8405 d5ba
00000250: bdf4 79bd 8a2f 29bd 80c9 013e 5cac fabd
00000260: ebd2 bb3c 3bec 22bd 7231 1f3e 0290 dcbd
00000270: e6f1 97bd d318 eabc 9070 e63b fa90 6dbc
00000280: ede3 9dbd 9ebb b13c a3af 58bd 4da6 03bd
00000290: 5d13 34be 79da e7bc f175 32bd fd4a 9b3d
000002a0: 4b78 433c 69b3 b3bd f828 05be a6e2 243d
000002b0: 0878 0e3d fced e13d 8fb4 053d 9dcf 943b
000002c0: 70cb bdbd 4b28 63bd 53c3 2e3d 4eb4 67bd
000002d0: 51fe a63c cd1c aa3b e3b3 d4ba 2663 5dbd
000002e0: bb8b b53d bad9 1abe 5e99 823d e8a7 55bd
000002f0: 6768 8c3d d59c 57be a1a4 0fbb b95e 9c3b
00000300: c5b1 003d 21d8 65bc 2e77 a73c a0cc f1bd
00000310: bef3 743d 1d8a f7bd cf60 543d 80fe bebc
00000320: 81fc 0abe e7b6 133c f0d5 13be 2d3e b03d
00000330: 05dd 013e 6223 ed3d 910b 5ebd 44bf f93d
00000340: 842b a7bc 70f9 c53d 2006 103c d57e 00be
00000350: 6aa9 d43c 3afb 80bd 493c 08bc 9ea7 fb3a
00000360: 34c0 b1bd 22a6 8d3d dade 0fbd e90e 023c
00000370: 04c0 81bb 603c 8f3d 8025 503d eaab e23c
00000380: 8e11 7fbd d62a d73a ee81 5e3d 1aa0 723e
00000390: bbfa 89be f3bd 91bd 2747 a13d 9c1a c63a
000003a0: cd74 323e 537d 27bd c2cc adbc f2bd 32bc
000003b0: 21f7 1abc acad 89bc 48f9 15be 64c1 88bb
000003c0: fbea 96bd 9153 913d 5f9b 1cbe a4c6 e1bd
000003d0: 9024 ebbc 61dc b73d 1f5b cf3d db52 afbb
000003e0: 1027 0fbd 49d2 ddbd 164b 46be 5913 7f3d
000003f0: fd3e 30be ab99 bf3c bbdc 333b fac7 073a

conv2.bias f4 [32]
-0.049276296 -0.047787555 -0.04412387 -0.095779665 0.049631156 -0.10045574 -0.029880418 -0.06600831
-0.03945179 -0.11293826 0.03854628 -0.048679963 0.009182489 -0.025956204 -0.06923904 -0.05899103
-0.040506627 -0.037733812 -0.019383771 -0.08298133 -0.0570354 -0.041908246 -0.028016912 -0.060354326
-0.06453703 -0.08184137 -0.047204856 -0.020210689 -0.06762546 -0.076380365 -0.08432878 -0.09213724
00000000: f1d5 49bd e2bc 43bd 3bbb 34bd 2128 c4bd
00000010: 0a4a 4b3d bdbb cdbd c7c7 f4bc 5d2f 87bd
00000020: 3398 21bd 2d4c e7bd b4e2 1d3d a464 47bd
00000030: 2672 163c 1ba2 d4bc 33cd 8dbd 94a0 71bd
00000040: 47ea 25bd c58e 1abd b7ca 9ebc 1ef2 a9bd
00000050: f49d 69bd fba7 2bbd b983 e5bc 1936 77bd
00000060: fe2b 84bd 739c a7bd e159 41bd e390 a5bc
00000070: 387f 8abd 4f6d 9cbd 91b4 acbd 73b2 bcbd

conv3.weight f4 [32, 32, 5, 5]
-0.07557395 0.039465178 -0.083514564 0.04914189 -0.009464008 0.19582145 0.079815954 -0.052300684
0.1806727 0.015182347 -0.10489586 0.0979239 0.009965638 0.03219752 0.30057654 0.18204726
0.08310451 0.02685895 -0.087402605 0.098487705 -0.08892986 0.09165347 0.03918197 -0.05517704
-0.040660195 -0.09173385 -0.15464765 -0.14832287 -0.055172823 -0.11201629 -0.08220738 0.02299255
-0.034874212 0.024171472 -0.12967683 -0.023313532 0.10812009 0.07447227 -0.03684331 0.0010190636
0.0093694 -0.04186689 -0.07003452 0.029154845 0.07210327 0.07608746 0.18540145 -0.12620877
0.062331643 -0.05430783 0.0723835 -0.032915372 -0.08550059 -0.10119701 -0.14256066 0.0070531066
-0.05337234 0.08396073 0.017278029 -0.04900257 -0.04215338 0.07098342 0.1630988 -0.031111501
0.018741578 -0.004866459 0.01338175 -0.048077602 -0.0442334 -0.04347957 -0.05301668 0.14811277
0.01265657 0.053431224 0.013969158 0.1531328 0.047970492 0.00060405786 -0.075544916 0.046347845
0.0070300647 0.017819189 0.013431001 0.11589957 -0.07540358 -0.19774789 -0.0473866 0.032148622
-0.025949067 -0.22727527 0.09754314 0.016977219 -0.010060328 -0.07472328 -0.118058056 -0.1617538
0.0014006734 0.025920385 -0.040874556 -0.13960391 -0.18292215 -0.14062998 0.18477774 -0.04479485
0.16158283 -0.01326236 -0.06120283 0.022849794 -0.056201898 -0.30050138 -0.07996314 0.06344585
-0.006889885 -0.087183386 -0.014271092 0.0011933629 0.037247058 0.00019325025 0.042334057 0.023333944
0.08655191 0.11984351 0.056431174 -0.014056171 0.05364345 -0.2809854 -0.040501244 -0.069995314
0.15221067 -0.26102662 0.06847724 -0.05285613 -0.050245065 -0.020578828 -0.042659685 -0.07493053
0.019481706 0.03413649 0.107770406 -0.19067025 -0.023538856 -0.05773473 0.023865983 -0.09254575
-0.0911752 0.05337202 0.13975129 -0.17600341 -0.13950655 -0.084032714 0.11551214 0.120293885
-0.0064215567 0.21493615 -0.159773 -0.1046875 0.014131699 -0.08270806 -0.028004922 -0.14223108
-0.10529733 -0.02405031 -0.07500651 -0.047504507 -0.043427832 -0.068694584 -0.070854105 -0.11112839
-0.12137307 0.023682596 0.034711532 -0.17247374 -0.14811525 -0.04327343 0.019997645 0.18244387
0.027395705 -0.0096334955 0.07313949 -0.014625053 -0.049082503 -0.18763162 -0.07828635 0.19068255
0.020222627 -0.01564583 -0.050814103 0.072683476 -0.04293364 0.15997078 0.0033834004 -0.20613831
-0.069818415 -0.10732825 -0.20437022 0.0922909 0.09715587 -0.1323443 -0.102759205 -0.08805992
-0.010629441 -0.1675961 -0.017610291 -0.11505061 -0.15209427 -0.22135577 -0.13545886 0.14778343
-0.024049187 0.029172834 -0.12737438 0.061343584 0.042391945 0.042406075 -0.032259986 -0.08577896
0.036032777 -0.02702165 0.1639815 -0.0140562 0.12312995 0.0273821 -0.04629166 -0.11992927
-0.1902671 0.05594311 0.06881085 0.10498159 -0.035176296 -0.06956548 0.043074258 -0.091972955
-0.10788935 0.07818247 0.004863616 -0.07123513 -0.11996963 0.13568716 0.07019824 -0.0053323573
0.12675533 -0.06833089 -0.09390674 -0.10070031 0.010992326 -0.17415592 -0.054638647 -0.13830085
0.13019301 -0.041555826 -0.045851137 -0.12529308 0.05013266 0.14945939 0.044654794 -0.03573257
00000000: 84c6 9abd 3da6 213d af09 abbd 0249 493d
00000010: ed0e 1bbc 6b85 483e 8c76 a33d 3e39 56bd
00000020: 4402 393e 61bf 783c a4d3 d6bd 538c c83d
00000030: ea46 233c 8ce1 033d 2be5 993e 996a 3a3e
00000040: b332 aa3d 4d07 dc3c 2300 b3bd ecb3 c93d
00000050: dc20 b6bd d1b4 bb3d 467d 203d 5201 62bd
00000060: 4e8b 26bd f5de bbbd f45b 1ebe f3e1 17be
00000070: e6fc 61bd cc68 e5bd 585c a8bd df5a bc3c
00000080: 43d8 0ebd 4003 c63c 01ca 04be 05fc bebc
00000090: 116e dd3d eb84 983d 03e9 16bd 1a92 853a
000000a0: 1d82 193c 9e7c 2bbd 426e 8fbd 24d6 ee3c
000000b0: e1aa 933d bed3 9b3d e1d9 3d3e df3c 01be
000000c0: 774f 7f3d e371 5ebd cd3d 943d 45d2 06bd
000000d0: ef1a afbd 6140 cfbd 6cfb 11be bf1d e73b
000000e0: f49c 5abd 9af3 ab3d a78a 8d3c ebb6 48bd
000000f0: 06a9 2cbd c15f 913d 5f03 273e 8cdd febc
00000100: f087 993c d176 9fbb 213f 5b3c 05ed 44bd
00000110: 152e 35bd a217 32bd 0528 59bd e0aa 173e
00000120: 815d 4f3c b3da 5a3d e5de 643c d8ce 1c3e
00000130: b57c 443d a359 1e3a 4bb7 9abd 3dd7 3d3d
00000140: 755c e63b 8cf9 913c b40d 5c3c c15c ed3d
00000150: 316d 9abd 6c7e 4abe 7418 42bd 46ae 033d
00000160: 2393 d4bc d9ba 68be b3c4 c73d cf13 8b3c
00000170: 13d4 24bc 8508 99bd 6cc8 f1bd caa2 25be
00000180: cd96 b73a fd56 d43c 146c 27bd 54f4 0ebe
00000190: f24f 3bbe 4e01 10be 6036 3d3e ce7a 37bd
000001a0: f875 253e 5f4a 59bc d2af 7abd 7e2f bb3c
000001b0: f633 66bd 51db 99be b7c3 a3bd e6ef 813d
000001c0: 8bc4 e1bb 348d b2bd 4cd1 69bc 9d6a 9c3a
000001d0: 5f90 183d 38a3 4a39 7a66 2d3d d426 bf3c
000001e0: 2142 b13d 8470 f53d 6024 673d db4b 66bc
000001f0: 3cb9 5b3d 51dd 8fbe a2e4 25bd b459 8fbd
00000200: 1ddd 1b3e 48a5 85be cc3d 8c3d ab7f 58bd
00000210: c5cd 4dbd ee94 a8bc ecbb 2ebd 2d75 99bd
00000220: 1998 9f3c b4d2 0b3d bbb6 dc3d 103f 43be
00000230: 8fd4 c0bc 417b 6cbd 9882 c33c a088 bdbd
00000240: 10ba babd 9f9c 5a3d f61a 0f3e 3d3a 34be
00000250: ceda 0ebe 5819 acbd a191 ec3d a45c f63d
00000260: ec6b d2bb 3918 5c3e 899b 23be 6666 d6bd
00000270: a488 673c d862 a9bd 946a e5bc 06a5 11be
00000280: 20a6 d7bd 2805 c5bc 039d 99bd 1694 42bd
00000290: 62e1 31bd bfaf 8cbd f51b 91bd 4897 e3bd
000002a0: 7292 f8bd 0102 c23c ae2d 0e3d f59c 30be
000002b0: 86ab 17be 7b3f 31bd 1ad2 a33c 91d2 3a3e
000002c0: f56c e03c cfd5 1dbc 28ca 953d eb9d 6fbc
000002d0: bc0a 49bd 8122 40be 9854 a0bd 4942 433e
000002e0: eca9 a53c af2b 80bc 7322 50bd 13db 943d
000002f0: 2fdb 2fbd 61cf 233e 0abc 5d3b ec15 53be
00000300: f5fc 8ebd eace dbbd 6d46 51be 0303 bd3d
00000310: a8f9 c63d 4485 07be 6b73 d2bd c258 b4bd
00000320: 1b27 2ebc 509e 2bbe 7543 90bc a79f ebbd
00000330: 9abe 1bbe 16ab 62be bab5 0abe 8a54 173e
00000340: cd02 c5bc defb ee3c 6e6e 02be 6943 7b3d
00000350: 2da3 2d3d feb1 2d3d 0c23 04bd e1ac afbd
00000360: 1b97 133d 825c ddbc c4ea 273e fa4b 66bc
00000370: 8e2b fc3d 6d50 e03c 539c 3dbd 7a9d f5bd
00000380: 61d5 42be 9a24 653d b4ec 8c3d 9600 d73d
00000390: 0515 10bd 5978 8ebd a26e 303d 515c bcbd
000003a0: 17f5 dcbd 211e a03d f85e 9f3b b9e3 91bd
000003b0: a3b2 f5bd 93f1 0a3e 18c4 8f3d 0ebb aebb
000003c0: 26cc 013e 11f1 8bbd 2d52 c0bd f73b cebd
000003d0: 2819 343c ee55 32be c6cc 5fbd bd9e 0dbe
000003e0: 5151 053e 7136 2abd 67ce 3bbd d44c 00be
000003f0: e757 4d3d e20b 193e f2e7 363d 515c 12bd

conv3.bias f4 [32]
-0.07407013 -0.032689307 -0.09789684 -0.033911712 -0.074677356 -0.031598948 -0.07176015 -0.060651973
-0.079620436 -0.090617225 -0.09423202 -0.037951954 -0.043160357 -0.052882563 -0.08207635 -0.11665967
-0.07727191 -0.096381396 -0.058055528 -0.10038847 -0.023058143 -0.099175096 -0.08580605 -0.082351506
-0.06908689 -0.05467152 -0.005148391 -0.13979502 0.010072732 -0.13072383 -0.1196895 -0.07759639
00000000: 15b2 97bd 39e5 05bd 237e c8bd 02e7 0abd
00000010: 71f0 98bd e66d 01bd fcf6 92bd 346e 78bd
00000020: 0a10 a3bd 8695 b9bd b8fc c0bd 8273 1bbd
00000030: eac8 30bd 639b 58bd a517 a8bd 44eb eebd
00000040: bc40 9ebd 9c63 c5bd a2cb 6dbd 7898 cdbd
00000050: 6ee4 bcbc 501c cbbd 15bb afbd e8a7 a8bd
00000060: 6d7d 8dbd 3eef 5fbd d5b3 a8bb 6d26 0fbe
00000070: 1a08 253c 78dc 05be c51f f5bd dbea 9ebd

conv4.weight f4 [32, 32, 5, 5]
0.10545937 0.087004825 -0.029145947 -0.22508535 -0.096961014 0.24786422 -0.012311405 -0.0057478286
-0.09114791 0.022541465 -0.07359558 -0.065061025 -0.027168924 -0.005813981 -0.21718562 0.04383419
0.028899975 -0.08513809 0.052192554 0.068840556 -0.044154484 0.022374699 -0.08732775 -0.02400846
-0.122646734 0.11234873 0.08891646 0.047587454 0.12028895 0.07774502 0.100314744 0.13206024
0.14174008 0.14604224 0.09513418 0.10094604 0.104342364 0.14430901 0.13931999 0.12204814
0.10686402 0.13057993 0.15408477 0.20309657 0.10113484 0.1585818 0.15386076 0.09326906
0.14135826 0.11125783 0.11678752 0.045122858 0.21865971 -0.10989176 -0.048281472 0.027540168
0.03654514 0.12738186 0.062509455 -0.07437868 0.13457863 0.084757224 0.055217925 0.0121147735
0.018193496 -0.03019828 0.051249225 0.01827725 0.068084136 0.037277658 -0.049789038 0.03734371
-0.025671799 -0.051079914 -0.12990113 0.007750536 -0.15889072 -0.0117894085 0.079698086 0.023200534
-0.02924015 -0.09432231 -0.03832136 0.036761757 0.10818037 0.013650743 -0.06908903 0.022242447
0.021582648 0.10740385 0.07425419 -0.0740652 -0.0992844 0.17057194 0.09166346 -0.269827
-0.1214414 -0.023503652 0.06720485 0.11570255 0.026724307 -0.11055478 0.024683738 -0.0016319985
0.05156006 0.20785253 -0.08928573 0.16729328 0.028125362 0.07694359 -0.053750128 0.04161814
0.26068425 -0.1002766 0.056911416 0.018633472 0.0032971008 0.19158311 0.13425355 0.035994653
0.08626334 0.09752386 -0.022168595 0.14669736 0.12408358 -0.18412714 0.033708904 0.04831496
0.025788378 -0.06330717 0.07758264 -0.20798782 -0.08086623 -0.026883423 -0.06412489 0.055477098
-0.0859891 0.04686367 -0.15383391 -0.11100521 0.0595085 -0.06333157 -0.0876837 -0.07078462
0.09431253 -0.16760957 0.03482302 0.11389583 0.18290678 0.109658144 -0.11616868 -0.06254232
0.010851944 0.04523096 0.045568757 0.10067934 -0.08889987 -0.068321556 0.2025162 -0.108119585
0.107645504 -0.043013133 0.007933567 0.097656995 -0.2546536 -0.06602105 -0.0027268066 -0.07867832
-0.06259229 0.11059679 -0.12769479 -0.011232354 0.045243878 0.032574523 0.057193145 0.008726087
0.03827209 0.22355555 0.10601882 0.15841363 -0.037505396 0.025207387 0.048649196 0.044747613
0.12205491 0.22462417 0.23760694 0.09646857 0.020256484 0.112598695 0.07548514 0.08394721
0.10480983 0.15308043 0.15681303 0.0017738799 0.1342064 0.09525758 -0.03187489 0.118343435
0.12535354 0.09300269 -0.052621268 0.11158373 -0.11574953 -0.07872077 0.011385615 -0.044059165
0.06222679 0.0059898165 -0.017872365 -0.02071001 0.15700369 -0.084339276 -0.056330357 -0.1700722
0.15315962 0.11991566 0.0377761 0.15336472 -0.027752623 0.0068354774 -0.02524931 -0.031423863
-0.10599232 -0.0039618895 0.076637834 0.013075479 0.031547643 -0.030871484 0.12336348 0.1578858
0.05866806 -0.021753114 0.11399722 0.023925088 0.098960966 0.015488879 0.107651256 0.080435336
-0.09473956 0.038493156 0.037203442 -0.07991226 -0.07613619 0.04446901 0.068233855 -0.028068101
0.110515915 0.17766045 -0.12248023 -0.106667705 0.11128408 -0.044779945 -0.034344345 -0.097944744
00000000: 15fb d73d 962f b23d 7bc3 eebc c67c 66be
00000010: 7f93 c6bd 1ed0 7d3e c6b5 49bc 4858 bcbb
00000020: c1ab babd e1a8 b83c 48b9 96bd b73e 85bd
00000030: 5d91 debc 3583 bebb e865 5ebe 7b8b 333d
00000040: a4bf ec3c e15c aebd dcc7 553d 47fc 8c3d
00000050: 55db 34bd 254b b73c e4d8 b2bd 64ad c4bc
00000060: 362e fbbd 1717 e63d d519 b63d 10eb 423d
00000070: 0e5a f63d c838 9f3d d171 cd3d cd3a 073e
00000080: 5024 113e 198c 153e b5d5 c23d ccbc ce3d
00000090: 73b1 d53d bec5 133e e6a9 0e3e 60f4 f93d
000000a0: 86db da3d bfb6 053e 66c8 1d3e 8cf8 4f3e
000000b0: c81f cf3d 4463 223e ad8d 1d3e d903 bf3d
000000c0: 38c0 103e 25db e33d 4c2e ef3d bfd2 383d
000000d0: 55e8 5f3e ee0e e1bd cbc2 45bd eb9b e13c
000000e0: 5bb0 153d 6470 023e f504 803d d953 98bd
000000f0: fbce 093e 3295 ad3d 312c 623d 0b7d 463c
00000100: 870a 953c 6262 f7bc b5ea 513d 2cba 953c
00000110: b26f 8b3d 75b0 183d 97ef 4bbd b8f5 183d
00000120: aa4d d2bc 2c39 51bd cd04 05be 35f8 fd3b
00000130: 40b4 22be 5d28 41bc c038 a33d 0c0f be3c
00000140: 0a89 efbc 0e2c c1bd dcf6 1cbd 7f93 163d
00000150: ab8d dd3d 5ea7 5f3c 8d7e 8dbd cb35 b63c
00000160: 18ce b03c 8df6 db3d 9512 983d 7faf 97bd
00000170: 9f55 cbbd 69aa 2e3e 0dba bb3d c426 8abe
00000180: 45b6 f8bd bb8a c0bc b2a2 893d 75f5 ec3d
00000190: efec da3c 8b6a e2bd 8d35 ca3c c8e8 d5ba
000001a0: a430 533d 4bd7 543e 70db b6bd ee4e 2b3e
000001b0: 2967 e63c 9a94 9d3d 1829 5cbd c877 2a3d
000001c0: 6878 853e d15d cdbd f21b 693d 39a5 983c
000001d0: 2c14 583b 5d2e 443e c379 093e 216f 133d
000001e0: d6aa b03d 97ba c73d ea9a b5bc d537 163e
000001f0: 881f fe3d d38b 3cbe 5912 0a3d e8e5 453d
00000200: 2642 d33c 31a7 81bd a6e3 9e3d c2fa 54be
00000210: 329d a5bd a03a dcbc e953 83bd f43b 633d
00000220: 0e1b b0bd 1ff4 3f3d a386 1dbe b356 e3bd
00000230: 2fbf 733d fbb3 81bd 8393 b3bd 87f7 90bd
00000240: ed26 c13d d8a1 2bbe 95a2 0e3d 3842 e93d
00000250: ea4b 3b3e 7394 e03d d8e9 edbd 3016 80bd
00000260: 5acc 313c 1944 393d 4ea6 3a3d f830 ce3d
00000270: 2311 b6bd 2cec 8bbd 6860 4f3e cd6d ddbd
00000280: 3f75 dc3d 8a2e 30bd cbfb 013c 6400 c83d
00000290: f561 82be 0b36 87bd 39b4 32bb 1922 a1bd
000002a0: 6330 80bd 9280 e23d 6cc2 02be e807 38bc
000002b0: a551 393d dd6c 053d 5c43 6a3d ddf7 0e3c
000002c0: 32c3 1c3d bfeb 643e 6520 d93d 2f37 223e
000002d0: 429f 19bd b97f ce3c 6144 473d 4649 373d
000002e0: edf7 f93d e103 663e 3c4f 733e 5091 c53d
000002f0: edf0 a53c 259a e63d f497 9a3d 84ec ab3d
00000300: 89a6 d63d 1ec1 1c3e 9893 203e 8881 e83a
00000310: 676d 093e 6816 c33d 3f8f 02bd 0b5e f23d
00000320: ae5c 003e 3278 be3d 6689 57bd 0386 e43d
00000330: 170e edbd 5b38 a1bd bb8a 3a3c 6277 34bd
00000340: 85e1 7e3d 3946 c43b 1169 92bc 0aa8 a9bc
00000350: 93c5 203e 12ba acbd a9ba 66bd 6827 2ebe
00000360: e0d5 1c3e 5796 f53d 1dbb 1a3d a40b 1d3e
00000370: 7859 e3bc 24fc df3b a4d7 cebc 4fb6 00bd
00000380: 8012 d9bd bdd2 81bb 4cf4 9c3d 893a 563c
00000390: 1a38 013d 32e6 fcbc fea5 fc3d d1ac 213e
000003a0: eb4d 703d 9633 b2bc 6077 e93d 8cfe c33c
000003b0: 0cac ca3d 11c5 7d3c 4378 dc3d 48bb a43d
000003c0: d006 c2bd 00ab 1d3d a362 183d 0aa9 a3bd
000003d0: 4aed 9bbd 2325 363d 31be 8b3d 13ef e5bc
000003e0: 2b56 e23d 9fec 353e ead6 fabd 9974 dabd
000003f0: e8e8 e33d 2d6b 37bd a8ac 0cbd 4197 c8bd

conv4.bias f4 [32]
-0.14835179 -0.08997482 -0.08327994 -0.16265622 -0.113215946 -0.049385186 -0.068283476 -0.14936335
-0.059311464 -0.11327295 -0.11875685 -0.10020552 -0.109067686 -0.05881421 -0.15091644 -0.07023681
-0.09881217 -0.06334854 -0.017967658 -0.14897601 0.006655453 -0.10873746 -0.11930711 -0.14761221
-0.114679605 -0.102990195 -0.1010152 -0.09415472 -0.09371439 -0.03134472 -0.04294982 -0.12002592
00000000: 88e9 17be b844 b8bd ac8e aabd 5a8f 26be
00000010: c3dd e7bd 1f48 4abd 35d8 8bbd b5f2 18be
00000020: 94f0 72bd a6fb e7bd cb36 f3bd 8d38 cdbd
00000030: e15e dfbd 2be7 70bd d789 1abe 51d8 8fbd
00000040: 095e cabd e1bc 81bd e930 93bc 2b8d 18be
00000050: fc15 da3b bfb1 debd 4957 f4bd a827 17be
00000060: 24dd eabd 86ec d2bd 0fe1 cebd 31d4 c0bd
00000070: 55ed bfbd 5263 00bd 27ec 2fbd 26d0 f5bd

conv5.weight f4 [32, 32, 5, 5]
-0.016752081 0.012753463 -0.009375218 0.011819555 0.06785876 -0.0075307656 0.0016070139 -0.1686782
-0.05474789 0.056450512 0.1594986 0.2178263 0.08547391 -0.08446551 0.027010081 0.18862528
0.19402729 0.14986758 -0.012523242 0.067114525 0.16655064 0.22071843 0.23251356 0.104948565
0.13141175 -0.01582477 -0.043008056 -0.0072980328 -0.048091903 -0.07557642 -0.0845879 -0.011868223
-0.06749946 -0.12733889 -0.05843674 -0.011975395 -0.025564566 -0.09278327 -0.13423517 -0.106693506
-0.0029265508 -0.004133721 0.062234674 -0.1927253 -0.18666245 0.08847029 0.08840843 0.07000243
-0.10780568 -0.19175085 -0.02351023 -0.042576894 0.11995992 0.24355409 0.21709897 -0.004172876
-0.14783815 -0.030521344 0.16330825 0.10671699 -0.17673223 -0.14807816 0.062690794 0.1329706
-0.09242469 -0.22446036 0.028651549 0.14496672 0.16968462 -0.0038335812 -0.19471626 -0.039906666
0.17628019 0.2049297 0.096862264 -0.094260745 -0.023568891 -0.020561019 0.07264095 -0.11088078
-0.054107197 0.070522845 0.045350958 -0.011518774 -0.14581375 -0.024059342 0.07417672 0.12278676
0.052679583 0.02844231 -0.058265377 -0.12053968 0.06937665 0.010502657 0.029233715 -0.17743854
-0.13096918 -0.0845351 -0.010344267 0.056228142 0.24803346 0.13869986 0.19219217 0.11718529
0.054320488 0.18205439 0.24855354 0.13123004 0.059224896 0.030422052 0.23938797 0.20697013
0.19399357 -0.15973195 -0.12568194 0.2657229 0.18791094 0.12646286 -0.0660279 -0.23618118
0.1659968 0.13626222 0.16064386 0.010976119 -0.01479865 0.0144045735 0.033861447 0.013615605
-0.028872406 -0.124810144 0.04557577 0.013762082 0.0076510347 0.066587344 -0.03609801 0.019594349
0.10940312 0.13464183 0.016263003 -0.01703138 0.12960881 0.10202426 0.1742149 0.134476
0.106419355 0.13355067 0.031091012 0.06739469 0.13512066 0.10552827 0.1221492 0.018859573
0.030015409 -0.0682523 -0.095348835 0.0107186325 -0.03663352 0.02811084 -0.042947836 -0.08150801
-0.002211484 -0.042752735 -0.068417065 0.0022596086 0.027649712 0.08546419 0.035354696 -0.008489901
0.064608075 0.06681979 0.029378219 0.06719991 -0.074879825 -0.015987659 -0.019472603 0.10773587
0.035218462 -0.07921157 -0.14253137 -0.19227654 0.13711365 0.053202294 -0.006615348 0.046561297
-0.1337209 0.26122096 0.25243068 0.10656136 0.05157608 0.03298623 0.23637389 0.21932207
0.18778655 0.13428016 0.056757502 0.21079583 0.1612762 0.10512685 0.10240599 0.026484797
-0.083391994 -0.010838861 -0.03459817 -0.058709536 -0.10880607 -0.13912044 -0.05888905 -0.112158984
-0.055664312 0.10336364 0.007623406 0.05082454 -0.038993195 0.029426318 0.0154003 0.068199165
0.12558898 0.022268102 -0.05690992 -0.07918688 0.099782 0.078284234 -0.07454643 -0.027165754
-0.028785681 0.13820402 0.14304642 0.152535 0.20085791 -0.04628479 0.09359886 0.16817252
0.2393019 0.25283757 0.10003893 0.15455662 0.12928785 0.21382608 0.30505627 0.16478814
0.0100754155 0.16397415 0.23889884 0.23836389 0.16839021 0.011362427 0.061062206 0.08422488
0.15265796 0.15611354 -0.026487056 0.055650435 0.038931478 0.02278168 -0.12397493 -0.04291641
00000000: a93b 89bc e7f3 503c 849a 19bc cfa6 413c
00000010: 89f9 8a3d a4c4 f6bb 70a2 d23a fab9 2cbe
00000020: 533f 60bd a738 673d 9a53 233e dc0d 5f3e
00000030: f20c af3d 41fc acbd 3f44 dd3c fc26 413e
00000040: 17af 463e e376 193e 492e 4dbc 5773 893d
00000050: 408c 2a3e 0304 623e 0918 6e3e 46ef d63d
00000060: cd90 063e f3a2 81bc 3729 30bd 5624 efbb
00000070: 04fc 44bd cfc7 9abd 6c3c adbd ef72 42bc
00000080: 283d 8abd 2065 02be 5d5b 6fbd 7234 44bc
00000090: c86c d1bc 2805 bebd f274 09be 2082 dabd
000000a0: 60cb 3fbb 2a74 87bb c9e9 7e3d c859 45be
000000b0: 7124 3fbe e92f b53d 7b0f b53d 6f5d 8f3d
000000c0: 39c9 dcbd 565a 44be 8798 c0bc 1c65 2ebd
000000d0: 8cad f53d 3e66 793e 314f 5e3e 9fbc 88bb
000000e0: e262 17be e607 fabc 473a 273e 708e da3d
000000f0: 4bf9 34be cda1 17be 0864 803d 7229 083e
00000100: 2849 bdbd f0d8 65be a7b6 ea3c 2872 143e
00000110: cec1 2d3e d23c 7bbb b363 47be 2c75 23bd
00000120: cb82 343e 17d9 513e b95f c63d c70b c1bd
00000130: 8c13 c1bc 956f a8bc c7c4 943d 7615 e3bd
00000140: 829f 5dbd 486e 903d edc1 393d 3db9 3cbc
00000150: 3350 15be 1918 c5bc f7e9 973d a077 fb3d
00000160: 8cc6 573d d9ff e83c ada7 6ebd 82dd f6bd
00000170: 5815 8e3d 5613 2c3c 8b7b ef3c 73b2 35be
00000180: c91c 06be bd20 adbd 007b 29bc 7b4f 663d
00000190: 7cfc 7d3e 5607 0e3e 06ce 443e d7fe ef3d
000001a0: 297f 5e3d 776c 3a3e d284 7e3e 2b61 063e
000001b0: ce95 723d ab37 f93c 1f22 753e faef 533e
000001c0: 40a6 463e c690 23be c4b2 00be d50c 883e
000001d0: ba6b 403e 7b7f 013e a339 87bd 7bd9 71be
000001e0: 11fb 293e 5388 0b3e d37f 243e 2ed5 333c
000001f0: 0976 72bc 2901 6c3c 4db2 0a3d fd13 5f3c
00000200: d385 ecbc 769c ffbd a9ad 3a3d 5b7a 613c
00000210: 88b5 fa3b f25e 883d 82db 13bd 5484 a03c
00000220: be0e e03d 8cdf 093e fd39 853c 6585 8bbc
00000230: 2cb8 043e 18f2 d03d 6465 323e 14b4 093e
00000240: 64f2 d93d 82c1 083e 94b2 fe3c 3a06 8a3d
00000250: 125d 0a3e 351f d83d 5c29 fa3d 647f 9a3c
00000260: e0e2 f53c ddc7 8bbd 4046 c3bd 349d 2f3c
00000270: 080d 16bd b448 e63c 12ea 2fbd aced a6bd
00000280: 8bee 10bb 7e1d 2fbd 3f1e 8cbd f115 143b
00000290: a681 e23c d907 af3d 16d0 103d 3a19 0bbc
000002a0: 3d51 843d d0d8 883d 97aa f03c 1ba0 893d
000002b0: 985a 99bd 8df8 82bc 0285 9fbc a0a4 dc3d
000002c0: 3c41 103d ad39 a2bd bef3 11be 24e4 44be
000002d0: 8567 0c3e a6ea 593d 90c5 d8bb 0fb7 3e3d
000002e0: 22ee 08be c1be 853e 983e 813e d83c da3d
000002f0: 7141 533d 921c 073d ff0b 723e f795 603e
00000300: 1e4b 403e bd80 093e 8e7a 683d ddda 573e
00000310: 9725 253e bf4c d73d 3bba d13d a5f6 d83c
00000320: 6cc9 aabd 7a95 31bc d0b6 0dbd 6979 70bd
00000330: b8d5 debd 9775 0ebe a535 71bd 9cb3 e5bd
00000340: 4300 64bd 51b0 d33d c4cd f93b 652d 503d
00000350: 54b7 1fbd 760f f13c 8a51 7c3c 01ac 8b3d
00000360: 669a 003e 986b b63c 601a 69bd bb2c a2bd
00000370: 815a cc3d 7c53 a03d ccab 98bd b78a debc
00000380: f3cf ebbc 5b85 0d3e c37a 123e 2332 1c3e
00000390: b2ad 4d3e 1f95 3dbd c2b0 bf3d 6b35 2c3e
000003a0: 8f0b 753e ed73 813e 36e1 cc3d 1744 1e3e
000003b0: 0964 043e 39f5 5a3e 5630 9c3e 39be 283e
000003c0: 5b13 253c d7e8 273e e6a1 743e aa15 743e
000003d0: 7c6e 2c3e 7929 3a3c 5d1c 7a3d 187e ac3d
000003e0: 5e52 1c3e 3adc 1f3e 62fb d8bc b6f1 633d
000003f0: 9d76 1f3d a5a0 ba3c 91e6 fdbd 1ec9 2fbd

conv5.bias f4 [32]
-0.101611584 0.08009586 -0.12791477 -0.13529687 -0.046723187 -0.007908198 0.0585342 -0.010194475
0.09071962 -0.02395921 -0.021412509 -0.055400036 0.06811752 0.05451839 -0.081871666 -0.040068787
0.053881608 0.05909063 -0.121883765 0.04446613 -0.0071798405 -0.08185372 -0.03001652 -0.01652018
-0.10672721 -0.053737704 0.028361766 0.048197668 -0.022790516 -0.073831305 0.013568283 -0.0678573
00000000: bc19 d0bd 4c09 a43d 17fc 02be 438b 0abe
00000010: d060 3fbd 6391 01bc 8fc1 6f3d ba06 27bc
00000020: 35cb b93d 1b46 c4bc 4969 afbc 26eb 62bd
00000030: 3381 8b3d ad4e 5f3d 55ac a7bd 2b1f 24bd
00000040: f6b2 5c3d 0409 723d 329e f9bd 1e22 363d
00000050: de44 ebbb eca2 a7bd 34e5 f5bc 5455 87bc
00000060: cc93 dabd 111c 5cbd ef56 e83c eb6a 453d
00000070: 2db3 babc de34 97bd 814d 5e3c c5f8 8abd

conv6.weight f4 [32, 32, 5, 5]
-0.010879768 -0.06580869 -0.05803811 -0.0383642 -0.046816863 -0.008655849 0.0058975657 -0.039755758
0.009960941 -0.015575589 0.044893127 -0.011806123 0.0019211324 -0.0070903706 0.015216895 0.007598061
0.018191015 -0.01705966 0.009642357 0.061019797 0.032406684 0.028048106 0.021131134 0.02593686
0.027140684 -0.064673536 -0.082900025 -0.035092365 -0.052799232 -0.08166644 -0.14074545 -0.09286812
-0.04850281 -0.073122025 -0.060455088 -0.12731545 -0.0825892 -0.04529514 -0.07320527 -0.052187063
-0.1087419 -0.027009243 0.019426107 -0.013582729 -0.021559564 -0.04743427 0.012470499 0.014848815
0.024040595 -0.04990987 -0.0972997 -0.09548177 -0.039774287 -0.022076419 0.046672698 -0.100491025
-0.106113434 -0.0955102 -0.11417617 0.009851415 -0.08002511 -0.11929556 -0.05608525 -0.08627412
-0.02201647 -0.028723435 -0.042554993 -0.070077844 -0.12735927 -0.041331027 -0.027439237 -0.014809319
0.00029781205 -0.081158094 -0.03604615 0.014365673 -0.09512397 -0.07562131 0.038424116 -0.004621984
-0.020776525 -0.043916054 -0.029955488 -0.012668142 -0.07213435 0.0064999047 0.041506186 -0.030018678
-0.04170258 -0.07663822 0.02907424 0.059801392 -0.024106631 -0.037875574 -0.06699207 0.057051502
0.06284643 0.0040645404 -0.04924381 -0.09756102 -0.032629654 0.004702705 -0.03933305 -0.034839306
-0.07532781 -0.07388795 0.06267421 0.0654495 0.011259505 -0.022521807 -0.025143042 0.024708899
0.066834986 0.09006345 -0.023497224 0.0043226187 0.056592636 0.10270549 0.040860135 0.059613343
-0.025354916 0.024002431 0.057024222 0.01780055 0.0032813002 -0.03694023 -0.0066580987 0.015166406
0.0019538302 -0.056051295 -0.01638407 -0.040534984 -0.035672247 -0.022265494 -0.04830217 0.0046758023
0.006711487 -0.004593219 0.00064868823 3.111981e-05 -0.009226371 0.04169692 0.075953074 0.08275835
0.07143012 -0.05897639 0.011212621 0.020991392 0.10252722 0.083145134 -0.040396173 -0.09137247
-0.071916364 -0.07279424 -0.08083531 -0.021148523 -0.08585159 -0.0323451 -0.092586175 -0.09763808
-0.041296307 -0.021078542 0.007898411 -0.016832886 -0.089067474 -0.01610774 0.019523758 0.02833516
-0.047356278 -0.059287194 -0.048134506 0.0057016355 -0.009584212 -0.034363214 -0.04005922 0.007369077
0.010116371 -0.0059631504 -0.020666204 -0.059096567 -0.0369162 -0.042135533 -0.017675836 -0.0074313073
-0.053487737 0.00060165004 -0.0029750662 0.009544208 0.066430576 0.026202533 -0.01650633 0.028621845
0.07129791 0.040816184 0.08299078 -0.010891872 -0.03625015 0.098440334 0.10674112 0.099674754
-0.11642554 -0.09394691 -0.09029193 -0.06529089 -0.0794047 -0.11152958 -0.06704904 -0.07459028
-0.11399041 -0.11388159 -0.10310498 -0.039522633 -0.0629258 -0.073982045 -0.11035879 -0.050135523
0.0026249478 -0.049749568 -0.032176454 -0.11750624 -0.04240681 0.004149083 -0.035823394 -0.08423523
-0.09118612 0.0026186681 -0.015661884 0.0034369777 -0.025925279 -0.014921822 0.007037554 0.006763278
0.012055505 0.012483614 0.009644495 0.017020982 0.06876724 0.039573103 0.062613234 0.06640424
0.044955812 0.029859396 0.051064886 0.016527966 0.023343848 -0.011375894 -0.008367373 0.03215388
0.016637236 0.008248895 0.00032127948 -0.057686213 0.002319835 0.021661304 -0.00056362373 -0.016362306
00000000: 0e41 32bc b5c6 86bd 5fb9 6dbd c823 1dbd
00000010: 0ac3 3fbd 43d1 0dbc 5e40 c13b efd6 22bd
00000020: 3733 233c c130 7fbc dbe1 373d 786e 41bc
00000030: 82ce fb3a 5756 e8bb 4950 793c 28f9 f83b
00000040: 5305 953c b3c0 8bbc fafa 1d3c e5ef 793d
00000050: dfbc 043d 24c5 e53c 331b ad3c 8a79 d43c
00000060: 2456 de3c 8f73 84bd 7dc7 a9bd 03bd 0fbd
00000070: 0244 58bd bc40 a7bd 931f 10be a431 bebd
00000080: e2aa 46bd 00c1 95bd c19f 77bd fb5e 02be
00000090: 8724 a9bd 6687 39bd a5ec 95bd 1ac2 55bd
000000a0: 13b4 debd 7d42 ddbc 8023 9f3c 188a 5ebc
000000b0: af9d b0bc 704a 42bd 1051 4c3c 7248 733c
000000c0: c8f0 c43c 4b6e 4cbd 1145 c7bd f28b c3bd
000000d0: 5dea 22bd 9bd9 b4bc df2b 3f3d 3dce cdbd
000000e0: 0052 d9bd da9a c3bd 32d5 e9bd d467 213c
000000f0: 34e4 a3bd 3b51 f4bd a6b9 65bd 7cb0 b0bd
00000100: e25b b4bc 694d ebbc 254e 2ebd f984 8fbd
00000110: 786a 02be b94a 29bd 40c8 e0bc c9a2 72bc
00000120: a823 9c39 3736 a6bd 21a5 13bd 005e 6b3c
00000130: 5bd0 c2bd 58df 9abd 9b62 1d3d 0374 97bb
00000140: 8833 aabc 52e1 33bd 3665 f5bc 0a8e 4fbc
00000150: 2dbb 93bd 27fd d43b 6402 2a3d bbe9 f5bc
00000160: 53d0 2abd 80f4 9cbd 1a2d ee3c 4ef2 743d
00000170: 457b c5bc 6b23 1bbd 2333 89bd d6ae 693d
00000180: a1b5 803d d62f 853b e1b3 49bd 12ce c7bd
00000190: aca6 05bd 2619 9a3b b11b 21bd a9b3 0ebd
000001a0: 7845 9abd 9152 97bd 565b 803d 630a 863d
000001b0: c979 383c a77f b8bc c8f8 cdbc 516a ca3c
000001c0: c8e0 883d 3073 b83d 407d c0bc c1a4 8d3b
000001d0: aecd 673d 4257 d23d f55c 273d 1f2d 743d
000001e0: 1db5 cfbc bfa0 c43c 3b92 693d 76d2 913c
000001f0: 150b 573b a34e 17bd 2e2c dabb 847c 783c
00000200: d50b 003b 0b96 65bd e337 86bc 0308 26bd
00000210: 101d 12bd 2066 b6bc 7fd8 45bd 7937 993b
00000220: 09ec db3b b782 96bb bb0c 2a3a a486 0238
00000230: 342a 17bc 64ca 2a3d 498d 9b3d 367d a93d
00000240: f449 923d 3a91 71bd 24b5 373c 24f6 ab3c
00000250: cbf9 d13d ff47 aa3d 7576 25bd 7d21 bbbd
00000260: e348 93bd 2615 95bd fc8c a5bd ab3f adbc
00000270: f5d2 afbd 4c7c 04bd d29d bdbd 79f6 c7bd
00000280: 5126 29bd e8ac acbc 5668 013c 1fe5 89bc
00000290: 0269 b6bd 61f4 83bc 4af0 9f3c 231f e83c
000002a0: a8f8 41bd 21d7 72bd b028 45bd c9d4 ba3b
000002b0: 1907 1dbc 71c0 0cbd 2315 24bd 4c78 f13b
000002c0: 23bf 253c 8866 c3bb 2c4c a9bc 3e0f 72bd
000002d0: 7135 17bd 4f96 2cbd eacc 90bc 5382 f3bb
000002e0: f515 5bbd 0db8 1d3a 54f9 42bb 4f5f 1c3c
000002f0: c10c 883d b2a6 d63c 4838 87bc 5c78 ea3c
00000300: a304 923d df2e 273d 12f7 a93d d373 32bc
00000310: 0a7b 14bd 169b c93d 179b da3d 4722 cc3d
00000320: 8370 eebd 3d67 c0bd faea b8bd 3bb7 85bd
00000330: ee9e a2bd 9f69 e4bd 0251 89bd cac2 98bd
00000340: ce73 e9bd c03a e9bd b428 d3bd 7ce2 21bd
00000350: 3edf 80bd e683 97bd ca03 e2bd e85a 4dbd
00000360: 5107 2c3b 34c6 4bbd 75cb 03bd 1da7 f0bd
00000370: c3b2 2dbd 08f5 873b 8dbb 12bd 8583 acbd
00000380: cabf babd f69d 2b3b 5a4d 80bc eb3e 613b
00000390: 4061 d4bc a87a 74bc 489b e63b 7d9e dd3b
000003a0: 7484 453c 1288 4c3c f203 1e3c 966f 8b3c
000003b0: d7d5 8c3d 6817 223d 5e3b 803d f2fe 873d
000003c0: 9623 383d b19b f43c 6a29 513d a865 873c
000003d0: 993b bf3c f561 3abc 4e17 09bc c9b3 033d
000003e0: d04a 883c 6026 073c 6771 a839 6148 6cbd
000003f0: 5f08 183b 0c73 b13c 26c0 13ba 3e0a 86bc

conv6.bias f4 [32]
-0.22847146 0.088245645 0.093045905 0.13354783 0.11488773 0.11384145 -0.045998555 0.048210092
0.027909713 0.10730724 -0.04984717 0.03154802 -0.053608954 0.086556464 -0.20491244 0.05696633
0.047289427 0.15951379 0.07835592 -0.014557744 0.10158568 0.023075657 0.060473636 -0.102478325
0.055679664 0.037932582 -0.0014168031 -0.07398781 0.050166186 0.12381758 -0.05051689 -0.02409131
00000000: 6cf4 69be 22ba b43d da8e be3d c3c0 083e
00000010: 424a eb3d b525 e93d fb68 3cbd f277 453d
00000020: e9a2 e43c e6c3 db3d 8c2c 4cbd 7f38 013d
00000030: 1095 5bbd 8444 b13d 91d4 51be 8755 693d
00000040: 8fb2 413d 9557 233e 1279 a03d 9b83 6ebc
00000050: 270c d03d 2909 bd3c 34b3 773d 28e0 d1bd
00000060: 5c10 643d 325f 1b3d 06b4 b9ba ec86 97bd
00000070: 0f7b 4d3d 1294 fd3d ccea 4ebd 245b c5bc

conv7.weight f4 [32, 32, 5, 5]
0.0065937317 0.015437646 0.002404876 -0.022399228 -0.023848554 0.008376316 -0.0011855155 -0.022916114
0.0078040427 -0.0010308118 -0.04580732 -0.05604075 0.026166504 -0.038066674 -0.012138148 0.002711645
-0.0054561584 -0.03418338 -0.027594762 -0.0059764036 -0.02073216 -0.028189238 -0.04662621 -0.021334555
-0.047613297 0.023880677 0.038184296 0.032021023 0.02354816 0.04620701 0.049242746 -0.0014207434
0.022888312 0.06289361 0.010382747 0.053186707 0.010466413 0.05170203 0.010335415 0.044882763
0.0030428842 0.008378738 0.055607557 0.030042225 0.04454812 0.021763882 0.06987884 0.054763354
0.03079526 0.03260593 0.0008985432 0.025991196 0.009833434 0.03565522 0.015528074 -0.0051676435
0.04628357 0.053238958 0.046422888 0.020780925 0.007943243 0.0017805417 0.01878563 0.025212431
0.0052984683 0.0068770302 -0.0039931303 0.047560032 0.027843518 0.01457671 0.051893402 0.052894525
0.037020247 0.0014322387 0.022047421 0.012739126 0.012719285 0.015320844 -0.012793632 -0.028091306
0.044716213 0.005641146 0.03918586 0.014683309 -0.021982452 0.022667786 0.05033332 0.030200655
-0.039140884 0.014598671 0.015664766 0.021759862 0.05332273 -0.039679185 0.005195118 0.02761334
0.013481016 0.028671464 0.008207663 0.035836887 0.024104532 0.027579686 0.029656824 0.0078374455
0.0015782339 0.03762611 0.004722595 0.059752993 0.055938758 0.0064395303 0.058451705 0.015075583
0.0033469684 -0.0043310807 0.055556074 -0.0062543293 0.015064559 0.020725211 0.051891115 0.056461878
0.029882666 -0.0075641777 0.056449015 0.05962208 0.025188645 0.031105904 0.0013803724 0.04698904
0.04904172 0.05216813 0.00018157746 0.024849394 0.03731584 0.008753342 -0.001877571 -0.011663008
0.0056351605 0.019535925 0.061918505 0.03254341 0.013254674 0.043317687 0.04089863 0.059073847
0.021971656 0.05247138 0.047593765 0.054350317 0.021392047 -0.005259145 -0.0061720447 -0.031511668
0.021864135 -0.017697407 -0.008517759 0.004921907 -0.04389851 0.017695468 0.003064821 -0.019989852
-0.017063681 0.0046854024 -0.032133553 -0.024172844 -0.012125085 -0.050499767 -0.024899436 -0.007953372
-0.023959262 0.014870302 0.01245755 0.023733491 0.03038107 6.036068e-05 0.026608316 0.008396135
0.0031708216 0.036682367 0.027330646 -0.026333032 -0.02601475 -0.036776755 0.0041212295 -0.0010670456
0.027105715 -0.01639953 -0.032979365 -0.021796731 -0.008558708 -0.0056602885 0.025340602 -0.013170437
0.03831267 -0.02674039 0.019117232 0.022316463 0.015547218 0.04264745 -0.0085603 0.022511007
0.009914234 0.025171129 0.034740902 0.0037229839 -0.02255335 -0.0041061263 -0.023342092 0.008842463
0.003173258 0.024075791 0.0146065 -0.028382197 0.03795426 -0.025959814 0.023457684 -0.005100495
0.006739936 0.02632077 -0.03462239 -0.021363901 -0.037718214 0.0123817865 0.0315842 0.0010697149
0.00377149 0.002166723 0.044317808 0.004022104 0.0448774 0.0051199975 -0.009743026 0.014870125
-0.0029969255 0.05045374 -0.0051886616 0.038230393 0.017635133 0.023798862 0.028037073 0.033445057
-0.0022810518 -0.017106904 0.018995116 0.04483612 0.023842346 0.026474519 0.017972324 0.02384093
0.021167554 0.019009324 0.010745277 -0.04670616 -0.029803986 -0.03784842 -0.020938039 -0.018812891
00000000: 3b10 d83b 2eee 7c3c 209b 1d3b 967e b7bc
00000010: 0b5e c3bc d13c 093c 4d63 9bba 93ba bbbc
00000020: 0eb9 ff3b 4e1c 87ba 75a0 3bbd fc8a 65bd
00000030: 235b d63c cdeb 1bbd 15df 46bc dbb5 313b
00000040: 93c9 b2bb df03 0cbd 690e e2bc b5d5 c3bb
00000050: 7ed6 a9bc 1eed e6bc 20fb 3ebd cec5 aebc
00000060: 2906 43bd 69a1 c33c 2367 1c3d 7a28 033d
00000070: 12e8 c03c 9043 3d3d c3b2 493d 3d38 baba
00000080: 4580 bb3c 5dce 803d 661c 2a3c 4eda 593d
00000090: 517b 2b3c 82c5 533d df55 293c fdd6 373d
000000a0: 206b 473b f946 093c c0c4 633d 1d1b f63c
000000b0: 1778 363d 2b4a b23c a31c 8f3d 8a4f 603d
000000c0: 5746 fc3c cc8d 053d 378c 6b3a 7deb d43c
000000d0: 691c 213c 350b 123d 7669 7e3c 5655 a9bb
000000e0: d793 3d3d 1811 5a3d ed25 3e3d c23c aa3c
000000f0: 6024 023c 1161 e93a 52e4 993c 4d8a ce3c
00000100: c69e ad3b b658 e13b ced8 82bb 4fce 423d
00000110: 1718 e43c 27d3 6e3c 2d8e 543d eea7 583d
00000120: 8ba2 173d f5b9 bb3a cb9c b43c c4b7 503c
00000130: 8c64 503c 4704 7b3c 629c 51bc bd1f e6bc
00000140: 5928 373d 5dd9 b83b 5a81 203d 4392 703c
00000150: 8b14 b4bc cbb1 b93c 502a 4e3d 5d67 f73c
00000160: 3152 20bd 442f 6f3c 6553 803c bd41 b23c
00000170: ef68 5a3d a486 22bd cf3b aa3b 5f35 e23c
00000180: 7bdf 5c3c 6be0 ea3c 6f79 063c b3c9 123d
00000190: de76 c53c cbee e13c def2 f23c a168 003c
000001a0: bedc ce3a d61d 1a3d 00c0 9a3b 8ebf 743d
000001b0: 0a20 653d b202 d33b 0e6b 6f3d 94ff 763c
000001c0: d058 5b3b bdeb 8dbb c48e 633d 1ef1 ccbb
000001d0: 57d1 763c ebc7 a93c c78b 543d 9244 673d
000001e0: 7ecc f43c ecdc f7bb 1537 673d 4836 743d
000001f0: 6b58 ce3c cfd1 fe3c 9ded b43a 9477 403d
00000200: f8df 483d 40ae 553d d465 3e39 f590 cb3c
00000210: 7fd8 183d 2d6a 0f3c d418 f6ba 3316 3fbc
00000220: 27a7 b83b ce09 a03c 429e 7d3d 3d4c 053d
00000230: 222a 593c e36d 313d 5285 273d 6bf7 713d
00000240: e7fd b33c 3bec 563d aef1 423d 709e 5e3d
00000250: 603e af3c e854 acbb dd3e cabb 6112 01bd
00000260: 6a1c b33c 27fa 90bc 128e 0bbc f347 a13b
00000270: edce 33bd 16f6 903c 2adb 483b c2c1 a3bc
00000280: 22c9 8bbc 0188 993b 799e 03bd 2106 c6bc
00000290: 4ba8 46bc d8d8 4ebd e7f9 cbbc dc4e 02bc
000002a0: 3746 c4bc 91a2 733c c01a 4c3c bd6c c23c
000002b0: b9e1 f83c c92b 7d38 aff9 d93c f18f 093c
000002c0: 8fcd 4f3b 4040 163d 85e4 df3c 5fb8 d7bc
000002d0: e31c d5bc 39a3 16bd 610b 873b 1cdc 8bba
000002e0: ce0c de3c 4f58 86bc 5f15 07bd 0f8f b2bc
000002f0: d339 0cbc f179 b9bb 1897 cf3c d1c8 57bc
00000300: bfed 1c3d aa0e dbbc be9b 9c3c 04d1 b63c
00000310: c2b9 7e3c 18af 2e3d 8040 0cbc 0169 b83c
00000320: 506f 223c af33 ce3c 7a4c 0e3d 4efd 733b
00000330: cec1 b8bc af8c 86bb ea37 bfbc fadf 103c
00000340: 6ff6 4f3b 983a c53c 1a50 6f3c c881 e8bc
00000350: ed75 1b3d ada9 d4bc 542a c03c 0e22 a7bb
00000360: aeda dc3b a89e d73c 35d0 0dbd 5903 afbc
00000370: 6a7e 1abd fadc 4a3c 6f5e 013d ad35 8c3a
00000380: 1a2b 773b 94ff 0d3b 9786 353d dbcb 833b
00000390: 5dd1 373d a7c5 a73b 37a1 1fbc d3a1 733c
000003a0: 1168 44bb 95a8 4e3d a605 aabb 7997 1c3d
000003b0: 8e77 903c d5f5 c23c 01ae e53c affd 083d
000003c0: b37d 15bb c723 8cbc a59b 9b3c 14a6 373d
000003d0: 0651 c33c 17e1 d83c b23a 933c 0e4e c33c
000003e0: 9467 ad3c 71b9 9b3c f50c 303c f54e 3fbd
000003f0: 7d27 f4bc f206 1bbd 4086 abbc 7e1d 9abc

conv7.bias f4 [32]
0.1480968 0.12713253 0.116926044 0.2347322 -0.05878357 0.20037594 0.11840735 -0.25641295
0.19480826 0.11499567 0.21911691 0.12187655 0.18983173 0.27476633 0.18814774 0.123297594
0.11437539 0.12337842 0.12727968 0.0053492934 0.05680719 0.085571 0.266478 0.08227229
0.16828509 0.12139175 -0.20624076 0.13745578 -0.24444012 0.07774421 0.16236202 0.04121189
00000000: b0a6 173e 082f 023e ec76 ef3d a35d 703e
00000010: 0ac7 70bd 5a2f 4d3e 8d7f f23d 8f48 83be
00000020: d17b 473e da82 eb3d 2f60 603e 6a9a f93d
00000030: 4063 423e 2cae 8c3e cda9 403e 7383 fc3d
00000040: a53d ea3d d3ad fc3d 9b55 023e 2049 af3b
00000050: a8ae 683d d93f af3d ce6f 883e 607e a83d
00000060: ed52 2c3e 3d9c f83d c730 53be 35c1 0c3e
00000070: 834e 7abe 5b38 9f3d 3b42 263e cccd 283d
