models/DQN_wb_kaggle0.3.pth (torch, 916528 bytes, 22 tensors)

conv1.weight f4 [32, 1, 5, 5]
000000 01 db 72 3f 1d bd 1b bf 71 ed ce be 05 b1 24 3e
       0.94865423 -0.6083544 -0.40415528 0.16083153
000010 4c 70 81 bf 82 a6 8e 3e 49 fb 17 bc 52 12 ea 3e
       -1.0112395 0.2786141 -0.00927622 0.45717102
000020 aa f3 49 be 37 46 17 bf df 68 65 3d ea aa 6b bf
       -0.19721857 -0.59091514 0.056008216 -0.9205767
000030 6c c6 89 bd 81 35 7a 3f ee 69 f0 be f7 05 24 be
       -0.06727299 0.9773789 -0.46955818 -0.160179
000040 e0 19 89 be 6e 2b 7f bc 76 24 00 bf d7 21 c1 bc
       -0.26777554 -0.015574319 -0.50055635 -0.023575706
000050 b1 58 3b 3d 35 66 ab bd f2 16 e7 3d 85 89 df bc
       0.04573888 -0.08369104 0.11283673 -0.027287254
000060 69 a7 d7 bc fb b9 f4 bd 52 74 b5 be e3 61 5f 3d
       -0.026324945 -0.119495355 -0.35440308 0.05453671
000070 67 cb 6c 3d dd 2d 54 3e f4 e5 20 3e 29 85 15 be
       0.057811167 0.2072062 0.1571272 -0.14601578
000080 b7 9b 29 bf 4a a3 cd bd c4 aa 38 3e f7 ac 88 bc
       -0.66253227 -0.100409105 0.18033892 -0.016684039
000090 ab 2c 6a be 18 dd c0 be 80 92 74 be 5f 26 52 3f
       -0.22868602 -0.3766868 -0.2388401 0.820898
0000a0 ba f6 b5 be 7f 3c 93 3e b2 cd 41 bf c7 de 78 3e
       -0.355398 0.28757092 -0.7570449 0.24303733
0000b0 f9 bb 21 bf 0b b2 2d bf de cb 9c 3e cd a7 1c 3d
       -0.6317745 -0.67849797 0.30624288 0.038245965
0000c0 9e 34 c5 3d 33 7f c8 be 80 62 43 3f e3 d5 6d 3e
       0.096291766 -0.39159545 0.76322174 0.23226123
0000d0 7b 64 c4 be 59 46 e5 be 08 b2 f4 3e c6 d9 9a be
       -0.3835791 -0.44780234 0.47792077 -0.30244273
0000e0 b7 c0 f5 be 3a c1 04 3d eb 53 7e 3e d2 08 8d 3e
       -0.47998592 0.032410838 0.248367 0.27545792
0000f0 ec 6c 91 be f3 00 b6 3e 47 b5 1b 3f dd 93 90 be
       -0.28403413 0.355476 0.6082348 -0.2823781
000100 b4 10 2f 3f c4 13 16 bf 06 ae b9 3d 2e 4e 41 3f
       0.6838486 -0.5862391 0.090663955 0.7550992
000110 40 71 28 bf be 08 01 bf a0 49 28 bf bd ce fa 3e
       -0.65797806 -0.50403965 -0.6573734 0.48985854
000120 16 a2 fa be ec 4a 70 3e 09 83 7a be 0e 27 29 bd
       -0.48951787 0.2346608 -0.24464048 -0.04129701
000130 28 7f c6 3e 03 46 b3 3d 6e 65 c6 bd 8e 78 ed 3d
       0.38768888 0.08753588 -0.09687315 0.115952596
000140 ee d5 b4 be 00 49 74 3f 6c c2 8f be 10 ce fd be
       -0.35319465 0.9542389 -0.2807802 -0.49571276
000150 ad 72 a7 bd 0f 10 2c bf 70 a2 1e bf d5 e6 30 3f
       -0.081761695 -0.67212003 -0.6196661 0.6910222
000160 59 3e 19 be 2c 4d 82 3f 10 74 89 bd 8a b6 42 be
       -0.1496519 1.0179801 -0.0671159 -0.19014946
000170 36 1e 24 bf f3 7f d0 be c8 c9 a8 3e 21 4e a2 bd
       -0.641086 -0.40722618 0.32966447 -0.07925058
000180 fb b1 0a 3f 66 dd b4 bd f8 2d 77 3e 01 35 32 bf
       0.54177827 -0.08831291 0.2413863 -0.6961213
000190 35 66 e2 be c9 55 66 3e 94 6a 63 3e 81 f6 d1 3e
       -0.44218603 0.22493662 0.22208625 0.4100838
0001a0 84 41 3c be 48 5b 99 3e 56 d4 82 3e 60 9b bb 3e
       -0.18384367 0.29952455 0.25552624 0.3664198
0001b0 63 c5 2e bf 09 c0 ba be c9 ca 69 be 13 43 61 be
       -0.6826994 -0.36474636 -0.22831263 -0.21998243
0001c0 be 52 70 bf be f9 c7 3e 91 5e ae be ba 81 ee be
       -0.93876255 0.39057726 -0.34056523 -0.4658335
0001d0 0d 73 82 be 4e 6a e2 3e 94 71 bc 3d 99 51 b3 bf
       -0.25478402 0.4422173 0.09201351 -1.4009277
0001e0 28 b9 4a bf 02 23 8f ba 91 84 5b bd 33 f2 72 be
       -0.79188776 -0.0010920467 -0.053593222 -0.23725204
0001f0 7a 26 b7 3e 9e 67 47 3e d7 41 0e 3e e0 68 25 3f
       0.35771543 0.1947312 0.13892303 0.6461315
000200 ce 51 72 be c1 6c 22 3f cf 18 6f 3f ad 7b cf bd
       -0.23664019 0.63447195 0.9339723 -0.10131011
000210 14 0e 80 be 93 2c fd 3e 31 e8 e6 3c 43 2b 5c bf
       -0.2501074 0.4944807 0.02818689 -0.8600351
000220 a7 cf ec 3e fb 5c 11 bf c3 d8 16 be 6c 7d 1a be
       0.46252176 -0.567825 -0.14731126 -0.15086907
000230 b9 57 e7 bc e0 35 23 bf 61 f5 14 3c 23 29 6e 3e
       -0.028240072 -0.6375408 0.009091706 0.2325788
000240 4b 7c ef bd 47 8e 9d 3e 60 25 b1 3e eb d2 e5 3e
       -0.11693629 0.30772611 0.34598827 0.4488748
000250 07 d4 b0 be 2e 99 93 bf 7a bd eb 3e d9 97 c7 be
       -0.34536764 -1.1531122 0.46042997 -0.38983038
000260 9c 32 bd 3e 65 59 73 be 7e 06 8f 3f dd ee 13 3f
       0.36952674 -0.2376457 1.1173856 0.5778635
000270 2c 49 96 be 04 c6 0e bf 34 18 6b be 64 a8 b3 3e
       -0.293527 -0.557709 -0.22958452 0.3508941
000280 74 9a 1c 3e 3b a8 5f bd 8e dc 1c 3f c3 63 71 3e
       0.15293294 -0.054603796 0.6127404 0.23573212
000290 69 d9 22 bf 81 1d b2 be 2e b5 d5 3e 97 c0 1f bf
       -0.6361299 -0.34788135 0.41739792 -0.62403244
0002a0 cf e8 1e bf 37 ba b1 3e eb a9 8d 3d 3c 5b 06 3f
       -0.6207399 0.34712383 0.06917175 0.5248296
0002b0 31 26 25 bf 78 71 f0 be 64 78 9d 3e 1e 73 0e be
       -0.645114 -0.4696157 0.30755913 -0.13911101
0002c0 00 11 c2 3e 02 4a da 3e 42 af 5b be f5 f1 06 3f
       0.37903595 0.42634588 -0.21453574 0.5271295
0002d0 ba b7 9f bf dc fc bf be 61 b8 14 3f 15 d4 41 bf
       -1.2477944 -0.37497604 0.5809384 -0.75714236
0002e0 1b c7 d3 bd 57 c9 74 3e 1b 5a fe be a0 99 aa 3e
       -0.10340711 0.2390493 -0.4967812 0.33320332
0002f0 19 07 7e bf 5c 83 35 bf 71 5a 31 be c9 35 d8 be
       -0.9922958 -0.70903563 -0.17319657 -0.42228535
000300 49 36 9a be c9 2d 16 be a2 35 99 3d 5f 7d 79 3e
       -0.3011954 -0.14665903 0.07480933 0.24364232
000310 8f 13 c9 be ac 5e dc be 1a 2a c3 3e df 28 db 3e
       -0.39272735 -0.4304098 0.38118058 0.4280462
000320 07 45 ce 3e 78 26 c8 be 5c d9 69 be e1 d2 9f be
       0.4028704 -0.3909185 -0.22836822 -0.31215575
000330 22 64 6e be 48 07 99 3e e7 2c 5b bf 22 8f 52 bf
       -0.23280385 0.29888368 -0.8561539 -0.82249653
000340 6d 42 c4 3e b5 80 7d 3e 64 07 a1 be ee 6f 64 3e
       0.3833193 0.24756129 -0.3145095 0.22308323
000350 ec b4 19 3d 46 66 27 bf 8f ce 45 3f b1 be 0b 3f
       0.037526056 -0.6539043 0.7726831 0.54587847
000360 03 c6 36 3e 6d 2a e7 bc 54 88 86 bd 0b 8d b1 bd
       0.17848973 -0.028218472 -0.06568971 -0.0866948
000370 5c 11 59 be e2 57 c4 3e 23 a3 fb 3a ea 15 6d bf
       -0.21198028 0.383483 0.0019198399 -0.92611563
000380 4e 97 16 bd 98 ec 2c bf e1 01 d0 be 68 f5 2b bf
       -0.03676539 -0.67548513 -0.40626433 -0.67171335
000390 ff 19 fc be 98 5c f8 3e 33 6e c8 3e 9b 5a 90 3d
       -0.49238583 0.48508143 0.39146575 0.070485316
0003a0 0c 34 fa be 30 33 53 3d 25 33 24 bf 58 04 08 bf
       -0.48867834 0.051562488 -0.6414054 -0.5313163
0003b0 72 98 b0 3e dd 28 1d 3f 0b 6a 68 bd 6c 89 e3 bd
       0.34491307 0.6139048 -0.056741755 -0.111101955
0003c0 91 7c 3f 3e 0b ed 92 3e 67 f6 c2 bd 4e 85 02 bf
       0.18699862 0.28696474 -0.09519654 -0.50984657
0003d0 ec 96 cb be d1 0a 39 3e 39 6a dc be 6b c2 c9 be
       -0.39763582 0.18070532 -0.4304979 -0.39406142
0003e0 ba 83 f7 bd 50 04 cb 3e 16 77 68 3e c2 3c 83 bd
       -0.12085672 0.39651728 0.22701678 -0.06408073
0003f0 2d fe 48 3e 1d a1 fd 3e 12 c0 a2 be 93 f4 d1 3d
       0.1962821 0.49536982 -0.31787163 0.10251727

conv1.bias f4 [32]
000000 a6 23 84 be 54 9b 10 bf 95 55 2e bf e0 91 e9 be
       -0.25808448 -0.5648701 -0.6809934 -0.45619106
000010 6b 9d ab 3e 74 79 5a be 2b 71 1f bf b1 dc c9 3e
       0.33518538 -0.21335393 -0.62282056 0.39426187
000020 94 53 1e bf e9 bf 08 bc 6b 39 34 bf 39 ea 62 bf
       -0.6184628 -0.008346536 -0.7040011 -0.88638645
000030 34 dd 4d bf 97 f3 ad be 94 aa c5 be ff 37 97 be
       -0.80415654 -0.33974907 -0.38606703 -0.2953491
000040 c9 27 1e bf 76 1f 98 be 95 09 d7 be 99 ec 34 be
       -0.6177946 -0.29711503 -0.41999498 -0.1766838
000050 82 39 9c be 08 67 31 3f 0e ac 9d be 22 3d f6 be
       -0.30512625 0.6929784 -0.3079533 -0.48093516
000060 aa c0 04 bf 11 49 c6 3e f1 7e 44 be 03 2e 0c bf
       -0.5185648 0.3872762 -0.1918905 -0.5475771
000070 6e 2f 24 be 1f e2 a6 be b3 9c 3d bf f4 e3 c6 be
       -0.16033718 -0.32594392 -0.7406723 -0.3884579

conv2.weight f4 [32, 32, 5, 5]
000000 ad 70 a8 3e 73 de 59 3e 03 9c 20 3e 68 0e af be
       0.32898465 0.21276264 0.15684514 -0.3419068
000010 0a 53 ed 3e f6 ca e7 be 85 20 01 bf 17 8f 47 3f
       0.46352416 -0.45272034 -0.50440246 0.7795271
000020 a7 91 fb 3e 9c 9c 9f bf ec ef fc be cf 73 e5 bd
       0.4913456 -1.2469668 -0.49401796 -0.11203729
000030 95 ce 79 3e c4 82 16 bf ad e8 80 3f eb 7a bd 3e
       0.24395211 -0.5879328 1.0071007 0.3700784
000040 73 2a 71 be ce e8 a0 3e 2e 8e c1 bd 7c de 0a bf
       -0.2355135 0.31427616 -0.09450947 -0.54245734
000050 81 00 26 3d cf 6b 02 3f 61 7d 06 bf 10 1a eb bd
       0.040527824 0.5094575 -0.52535063 -0.114795804
000060 e7 01 0e 3f c0 3d 8f be 1b f8 06 3f b5 8a e1 3e
       0.5547165 -0.279768 0.5272233 0.44051138
000070 ca 5d 0c 3e a0 f7 f5 be b7 13 de 3d fc 41 a2 3d
       0.13707653 -0.48040485 0.10843604 0.07922742
000080 d1 8d 00 3f 49 3b 02 3e 5c 1e d9 bd d2 a5 9a 3b
       0.50216395 0.12717928 -0.10601494 0.0047194744
000090 9a f0 c7 be 7b a8 54 bf c7 b0 e4 be 8e 5f 4b 3e
       -0.39050752 -0.8306958 -0.4466612 0.1986067
0000a0 d1 03 e1 bd a5 2c ab be fd 19 57 bf de 99 3d be
       -0.10987056 -0.334325 -0.8402403 -0.18515727
0000b0 28 ec d6 3e da 58 02 bf a1 36 83 3d 1a a9 d5 3e
       0.41977048 -0.50916827 0.06406904 0.41730577
0000c0 9b 43 02 3e 72 01 41 3f 90 79 47 bd ff 31 33 3f
       0.12721102 0.7539283 -0.048699915 0.69998163
0000d0 17 75 8d 3e 4a 36 79 3f 67 59 10 3f 82 d7 01 bf
       0.27628395 0.97348464 0.5638642 -0.50719464
0000e0 3a eb ce 3e 1c 25 10 3f f7 bf a7 be 6f 6a 92 bf
       0.4041384 0.56306624 -0.32763645 -1.1438731
0000f0 ce f1 ba bd 5d 76 f5 bd f5 21 39 3e cb bc 72 3e
       -0.09128152 -0.11985467 0.1807936 0.23704831
000100 12 8e 69 bf d1 47 e7 bd d7 15 be be 96 66 9c 3d
       -0.9123241 -0.11292995 -0.37126037 0.07636754
000110 3a c2 e4 3d 07 bd 30 3f 00 ce 8e bd 24 47 ac be
       0.11169858 0.6903843 -0.06972885 -0.33648026
000120 68 82 51 3e 5f 4f 39 3e 4e a4 1d 3d c0 68 99 3f
       0.20459902 0.18096684 0.03848677 1.1985092
000130 60 74 f5 3e f4 79 cc 3e 80 b6 44 bd 28 92 9c be
       0.4794035 0.39936793 -0.048025608 -0.30580258
000140 e9 8b 30 bf 7f 2f 2e 3e 03 47 c8 bd 62 29 b3 be
       -0.68963486 0.17010306 -0.097791694 -0.3499251
000150 24 ff aa 3e d1 c3 31 be 78 67 dd 3b f0 87 a1 bf
       0.33397782 -0.17359854 0.006756719 -1.261961
000160 60 fa 2c be f6 68 d8 3d f3 41 f7 be 86 aa af bd
       -0.16892385 0.10566895 -0.48292503 -0.08577447
000170 e5 85 98 bf 8a 27 60 3f ed 17 29 bf 67 cb 9c 3e
       -1.1915861 0.8756033 -0.6605213 0.30623934
000180 04 a0 fc bd 69 ed f3 be b2 82 21 bf e9 c0 9a 3e
       -0.12335208 -0.47642067 -0.6309005 0.30225304
000190 ab d8 fe bd 57 87 37 bd c4 46 c5 3d 94 3e cb bf
       -0.1244367 -0.044806805 0.09632638 -1.5878472
0001a0 fe 32 9a bd 13 74 da bd 9b 60 b4 be 60 56 8a bd
       -0.07529257 -0.10666671 -0.35229954 -0.06754756
0001b0 c5 0e 7c be 93 50 18 bf 5e df d6 be c1 ac 5c be
       -0.24615009 -0.59497947 -0.4196729 -0.21550275
0001c0 36 ef 58 be 3a c2 c6 3e 4b 56 ca 3e f8 1c d6 be
       -0.21185002 0.38820058 0.3951896 -0.41818976
0001d0 e0 3c 28 3e 36 f3 14 3f c6 22 db be 0d 6f 3a 3f
       0.16429472 0.5818361 -0.42799968 0.728257
0001e0 0d 65 04 bd 9f 07 1a be e0 5e b3 be 87 95 a8 3e
       -0.032322932 -0.1504197 -0.3503332 0.3292658
0001f0 ef 47 13 bf 53 44 13 bf 95 72 88 3e 47 2a 42 3d
       -0.57531637 -0.5752613 0.2664992 0.0474036
000200 f6 dc b6 3c 5a 84 25 bf 2b ae 99 bd 74 ef 15 3f
       0.02232216 -0.6465508 -0.07503923 0.585685
000210 a0 c6 44 3f 64 60 7a be ec 3f 91 be 46 2c f3 be
       0.7686558 -0.24450833 -0.2836908 -0.47494715
000220 b6 df 34 be dc e6 8f bc 04 4b 28 3e 6a 08 d3 bd
       -0.17663464 -0.017566137 0.16434866 -0.10304339
000230 1a 45 d8 be b0 66 63 3d a5 03 db be eb 67 3a bf
       -0.4224022 0.055517852 -0.42776218 -0.72814816
000240 66 d2 ac 3e c0 92 31 bd df 15 35 be 12 73 a3 3e
       0.3375427 -0.043352842 -0.17684124 0.3192373
000250 7f 29 74 3e 68 ea 13 bf 2d e9 29 bd f0 5d 8b be
       0.23843955 -0.5777955 -0.04148214 -0.27220106
000260 8e cc 3b 3e 25 93 52 be e2 45 93 3e fa c5 c3 be
       0.1833975 -0.20563944 0.28764254 -0.38236982
000270 95 19 d6 be 10 b7 a0 3e eb 49 3b 3e 85 e6 1d bf
       -0.41816393 0.31389666 0.18289916 -0.6167987
000280 72 56 09 3f 04 b1 81 3d 52 cb 43 3e 3a 26 14 bf
       0.5364753 0.06332591 0.1912053 -0.5787083
000290 11 e8 0c be 10 28 4f 3e 82 1e 31 3e 26 ef fb be
       -0.13760401 0.20230126 0.17296794 -0.49205893
0002a0 2b c5 8e bb 16 b0 88 be b4 96 46 bf 63 dd 2e 3f
       -0.0043570003 -0.26696843 -0.77573705 0.6830656
0002b0 a5 81 86 3d 1b 67 5a bf 8d bb 5d be 0b ba 1e bf
       0.065676965 -0.85313576 -0.21653576 -0.6200263
0002c0 b2 14 64 bf 03 86 90 bf 88 9e c4 be e8 07 a2 be
       -0.8909408 -1.1290897 -0.384022 -0.31646657
0002d0 5a 3b 69 bf 3e a4 bc bd 12 f0 d6 be 0f 66 3b 3f
       -0.9110619 -0.09211014 -0.41980034 0.73202604
0002e0 fc 18 9f 3e e9 0b 69 bf 37 00 c9 be 09 03 c9 3e
       0.3107375 -0.910338 -0.39257976 0.39260128
0002f0 cc 81 2e 3f a6 25 9b 3d d1 f2 39 bd cf 69 1e bf
       0.68166804 0.0757554 -0.045397583 -0.618802
000300 45 bc 20 3f 4c c7 98 bd dc 1c 55 3f 98 73 b6 3e
       0.62787277 -0.07459888 0.8324716 0.35635066
000310 58 46 bf be 08 d5 16 3f d0 58 24 3f d6 0e eb 3d
       -0.37358356 0.5891881 0.6419802 0.11477439
000320 8a 31 41 3e da 66 0a 3f 70 cb bc bc 7a a1 c0 3e
       0.18866554 0.5406319 -0.023046225 0.37623197
000330 1b 6a 55 3e 34 27 da bc b3 3a e8 3d 16 50 1c be
       0.20841257 -0.026630022 0.11339321 -0.15264925
000340 41 fd 28 bf d6 d6 fe 3d 48 0a 85 3d 3d 18 79 bd
       -0.66011435 0.124433205 0.064961016 -0.06081413
000350 97 48 07 3f e3 3b d2 3e 8c 46 80 bf 23 c4 a7 3e
       0.5284514 0.41061315 -1.0021529 0.32766828
000360 08 e1 11 3f 9e dc 30 3f aa b9 09 bf 48 de 1b 3e
       0.56983995 0.69086635 -0.53798926 0.15221512
000370 92 8c b7 be f0 1e cd be a5 27 b2 be a7 e1 e6 bd
       -0.35849434 -0.40062666 -0.3479587 -0.112735085
000380 e1 fe d5 3d f9 c4 c6 be ea 17 13 3d c9 9f ab be
       0.10449005 -0.38822153 0.035911478 -0.33520344
000390 03 6c 0c bf aa 7d 95 3d 26 a9 33 3e fb 4a b1 bb
       -0.5485231 0.07299359 0.17544994 -0.0054105497
0003a0 59 ad 45 3f 34 6f 2a be 94 58 a0 3e 61 1f a0 bf
       0.7721763 -0.16643983 0.3131758 -1.2509576
0003b0 ad 42 22 ba b5 47 30 3e 08 7d 83 3e d1 3e 91 3e
       -0.0006189745 0.17214854 0.2568133 0.28368238
0003c0 8b 0a 49 be d1 b5 89 be c0 a3 4b 3f 43 1b c0 be
       -0.19632928 -0.26896527 0.7954674 -0.375208
0003d0 4c 24 2a 3e 55 49 92 be 16 dc f0 3d 96 ac e3 be
       0.16615409 -0.28571573 0.11760728 -0.4446761
0003e0 2a fd c9 be f7 c5 b8 be 23 dd d7 be 4d f4 46 be
       -0.3945096 -0.36088535 -0.421609 -0.19429131
0003f0 e6 50 b7 bd d3 68 08 3f b7 16 18 bf 45 23 d0 3e
       -0.08950977 0.5328495 -0.5940966 0.4065191

conv2.bias f4 [32]
000000 b1 63 8f be 33 6f 5d be c6 16 df 3d e5 99 8c be
       -0.28005746 -0.2162445 0.108930156 -0.27461162
000010 92 b2 d5 be a7 8a bb be 53 1e 20 be af e7 14 bf
       -0.417378 -0.3662922 -0.15636568 -0.5816602
000020 40 8b 5d be d4 c4 28 be b9 f7 f2 be 85 46 f9 bd
       -0.21635151 -0.16481334 -0.47454622 -0.12171654
000030 26 36 50 bc d7 26 3b be d5 80 be be d2 7f a8 be
       -0.0127082225 -0.18276535 -0.37207666 -0.3291002
000040 b8 2c 2a bf 69 ea 01 bf 60 09 bb be 5a 09 1f be
       -0.66474485 -0.50748307 -0.3653059 -0.15530911
000050 ab 22 9d be 87 7f 04 bf 24 13 93 be 87 d6 30 be
       -0.30690512 -0.5175709 -0.2872554 -0.17269336
000060 38 c7 9b be c5 f4 d1 be f7 3d 26 be 08 53 ac be
       -0.3042543 -0.41007057 -0.16234575 -0.33657098
000070 9a 7c 43 3d a4 c2 95 bc fe eb 64 be 62 c1 f7 bd
       0.04772625 -0.018281288 -0.22355649 -0.12097432

conv3.weight f4 [32, 32, 5, 5]
000000 a3 81 e0 be 85 8d e1 be 40 e5 35 3f 56 8a b7 3e
       -0.43848905 -0.44053283 0.7105293 0.3584773
000010 4a a2 14 3f b9 90 ca 3e 7f 28 b6 be 3d b5 2e bf
       0.58060133 0.3956354 -0.3557777 -0.682453
000020 7c 6c 12 be 4a f9 51 bf e1 25 9c ba 5d 87 88 3f
       -0.14299196 -0.8202101 -0.0011913144 1.066631
000030 46 14 4f bf 96 18 17 3f 58 93 46 3e 06 eb f4 3d
       -0.8089031 0.5902189 0.19392145 0.1195889
000040 08 03 4f be eb 1d 3b 3e ab e4 0c 3f 4e f1 d3 be
       -0.20216 0.18273132 0.5503642 -0.41395038
000050 48 11 51 be 3d 7b e0 be 52 d7 8f be d6 96 56 3e
       -0.20416749 -0.43844023 -0.28093964 0.20955977
000060 c5 52 f9 3e df bb 45 bf 26 d4 8b 3e cb 6c 20 3e
       0.4869596 -0.77239794 0.27310294 0.15666501
000070 9f b0 20 3e 96 43 59 3e 0e b4 01 3f f1 f3 b3 be
       0.15692376 0.21217188 0.50665367 -0.3514705
000080 43 16 84 3e 9c 07 b6 3e a6 c6 78 be 05 ff a3 be
       0.25798234 0.3555268 -0.24294528 -0.32030502
000090 7e 9f a4 bf 01 5b 16 3d 0a aa 91 be 4a 22 34 be
       -1.2861173 0.03670788 -0.28450042 -0.17591205
0000a0 bc 0e 0c 3f bc 4c 0d bf 11 bb 5e 3e a2 91 94 bd
       0.5470998 -0.5519521 0.21751048 -0.0725434
0000b0 37 26 9d be c6 96 a8 be 75 ad 75 bf 72 96 77 3e
       -0.30693218 -0.3292753 -0.959678 0.24178484
0000c0 7c c2 b9 3e 2f ca 25 3f 28 63 26 3e 34 8c 6f bf
       0.36281192 0.6476163 0.16248763 -0.9357331
0000d0 d2 5e 81 bf 3d f6 ce 3e ff 14 a3 bf 00 55 62 bf
       -1.0107062 0.4042224 -1.2740782 -0.8841095
0000e0 81 8c f2 be 50 0a 0a be 6c 88 53 bf a2 74 3d 3e
       -0.4737282 -0.13480496 -0.8263004 0.18501523
0000f0 e2 a0 f3 bd 43 7a 07 bf 48 08 aa be d7 33 a9 3d
       -0.1189592 -0.5292093 -0.33209443 0.08261841
000100 79 ea 0f bf 39 00 06 bf 5b fb 29 3f dd 56 9a 3d
       -0.5621715 -0.5234409 0.66399163 0.07536099
000110 57 bb 67 3f 83 f2 55 bf 44 80 6e bf 68 49 20 bf
       0.9052023 -0.8357317 -0.9316447 -0.6261201
000120 ae aa 96 3e cb 55 66 bf 5d a2 35 3f 09 d1 b4 be
       0.29427093 -0.8997466 0.7095087 -0.3531573
000130 51 55 bc 3e 78 c1 f1 3d f4 96 a1 3e 91 55 b0 bd
       0.3678384 0.11804479 0.3156048 -0.086100705
000140 5d c4 56 3f 80 2e 7a 3d dd 0a 99 be 29 ef 0e bf
       0.83893377 0.061079502 -0.298911 -0.5583368
000150 41 1d 01 bd 43 23 3c 3e 92 26 a5 bc cd a5 f7 3e
       -0.03152204 0.18372826 -0.020159993 0.48368683
000160 42 7a 7d be f3 9b c6 bd 3f 70 83 be 3c 0f e4 3e
       -0.24753669 -0.09697714 -0.25671574 0.44542873
000170 9c 36 41 be d7 0e 91 bd e5 7d 72 be 37 39 94 be
       -0.18868488 -0.070829086 -0.23680837 -0.289499
000180 aa 6c 27 3e bb 13 80 be 24 23 27 3f 2c 0b ca 3c
       0.16350046 -0.25015053 0.65287995 0.02466353
000190 b7 a3 dc 3e 68 7e 50 3e 88 90 56 3f 45 c2 14 bf
       0.43093655 0.2036072 0.8381429 -0.5810893
0001a0 08 e3 1a 3e 5e 23 0a bf 8e fb 81 be 4e bc 1d be
       0.15125668 -0.53960216 -0.25387233 -0.15403864
0001b0 ee be b1 be ff e1 8d be d1 bd 58 be 6c f1 45 3f
       -0.3471598 -0.27711484 -0.21166159 0.77321506
0001c0 53 97 27 3f 1e 3e a2 be 24 92 e3 be 6a 13 e9 3e
       0.6546528 -0.31688017 -0.44447434 0.45522624
0001d0 83 3a 3b 3e 68 64 0d 3f fd b9 41 3e 7d 8f 79 3e
       0.18284039 0.5523133 0.18918605 0.24371143
0001e0 cd 31 3b 3e 4b 10 61 3d 22 63 fb be e9 ec b1 be
       0.18280716 0.05494718 -0.4909907 -0.3475106
0001f0 86 3e 0b 3e 94 d7 7b bf 84 d3 8a bc 0c f3 c3 3e
       0.1359807 -0.9837582 -0.016946562 0.38271368
000200 af f5 c4 be 81 94 a9 bc b9 fc 86 be 85 2a 82 be
       -0.38468692 -0.020700695 -0.26364687 -0.25423065
000210 f4 80 8c 3d f6 de 5f be 3e 76 e6 be 8b 18 25 3c
       0.06860533 -0.21862397 -0.45012087 0.010076652
000220 3c 14 53 bf e2 a8 cb 3e 20 fe 99 be b0 fd c9 be
       -0.8245275 0.39777285 -0.30076694 -0.3945136
000230 d2 89 e6 bc a1 72 e3 be b0 02 8e be f4 67 f1 be
       -0.02814189 -0.44423392 -0.27736425 -0.47149622
000240 57 2a 81 3e f2 4a 79 3d 61 c0 8b 3e 0a 95 25 be
       0.25227615 0.06086249 0.2729521 -0.16170135
000250 1f ca 58 bd 80 2a fe be 4a a4 86 bf 79 0a 4b 3e
       -0.052927133 -0.496418 -1.0518887 0.19828214
000260 96 45 f3 bc 47 47 d4 3e 44 22 83 3e eb db bd be
       -0.029696267 0.4146063 0.2561208 -0.37081847
000270 32 ab 81 3f 6a e1 7e 3f 5a d7 27 3f 75 b4 97 3d
       1.013037 0.99562705 0.65562975 0.07407466
000280 89 fd d3 bd 7a ff a1 be a7 39 4b 3e ca 0d f3 3d
       -0.10351092 -0.31640226 0.19846211 0.118678644
000290 23 69 f1 3c 65 4b f6 be d9 20 1e bf 3b 69 af bd
       0.029469078 -0.48104396 -0.6176887 -0.08564993
0002a0 e9 ad 03 3f c6 a4 9d 3e 3e 23 cf bd 23 9f 46 3f
       0.5143724 0.30789775 -0.10114144 0.77586573
0002b0 5d 1d 0b be 0e 96 25 be 06 b1 69 3f d3 1e d6 3e
       -0.1358542 -0.16170523 0.9128574 0.41820392
0002c0 fa eb 74 3f d4 ee 44 be 4b 43 55 bf fd 17 1c bf
       0.9567257 -0.1923173 -0.83305806 -0.60974103
0002d0 10 a1 b6 3e 4d 83 1c bf c8 c7 38 be 45 14 76 3e
       0.35669756 -0.6113785 -0.1804496 0.2403117
0002e0 73 30 e5 3e cb 59 05 3f 2d fc 79 3d bc a8 e2 3e
       0.44763526 0.5209014 0.06103151 0.4426936
0002f0 c8 0b 1d bf f8 de 26 be 38 ab 8f be 91 86 81 bf
       -0.613461 -0.16295993 -0.28060317 -1.0119191
000300 98 a1 ae 3e 9f b8 98 3e 62 54 7b 3f b7 63 24 bf
       0.3410766 0.29828355 0.9817563 -0.6421465
000310 10 5d 63 3e 3b 40 61 3e 10 44 bb be b2 98 60 bf
       0.2220347 0.21997158 -0.36575365 -0.87732995
000320 75 39 a8 be 2e 18 8b be 48 ff c0 3e 0e 57 d0 be
       -0.32856336 -0.27166885 0.37694764 -0.40691417
000330 54 9b 4b 3d b5 98 b2 3e 9d 17 84 3c 8c c7 97 3e
       0.04970868 0.3488213 0.016124541 0.2964443
000340 8b b5 3c be 3e 2a f5 be ed f3 56 3d fa 79 ef be
       -0.18428628 -0.4788379 0.05247872 -0.46772748
000350 e7 b1 19 bf ba 3a 44 3f a0 79 14 3f 95 b5 ac be
       -0.6003708 0.7665211 0.57998085 -0.33732286
000360 f1 9d 02 bd e5 16 b9 bd b1 6c 25 bf 45 e3 ae 3e
       -0.031888906 -0.0903757 -0.64618975 0.34157768
000370 82 ea 1f bf 57 65 1e 3f e7 84 b2 be 1d af a3 bf
       -0.62467206 0.6187338 -0.3486702 -1.2787815
000380 1d f0 8c bc c3 10 f9 be 1f c3 ec 3e ce 82 29 3f
       -0.017204339 -0.486456 0.46242616 0.6621522
000390 44 84 fd be 61 00 1c bd d3 6f 66 3c 08 05 bf 3e
       -0.49514973 -0.0380863 0.014064747 0.37308526
0003a0 da ea de be c4 ee 05 3f a3 88 64 3e d5 8a c5 3d
       -0.43538553 0.5231745 0.22317748 0.09645621
0003b0 c4 01 a0 be 81 12 5c bd 6a 5f 55 bf e4 4d 29 bf
       -0.31251347 -0.053728584 -0.83348715 -0.66134477
0003c0 83 1b 81 be 3e 54 29 3f 3b 37 97 be a2 4b ab 3e
       -0.25216302 0.6614417 -0.29534325 0.3345614
0003d0 90 5f 13 3f b4 eb 08 bf 2b bf 14 bf f6 ba e3 3e
       0.5756769 -0.53484654 -0.581042 0.44478577
0003e0 4b e1 38 bf 77 15 5d 3d 69 8b 63 be 0c e3 99 be
       -0.7221877 0.05397555 -0.2222115 -0.30056036
0003f0 a6 a9 0a bf c6 95 57 be 66 e1 7f 3e 4d 0a 36 bf
       -0.5416511 -0.21053228 0.24988326 -0.7110947

conv3.bias f4 [32]
000000 13 bb fd be 12 85 d6 be 68 75 0e bd 58 a8 0b bf
       -0.4955679 -0.418984 -0.034779936 -0.5455375
000010 c5 9e 6d bf be b1 9a be d5 1c 1c bf 7e 24 4d bf
       -0.9282039 -0.30213732 -0.60981494 -0.8013381
000020 44 a5 4f bf 6b 98 71 bf 5e f2 ee be 66 43 1f bf
       -0.8111155 -0.94373196 -0.46669286 -0.62212217
000030 df 4d 3b bf ca 47 15 bf b0 9d f7 be b1 56 da be
       -0.73165697 -0.58312666 -0.48362494 -0.42644265
000040 f1 22 35 bf 68 6e 2f bf a9 82 99 be ba 47 ef be
       -0.7075644 -0.6852784 -0.29982498 -0.4673441
000050 7f c2 cc be 5c 1c aa be 82 a0 0a bf 70 a0 ca be
       -0.3999214 -0.3322476 -0.54151165 -0.3957553
000060 19 4b 43 bf 1b 6e b4 bf 79 cb 0c bf 55 b6 45 bf
       -0.76286465 -1.4096102 -0.54997975 -0.7723134
000070 24 8d 20 bf a8 70 c9 be 35 6e 4a bf 26 89 28 bf
       -0.62715364 -0.39343762 -0.7907441 -0.6583427

conv4.weight f4 [32, 32, 5, 5]
000000 94 9d 98 bc 09 85 ea 3d d9 41 43 be df 00 16 bf
       -0.018629827 0.11451156 -0.19068088 -0.5859508
000010 96 6a be 3e 3d 73 b8 3e 1c dd 9a 3e c4 0b 16 bf
       0.37190694 0.3602542 0.30246818 -0.586117
000020 4c e8 e5 be ca 4f 53 3e ca 68 c9 3d a9 42 08 be
       -0.4490379 0.20635906 0.0983444 -0.13306679
000030 a6 9b d8 3e 8f cb 91 be 0a 84 50 be 5e cf a8 bd
       0.4230625 -0.28475615 -0.20362869 -0.08242677
000040 e0 ae 46 be eb 14 b9 3e 98 8b 02 3f 06 01 d9 be
       -0.19402647 0.36148772 0.50994253 -0.42383593
000050 e2 0e 83 3e 4b fe bb 3c 9f 91 b2 3e 95 52 03 bf
       0.25597292 0.022948405 0.34876725 -0.51297885
000060 6d 93 e5 3d ef c0 f5 bd 17 f8 8f 3b 47 80 2f 3e
       0.1120976 -0.1199969 0.0043935883 0.17138778
000070 5d 15 b8 3c 7f 3e 5f be 9b 16 8b 3c d0 d4 0d 3f
       0.022471124 -0.21801184 0.016978553 0.5540285
000080 2c 1a 3f 3e 63 60 8f bc 61 e9 ad 3d e2 0c 72 bf
       0.18662328 -0.017502015 0.08491779 -0.9455091
000090 cf 1b ba be f9 15 21 3f af ee 6b bd 56 00 4f bf
       -0.3634934 0.6292415 -0.057600673 -0.8085989
0000a0 30 63 10 be 03 1b 15 3f b2 e7 ec 3d 7d 3f b2 3e
       -0.14100337 0.5824434 0.1156763 0.34814063
0000b0 42 95 ca be da fb a0 3e 49 8d 89 3e da cf 20 bf
       -0.39567 0.31442147 0.26865605 -0.62817156
0000c0 81 2f a4 3e f2 74 84 bf c4 6f 42 3e 62 61 bc be
       0.32067493 -1.0348189 0.18987948 -0.36793047
0000d0 2b e4 bc be 6c a8 ea be 98 53 33 be 7e a4 57 be
       -0.36892828 -0.4583162 -0.17512357 -0.21058843
0000e0 51 87 81 bf 43 96 8d 3d 18 8d 68 3e d4 1b 03 3e
       -1.011942 0.06913426 0.22710073 0.12803584
0000f0 b0 1b 3a 3f 29 74 13 bf 72 db e9 3e c7 e2 05 bf
       0.726985 -0.5759912 0.45675236 -0.5229916
000100 3b 59 fa 3e 91 77 9b be 7d 27 ec 3e f3 29 0f 3f
       0.48896202 -0.3036466 0.46123877 0.55923384
000110 e8 e4 5d be bb 56 e0 3a 85 30 7e be 84 17 a4 3e
       -0.21669352 0.0017115691 -0.24823196 0.3204919
000120 12 81 2f 3e 1e e6 a9 3d 75 69 99 bc 6a 8a 98 bf
       0.1713908 0.082958445 -0.018727044 -1.1917241
000130 22 7a 35 bf a6 02 7a bf c8 10 4c 3e 57 92 75 3e
       -0.70889485 -0.9766029 0.19928277 0.23981605
000140 19 8c c6 be 3e 95 ec 3d 2a fc 2a bf ec d1 05 bf
       -0.3877876 0.11551903 -0.6679102 -0.5227344
000150 58 6b cc be c6 e6 a0 3f 31 37 ff 3e 52 72 be be
       -0.39925647 1.2570426 0.49846795 -0.37196594
000160 3d 83 f4 3e ad 8b 18 3f 6a 93 75 be 81 34 c0 3e
       0.47756377 0.5958813 -0.23982015 0.37540057
000170 6b 54 5c bd c7 00 11 bc 57 21 e2 3e 4b 28 db be
       -0.053791445 -0.008850283 0.4416606 -0.4280418
000180 9a 42 22 3e 18 84 0e bf 00 e5 58 bf 05 c7 ec bd
       0.15845719 -0.5567031 -0.84724426 -0.115613975
000190 78 dd 92 3f 53 b3 b1 be b1 a8 a2 be 4c d4 9c be
       1.1473837 -0.34707126 -0.31769326 -0.3063072
0001a0 2c a1 13 be f2 8c d9 bd 31 6a 94 be 97 3e de bd
       -0.14416951 -0.10622586 -0.28987268 -0.10851782
0001b0 3c 58 09 3e 76 46 86 3d 55 01 c4 be 83 6a e9 3e
       0.13412565 0.06556408 -0.38282266 0.45589074
0001c0 53 68 72 3f df 96 ed be 83 af 01 bf e7 dc 8c 3c
       0.94690436 -0.46404168 -0.50658435 0.017195178
0001d0 74 e4 e0 3e 5d a1 94 3e 72 09 52 bf c8 66 1b 3d
       0.43924296 0.2902936 -0.8204566 0.037939817
0001e0 af 33 e1 be c7 21 db 3e 37 b9 9f 3e ef 48 36 be
       -0.43984744 0.42799208 0.31195995 -0.1780126
0001f0 1a 5d 98 bf 95 29 1b be 71 f3 8a bd 1f 3b 8e 3e
       -1.1903412 -0.15152581 -0.06784714 0.2777948
000200 a5 db c3 be 9d 35 39 be 3b 76 08 bf 66 19 0c 3e
       -0.38253513 -0.18086858 -0.53305405 0.13681564
000210 c8 39 96 be 14 bd 9f bd 61 bf 21 3e 78 b3 b6 be
       -0.2934096 -0.07799736 0.15795662 -0.356838
000220 8c 9b 4a 3e 0d 69 99 3d 9c 24 b7 3e 37 04 1e be
       0.19785899 0.0749074 0.35770118 -0.15431295
000230 4a 6d 01 3f e8 a1 ec be c3 3e f9 bd 4b b1 27 be
       0.50557387 -0.46217275 -0.12170174 -0.16376226
000240 bf dc 33 3f cf 3c 8d bf 8a 77 3f bf b1 80 8b be
       0.70258707 -1.1034182 -0.7479178 -0.2724662
000250 39 a5 0e bf 16 e1 5d 3f fa b8 61 bf e1 17 a6 3e
       -0.5572086 0.8667158 -0.88172877 0.32440093
000260 56 be d9 3e 3b 86 37 be 0d 34 d7 3e 19 cd d1 be
       0.42528027 -0.17922299 0.420319 -0.4097679
000270 51 a0 8f 3e 12 30 1f 3e 60 19 02 3e cb f1 20 bd
       0.28052 0.15545681 0.12704992 -0.03929309
000280 d9 96 85 be 4b 45 54 bf c3 cb d8 be 51 34 47 bd
       -0.2609165 -0.8291823 -0.42342958 -0.048633877
000290 9d 5c 4b be bc 09 7e 3f fb 80 4a bf 29 7b b1 be
       -0.19859548 0.99233603 -0.7910306 -0.34664276
0002a0 6d 77 24 be 70 bf 05 3f 4e 03 77 3f e6 c3 6e be
       -0.16061182 0.52245235 0.9648942 -0.23316917
0002b0 bd 9d 1c be 44 a4 52 3d cd 71 2d 3e 8c fa d1 be
       -0.15294547 0.051426187 0.16937943 -0.41011465
0002c0 46 24 05 3f 06 1e 85 3e 95 59 64 be 46 20 01 bf
       0.52008474 0.2599947 -0.22299798 -0.5043987
0002d0 94 96 7a be fe 38 d5 be fc 5a 89 bd 89 b9 b8 3d
       -0.24471503 -0.41645044 -0.06706807 0.09019763
0002e0 77 88 ba 3d f9 6a c1 bd 5e 69 0f bf 10 38 4a bf
       0.0910806 -0.094442315 -0.5602015 -0.78991795
0002f0 01 db 8e be f0 b0 05 bf bc c0 32 3f c7 f5 38 bf
       -0.27901462 -0.5222311 0.6982534 -0.72250026
000300 d3 21 3e 3e 2d 1e 37 3e 4b 4d 4e 3d af a6 3b be
       0.1856759 0.17882605 0.05036668 -0.18325303
000310 d7 70 af 3d dd 77 2a bf 74 89 35 bf e9 63 12 bc
       0.08566444 -0.66589147 -0.7091286 -0.008934953
000320 bd 51 20 be bb 7c 31 3f 09 d0 08 bf eb 9f 0b bd
       -0.1565618 0.6933095 -0.53442436 -0.034088057
000330 d9 f3 cd bf 74 a0 88 be a6 39 98 be 55 60 b5 3e
       -1.6090041 -0.26684916 -0.29731482 0.35425058
000340 cb ad 33 3e ea 76 8a be 2b 62 38 3f d5 d6 c8 3d
       0.17546766 -0.2704385 0.7202479 0.09806601
000350 b7 a1 10 bf 86 87 e6 3d fd 0e ab be 24 2b ed be
       -0.5649676 0.11256318 -0.33409873 -0.46321976
000360 2b 62 a3 3e 18 4c e7 be cf 76 9f bf 9c fe 9a bd
       0.31910834 -0.45175242 -1.2458133 -0.07568094
000370 a3 bf 11 be 88 44 9a 3e ae a2 81 bf 40 a7 09 bf
       -0.1423326 0.3013041 -1.0127771 -0.5377083
000380 4a ef 11 bf 1e 12 27 3e 07 95 1e be d4 4b a4 be
       -0.5700575 0.16315505 -0.15486537 -0.32089102
000390 a6 07 b5 bd e8 6c 34 bc 87 2a 3d 3e a2 39 1a 3e
       -0.088393494 -0.011012293 0.18473254 0.15061048
0003a0 1e 67 12 bf a0 c2 96 3b c9 b3 b2 bd fc ed 35 bf
       -0.57188594 0.004600838 -0.087256975 -0.7106626
0003b0 c2 a1 d0 be a7 a5 96 be 4c 46 ea 3d 54 c8 ec 3e
       -0.4074841 -0.29423258 0.11439189 0.46246588
0003c0 21 8a 0f bf 3b 2a 7f be d5 96 43 bf 16 95 a1 be
       -0.56070143 -0.24918453 -0.76402026 -0.31559056
0003d0 8d 47 ff 3e 29 0f 5b bf d5 1a 0d bf 93 0b 21 bf
       0.49859276 -0.8557001 -0.5511907 -0.62908286
0003e0 65 0d 10 3f 03 63 22 bf 27 8a 3f bf 41 83 8a bf
       0.5627044 -0.6343233 -0.7482018 -1.0821306
0003f0 6d c7 33 3e ef f7 60 bf b8 f1 85 3e be a0 a6 3e
       0.17556544 -0.87878317 0.2616098 0.32544512

conv4.bias f4 [32]
000000 85 a7 9c 3e 37 ff 65 3e 30 70 b1 be 10 e7 0e bf
       0.30596557 0.22460638 -0.34655905 -0.55821323
000010 d7 5b 80 bf 34 95 c6 be 0a 4f 29 3d fb 67 c2 be
       -1.0028027 -0.38785708 0.041335143 -0.37969956
000020 de d9 1d bf 53 ec 72 bd d4 24 93 bd 10 ab df be
       -0.61660564 -0.059307408 -0.07184759 -0.43685198
000030 08 66 1b bf 16 84 ef be fc f1 1c 3e 82 76 98 bf
       -0.6070256 -0.4678046 0.15326685 -1.1911166
000040 86 75 18 3f e1 93 a7 be 85 f7 f2 bd 42 43 dd be
       0.59554327 -0.3273001 -0.11863617 -0.43215376
000050 24 28 a2 be 40 dc 0d bf dc e9 3e 3e 1a 7f d8 be
       -0.3167125 -0.554142 0.18643898 -0.4228447
000060 8f 78 f6 3d 4c 61 56 be 09 cf 1b bf bc c7 33 bf
       0.120347135 -0.20935553 -0.60862786 -0.70226645
000070 d3 42 92 be 31 64 c6 be 3c 51 27 bf bb 98 0d bf
       -0.28566608 -0.38748315 -0.6535833 -0.55311173

conv5.weight f4 [32, 32, 5, 5]
000000 f6 3e 0d be 8d 68 07 3f 1f 40 eb 3c f9 de 8c be
       -0.13793549 0.52893907 0.028717099 -0.27513865
000010 e9 4a 98 bf 92 f7 18 be 43 24 a1 3e e6 22 bd 3e
       -1.1897861 -0.1493819 0.31472978 0.36940688
000020 43 96 6b bd 49 95 14 bf 35 6c ad 3d 08 94 bc be
       -0.057516348 -0.5804029 0.084679045 -0.3683169
000030 54 d5 61 be a0 0b ae 3e b6 d6 13 bf 37 34 11 3f
       -0.22054034 0.33993244 -0.577495 0.567203
000040 e5 8e 7d 3f 76 40 3b be 8a b0 ba 3d 52 dd 0a 3c
       0.99046165 -0.18286309 0.091157034 0.008475618
000050 65 76 db 3e 7e c4 ed bd 53 0b 4e 3e ec c3 02 3f
       0.42863765 -0.116097435 0.20121507 0.51080203
000060 1b 68 66 be 1f 42 e2 bf 95 5a e5 3e 20 a5 11 3e
       -0.2250065 -1.7676429 0.4479567 0.14223146
000070 0c 17 27 bf 30 81 96 3c c6 8c d8 3e d8 08 06 be
       -0.6526954 0.018372148 0.42294902 -0.13089311
000080 ec 54 8e be 02 d0 eb 3e 3a 7a 99 be cd de 3b 3f
       -0.27799165 0.46057135 -0.29976064 0.7338684
000090 e0 6a 58 3e ac e8 a2 bd 7a 99 29 3e d8 1c 05 bf
       0.2113452 -0.07954535 0.16562453 -0.5199714
0000a0 dc 35 d4 bd 04 61 26 3e 73 d6 2e 3c fa e8 a2 3e
       -0.10361835 0.16247946 0.010671246 0.31818372
0000b0 f5 2f a1 be af 1a ee be 77 76 14 bf 4f 28 bd be
       -0.314819 -0.46504733 -0.57993263 -0.36944816
0000c0 5a 7f af be ed b8 99 bf f5 e0 c5 3e 7c 6c 57 3e
       -0.3427685 -1.200956 0.3864819 0.21037477
0000d0 03 b6 e4 3d ee cc b3 bd c5 66 21 bf c3 9b d7 3e
       0.111675285 -0.087793216 -0.6304744 0.42111024
0000e0 04 08 b2 3d fd 83 e2 3e 29 96 64 bf 1d a3 90 3e
       0.08692935 0.44241324 -0.89291626 0.28249446
0000f0 a6 6c 07 bf 30 3a c3 be 76 69 06 bf 40 6c bd 3d
       -0.5290016 -0.3813033 -0.5250467 0.09249163
000100 73 f4 92 be 64 0b 0e be 8f a5 11 be 87 31 6e 3f
       -0.28702125 -0.13871533 -0.14223312 0.9304432
000110 0f 9d 97 be cf 39 c8 3e fe f6 ac 3d e2 47 67 3d
       -0.29612014 0.39106604 0.084455475 0.056465037
000120 2d e7 18 bf 10 09 95 be b1 80 1a be b8 4f 34 3f
       -0.59727746 -0.29108477 -0.15088154 0.7043414
000130 89 63 25 3d 12 ec 1b bf c6 97 1e bd de 0d 9d bf
       0.040378127 -0.6090709 -0.03871896 -1.2269857
000140 16 d4 bc be ac 82 02 3f 2d 48 08 3e 46 1c 6a 3f
       -0.3688056 0.5098064 0.13308783 0.9144939
000150 df 26 3c bf 9d a9 2f bf 63 41 b9 3e d3 17 05 bf
       -0.7349681 -0.68618184 0.361827 -0.5198948
000160 5a ab 83 bf b7 9d 70 be 0d 33 03 be b2 7e 41 be
       -1.0286667 -0.23497663 -0.12812443 -0.18895987
000170 fc 3c d1 3e 19 59 b9 be fe cf 2a be 2c 2d ca bf
       0.4086684 -0.3620079 -0.16680905 -1.5795035
000180 07 39 a6 be b0 db 81 be dd bd 9a bf 08 e4 b1 bd
       -0.32465383 -0.2536292 -1.2089192 -0.08686072
000190 63 b8 90 3b a3 40 71 3e 8c 29 e7 be 70 ab 09 3f
       0.004416512 0.23559813 -0.45148885 0.5377722
0001a0 b3 2f 0b 3f a4 6d 41 bd be 66 36 3f 24 9c 42 bf
       0.5436966 -0.047223702 0.7125052 -0.760195
0001b0 b0 83 a4 3e 17 58 ad be 1c 96 d7 be a5 df 94 be
       0.3213172 -0.3385627 -0.42106712 -0.29076877
0001c0 99 d3 ab 3e 99 91 ad be 86 bb 82 3e 89 ba 69 bd
       0.33559874 -0.33900145 0.25533694 -0.05706266
0001d0 4f e3 6e 3e f1 3c a5 3e 55 4a 87 be f0 a0 a7 3e
       0.23328899 0.32273057 -0.26423898 0.32739973
0001e0 7b b9 03 3f 85 44 be 3e 7b 8f 9a bd c9 0f 18 bf
       0.51454896 0.3716165 -0.07546898 -0.59399086
0001f0 76 12 f9 3d 3f 80 b9 bd 75 74 26 be 63 e4 27 3d
       0.12161724 -0.09057664 -0.16255362 0.04098929
000200 2e b7 0a 3f d7 7e 84 3d 11 9e 4a bf bc 50 a0 3e
       0.5418576 0.06469505 -0.7914744 0.31311595
000210 1b dc 23 3e 0d e9 37 bf ce a4 e8 3e 76 53 74 3f
       0.16001932 -0.7183998 0.45438236 0.9543985
000220 59 b3 7d 3f b9 bd 05 3f a1 8e 96 be ad c4 cf be
       0.9910179 0.5224262 -0.29405692 -0.4057974
000230 e5 e6 91 3b ac 5d 8d be 0a d9 04 bf 69 65 e3 be
       0.0044525736 -0.27610528 -0.51893675 -0.44413307
000240 c4 7a 7b be d6 c6 13 bf ab cb ac be bc 00 63 bf
       -0.2455855 -0.57725275 -0.33749136 -0.88672996
000250 4b 2b 1e be 0b e7 53 bb e8 3c 0a 3f fa 98 73 3e
       -0.15446202 -0.0032333757 0.53999186 0.23788825
000260 17 e4 27 bf b8 9b 1f be d4 fd 7f bd 9b e8 13 3e
       -0.6558241 -0.15586746 -0.06249793 0.144442
000270 58 05 b8 be 23 cd 4e be 8d da 73 bf f3 73 22 be
       -0.35941577 -0.20195441 -0.9525536 -0.15864544
000280 4f 70 ab be 1b 56 1d 3f 5d 7d 01 bf 31 0d 5f 3e
       -0.33484122 0.6145951 -0.50581914 0.21782376
000290 18 81 1d 3e 48 38 84 3f 7c cb d9 be e0 cd 16 bc
       0.15381277 1.0329676 -0.4253806 -0.009204358
0002a0 66 94 eb 3e 20 a0 9d 34 e9 56 20 3f cc cb 09 bf
       0.46011657 2.9360035e-07 0.62632614 -0.53826594
0002b0 89 5e 1c bf d3 85 9c be 41 f4 2d bf 54 47 a3 3e
       -0.6108175 -0.3057085 -0.67950827 0.31890357
0002c0 12 ef 06 bf dd 7b 13 3e 7d 83 12 bf 4f 35 3d be
       -0.5270854 0.14402719 -0.57231885 -0.18477367
0002d0 d6 cc b8 3d 5b db b2 be aa 8f 49 3e c6 69 c2 bd
       0.09023444 -0.3493298 0.1968371 -0.09492831
0002e0 74 e0 1c be bf ad 03 bf e7 60 00 bf 8f b8 43 bf
       -0.15319997 -0.5143699 -0.5014786 -0.7645349
0002f0 f4 f6 0d be a0 72 5b be 57 1a 88 bd ec e3 bf 3e
       -0.13863736 -0.21430445 -0.06645649 0.37478578
000300 1f 76 73 bf 1c 32 d5 be a3 03 61 3f 82 f1 83 3e
       -0.95102113 -0.41639793 0.87896174 0.25770193
000310 af 43 ac bd a3 db 29 3e 6a 34 50 3e e8 7f c6 3d
       -0.08411347 0.16587691 0.20332494 0.09692365
000320 19 26 02 3f ef e5 87 3d 86 49 37 3e df 3b 09 3f
       0.5083938 0.06635653 0.1789914 0.5360698
000330 04 10 33 bf ed ce e5 3d 8b 09 b1 3e 75 ab 44 bf
       -0.6994631 0.112211086 0.34577593 -0.7682412
000340 e8 2b ec 3e 6f 11 fb be 06 ed 52 3c 74 80 9a be
       0.46127248 -0.49036738 0.012873894 -0.30176127
000350 84 9b 51 bf 90 75 0e 3f 12 aa d1 3d d1 78 2f be
       -0.81877923 0.55648136 0.102375165 -0.17135932
000360 63 39 26 bf 59 a5 09 bf c4 73 20 3d 61 60 a5 3d
       -0.64931315 -0.53767926 0.039172903 0.080750234
000370 e1 8f 0d be aa 1f 04 bf bf 81 a1 be fe 95 28 bd
       -0.13824417 -0.51610816 -0.315443 -0.04115867
000380 e3 d1 90 be 02 2f 86 3e e6 89 c0 bb a7 aa ac 3e
       -0.2828513 0.2620774 -0.005875814 0.33723947
000390 c8 c9 e9 3c 2d 72 d4 3e c3 0c 8b 3d 2d cd c0 3e
       0.0285386 0.4149336 0.067895435 0.37656537
0003a0 2b 34 e3 be 77 d2 90 be c5 b7 0f bf 02 33 0d 3f
       -0.44375739 -0.28285572 -0.56139785 0.55155957
0003b0 3e 52 fa be f9 19 6b be 87 dd 8b be 31 09 80 3e
       -0.4889087 -0.22959127 -0.2731745 0.25007012
0003c0 4a 30 11 3e 0f cf 02 3e 6f 9f 0e bc bd 99 57 3e
       0.14178577 0.12774299 -0.008705004 0.2105474
0003d0 08 0c d3 be e3 75 08 3e a4 21 39 3e 4c d9 8e 3f
       -0.41220117 0.1332622 0.18079239 1.1160064
0003e0 ab ad 91 be 3e 0c 66 3e 6d ba 03 3e 66 4a 75 be
       -0.2845281 0.22465608 0.12864085 -0.23954162
0003f0 5a 92 03 3e 09 f5 30 be 7a e8 91 3e 30 06 8b 3e
       0.12848797 -0.17280973 0.28497678 0.27153158

conv5.bias f4 [32]
000000 e1 e1 48 bf 21 4e 8e 3f 81 f3 c9 be 6e 57 9b bf
       -0.78469664 1.1117593 -0.3944359 -1.2136056
000010 1d 3f 1f bf b0 0d 9a 3e fe 3f 07 bf ea 69 60 bf
       -0.6220568 0.30088568 -0.5283202 -0.8766161
000020 02 2c a2 3f c6 71 32 3e 48 70 71 bf c0 a1 c6 3e
       1.266968 0.17426214 -0.9431195 0.3879528
000030 2f 7e 20 bf bd 25 4e bf f6 fb 88 bf cc 3f 55 bf
       -0.6269254 -0.80526334 -1.0701892 -0.8330047
000040 45 4b 0d bf 7d 21 03 3e d0 32 8d bf dd e5 8a bf
       -0.5519298 0.12805744 -1.1031132 -1.0851399
000050 0b 10 bf be 85 54 34 bf 66 35 80 bf aa fd 25 3f
       -0.37316927 -0.70441467 -1.0016296 0.64840186
000060 8c b0 9d bf e3 cf c2 3e 42 42 93 bf 85 f8 20 bf
       -1.2319503 0.3804923 -1.1504595 -0.6287921
000070 64 db 0e bd 76 2d ef 3e 5b df 6c bf 04 b3 19 bf
       -0.034877196 0.4671437 -0.92528313 -0.6003878

conv6.weight f4 [32, 32, 5, 5]
000000 28 31 23 3d c3 2a 33 3f bb fa 17 3e 37 a4 57 3f
       0.0398418 0.69987124 0.1484174 0.84234947
000010 72 3f a3 be b3 72 0a 3f 0f 02 29 3c 70 2e 03 be
       -0.31884342 0.5408127 0.010315432 -0.12810683
000020 9a c0 b4 3e af 07 92 bc 26 66 ca be 30 70 15 bf
       0.35303193 -0.01782593 -0.39531058 -0.5837431
000030 82 1f d4 be 0f eb 48 3d c3 71 e0 be 10 a2 88 be
       -0.4143029 0.049052294 -0.43836793 -0.26686144
000040 ec f1 00 3e ca 3c f0 bc 53 f8 f4 3e cd f8 e0 3d
       0.12592286 -0.029325861 0.47845706 0.10984955
000050 8b 98 d4 3e bc fc 43 be 33 a8 eb be 42 b9 5a bf
       0.4152263 -0.1913938 -0.46026763 -0.8543893
000060 c8 ed 17 be 45 02 5c be 7d 9e f6 3e 2a 7a f0 3e
       -0.148368 -0.21485241 0.48167792 0.46968204
000070 92 74 22 3e 14 4d 24 3f 0f 6b e5 bd f6 a6 12 be
       0.1586478 0.6418011 -0.112020604 -0.14321503
000080 7c c8 fc 3d 27 e9 7e bd 9e 1e bf 3e 94 89 2b 3d
       0.12342927 -0.06223407 0.37328047 0.04187925
000090 da b1 ac 3d 12 06 cc be c2 c4 b9 be e1 9c 5d 3e
       0.0843236 -0.3984838 -0.36282927 0.21641876
0000a0 70 4c c4 3e 20 7e 07 3f c1 0b 2d 3f 79 94 44 bf
       0.38339567 0.52926826 0.6759606 -0.7678905
0000b0 f0 fe 29 be 71 b3 88 bf 93 7e cb 3e 76 2d 39 be
       -0.16601157 -1.0679761 0.39745006 -0.18083748
0000c0 ad 37 82 be f3 e4 6a bb 0d 2e 47 3e 9c c8 0d be
       -0.25433102 -0.003584203 0.1945116 -0.13846058
0000d0 d9 33 08 be 47 4f 45 3f 50 d1 60 3e 71 6f 61 be
       -0.13301028 0.7707409 0.21954846 -0.22015168
0000e0 c4 07 b1 3e 27 03 1a bf 09 6f ad 3c 2f 6d af 3e
       0.34576237 -0.6016106 0.02117111 0.34262988
0000f0 93 08 13 be 7d 77 f9 be d6 42 0c bf 16 8e 66 bf
       -0.1435874 -0.48723975 -0.54789484 -0.90060556
000100 ec 1b da 3e b8 f4 30 3d d4 c5 fa 3c 16 d7 52 3e
       0.42599428 0.043202132 0.03061191 0.20589861
000110 33 c1 74 3f 8e fc 90 3f 17 74 ad 3e 68 26 68 3f
       0.956073 1.1327074 0.33877632 0.90683603
000120 13 73 c7 3e be a3 69 3f 4f 19 0d 3f 3f c2 c2 3e
       0.38954982 0.91265476 0.5511674 0.38038823
000130 f6 73 fe 3d 87 5b 26 3e 18 2f 2b bf 7a fd 07 be
       0.124244615 0.16245852 -0.66868734 -0.13280287
000140 5d be cb 3e 1f 66 92 3d 8c d9 b2 bd 40 e5 a9 3e
       0.39793673 0.07148384 -0.087329 0.33182716
000150 30 97 a3 be 6f c9 17 be df 20 31 3b 1c c5 6b bd
       -0.31951284 -0.14822935 0.002702765 -0.057561025
000160 f3 42 64 be c0 c6 0d 3f 94 f4 43 bf 91 95 7d be
       -0.22291164 0.55381393 -0.7654507 -0.24764086
000170 00 53 4f be 13 1d 57 be d5 dc b2 be 6d 15 5e 3d
       -0.20246506 -0.21007185 -0.34934106 0.054219652
000180 62 9d b9 be 89 19 93 3e 58 a2 7a 3e 78 89 b5 be
       -0.36252886 0.2873042 0.24475992 -0.35456443
000190 6e 69 c5 bd 73 b6 24 3f ab f6 b0 3e 6a 90 d9 3d
       -0.0963925 0.64340895 0.34563193 0.10623248
0001a0 ab f0 2c be f5 e6 b4 bd d1 24 82 be e6 dc 8d 3d
       -0.16888683 -0.08833114 -0.25418714 0.06926899
0001b0 a1 74 2b bd a7 78 d7 3d 1f 4d 81 3d 7d f3 b3 be
       -0.041859273 0.105210595 0.06313538 -0.35146704
0001c0 37 a9 b3 bc 3a 99 29 be c8 e0 45 3e 84 9a b8 3d
       -0.021931274 -0.16562358 0.19324028 0.090138465
0001d0 9f 17 8e 3d 57 dd 11 3f 84 fe 1e 3e 79 a1 29 be
       0.06938099 0.5697836 0.15526778 -0.16565503
0001e0 a3 99 1b bd 8e e9 18 3e cf b9 bf be 6b fd 3e be
       -0.037988316 0.14932844 -0.37446448 -0.18651359
0001f0 ce f5 cf be 87 55 76 3e 77 e8 27 3e 2c c1 bb be
       -0.40617222 0.24056064 0.16397272 -0.36670816
000200 2d 57 85 3e cf 14 ca be 4a f3 10 3c fa 2f ee be
       0.26043072 -0.39469 0.008847067 -0.46520978
000210 ea 1f 87 3e db f0 ae be 28 74 63 3c 10 b4 14 3f
       0.26391536 -0.34168133 0.013882674 0.58087254
000220 ba ee b4 be c4 5e fa 3c 13 cc 0e 3f 48 7d 16 3d
       -0.35338384 0.030562766 0.5578014 0.03674057
000230 6d b5 12 3f 23 7a 0c 3f ea 75 c3 3d 5b 4a 08 3f
       0.57308084 0.54873866 0.09543975 0.5323846
000240 3e dd ba be ab 00 4b bf 23 b7 07 3f ec 9f 9e be
       -0.3649692 -0.79297894 0.5301382 -0.30981386
000250 82 ea 32 3e 6e 7b c3 3d ad 70 cd 3d 37 93 b8 bd
       0.1747227 0.09545027 0.10031257 -0.09012454
000260 33 5c b4 be 6c 27 a4 be 30 0b d4 bd 32 21 3d bf
       -0.35226592 -0.32061327 -0.10353696 -0.7387878
000270 49 68 81 3f 8e 80 cb be fc 94 37 be cb 42 85 bf
       1.010995 -0.39746517 -0.17927927 -1.0411009
000280 5e 7d da be 52 eb 90 bd 96 17 c2 3c 77 d8 44 be
       -0.42673773 -0.07076134 0.023692887 -0.192232
000290 be ff fb be 17 77 b1 be 1e 62 0a bf c3 71 00 bf
       -0.49218553 -0.3466117 -0.54055965 -0.50173587
0002a0 5a 24 72 bf 6b 29 47 3e 0c 3c 7f bb d5 a3 4f 3f
       -0.9458672 0.19449393 -0.0038945703 0.8110936
0002b0 c0 87 18 3e 75 cd 7f bf f1 03 b4 bd 8f 15 62 3d
       0.14895535 -0.9992288 -0.08789814 0.05519634
0002c0 5b ec e8 3d bc 1e 03 3f 47 78 ac 3c 0d 0d 34 bf
       0.11373206 0.5121877 0.021053446 -0.70332414
0002d0 cf 62 20 3f 0b 37 1d bf 0c b9 32 3e bf 3c e0 3d
       0.6265077 -0.61412114 0.17453402 0.109490864
0002e0 b3 5a 3f bf f4 8d b3 be da c8 19 be ce 47 88 3e
       -0.7474777 -0.3506924 -0.15018025 0.26617283
0002f0 17 db ee be 16 81 49 bf c6 fe 94 be b9 07 13 3d
       -0.46651527 -0.78712595 -0.29100627 0.035896037
000300 22 45 2f bf ad c2 ca be 26 f8 d2 3d dc 1c 00 bf
       -0.68464863 -0.3960165 0.10301237 -0.50044036
000310 aa 61 05 3e 5e 8e a7 bd ce 33 08 3e 89 79 15 3f
       0.13025537 -0.08181451 0.13301012 0.5838857
000320 ee bd 03 be 9f a0 d3 be 98 f7 a7 3e 4e c5 06 3e
       -0.12865421 -0.41333482 0.32806087 0.13161203
000330 93 9b 2e be 4f e4 4f 3e 35 cb 9c 3e 86 18 a1 3e
       -0.17051534 0.20301937 0.30623785 0.31464022
000340 47 4b 30 be b4 2b 74 bf 94 e0 53 bf a8 1e c7 be
       -0.17216216 -0.95379186 -0.82764554 -0.38890576
000350 40 5a a2 3e e7 f5 5b bf 75 d7 12 bf 2e 28 8c be
       0.3170948 -0.8592209 -0.5736001 -0.27374405
000360 57 66 11 be 73 3d 36 3f 01 d1 0d bf b5 57 47 be
       -0.14199196 0.71187514 -0.5539704 -0.19467051
000370 05 6d 0d bf 53 41 d6 bd 23 27 2a bf 8f 9a e9 3d
       -0.55244476 -0.10461678 -0.6646597 0.11406433
000380 8c e8 57 bd dc ba 34 bf 84 36 92 be 04 97 de 3d
       -0.05271201 -0.70597625 -0.28557217 0.10868648
000390 f0 64 19 3f fb cf 00 3f f3 a7 b2 3e 01 7d 2b be
       0.59919643 0.50317353 0.3489376 -0.16746904
0003a0 51 1d a0 be 31 ba 65 bd e9 4d 11 3f 6c 80 89 be
       -0.31272367 -0.05608577 0.56759506 -0.2685579
0003b0 fd f6 2b bd d0 90 5f 3d 9c 68 33 3e 9d 53 16 3f
       -0.041983593 0.054581463 0.17520374 0.58721334
0003c0 a8 dd 2d be e1 0d 69 be 6f 3c 4f 3f 0a c3 25 3e
       -0.16979086 -0.227592 0.8095159 0.16187683
0003d0 69 29 67 3e be 4e 99 3e 73 83 08 bf 6b 05 81 be
       0.2257439 0.29942888 -0.53325576 -0.25199446
0003e0 2d 10 25 be 8d 3d f8 be 08 71 8a be b0 c0 f2 3d
       -0.16119452 -0.4848446 -0.2703936 0.118531585
0003f0 9a 23 16 3e 53 32 24 3f a1 37 1a 3e ef 0e 31 bd
       0.14662018 0.6413929 0.15060283 -0.043227132

conv6.bias f4 [32]
000000 86 99 d9 bf 29 d2 87 3f b8 42 d3 bf 0a 2d d5 bf
       -1.6999977 1.0611011 -1.6504736 -1.665437
000010 67 e3 5f bd a4 f2 c5 3e 15 d1 50 bf ff 46 aa bf
       -0.054660227 0.38661683 -0.81569034 -1.3302916
000020 5f 1a 1a 3e 56 58 83 bf 23 38 76 be c5 14 9c bf
       0.15049122 -1.0261333 -0.24044852 -1.2193838
000030 26 67 3b 40 06 7a 7b 3f 53 eb 99 be f2 50 b2 bf
       2.9281707 0.9823307 -0.3006235 -1.3930953
000040 3c 1e 82 3e 3a 56 89 bf 8f 25 ed be 80 c7 1b bf
       0.25413692 -1.0729439 -0.46317717 -0.6085129
000050 07 07 a6 3e 49 a5 16 40 cb c6 5a 3d bf 50 c9 bf
       0.32427236 2.3538382 0.05341224 -1.5727767
000060 51 d0 6c bf 5d 8b d0 3f f9 bd d3 3f 91 4e f1 be
       -0.92505366 1.629253 1.654235 -0.47130254
000070 74 7e 1d bf d8 c1 d8 bf 28 7d ea be 11 52 03 bf
       -0.6152108 -1.6934156 -0.45798612 -0.512971
