models/DQN_wb_kaggle_another.pth (torch, 916528 bytes, 22 tensors)

conv1.weight f4 [32, 1, 5, 5]
00000000: f7d3 653f e265 2cbf 8c2e d1be a36f cebc
00000010: 77ef 8abf 76b1 9b3d c1f5 3cbe 6cf7 c43e
00000020: 6834 8cbe f29c 23bf aa5a fdbc deb2 82bf
00000030: 3a77 efbd d005 713f 2108 d1be 36d5 e7be
00000040: de3e e7be 8f96 b3be 529c 08bf 8cd1 1e3c
00000050: 1770 35be 9c91 bfbe ffb2 25bd 870c cdbd
00000060: b0be 8ebc 173d 51be 2cfb 0dbf 4993 563e
00000070: 4df7 d43e 5bf1 bb3e 1a00 3c3e 5d9c ccbe
00000080: 34c3 cfbe 8db0 8bbd 09cd a53e aaac 693e
00000090: 7815 07be 5a5f acbe fbfe 5ebe b850 583f
000000a0: 1a0c 72be 19f7 813e 696a 54bf 6121 a93e
000000b0: dd77 06bf 7fbe 27bf 4272 a83e 9696 643e
000000c0: c580 3e3c db2e b2be 990a 673f 6056 913e
000000d0: 194f f4be fa0d d5be c23e 0a3f b245 e6bd
000000e0: a921 0abf 803e 18bd 1f9c 253e 4051 373e
000000f0: bc77 b9be bf5f 523e 693f 1a3f 1088 87be
00000100: 74fd 123f 3440 03bf 5ac7 2c3e 3c34 653f
00000110: bfa3 22bf d1f0 b8be cd46 34bf 3e38 ec3e
00000120: a633 11bf 2521 2e3e 435a 82be 6db8 303d
00000130: 8155 833e a004 5a3d d393 e83d 9ff2 fa3d
00000140: 75ee efbe 097a 6a3f 4871 84be 54eb 84be
00000150: c1f8 05be bfc5 58bf 10c6 14bf 8b56 333f
00000160: fe42 01be 9860 793f 1638 40be b7c1 81be
00000170: 6eb9 24bf d546 f7be 1836 e53e ab7b 87be
00000180: 08da 143f 3a4f dcbd 7d51 353e 6bf8 5dbf
00000190: dd4b 99be ee2c 223e 6682 82bb 8618 9a3e
000001a0: b6fc 823d 4ff8 fc3d acdb d73d 5c3e 3a3e
000001b0: 9f8b 42bf 4f8f 9dbe b823 b9be d04b a0be
000001c0: eedf 8abf f9c7 a83e 5745 cbbe 2117 dbbe
000001d0: 6476 c0be c608 ce3e e85e 283d 5b22 d6bf
000001e0: 4c3c eebe 8af4 abbc 8d17 1ebd 8178 c2be
000001f0: c343 933e 4066 b73d a0ef 933c 8b1c 1c3f
00000200: 160c 7bbe f00e 1e3f fa82 7c3f 83b5 573c
00000210: 4cf0 18be b634 073f 7c5f 343d 79ec 62bf
00000220: d525 043f db72 fdbe ecc7 6bbe 9e68 13be
00000230: f382 ab3c 4b47 1cbf 9af1 05be af78 213e
00000240: efe9 90bd 3463 543e f3d9 163e baf7 c73e
00000250: 95ab a0be 36ad 97bf 10ac b73e 71bb 15bf
00000260: cd2e 643e c2e5 93be 03cd 853f 82c0 103f
00000270: 3f04 d6be d541 20bf ae6a 48be 8c4b d23e
00000280: e486 653e 3f3f 793b fbbc 183f ab93 673e
00000290: f955 32bf 6ad1 bdbe 74f4 d63e c842 21bf
000002a0: c863 27bf 700a 903e 2e56 303e 5571 003f
000002b0: 6c8b 21bf 6b29 25bf 8d34 bc3e 1e8c 9bbc
000002c0: 8ab9 c43e f5dd e63e 036b 40be d725 1a3f
000002d0: bc1f b0bf ed85 fabe b632 0d3f 7736 27bf
000002e0: c3ab 42bd b412 803e 3615 acbe b3d2 d23e
000002f0: b414 8fbf 8577 17bf af59 1dbe 598b c6be
00000300: 7fc2 2bbe 0aab 32be a0a3 863d e9c4 533e
00000310: 0439 ccbe a4bd 09bf e807 a03e 815f db3e
00000320: 342d c63e 222c 06bf 6376 91be cd28 8ebe
00000330: 9e30 75be b651 af3e 8029 5cbf ac27 8dbf
00000340: 65be 0b3f 3896 5a3e 3197 5dbe 2969 9b3d
00000350: a3f4 ee3d f750 2bbf 3b09 363f e6e9 323f
00000360: b735 153e 149c aabc 47fb 1fbe cb53 5fbe
00000370: ba1b e2bd e897 013f 53aa 573d 43a2 4fbf
00000380: 9ca3 4fbe 8b4e 5abf e828 27bf 5d44 48bf
00000390: bccb 1dbf fafe 173f 907e 113e 4970 21bd
000003a0: bab3 2dbf 0a6e 203d b121 17bf 32f4 55bf
000003b0: 14ed 4a3e e63b ed3e 6ab5 edbc 8bbd 64be
000003c0: bb14 423e b68d 893e 6056 c7bd 2e39 f5be
000003d0: fd53 dcbe ce88 7b3e 100a 0fbf aa58 11bf
000003e0: 7b3f 5bbc 527d 033f 4f83 2b3e 653f 87bd
000003f0: 08c6 063e 8433 9a3e f230 06bf 736f 273e
0.8977656 -0.6734296 -0.40855825 -0.025199717 -1.0854329 0.07602207 -0.18453123 0.38470018
-0.27383733 -0.63911355 -0.030927021 -1.0210836 -0.116926625 0.94149494 -0.40826514 -0.45279855
-0.4516515 -0.35075805 -0.53363526 0.009693515 -0.1771854 -0.3741578 -0.040453907 -0.10012155
-0.017424911 -0.2043346 -0.5546138 0.20954622 0.41594926 0.36707577 0.18359414 -0.39963046
-0.40578616 -0.06820784 0.32382992 0.22819772 -0.13191783 -0.33666497 -0.21776955 0.8449817
-0.23637429 0.25383833 -0.8297487 0.3303328 -0.52526647 -0.6552505 0.32899672 0.22323069
0.011627381 -0.34801373 0.90250546 0.2838621 -0.47716597 -0.41612226 0.5400201 -0.11243762
-0.5395761 -0.03716898 0.16172837 0.17902088 -0.36224163 0.20544337 0.60253006 -0.26470995
0.5741799 -0.5126984 0.16872922 0.8953283 -0.63531107 -0.36121228 -0.70420533 0.4613666
-0.56719434 0.17004831 -0.2545949 0.043144632 0.25651172 0.053227067 0.1135632 0.122533076
-0.46861616 0.9159246 -0.25867677 -0.2596079 -0.13083173 -0.84676737 -0.5811472 0.7005393
-0.12623212 0.97413015 -0.18771395 -0.25343105 -0.64345443 -0.48296228 0.44767833 -0.2646154
0.5814519 -0.10757299 0.17706867 -0.8670718 -0.29940692 0.15837452 -0.00398283 0.30096835
0.06395857 0.123520486 0.10539946 0.1818785 -0.75994295 -0.30773398 -0.36160064 -0.3130784
-1.0849588 0.32965067 -0.3970134 -0.42791083 -0.37590325 0.4024107 0.041106135 -1.6729234
-0.46530378 -0.020990629 -0.03859668 -0.37982562 0.28762636 0.089550495 0.018058598 0.60981053
-0.24516329 0.6174154 0.98637354 0.013165834 -0.14935416 0.52814806 0.044036373 -0.8864208
0.5162023 -0.4950169 -0.23025483 -0.14395377 0.020936465 -0.61046284 -0.13080445 0.15768693
-0.07075869 0.20740968 0.14731579 0.39056188 -0.31380907 -1.1849735 0.3587346 -0.5848914
0.22283478 -0.2888623 1.045319 0.56543744 -0.41800115 -0.6260045 -0.19571945 0.41073263
0.22414738 0.0038032082 0.5966336 0.22614925 -0.69662434 -0.37073833 0.41983378 -0.62992525
-0.6538663 0.28132963 0.17220375 0.5017293 -0.63103366 -0.64516324 0.36758843 -0.018987712
0.38422805 0.45091215 -0.18790822 0.6021399 -1.3759685 -0.48930302 0.55155504 -0.6531748
-0.047527086 0.2501427 -0.33609933 0.41176376 -1.1178193 -0.5916675 -0.15366243 -0.3877819
-0.16773413 -0.17448059 0.06574178 0.20680584 -0.3988725 -0.53804994 0.31256032 0.428463
0.38706362 -0.5241109 -0.28410634 -0.27765504 -0.23944327 0.34242028 -0.86000824 -1.1027732
0.54587394 0.21346366 -0.21639706 0.07588417 0.116677545 -0.6692042 0.71107835 0.6988815
0.14571272 -0.020826377 -0.15623198 -0.21809308 -0.11040445 0.50622416 0.05265267 -0.81106967
-0.20277256 -0.852761 -0.65296793 -0.78229314 -0.61639 0.5937344 0.14208436 -0.039413724
-0.67852366 0.03916744 -0.59035784 -0.8357574 0.19817 0.4633476 -0.029017169 -0.2233793
0.1895322 0.2686593 -0.097332716 -0.47895187 -0.43032828 0.24563906 -0.5587473 -0.56775916
-0.013381834 0.513631 0.16749309 -0.066038884 0.1316148 0.30117428 -0.52418435 0.16351108

conv1.bias f4 [32]
00000000: fdd1 b0be 583c 07bf 3364 31bf e076 d5be
00000010: 7426 233e 8f9a a3be d541 2cbf 837a b63e
00000020: d4df 1ebf eecf 22bd d9c1 3abf 0f6e 6abf
00000030: 334f 58bf 68b7 9abe 637d 03bf c368 c0be
00000040: c1ea 49bf 85d8 d1be d945 02bf 5fc4 3fbe
00000050: 5a7d e4be 55c6 233f 76f1 a0be 7b33 0fbf
00000060: 77fb 1fbf da1d f23e d7d4 49be 4542 28bf
00000070: 18cc 94be 59b7 d0be 59f0 44bf 0ab5 01bf
-0.34535208 -0.5282645 -0.69293517 -0.41692257 0.15932637 -0.31953856 -0.6728795 0.35640344
-0.62060285 -0.03974908 -0.7295204 -0.91574186 -0.8449585 -0.30218053 -0.513632 -0.37579927
-0.7887383 -0.40985504 -0.5088783 -0.18727253 -0.44626886 0.63974506 -0.3143422 -0.5593793
-0.6249308 0.472884 -0.19710098 -0.6572612 -0.2906196 -0.40764883 -0.7692924 -0.5066687

conv2.weight f4 [32, 32, 5, 5]
00000000: 9c7a 65bc d196 153e 8691 6a3d 393c c9be
00000010: 1798 0e3f 2057 a5be 5988 02bf af29 463f
00000020: d1ac e73e 8445 9cbf b945 9dbe 3896 f6bd
00000030: d2af 273d ab2e 2bbf f3e9 5a3f 3ee5 073f
00000040: 047a 89be 3f6c e83e b9a7 403e 91e2 22bf
00000050: 3d2e 3e3e cacc c63e 49ee e7be 3ee9 25bd
00000060: eec5 f63e 54d4 86be 0ec2 053f bdc0 023e
00000070: 941e be3d fd54 12bf e980 623e 2899 083d
00000080: 8558 b83e 0986 073e 6e25 4ebe 0313 813c
00000090: 2e8f aebe b673 52bf 31e1 d3be 2b2c 273d
000000a0: 3410 2dbe 1682 80be 9dad 6abf 2ab2 48be
000000b0: 7079 1e3f bc1c 1bbf 6caa 90bd 9940 ba3e
000000c0: e240 5e3e b7f9 243f 8242 713d bb90 2e3f
000000d0: a1a7 c63e 4781 553f bcc1 2d3e 6b62 24bf
000000e0: 2e13 e13e 54c1 113f 9797 06bf 433a 91bf
000000f0: 4af7 38be 4818 03be 7381 c83d 7839 943e
00000100: 06c4 79bf 2530 8cbd 06af cfbe 9363 f9bd
00000110: 01c1 d83d 5b2b 103f f845 2ebe 6560 c9be
00000120: be7f 893d 4bc3 fa3c e67d 69be d288 a93f
00000130: 8c54 1e3f cee3 c43e 8b5d 0cbd de8d 6cbe
00000140: edc9 2abf a799 d73d b05f 9abe 8a3a 6cbe
00000150: 6eec 693e 0b2d e8bd a577 313e eb3d 95bf
00000160: b008 4fbe 110d e63d 44c1 33bf 2d9a d7bd
00000170: 18c7 8abf 8795 8b3f 43b1 6cbf 69c5 903e
00000180: 204a ebbe 8785 17bf 5167 01bf 3aa2 a13e
00000190: fae9 efbd dba8 bdbd 1bff 6d3e f09c c2bf
000001a0: bf49 883d c605 a23b 70ee 1ebe fe56 cabd
000001b0: 86aa 7abd 759a 55be 80bb 0fbf aca4 6dbe
000001c0: 485e dbbd a4b8 cf3e 1980 fc3e 59fc 04bf
000001d0: 56a3 653d 0c43 423f 5210 e4be f17f 3e3f
000001e0: 8650 eb3e d5cd 9cbe 5c19 8dbe 1e3f 0d3f
000001f0: 9b0a 11bf ae9b 22bf 15f2 fa3e e2cd 493d
00000200: 1ae9 41be 9240 eabe b5fa fe3d 75f8 e23e
00000210: d883 703f 2e2a f5be c0b6 95be 767e a5be
00000220: b9df cbbd 7867 cd3d 21d4 c83d 55cc e4bd
00000230: 8b63 a2be 1721 2abe 0770 1ebf 483e 47bf
00000240: b115 313e ed9a f4bd b158 48be a105 eb3d
00000250: 5194 b5bc d5d6 34bf 705e febd 6970 13bf
00000260: 740a 333e 9bd8 d0be 35e8 a63d 1cb1 f4bd
00000270: 1e96 0fbf 834f e03e a5dc 9ebd 252f e8be
00000280: 7e9e 443f d67b 923e d97c a13d dd38 19bf
00000290: 2cdf 7abd 730a 3d3e 785f 843d 87c8 24bf
000002a0: a273 85bd fda8 c6be cca7 4fbf b65f 603f
000002b0: f108 bebd 2477 9ebf e350 82be 7a53 02bf
000002c0: 2bd0 8cbf 52ff 8ebf 2cdb c1be b8ce acbe
000002d0: a63e 6cbf 7d99 523e 2ca0 f0be dae2 263f
000002e0: 1053 b73e 0b3a 74bf a509 91be 78ba bb3e
000002f0: 770c 453f 102b 4c3d 810e aabe 7dc0 11bf
00000300: 2370 973e 9dce d0bd 3c93 493f 5fb5 933d
00000310: 6203 2ebe b2cc 143f e517 5b3f d90f 773e
00000320: 6262 bf3d b9c4 cd3e 4a02 d1bd 7337 3e3e
00000330: 470e be3e 0d61 f83b ddef 863d aa5b 77be
00000340: 3733 6fbf ee10 f73d e99c b83d 40b6 ce3c
00000350: c8a1 233f 8986 2d3e 6064 90bf 551c 7c3e
00000360: 6703 5c3f 8b67 1b3f a4ea 4cbf 95f9 593d
00000370: 1b8f 3abe 73cb 2abd eb67 b8be 15a2 d8bd
00000380: 8783 06bd dd45 19bf 0a60 96bc a1cc 24bf
00000390: 829d 22be 9dc3 2c3e 9b25 b13e 5285 403e
000003a0: 5ace 513f f460 8dbe 9d46 2a3f c63f c1bf
000003b0: 6016 403e 5884 e83d cb50 993e 1157 923e
000003c0: b9d5 12be e408 c0bd 8c01 783f 496a b9be
000003d0: 02ca 473e d448 06be f9e9 963e 792b d1be
000003e0: c2da 8cbe c2e1 c0be 67f1 ddbe d245 26be
000003f0: 93b8 63be 1570 133f 84b0 0bbf 4ef7 fd3d
-0.014006283 0.14608313 0.05726769 -0.3930376 0.5570082 -0.32293034 -0.509893 0.77407354
0.45249036 -1.2208714 -0.30717257 -0.12040371 0.04093916 -0.66868085 0.8551323 0.5308417
-0.26850903 0.45395085 0.18813981 -0.6362696 0.18572326 0.38828117 -0.45298985 -0.04050564
0.48197883 -0.26333869 0.5224923 0.12768836 0.09283176 -0.5716093 0.22119488 0.033349186
0.36005035 0.13234724 -0.20131466 0.015756136 -0.34093612 -0.8220781 -0.41382745 0.040813606
-0.16900712 -0.25099248 -0.9167116 -0.19599214 0.6190405 -0.6059072 -0.070637554 0.3637741
0.21704438 0.64443535 0.058901317 0.6818959 0.38799766 0.83400387 0.16968435 -0.64212674
0.43959945 0.5693562 -0.5257506 -1.1345905 -0.18063083 -0.12802231 0.097903155 0.28950095
-0.97564733 -0.0684512 -0.4056322 -0.121771954 0.105836876 0.56316155 -0.17018878 -0.39331356
0.06713818 0.030610701 -0.22801933 1.3244879 0.6184776 0.3845505 -0.034268897 -0.23100993
-0.66714364 0.10527354 -0.3015113 -0.23069206 0.22844097 -0.11336716 0.17330797 -1.1659521
-0.20218158 0.11232961 -0.70216775 -0.105274536 -1.0842009 1.0905007 -0.9245798 0.28275612
-0.4595499 -0.5918812 -0.50548273 0.31569082 -0.11714549 -0.09260722 0.23241846 -1.5204144
0.06654691 0.004944536 -0.15520644 -0.09879874 -0.06119778 -0.20859702 -0.5614548 -0.23207349
-0.10711342 0.40570557 0.4931648 -0.5194755 0.056063972 0.75883555 -0.445437 0.74413973
0.45959872 -0.30625787 -0.2755841 0.55174434 -0.5665681 -0.635188 0.4901282 0.04926861
-0.18936577 -0.45752388 0.12450162 0.44330183 0.9395118 -0.47883743 -0.2924099 -0.32323045
-0.09954781 0.10029501 0.098060854 -0.11171786 -0.3171657 -0.16614185 -0.6188969 -0.7782941
0.17293431 -0.11943612 -0.19565083 0.11475683 -0.02216545 -0.7064031 -0.12420356 -0.575934
0.17484456 -0.40790257 0.08149759 -0.119478434 -0.56088436 0.43810663 -0.07756928 -0.45348468
0.7680434 0.28610104 0.07885141 -0.5985239 -0.06124799 0.18461017 0.06463522 -0.6436848
-0.06516196 -0.38800803 -0.8111541 0.87646043 -0.09279049 -1.2380109 -0.25452337 -0.50908625
-1.1001028 -1.1171668 -0.37862527 -0.33751464 -0.92283094 0.20566364 -0.469972 0.651899
0.3580556 -0.95401067 -0.2832767 0.36665702 0.76972145 0.049845755 -0.3321419 -0.5693434
0.2957774 -0.10195658 0.78740287 0.07212328 -0.16993478 0.5812484 0.85583335 0.24127139
0.09344937 0.4018915 -0.10205515 0.1857584 0.37120268 0.0075799287 0.06588719 -0.24156061
-0.9343752 0.12063776 0.09014303 0.025233388 0.63918734 0.16945852 -1.1280632 0.24620183
0.8594269 0.6070487 -0.80045533 0.053216536 -0.18218653 -0.04169793 -0.36016783 -0.1057779
-0.032840278 -0.5987223 -0.018356342 -0.6437474 -0.15880397 0.16871496 0.34599003 0.18800858
0.8195549 -0.27613032 0.66514 -1.5097587 0.18758535 0.113533676 0.29944453 0.2858205
-0.14339341 -0.09376696 0.9687736 -0.36213902 0.19510654 -0.13113719 0.29475382 -0.4085348
-0.2751065 -0.3767224 -0.43348238 -0.16237572 -0.22238378 0.575929 -0.54566216 0.12400685

conv2.bias f4 [32]
00000000: 6f25 9cbe b007 88be 3fb0 0a3d 35a2 debe
00000010: 51b5 d7be 4c5b dabe 2e96 59be a27c 47bf
00000020: da1c 95be 8635 abbe 1bf2 e4be e682 51be
00000030: 39a3 b5bd 95b7 89be 18d9 c3be 54a1 bbbe
00000040: aa76 45bf a6f9 16bf a432 37be f7ba 91be
00000050: ef9f a3be af8f 16bf f62c f9be 0941 81be
00000060: 1953 b4be e9f4 b2be f0c3 89be 2d37 bdbe
00000070: 2685 913c 3c2e 9cbd 163d a3be ab07 45be
-0.3049731 -0.26568365 0.033859488 -0.4348313 -0.4213052 -0.4264778 -0.21248695 -0.7792455
-0.29123574 -0.33439273 -0.44715962 -0.2046009 -0.08869023 -0.26897874 -0.38251567 -0.3664652
-0.7713419 -0.58974683 -0.17890412 -0.28462955 -0.31957957 -0.58812994 -0.48667115 -0.2524493
-0.35219648 -0.34952477 -0.269073 -0.36956158 0.017763685 -0.07626006 -0.31882542 -0.19241206

conv3.weight f4 [32, 32, 5, 5]
00000000: 6fae 80be 0516 0bbf 3bfb e63e 302a 863e
00000010: 5449 873e 3c40 f13e dbee d0be f200 5fbf
00000020: 2d79 9dbe f936 6abf 4231 1ebd 7070 7e3f
00000030: f082 39bf 9e95 d63e 9b60 21be e64e ce3d
00000040: 1eeb 71be 5410 073e bee2 0c3f a56d e8be
00000050: 029a 0abf 5393 edbe c1ed c5be 6740 6f3e
00000060: 8903 e03e e23e 19bf 0d09 e73e 264f a73d
00000070: ec54 a63e 52e3 7e3d 99b2 213f d3f7 cfbe
00000080: 8322 ab3e 5cae ed3e d6d7 ecbe 022e fdbd
00000090: dc17 9fbf 6454 913c 09f2 66be ea05 cebe
000000a0: 0ca6 013f 4856 22bf 1b71 113e f5db 0bbe
000000b0: 6992 a7be 81a3 02bf 8113 8cbf 2ad6 823e
000000c0: bea2 0e3f 564a 0a3f ecb0 ab3d 4896 79bf
000000d0: 6131 8dbf 94b5 ac3e 4d7b 81bf 69f1 6bbf
000000e0: 5d6d e3be a4cf 9ebd 11f1 26bf 8abd 633e
000000f0: 6c0e 15be bb7a e3be 1aac 58be 595f ecbd
00000100: 735e f6be 9c9e 68be ed48 fa3e 5673 0ebd
00000110: 8847 3b3f 0855 19bf f688 8abf a05d 16bf
00000120: aab0 663e a722 84bf 8c9c 953e 3213 a9be
00000130: 65b8 8e3e 123f 973d 53d6 443e 3315 cd3d
00000140: dbc3 6a3f 826f 5cbe 0a3c 84be 11fb fabe
00000150: b5b5 05be 9068 a13e 3583 9c3e a00b d13e
00000160: 33e6 0cbe a834 12be c66e 83be fee7 113f
00000170: 7d99 54be 04a7 e6bd 0d31 c4be c08d 85be
00000180: 9fd1 3cbd 544d 61be 5c39 113f b75a 28bd
00000190: a11b 0e3f d3c5 503e 063f 823f 891a 5dbf
000001a0: be56 993d 306c 0bbf 7e6d 23be 9e48 87be
000001b0: b792 05bf 1661 2dbe 35f2 7fbe b388 4b3f
000001c0: a841 123f 7f10 0dbf 86fc 02bf 0dda 163f
000001d0: d14c f33d aaad c53e 16b2 33be c9f6 383e
000001e0: 7d29 9c3e b2bf f13b e36e 9ebe ab17 1ebf
000001f0: d0c2 6cbd 89e5 5cbf d97e 5a3d 8089 673e
00000200: cced 8fbe 9a5e 7ebe e67d 22be 5a72 76be
00000210: c52a cd3d 361a cdbd 828b fabe 19cd 78bc
00000220: dc88 38bf c207 c83e 87f0 81be 5f0b 0bbf
00000230: 57f5 b93c a595 1dbf 14a4 bbbe a24d b7be
00000240: 1d7a 813d 9776 203e 063c ba3e d724 4bbc
00000250: 74ab 1cbe a780 3dbf 6d0e b9bf 3514 b23e
00000260: 315e c9bd 2afc 9c3e 8a55 c73c 9eca 23bf
00000270: c2bf 7a3f dfa5 333f b2c0 543f 1f09 1c3e
00000280: 9c68 7ebe e651 81be d771 d83d b314 df3d
00000290: fa0c 4f3e f3de 15bf 85a6 20bf 9ffa d03d
000002a0: 1835 223f 7a98 a93e 5e07 43be 6114 533f
000002b0: c3d1 15bd 17eb 9abe 42ed 673f 1144 193f
000002c0: c7c7 593f 6d24 8fbe ea5e 01bf dd71 1cbf
000002d0: defc 073f 2a43 22bf e1d1 e9bd 33da 693e
000002e0: e760 563e d26c 233f f416 11be 0295 313f
000002f0: 6369 65bf 0041 48be 35e2 8abe acf4 6dbf
00000300: c504 043e af97 eb3e 22ba 863f fc0d 5bbf
00000310: de21 973e 628c a73e 1da9 82be f5ff 14bf
00000320: 6465 d5be f6f9 ee3b 7f11 ef3e 6f4d bcbe
00000330: 2034 00be 4478 be3e a5f3 0cbd 3bbd 093e
00000340: f2b7 59be 8fc7 33bf 42a5 563d 7e58 04bf
00000350: 92e0 2fbf 2954 623f 97f7 2d3f a696 93be
00000360: 273e 793d 3a2c c8bd c002 33bf 4cc2 173e
00000370: 3239 3cbf d4dc 423f 860b 8fbe 4a7c acbf
00000380: 5566 35be 67bf c7be e37e 0d3f 40bd 003f
00000390: 864b 8ebe 577d 7ebe 1a99 a23d b120 b53e
000003a0: fc72 dabd bf72 cc3e 3621 bc3e bb64 93be
000003b0: 1de7 82be 8277 45be 48f6 4cbf 775b f6be
000003c0: 18ac 8ebe b328 e93e db38 1ebf 36f7 cd3d
000003d0: f0ca a43e d155 1dbf 1333 35bf e1ec 6c3e
000003e0: 3f1c 68bf 95b6 1dbe f63b 0abe 6230 e9bd
000003f0: f911 f5be 6ecf 843d 4e85 aa3e b671 78bf
-0.25133082 -0.54330474 0.4511355 0.26204062 0.26423132 0.4711932 -0.40807232 -0.8711082
-0.30756512 -0.9149013 -0.038621195 0.99390316 -0.7246542 0.41911024 -0.15759508 0.100736424
-0.23624846 0.13189822 0.5503348 -0.45396152 -0.5414125 -0.46401462 -0.38657954 0.23364411
0.43752697 -0.59861577 0.45124093 0.08169393 0.32486665 0.06222851 0.63163143 -0.40618762
0.33424768 0.46422088 -0.4625842 -0.12362291 -1.2429156 0.017740436 -0.22553267 -0.40238887
0.5064399 -0.63412905 0.14203303 -0.13658126 -0.3272889 -0.5103074 -1.0943452 0.2555402
0.55717075 0.5401968 0.083833545 -0.97494936 -1.1030694 0.33732283 -1.0115753 -0.9216524
-0.44419375 -0.07754448 -0.6521159 0.22240272 -0.14556283 -0.44429573 -0.21159402 -0.115416236
-0.48118934 -0.22716755 0.48883763 -0.03477796 0.73156023 -0.5989537 -1.0823047 -0.5873661
0.2252833 -1.0323075 0.29220998 -0.33022457 0.27875057 0.073850766 0.19222383 0.10013809
0.917051 -0.21526912 -0.25827056 -0.49019673 -0.13057597 0.31525087 0.30568853 0.40829182
-0.13759689 -0.142779 -0.2567045 0.56994617 -0.20761676 -0.112623245 -0.38318673 -0.2608471
-0.046098348 -0.22002155 0.5672815 -0.041102137 0.5551091 0.20387964 1.0175483 -0.86368614
0.07487248 -0.54461956 -0.15959737 -0.2642259 -0.52176994 -0.16931567 -0.24994738 0.7950546
0.57131433 -0.55103296 -0.5116657 0.5892647 0.11879886 0.38609058 -0.17548403 0.18062891
0.30500403 0.007377588 -0.30943975 -0.61754864 -0.057802975 -0.8628774 0.053343628 0.22611046
-0.28111112 -0.24840775 -0.15868339 -0.24067059 0.10017923 -0.10014765 -0.4893456 -0.015185618
-0.7208383 0.3906842 -0.2537882 -0.54314226 0.022699995 -0.61556464 -0.3664862 -0.35801417
0.063221194 0.15670238 0.3637392 -0.01239892 -0.15299779 -0.7402443 -1.4457527 0.34781042
-0.09832419 0.30661136 0.02433278 -0.63981044 0.9794885 0.70174974 0.8310653 0.15237854
-0.24844593 -0.25257796 0.10568588 0.1089262 0.20219794 -0.5854332 -0.6275409 0.10204052
0.63362265 0.33124143 -0.19045779 0.8245297 -0.036576997 -0.30257484 0.905964 0.59869486
0.8507046 -0.27957478 -0.5053545 -0.6111124 0.5312022 -0.63383734 -0.11416984 0.22837143
0.20935403 0.6383792 -0.14168912 0.6936799 -0.8961393 -0.19556046 -0.27125707 -0.92951465
0.12892444 0.46014163 1.0525553 -0.85568213 0.29518026 0.3272429 -0.25519648 -0.5820306
-0.41678917 0.0072929813 0.46693036 -0.36777827 -0.12519884 0.3720113 -0.034412045 0.13451092
-0.21261576 -0.7022638 0.052403696 -0.5169753 -0.6870204 0.8840967 0.6795592 -0.28825873
0.06085029 -0.097740605 -0.6992607 0.14820212 -0.73524773 0.76118207 -0.2793848 -1.347543
-0.17714818 -0.39013216 0.5527174 0.5028877 -0.27791995 -0.24852501 0.07939358 0.35376504
-0.10666463 0.39931294 0.36744088 -0.2878779 -0.2556695 -0.1928387 -0.80063295 -0.48116657
-0.27865672 0.45538864 -0.61805505 0.10056917 0.3218608 -0.6145907 -0.7078106 0.23137237
-0.906681 -0.15401681 -0.13499436 -0.113861814 -0.47865275 0.064848766 0.33304828 -0.9704851

conv3.bias f4 [32]
00000000: da63 29bf ae78 fabe 3282 28bd b9d0 2bbf
00000010: 33a2 86bf 7fb8 1cbf 9d0e 1cbf f65d 83bf
00000020: 8d2e 39bf 0a00 79bf fb1e f5be 14d9 28bf
00000030: 3231 48bf 4ead 38bf 17a8 12bf bfd3 d7be
00000040: 209c 7fbf 00ae 36bf 9220 9abe 6a48 fabe
00000050: 18b2 09bf 23ee b1be 939a 07bf 9031 babe
00000060: d4f5 11bf 805e b6bf f0b8 12bf e97b 67bf
00000070: d1fd 4ebf e52d 02bf 8f69 88bf 39db 1bbf
-0.66167986 -0.48920196 -0.04113979 -0.6711536 -1.0518249 -0.6121902 -0.609598 -1.026305
-0.72336656 -0.97265685 -0.478752 -0.65956235 -0.78200066 -0.7213944 -0.57287735 -0.42153737
-0.998476 -0.7135925 -0.30102974 -0.48883373 -0.53787374 -0.34751996 -0.52970237 -0.36365938
-0.5701573 -1.4247589 -0.5731344 -0.90423447 -0.80856043 -0.5085128 -1.0657214 -0.6088138

conv4.weight f4 [32, 32, 5, 5]
00000000: b10d 13be 9c29 e2bd 2be2 afbd 1778 2bbf
00000010: 884c 323e 3598 0c3f 3d55 c93e d900 eabe
00000020: a6a0 a5be 5d21 abbe 66df 9a3d 85fb c9bd
00000030: 18b2 db3e 1b81 09be 48af 95be 6990 a6be
00000040: 3378 4dbe 9221 a33e 7dc6 a73e 60be e6be
00000050: 0dff 723e 3f9c e03d 37f8 813e 1c52 1bbf
00000060: aa42 043d 65a3 43be 2245 5ebe 9b25 6a3d
00000070: d33c f43d f795 85bd b196 7ebe 3fcc 023f
00000080: 1505 e6bc 5da6 4bbe 4498 8c3e 0416 75bf
00000090: 1dbe c5be bc5f df3e 32ad 2fbe 6bea 9abf
000000a0: 3ef4 99be 14ef 2c3f 21f3 b53d 255b cd3e
000000b0: e2d6 73be f39d 323e f9d6 0c3e d51c 37bf
000000c0: 4216 8d3e 26d9 5fbf 0896 d33d f4a7 89be
000000d0: bf0f 2fbf efe9 30bf cad7 63be 7609 3abe
000000e0: ca4b 77bf 0f25 94bd d0db d03d 3b5e 8f3e
000000f0: 6472 393f 0c32 94be 0235 c33e 7502 2abf
00000100: af0f 6d3f 78d4 9fbe d61b 0a3f a239 fb3e
00000110: 4fbc d1bd fd53 85bd cf3b 0fbe e967 663e
00000120: f7ff 083e aa0e 823d 8de6 14be 7818 93bf
00000130: b8ee 38bf 8e68 7fbf 1335 a23b fb05 d43d
00000140: f6c6 fdbe 1750 8b3d a3a7 31bf 4d74 f0be
00000150: f544 babe fe05 8e3f e1b5 123f 7e80 1abf
00000160: d359 383f 4710 1a3f 140f 54be e6db b0bd
00000170: 745b adbd 659e b13d cf33 d43e db30 05bf
00000180: bcc8 b63d e870 08bf 86e4 56bf 5c85 2ebe
00000190: 5790 8b3f 712d 98be e251 26bf 19bf 87be
000001a0: 5df2 a8be 1c1b fabc 0739 2abf 8037 7dbe
000001b0: 409f 983e 8cf5 c6bd 9d72 9dbe beef c63e
000001c0: bb15 753f c1f1 e2be 286b 63bf 55e4 fa3d
000001d0: 6aed e13e 7dd4 103e 56b5 60bf f30c 5f3d
000001e0: a527 e1be 0646 9f3e 94ce a73d f24e 15be
000001f0: e3a5 afbf c2a9 90be c85f 7dbe fb6f f03e
00000200: 976a b0be 1ae3 903d 1b94 8cbe 4fe1 bb3d
00000210: be32 e2be db5f f4bd 381c 9e3e c48e 9fbe
00000220: ce4d 14bd 83a0 92be 0071 053f c6a9 b1bd
00000230: 15c6 0c3f d33d c0be e317 73be 10dc 42be
00000240: 7a89 333f e0d5 8abf 8042 39bf ef41 c0be
00000250: 3e0c 07bf 2ef4 3b3f 4bba 3cbf 6c99 30bd
00000260: ebb4 043f 8b79 0ebe 801e 0f3f 4aeb b8be
00000270: b5c6 913e ea31 023e 2072 b23d bf2a a83c
00000280: 6222 59be 65ea 2abf 9263 64bf ceb1 0e3e
00000290: b99b 3cbd 3c20 5a3f a3de 35bf c30e 2cbf
000002a0: 41c3 0fbe 0098 ef3e 965c 823f 37f5 e2be
000002b0: 8503 eabe 93db 8abd 22ce 36bc 27b9 bcbe
000002c0: b37d 123f aa74 903e edf5 4b3d d621 1bbf
000002d0: d21d 85be 2d18 10bf 89e3 8dbd cb29 99bd
000002e0: 7d49 b93e 6d8d a2bd b5a7 1bbf 6ea9 5abf
000002f0: be0e d7be 7379 4fbf b508 2f3f 8565 46bf
00000300: d9a5 373e 454c 283e fb60 86be 9e9a 8ebd
00000310: 132f a53d 4945 5fbf ac3e 58bf 6ca2 b7bd
00000320: c754 1a3e c344 0c3f 2af2 5fbe 4352 b83d
00000330: 8682 cdbf a636 9abe 540d 6fbe 6b7f a83e
00000340: 39fc e93e 3e45 49be ca5b 2c3f 3924 853e
00000350: 533f d8be 78c4 01bc 2a24 7ebe 505d 8cbe
00000360: e4e6 bb3e 9138 26bf 63bd 54bf aa8b d23c
00000370: d997 55be 766a 1c3e 3383 8dbf 76d6 88be
00000380: 7340 9fbe ad03 cc3c 4665 a03d 9288 cabe
00000390: eabf 5fbe f8b9 263e f2a5 18bd 433d c2bd
000003a0: bbb4 0fbf 3d5f 4ebe 3d71 5cbe d036 3ebf
000003b0: d3cc f0be ab7b 00bf 8b43 4f3e 6766 383f
000003c0: 9847 61bf 5a79 5ebe 1ce9 88bf ab02 b2be
000003d0: 9d02 943e 08c3 27bf ca29 1dbf e409 07bf
000003e0: d1b5 043f 58cd 40bf a002 2abf 22b3 a1bf
000003f0: 4239 ea3a a410 4cbf 2010 7b3e a66d 4e3e
-0.14360692 -0.110430926 -0.0858806 -0.6698012 0.17412007 0.5491975 0.39322844 -0.45703772
-0.32349128 -0.33423892 0.07562141 -0.09862427 0.42909312 -0.13428156 -0.2923529 -0.3253205
-0.20065384 0.3186155 0.32768622 -0.4506712 0.23730107 0.109673016 0.25384685 -0.60672164
0.03229014 -0.19105299 -0.2170606 0.05716477 0.11925664 -0.06522744 -0.24862172 0.51092905
-0.028078595 -0.19887681 0.2745992 -0.9573672 -0.38621607 0.43627727 -0.17155913 -1.2102789
-0.30069155 0.67552304 0.08884264 0.401086 -0.2381244 0.17443065 0.1375388 -0.7152837
0.27556044 -0.8744072 0.103313506 -0.2688595 -0.683834 -0.69106954 -0.22250286 -0.18167672
-0.9660002 -0.07233631 0.10198176 0.2800158 0.7244017 -0.28944433 0.3812638 -0.6641
0.92602056 -0.31216788 0.53948724 0.49067408 -0.10240995 -0.0651016 -0.13987659 0.22500576
0.13378893 0.06350453 -0.14541073 -1.1491842 -0.72239256 -0.9976891 0.0049501746 0.10352703
-0.49565858 0.06802385 -0.6939642 -0.4696373 -0.36380735 1.1095579 0.57308775 -0.60352314
0.7201206 0.6018109 -0.20708877 -0.08635692 -0.08464709 0.086727895 0.41445777 -0.5202767
0.08925006 -0.5329728 -0.8394245 -0.1704306 1.0903424 -0.2972217 -0.64968693 -0.26512983
-0.32997409 -0.030530505 -0.66493267 -0.24728203 0.29808998 -0.09714803 -0.30751505 0.38854784
0.95736283 -0.4432507 -0.8883538 0.12250582 0.44126445 0.14143558 -0.87776697 0.05445571
-0.4397556 0.3110811 0.081936985 -0.14580896 -1.37225 -0.28254515 -0.24743569 0.46960434
-0.34456322 0.07074566 -0.27456746 0.091738336 -0.44179338 -0.119323455 0.30880904 -0.3116361
-0.036207013 -0.28638086 0.5212555 -0.0867496 0.5498975 -0.37547168 -0.23739581 -0.1902926
0.7013165 -1.084652 -0.72367096 -0.37550303 -0.52753055 0.73419464 -0.7372176 -0.043115065
0.5183856 -0.13913552 0.55905914 -0.3611701 0.28471914 0.12714353 0.08713174 0.020528195
-0.21204522 -0.6676391 -0.8921443 0.13935015 -0.046046946 0.85205436 -0.7104284 -0.67210025
-0.14039327 0.46795654 1.0184505 -0.4432771 -0.4570581 -0.06780162 -0.011157544 -0.3686001
0.5722305 0.28214008 0.04979508 -0.60598505 -0.25999314 -0.5628689 -0.069281645 -0.074786745
0.3618888 -0.07937131 -0.60802776 -0.8541478 -0.42003435 -0.8104469 0.6837266 -0.77498657
0.1793436 0.16435345 -0.26245865 -0.06963085 0.08065619 -0.87215096 -0.8447063 -0.089665264
0.15071402 0.5479242 -0.21869722 0.09000065 -1.6055458 -0.30119818 -0.23344928 0.32909712
0.45700243 -0.1965532 0.6732756 0.26004198 -0.42235813 -0.007920377 -0.24818483 -0.27414942
0.36699593 -0.64930063 -0.8310148 0.025701363 -0.20858707 0.15274987 -1.1055664 -0.2672612
-0.31103858 0.024904096 0.078318164 -0.3955732 -0.21850553 0.16281879 -0.037267633 -0.09484341
-0.5613515 -0.20153518 -0.21527572 -0.7430239 -0.47031268 -0.501887 0.2024061 0.72031254
-0.8799987 -0.2172598 -1.0696139 -0.3476766 0.28908244 -0.6553197 -0.6139189 -0.52749467
0.5183993 -0.7531333 -0.66410255 -1.2632792 0.0017869847 -0.7971289 0.2451787 0.20159015

conv4.bias f4 [32]
00000000: db2b b43e 8fc4 a03e f7d8 afbe d5ff 1fbf
00000010: 6f55 77bf 8fa5 21bf 18ef 013e 90f2 0dbf
00000020: 49b8 17bf 5163 1cbd 29b9 40be bebf e6be
00000030: 62e8 29bf e92f ffbe 1be4 ae3d 2c1d 93bf
00000040: b1cc 2d3f a290 aabe 1508 843c a34a 91be
00000050: b91b acbe 99e2 16bf c531 3a3e f3b3 f3be
00000060: 6b1a 463e 7ed3 86be 1d97 0ebf 3738 1abf
00000070: 05a1 cebe 826c e4be 9178 17bf 7bd3 26bf
0.3518971 0.31399962 -0.3434522 -0.62499744 -0.96614736 -0.6314325 0.12688863 -0.55448246
-0.5926557 -0.038180653 -0.18820633 -0.45068163 -0.66370213 -0.4984124 0.085396014 -1.1493278
0.6789046 -0.3331347 0.016117135 -0.28377256 -0.336149 -0.5893951 0.18183048 -0.47598228
0.19346015 -0.2633323 -0.5569933 -0.6024203 -0.40357223 -0.44614035 -0.59168345 -0.65166444

conv5.weight f4 [32, 32, 5, 5]
00000000: e8e6 1ebe c93b 033f 9d9b 993e eaa4 00be
00000010: d590 6cbf a23e 41be 0481 0a3f decf df3e
00000020: 8203 a6bd 1aed 35bf 5af6 523e e050 0ebf
00000030: b3b1 8dbe 992b e53e 126d 21bf 55d9 313f
00000040: 7773 5e3f 582f b9bd dc71 cc3a a653 88be
00000050: cdd5 c23d bbcc d7be ba91 e33e 559f ba3e
00000060: 2259 14be 7b88 03c0 b78f 953e 6ae6 3b3d
00000070: 915a 20bf 2999 953e bb6e a93e b1d8 17be
00000080: 7b0b 8abe 64c6 e33e cf6b 1fbf 7895 303f
00000090: c032 443e d9a1 8ebe 3cac a93e 7cd9 e9be
000000a0: abca cabd 9458 a43e 8ee8 3e3a 25b0 ad3e
000000b0: ecf3 cabe 9844 18bf 016f 0dbf 3db3 aebe
000000c0: 0f0e 2fbf 3296 a2bf f170 473e 3dc8 043e
000000d0: 7184 903e 002a 82be 3c64 34bf 5c85 bb3e
000000e0: 8fde f6bd cc8f d83e f947 2cbf abb0 793e
000000f0: 13c5 11bf 4d28 bbbe 8403 01bf de9e a6bd
00000100: 2c3b c2be fd48 d43c 9b9b f6bb fc62 493f
00000110: 152e 8fbe 59e2 b43e 3ec7 91be 8fb2 13be
00000120: 5fc3 1abf f6ef 0fbf 1c07 83be 7018 b13e
00000130: f11e cebd c344 2dbf ec68 9abe 6903 6abf
00000140: 186c 33be 95d1 173f 0a25 b53d 7c5a 5d3f
00000150: d456 53bf dbbb 5abf 4bf6 873e 9566 14bf
00000160: 1030 9cbf 9027 93be 8f91 babd 96b1 98be
00000170: c5b9 353f 5929 01bf 25ab b4be f815 d0bf
00000180: 9153 1abf eccc c9be dce0 c3bf c5a6 82be
00000190: 8781 063e a4ff 923e 9da8 fabe 86fd d03e
000001a0: 724c 1a3f 4cc7 1abd 608a 1b3f 9c3c 79bf
000001b0: 365b 003f dd0a 60be 08df b8be ef1c 49be
000001c0: d438 933d 0240 06bf cc98 893e a1bb c0be
000001d0: f4c1 0a3f 091b de3e b484 68bc e73f f7bd
000001e0: d198 ef3e 3390 c23e 3d6e dcbe 2180 86bf
000001f0: ea94 30be 74db 28be d780 ac3e 9ef3 a83e
00000200: 372d 513f 860b c73c 0cf6 46bf 53d6 b93e
00000210: 8cd2 013f 70cd 14bf 9a4f 3c3f e7ef 193f
00000220: 4f3d 683f 46d8 fa3e 875f 60be 18cc 483c
00000230: 9e70 253e 623e b4be 2861 19bf 6d4b 6abf
00000240: 0b32 58be 1e4f 13be 95a6 d0be fbab 85bf
00000250: ee34 c1be eefc 07bd fc65 1d3f 2b98 bb3e
00000260: 8180 65bf 40a4 9fbd b760 2abd 3717 db3e
00000270: 7e63 febe 3740 63be 857b 63bf 9ac2 b6bd
00000280: 9bae e7be e05a 0c3f a9cd 4fbf f04c a23e
00000290: 6eb7 d5bd c5dd 443f 15ca c7be bf95 b93c
000002a0: 0d95 243f d123 5e3d ab2f 1a3f 34e0 0abf
000002b0: af3b 10bf 6b11 92be 1e54 6cbf 6b52 9f3e
000002c0: 9455 f3be d098 4f3d 34ec 44bf 30c9 d1be
000002d0: 115a 293e 8780 33be 4f98 c53e 129f 4c3e
000002e0: 1a20 27be ac5a a53c e5a1 bdbe 426e 40bf
000002f0: d0fb 3f3e fad0 26be 1dea bf3d f4bf 983e
00000300: f4b1 67bf d330 e1be f80a 423f c67c ff3d
00000310: 0162 81bd 4f15 703e 54e5 a3bd e139 333e
00000320: a5c4 093f 0bf3 ed3d e78d 853d 0e1a 253f
00000330: bf2c 48bf 9350 93be 332c c63e db15 4cbf
00000340: d192 b33e 8138 5dbe 5409 8b3d 9237 63be
00000350: 36c3 35bf 228f 183f a1c4 b13c b949 34be
00000360: 8e0a 2bbf 09c9 cabe 0eb6 153e f2ad fc3d
00000370: 5c83 df3d ee21 26bf b99c a6be 3b70 633e
00000380: 5ca0 31bf cc3a 883e e8f4 60be 4d2c 4e3e
00000390: 7f81 3f3d 3ecb e03e b3a5 e93e dd70 243f
000003a0: bd17 62be 6d63 f5be 9555 e5be cbf8 193f
000003b0: 7e8b 5dbe caea bcbe b282 003e 1c51 293e
000003c0: c7fb 883e 869f 07be 4580 2a3e 7557 543e
000003d0: dceb e2bd 18ce b4bc ae2d 38bd fadf 6c3f
000003e0: 400d 5bbe b661 2e3f 5ed5 013f 5e52 55bd
000003f0: 7296 163e 4b87 79be 419b 8b3e 03a1 b53e
-0.15517771 0.512631 0.30001536 -0.1256291 -0.92408496 -0.18871549 0.5410311 0.43713278
-0.08106138 -0.71064913 0.20601788 -0.55592155 -0.27674636 0.44759825 -0.63057053 0.6947225
0.86894935 -0.09042233 0.0015597898 -0.2662632 0.095134355 -0.42148384 0.44447118 0.36449686
-0.14487126 -2.055205 0.29211208 0.045874037 -0.62638193 0.29218414 0.33092293 -0.14828755
-0.26961884 0.44487298 -0.6227388 0.6897807 0.19159985 -0.27857855 0.33139217 -0.4567374
-0.09901937 0.3209883 0.0007282578 0.3392345 -0.39639223 -0.59479666 -0.55247504 -0.34121123
-0.68380827 -1.2702086 0.19476677 0.1296701 0.28226045 -0.25422668 -0.70465446 0.36625183
-0.120541684 0.42297208 -0.6729732 0.243838 -0.56941336 -0.36554185 -0.5039599 -0.0813577
-0.3793577 0.02591371 -0.007525874 0.78666663 -0.27964845 0.3532894 -0.28472322 -0.14423583
-0.6045436 -0.56225526 -0.25591362 0.34588957 -0.10064495 -0.6768305 -0.30158174 -0.91411453
-0.17521703 0.5930417 0.08844955 0.86466193 -0.82554364 -0.85442895 0.26555094 -0.5796903
-1.2202168 -0.2874112 -0.09109794 -0.29822987 0.70986587 -0.50453717 -0.35286823 -1.6256704
-0.6028376 -0.39414155 -1.5302997 -0.2551786 0.13135348 0.28710663 -0.48956767 0.40818423
0.60272896 -0.03778772 0.6075802 -0.9735811 0.50139177 -0.21879144 -0.3610766 -0.19639944
0.071885735 -0.5244142 0.26874387 -0.3764315 0.542022 0.4338 -0.014191795 -0.12072735
0.46796277 0.3800064 -0.43052855 -1.0507852 -0.17244306 -0.16489965 0.33692047 0.32998365
0.8170962 0.024297487 -0.7771919 0.3629633 0.50711894 -0.5812597 0.7355896 0.60131687
0.9071855 0.4899313 -0.21911441 0.012255691 0.16156241 -0.35203844 -0.59913874 -0.9152134
-0.2111284 -0.1438565 -0.40752092 -1.0443109 -0.37735695 -0.033200197 0.6148374 0.36639532
-0.89649206 -0.07795 -0.04159614 0.4279115 -0.49685282 -0.22192465 -0.8886035 -0.08923836
-0.452504 0.54826164 -0.8117319 0.31699324 -0.10435377 0.76900893 -0.39021364 0.022654412
0.64289933 0.054233376 0.60228986 -0.54248357 -0.5634107 -0.28528914 -0.9231585 0.31117567
-0.47526228 0.050682843 -0.7692292 -0.40973806 0.16538264 -0.17529498 0.38592765 0.19982556
-0.1632084 0.020184837 -0.37037578 -0.7516824 0.18748403 -0.16290656 0.093708254 0.2983395
-0.9050591 -0.43982562 0.75797987 0.124749705 -0.06317521 0.23445629 -0.08002725 0.17502548
0.5381568 0.116186224 0.06521206 0.6449288 -0.7819328 -0.2877241 0.38705596 -0.7972085
0.3507295 -0.21603586 0.067888886 -0.22189167 -0.71000993 0.59593403 0.021700205 -0.17606248
-0.6681298 -0.39606503 0.1462023 0.12337865 0.10913727 -0.6489552 -0.32541445 0.22210781
-0.69385314 0.26607358 -0.21968424 0.20134087 0.046754356 0.4390506 0.4563423 0.64234716
-0.22079368 -0.47927418 -0.44791856 0.6014525 -0.21635243 -0.3689788 0.12549856 0.16534847
0.2675459 -0.13244447 0.16650493 0.20736487 -0.11080143 -0.02207093 -0.04496544 0.9252926
-0.21391773 0.68117845 0.507162 -0.052080505 0.14705828 -0.24368016 0.27266887 0.35474405

conv5.bias f4 [32]
00000000: 0ae0 53bf 46d7 903f d92d fabe d8a1 b0bf
00000010: 0ecd 37bf 7cbe 7f3e 7722 19bf 2b9b 78bf
00000020: 7a36 9e3f aa68 fd3c 86bd 79bf 8e04 d13e
00000030: a7ee 4bbf 2c58 59bf 3a84 90bf 15b3 77bf
00000040: 6a95 2bbf ff56 083e 5547 98bf 1519 98bf
00000050: dc07 8ebe ea9c 5abf b5cf a9bf e0b2 193f
00000060: 146e a0bf 34aa b03e 4f56 90bf 37ef 4bbf
00000070: 30b4 1fbe b8dc 3e3f 9637 63bf 6251 1abf
-0.8276373 1.1315696 -0.48863104 -1.3799391 -0.71797264 0.24975008 -0.59818214 -0.9711177
1.2360375 0.030933697 -0.97554815 0.40823787 -0.7966103 -0.84900165 -1.1290352 -0.9675763
-0.6702486 0.13314436 -1.1896769 -1.1882654 -0.2774037 -0.8539568 -1.3266512 0.60038567
-1.2533593 0.34504855 -1.1276339 -0.7966189 -0.1559608 0.7455554 -0.8875669 -0.6028043

conv6.weight f4 [32, 32, 5, 5]
00000000: dc7a c0bc 9eeb d53e b21d c73c 8339 863f
00000010: f3c6 b5be ef6a a83e 5acc 493d 4193 5ebe
00000020: ad40 8a3e 77a0 c4be b750 03bf 8b72 6ebe
00000030: 6811 9fbe 683c 1a3d 3f82 81be a6fe e03b
00000040: a63b ab3e 50f6 98be 1d4f a63e 4440 c93d
00000050: ab4f 833e cd74 023c 625f 04bf de06 76bf
00000060: 6b80 64be f2ed 31be 1d60 fc3e 24e5 b63e
00000070: 3246 e93e 33c0 133f 3670 10be 406e a8bd
00000080: 8946 55bd 13a5 5dbd 6704 9d3e 01b4 113c
00000090: a5fa 573e 0532 d7be cadb 32be 8dd7 8f3e
000000a0: 550e c83e 448d ea3e 6c6d 113f 2d7c 32bf
000000b0: 45f7 a8be 7987 84bf a858 a13e 17b3 9d3d
000000c0: 6029 0abe 41a2 91bd cc5f 543e e2b1 69be
000000d0: 75de 48be b5aa 6b3f 982c 3c3e 2e80 80bd
000000e0: c7f2 de3e 66ef ffbe 3938 a03e 4cfe ce3e
000000f0: dfc0 743d e408 92be 7e4f 3fbf e888 4ebf
00000100: a030 a03e eecb 3b3e 4f05 0c3d 2278 193e
00000110: 4887 833f c9c3 883f e315 083f eeaa 973f
00000120: fd6e a43e 37cf 853f b91f 0e3f fe85 c43e
00000130: 9a29 bbbe 048c d03d 2987 77bf 3158 e73c
00000140: afa7 e13e f1ca 4e3e 545d 2a3d 938c 9f3e
00000150: b64a 2fbe ac4f 91be 81c6 b3bd 258c 213e
00000160: 9fcf c0be 7454 293f 6694 33bf 2286 8abe
00000170: 2268 1a3e 71fb c9be 5b0b 50be 9add 49bd
00000180: 3e11 21be 0c0a 9f3e 443c 613e 6722 b1be
00000190: 1460 003e 7c77 423f 8c26 0f3f 6e80 b13c
000001a0: b1fd a3be 231a 52bd 6e14 1bbe c4fa d83d
000001b0: 31ff 33be e29f 053d b3b1 033b a250 553c
000001c0: 49d3 eabd 8e20 35bc b1fe 083e e795 063a
000001d0: ee22 dc3e b48f 103f a6c0 b0bc 375c 9ebd
000001e0: 768b 10bc 7fea 31bd 76ce b4be 901d 8abe
000001f0: 4c63 5ebe 1389 423e 74be d8bd 0536 10bf
00000200: 800c fa3d da63 1abf afa2 883d 9bd0 52be
00000210: 701d 483e e3ca 28bf 1c3e 00be 192c 2b3f
00000220: acd2 b5be 2623 933e 3ff3 1c3f 21d4 ccbe
00000230: b0cc 313f 7d6a 123f 5049 9f3e ba69 e03e
00000240: a433 36bf a01e 41bf 9e8d 8b3e c5bc 34be
00000250: 8d60 12bc f95d 0e3e 4ef0 153e c61b 4abe
00000260: 6449 05bf f901 28bf 9170 82be 18d6 28bf
00000270: abee 743f 407d d6be fb26 d6be 4209 84bf
00000280: a512 a7be 6cf4 48be 82a0 8e3d adc4 80be
00000290: c2ae 21bf 03f6 64be fe93 8fbe f51e 14bf
000002a0: e04d 07bf 7b51 133f f84b ca3d 2e01 323f
000002b0: 43d4 7f3e 916f 99bf cc42 83be dc69 753e
000002c0: c011 9b3e cfd7 1c3e fc99 febd 289b 5bbf
000002d0: d06e d83e 42f2 52bf e8c0 af3e 1c1e 913c
000002e0: ec40 5bbf 44ae 8dbe 74e1 aabe dd04 923e
000002f0: b096 f8bd 3448 52bf 3c3c 95be 15e1 1c3e
00000300: 560d 66bf f621 9abe 4b02 823e 1922 c2be
00000310: 73d6 38bd a9a8 73be 8191 cc3d 8f34 153f
00000320: 05d5 36be 35da 15bf cd18 6d3e 17c1 ed3d
00000330: 1ff2 a5bd b317 873e a605 9c3e d8c7 f03e
00000340: 7d7a 16be 69f9 81bf cafd 6bbf bbf6 21bf
00000350: 34f6 873e 5b5e 29bf 31d4 07bf 4631 44be
00000360: 86e9 a1bc 2209 3c3f 2b3f 07bf 6f1f a4be
00000370: 9b24 1cbf 1dc1 66be 088b bdbe ef7c b23e
00000380: 0a47 8abd f55f 58bf 7eec a9be 592e 263e
00000390: e380 203f 41cd c43e da81 a53e 69e8 c0be
000003a0: 3768 dcbe 7ab4 20be 5401 333f 629e 39be
000003b0: c4f9 93be f117 c1bb 0b86 183e 8e8f 173f
000003c0: 7c12 a2bd 3d5f 1fbe 47a8 6c3f 625f 7a3e
000003d0: 894d 7b3d 86ea c83e 920e 5fbf 07cf b5be
000003e0: 7684 09be 8b0c 94be 836b 97bd b86a 773e
000003f0: b993 cc3e 0616 6d3f a8a2 f63d 08d3 e7bd
-0.023496084 0.41781324 0.024306152 1.0486301 -0.3550335 0.32894084 0.04926715 -0.2173586
0.2700247 -0.38403675 -0.51295036 -0.23285882 -0.31067967 0.037655264 -0.25294682 0.006866294
0.33443946 -0.29875422 0.32482234 0.09826711 0.2564672 0.007962418 -0.5170804 -0.9610423
-0.22314613 -0.17375925 0.4929208 0.35721695 0.45561367 0.5771515 -0.14105305 -0.082241535
-0.05206922 -0.054112505 0.3066742 0.008893014 0.21091707 -0.4203035 -0.17466655 0.2809414
0.39073434 0.45810902 0.5680759 -0.6972073 -0.33001152 -1.0353843 0.31512952 0.07700174
-0.13492346 -0.071110256 0.20739669 -0.22821763 -0.1961611 0.92057353 0.18376386 -0.06274448
0.435446 -0.49987334 0.31292894 0.40428388 0.05975425 -0.28522408 -0.7473067 -0.8067765
0.31287098 0.18339512 0.03418475 0.14987233 1.027566 1.0684749 0.53158396 1.1849039
0.32115927 1.0453862 0.55517155 0.38383478 -0.36555177 0.10182956 -0.96690613 0.028240295
0.44073245 0.20194604 0.04159291 0.31161937 -0.17118344 -0.28381097 -0.08778096 0.15776117
-0.37658402 0.6614449 -0.70148313 -0.2705546 0.15078786 -0.39449647 -0.20316832 -0.0492836
-0.15729234 0.31062353 0.21995646 -0.3459656 0.12536651 0.7596357 0.5591819 0.021667685
-0.3202949 -0.051294457 -0.15144512 0.10594705 -0.17577817 0.03262318 0.002009493 0.013019713
-0.11466081 -0.011055125 0.13378407 0.00051340315 0.429954 0.56469274 -0.021576237 -0.07732432
-0.008822313 -0.043436524 -0.35313767 -0.2697568 -0.21717566 0.18997602 -0.10583201 -0.5633243
0.122094154 -0.6030861 0.066716544 -0.20587389 0.1954248 -0.6593458 -0.12523693 0.6686416
-0.35512292 0.28737754 0.61308664 -0.40005592 0.69452953 0.5719374 0.3111062 0.43830663
-0.7117255 -0.75437355 0.27256483 -0.17650135 -0.008934152 0.13903035 0.1464245 -0.19737157
-0.5206511 -0.6562801 -0.25476506 -0.6595168 0.9567668 -0.41892433 -0.41826615 -1.0315325
-0.32631412 -0.1962449 0.06964208 -0.25150052 -0.63157284 -0.22359471 -0.28042597 -0.57859737
-0.528532 0.57546204 0.09877771 0.6953305 0.24983315 -1.1987172 -0.256369 0.23966163
0.3028698 0.153167 -0.12431714 -0.85783625 0.42272043 -0.82400906 0.34326863 0.017714553
-0.8564594 -0.27672017 -0.33375132 0.28519335 -0.12138116 -0.82141423 -0.29147518 0.15320237
-0.898641 -0.30104035 0.25392374 -0.3791664 -0.04512639 -0.23794807 0.0998869 0.58283323
-0.17854698 -0.5853608 0.23153992 0.116090946 -0.081028216 0.2638527 0.3047306 0.4702747
-0.14695163 -1.0154239 -0.92184126 -0.63267106 0.26555026 -0.661596 -0.53058153 -0.19159421
-0.019764673 0.73451436 -0.5283076 -0.32055232 -0.60993356 -0.22534604 -0.37020135 0.34860942
-0.06751831 -0.8452142 -0.33188242 0.16228618 0.62696666 0.38437846 0.3232563 -0.37677315
-0.4304826 -0.15693846 0.699239 -0.18126824 -0.28901494 -0.0058927466 0.14894883 0.5920342
-0.07913682 -0.15563674 0.9244427 0.24450448 0.06135324 0.39241427 -0.8713161 -0.35509512
-0.13429436 -0.2891582 -0.07393553 0.24161804 0.39956453 0.9261173 0.12042743 -0.11319548

conv6.bias f4 [32]
00000000: 3fcb e4bf 329b 8e3f 7d79 d1bf 75fe d5bf
00000010: b7f5 c2bb 8a3a ef3e eb39 78bf 7750 b9bf
00000020: 098e 3f3e a84d 79bf 4190 bfbe c474 a6bf
00000030: 5a99 4440 1dc1 813f 89db 96be c238 bfbf
00000040: a610 513e 32a2 7fbf 290c fdbe a3f0 49bf
00000050: 8a3e c23e a8a4 1d40 eddb db3d 23ce d9bf
00000060: 9cc2 8bbf 7d32 d33f 8762 cd3f 4463 03bf
00000070: 817c 19bf 9d86 eabf adc3 dfbe 2002 22bf
-1.7874526 1.1141112 -1.63652 -1.6718279 -0.0059497016 0.4672435 -0.96963376 -1.4477681
0.18706526 -0.9738412 -0.37414744 -1.3004384 3.0718598 1.0137058 -0.29464367 -1.4939196
0.20416507 -0.99856865 -0.4942334 -0.7888281 0.3793834 2.4631748 0.10735307 -1.7016033
-1.0918765 1.6499783 1.6045693 -0.5132334 -0.599556 -1.8322331 -0.43703976 -0.6328449

conv7.weight f4 [32, 32, 5, 5]
00000000: 2c99 10bf e083 6cbe bb10 13bd f841 e63d
00000010: ab70 b43e f51b 6abf 958b 12bf 27b2 1d3e
00000020: c430 3dbd 49f8 8dbe a79b 16bf d19b 2abf
00000030: c50b e7be 62b3 49bf dd87 22bf 85a5 cfbe
00000040: eda0 c7be b159 adbe 0d6a 53bf 83e6 a5bd
00000050: 57fb 73bf 7b4c e1be 4657 27bf d13d c5be
00000060: f00b 893e c369 8cbb c1b5 5fbe 7a40 dfbe
00000070: f655 69be 5871 0b3f 54db 8f3d 32b5 e8be
00000080: 6a21 bebe a7a6 483f 8086 523d 8edb 91be
00000090: 9999 43bf ba56 eabe 4a25 99be 7561 bbbe
000000a0: 2523 7abd 8d77 2cbd 5379 813c bf81 7e3e
000000b0: 9790 de3d 510e 04bc 9dc0 313d b2c2 c73c
000000c0: 5be2 ebbd 55b5 0bbe 736b b83e 909d 6ebd
000000d0: e469 14be 5532 89be 1315 563d 8c3b c7be
000000e0: 10af 8fbe 7639 5f3e 985f 29bf e4cf 1cbf
000000f0: f343 66be cc2b 67bf 98e0 f8be c6ad 06bd
00000100: de63 f1bc 8e73 0c3d 2765 6dbf bb7e b8bf
00000110: 57af 82be 7726 e3be 0406 4d3e 1d49 4bbf
00000120: 45a8 96bf 604f e7be ae0f 0ebf a91b ce3e
00000130: 2703 4d3e b765 99bd 2636 c73d 27c1 1c3e
00000140: 3eca 9e3e a991 3e3e 29dc c03e 3368 f43e
00000150: 1f1b 333e 95ba 423e 90b1 c83d 0991 4fbb
00000160: e6ee 073d 56b3 923d 516e 373e e919 31bc
00000170: fc9c 4dbd b560 3a3f 97c5 0a3f 09bc 3fbe
00000180: 5035 90bd b72c 80be 6977 37bf 9791 083f
00000190: cfca d5bb ea48 92bf fb37 aa3e 570e 06bf
000001a0: f90f fe3e b5ad f63e f43c bd3a f484 5fbd
000001b0: 0d3e c53e bf06 003f 4915 dcbd e754 e53d
000001c0: 8b20 53bf 7ade 5fbe f267 c03e 6651 0cbc
000001d0: 0f68 94bd 2338 29bf 0698 13bf 7e99 2cbe
000001e0: 61b5 3a3d bae7 a63d 7c7f eebe 40fc 95bd
000001f0: 56e0 0abf 3925 2b3f 81f4 fc3e c23c 243e
00000200: d1e4 d5be 112c b9be 4b86 1e3f 8130 363e
00000210: d880 8a3d 925f 9f3e bf30 943c 0648 74be
00000220: 66f4 3fbe f190 96bd 2d47 26bf 285e 57bd
00000230: 1bc5 633e 831a 233e 86c3 92be e960 0ebf
00000240: abb5 5abc 965a dfbc 0494 58bf 885d 95be
00000250: 2111 91bf 5ed9 9abe b076 bfbe 2de8 5dbf
00000260: e823 153e 3357 e9bd f588 203f 1995 2d3d
00000270: 93c5 ed3c 9d83 26bf f7ba 26bf 1adc a23e
00000280: 407a d83e b074 723c 0140 563e cb09 7d3d
00000290: fc5f 10bf 1486 563e 0b13 2b3e 3821 4a3d
000002a0: 754f 3dbf ab73 83be 3caa c0bd 908f 0dbe
000002b0: f34f 95be 67b2 1b3d 0d47 363f 6cf9 3d3e
000002c0: 95be a9be 0e51 84be b489 c6be 6a59 723e
000002d0: 80a8 0b3e e435 b4be 7f59 8dbe c24c 1f3f
000002e0: 9215 0c3e a918 cfbe 82f5 35bf c4b8 21be
000002f0: 6d6c 82be f0c7 cb3d 1540 603e 5972 9f3e
00000300: 1948 d4be 2611 53bf 1c1f b5be 32ae a8be
00000310: 881c 56be 7acb e6be 95a7 c83e a949 123f
00000320: 2223 95bf 9fd2 613e 851e cb3d f011 183c
00000330: 8e34 663e 1f41 2cbf 57f7 33bf b495 1abf
00000340: 773b ebbe 3e09 afbb 385f 5ebf 1fbf adbe
00000350: bc4a d53e 666f 2b3f f851 cb3e 824c 9dbe
00000360: 09f8 433d 109a ffbd 7bf6 fa3d 6bd4 a63f
00000370: f474 84bf c070 f7be a990 d8bc 8b2b 243f
00000380: e548 c23d 6704 c6be d594 bf3a 1dbb 2e3d
00000390: a055 023e 13ab 2c3e b06f dcbe 0fed a0bd
000003a0: 49fa b63e 4a7e d03e e5fc 50be f317 aabf
000003b0: b04d 17bf 7b68 d6be 471a 03be e80a b7be
000003c0: 8ca9 9abf ff16 c1b9 d21d 483d 948a 25be
000003d0: d4b9 733e f75d 63bf e8ad bf3d 3f70 84be
000003e0: 3039 02bf 3588 95be 6f60 2fbf afc6 74bf
000003f0: bbf1 5cbe 9ad1 fbbe 4f33 353f 74f4 ea3d
-0.5648372 -0.23097181 -0.035904627 0.11243051 0.3524221 -0.9144891 -0.57244235 0.15399991
-0.046189085 -0.2772849 -0.58831257 -0.66644007 -0.45126167 -0.7878934 -0.6348856 -0.4055597
-0.38989964 -0.33857492 -0.82583696 -0.08100607 -0.9530539 -0.44003662 -0.65367544 -0.38523725
0.2676692 -0.0042850687 -0.21846677 -0.4360388 -0.22786698 0.54469824 0.070242554 -0.4545074
-0.37134868 0.7837929 0.0513978 -0.2848782 -0.76406246 -0.45769292 -0.29911262 -0.3659779
-0.061068673 -0.0421062 0.015804922 0.24854182 0.10867422 -0.008060054 0.04339658 0.02438483
-0.11517783 -0.13643391 0.36019477 -0.058255732 -0.14493519 -0.26796213 0.05226619 -0.38912618
-0.2806325 0.21799263 -0.6616149 -0.61254716 -0.22486858 -0.90301204 -0.4860885 -0.032880567
-0.029466566 0.03428989 -0.9273247 -1.4413675 -0.255244 -0.44365284 0.20021826 -0.79408437
-1.1770102 -0.45177746 -0.55492675 0.40255478 0.20020734 -0.07490104 0.09727125 0.15308057
0.31013674 0.18610252 0.3766797 0.47735748 0.17490815 0.19016488 0.09799492 -0.003167214
0.033186816 0.07163112 0.17913176 -0.0108094 -0.05019854 0.72803813 0.5420775 -0.18724073
-0.070414186 -0.25034115 -0.7166658 0.5334715 -0.006524421 -1.1428502 0.33245835 -0.5236563
0.4962156 0.48179403 0.0014437721 -0.054570153 0.38523903 0.50010294 -0.10746247 0.111978345
-0.8247153 -0.21862212 0.37579304 -0.008564329 -0.0724641 -0.6610128 -0.57653844 -0.16855428
0.045583133 0.08149667 -0.46581638 -0.073235035 -0.5424856 0.6685367 0.49405292 0.16038802
-0.41776136 -0.36166432 0.61923665 0.1779194 0.06762856 0.31127602 0.01808965 -0.238556
-0.18745574 -0.07351864 -0.64952356 -0.05258003 0.22243159 0.15928082 -0.28664798 -0.55616623
-0.013348977 -0.027264874 -0.84600854 -0.2917292 -1.1333352 -0.30243963 -0.3739524 -0.866824
0.14564478 -0.11393585 0.6270898 0.04237852 0.029024875 -0.65044576 -0.65129036 0.3180855
0.4228077 0.014798328 0.20922853 0.061776917 -0.5639646 0.20949584 0.16706483 0.049348086
-0.73949367 -0.25674185 -0.0940747 -0.13824296 -0.2916256 0.038011935 0.71202165 0.18552178
-0.33153215 -0.2584309 -0.38776934 0.23666921 0.13638496 -0.35197365 -0.27607343 0.622265
0.13680103 -0.40448502 -0.7107774 -0.15793139 -0.25473347 0.099502444 0.21899445 0.31141928
-0.41461256 -0.8244804 -0.35375297 -0.329454 -0.20909321 -0.45077115 0.39190355 0.57143646
-1.1651347 0.22053002 0.099179305 0.00928162 0.22480986 -0.67286867 -0.70299286 -0.6038468
-0.45943806 -0.005341678 -0.8686404 -0.33934876 0.4165858 0.66966856 0.39710975 -0.30722433
0.047843967 -0.12480557 0.12254044 1.3033575 -1.0348191 -0.4832821 -0.026436167 0.6412894
0.0948656 -0.38675234 0.0014616499 0.042658914 0.12727976 0.16862135 -0.4305396 -0.07857715
0.35737827 0.4072135 -0.20408972 -1.3288559 -0.59102917 -0.41876587 -0.12802993 -0.35750508
-1.2082992 -0.00036828962 0.048856564 -0.16166145 0.23801357 -0.88815254 0.09359342 -0.25866887
-0.5086851 -0.2920548 -0.6850652 -0.9561567 -0.21576588 -0.4918335 0.70781416 0.11472407

conv7.bias f4 [32]
00000000: 38ba cfbf 1fba 4940 5f96 69bf 8d1d b3be
00000010: abcf 07c0 c38b 0bbe 0607 72bf 2fd2 8cbf
00000020: b2e4 86bf b800 c93f eb0d ea3e 0406 00c0
00000030: fb52 1bc0 fe4b 9cbf 77b3 b93f f148 04c0
00000040: d4ef 07bf 4c86 7a3d 95c8 ebbf 87e2 82bf
00000050: f27d c63f 26ca 83bf 58c3 273f a1e1 043f
00000060: 9f21 1b40 adc2 99bf 027a 8d3f 0241 673f
00000070: 194c 263e a56d 1bbf 154f 27bf 2038 0c40
-1.6228704 3.151985 -0.91245073 -0.34983483 -2.12205 -0.13627534 -0.94541967 -1.1001643
-1.0538542 1.5703344 0.45713744 -2.0003672 -2.4269397 -1.2210691 1.4507893 -2.066952
-0.53100324 0.06116323 -1.8420588 -1.0225381 1.5507185 -1.0296066 0.65532446 0.5190678
2.423927 -1.2012535 1.1052859 0.9033357 0.16239966 -0.6071418 -0.65355045 2.1909256
