models/DQN_wb_kaggle_turn.pth (torch, 916528 bytes, 22 tensors)

conv1.weight f4 [32, 1, 5, 5]
0	0x3f477cd5	0.77924854
1	0xbf1988fc	-0.59974647
2	0xbeebefc6	-0.4608137
3	0x3ed1f78f	0.41009185
4	0xbf8cf24e	-1.1011446
5	0x3e2401bd	0.16016288
6	0xbd2cb344	-0.04216315
7	0x3ed2d3ea	0.41177303
8	0xbe4f6753	-0.20254259
9	0xbe977d5e	-0.29587835
10	0x3d7adae8	0.06124392
11	0xbf5557d6	-0.8333715
12	0xbda016a8	-0.07816821
13	0x3f3beba5	0.7340644
14	0xbe8a2715	-0.26982942
15	0xbee1b53b	-0.4408358
16	0xbe843d66	-0.25828093
17	0xbe56df85	-0.20983703
18	0xbf07c6a0	-0.5303745
19	0xbdbcad6d	-0.09212766
20	0x3bd36822	0.0064516226
21	0x3e55a120	0.20862246
22	0xbaccf01d	-0.0015635524
23	0xbd305228	-0.0430471
24	0x3daa5c73	0.083184145
25	0x3d0ca46d	0.034336496
26	0xbf0c8ccc	-0.5490234
27	0xbce8da81	-0.028424503
28	0xbe80ab5a	-0.2513073
29	0x3e91b123	0.28455457
30	0x3e0e6050	0.13903928
31	0xbde9be2c	-0.114132255
32	0xbf233b8e	-0.6376275
33	0xbe24ef46	-0.161069
34	0x3e7f23f4	0.24916059
35	0xbe471256	-0.19440588
36	0xbe07341f	-0.13203476
37	0xbe83042f	-0.2558913
38	0xbdc85f2d	-0.09783778
39	0x3f53b526	0.82698286
40	0xbeaac987	-0.33356878
41	0x3e79e73c	0.24404615
42	0xbf148c37	-0.5802645
43	0x3def9530	0.11698377
44	0xbed76c20	-0.4207468
45	0xbf0a0436	-0.53912675
46	0x3e6456c8	0.2229873
47	0x3c2c3d55	0.01051267
48	0x3d64ed27	0.05589023
49	0xbecbc5cb	-0.39799342
50	0x3f16a219	0.5884109
51	0x3e3181d0	0.17334676
52	0xbefc3d0c	-0.49265325
53	0xbee293ba	-0.4425333
54	0x3ea75ccb	0.32687983
55	0xbef45e6d	-0.4772829
56	0xbf076111	-0.52882487
57	0x3e093c10	0.13401818
58	0x3e5d0e19	0.21587409
59	0x3ca16ce5	0.019705245
60	0xbeabd466	-0.33560485
61	0x3e28e1c7	0.16492377
62	0x3f14db89	0.58147484
63	0xbe7a16ed	-0.24422808
64	0x3ef04ed4	0.4693514
65	0xbf028702	-0.50987256
66	0x3e7371d6	0.23773894
67	0x3f106f88	0.56420183
68	0xbf006ae3	-0.50163096
69	0xbf10d749	-0.565785
70	0xbf1ee354	-0.62065625
71	0x3edad137	0.42737743
72	0xbf051ebd	-0.5200003
73	0x3e3bc6bb	0.18337528
74	0xbec1a137	-0.3781831
75	0xbe47cce8	-0.1951176
76	0x3ec31f81	0.38109973
77	0xbde2814b	-0.11059817
78	0xbd4ff14f	-0.05076724
79	0x3e727af4	0.23679715
80	0xbe82e8e9	-0.2556832
81	0x3f4e92ed	0.8069294
82	0xbe87f7bc	-0.26556194
83	0xbed0c4b4	-0.40775073
84	0x3de6116e	0.11233793
85	0xbf11fae8	-0.5702348
86	0xbf12f1c7	-0.5740017
87	0x3f324b31	0.69645983
88	0xbca8c0fb	-0.020599833
89	0x3f527f06	0.8222507
90	0x3d49c80e	0.049263053
91	0xbecdab33	-0.40169677
92	0xbf344d53	-0.7043049
93	0xbedcd8f6	-0.43134278
94	0x3e55592e	0.208348
95	0xbe087720	-0.13326693
96	0x3f0c979b	0.5491883
97	0xbdc7e1b4	-0.09759846
98	0x3e578759	0.21047725
99	0xbf279c91	-0.65473276
100	0xbeeed381	-0.4664574
101	0x3e8b2272	0.27174717
102	0x3e9f391e	0.31098264
103	0x3ef15177	0.47132465
104	0xbea62694	-0.32451308
105	0x3ec033d6	0.37539548
106	0x3e32c2f5	0.17457183
107	0x3e8c9419	0.2745674
108	0xbf2146bc	-0.6299856
109	0xbf02775c	-0.5096338
110	0xbe1dc1d0	-0.15405965
111	0xbe6d5d26	-0.23180065
112	0xbf4639a3	-0.77431697
113	0x3eaf72c3	0.34267244
114	0xbe6eb5f8	-0.23311603
115	0xbed9cbf8	-0.42538428
116	0xbe1831b8	-0.14862716
117	0x3f065421	0.5247212
118	0x3e382e24	0.17986351
119	0xbf921f8a	-1.1415875
120	0xbeda361f	-0.42619416
121	0xbe09347c	-0.13398927
122	0xbd9c893b	-0.07643362
123	0xbd8d08f0	-0.0688647
124	0x3e8352fc	0.2564925
125	0x3d430e24	0.047620907
126	0x3d89cc28	0.06728393
127	0x3f25671e	0.6461047
128	0xbe475c27	-0.19468747
129	0x3f149d05	0.5805209
130	0x3f63a7e5	0.8892806
131	0xbda23f33	-0.079222105
132	0xbe2d6b76	-0.16935524
133	0x3edfdf6c	0.43725145
134	0x3cc2541a	0.023721743
135	0xbf4c59e4	-0.7982466
136	0x3ea0c5cc	0.31400907
137	0xbef5b4a8	-0.47989392
138	0xbd1f4410	-0.03888327
139	0xbe3be9f8	-0.18350971
140	0xbc504608	-0.012712009
141	0xbf266ba2	-0.65007985
142	0xbd40d9d0	-0.047082722
143	0x3e8d2b41	0.27572063
144	0xbe40840d	-0.18800373
145	0x3e8828b5	0.26593557
146	0x3e411d85	0.18858917
147	0x3ea25d20	0.31711674
148	0xbece8760	-0.40337658
149	0xbf878eb9	-1.059043
150	0x3eaa3aad	0.3324789
151	0xbeed8b06	-0.4639513
152	0x3e9744e9	0.29544762
153	0xbeba5f48	-0.3640082
154	0x3f8862b7	1.0655125
155	0x3ee2bb23	0.442834
156	0xbef981c5	-0.4873182
157	0xbee5d310	-0.4488759
158	0xbea2e0be	-0.3181209
159	0x3eec3bcc	0.4613937
160	0x3e014ecd	0.12627716
161	0xbe390a28	-0.1807028
162	0x3ef85bfe	0.48507684
163	0x3e28e67d	0.16494174
164	0xbf113140	-0.56715775
165	0xbea545e6	-0.3227989
166	0x3e942633	0.28935394
167	0xbef99023	-0.4874278
168	0xbed4780f	-0.41497847
169	0x3e46ba2e	0.1940696
170	0x3def334c	0.11679706
171	0x3eecef79	0.46276453
172	0xbf2bd58b	-0.67122716
173	0xbecfe36a	-0.4060319
174	0x3e08b295	0.13349374
175	0xbe583022	-0.21112111
176	0x3ec6ff11	0.38866475
177	0x3ebd3e66	0.3696167
178	0xbe4db710	-0.20089364
179	0x3f2df580	0.6795273
180	0xbf740d7d	-0.9533308
181	0xbe0f9552	-0.14021805
182	0x3eeb20b6	0.45923394
183	0xbf235abd	-0.6381033
184	0xbcbbeb56	-0.022939365
185	0x3e6fb3cb	0.2340843
186	0xbeaea82e	-0.34112686
187	0x3e045820	0.12924242
188	0xbf81a636	-1.0128849
189	0xbf10d1b2	-0.5656997
190	0xbe987b58	-0.29781604
191	0xbe682efe	-0.22674176
192	0xbeee6e95	-0.46568742
193	0xbce2080f	-0.027591733
194	0x3dc54534	0.0963234
195	0x3e2f48a7	0.17117558
196	0xbee39871	-0.4445224
197	0xbf1980ec	-0.59962344
198	0x3ed871d5	0.42274347
199	0x3e90aea1	0.2825823
200	0x3e334f5c	0.17510742
201	0xbf314b0c	-0.6925514
202	0xbe31a7d1	-0.17349173
203	0xbe8ca454	-0.27469122
204	0xbe0c0e3f	-0.1367731
205	0x3e8a8c37	0.270601
206	0xbf4d0d5a	-0.800985
207	0xbf32c20c	-0.6982734
208	0x3e841a58	0.2580135
209	0x3e3f0eb0	0.18657947
210	0xbed689e7	-0.41902086
211	0x3d95ee24	0.07320812
212	0x3e1b3f35	0.1516083
213	0xbf30b26c	-0.6902225
214	0x3f472151	0.7778521
215	0x3f003c7e	0.50092304
216	0x3e377583	0.17915921
217	0x3d2c24c4	0.04202725
218	0xbd8dbe5c	-0.06921074
219	0xbe22de92	-0.15905216
220	0xbe743b87	-0.23850833
221	0x3eb32d02	0.34995276
222	0x3d95829f	0.073003046
223	0xbf2912e2	-0.6604444
224	0xbcd1a951	-0.025593432
225	0xbef02302	-0.4690171
226	0xbed6b382	-0.4193383
227	0xbf365382	-0.7122117
228	0xbf098080	-0.537117
229	0x3ef4d4e7	0.47818682
230	0x3e9e486c	0.30914629
231	0x3e60ffd0	0.21972585
232	0xbee79d7f	-0.45237347
233	0x3e0aff3a	0.13573924
234	0xbecd2bff	-0.4007263
235	0xbea58d03	-0.32334146
236	0x3e6253f6	0.22102341
237	0x3ec6cdfc	0.3882903
238	0x3e52798c	0.20554179
239	0x3db7dd2b	0.08977731
240	0x3ebba6d1	0.36650708
241	0x3e271139	0.16315164
242	0xbd8de508	-0.0692845
243	0xbec14bec	-0.37753236
244	0xbed755e9	-0.42057732
245	0x3e5f2c1d	0.21794172
246	0xbefd6517	-0.49491188
247	0xbf0d48bd	-0.55189115
248	0xbe49dd10	-0.19713235
249	0x3e853654	0.26018012
250	0x3ef09067	0.4698517
251	0xbd39728e	-0.045275263
252	0x3d80df0d	0.062925436
253	0x3e64cb9d	0.22343297
254	0xbec265bd	-0.37968245
255	0x3e2d5b32	0.1692932

conv1.bias f4 [32]
0	0xbe63865c	-0.22219223
1	0xbedc5fe4	-0.4304191
2	0xbf19969b	-0.5999543
3	0xbee2f7e6	-0.44329756
4	0x3e7635ca	0.24043956
5	0xbe3c5a9c	-0.1839394
6	0xbf276db2	-0.65401757
7	0x3ecce082	0.40015036
8	0xbf231b5c	-0.6371362
9	0xbcbc93e3	-0.023019737
10	0xbf04d332	-0.5188476
11	0xbf3ea0d7	-0.7446417
12	0xbf469100	-0.77565
13	0xbe6d49db	-0.23172705
14	0xbe8c3057	-0.2738063
15	0xbe8f6b50	-0.2801156
16	0xbf10f8b1	-0.5662947
17	0xbe5e76f0	-0.21725059
18	0xbed371d9	-0.41297796
19	0xbe497af7	-0.19675814
20	0xbe8d00c2	-0.2753964
21	0x3f0bfaf4	0.546798
22	0xbe87bda3	-0.2651187
23	0xbeae5159	-0.34046438
24	0xbf08138c	-0.53154826
25	0x3ef30ae1	0.47469237
26	0xbe1b409a	-0.15161362
27	0xbf0949d6	-0.5362829
28	0xbe1decac	-0.15422314
29	0xbebcd5f5	-0.36881986
30	0xbf31006e	-0.6914128
31	0xbe1d0143	-0.15332513

conv2.weight f4 [32, 32, 5, 5]
0	0x3d8fafd7	0.07015961
1	0x3e63c480	0.22242928
2	0x3e97723c	0.2957934
3	0x3d29c450	0.041446984
4	0x3e8b75e4	0.2723838
5	0xbf04db9e	-0.5189761
6	0xbe6596b2	-0.22420767
7	0x3f1da918	0.6158614
8	0x3efb714a	0.4910987
9	0xbfa8bc2d	-1.3182427
10	0xbee2c6e5	-0.4429237
11	0x3e389a29	0.18027557
12	0xbe2295fc	-0.15877527
13	0xbefdbd1d	-0.49558344
14	0x3f2d9acc	0.67814326
15	0x3eb34afb	0.35018143
16	0xbd82c016	-0.06384294
17	0x3eade85b	0.33966336
18	0x3e72bfa4	0.23705918
19	0xbef6cc3f	-0.48202702
20	0xbb406d78	-0.0029362123
21	0x3ea4706f	0.3211703
22	0xbf2c01b0	-0.67190075
23	0xbe15ce4f	-0.14629482
24	0x3f1f8156	0.62306726
25	0xbe61519e	-0.2200379
26	0x3f4c91f8	0.7991023
27	0x3ab2f7fc	0.0013654227
28	0x3cdafe18	0.02673249
29	0xbebc1db0	-0.367414
30	0x3e90586e	0.28192466
31	0x3dbd4531	0.09241713
32	0x3f2b0b44	0.66814065
33	0xbdfdee69	-0.12398989
34	0x3e1bca23	0.15213828
35	0xbda7e2da	-0.081975654
36	0xbf496566	-0.78670347
37	0xbededfa7	-0.43530008
38	0xbf13bbcd	-0.57708436
39	0xbd890552	-0.06690468
40	0x3e80c3d1	0.25149396
41	0xbed1b174	-0.40955698
42	0xbf30658b	-0.6890494
43	0xbeb9e788	-0.36309457
44	0x3ee2a9c8	0.44270158
45	0xbdf2ac1b	-0.11849233
46	0x3e483992	0.19553211
47	0x3e9a6305	0.3015367
48	0x3dc974f1	0.09836758
49	0x3e87c951	0.2652078
50	0x3d80db7f	0.062918656
51	0x3f15de59	0.585424
52	0x3eebeb13	0.46077785
53	0x3f8244b1	1.0177213
54	0x3eeac403	0.4585267
55	0xbec241e5	-0.379409
56	0x3e8177f9	0.25286844
57	0x3ea324bd	0.31863967
58	0xbe8ac9ea	-0.27107173
59	0xbf63bb9c	-0.88958144
60	0xbe8f0565	-0.27933803
61	0xbe9cbdd6	-0.30613583
62	0x3e65304e	0.22381708
63	0x3c706df9	0.014674657
64	0xbee6778e	-0.45013088
65	0xbcc94104	-0.024567135
66	0xbc91b45e	-0.017786201
67	0x3e0a39a9	0.13498558
68	0xbb3a87ac	-0.0028462214
69	0x3f0f1c04	0.55902123
70	0xbcd4b154	-0.025963463
71	0xbef3c2fa	-0.47609693
72	0x3e599633	0.21248703
73	0xbe42c7dc	-0.19021553
74	0xbdc06dee	-0.093959674
75	0x3f84fb50	1.0389194
76	0x3f08ab19	0.53386074
77	0x3d078380	0.033084393
78	0x3d2b2224	0.041780606
79	0xbdfa58b1	-0.12223948
80	0xbf1f65f5	-0.6226495
81	0x3ddb7884	0.10716346
82	0xbdecadf0	-0.115566134
83	0xbf0f0075	-0.5586007
84	0x3f3dbe88	0.7411885
85	0xbe8712d0	-0.2638154
86	0xbe275006	-0.1633912
87	0xbf935f63	-1.1513485
88	0xbe487b26	-0.19578227
89	0x3e6be324	0.23035866
90	0xbe2affc7	-0.16699134
91	0x3e406498	0.18788373
92	0xbf9556d9	-1.1667129
93	0x3f23fe93	0.64060324
94	0xbf11cb1e	-0.5695056
95	0xbc816361	-0.015794458
96	0xbe6ce433	-0.23133926
97	0xbeae9697	-0.34099266
98	0xbed3f5dd	-0.41398516
99	0x3e071f41	0.13195516
100	0x3e006d6e	0.12541744
101	0x3ebba13a	0.36646444
102	0xbcabebb6	-0.02098642
103	0xbfaf05dc	-1.3673663
104	0xbbdec268	-0.0067980774
105	0xbe3b25cf	-0.18276142
106	0xbe505202	-0.20343783
107	0xbee000e9	-0.43750694
108	0xbde47dce	-0.11156808
109	0xbe9298aa	-0.28632098
110	0x3b345cbe	0.00275211
111	0x3cac6631	0.021044822
112	0xbd86c237	-0.06580012
113	0x3ebc69fb	0.36799607
114	0x3e7d2008	0.2471925
115	0xbdd0d204	-0.10196307
116	0x3d327ce2	0.04357613
117	0x3ec1bdea	0.37840205
118	0xbedd1ee3	-0.43187627
119	0x3f363ddf	0.7118816
120	0xbe0c64fc	-0.13710397
121	0x3bb926dc	0.0056503844
122	0xbf09fa41	-0.5389748
123	0x3c7506ae	0.014955206
124	0xbead3a27	-0.3383343
125	0xbef6f0ba	-0.48230535
126	0x3ec1af9d	0.37829295
127	0xbdc0ad28	-0.09408027
128	0x3e2681cc	0.16260451
129	0xbf1373fd	-0.5759886
130	0xbee94c8e	-0.4556622
131	0x3f045b0b	0.5170142
132	0x3f22f647	0.6365704
133	0xbe9e8f2e	-0.30968612
134	0xbeababc9	-0.335295
135	0xbea6dfaa	-0.32592517
136	0xbe5e85df	-0.21730755
137	0xbddfcd35	-0.10927812
138	0x3d4ed646	0.050497316
139	0x3dbc5e77	0.09197705
140	0xbe338456	-0.17530951
141	0x3e9792fc	0.29604328
142	0xbe6d5d87	-0.23180209
143	0xbef3e5d7	-0.4763629
144	0x3ea3fb30	0.32027578
145	0xbecfa3ba	-0.405546
146	0xbf353cd1	-0.70795923
147	0x3e854237	0.2602708
148	0x3e6c5de0	0.23082685
149	0xbed8360a	-0.4222873
150	0x3e0fc0ff	0.14038466
151	0xbe1a531e	-0.15070769
152	0x3f02f99a	0.5116211
153	0xbdbe496c	-0.09291348
154	0xbe28ef23	-0.16497473
155	0xbe6047e7	-0.21902429
156	0xbea410bf	-0.32044026
157	0x3f132276	0.5747446
158	0xbccf4458	-0.025301144
159	0xbf298ec2	-0.66233456
160	0x3efd48b8	0.49469543
161	0x3cbf1fdc	0.023330621
162	0x3d29afb9	0.041427348
163	0xbef4e7df	-0.47833154
164	0x3e2687ed	0.16262789
165	0x3eee6353	0.46560153
166	0x3dfe8ed8	0.12429589
167	0xbd77476b	-0.060370844
168	0xbe0e183a	-0.13876429
169	0xbe81c7f1	-0.25347856
170	0xbf522e2a	-0.8210169
171	0x3f243d72	0.6415626
172	0x3d8fd7a3	0.07023551
173	0xbf0ddadd	-0.55412084
174	0xbe82af49	-0.25524357
175	0xbed029b1	-0.40656808
176	0xbf5dbc23	-0.866152
177	0xbf50fb60	-0.8163357
178	0xbe8f5020	-0.27990818
179	0xbe44a167	-0.19202195
180	0xbf258c91	-0.6466761
181	0xbe36b53e	-0.17842576
182	0xbe5f0353	-0.21778612
183	0x3f31a476	0.6939157
184	0x3f043d0e	0.5165566
185	0xbf683ea8	-0.90720606
186	0xbea8a95b	-0.32941708
187	0x3ea181d7	0.31544372
188	0x3e51ad1e	0.20476195
189	0x3d650115	0.055909235
190	0x3d8392bd	0.064244725
191	0xbf01eb25	-0.5074943
192	0x3f12a526	0.57283247
193	0xbe1ae864	-0.15127712
194	0x3e857d9a	0.2607239
195	0x3eea513f	0.4576511
196	0xbf02535e	-0.5090846
197	0x3e62cb93	0.2214797
198	0x3ef39e94	0.47581923
199	0x3d6b96dc	0.057516918
200	0x3e081725	0.13290079
201	0x3f268332	0.6504394
202	0xbd924827	-0.07142668
203	0x3f18cd7f	0.5968856
204	0x3e8e9411	0.2784734
205	0xbe1685ff	-0.14699553
206	0x3d2a46be	0.04157137
207	0xbd831f8f	-0.06402504
208	0xbf1cf4b2	-0.61310875
209	0xbdf51935	-0.119676985
210	0x3e85aad2	0.26106888
211	0xbe90b1fe	-0.28260797
212	0x3f37d42f	0.7180814
213	0x3e83645f	0.25662515
214	0xbf86d91a	-1.0535004
215	0x3e5e7b4f	0.21726726
216	0x3ec92ad4	0.39290488
217	0x3eec4a5e	0.46150488
218	0xbf0d6df3	-0.55245894
219	0xbe01d081	-0.12677194
220	0xbe2bd01f	-0.1677861
221	0xbeae3df4	-0.3403164
222	0xbe092f77	-0.13397013
223	0xbe98494f	-0.2974343
224	0xbddf5795	-0.10905377
225	0xbef80864	-0.48443902
226	0xbea01e71	-0.31273225
227	0xbdff7067	-0.12472611
228	0xbe2d4551	-0.16920973
229	0xbe14516f	-0.1448419
230	0xbdebdcd8	-0.11516732
231	0x3d00076a	0.03125707
232	0x3ee4738e	0.4461941
233	0xbeb5e819	-0.3552864
234	0x3e960066	0.2929718
235	0xbf63fa7c	-0.89054084
236	0xbd5f0ecc	-0.05445747
237	0x3da53de5	0.08068446
238	0x3edf0d40	0.43564796
239	0x3ea38625	0.31938282
240	0xbc45a5dd	-0.012063471
241	0xbd531f82	-0.05154372
242	0x3f1475f7	0.579925
243	0xbf066c9e	-0.52509487
244	0x3c941300	0.018075466
245	0xbe9c3865	-0.30511776
246	0xbd979a8c	-0.07402524
247	0xbdec2e62	-0.11532284
248	0xbe46ad4b	-0.19402044
249	0xbebb4b66	-0.36580962
250	0xbe841f19	-0.25804976
251	0xbe0904d2	-0.13380745
252	0xbe0dde2a	-0.1385428
253	0x3efc2c77	0.49252674
254	0xbf6bb5cb	-0.9207427
255	0x3e2655ad	0.1624362

conv2.bias f4 [32]
0	0xbe88ee06	-0.26744097
1	0xbdee6920	-0.11641145
2	0x3dd2109a	0.10257073
3	0xbeb79787	-0.35857794
4	0xbebd1030	-0.36926413
5	0xbe812e8d	-0.25230828
6	0x3c920cb9	0.017828332
7	0xbedc4a84	-0.430256
8	0xbea844a6	-0.32864875
9	0xbe01bf25	-0.12670572
10	0xbeb135e9	-0.34611443
11	0x3a8e2486	0.0010844625
12	0xbd28e9d2	-0.041238613
13	0xbea1eb00	-0.31624603
14	0xbea9bf7c	-0.33153903
15	0xbe496a47	-0.19669448
16	0xbee49219	-0.44642714
17	0xbecdf9bc	-0.40229595
18	0xbeaab7d9	-0.3334339
19	0xbe451d91	-0.1924956
20	0xbe094708	-0.13406003
21	0xbee85e91	-0.45384648
22	0xbe6ea811	-0.233063
23	0xbdf5933f	-0.119909756
24	0xbe2e2c6c	-0.17009133
25	0xbebe91f2	-0.37220722
26	0xbd9faae1	-0.077962644
27	0xbe749fde	-0.2388911
28	0x3d99e824	0.075149804
29	0xbc333342	-0.010937514
30	0xbe8ce5c0	-0.27519035
31	0xbe2e4e76	-0.17022118

conv3.weight f4 [32, 32, 5, 5]
0	0xbea99270	-0.33119535
1	0xbef7e8f1	-0.48419908
2	0x3f2e9101	0.6819001
3	0x3e9bff06	0.30468005
4	0x3f36e693	0.7144558
5	0x3f2ba090	0.67041874
6	0xbddcef65	-0.107878484
7	0xbf09af0a	-0.53782713
8	0xbec99da7	-0.39378092
9	0xbf67d9d7	-0.9056677
10	0xbe4a9a0c	-0.19785327
11	0x3f852fdd	1.0405232
12	0xbf153573	-0.5828468
13	0x3ee630b4	0.44959033
14	0xbdccf541	-0.10007716
15	0x3dba99f5	0.09111396
16	0xbec3f5cf	-0.38273475
17	0xbde9575e	-0.11393617
18	0x3e964429	0.29348877
19	0xbdc31ca4	-0.09526947
20	0xbe1a9fca	-0.15100017
21	0xbf1958a6	-0.5990089
22	0xbd5f32bf	-0.054491755
23	0x3e44d972	0.19223574
24	0x3e64d713	0.2234767
25	0xbf400d66	-0.75020444
26	0x3ea00191	0.31251195
27	0x3e0b6915	0.13614304
28	0x3ef0270f	0.469048
29	0xbd90eb10	-0.070760846
30	0x3ea880f6	0.3291089
31	0xbeb27317	-0.34853432
32	0x3ed6ca85	0.41951385
33	0x3df65610	0.12028134
34	0xbe29f338	-0.16596687
35	0xbe8be48d	-0.27322808
36	0xbf75a44b	-0.95953816
37	0x3dfb5835	0.122726835
38	0xbdbd6f16	-0.092497036
39	0xbcfa3ae9	-0.030545669
40	0x3eaabfd6	0.33349484
41	0xbe3e50df	-0.18585537
42	0x3e1edecb	0.15514676
43	0x3ea4d850	0.32196283
44	0xbc114c6b	-0.008868317
45	0xbe154a29	-0.14579071
46	0xbf3b8add	-0.73258764
47	0x3e3ddb38	0.18540657
48	0x3ecb2431	0.3967605
49	0x3efa0f23	0.48839673
50	0x3e72ee7e	0.2372379
51	0xbf231e27	-0.63717884
52	0xbf42ff57	-0.7617087
53	0xbd9558e3	-0.072923444
54	0xbf9a2943	-1.2043842
55	0xbed652df	-0.418601
56	0xbeaba2b5	-0.33522573
57	0xbdd0d525	-0.10196904
58	0xbf3fc508	-0.7491002
59	0xbcdaa28a	-0.026688833
60	0xbc43892b	-0.011934559
61	0xbf03f623	-0.5154745
62	0xbf294f97	-0.6613707
63	0x3e0f039f	0.13966225
64	0xbf139c11	-0.57660013
65	0xbf103ec9	-0.563458
66	0x3e89ad5d	0.26890078
67	0xbd41f272	-0.047350354
68	0x3f174b70	0.59099483
69	0xbf1c8327	-0.6113762
70	0xbf570162	-0.83986485
71	0xbed65408	-0.41860986
72	0x3ddcdf34	0.1078476
73	0xbec3e883	-0.3826333
74	0x3e55ab4f	0.2086613
75	0xbea86a1c	-0.32893455
76	0x3efb9715	0.49138704
77	0xbe5e86b2	-0.2173107
78	0x3efa7859	0.48919943
79	0xbe676300	-0.22596359
80	0x3f330c6f	0.6994085
81	0xbb803b2e	-0.003913305
82	0xbe6acb9c	-0.22929233
83	0xbf00634b	-0.5015151
84	0xbe848326	-0.25881308
85	0xbe2f74d8	-0.17134416
86	0xbd733a64	-0.059381858
87	0x3ee8746c	0.45401323
88	0xbe9529aa	-0.2913335
89	0xbe2f8ff3	-0.17144756
90	0xbe050f06	-0.12994012
91	0x3e39ba70	0.18137527
92	0xbda77734	-0.08177033
93	0xbe98e2f4	-0.29860651
94	0x3d085a34	0.03328915
95	0xbefbb3e5	-0.49160686
96	0x3e98c5d6	0.29838437
97	0xbe711763	-0.23544078
98	0x3ed1e55e	0.40995306
99	0xbd939b1f	-0.072073214
100	0x3e214f65	0.15752943
101	0x3e4f6bca	0.20255962
102	0x3f21280c	0.6295173
103	0xbf721a9d	-0.9457186
104	0x3e87670c	0.26445806
105	0xbedba3b3	-0.4289833
106	0xbe014aad	-0.12626143
107	0xbd74baeb	-0.05974857
108	0xbe26c35d	-0.16285463
109	0xbe8381a7	-0.25684854
110	0xbe704224	-0.2346273
111	0x3ef77f33	0.48339233
112	0x3ec820b7	0.3908746
113	0xbee11c37	-0.4396684
114	0xbea9afa7	-0.33141825
115	0x3e9fc877	0.3120763
116	0x3d4a06c4	0.04932286
117	0x3e9e77d7	0.30950806
118	0x3e82aab4	0.2552086
119	0xbe0c2526	-0.13686046
120	0x3ddd8a62	0.1081741
121	0x3f0f5ed1	0.56004053
122	0xbe91f1db	-0.28504834
123	0xbf13920f	-0.5764474
124	0x3dae4b93	0.085105084
125	0xbf4cb167	-0.79958194
126	0x3e5dc2d1	0.21656348
127	0x3f13d8cf	0.577527
128	0xbe71f30e	-0.23627874
129	0x3d92d5d5	0.071696915
130	0xbf07e7d9	-0.53088146
131	0xbe711395	-0.23542626
132	0x3ea6ecf6	0.32602662
133	0xbe7cb4ad	-0.24678297
134	0xbefbc838	-0.49176192
135	0xbdb78aa7	-0.08961993
136	0xbf01c0fc	-0.50685096
137	0x3e41e32e	0.18934318
138	0xbe3b60d9	-0.18298663
139	0xbeb4a23b	-0.35280022
140	0xbe016590	-0.126364
141	0xbdc5f5a6	-0.09665994
142	0xbe999686	-0.29997653
143	0xbe8b7727	-0.27239344
144	0x3eac3ef2	0.33641773
145	0xbe41cc6d	-0.18925638
146	0x3e179500	0.14802933
147	0xbe4d70de	-0.20062587
148	0xbe7985d3	-0.24367456
149	0xbedb308a	-0.4281047
150	0xbf8f9276	-1.1216571
151	0x3d98039d	0.07422564
152	0x3e28e7ad	0.16494627
153	0x3eb8aeae	0.3607077
154	0xbe93649e	-0.28787702
155	0xbecdc8e9	-0.40192345
156	0x3f79299e	0.9732913
157	0x3f503c18	0.81341696
158	0x3f05cd50	0.52266407
159	0x3e95a087	0.29224035
160	0xbe8b49b6	-0.27204674
161	0xbee11ac9	-0.43965748
162	0x3ea7f021	0.3280039
163	0x3df27a55	0.11839739
164	0x3d87d1fb	0.066318475
165	0xbeeca523	-0.4621974
166	0xbeb0030d	-0.34377328
167	0xbd848391	-0.06470407
168	0x3ef9eb75	0.48812452
169	0xbd3df988	-0.04638055
170	0xbe5eda3d	-0.21762939
171	0x3f337c49	0.7011152
172	0x3d8e9158	0.06961316
173	0xbd4523b1	-0.04812974
174	0x3f3ffa5a	0.7499138
175	0x3f0d5f9c	0.55224013
176	0x3f7a8f7e	0.978752
177	0x3d5a30fd	0.053269375
178	0xbed2c55f	-0.41166207
179	0xbf1feb67	-0.6246857
180	0x3f09fe58	0.5390372
181	0xbf050caa	-0.5197245
182	0x3d865ec2	0.06561042
183	0x3e97868a	0.29594833
184	0xbdc842d3	-0.09778371
185	0x3e8925f3	0.26786765
186	0x3e4ca0c7	0.19983207
187	0x3e98d782	0.2985192
188	0xbee2de1a	-0.44310075
189	0xbf0c554f	-0.5481767
190	0xbe391665	-0.18074949
191	0xbf212417	-0.62945694
192	0x3edfe3a2	0.43728358
193	0x3f2871d7	0.65798706
194	0x3f280a90	0.6564112
195	0xbeb333e2	-0.3500052
196	0xba92221c	-0.0011149081
197	0x3ea2bb4a	0.31783515
198	0xbd604100	-0.05474949
199	0xbf15de64	-0.58542466
200	0xbe99fbf4	-0.30075037
201	0xbd71de84	-0.059050098
202	0x3e20578f	0.15658401
203	0xbe5c16ca	-0.21493068
204	0xbe2fd385	-0.17170532
205	0x3eca49de	0.3950948
206	0xbd99dede	-0.07513212
207	0x3edfa122	0.43677622
208	0x3d193703	0.03740598
209	0xbecd2843	-0.4006978
210	0xbce820a8	-0.028335884
211	0xbe496da9	-0.19670738
212	0xbf012783	-0.50450915
213	0x3f47ba52	0.7801868
214	0x3f0592e1	0.52177244
215	0xbd6405d9	-0.05566964
216	0x3d042b66	0.03226795
217	0xbc559739	-0.013036543
218	0xbeebd921	-0.46064094
219	0x3ec07fa6	0.37597388
220	0xbee8c1cc	-0.45460355
221	0x3f1146ee	0.56748855
222	0xbec1e0bf	-0.3786678
223	0xbf8805ca	-1.0626767
224	0xbe7f49c3	-0.24930482
225	0xbeeb7c68	-0.45993352
226	0x3ebfd628	0.37468076
227	0x3ee08345	0.4385015
228	0xbed2fcc9	-0.41208485
229	0xbe9f6bf0	-0.31137037
230	0xbe928140	-0.28614235
231	0xbe4e12da	-0.20124379
232	0xbefd1f7b	-0.4943808
233	0x3f287e7b	0.65817994
234	0xbc82210a	-0.015884895
235	0xbd851099	-0.064973064
236	0xbd9e555c	-0.07731125
237	0x3e1b7a7a	0.1518344
238	0xbf2638b0	-0.6493025
239	0xbf1b038f	-0.60552305
240	0xbe81ffbd	-0.25390425
241	0x3ef9311d	0.48670283
242	0x3c8c7d37	0.01714955
243	0x3ea3db64	0.3200332
244	0x3f0b0434	0.5430329
245	0xbf4ed76d	-0.80797464
246	0xbf1031f0	-0.563262
247	0x3ebbbb40	0.36666298
248	0xbf18d5d2	-0.59701264
249	0xbe5a7545	-0.21333797
250	0xbd82c6e2	-0.0638559
251	0xbeb34604	-0.35014355
252	0xbefd2afe	-0.49446863
253	0xbe9529ca	-0.29133445
254	0x3e84bca0	0.2592516
255	0xbf3fab39	-0.7487064

conv3.bias f4 [32]
0	0xbebbbf5b	-0.3666943
1	0xbec3f29e	-0.3827104
2	0xbe17982b	-0.14804141
3	0xbf1ea611	-0.6197215
4	0xbf5533d7	-0.83282226
5	0x3b7a7b48	0.0038220454
6	0xbf007c74	-0.501899
7	0xbf3cc403	-0.7373659
8	0xbf2187c2	-0.63097775
9	0xbf3d6f4f	-0.7399797
10	0xbeae2a1f	-0.3401651
11	0xbf226fa5	-0.63451606
12	0xbf3c93d3	-0.7366306
13	0xbec6ec11	-0.3885198
14	0xbf057763	-0.52135295
15	0xbef2d43a	-0.4742754
16	0xbf0d709e	-0.55249965
17	0xbf2d550e	-0.6770791
18	0xbe55c248	-0.20874894
19	0xbf001adc	-0.50040984
20	0xbe8c98f0	-0.27460432
21	0xbeb698c2	-0.3566342
22	0xbea9ff4a	-0.33202583
23	0xbe97ef79	-0.2967489
24	0xbf3dc19e	-0.7412356
25	0xbf9764e1	-1.1827661
26	0xbeed0f8d	-0.46300927
27	0xbf17e2b3	-0.5933029
28	0xbec22396	-0.37917775
29	0xbedc4de3	-0.43028173
30	0xbf53079b	-0.8243348
31	0xbf3a69a5	-0.7281745

conv4.weight f4 [32, 32, 5, 5]
0	0xbd41772e	-0.0472328
1	0xbbee9b26	-0.0072816787
2	0xbe09c4f6	-0.13454041
3	0xbea2e31d	-0.318139
4	0x3e383fc4	0.17993075
5	0x3ebf13ab	0.37319693
6	0x3e73ad16	0.23796496
7	0xbf1e6182	-0.61867535
8	0xbf19d0ce	-0.60084236
9	0x3e929a58	0.2863338
10	0x3dee665a	0.11640616
11	0xbd269820	-0.04067242
12	0x3e99ffb4	0.30077899
13	0xbed861b7	-0.4226205
14	0xbd865ec9	-0.065610476
15	0x3ea7c18a	0.32764846
16	0x3e6e0e7e	0.23247716
17	0x3df84066	0.12121658
18	0x3eba2f49	0.363642
19	0xbde01692	-0.10941805
20	0x3e73f417	0.23823582
21	0x3dcc1581	0.09965039
22	0x3eaf5fb0	0.3425269
23	0xbf04407d	-0.516609
24	0x3dca4d13	0.09877982
25	0xbe393e21	-0.18090107
26	0xbe7f8ea3	-0.24956755
27	0x3d336f8c	0.04380755
28	0x3ced0921	0.028935017
29	0xbeb93a77	-0.36177418
30	0x3e15a3a9	0.14613213
31	0x3e3b2b22	0.18278173
32	0x3edab9e9	0.42719963
33	0xbd6a881a	-0.057258703
34	0x3d13e7df	0.0361098
35	0xbf553da1	-0.83297163
36	0xbeffa228	-0.49928403
37	0x3f106971	0.5641089
38	0x3d0cf5ef	0.034414228
39	0xbf3b23d3	-0.7310154
40	0xbe55fdbd	-0.20897575
41	0x3ea63d8e	0.32468837
42	0x3e8cb3a5	0.27480808
43	0x3eb1b546	0.34708613
44	0xbe9ac094	-0.3022505
45	0xbccd213f	-0.025040267
46	0x3df43644	0.11924413
47	0xbecf11b8	-0.40443206
48	0x3e2542c2	0.16138747
49	0xbf2e203d	-0.6801794
50	0x3d566516	0.052342497
51	0xbe8c8984	-0.27448666
52	0xbe647486	-0.22310075
53	0xbdbac11c	-0.09118864
54	0xbe022e68	-0.12713015
55	0xbe13aece	-0.14422151
56	0xbf481983	-0.7816393
57	0xbcbb0468	-0.02282925
58	0x3c8f091a	0.017460395
59	0xbd50b392	-0.0509525
60	0x3f27f6a5	0.65610725
61	0xbd5ca1ae	-0.053865127
62	0x3e9fe480	0.3122902
63	0xbed1d665	-0.40983883
64	0x3e01f4ab	0.1269099
65	0xbe8bc4f2	-0.27298695
66	0x3e268b05	0.16263969
67	0x3ef5fd87	0.4804499
68	0xbe3a2e04	-0.18181616
69	0x3e0934f6	0.13399109
70	0xbe9f6fad	-0.3113989
71	0x3e9c415f	0.30518624
72	0x3d0d3e5f	0.03448331
73	0x3c2425df	0.010018795
74	0xbdba2ae8	-0.09090215
75	0xbf9d730d	-1.2300736
76	0xbf06c11f	-0.5263843
77	0xbf3f000b	-0.7460944
78	0x3e30de78	0.17272365
79	0x3f0d5f77	0.5522379
80	0xbf3c04f3	-0.7344505
81	0xbdc2e020	-0.09515405
82	0xbec44d9a	-0.38340455
83	0xbf403286	-0.7507709
84	0xbe809026	-0.25109977
85	0x3f8fc902	1.1233218
86	0x3e7a59ee	0.24448368
87	0xbd229b06	-0.039698623
88	0x3f108343	0.5645029
89	0x3ee12b89	0.43978527
90	0xbbcdb1a2	-0.006277279
91	0xbdf53d31	-0.11974562
92	0xbe6c592c	-0.23080891
93	0xbd834120	-0.06408906
94	0x3f0d32aa	0.5515543
95	0xbee5ba7f	-0.44868848
96	0xbc97106e	-0.018440451
97	0xbf40e407	-0.7534794
98	0xbee16705	-0.4402391
99	0x3dbebb4c	0.09313068
100	0x3f870197	1.054736
101	0xbe8b540e	-0.27212566
102	0xbe9a5b8e	-0.30147976
103	0x3e1fca1d	0.15604444
104	0xbebd80fa	-0.37012464
105	0xbee6ad9f	-0.45054337
106	0xbedbe14e	-0.4294533
107	0x3e1d6b3b	0.15372936
108	0x3e8f43a6	0.279813
109	0x3cfdd2d6	0.030984323
110	0xbe99b9cf	-0.30024573
111	0x3e93dd6d	0.28879872
112	0x3f537e07	0.8261418
113	0xbf1f9a8b	-0.6234519
114	0xbe637b01	-0.22214891
115	0xbeb1a1b9	-0.34693697
116	0x3f3e4227	0.7431969
117	0x3ed937a0	0.4242525
118	0xbf30f4be	-0.69123447
119	0x3ea21804	0.31658947
120	0xbe5f5495	-0.21809609
121	0x3e26a06b	0.16272132
122	0x3deb0f2a	0.11477502
123	0xbe19d1d2	-0.15021446
124	0xbf8f1af2	-1.1180098
125	0xbefa9fc5	-0.4895002
126	0xbde995e0	-0.114055395
127	0x3e513c79	0.20433225
128	0xbeaec47a	-0.34134275
129	0xbe5e882b	-0.21731631
130	0xbf23e741	-0.6402474
131	0x3e17d491	0.14827181
132	0x3cbebb22	0.023282591
133	0x3c096fdf	0.008388489
134	0x3e3099b8	0.17246139
135	0xbe89ffe9	-0.26953056
136	0x3e058a9f	0.13041161
137	0xbd5d6355	-0.05404981
138	0xbdb4b6a8	-0.088239014
139	0xbe8ea869	-0.27862862
140	0x3e2a2fcd	0.16619797
141	0x3c708bb1	0.0146817425
142	0x3da0914b	0.078402124
143	0xbb8d5830	-0.0043134913
144	0x3f15c669	0.58505875
145	0xbf54e63e	-0.8316382
146	0xbf079ed0	-0.52976704
147	0xbeb148a7	-0.34625742
148	0xbe87a040	-0.2648945
149	0x3f539589	0.8265005
150	0xbf49ceb4	-0.7883103
151	0x3e5b1d6d	0.21397944
152	0x3f1b337f	0.6062545
153	0x3ab0b5b7	0.001348189
154	0x3ec79842	0.3898335
155	0xbecd5ea3	-0.40111265
156	0x3e9645d4	0.2935015
157	0x3e3e6ff4	0.18597394
158	0x3ed0176f	0.40642878
159	0x3e1eed77	0.15520273
160	0xbe378f7d	-0.1792583
161	0xbe148986	-0.14505586
162	0xbe61d222	-0.22052816
163	0xbe965449	-0.2936118
164	0x3d2a5414	0.04158409
165	0x3f284b1d	0.65739614
166	0xbece2ae2	-0.40267092
167	0xbebe045b	-0.37112698
168	0x3d7a6837	0.061134543
169	0x3e9f5c95	0.31125322
170	0x3f854458	1.0411482
171	0xbddd82f2	-0.108159915
172	0xbea2966a	-0.31755382
173	0x3f11d06b	0.56958646
174	0xbcb813b4	-0.022470333
175	0xbea8ef5f	-0.32995126
176	0x3e8fa70f	0.28057143
177	0x3e86b9c1	0.26313594
178	0x3e272b27	0.16325055
179	0xbcb20d9f	-0.02173501
180	0xbe986746	-0.2976629
181	0xbeef4167	-0.46729586
182	0xbe167fff	-0.14697264
183	0x3e6dd810	0.23226953
184	0xbb534dc7	-0.0032242404
185	0xbf02d91a	-0.5111252
186	0xbefdbea9	-0.49559525
187	0xbf4952e9	-0.78642136
188	0xbd236ccf	-0.03989869
189	0xbf2aec3d	-0.6676672
190	0x3eef9848	0.4679587
191	0xbf57b3bd	-0.84258634
192	0x3e72f61c	0.23726696
193	0x3eb15da8	0.34641767
194	0xbe30a846	-0.17251691
195	0xbe35014d	-0.17676277
196	0xbd853f26	-0.06506185
197	0xbe50cb7a	-0.2039012
198	0xbf30026a	-0.68753684
199	0xbd4b5ffe	-0.049652092
200	0x3d5e108c	0.054215
201	0x3f449082	0.76783
202	0xbf1d46e9	-0.61436325
203	0xbe32e21c	-0.17469066
204	0xbfc4d186	-1.5376441
205	0xbd65cbb5	-0.056102473
206	0xbebcd10a	-0.36878234
207	0x3e8c0023	0.27343854
208	0x3f0cc4ee	0.5498799
209	0x3e00d88f	0.1258261
210	0x3f3c0992	0.73452103
211	0x3debe1b6	0.1151766
212	0xbeb2e4da	-0.34940225
213	0x3ed9541c	0.42446983
214	0xbd46fd48	-0.04858139
215	0xbf30726b	-0.6892459
216	0x3e82763e	0.25480837
217	0xbe2b6c61	-0.16740562
218	0xbf526bef	-0.82195944
219	0x3e0d20a6	0.13781986
220	0xbe5c29fb	-0.2150039
221	0x3df0e135	0.11761705
222	0xbf5b6dd8	-0.85714483
223	0xbf5001d9	-0.8125282
224	0xbefbeca8	-0.49203992
225	0xbd7ac469	-0.061222468
226	0xbe9f471a	-0.31108934
227	0xbea74b9c	-0.32674873
228	0x3c408a6d	0.011751753
229	0xbeb4ab8c	-0.3528713
230	0x3ebed5a6	0.37272376
231	0xbee9bfb6	-0.45654076
232	0xbe50412b	-0.2033736
233	0xbc89d52c	-0.016825281
234	0xbe441d8e	-0.19151899
235	0xbee43732	-0.4457336
236	0xbedc89eb	-0.43073973
237	0xbe82344a	-0.25430518
238	0x3d019f47	0.03164604
239	0x3e5339dc	0.2062754
240	0xbeae3ba3	-0.34029874
241	0xbe6f3a41	-0.23362066
242	0xbf2bb248	-0.6706891
243	0xbe51573d	-0.20443435
244	0x3e288433	0.1645668
245	0xbf51b07a	-0.81909907
246	0xbf237c06	-0.6386112
247	0xbf24d1e4	-0.6438277
248	0x3f1a8ed8	0.6037421
249	0xbf551014	-0.8322766
250	0xbf16032b	-0.58598584
251	0xbf8241dc	-1.0176349
252	0xbb86d412	-0.004114636
253	0xbf61aed0	-0.8815737
254	0x3f049f8d	0.51805955
255	0xbdb9de27	-0.09075575

conv4.bias f4 [32]
0	0x3ebc8199	0.36817625
1	0x3e8053bb	0.2506388
2	0xbe8a9111	-0.27063802
3	0xbed27e04	-0.41111767
4	0xbf5b1b5d	-0.8558863
5	0xbe37733c	-0.17915052
6	0x3d5b54d7	0.053547706
7	0xbe90d102	-0.2828446
8	0xbf2e44f9	-0.68073994
9	0xbde959c7	-0.11394077
10	0xbe223b80	-0.1584301
11	0xbe81a19f	-0.2531862
12	0xbeea7640	-0.45793343
13	0xbef05ba9	-0.4694493
14	0x3e70df21	0.23522617
15	0xbf70ff3d	-0.9413946
16	0x3f0ac05f	0.54199785
17	0xbe5ac882	-0.2136555
18	0xbbfd2376	-0.0077251745
19	0xbe9b9a7e	-0.30391306
20	0xbe22ecca	-0.1591064
21	0xbef79413	-0.4835516
22	0x3dd133b3	0.10214939
23	0xbea7bdee	-0.32762092
24	0x3e1c2855	0.1524976
25	0xbe8ac61b	-0.27104267
26	0xbf113646	-0.5672344
27	0xbf0e182d	-0.5550564
28	0xbeb898dc	-0.36054122
29	0xbed2c6af	-0.4116721
30	0xbf072cd9	-0.5280281
31	0xbf0f40aa	-0.55958045

conv5.weight f4 [32, 32, 5, 5]
0	0x3af420b8	0.0018625474
1	0x3ec1c0c8	0.37842393
2	0xbda99cbc	-0.08281848
3	0xbe61d06d	-0.22052164
4	0xbf64cb0f	-0.8937234
5	0xbe34695a	-0.17618313
6	0x3e8c74ca	0.27432853
7	0x3e91ba96	0.28462666
8	0xbe37028a	-0.17872062
9	0xbe6965ed	-0.22792788
10	0x3d8b5d89	0.0680495
11	0xbe59681c	-0.21231121
12	0xbe0dc52c	-0.13844746
13	0x3ead184c	0.338076
14	0xbf016096	-0.50538003
15	0x3eb084b5	0.34476247
16	0x3f430277	0.76175636
17	0x3d43d8e9	0.047814284
18	0xbb262409	-0.0025351068
19	0x3cb1aaa4	0.021687813
20	0x3ea3b0ce	0.3197083
21	0xbe244716	-0.16042742
22	0x3e1687c8	0.14700234
23	0x3eddfb5d	0.43355837
24	0xbe8a9ca9	-0.27072647
25	0xbfd06a3b	-1.6282419
26	0x3eaf6709	0.34258297
27	0x3e90fcc8	0.28317857
28	0xbf4f4790	-0.8096857
29	0x3e031df4	0.12804395
30	0x3e2eefb7	0.17083631
31	0xbebc7794	-0.3680998
32	0xbe9d1896	-0.3068282
33	0x3dd7c1ec	0.105350345
34	0xbe7398ec	-0.23788804
35	0x3e38574a	0.18002048
36	0x3e877f94	0.26464522
37	0x3e2e59cb	0.17026441
38	0x3dc342c1	0.09534217
39	0xbf386337	-0.7202639
40	0xbea96649	-0.3308585
41	0x3d5c69c9	0.053811822
42	0xbd8891b9	-0.066684194
43	0x3e904596	0.2817809
44	0xbe84f74e	-0.25969929
45	0xbe0ef56e	-0.13960811
46	0xbf316396	-0.6929258
47	0xbf06c497	-0.5264372
48	0xbd027dbe	-0.0318582
49	0xbf820f76	-1.0160968
50	0x3e876b94	0.26449263
51	0x3e9029dd	0.2815694
52	0x3d5047f9	0.05084989
53	0x3c9462f7	0.018113596
54	0xbe9775f7	-0.29582188
55	0x3de2b15b	0.11068984
56	0x3ed175e9	0.4091027
57	0x3e202956	0.15640768
58	0xbeb2d31f	-0.34926698
59	0x3e98a2d3	0.29811725
60	0xbe359087	-0.17730914
61	0xbeb053f2	-0.34439045
62	0xbef5d15e	-0.48011297
63	0xbdadd70f	-0.08488285
64	0xbe1ab4e3	-0.15108065
65	0xbeb59ddf	-0.3547201
66	0xbeb5d096	-0.355107
67	0x3f823ecf	1.0175418
68	0x3c99959c	0.018748097
69	0x3eefe06f	0.46850917
70	0xbe6518c8	-0.22372735
71	0xbe2f3a10	-0.17111993
72	0xbf126e0a	-0.57199156
73	0xbf082b27	-0.53190845
74	0x3df5b3bd	0.11997173
75	0x3f23e33f	0.64018625
76	0xbe938921	-0.2881556
77	0xbe831b71	-0.25606874
78	0x3e4dae00	0.20085907
79	0xbf821db3	-1.0165313
80	0xbeaf5a10	-0.342484
81	0xbc26283f	-0.010141431
82	0x3d999b09	0.07500274
83	0x3f58375e	0.84459484
84	0xbf562445	-0.8364909
85	0xbf3ff67b	-0.74985474
86	0x3e858089	0.26074627
87	0xbf433469	-0.76251847
88	0xbf56d2e0	-0.8391552
89	0xbefc5c63	-0.49289235
90	0x3e20df0f	0.1571009
91	0xbf0254ad	-0.50910455
92	0x3d9c6977	0.07637303
93	0xbea37931	-0.319284
94	0xbdf76d41	-0.120813854
95	0xbf8f68b3	-1.1203827
96	0xbe8bf8ef	-0.2733836
97	0x3d555cb1	0.05209035
98	0xbf814970	-1.0100536
99	0xbe8a023b	-0.26954827
100	0xbe081f19	-0.13293113
101	0x3e55b503	0.20869832
102	0xbef71825	-0.48260608
103	0x3f07710d	0.52906877
104	0x3ea031d5	0.3128802
105	0xbe7b9202	-0.24567416
106	0x3ece1fbc	0.40258586
107	0xbed27bec	-0.4111017
108	0x3e876320	0.26442814
109	0xbf19d930	-0.60097027
110	0xbd6fc8db	-0.05854116
111	0xbed604be	-0.41800493
112	0x3ea90d19	0.33017805
113	0xbc87b3f1	-0.016565295
114	0x3df2bb02	0.11852075
115	0xbe919853	-0.28436527
116	0x3d9e2f23	0.07723834
117	0x3df97d80	0.1218214
118	0xbe3ab2b6	-0.18232235
119	0x3ea0b568	0.31388402
120	0x3eccbab4	0.39986193
121	0xbd1f85c8	-0.038945943
122	0xbe25ebc7	-0.16203223
123	0x3d999640	0.07499361
124	0x3eda460f	0.42631575
125	0xbd16567d	-0.036703575
126	0xbe79e5a1	-0.24404003
127	0x3e0d5e66	0.13805541
128	0x3f02f8b6	0.5116075
129	0x3e13b9c5	0.14426334
130	0xbf0ef221	-0.5583821
131	0x3e7a565d	0.24447007
132	0x3ea6597c	0.32490146
133	0xbf128875	-0.57239467
134	0x3e6e4f7a	0.23272505
135	0x3f67eb47	0.9059338
136	0x3eae4df7	0.34043857
137	0x3ea0b69d	0.31389323
138	0xbe83f44c	-0.2577232
139	0xbee2a5f4	-0.44267237
140	0xbe4edde7	-0.20201837
141	0xbe2bc365	-0.16773756
142	0xbee93808	-0.4555056
143	0xbe9967d4	-0.29962027
144	0xbe39a51b	-0.18129389
145	0xbf591bcf	-0.8480806
146	0xbeaa9d65	-0.33323207
147	0xbf2e4952	-0.6808063
148	0xbeda7030	-0.42663717
149	0xbd971b2f	-0.07378232
150	0x3ee2704d	0.44226304
151	0x3ddddb5b	0.10832854
152	0xbf03130a	-0.51200926
153	0xbecc0d86	-0.39854068
154	0xbd960ff5	-0.07327262
155	0x3d888247	0.066654734
156	0xbd2c41bf	-0.042054888
157	0xbe933c56	-0.2875697
158	0xbf51d83b	-0.81970567
159	0xbe1b09c2	-0.15140441
160	0xbef5f776	-0.4804036
161	0x3f2ed453	0.6829273
162	0xbefab2b8	-0.48964477
163	0xbd8eb9a7	-0.06969004
164	0x3e0b3d50	0.13597608
165	0x3f28ae23	0.6589071
166	0xbec8177a	-0.3908041
167	0x3df3a2ae	0.11896263
168	0x3e9a536e	0.30141777
169	0x3d0116da	0.031515934
170	0x3ee003d0	0.4375291
171	0xbeae3f51	-0.34032682
172	0xbf06f3b5	-0.5271562
173	0xbf1bb39b	-0.6082093
174	0xbf2baf34	-0.67064214
175	0x3d1d68f9	0.038430188
176	0xbeb93d73	-0.36179695
177	0x3eda9968	0.42695165
178	0xbe9a1e57	-0.30101272
179	0xbd0d85b5	-0.03455134
180	0x3e181297	0.14850841
181	0xbf1669f7	-0.5875544
182	0x3e97feb4	0.2968651
183	0x3e15a0d3	0.14612131
184	0x3e18d4d7	0.14924942
185	0xbf20210e	-0.6255044
186	0xbeb1ca74	-0.34724772
187	0xbf3cebf1	-0.7379752
188	0xbdd679cb	-0.10472449
189	0xbe7401fb	-0.2382888
190	0x3cb4ef2c	0.022086702
191	0x3d9bac70	0.07601249
192	0xbf73901a	-0.95141757
193	0xbf02ffef	-0.51171774
194	0x3f44471a	0.7667099
195	0x3e553347	0.20820342
196	0x3ebce1e7	0.368911
197	0x3ea583f8	0.32327247
198	0x3df08fb7	0.117461614
199	0x3e07118d	0.13190289
200	0x3f042c4e	0.51630104
201	0x3d018f7d	0.03163098
202	0x3edad221	0.4273844
203	0x3ee54353	0.44777927
204	0xbf4b4b90	-0.79412174
205	0x3e7bfe7e	0.246088
206	0xbd1f5069	-0.038895044
207	0xbf4972b1	-0.7869063
208	0x3f3d7990	0.74013615
209	0xbe9902a1	-0.29884818
210	0x3e3c8eb2	0.18413809
211	0xbe8f3057	-0.27966568
212	0xbf16ce88	-0.5890889
213	0x3ed7d7a8	0.4215672
214	0x3d3d1f30	0.04617232
215	0x3cdd38f5	0.027004698
216	0xbea1351a	-0.31485826
217	0xbdc6b4b5	-0.09702436
218	0x3e6fdc8c	0.23423976
219	0xbd4c2115	-0.049836237
220	0x3d3aaa91	0.04557282
221	0xbf1c053f	-0.60945505
222	0xbea56d9d	-0.3231019
223	0xbd88a59a	-0.06672211
224	0xbec5461a	-0.38530046
225	0xbe018461	-0.12648155
226	0x3d24e1f3	0.040254544
227	0x3eb0d179	0.34534815
228	0xbc610b97	-0.013735673
229	0x3eec4580	0.46146774
230	0xbd9492f3	-0.07254591
231	0x3ec77bb4	0.38961565
232	0xbe1ef2c7	-0.155223
233	0xbe5671a4	-0.20941788
234	0xbec82a99	-0.39095
235	0x3ef873f8	0.48525977
236	0xbe68ad43	-0.22722344
237	0xbc51c845	-0.012804096
238	0x3c77880c	0.01510812
239	0xbb602bda	-0.0034205825
240	0x3e986d34	0.29770815
241	0x3dd4153d	0.103556134
242	0x3e22bfc0	0.1589346
243	0xbe041d83	-0.12901883
244	0xbe870a41	-0.2637501
245	0xbd015b75	-0.03158136
246	0x3ef2f005	0.47448745
247	0x3f6a7642	0.915867
248	0xbea637b5	-0.32464376
249	0x3ec0c5e9	0.37650993
250	0xbe1bf29a	-0.15229264
251	0xbe652896	-0.22378764
252	0xbdf2126d	-0.11819921
253	0xbe6e7d37	-0.23289953
254	0x3ebfe094	0.37476027
255	0x3e76fdad	0.24120207

conv5.bias f4 [32]
0	0xbf574b48	-0.84099245
1	0x3f8586b5	1.0431734
2	0xbe911c67	-0.28341982
3	0xbf908f72	-1.1293776
4	0xbf3c1a7a	-0.734779
5	0x3e5deb02	0.2167168
6	0xbec7c6ae	-0.39018768
7	0xbf336eea	-0.70091116
8	0x3f9e960d	1.2389542
9	0x3d957196	0.072970554
10	0xbf362250	-0.71146107
11	0x3edc7dbe	0.43064684
12	0xbeca7f28	-0.39550138
13	0xbf573c46	-0.84076345
14	0xbf79246e	-0.9732121
15	0xbf582c75	-0.84442836
16	0xbee9780f	-0.4559941
17	0x3de6e3e0	0.112739325
18	0xbf451302	-0.7698213
19	0xbf854a2a	-1.0413258
20	0xbedae4f7	-0.4275281
21	0xbf06b691	-0.52622324
22	0xbf399618	-0.7249465
23	0x3f202d13	0.6256878
24	0xbf820dde	-1.0160482
25	0x3f1853ba	0.59502757
26	0xbf858288	-1.043046
27	0xbf2fa811	-0.68615824
28	0x3d9f07f8	0.07765192
29	0x3f219bce	0.63128364
30	0xbf383157	-0.71950287
31	0xbeda7621	-0.4266825

conv6.weight f4 [32, 32, 5, 5]
0	0xbe0533b5	-0.13008006
1	0x3f0dde39	0.5541721
2	0x3e56fe2c	0.20995396
3	0x3f33e876	0.7027658
4	0xbeab598b	-0.33466753
5	0x3f1393dd	0.57647496
6	0x3e7211e9	0.23639645
7	0xbe3b2143	-0.18274407
8	0x3ecde454	0.40213263
9	0xbeeee429	-0.46658447
10	0xbeb76aee	-0.35823768
11	0xbe806096	-0.2507369
12	0xbf012591	-0.50447947
13	0xbcd48a7d	-0.025944943
14	0xbea18982	-0.31550223
15	0xbddbdf18	-0.10735911
16	0x3e36fe19	0.17870368
17	0xbd269d39	-0.040677283
18	0x3ee470d5	0.44617334
19	0x3e8fa647	0.28056547
20	0x3f1ecdce	0.62032783
21	0xbe82930c	-0.25502813
22	0xbe87c6b7	-0.26518795
23	0xbefb4ad2	-0.4908052
24	0x3e12bc7a	0.1432971
25	0xbe965953	-0.29365024
26	0x3ec6af0d	0.38805428
27	0x3e87b788	0.2650721
28	0xbc73d363	-0.0148819415
29	0x3ee0cf0d	0.43907967
30	0xbd3725b1	-0.04471368
31	0xbd98b0b8	-0.074555814
32	0x3e66c4a8	0.22535956
33	0xbd56c674	-0.052435353
34	0x3e9007b6	0.28130883
35	0x3d8738d7	0.06602638
36	0xbd665394	-0.05623205
37	0xbe4df126	-0.20111522
38	0xbe9c2c28	-0.3050244
39	0x3e0a4d0a	0.1350595
40	0x3f0c25fa	0.5474545
41	0x3f108bf7	0.5646357
42	0x3f52eb06	0.8238987
43	0xbf510430	-0.81647015
44	0xbda090a2	-0.078400865
45	0xbf6a65d2	-0.91561615
46	0x3e6c8f4c	0.23101538
47	0xbdbd1bcb	-0.09233817
48	0x3b6c5fe2	0.0036067893
49	0x3e82fe31	0.25584558
50	0x3dcf8ce4	0.10134295
51	0xbe7b810a	-0.24560943
52	0x3dc0d4d1	0.094155915
53	0x3f10ad00	0.5651398
54	0x3c06155a	0.008183802
55	0xbed848ba	-0.42242986
56	0x3ea3314d	0.3187355
57	0xbef657c5	-0.48113838
58	0x3e48aacc	0.19596404
59	0x3e1b9191	0.15192248
60	0xbda0d459	-0.07853002
61	0xbec2828a	-0.37990218
62	0xbe9040ba	-0.28174382
63	0xbe953042	-0.2913838
64	0x3eb346ba	0.35014898
65	0x3d2d9a11	0.042383257
66	0xbd988477	-0.07447141
67	0x3e09bf3d	0.13451858
68	0x3f10f484	0.566231
69	0x3f4e8134	0.806659
70	0x3f061aff	0.5238494
71	0x3f5e696e	0.8687962
72	0x3d9d048d	0.076668836
73	0x3f7365ca	0.9507719
74	0x3f25ab5c	0.647146
75	0x3ee9af7a	0.4564169
76	0xbd9e1303	-0.0771847
77	0x3d8a79fb	0.06761547
78	0xbf3666dd	-0.71250707
79	0xbd7a510e	-0.061112456
80	0x3ec5a5c1	0.38603023
81	0x3da4247c	0.08014771
82	0x3d1f76ca	0.038931645
83	0x3ef737d2	0.48284775
84	0x3e5127e9	0.20425381
85	0xbcca294e	-0.024677899
86	0x3e6a7411	0.22895838
87	0x3c413e07	0.011794574
88	0xbdc8d840	-0.098068714
89	0x3f2a441f	0.66510195
90	0xbec2dd9b	-0.38059697
91	0xbe49c751	-0.1970494
92	0xbcfa0bac	-0.030523144
93	0xbe9dcdf6	-0.30821198
94	0x3d4f3dd5	0.050596077
95	0xbdd016f0	-0.10160625
96	0x3bc9f9cd	0.006163812
97	0x3ecd0d79	0.4004934
98	0x3e55b333	0.2086914
99	0xbd9d747c	-0.07688233
100	0xbd7a31f0	-0.06108278
101	0x3f23ccb9	0.63984257
102	0x3ec991e8	0.3936913
103	0xbe368641	-0.17824651
104	0xbe90d043	-0.2828389
105	0xbeffb53c	-0.49942958
106	0xbeacd75d	-0.3375806
107	0x3dccad3c	0.09993979
108	0xbe31bbf3	-0.17356853
109	0xbd5389b5	-0.051645
110	0xbe988768	-0.29790807
111	0x3ac78cce	0.0015224458
112	0xbd812759	-0.06306333
113	0xbe4a6af6	-0.19767365
114	0x3e38c9b6	0.18045697
115	0x3ec37ae2	0.3817969
116	0x3e6bea79	0.23038663
117	0x3ea8d35a	0.32973748
118	0x3d7831b5	0.06059428
119	0x3da72194	0.081607014
120	0xbd889c12	-0.06670393
121	0x3e8d4ae7	0.27596208
122	0xbd9b1e76	-0.07574169
123	0xbe993002	-0.2991944
124	0xbe7a842b	-0.2446448
125	0x3ec44c44	0.38339436
126	0x3c763ec0	0.015029609
127	0xbeeaec0a	-0.4588321
128	0x3dc31231	0.09524954
129	0xbefa11f5	-0.48841825
130	0xbe33f910	-0.17575479
131	0xbf0aacff	-0.5417022
132	0xbc715593	-0.014729875
133	0xbc9505cc	-0.01819124
134	0xbe1c1f4c	-0.15246314
135	0x3f3521d4	0.7075474
136	0xbf08589a	-0.53260195
137	0x3dc33842	0.09532215
138	0x3f5d1d80	0.8637314
139	0xbe1dc96d	-0.15408869
140	0x3ec41e76	0.3830449
141	0x3f1d133f	0.6135749
142	0x3e8b3d19	0.2719505
143	0x3e890cf0	0.26767683
144	0xbe4c4890	-0.19949555
145	0xbe96fdfb	-0.29490647
146	0x3f09f0b6	0.5388292
147	0xbee0d771	-0.4391437
148	0x3da30b52	0.079611436
149	0xbe173517	-0.14766346
150	0xbe45a200	-0.1930008
151	0xbd3d253e	-0.046178095
152	0xbda88eda	-0.08230372
153	0xbe9af44a	-0.30264503
154	0xbd820a8a	-0.063496664
155	0xbf121f8b	-0.5707938
156	0x3f624af6	0.8839563
157	0xbedd0fa8	-0.43176007
158	0x3dfd6ba7	0.12374049
159	0xbf87aac0	-1.0598984
160	0xbe368f79	-0.17828168
161	0x386d76b1	5.6615743e-05
162	0x3dbd3c33	0.09239998
163	0xbe5cd234	-0.21564561
164	0xbe5b5b9a	-0.21421662
165	0xbed33764	-0.41253197
166	0xbf163998	-0.5868163
167	0xbdca991b	-0.09892484
168	0xbf2d0d60	-0.67598534
169	0x3ba19402	0.004930974
170	0xbdc30b1c	-0.09523603
171	0x3f1afbbe	0.6054038
172	0x3bafc432	0.0053639645
173	0xbf75a4dd	-0.95954686
174	0x3e02cc26	0.12773189
175	0x3e74ed2a	0.23918596
176	0x3eca17f7	0.3947141
177	0x3f2bb395	0.67070895
178	0x3e342cb3	0.17595176
179	0xbf2f2684	-0.68418145
180	0x3f3490ad	0.7053326
181	0xbf1b243b	-0.6060216
182	0x3d9aa4a7	0.07550936
183	0x3decfd64	0.11571768
184	0xbe063ce3	-0.13109164
185	0xbd67bb6e	-0.05657523
186	0x3df090c9	0.117463656
187	0x3f10e47b	0.56598634
188	0xbdbc4506	-0.09192853
189	0xbf146d5a	-0.5797936
190	0xbdf6b874	-0.120469004
191	0xbb580a7b	-0.0032965231
192	0xbf148edd	-0.5803049
193	0xbeebc75d	-0.4605054
194	0x3eaa2524	0.3323146
195	0xbf176abd	-0.59147245
196	0x3c1a516b	0.009418826
197	0xbe17f92d	-0.14841147
198	0x3e6be46d	0.23036356
199	0x3efb1c63	0.49045095
200	0xbe8c85d9	-0.27445868
201	0xbf0d481f	-0.55188173
202	0x3e72396e	0.2365472
203	0x3e328c38	0.17436302
204	0xbe434594	-0.1906951
205	0x3dbf5faa	0.09344418
206	0x3e5669e6	0.20938835
207	0x3ead3450	0.33828974
208	0xbdbaf0a4	-0.0912793
209	0xbf3c531b	-0.7356431
210	0xbf41e22f	-0.75735754
211	0xbe3982a6	-0.18116245
212	0x3f1e6a8b	0.6188132
213	0xbf19bc61	-0.6005307
214	0xbefca199	-0.4934204
215	0xbe34027d	-0.17579074
216	0xbdaefe08	-0.08544546
217	0x3f704748	0.93858767
218	0xbee3d318	-0.4449699
219	0xbe07747e	-0.13228032
220	0xbeb90733	-0.36138305
221	0xbe78d227	-0.24298917
222	0xbef8d15f	-0.48597237
223	0xbd139dff	-0.03603935
224	0x3d3cdee7	0.046111014
225	0xbf1ffc5b	-0.6249444
226	0xbf0a56d6	-0.5403875
227	0xbe80f861	-0.25189498
228	0x3f0a6dcd	0.5407379
229	0x3eefb60d	0.4681858
230	0x3e85bd0d	0.26120797
231	0xbeab00a7	-0.33398935
232	0xbf01b1cd	-0.5066193
233	0xbd28dd1f	-0.041226503
234	0x3e999264	0.299945
235	0xbe3ccc1c	-0.18437237
236	0xbea84567	-0.3286545
237	0xbd25f322	-0.040515073
238	0x3e31f856	0.17379889
239	0x3f375633	0.71615905
240	0xbe6028a4	-0.21890503
241	0x3c0ba3ce	0.008522941
242	0x3ef561ef	0.4792628
243	0xbe81016b	-0.25196394
244	0x3e1343f8	0.14381397
245	0x3e24f7ec	0.161102
246	0xbef6b8e0	-0.48187923
247	0xbe2edc43	-0.1707621
248	0xbee45457	-0.44595596
249	0xbde3d5c5	-0.11124758
250	0x3da45f51	0.08025993
251	0x3dbb6dc7	0.09151798
252	0x3e93394a	0.28754646
253	0x3efcf113	0.49402675
254	0x3e3a4365	0.18189771
255	0x3ef662f0	0.48122358

conv6.bias f4 [32]
0	0xbfeba142	-1.8408587
1	0x3f462ab8	0.77408934
2	0xbfbb2efa	-1.4623711
3	0xbf884308	-1.0645456
4	0xbdfcc20e	-0.123417005
5	0x3f00dd15	0.50337344
6	0xbf1611ce	-0.5862092
7	0xbfa62373	-1.2979568
8	0x3e69a91f	0.22818421
9	0xbfa72236	-1.3057315
10	0xbe209fdd	-0.15685983
11	0xbf815195	-1.0103022
12	0x402179fa	2.5230699
13	0x3f3bbafd	0.73332196
14	0x3bdc24ce	0.0067182546
15	0xbfbb699c	-1.4641604
16	0x3ef30879	0.47467402
17	0xbfa6f50b	-1.3043531
18	0xbf2eedf2	-0.68331826
19	0xbf1b9d1b	-0.607866
20	0x3f0d7f15	0.55272037
21	0x4008b58a	2.1360803
22	0x3ef69b08	0.48165154
23	0xbf7ed4e9	-0.99543625
24	0xbeb7d5a5	-0.35905185
25	0x3fc0aa77	1.5052022
26	0x3fc09356	1.5044963
27	0xbf2c8d17	-0.67402786
28	0xbf3da55c	-0.74080443
29	0xbfa27069	-1.2690555
30	0xbec394b6	-0.38199395
31	0xbc0b2d72	-0.008494722
