models/DQN_wb_kaggle_half.pth (torch, 916528 bytes, 22 tensors)

conv1.weight f4 [32, 1, 5, 5]
-0.03743969 0.22287457 0.0046814363 0.011658062 0.20038025 -0.04465855 -0.25660792 -0.10987643
0.021314595 -0.18182544 0.23597766 0.22370677 -0.09867013 -0.10490305 0.011886445 -0.008531527
-0.11307125 -0.17474592 -0.014578963 -0.15958545 -0.17833772 0.0984016 0.12599938 -0.06520872
0.009186424 0.11167711 0.1458573 -0.17642327 0.23973635 -0.14055896 0.017790828 0.1851233
-0.053801753 -0.050912946 0.01063956 0.2900396 -0.115972586 0.016471595 -0.103378184 -0.16380425
-0.13208377 -0.2213649 0.17630333 -0.2732022 -0.06001567 -0.0034305505 0.06934009 0.14867721
-0.10929716 0.008769574 -0.05218745 -0.25585893 0.003995531 0.09915872 0.093502894 -0.1564159
-0.22180736 -0.023109682 -0.1568951 0.09254155 -0.1565696 -0.20198587 0.18413693 0.19656369
-0.12376354 0.0922311 0.068890445 0.00044323743 -0.16387062 0.143526 0.04066174 0.051299322
0.17685518 -0.18506153 -0.35400486 0.21224311 -0.00052360626 0.28606224 -0.18923064 0.17275262
0.20723537 -0.18706305 -0.07376762 0.039783187 -0.27038845 -0.056944624 0.1407895 -0.23448288
0.0044047 -0.08084415 -0.041712612 -0.14013532 0.13714887 -0.14957084 -0.3748374 0.019047393
-0.26743108 -0.171339 0.20592073 -0.07072866 -0.10454019 -0.038778167 0.18941619 -0.14262612
-0.24974468 0.09176797 0.14761765 0.07678625 -0.2329152 0.14968893 0.1457114 -0.100635186
-0.11164691 -0.09340217 -0.1988232 -0.2266214 0.16661105 -0.18573888 0.013431625 0.08416508
0.15010244 -0.0767967 -0.07279398 -0.1279816 -0.110426605 -0.18149288 -0.0068281423 0.01830546
-0.10560623 -0.06845238 -0.38333744 0.01636653 0.109808035 0.025724461 -0.07239777 0.1102155
0.24988095 -0.18550664 -0.017550247 -0.030737212 -0.054542683 -0.12838309 0.095897764 -0.20111714
-0.15301688 -0.04472115 -0.1225352 0.16447645 0.11376824 -0.24002527 0.16825838 -0.21739101
0.26539627 0.06026746 -0.09305938 0.12176001 0.051086597 0.13674381 0.16877566 -0.08625315
-0.17832914 0.28860784 -0.19869249 -0.10541057 -0.017928738 0.08820789 -0.030768171 0.22023788
-0.11117218 0.029667411 0.26242587 -0.102053575 -0.14491408 -0.18952923 -0.12408744 0.0042846343
-0.13473079 -0.07407022 0.0627359 0.06269706 0.17483854 0.17324844 0.08440193 -0.07487184
-0.10867648 -0.07169132 -0.14653155 0.025046807 -0.12739225 0.18849446 0.15841086 -0.10591053
0.070233345 -0.1995193 0.1852747 0.26363727 -0.20321742 -0.18980363 -0.033657093 -0.1280694
-0.11381546 0.14644817 -0.01947707 0.09280846 0.031924322 -0.053171977 -0.20364405 0.09610427
-0.19787598 0.002977884 -0.2074187 0.20627216 -0.055239618 0.12642801 0.048860043 0.14639348
-0.22091326 0.050710212 0.0811728 -0.06128229 -0.11384074 -0.22571929 -0.010529158 -0.10487182
0.18412495 0.21324418 0.0069255303 -0.006650896 0.00073682197 0.16034164 -0.16144608 -0.008830592
-0.16651183 0.14558221 0.08347819 -0.06979255 0.030143049 0.11034196 -0.22157623 -0.07353432
0.25124043 -0.16912684 -0.12412291 0.032453448 -0.0121984985 -0.2537696 0.06566174 0.080720715
0.116748475 -0.16477695 -0.07944115 -0.042565584 -0.29159743 -0.2674142 0.2916065 0.14611557
00000000: 5c5a 19bd 3b39 643e bc66 993b 7501 3f3c
00000010: 7b30 4d3e e2eb 36bd 1d62 83be e506 e1bd
00000020: f29b ae3c 7330 3abe 21a4 713e 6313 653e
00000030: 9113 cabd 69d7 d6bd 5dbf 423c d1c7 0bbc
00000040: e691 e7bd 98f0 32be 9adc 6ebc 5e6a 23be
00000050: 2a9e 36be c786 c93d fb05 013e 268c 85bd
00000060: a882 163c f8b6 e43d 9e5b 153e 4da8 34be
00000070: 727d 753e b0ee 0fbe 12be 913c f690 3d3e
00000080: 3a5f 5cbd 188a 50bd 8d51 2e3c 1280 943e
00000090: 0983 edbd 70ef 863c f1b7 d3bd 4dbc 27be
000000a0: f840 07be 7bad 62be dc88 343e 29e1 8bbe
000000b0: fed2 75bd 16d3 60bb 2d02 8e3d d73e 183e
000000c0: 30d7 dfbd 42ae 0f3c 82c2 55bd f1ff 82be
000000d0: f1ec 823b ba13 cb3d 727e bf3d 7d2b 20be
000000e0: 7821 63be 8450 bdbc 1ca9 20be 6d86 bd3d
000000f0: c853 20be 62d5 4ebe 648e 3c3e fe47 493e
00000100: bd77 fdbd a9e3 bc3d 6f16 8d3d 5262 e839
00000110: b3cd 27be 7bf8 123e ed8c 263d 3d1f 523d
00000120: 8619 353e c580 3dbe 2040 b5be 4256 593e
00000130: 9f42 09ba c076 923e adc5 41be 10e6 303e
00000140: 8235 543e 758d 3fbe 7a13 97bd b2f3 223d
00000150: 5b70 8abe c43e 69bd 1f2b 103e 481c 70be
00000160: 4d55 903b 9e91 a5bd d8da 2abd a27f 0fbe
00000170: c170 0c3e 1929 19be b0ea bfbe 4709 9c3c
00000180: baec 88be 7e73 2fbe e2dc 523e 30da 90bd
00000190: 2b19 d6bd dbd5 1ebd 51f6 413e 950c 12be
000001a0: 12bd 7fbe d8f0 bb3d 1529 173e 1c42 9d3d
000001b0: 5281 6ebe 0e48 193e 5f35 153e d219 cebd
000001c0: 23a7 e4bd a349 bfbd 4f98 4bbe 710f 68be
000001d0: 169c 2a3e 5532 3ebe 5210 5c3c be5e ac3d
000001e0: 74b4 193e 9747 9dbd 0315 95bd 9c0d 03be
000001f0: 5827 e2bd 45d9 39be 9cbe dfbb 55f5 953c
00000200: 1448 d8bd c330 8cbd ce44 c4be 1a13 863c
00000210: 09e3 e03d 1bbc d23c 4845 94bd aab8 e13d
00000220: cbe0 7f3e 74f5 3dbe 89c5 8fbc 9bcc fbbc
00000230: 2668 5fbd db76 03be 0c66 c43d a7f1 4dbe
00000240: 75b0 1cbe 862d 37bd bcf3 fabd 846c 283e
00000250: 53ff e83d 2fc9 75be ed4b 2c3e c09b 5ebe
00000260: 05e2 873e 03db 763d eb95 bebd 505d f93d
00000270: 2e40 513d 9206 0c3e 87d3 2c3e 7ea5 b0bd
00000280: ea9b 36be 68c4 933e 0b76 4bbe 7fe1 d7bd
00000290: 4adf 92bc 57a6 b43d 880d fcbc 0a86 613e
000002a0: 3dae e3bd 1209 f33c af5c 863e 7701 d1bd
000002b0: 5b64 14be f313 42be 8e21 febd 1e66 8c3b
000002c0: def6 09be 21b2 97bd ae7b 803d 5167 803d
000002d0: e008 333e 0a68 313e ebda ac3d 6856 99bd
000002e0: c691 debd e6d2 92bd 5e0c 16be f62e cd3c
000002f0: 1d73 02be b104 413e 7536 223e 9fe7 d8bd
00000300: 80d6 8f3d ca4e 4cbe a7b8 3d3e 77fb 863e
00000310: 3a18 50be e25b 42be 05dc 09bd a024 03be
00000320: 1418 e9bd 82f6 153e 608e 9fbc 5d12 be3d
00000330: 14c3 023d dcca 59bd 1188 50be 51d2 c43d
00000340: 00a0 4abe 9a28 433b 9165 54be 0239 533e
00000350: f042 62bd 5876 013e 7821 483d 2ce8 153e
00000360: 1637 62be 83b5 4f3d ed3d a63d 2303 7bbd
00000370: 5525 e9bd f522 67be 7d82 2cbc 09c7 d6bd
00000380: 408b 3c3e af5c 5a3e 8fef e23b c2ef d9bb
00000390: 4927 413a 9930 243e 1f52 25be 30ae 10bc
000003a0: 1482 2abe 8113 153e 9df6 aa3d 65ef 8ebd
000003b0: 8eee f63c f7fa e13d e1e4 62be 2999 96bd
000003c0: 96a2 803e 962f 2dbe 2734 febd e8ed 043d
000003d0: 36dc 47bc 17ee 81be aa79 863d e750 a53d
000003e0: d319 ef3d 4abb 28be 0bb2 a2bd 4059 2ebd
000003f0: 424c 95be 84ea 88be 724d 953e 529f 153e

conv1.bias f4 [32]
0.044846576 -0.25360152 -0.06799894 -0.021581165 0.084799565 -0.0002838187 -0.14793666 0.013280385
-0.12658104 0.009924331 -0.053616036 0.09015274 0.105285905 0.040328085 -0.0005053103 -0.028298113
0.07788349 -0.16011842 -0.15371807 -0.21805832 0.10086821 -0.0695636 -0.12926142 0.032983985
-0.1961895 0.024698144 -0.22757837 -0.26444614 -0.14600864 -0.22577833 -0.16367997 -0.006011893
00000000: 0bb1 373d 0fd8 81be 0743 8bbd fcca b0bc
00000010: 65ab ad3d 80cd 94b9 b57c 17be f995 593c
00000020: 769e 01be a999 223c 7d9c 5bbd 00a2 b83d
00000030: 23a0 d73d 102f 253d cd76 04ba 72d1 e7bc
00000040: 6181 9f3d 15f6 23be 4568 1dbe ae4a 5fbe
00000050: fe93 ce3d 5c77 8ebd 1b5d 04be 371a 073d
00000060: e6e5 48be c353 ca3c 4e0a 69be 7c65 87be
00000070: 4a83 15be 6f32 67be b99b 27be 6aff c4bb

conv2.weight f4 [32, 32, 5, 5]
-0.1569707 -0.111307494 0.016956445 -0.056652207 0.07271035 -0.055475816 0.07332351 -0.0031647226
-0.008239843 -0.041965716 -0.13424276 -0.21047449 -0.019827371 -0.04994363 0.009080452 0.020233251
-0.051198963 0.091557845 -0.056651253 -0.17464127 -0.044473823 -0.12575787 -0.017933045 -0.03388033
0.097394235 -0.16897313 0.049593937 0.07533114 0.029638732 -0.10080363 -0.114557594 0.065099016
-0.07813802 -0.11345581 -0.03623039 -0.13072844 0.011816648 0.12926146 0.02914613 0.12957473
-0.09247579 -0.09597831 0.109532565 -0.051459346 0.06452949 -0.13785137 0.038079333 0.013575769
-0.20848453 -0.0075598443 0.035285186 0.08139437 -0.17047283 0.026072763 -0.22420692 -0.052426863
0.0072924406 0.058623366 0.06895084 0.12717403 -0.051903695 0.035489805 0.020176105 0.0647326
-0.11271127 -0.1951353 0.008075135 0.033580072 0.10877076 0.016316405 0.010157832 0.040093865
-0.008354949 -0.20421648 0.040384322 0.040775172 -0.13669379 -0.18351185 -0.15382071 -0.112045206
-0.022751987 -0.10866166 -0.119225845 0.25155336 -0.051595926 -0.03874918 0.05363377 -0.06268197
0.07996826 0.16303101 -0.15785064 -0.048831545 0.023855777 0.06365481 -0.21833621 -0.026984135
-0.09117128 0.025017558 0.20371404 -0.20796908 0.039731618 -0.25099137 -0.039677083 0.075966045
-0.005549612 0.053388294 0.001590081 0.041114096 0.060251933 0.1202135 -0.036222726 -0.105109856
-0.15809317 0.026631659 -0.15134929 0.08565302 0.07240379 -0.0050347256 0.07756381 0.063024454
-0.016465226 0.0001946935 -0.069958985 0.07623588 -0.10875175 0.015201139 -0.019662134 -0.06252758
0.015485694 -0.1070027 0.1622778 0.10133131 -0.20293327 -0.06611108 0.031835437 -0.12942077
-0.054830555 0.018371064 -0.01241426 0.1307889 -0.058293566 0.035155356 -0.004437479 -0.06646425
-0.0309618 0.055377368 -0.12847611 -0.041943766 -0.08065839 0.051470246 -0.20126949 0.09426076
0.032144375 -0.018447576 0.10513752 -0.20346297 -0.17035797 0.124551415 0.0816736 -0.0777869
-0.200167 -0.020755993 0.010767694 0.06586522 0.0101237865 -0.10234547 0.030321 0.0844655
-0.033980273 -0.07418778 -0.056467272 -0.10924823 -0.021951199 0.12258547 -0.07273031 -0.01238146
-0.014110693 -0.19202845 0.023236418 -0.012375041 -0.15109192 -0.05367273 0.0032124408 0.094581276
-0.07112622 -0.16833986 -0.09161247 0.038386673 -0.01638832 -0.19193119 -0.2110727 -0.060094956
-0.034603976 -0.09509488 0.02481099 0.01506331 -0.1275183 -0.052409563 -0.0022346755 0.06252285
-0.06920848 -0.051633123 -0.069997765 -0.023001984 -0.20073351 -0.08735423 0.0073487083 0.018697409
0.015847366 -0.01426437 0.05536167 -0.01634339 0.050358247 -0.011709892 -0.022300767 0.14691171
-0.05370477 -0.040236596 -0.097028315 -0.09683141 -0.05604368 -0.016044056 -0.00054504507 -0.07046278
0.082138 -0.08910716 0.11861005 -0.06309392 -0.083103225 -0.06199096 0.037490062 -0.06972948
-0.07208964 -0.09956293 -0.017603057 -0.11974362 0.014793531 -0.08532651 0.109056495 -0.03225611
-0.13717467 0.037242737 -0.031841584 -0.10517184 -0.013011999 0.0846162 0.11079401 -0.014680614
-0.13245377 -0.00179943 -0.08870843 -0.13594186 -0.14140509 -0.090301804 0.15029548 0.053212453
00000000: edbc 20be 2ff5 e3bd 3ee8 8a3c 250c 68bd
00000010: 2ae9 943d 9c3a 63bd a32a 963d 3c67 4fbb
00000020: 6800 07bc 3ee4 2bbd ef76 09be a086 57be
00000030: 036d a2bc b191 4cbd 2dc6 143c 34c0 a53c
00000040: 01b6 51bd ae82 bb3d 250b 68bd 29d5 32be
00000050: 2f2a 36bd acc6 00be 52e8 92bc 1ac6 0abd
00000060: a176 c73d 4b07 2dbe 0323 4b3d 3647 9a3d
00000070: edcc f23c 2272 cebd 2c9d eabd a252 853d
00000080: d406 a0bd 855b e8bd 5166 14bd addd 05be
00000090: 9d9a 413c 1e5d 043e ddc3 ee3c 3daf 043e
000000a0: f263 bdbd 4790 c4bd 9c52 e03d 09c7 52bd
000000b0: 0a28 843d e928 0dbe 13f9 1b3d e76c 5e3c
000000c0: f87c 55be 92b8 f7bb 3387 103d 17b2 a63d
000000d0: 6e90 2ebe 8c96 d53c 8096 65be 8dbd 56bd
000000e0: 6df5 ee3b 0e1f 703d 1936 8d3d e939 023e
000000f0: f898 54bd c25d 113d 5c48 a53c 8692 843d
00000100: 2bd5 e6bd 8cd1 47be 924d 043c 428b 093d
00000110: 34c3 de3d fba9 853c 096d 263c 7739 243d
00000120: 32e3 08bc 201e 51be 086a 253d de03 273d
00000130: 75f9 0bbe 88ea 3bbe 2d83 1dbe f577 e5bd
00000140: 6062 babc 018a debd ae2c f4bd 9acb 803e
00000150: 4056 53bd 76b7 1ebd 16af 5b3d 685f 80bd
00000160: 66c6 a33d 9af1 263e 99a3 21be 9603 48bd
00000170: 316d c33c 745d 823d 8793 5fbe d50d ddbc
00000180: 02b8 babd 9ff1 cc3c 6a9a 503e d9f5 54be
00000190: 9fbd 223d f181 80be 7084 22bd 1694 9b3d
000001a0: 85d9 b5bb afad 5a3d 446a d03a 4167 283d
000001b0: bbca 763d 7f32 f63d 485e 14bd d643 d7bd
000001c0: 2de3 21be a32a da3c 4ffb 1abe da6a af3d
000001d0: 7048 943d 57fa a4bb c6d9 9e3d f712 813d
000001e0: 15e2 86bc a326 4c39 a846 8fbd 8f21 9c3d
000001f0: 3db9 debd 330e 793c 7c12 a1bc 760e 80bd
00000200: b5b7 7d3c 3b24 dbbd 272c 263e ca86 cf3d
00000210: bdcd 4fbe 3f65 87bd e065 023d e186 04be
00000220: 0196 60bd ea7e 963c 2e65 4bbc 87ed 053e
00000230: 3cc5 6ebd 10ff 0f3d 4668 91bb 691e 88bd
00000240: 9aa3 fdbc 61d3 623d 3e8f 03be 3acd 2bbd
00000250: 3a30 a5bd 77d2 523d 9719 4ebe c90b c13d
00000260: d2a9 033d 5f1f 97bc 5752 d73d 9958 50be
00000270: 5272 2ebe d014 ff3d 7d44 a73d bd4e 9fbd
00000280: 94f8 4cbe 7908 aabc fb6a 303c 58e4 863d
00000290: 3dde 253c 809a d1bd bf63 f83c 40fc ac3d
000002a0: e62e 0bbd c3ef 97bd 3a4a 67bd 89bd dfbd
000002b0: 00d3 b3bc 170e fb3d a1f3 94bd 9bdb 4abc
000002c0: 8930 67bc 1ba3 44be 4d5a be3c afc0 4abc
000002d0: d7b7 1abe f0d7 5bbd d087 523b d4b3 c13d
000002e0: a0aa 91bd 4961 2cbe 529f bbbd 583b 1d3d
000002f0: cc40 86bc 9c89 44be 7123 58be 2126 76bd
00000300: e6bc 0dbd 1bc1 c2bd 6b40 cb3c 1acc 763c
00000310: 2894 02be 69ab 56bd a273 12bb fb0b 803d
00000320: 2dbd 8dbd 417d 53bd fd5a 8fbd a86e bcbc
00000330: 168d 4dbe c6e6 b2bd 6fcd f03b 4f2b 993c
00000340: 56d2 813c 1bb5 69bc ebc2 623d 93e2 85bc
00000350: 7344 4e3d d9da 3fbc 19b0 b6bc 0670 163e
00000360: 88f9 5bbd 21cf 24bd c8b6 c6bd 8c4f c6bd
00000370: 0f8e 65bd d36e 83bc 5be1 0eba ca4e 90bd
00000380: f837 a83d d17d b6bd d3e9 f23d 6337 81bd
00000390: 0632 aabd 3cea 7dbd 2e8f 193d 54ce 8ebd
000003a0: bca3 93bd a6e7 cbbd 4934 90bc 253c f5bd
000003b0: 9160 723c aabf aebd 0359 df3d fc1e 04bd
000003c0: 8477 0cbe d78b 183d 526c 02bd 5564 d7bd
000003d0: 4830 55bc 424b ad3d f8e7 e23d f586 70bc
000003e0: f6a1 07be dada ebba c4ac b5bd 5834 0bbe
000003f0: 7fcc 10be 27f0 b8bd 0fe7 193e 4df5 593d

conv2.bias f4 [32]
-0.09338127 -0.041576337 -0.0045685386 0.031110525 -0.07063346 -0.06999751 -0.054574348 -0.07848064
-0.0051838113 -0.018384468 -0.047342632 -0.019603508 -0.037958905 0.011936838 0.03454486 -0.054542664
-0.058006853 -0.010035485 -0.03529992 -0.0127260685 -0.018021667 -0.034379944 -0.06888721 -0.13142665
0.010305101 -0.08874302 -0.061454885 -0.05471014 -0.018791443 -0.027651591 -0.052163925 -0.0066870274
00000000: ae3e bfbd f34b 2abd aeb3 95bb 80db fe3c
00000010: 47a8 90bd db5a 8fbd 5a89 5fbd 75ba a0bd
00000020: f6dc a9bb 069b 96bc 59ea 41bd 8997 a0bc
00000030: cc7a 1bbd ba92 433c e97e 0d3d 2168 5fbd
00000040: 9898 6dbd e06b 24bc a696 10bd 0081 50bc
00000050: 2da2 93bc fcd1 0cbd bd14 8dbd b594 06be
00000060: bad6 283c e7be b5bd 1eb8 7bbd bd17 60bd
00000070: 83f0 99bc 9785 e2bc d7a9 55bd da1e dbbb

conv3.weight f4 [32, 32, 5, 5]
0.06739886 0.059263393 0.17958204 -0.04289806 0.20599854 -0.016688013 0.023473762 -0.09391346
0.01406122 -0.15650478 0.0024739546 0.11080339 -0.069216855 0.06251783 0.10300296 -0.016044537
0.07174405 0.018929072 -0.057250988 -0.0120769525 0.02168623 0.10671942 0.060086194 0.001815631
-0.084055424 0.09948593 0.15371287 0.1630628 0.053119272 0.1830268 -0.15627615 -0.049764734
0.11669344 0.007760687 -0.008211227 -0.046389766 -0.056070395 -0.060211945 0.12799758 0.026149435
0.08406162 0.12853466 -0.03702857 -0.010398689 -0.018158644 -0.022596894 -0.024838796 0.0016494575
-0.04818021 0.023955166 -0.04619936 -0.005060835 -0.047822826 0.06956875 0.02240487 0.014878464
0.08775694 0.04588229 -0.028143635 0.10960722 0.0013592868 0.09257722 0.060627572 -0.072423436
-0.200734 -0.018859101 0.15843138 0.032735843 0.0827744 -0.03140427 -0.033907775 -0.024008801
-0.12626967 0.02040719 -0.0070356466 -0.04633874 -0.045828603 -0.11143156 -0.10396163 -0.11831773
-0.07610761 -0.05829466 -0.20044324 -0.09608403 -0.031693988 -0.033785835 -0.027163781 -0.04830667
-0.0055048824 -0.09221047 0.10781677 -0.031931892 -0.013824359 -0.034338105 -0.036240865 0.14722879
-0.04050713 -0.04039517 0.014063385 -0.008666955 0.11734057 -0.107540764 -0.05613876 -0.08330969
-0.13679467 0.019424582 0.015976373 -0.025801376 -0.08307007 -0.044604547 -0.08581472 0.0668097
0.019767826 -0.046310123 -0.08296676 -0.08004426 0.10054155 0.0064191525 -0.053510737 -0.0662689
-0.09749856 -0.047589686 -0.092460915 0.0038049782 0.09968242 0.048261914 0.0363082 0.06756771
0.12963587 0.07130662 0.11832648 -0.053008575 -0.12323852 -0.039208848 0.0064674923 -0.098603
-0.08942746 0.0830605 -0.12555057 0.06023604 -0.13587593 0.090183586 0.04185001 0.10393244
-0.04539445 0.19578172 0.10644879 -0.051988184 0.05585937 -0.11496495 -0.033846613 -0.052172888
0.010111208 0.060975317 -0.045909747 0.11520011 0.05399064 0.08593037 0.14647134 0.10664733
-0.03385225 -0.07962182 0.041891247 -0.012318552 -0.029074783 0.03427424 0.06809784 0.09045798
0.013590853 0.04480629 -0.06588233 -0.09232585 0.11181499 0.024384776 0.118659385 0.07061963
0.1511652 -0.019057006 0.0973716 0.09776187 -0.030493185 -0.11364607 -0.014168619 -0.026229251
0.12761678 -0.015650587 -0.054278634 0.061136775 0.04047767 -0.00035550143 0.12191096 0.008123535
-0.07646128 -0.065569885 -0.067364894 0.098383 0.120427094 -0.033868834 -0.08254674 -0.10296945
0.095909625 0.046299808 -0.05346911 0.120335266 -0.03261911 0.0011660113 0.003209827 0.07187388
-0.018601371 -0.1128856 0.09108592 0.07024266 0.06824077 0.028567992 -0.099741735 -0.116507776
-0.04489715 -0.094596155 -0.05104374 0.034023155 -0.26885802 -0.0719425 -0.009859319 0.025412219
0.094535835 0.01352814 -0.009140851 0.089704625 0.15194486 -0.08521803 0.049792804 -0.17226058
0.004863194 -0.028386325 0.05078668 -0.052195158 0.09515578 -0.031916462 -0.11491753 0.10608431
0.07836623 -0.12778015 -0.21908474 -0.018776288 0.013632394 0.038580276 -0.05898632 -0.153906
-0.030961163 0.18674353 -0.043985724 0.042735957 0.014192033 0.0016253076 0.046912972 -0.11760672
00000000: 6a08 8a3d 2cbe 723d 5be4 373e e0b5 2fbd
00000010: 48f1 523e 4db5 88bc 0c4c c03c b355 c0bd
00000020: 0861 663c ca42 20be 1222 223b e3ec e23d
00000030: 91c1 8dbd 5909 803d 37f3 d23d d56f 83bc
00000040: 8bee 923d 2411 9b3c 0380 6abd 69de 45bc
00000050: 52a7 b13c b68f da3d f11c 763d 78fa ed3a
00000060: 4025 acbd 47bf cb3d e866 1d3e eff9 263e
00000070: 9893 593d 616b 3b3e db06 20be 1bd6 4bbd
00000080: f8fc ee3d 5c4d fe3b 6288 06bc 3203 3ebd
00000090: 12aa 65bd cda0 76bd cc11 033e 5737 d63c
000000a0: 8028 ac3d 979e 033e 45ab 17bd 435f 2abc
000000b0: 70c1 94bc 1f1d b9bc bb7a cbbc 9c32 d83a
000000c0: 9d58 45bd a03d c43c 8a3b 3dbd 5cd5 a5bb
000000d0: dee1 43bd 107a 8e3d 6b8a b73c cdc4 733c
000000e0: e9b9 b33d 11ef 3b3d 7b8d e6bc c079 e03d
000000f0: 192a b23a 2099 bd3d 9e54 783d bd52 94bd
00000100: 378d 4dbe 677e 9abc d63b 223e 0516 063d
00000110: a085 a93d c4a1 00bd e1e2 0abd 1bae c4bc
00000120: d64c 01be fb2c a73c 488b e6bb b1cd 3dbd
00000130: c6b6 3bbd 3b36 e4bd d6e9 d4bd 9150 f2bd
00000140: 4ede 9bbd 62c6 6ebd fe40 4dbe b4c7 c4bd
00000150: 8ed1 01bd 0463 0abd 9486 debc 37dd 45bd
00000160: 4d62 b4bb d8d8 bcbd 0acf dc3d 04cb 02bd
00000170: 907f 62bc 1da6 0cbd 4d71 14bd 25c3 163e
00000180: ceea 25bd 6875 25bd 1d6a 663c d8ff 0dbc
00000190: 4150 f03d 553e dcbd c2f1 65bd 459e aabd
000001a0: e713 0cbe 4d20 9f3c e2e0 823c 685d d3bc
000001b0: a420 aabd 42b3 36bd a1bf afbd 86d3 883d
000001c0: 23f0 a13c afaf 3dbd 7aea a9bd 3fee a3bd
000001d0: bae8 cd3d c157 d23b 132e 5bbd fdb7 87bd
000001e0: 53ad c7bd 67ed 42bd 265c bdbd f15c 793b
000001f0: 4c26 cc3d 49ae 453d e8b7 143d f160 8a3d
00000200: 44bf 043e 3509 923d 2755 f23d 851f 59bd
00000210: 7a64 fcbd 7599 20bd 42ed d33b 5ff0 c9bd
00000220: bf25 b7bd a01b aa3d 5490 00be 11ba 763d
00000230: 0f23 0bbe 2cb2 b83d eb6a 2b3d 88da d43d
00000240: 88ef 39bd 017b 483e d301 da3d 90f1 54bd
00000250: cbcc 643d be72 ebbd bfa2 0abd 3db3 55bd
00000260: 7ba9 253c 41c1 793d dc0b 3cbd 09ee eb3d
00000270: 4a25 5d3d 43fc af3d 95fc 153e ea69 da3d
00000280: a8a8 0abd c410 a3bd 2896 2b3d c0d3 49bc
00000290: 3d2e eebc 2563 0c3d e176 8b3d 0942 b93d
000002a0: 2bac 5e3c cd86 373d 51ed 86bd 5615 bdbd
000002b0: 42ff e43d 95c2 c73c b103 f33d 06a1 903d
000002c0: 0dcb 1a3e 701d 9cbc c36a c73d 6037 c83d
000002d0: d8cc f9bc 45bf e8bd 7f23 68bc bade d6bc
000002e0: f9ad 023e a935 80bc 4653 5ebd 8e6a 7a3d
000002f0: eacb 253d 9862 bab9 74ac f93d 9318 053c
00000300: bb97 9cbd 8149 86bd 9bf6 89bd 077d c93d
00000310: 7ba2 f63d 0cba 0abd 440e a9bd a6e1 d2bd
00000320: 446c c43d dea4 3d3d 6d02 5bbd 5672 f63d
00000330: 9e9b 05bd d9d4 983a f65b 523b 9d32 933d
00000340: e761 98bc 9130 e7bd 418b ba3d 62db 8f3d
00000350: d1c1 8b3d 6c07 ea3c 6545 ccbd a19b eebd
00000360: 13e6 37bd a1bb c1bd 3e13 51bd dd5b 0b3d
00000370: c2a7 89be 9756 93bd fb88 21bc 492d d03c
00000380: 019c c13d 22a5 5d3c 82c3 15bc 0fb7 b73d
00000390: 6f97 1b3e ca86 aebd 8af3 4b3d 1465 30be
000003a0: 6e5b 9f3b 708a e8bc b205 503d 97ca 55bd
000003b0: 09e1 c23d d6ba 02bd e259 ebbd bb42 d93d
000003c0: 797e a03d cdd8 02be c057 60be bbd0 99bc
000003d0: 685a 5f3c 5a06 1e3d a49b 71bd 8999 1dbe
000003e0: 44a2 fdbc b239 3f3e 602a 34bd e60b 2f3d
000003f0: b385 683c 4608 d53a d127 403d cbdb f0bd

conv3.bias f4 [32]
-0.09407912 -0.044848803 -0.0070050783 -0.041809827 -0.028086793 -0.0657628 -0.08353126 -0.06862903
-0.03254111 -0.07967814 -0.077387966 -0.038468305 -0.02021907 -0.044223033 -0.07526016 -0.105829656
-0.048899036 -0.04202591 -0.06638388 -0.037652567 -0.090267785 -0.07965753 -0.09769941 -0.054889403
-0.037295826 -0.009767955 -0.027209617 -0.044530734 -0.051515236 -0.046855077 -0.07063955 -0.06479547
00000000: 8eac c0bd 61b3 37bd db8a e5bb c840 2bbd
00000010: 4616 e6bc a6ae 86bd 7012 abbd 608d 8cbd
00000020: d449 05bd 4b2e a3bd 957d 9ebd f190 1dbd
00000030: 77a2 a5bc 3623 35bd 0022 9abd 38bd d8bd
00000040: 5b4a 48bd 5c23 2cbd 46f4 87bd 9439 1abd
00000050: 51de b8bd 7d23 a3bd a116 c8bd b6d3 60bd
00000060: 82c3 18bd c609 20bc b4e6 debc dc65 36bd
00000070: a401 53bd 1ceb 3fbd 78ab 90bd 7db3 84bd

conv4.weight f4 [32, 32, 5, 5]
0.04301074 0.08922925 0.14033526 0.011023037 0.07871739 0.10719015 -0.17591596 -0.14546174
-0.0810598 -0.13395503 -0.14411618 -0.12234233 -0.11595744 -0.07004085 -0.13764375 -0.12386686
-0.06591563 -0.15598036 -0.16451745 -0.13366021 -0.0668683 -0.013531128 -0.08507354 -0.058095798
-0.04163689 -0.007063394 -0.021939944 -0.033901602 -0.11916373 0.037663188 0.118658945 0.15136218
0.07249577 -0.016987916 -0.021868257 -0.067287475 -0.042449597 0.038455877 0.09493223 -0.17827386
0.10595867 -0.014818531 -0.06441674 0.07719853 -0.064693324 -0.07333773 -0.04458632 -0.001971773
-0.0016675317 -0.01746485 0.05919396 0.0677541 0.10199597 -0.012112339 0.037641264 0.23246694
0.12284854 -0.04494462 0.09058452 0.05422848 0.09339158 0.07519375 0.08497384 0.08803499
0.06564776 -0.10872709 -0.105541766 -0.058325544 0.056022782 0.034837086 -0.1483502 -0.102921404
-0.029049732 -0.0046122065 -0.060296226 0.0967186 0.11031284 -0.060657714 -0.13553587 -0.09098796
-0.15724993 -0.011265161 0.016744627 0.012373723 -0.1390422 -0.10259809 -0.19303831 0.074725755
-0.025853613 0.10520765 0.040841464 0.05494033 0.09363941 0.042342946 -0.005228874 0.055653017
0.07239304 0.13780664 0.1426687 -0.00032058818 0.10788528 0.084651075 0.06939105 0.01591396
-0.0628456 0.03510006 -0.055243637 -0.023249041 0.11343568 0.049021166 -0.05552631 -0.0056895893
0.00954878 0.004290891 0.009460283 0.034123827 -0.01293202 -0.008215197 -0.029615391 -0.12240826
-0.015096888 -0.03824328 0.055904157 0.004222607 -0.138309 -0.13471283 -0.052967265 -0.045398377
-0.11450217 0.004724701 -0.0023805767 -0.16117434 -0.1541496 -0.059703533 -0.117873475 -0.10000141
-0.10322029 -0.13060683 -0.14653333 -0.17135903 -0.1741213 -0.016779043 0.024614071 -0.15408832
-0.14858614 -0.1329901 -0.042072896 -0.04399788 -0.018547824 0.03349321 -0.10771315 -0.060915947
-0.035003066 -0.064249344 -0.2045887 -0.1378466 -0.07912641 0.028715804 0.0034208517 -0.0043245316
-0.07156933 -0.0516809 -0.018929724 -0.04948546 -0.0900148 -0.025266849 -0.017020572 0.05867402
0.11553115 0.018377678 0.005011577 0.028872838 0.013232441 0.03829858 0.08737064 -0.034974977
-0.023383955 -0.10965151 -0.18851095 -0.14764486 -0.03718043 -0.072077684 0.07225105 -0.08421473
-0.102059595 0.11313766 -0.043303862 0.15846886 -0.06601323 -0.0008946767 0.09653622 0.061997697
-0.07831569 0.05785354 0.07083587 -0.0048042075 0.09288859 0.049121518 0.054068204 -0.0023308746
-0.009013165 0.0022219645 -0.07470299 -0.09796389 -0.084503554 -0.12716766 -0.10710313 -0.15768732
-0.11555441 -0.08292993 -0.09381307 -0.0028318686 -0.06543876 -0.018298326 -0.079830125 0.047680963
0.09704716 -0.059542276 0.055602785 -0.0554252 0.07351036 0.019260412 -0.043909132 0.05802078
0.024427475 -0.06377115 -0.07558748 -0.059768464 0.046242677 0.046779472 -0.06934972 -0.05632357
-0.029297464 -0.055749286 -0.042883545 -0.05848347 -0.077636965 0.013151987 0.009297202 -0.07648179
-0.113920994 -0.0029485554 -0.066565596 0.015922414 -0.06548036 -0.16187806 -0.15428202 -0.0020785003
-0.00048034568 -0.03228367 0.13065101 0.028583536 -0.029271385 -0.07413964 -0.09066506 0.08959738
00000000: 082c 303d d3bd b63d 0cb4 0f3e f899 343c
00000010: 9536 a13d 8286 db3d 5023 34be ecf3 14be
00000020: ae02 a6bd 822b 09be 3193 13be 9e8e fabd
00000030: 187b edbd 9471 8fbd 7cf2 0cbe e9ad fdbd
00000040: c6fe 86bd 51b9 1fbe 4377 28be 39de 08be
00000050: 3ff2 88bd aab1 5dbc 093b aebd dcf5 6dbd
00000060: 728b 2abd 0b74 e7bb 66bb b3bc 68dc 0abd
00000070: 1d0c f4bd b744 1a3d 7603 f33d b0fe 1a3e
00000080: aa78 943d 3e2a 8bbc 0f25 b3bc 04ce 89bd
00000090: a1df 2dbd e983 1d3d d46b c23d 6c8d 36be
000000a0: dc00 d93d 6dc9 72bc ecec 83bd 431a 9e3d
000000b0: ef7d 84bd 1732 96bd 25a0 36bd dd38 01bb
000000c0: 1491 daba 7212 8fbc 5e75 723d a9c2 8a3d
000000d0: 43e3 d03d d572 46bc ba2d 1a3d d00b 6e3e
000000e0: 0498 fb3d da17 38bd 6084 b93d af1e 5e3d
000000f0: 1644 bf3d 2eff 993d c406 ae3d b04b b43d
00000100: 5572 863d 4fac debd 4826 d8bd c4e6 6ebd
00000110: 2578 653d 55b1 0e3d 1de9 17be 75c8 d2bd
00000120: b4f9 edbc fe21 97bb 2df9 76bd 6714 c63d
00000130: b3eb e13d 3974 78bd eac9 0abe e557 babd
00000140: 2006 21be 8391 38bc 072c 893c 28bb 4a3c
00000150: 1461 0ebe f31e d2bd d6ab 45be d109 993d
00000160: f5ca d3bc 1c77 d73d 6149 273d 1d09 613d
00000170: 05c6 bf3d cc6f 2d3d f956 abbb 6bf4 633d
00000180: cd42 943d 2f1d 0d3e be17 123e 9e14 a8b9
00000190: f5f2 dc3d 8b5d ad3d e51c 8e3d fe5d 823c
000001a0: 32b5 80bd 15c5 0f3d 2747 62bd c674 bebc
000001b0: f750 e83d 6bca 483d 8e6f 63bd bc6f babb
000001c0: 7c72 1c3c 9a9a 8c3b 4eff 1a3c 6dc5 0b3d
000001d0: d3e0 53bc 0999 06bc fa9b f2bc 2fb1 fabd
000001e0: f058 77bc fca4 1cbd c2fb 643d cb5d 8a3b
000001f0: e0a0 0dbe 29f2 09be 34f4 58bd a6f3 39bd
00000200: 1d80 eabd aad1 9a3b 7303 1cbb e30a 25be
00000210: 65d9 1dbe b18b 74bd a667 f1bd 8acd ccbd
00000220: 2965 d3bd ccbd 05be d50c 16be be78 2fbe
00000230: db4c 32be 3474 89bc 73a3 c93c 54c9 1dbe
00000240: f726 18be 8f2e 08be a154 2cbd 1f37 34bd
00000250: 9bf1 97bc 2d30 093d b698 dcbd 0083 79bd
00000260: 605f 0fbd 2995 83bd b37f 51be a927 0dbe
00000270: 070d a2bd 683d eb3c 5e30 603b cdb4 8dbb
00000280: f192 92bd 5aaf 53bd 8212 9bbc 44b1 4abd
00000290: ae59 b8bd 6cfc cebc ba6e 8bbc 2b54 703d
000002a0: 989b ec3d c98c 963c 2838 a43b bb86 ec3c
000002b0: e1cc 583c f9de 1c3d 61ef b23d ec41 0fbd
000002c0: b58f bfbc f990 e0bd 0409 41be 3730 17be
000002d0: 824a 18bd 779d 93bd 5cf8 933d c678 acbd
000002e0: 9f04 d1bd b8b4 e73d 645f 31bd a945 223e
000002f0: f231 87bd bd88 6aba c8b4 c53d 4cf1 7d3d
00000300: fa63 a0bd d5f7 6c3d 6612 913d 9d6c 9dbb
00000310: 603c be3d a533 493d 9f76 5d3d 96c1 18bb
00000320: f4ab 13bc 619e 113b e2fd 98bd 4ba1 c8bd
00000330: 3310 adbd 3d38 02be e358 dbbd c978 21be
00000340: caa7 ecbd 2bd7 a9bd 1121 c0bd df96 39bb
00000350: c204 86bd 5fe6 95bc fa7d a3bd 1d4d 433d
00000360: a9c0 c63d 9ae2 73bd bfbf 633d 8905 63bd
00000370: 9a8c 963d 03c8 9d3c 10da 33bd 33a7 6d3d
00000380: 211c c83c 739a 82bd 9ccd 9abd c7cf 74bd
00000390: f668 3d3d d59b 3f3d 3a07 8ebd 8bb3 66bd
000003a0: 3c01 f0bc 5d59 64bd a8a6 2fbd 5d8c 6fbd
000003b0: 2100 9fbd 6f7b 573c 4b53 183c 7ca2 9cbd
000003c0: 694f e9bd 8d3c 41bb 8b53 88bd b96f 823c
000003d0: 911a 86bd 5dc3 25be 1bfc 1dbe 7337 08bb
000003e0: e8d6 fbb9 e23b 04bd 61c9 053e 0528 ea3c
000003f0: 8bca efbc 86d6 97bd 9aae b9bd d57e b73d

conv4.bias f4 [32]
0.027400585 0.031908065 -0.032150544 -0.041642085 -0.041339606 -0.02298201 -0.054018967 0.0060591483
-0.0036628344 -0.0135608185 -0.005140943 -0.025937604 -0.0051888158 -0.07902684 -0.008220065 -0.07171061
-0.026191613 -0.0695797 0.013740475 -0.04920423 -0.084039636 -0.0771162 -0.046682734 -0.01762094
-0.009035874 -0.08686467 -0.02481757 -0.01810953 -0.05927731 0.006392677 -0.050763663 -0.019379167
00000000: 3177 e03c 08b2 023d 4ab0 03bd e490 2abd
00000010: b853 29bd c544 bcbc fe42 5dbd d28b c63b
00000020: 2a0c 70bb 322e 5ebc 5b75 a8bb 197b d4bc
00000030: f106 aabb d3d8 a1bd 74ad 06bc 03dd 92bd
00000040: cb8f d6bc cd7f 8ebd bb1f 613c 608a 49bd
00000050: f91c acbd 19ef 9dbd 6536 3fbd ca59 90bc
00000060: 340b 14bc 1be6 b1bd 374e cbbc 705a 94bc
00000070: c4cc 72bd a979 d13b 8fed 4fbd 0fc1 9ebc

conv5.weight f4 [32, 32, 5, 5]
-0.03135109 -0.050851755 -0.110548995 -0.09709961 -0.0069242013 -0.16844618 -0.07467878 -0.069623284
-0.08295845 -0.11811368 -0.120217055 -0.060596734 -0.040988397 -0.062871665 -0.010926557 0.04902618
0.09393988 0.06470436 0.061472293 0.07497802 0.08983113 0.08606829 0.10290285 0.06690269
0.061851844 0.0013347347 -0.04226087 -0.087740205 -0.02424356 -0.04005704 -0.08499003 -0.116676405
-0.006519173 0.004940432 0.020542355 -0.050260577 -0.009557154 0.08909618 0.0027860554 0.043927662
-0.0129941655 0.04007688 0.07176513 0.0435548 0.09859072 0.07208145 0.038840145 0.094122715
0.09924104 0.11431313 -0.092690386 -0.092694044 -0.058934364 -0.07198279 -0.053342458 0.017300453
-0.07167604 0.007037654 -0.046033494 -0.0768113 0.106078826 0.14565238 0.13652098 0.09557341
0.10222226 0.09394627 0.11896085 0.15750629 0.1636231 0.17148484 0.0578617 0.111658394
0.12959662 0.0990498 0.14337087 0.0024913934 -0.047590677 0.09666113 0.0011057908 -0.017600615
0.10343553 0.0050276173 0.11497136 0.0538976 -0.013165652 0.004054263 -0.09376222 -0.048351653
-0.023571365 -0.056058466 -0.08679484 -0.04876981 -0.01961987 -0.053631835 -0.0057804347 -0.10851037
-0.036704127 -0.098229416 -0.1056443 0.008721071 -0.11629463 -0.001294908 0.041492485 0.07633799
0.08060324 -0.021883793 0.021718686 0.09770725 0.14956181 0.15781063 0.08901102 0.13322313
0.16378239 0.16467632 0.059110325 -0.04953674 0.052910533 0.09798905 -0.01436635 -0.12960981
-0.018532116 0.05219172 0.0872236 -0.10325715 -0.19469985 0.13798687 0.101306066 0.0766627
-0.008528692 0.011884638 -0.08773646 -0.13490628 -0.09712196 -0.027074825 -0.0056855897 -0.1013142
-0.097899586 -0.12688918 -0.09379018 -0.080984466 -0.21618189 -0.14794971 -0.09331169 -0.070685275
-0.11636812 -0.20249496 -0.20091242 -0.13384461 -0.033424515 0.02410499 -0.032208905 0.0045916853
0.017609542 -0.03184616 0.03441209 0.055770375 0.082183585 -0.00055739377 0.053313058 0.0005434272
0.0032959161 0.037277296 -0.035712216 -0.051353365 0.0038081855 -0.001570221 -0.03009532 -0.017655596
-0.026991174 0.03354155 -0.08957445 -0.038440436 0.06932546 0.061698057 0.081085294 -0.0501542
-0.024364147 -0.08054748 -0.023653075 0.011747221 -0.025944846 -0.03741864 -0.118909806 -0.11660485
-0.004346057 -0.10092525 -0.06894239 0.07767694 -0.040484834 -0.0153708 -0.0021567463 0.021126315
0.035181426 0.007626301 -0.05188815 0.01574191 0.04362419 -0.13746871 -0.065007284 -0.04587186
-0.11306747 -0.14558299 -0.22052145 -0.1454267 -0.14107434 -0.16650899 -0.10430027 -0.071612574
-0.13983656 -0.0953402 -0.09384413 -0.068552285 -0.07244958 -0.044073123 -0.028382137 0.022286061
0.024272855 0.081321806 0.07539019 0.13835838 -0.09478211 -0.064511836 0.0015162097 0.034561012
0.033243872 0.055692106 0.055746607 -0.0068979524 0.011577518 -0.0779942 -0.066834316 -0.016473634
0.00032640804 -0.094038 -0.044958353 -0.04548583 -0.03732447 -0.07822986 0.04002745 0.02169799
-0.028758889 -0.050036486 -0.081136964 0.021585599 -0.0539301 -0.21210657 -0.060217746 -0.090573005
0.06038116 -0.0078569455 0.176685 0.07856171 0.11759963 0.14107081 0.12223685 0.019313438
00000000: 006a 00bd ee49 50bd 8367 e2bd 29dc c6bd
00000010: 69e4 e2bb 287d 2cbe 30f1 98bd a796 8ebd
00000020: 1fe6 a9bd 96e5 f1bd 5c34 f6bd 4834 78bd
00000030: 73e3 27bd dcc2 80bd 4d05 33bc adcf 483d
00000040: 8d63 c03d b883 843d 5fca 7b3d 138e 993d
00000050: 62f9 b73d 9244 b03d bbbe d23d 4704 893d
00000060: 5c58 7d3d 44f2 ae3a bc19 2dbd 23b1 b3bd
00000070: 6e9a c6bc da12 24bd 410f aebd 0af4 eebd
00000080: c99e d5bb 59e3 a13b 7148 a83c 09de 4dbd
00000090: 9c95 1cbc 0f78 b63d 4196 363b 7eed 333d
000000a0: 7be5 54bc a827 243d 99f9 923d 8566 323d
000000b0: eee9 c93d 709f 933d d816 1f3d 69c3 c03d
000000c0: e33e cb3d 011d ea3d 75d4 bdbd 60d6 bdbd
000000d0: 2965 71bd b76b 93bd 9f7d 5abd aeb9 8d3c
000000e0: e3ca 92bd 1f9c e63b 9e8d 3cbd 3e4f 9dbd
000000f0: db3f d93d e625 153e 28cc 0b3e febb c33d
00000100: e759 d13d e766 c03d bfa1 f33d 5449 213e
00000110: d08c 273e b999 2f3e 6400 6d3d 28ad e43d
00000120: fab4 043e 9fda ca3d d0cf 123e a546 233b
00000130: 71ee 42bd 45f6 c53d 2ff0 903a 2a2f 90bc
00000140: 02d6 d33d b6be a43b 1b76 eb3d bbc3 5c3d
00000150: bfb4 57bc 9fd9 843b 6806 c0bd 620c 46bd
00000160: bc18 c1bc 909d 65bd 7ec1 b1bd dac2 47bd
00000170: dab9 a0bc 0ead 5bbd cd69 bdbb af3a debd
00000180: 1157 16bd 812c c9bd 0a5c d8bd d3e2 0e3c
00000190: e12b eebd e7b9 a9ba 06f4 293d 1857 9c3d
000001a0: 5013 a53d a445 b3bc 63eb b13c bd1a c83d
000001b0: bb26 193e 1c99 213e 694b b63d a56b 083e
000001c0: 92b6 273e e9a0 283e ab1d 723d 09e7 4abd
000001d0: b7b8 583d 7cae c83d d760 6bbc 6fb8 04be
000001e0: aad0 97bc fcc6 553d 49a2 b23d 7c78 d3bd
000001f0: 665f 47be 6e4c 0d3e 8e79 cf3d 5501 9d3d
00000200: edbb 0bbc c9b7 423c 2caf b3bd df24 0abe
00000210: e1e7 c6bd 06cc ddbc 2f4e babb d27d cfbd
00000220: 947f c8bd 3def 01be 1115 c0bd 2fdb a5bd
00000230: c95e 5dbe 2180 17be 331a bfbd 71c3 90bd
00000240: 6952 eebd d75a 4fbe fcbb 4dbe 900e 09be
00000250: 25e8 08bd d477 c53c 7ced 03bd d975 963b
00000260: e341 903c 1e71 02bd b1f3 0c3d 7a6f 643d
00000270: de4f a83d 101e 12ba cb5e 5a3d c874 0e3a
00000280: 4c00 583b 14b0 183d f946 12bd e857 52bd
00000290: c092 793b e0cf cdba 768a f6bc 78a2 90bc
000002a0: 981c ddbc dd62 093d cf72 b7bd b873 1dbd
000002b0: 82fa 8d3d 1ab7 7c3d 0c10 a63d 7e6e 4dbd
000002c0: 5297 c7bc 14f6 a4bd 18c4 c1bc 6b77 403c
000002d0: 498a d4bc 4a44 19bd fc86 f3bd 86ce eebd
000002e0: 5e69 8ebb e6b1 cebd ab31 8dbd 1615 9f3d
000002f0: 6dd3 25bd cfd5 7bbc 3358 0dbb 1811 ad3c
00000300: 661a 103d 0de6 f93b ab88 54bd 2ef5 803c
00000310: 47af 323d 99c4 0cbe 8a22 85bd 22e4 3bbd
00000320: eb8f e7bd b513 15be 60d0 61be bdea 14be
00000330: cb75 10be 5581 2abe 619b d5bd 9da9 92bd
00000340: 5131 0fbe b941 c3bd 5a31 c0bd 2465 8cbd
00000350: 7260 94bd 0586 34bd a881 e8bc 4291 b63c
00000360: ded7 c63c 0c8c a63d 2c66 9a3d d2ad 0d3e
00000370: 1f1d c2bd c81e 84bd 8ebb c63a d98f 0d3d
00000380: ba2a 083d 681d 643d 8e56 643d 3808 e2bb
00000390: a1af 3d3c 6cbb 9fbd 6ee0 88bd b7f3 86bc
000003a0: bf21 ab39 ff96 c0bd 4026 38bd 5a4f 3abd
000003b0: 8be1 18bd fa36 a0bd d3f3 233d fcbf b13c
000003c0: c397 ebbc 0ff3 4cbd 232b a6bd 48d4 b03c
000003d0: cfe5 5cbd 7732 59be e2a6 76bd 577e b9bd
000003e0: 3c52 773d 6bba 00bc eaec 343e f6e4 a03d
000003f0: 13d8 f03d de74 103e 5057 fa3d 3737 9e3c

conv5.bias f4 [32]
-0.06358867 0.023667913 -0.0062032146 0.01220323 -0.026536139 0.033044234 0.023711523 -0.008248926
-0.0036955867 -0.022953909 0.028183822 -0.05793789 -0.056547087 -0.034124225 -0.01710456 0.08183045
0.07856971 0.06036694 0.02406418 -0.07254775 0.0056494703 -0.024206836 0.03929594 0.017222412
0.011107689 0.025356384 -0.008986973 -0.04468145 0.04276276 -0.016929762 0.019840546 -0.06870825
00000000: c73a 82bd 36e3 c13c 5644 cbbb 0ef0 473c
00000010: 5162 d9bc 6459 073d ab3e c23c 8126 07bc
00000020: a831 72bb d609 bcbc c2e1 e63c 4850 6dbd
00000030: eb9d 67bd d8c5 0bbd dd1e 8cbc b996 a73d
00000040: 28e9 a03d 5343 773d 3e22 c53c ea93 94bd
00000050: 311f b93b 6a4d c6bc c8f4 203d 0416 8d3c
00000060: 06fd 353c 31b8 cf3c 193e 13bc e503 37bd
00000070: 0128 2f3d 49b0 8abc a488 a23c e9b6 8cbd

conv6.weight f4 [32, 32, 5, 5]
0.00809963 -0.015669895 -0.12731883 -0.14563304 -0.09238718 -0.024460921 0.015472368 0.009994808
-0.043802425 -0.019011756 0.008218479 -0.06605148 -0.013361686 0.04257761 0.08877619 0.010656313
-0.024979277 -0.03906187 -0.011581684 -0.0076686367 -0.0040408596 0.04186343 0.01064597 0.05871725
0.071387835 -0.0748757 0.0109630525 0.06895262 -0.09709846 -0.08659234 -0.07690963 -0.021900605
0.019469842 -0.06265517 -0.033685226 -0.042149566 -0.11771108 0.101544924 -0.013823224 -0.056483142
-0.04331475 0.030074626 0.08387528 -0.009948143 -0.010248441 0.06855709 -0.014633151 0.024891453
-0.032344546 0.04234551 -0.061050337 -0.05437721 -0.024406403 -0.22056375 -0.05823875 -9.18485e-05
-0.07364645 0.04442988 -0.084273495 -0.08807596 0.087584 -0.030641185 0.061247 -0.06372727
-0.1236179 -0.085765995 -0.099509194 -0.021734444 -0.14365095 -0.120053105 -0.020874148 0.00972342
-0.11976862 -0.07406064 -0.060480807 -0.042034358 0.032937467 -0.025588319 -0.11306307 -0.058127027
-0.10916552 -0.045127973 -0.0490127 -0.09815935 -0.07719352 -0.14226453 0.032844346 -0.01575623
-0.10586018 -0.09804023 -0.07354861 -0.04943142 -0.08900447 -0.15556912 -0.12460962 -0.012225799
-0.12155472 -0.13950029 -0.15982658 -0.0856068 -0.10253466 0.026929772 0.016770136 0.004155216
-0.08670133 -0.057668146 -0.08610042 -0.042235274 0.00018417546 -0.022780633 -0.055695616 -0.1665158
-0.10106779 -0.026478795 -0.06465142 -0.0064832307 -0.10009485 -0.029575037 -0.04007336 0.042312898
0.1259961 0.010624902 -0.03408032 0.010968991 0.099202156 -0.03841597 -0.033586845 0.04293019
-0.108956546 -0.16797522 -0.052978665 -0.113101974 -0.018851897 -0.06060786 -0.06576172 -0.031617798
-0.0766399 0.017811334 0.03929965 -0.09052519 -0.03819877 -0.11114714 -0.10119489 -0.065935396
-0.0824912 -0.06905624 -0.04645295 0.023779204 0.021080382 -0.04073296 0.016714565 -0.0215906
-0.004329763 -0.06964393 -0.11195403 0.049924206 -0.11454924 -0.0494182 -0.1067571 -0.16084194
-0.05208009 -0.13104206 0.002356157 -0.085429505 -0.08213401 -0.0374673 -0.04576475 -0.05948984
-0.13988516 -0.12537704 0.0008971542 0.01281193 -0.03988753 -0.008699575 -0.08489887 -0.01006323
-0.08437512 -0.022439696 -0.029501243 -0.0003210223 -0.047180254 -0.035042275 -0.055187345 -0.11282078
-0.11261765 -0.11211869 -0.0537559 0.03509212 -0.037562575 0.021039141 -0.025665583 0.045578606
0.07113662 0.066649765 0.050938558 -0.06523257 -0.013507894 -0.07352569 -0.034735717 -0.030669648
0.08096247 0.059945095 -0.018961802 -0.0763267 -0.04340286 0.09512729 0.023663089 0.038563605
-0.053069603 -0.00752359 0.14137168 0.10625593 0.021854145 -0.08805129 -0.028113127 0.04098436
-0.033362523 -0.1714384 -0.07805698 -0.015118942 0.0496551 -0.12166689 -0.055069063 -0.060105607
0.01784842 0.011403577 -0.18106984 -0.06168049 0.015061132 -0.07641236 0.07462547 -0.08594825
-0.0047196317 -0.03195434 -0.08029046 0.026900511 -0.052810155 -0.03832454 -0.043015014 0.026034579
-0.062261738 -0.022578208 -0.084881164 -0.013595317 0.06314433 0.04354542 -0.022129174 -0.113349155
-0.02199511 0.066162236 0.07173148 0.019640502 0.048570987 0.002460571 -0.10961768 0.08602684
00000000: 4fb4 043c 275e 80bc de5f 02be d420 15be
00000010: 7d35 bdbd 4562 c8bc d17f 7d3c 43c1 233c
00000020: 2c6a 33bd 8bbe 9bbc cda6 063c 0046 87bd
00000030: f9ea 5abc dc65 2e3d 4bd0 b53d d197 2e3c
00000040: 57a1 ccbc 57ff 1fbd 1bc1 3dbc 3049 fbbb
00000050: 3069 84bb fd78 2b3d 6f6c 2e3c 8081 703d
00000060: c933 923d 6e58 99bd 609e 333c 0837 8d3d
00000070: 8fdb c6bd 5357 b1bd cc82 9dbd e668 b3bc
00000080: 387f 9f3c 5b51 80bd 85f9 09bd 06a5 2cbd
00000090: 8212 f1bd c9f6 cf3d ce7a 62bc de5a 67bd
000000a0: cf6a 31bd 105f f63c cec6 ab3d 89fd 22bc
000000b0: 14e9 27bc a967 8c3d e2bf 6fbc 29e9 cb3c
000000c0: b77b 04bd 7c72 2d3d eb0f 7abd a3ba 5ebd
000000d0: f0ef c7bc 77db 61be c18b 6ebd ca9e c0b8
000000e0: f3d3 96bd 1bfc 353d 9597 acbd 2b61 b4bd
000000f0: 3d5f b33d 3903 fbbc 22de 7a3d 7183 82bd
00000100: 622b fdbd 15a6 afbd 7acb cbbd 6f0c b2bc
00000110: 3c19 13be 67de f5bd 4300 abbc fb4e 1f3c
00000120: 4049 f5bd 1bad 97bd b9ba 77bd 382c 2cbd
00000130: 70e9 063d 989e d1bc 9c8d e7bd 9b16 6ebd
00000140: 2c92 dfbd 1cd8 38bd 8ac1 48bd c507 c9bd
00000150: a317 9ebd cbad 11be cb87 063d 3613 81bc
00000160: 39cd d8bd 51c9 c8bd a7a0 96bd 9a78 4abd
00000170: fa47 b6bd 834d 1fbe 5433 ffbd b84e 48bc
00000180: aef1 f8bd 2ad9 0ebe 94a9 23be 9e52 afbd
00000190: b1fd d1bd d39b dc3c 8661 893c 7a28 883b
000001a0: 7890 b1bd 6f35 6cbd 6b55 b0bd e5fe 2cbd
000001b0: 391f 4139 739e babc 1621 64bd 1e83 2abe
000001c0: a1fc cebd 0fea d8bc f767 84bd 4871 d4bb
000001d0: 87fe ccbd 5947 f2bc f723 24bd 4a50 2d3d
000001e0: 1f05 013e 1214 2e3c ce97 0bbd 48b7 333c
000001f0: 802a cb3d 105a 1dbd 5c92 09bd 91d7 2f3d
00000200: 9c24 dfbd b201 2cbe 2800 59bd 02a2 e7bd
00000210: 4b6f 9abc f33f 78bd 15ae 86bd aa81 01bd
00000220: 61f5 9cbd 13e9 913c abf8 203d 4565 b9bd
00000230: 5076 1cbd 1da1 e3bd 443f cfbd 2309 87bd
00000240: 25f1 a8bd 5c6d 8dbd 7345 3ebd 9bcc c23c
00000250: c4b0 ac3c 9bd7 26bd fcec 883c c5de b0bc
00000260: afe0 8dbb 7aa1 8ebd 2848 e5bd 537d 4c3d
00000270: cb98 eabd bd6a 4abd 77a3 dabd c0b3 24be
00000280: ef51 55bd e42f 06be c169 1a3b aaf5 aebd
00000290: e035 a8bd 5077 19bd d273 3bbd 9eab 73bd
000002a0: 0e3e 0fbe d762 00be 002f 6b3a 21e9 513c
000002b0: 1b61 23bd aa88 0ebc 75df adbd 3fe0 24bc
000002c0: ddcc acbd 74d3 b7bc 97ac f1bc e24e a8b9
000002d0: 1540 41bd 7d88 0fbd 200c 62bd 950e e7bd
000002e0: 15a4 e6bd 7c9e e5bd 262f 5cbd c1bc 0f3d
000002f0: 37db 19bd 475a ac3c a140 d2bc a2b0 3a3d
00000300: 14b0 913d ac7f 883d f3a4 503d a798 85bd
00000310: 3750 5dbc a394 96bd 0a47 0ebd ea3e fbbc
00000320: a7cf a53d fd88 753d c855 9bbc 2c51 9cbd
00000330: 33c7 31bd 19d2 c23d 18d9 c13c dff4 1d3d
00000340: 835f 59bd 7288 f6bb bdc3 103e b69c d93d
00000350: 7707 b33c 3c54 b4bd 804d e6bc 37df 273d
00000360: 24a7 08bd 8c8d 2fbe 57dc 9fbd 70b5 77bc
00000370: 2563 4b3d 7e2c f9bd 1990 61bd 4c31 76bd
00000380: da36 923c 12d6 3a3c 5f6a 39be aea4 7cbd
00000390: f7c2 763c 157e 9cbd 3dd5 983d a305 b0bd
000003a0: 24a7 9abb 8ee2 02bd 536f a4bd 765e dc3c
000003b0: 764f 58bd 31fa 1cbd 8330 30bd 7846 d53c
000003c0: 2a06 7fbd eff5 b8bc 2dd6 adbd e4be 5ebc
000003d0: d151 813d af5c 323d 3e48 b5bc 9a23 e8bd
000003e0: 172f b4bc 1180 873d f4e7 923d 1ee5 a03c
000003f0: 5ff2 463d 8841 213b 3c7f e0bd d72e b03d

conv6.bias f4 [32]
0.03705713 0.099903114 0.043740295 0.0567844 -0.038408466 0.04812429 0.051649004 0.06851887
0.048409376 0.14369905 0.13821806 0.01765299 -0.02312521 -0.01100047 0.12678435 0.06984724
0.09046062 -0.12305864 0.18177176 0.008976348 0.052575566 0.10885196 0.036292832 0.06810265
-0.07013667 0.0041269413 0.12427277 -0.05971217 0.0784302 0.17884114 0.10681628 0.076241806
00000000: 38c9 173d 019a cc3d 0629 333d c296 683d
00000010: 3252 1dbd fa1d 453d e88d 533d 9f53 8c3d
00000020: e948 463d d825 133e 0989 0d3e 019d 903c
00000030: 1571 bdbc 513b 34bc c2d3 013e 120c 8f3d
00000040: 6b43 b93d 2b06 fcbd 6022 3a3e 8811 133c
00000050: 7a59 573d c7ed de3d cba7 143d 6779 8b3d
00000060: d0a3 8fbd 4b3b 873b b982 fe3d c094 74bd
00000070: 03a0 a03d 2222 373e 7ec2 da3d aa24 9c3d

conv7.weight f4 [32, 32, 5, 5]
-0.035061955 0.029621279 0.04497271 0.04566187 0.033976074 0.015983764 0.015240231 0.040878177
0.031069012 -0.025796046 -0.019037774 0.030303093 0.0784316 0.00052702194 0.0048405062 -0.048497077
0.015071853 0.0048343837 -0.0093728285 0.020033073 0.003959349 0.0057673114 0.061604954 0.019253802
0.08752338 0.03595428 0.068423375 0.067213684 0.09135645 -0.013420818 0.06546643 0.075497754
0.046335835 -0.04768287 -0.117342085 0.02787219 -0.019365866 -0.0016132884 -0.09095412 -0.15234883
-0.088237025 -0.07825139 -0.10216799 -0.2122406 -0.22965176 -0.07779451 -0.062251683 -0.058879066
-0.06932262 -0.03560336 0.018457923 0.039773602 0.056937296 0.02850075 0.059157815 0.015182263
-0.001909284 0.013935479 0.041396473 0.029663058 -0.009181113 0.030412063 0.007985855 0.00394519
-0.018150887 -0.031147052 -0.03156565 -0.016159732 -0.10916024 -0.069724895 -0.05531528 -0.012542936
-0.03731874 -0.02235715 -0.029874394 -0.008775201 -0.027749471 -0.050591037 -0.05697578 -0.005162557
0.038523033 -0.037970696 -0.013514999 0.002945849 -0.055869155 0.0032486692 -0.028123863 0.013136253
0.030958306 0.026615527 0.044576593 0.015333728 0.061191358 0.041148018 0.03819474 0.029074548
0.019230776 0.020237627 -0.012901638 -0.07614595 -0.023041563 -0.0458376 0.020063095 -0.0066754757
-0.009773604 -0.00991901 0.040313177 0.025056686 0.059866432 0.085006654 0.0019386931 -0.030748634
-0.025659362 0.045058817 0.02199026 0.014804439 -0.03723332 -0.03884009 -0.022631945 -0.051970717
0.036093745 0.055066057 0.0060746977 -0.030191366 -0.013222267 0.03714927 -0.02486284 -0.0013615459
0.029437609 -0.03375401 0.005523781 -0.03412901 0.031665612 0.07911804 0.013483226 -0.0130013395
0.014811385 0.005721649 0.007900734 0.018609025 0.014325612 0.01524127 -0.016916147 -0.014247407
-0.006440229 0.03701139 0.07754412 -0.020999754 -0.04481513 -0.07281658 0.04868598 0.046961766
0.071449794 0.04137933 -0.014905512 0.025825692 -0.05987967 0.04229554 0.10087001 -0.050538063
-0.03351839 0.007844007 0.08463976 0.025104186 -0.0074639297 0.004478161 -0.025892973 -0.07444398
0.025947662 -0.0747616 -0.04640292 -0.098477185 -0.101975925 -0.010556122 -6.767106e-05 0.06336998
-0.032090586 0.022189254 -0.020588288 -0.0057087056 0.0013600683 0.034393422 0.042852066 -0.033271283
-0.0068455944 0.011179123 0.014342717 0.0036220304 -0.011815818 -0.0018919604 -0.033140518 -0.0077582113
-0.015382106 -0.041989565 0.0050808936 -0.0032591962 0.053212076 0.013354773 0.050439235 0.017733244
0.023966983 0.00036928448 0.076425724 0.07181359 0.03809653 0.029151559 0.06909741 0.082249984
0.11350187 0.12641506 0.008529684 0.028168121 0.031305034 0.08018143 0.09204622 0.07516897
0.008937634 -0.10143492 -0.04015273 0.021243632 0.02731095 0.006054986 0.053341463 0.047650255
0.0098136 0.007457236 -0.01677078 0.04174105 -0.035005093 -0.035994064 0.03889644 0.035819024
0.0002925744 0.012226319 -0.063144416 0.02699265 0.028590111 -0.002027844 -0.021307958 -7.42575e-05
-0.02938428 0.025430797 -0.013461115 -0.08572828 -0.09278028 -0.019349243 -0.016754089 -0.014879471
-0.09157402 -0.06775718 -0.025692478 -0.0335665 -0.026179375 -0.016217582 -0.057153936 -0.015671734
00000000: 209d 0fbd 53a8 f23c 4e35 383d f107 3b3d
00000010: 7f2a 0b3d 62f0 823c 29b2 793c e06f 273d
00000020: 7184 fe3c 3b52 d3bc 1bf5 9bbc 313e f83c
00000030: bfa0 a03d d827 0a3a 1c9d 9e3b dfa4 46bd
00000040: efef 763c c069 9e3b 7e90 19bc 661c a43c
00000050: 6dbd 813b b7fb bc3b 7a55 7c3d 26ba 9d3c
00000060: 753f b33d cc44 133d 8e21 8c3d 54a7 893d
00000070: 1719 bb3d fee2 5bbc 4313 863d 919e 9a3d
00000080: a5ca 3d3d 1d4f 43bd 0c51 f0bd 3854 e43c
00000090: 2aa5 9ebc fa74 d3ba 2746 babd 5501 1cbe
000000a0: 9db5 b4bd 4442 a0bd 733d d1bd 9a55 59be
000000b0: d529 6bbe ba52 9fbd 9ffb 7ebd 2d2b 71bd
000000c0: 05f9 8dbd d4d4 11bd 1235 973c a5e9 223d
000000d0: 1537 693d 687a e93c 774f 723d 07bf 783c
000000e0: f140 faba a351 643c 598f 293d f1ff f23c
000000f0: 616c 16bc b822 f93c 1bd7 023c a746 813b
00000100: 2bb1 94bc 1a28 ffbc fc4a 01bd 6a61 84bc
00000110: 678f dfbd edcb 8ebd 4692 62bd e380 4dbc
00000120: 89db 18bd 5826 b7bc 25bb f4bc dcc5 0fbc
00000130: dc52 e3bc 8c38 4fbd 6f5f 69bd ab2a a9bb
00000140: 54ca 1d3d 2987 1bbd 046e 5dbc 250f 413b
00000150: 0ed7 64bd a0e7 543b 0464 e6bc 7039 573c
00000160: 469c fd3c ce08 da3c f295 363d 513a 7b3c
00000170: caa3 7a3d d38a 283d 1672 1c3d bf2d ee3c
00000180: dc89 9d3c 61c9 a53c 6461 53bc 68f2 9bbd
00000190: a9c1 bcbc 35c0 3bbd 5c5b a43c f3bd dabb
000001a0: 7721 20bc 5883 22bc 6e1f 253d ae43 cd3c
000001b0: 8136 753d f817 ae3d bf1b fe3a 8fe4 fbbc
000001c0: 9533 d2bc 988f 383d eb24 b43c 518e 723c
000001d0: f781 18bd c916 1fbd a166 b9bc 3fdf 54bd
000001e0: 09d7 133d f28c 613d 420e c73b e253 f7bc
000001f0: 35a2 58bc d529 183d 28ad cbbc e675 b2ba
00000200: 2427 f13c a541 0abd d500 b53b dcca 0bbd
00000210: cdb3 013d a408 a23d c0e8 5c3c 9203 55bc
00000220: 74ab 723c ac7c bb3b 1572 013c f471 983c
00000230: f9b5 6a3c 85b6 793c bb93 8abc f56d 69bc
00000240: 8e08 d3bb 4199 173d 74cf 9e3d ad07 acbc
00000250: 1290 37bd dc20 95bd f36a 473d fb5a 403d
00000260: 4554 923d 5f7d 293d 4036 74bc 6790 d33c
00000270: 6344 75bd 173e 2d3d f094 ce3d 0001 4fbd
00000280: 944a 09bd 2684 003c 9c57 ad3d 4ba7 cd3c
00000290: fb93 f4bb 8abd 923b 801d d4bc 1676 98bd
000002a0: 3190 d43c 9c1c 99bd fd10 3ebd 68ae c9bd
000002b0: c1d8 d0bd 96f3 2cbc a0ea 8db8 1fc8 813d
000002c0: 6b71 03bd 3dc6 b53c c5a8 a8bc 1810 bbbb
000002d0: 5244 b23a 1ee0 0c3d a685 2f3d 7847 08bd
000002e0: 0251 e0bb a428 373c b7fd 6a3c 965f 6d3b
000002f0: 2297 41bc a8fb f7ba 5abe 07bd 9838 febb
00000300: 3b05 7cbc 40fd 2bbd a07d a63b 3d98 55bb
00000310: e8f4 593d facd 5a3c 5f99 4e3d 4f45 913c
00000320: 6856 c43c 869c c139 1785 9c3d 0113 933d
00000330: 1b0b 1c3d 40cf ee3c f182 8d3d ae72 a83d
00000340: ab73 e83d f372 013e 16c0 0b3c d5c0 e63c
00000350: b539 003d 2936 a43d bb82 bc3d 30f2 993d
00000360: 276f 123c 1dbd cfbd 3077 24bd 2007 ae3c
00000370: 37bb df3c e768 c63b 947c 5a3d ea2c 433d
00000380: 39c9 203c d45b f43b e062 89bc aaf8 2a3d
00000390: 8061 0fbd 836e 13bd e051 1f3d f8b6 123d
000003a0: ac64 9939 e650 483c dc51 81bd b11f dd3c
000003b0: cf35 ea3c 94e5 04bb 078e aebc b1ba 9bb8
000003c0: 4db7 f0bc 3f54 d03c 028c 5cbc 4f92 afbd
000003d0: 9603 bebd 4e82 9ebc df3f 89bc 06c9 73bc
000003e0: 298b bbbd 47c4 8abd 0879 d2bc 077d 09bd
000003f0: 2176 d6bc bcda 84bc 3f1a 6abd 0262 80bc

conv7.bias f4 [32]
0.11134075 0.11830853 0.14471196 0.19540653 0.116622485 0.102884494 0.14859548 0.14320348
0.16542044 0.11022175 0.14460573 0.15133682 0.16429259 0.30098543 0.15315457 0.14296111
0.23677756 0.06571468 0.11250231 0.11600192 0.26000234 0.14444146 0.11646472 0.14921086
0.103494175 0.24497691 0.19867273 0.14493586 0.18973975 0.19281186 0.22032455 0.2068457
00000000: 9e06 e43d be4b f23d 5f2f 143e a618 483e
00000010: c5d7 ee3d 1bb5 d23d 6a29 183e efa3 123e
00000020: fa63 293e f1bb e13d 8613 143e 0af8 1a3e
00000030: 513c 283e c31a 9a3e 8dd4 1c3e 6664 123e
00000040: d175 723e 6b95 863d 9c67 e63d 6a92 ed3d
00000050: 071f 853e 76e8 133e 0e85 ee3d bbca 183e
00000060: c1f4 d33d 3adb 7a3e dd70 4b3e 116a 143e
00000070: 234b 423e 7970 453e c29c 613e 5ccf 533e
