models/DQN_minimax_d2.pth (torch, 916773 bytes, 22 tensors)

conv1.weight f4 [32, 1, 5, 5]
0	0xbe9db4a6	-0.30801886
1	0xbe1027f6	-0.14077744
2	0x3d5350f3	0.05159087
3	0x3d751f40	0.059844255
4	0x3e06fa23	0.13181357
5	0x3ea86a8d	0.32893792
6	0x3d199d03	0.037503254
7	0xbe57fda5	-0.21092851
8	0xbe7e73d4	-0.24848872
9	0xbceffca3	-0.029295271
10	0xbdfacbb4	-0.122458845
11	0x3d894697	0.06702917
12	0x3d1c7b87	0.038203742
13	0xbc3ea9c3	-0.011637154
14	0xbdff491f	-0.124651186
15	0xbe4de435	-0.20106585
16	0x3dc9958f	0.09842979
17	0xbd9407c9	-0.072280474
18	0xbd6a0e03	-0.05714227
19	0xbdbe1161	-0.092806585
20	0x3e558004	0.20849615
21	0xbc132bf8	-0.008982651
22	0xbdf8228e	-0.12115966
23	0x3dcf1482	0.101113334
24	0xbde4f9b7	-0.11180442
25	0x3d479363	0.048724543
26	0x3df8609b	0.12127801
27	0xbe56a5b1	-0.20961644
28	0xbd17d9ac	-0.037072822
29	0x3d859673	0.065228365
30	0xbe5e4866	-0.21707305
31	0xbe717108	-0.23578274
32	0xbe354b11	-0.17704417
33	0xbe5c1305	-0.2149163
34	0xbe22bf1b	-0.15893213
35	0x3c23c904	0.009996656
36	0x3d953a69	0.072865315
37	0x3d4ed843	0.050499212
38	0x3e4a40bb	0.19751255
39	0xbe86070c	-0.2617725
40	0x3db1ab75	0.08675281
41	0x3d5adde9	0.053434286
42	0xbe8872f2	-0.26650196
43	0xbd8a9974	-0.0676755
44	0x3d085d57	0.03329214
45	0xbe421bff	-0.18955992
46	0xbdd34c43	-0.1031728
47	0xb8131111	-3.5063425e-05
48	0xbd1a5f02	-0.037688263
49	0x3e4ef634	0.20211107
50	0x3d0ae0ca	0.03390578
51	0x3d437483	0.047718536
52	0xbd259217	-0.040422525
53	0x3d8835e9	0.066509075
54	0xbe515f1a	-0.20446435
55	0x3e3fcd19	0.18730582
56	0x3da8fcaf	0.082513206
57	0xbe2bcf64	-0.16778332
58	0x3bb07084	0.0053845067
59	0xbe815234	-0.25258029
60	0xbdbca3b7	-0.09210914
61	0xbe586835	-0.21133502
62	0x3dcd6460	0.10028911
63	0x3db17397	0.08664625
64	0xbe42a5fb	-0.19008629
65	0x3bf2745a	0.007399124
66	0x3d8bece8	0.06832296
67	0x3e3478b9	0.17624177
68	0xbca47fe0	-0.020080507
69	0xbe64f585	-0.22359283
70	0x3db3f8de	0.08787702
71	0xbdaef78d	-0.0854331
72	0xbeac2890	-0.33624697
73	0xbe15a8e2	-0.14615205
74	0xbeb7bc12	-0.35885674
75	0x3d8de140	0.06927729
76	0xbe59e58b	-0.2127897
77	0x3c558028	0.013031043
78	0x3d009d81	0.031400207
79	0x3cbcf153	0.023064291
80	0xbe211ba8	-0.15733206
81	0xbdf4cdab	-0.119532906
82	0xbcd6f824	-0.02624137
83	0xbe294faf	-0.16534303
84	0x3c97178b	0.018443843
85	0xbe846617	-0.25859138
86	0x3deff3e6	0.11716442
87	0xbe4938db	-0.19650595
88	0x3e62af74	0.22137243
89	0x3e8d17df	0.27557275
90	0x3db4be98	0.088254154
91	0xbe0db4ec	-0.13838547
92	0x3d8e6c1c	0.06954214
93	0xbe8168d1	-0.2527528
94	0xbe13f48b	-0.14448754
95	0xbe1b7148	-0.15179932
96	0xbdd60428	-0.104500115
97	0xbd207990	-0.03917843
98	0xbe679a58	-0.22617471
99	0x3e4b4102	0.19849017
100	0xbd8c1c3e	-0.06841324
101	0x3df7fbab	0.12108549
102	0xbdf42382	-0.11920835
103	0x3e32711d	0.17425962
104	0x3d979e55	0.07403246
105	0xbdd2f8be	-0.1030135
106	0x3d7cd52a	0.061726727
107	0xbeb8463d	-0.35991088
108	0xbd8b27c1	-0.06794692
109	0x3d49d21a	0.049272634
110	0x3da8a29c	0.0823414
111	0xbe03af8c	-0.12859935
112	0xbda7c487	-0.081917815
113	0xbdec19da	-0.11528368
114	0xbe751393	-0.23933248
115	0xbe26611d	-0.16247983
116	0x3d87bb59	0.066275306
117	0x3e15636d	0.14588709
118	0x3dd5d51b	0.10441037
119	0x3e20d505	0.1570626
120	0xbe1ccc5c	-0.15312332
121	0xbd64e4f6	-0.055882417
122	0xbe3f6018	-0.18689
123	0x3e00259f	0.12514351
124	0xbe0072e3	-0.12543826
125	0x3dbbc4a6	0.09168367
126	0xbca5bed0	-0.020232588
127	0x3ddf5135	0.10904161
128	0x3e69fc6b	0.22850196
129	0xbdc3f18a	-0.09567554
130	0xbc499bc0	-0.0123052
131	0xbd1d59ae	-0.038415603
132	0xbdebee38	-0.11520046
133	0x3d726fda	0.0591887
134	0x3de7a3f7	0.11310571
135	0xbe654833	-0.22390823
136	0xbd219ff7	-0.039459195
137	0xbd6d5613	-0.057943415
138	0xbe0c71e6	-0.13715324
139	0xbe613ba7	-0.21995412
140	0xbe1ab4be	-0.1510801
141	0x3dbf0af5	0.09328262
142	0x3e36019d	0.17774053
143	0x3c38505b	0.011249627
144	0xbc758492	-0.0149852205
145	0x3d27a26c	0.040926382
146	0xbdc25548	-0.09488922
147	0xbe3da311	-0.18519236
148	0x3cdc810e	0.026917007
149	0x3e8bba21	0.27290443
150	0x3dc48eae	0.095975265
151	0x3c29f170	0.010372505
152	0xbc935230	-0.017983526
153	0xbe676040	-0.2259531
154	0xbe797dd0	-0.243644
155	0xb7f93640	-2.9708375e-05
156	0xbe2486e5	-0.16067083
157	0xbe785f99	-0.24255218
158	0x3db7e74a	0.08979662
159	0xbe9a77a3	-0.301694
160	0xbc829253	-0.015938913
161	0xbe2fa74c	-0.17153662
162	0xbdab144d	-0.083534814
163	0xbe03cd9e	-0.12871405
164	0x3da58055	0.08081118
165	0xbe3e1546	-0.18562803
166	0xbd4eab3d	-0.050456274
167	0x3e1dcea9	0.15410866
168	0xbe5b47f4	-0.21414167
169	0x3e8175ba	0.2528513
170	0xbd99d787	-0.07511812
171	0xbd086d85	-0.03330757
172	0xbd578e15	-0.052625734
173	0x3d9fa624	0.07795361
174	0x3e008efe	0.12554547
175	0xbc7a56c5	-0.0152794765
176	0x3d3d2fbe	0.04618811
177	0xbcc2c594	-0.023775853
178	0x3c969274	0.018380381
179	0xbe80aecd	-0.25133362
180	0xbe680dcb	-0.22661512
181	0xbd7c4a11	-0.061594073
182	0x3dad64a2	0.0846646
183	0x3e7eb1aa	0.24872461
184	0xbe2e3610	-0.1701281
185	0x3b95a76f	0.004567079
186	0x3e1494fd	0.1450996
187	0xbddcf1a2	-0.10788275
188	0xbe85325e	-0.2601499
189	0xbb9832b4	-0.004644716
190	0x3e737350	0.23774457
191	0xbe32ac46	-0.1744853
192	0xbdd68600	-0.10474777
193	0x3e071ff5	0.13195784
194	0x3cb0c0d9	0.021576332
195	0xbe9edbfa	-0.31027204
196	0x3d7101c5	0.05883958
197	0x3d74a46d	0.05972712
198	0xbd9aafae	-0.075530395
199	0xbd554159	-0.052064274
200	0xbdb44838	-0.08802837
201	0xbe2c0670	-0.1679933
202	0x3cd92878	0.026508555
203	0xbd99321b	-0.0748026
204	0x3d9902a3	0.07471206
205	0x3d78b163	0.060716044
206	0x3e0583d8	0.13038576
207	0xbcae8753	-0.021304762
208	0xbe21d22b	-0.15802829
209	0x3dc7a052	0.097473755
210	0x3deb2bf5	0.114829935
211	0x3e342db5	0.17595561
212	0x3cdbbcfa	0.02682351
213	0xbe9a339d	-0.30117503
214	0xbe45c057	-0.19311653
215	0xbe6f5689	-0.23372854
216	0xbdb4f803	-0.08836367
217	0xbe02efdc	-0.12786812
218	0xbd68e950	-0.05686313
219	0xbebf76e5	-0.37395397
220	0xbd69588d	-0.056969214
221	0xbc9ccd5e	-0.019140895
222	0x3d8bf5de	0.06834005
223	0xbea3cf17	-0.31993935
224	0xbdcba43b	-0.09943434
225	0xbeb42b27	-0.35189173
226	0x3d938342	0.0720277
227	0x3e3f5990	0.18686509
228	0xbe177ad3	-0.14792947
229	0xbcd06d9f	-0.025442896
230	0xbe32e755	-0.17471059
231	0xbb9b1174	-0.004732305
232	0xbe1e288f	-0.1544516
233	0x3e20ad15	0.15691026
234	0xbe8721c1	-0.2639294
235	0xbe31ca7b	-0.17362396
236	0x3d8b8404	0.06812289
237	0xbd626664	-0.05527343
238	0xbd16d0ea	-0.03682033
239	0x3e134f36	0.14385685
240	0x3e01cfef	0.12676977
241	0x3de8e07a	0.113709405
242	0xbe0f2e5d	-0.1398253
243	0xbdf8e1e1	-0.12152458
244	0x3dbd4dde	0.092433676
245	0x3e148fb1	0.14507939
246	0xbe3be378	-0.18348491
247	0x3ea8baaa	0.32954913
248	0x3e03212a	0.1280562
249	0xbde2e830	-0.110794425
250	0xbd5e66a6	-0.054297112
251	0x3d600c8a	0.05469946
252	0xbd6761d0	-0.056489766
253	0xbc2093ca	-0.009800861
254	0xbe8c0442	-0.27346998
255	0x3c9ef470	0.019403666

conv1.bias f4 [32]
0	0xbe7eabdf	-0.24870251
1	0x3d9365be	0.0719714
2	0xbddd16a1	-0.10795332
3	0x3d3512ab	0.044207256
4	0xbca8bcbe	-0.020597812
5	0xbdd8d6e6	-0.105878636
6	0xbe46999d	-0.19394536
7	0x3c674f35	0.0141180055
8	0xbe2d84ec	-0.16945237
9	0xbe2056f2	-0.15658167
10	0xbd5e5568	-0.05428067
11	0xbe2d3d9c	-0.16918033
12	0xbe7fe1e7	-0.24988519
13	0xbdddaeea	-0.10824378
14	0xbdd644a0	-0.10462308
15	0xbe1d595c	-0.15366119
16	0xbccf5575	-0.025309304
17	0x3ca83d4f	0.020537047
18	0xbdae760a	-0.08518608
19	0x3c56d657	0.013112626
20	0x3c0c48ce	0.00856228
21	0xbe3ab5b8	-0.18233383
22	0xbdb19a74	-0.08672038
23	0xbe953a66	-0.29146117
24	0xbd369c1c	-0.04458247
25	0xbd6ab5f2	-0.057302423
26	0x3ccccc0c	0.02499964
27	0xbc005d08	-0.00783468
28	0xbe01b1e4	-0.12665516
29	0xbc99ccb1	-0.018774362
30	0xbdc320d9	-0.095277496
31	0xbcd312e7	-0.02576585

conv2.weight f4 [32, 32, 5, 5]
0	0xbc22aea4	-0.009929333
1	0xbc51c07a	-0.012802238
2	0xbdedcf89	-0.1161185
3	0x3dc3d38a	0.09561832
4	0x3d45e05c	0.04830967
5	0x3ddf079b	0.108901225
6	0xbc40a7b7	-0.011758736
7	0xbc9ef24f	-0.019402651
8	0xbd925370	-0.07144821
9	0x3de5d454	0.11222139
10	0x3d5ea491	0.05435616
11	0x3e1e67cc	0.15469283
12	0x3db7d48f	0.08976089
13	0xbd023b9c	-0.03179513
14	0xbcaee65b	-0.021350076
15	0xbd29ded1	-0.04147226
16	0xbdd6a338	-0.1048035
17	0xbe29a92c	-0.1656844
18	0x3d5396a1	0.051657323
19	0x3ca36038	0.019943342
20	0x39a2e572	0.00031069998
21	0xbe320f0f	-0.17388557
22	0x3a16b3bb	0.0005748828
23	0x3db5de68	0.08880311
24	0x3d180f13	0.03712375
25	0x3d19c5a9	0.03754202
26	0xbd4f37c6	-0.0505903
27	0x3a153715	0.0005692107
28	0x3c1d559f	0.009602933
29	0xbc607b90	-0.013701335
30	0xbd92a842	-0.07160999
31	0xbd8cce46	-0.06875281
32	0xbd3fb609	-0.04680446
33	0xbd3132a2	-0.043261178
34	0xbdbb212f	-0.09137189
35	0xbd9a0208	-0.07519919
36	0xbe26ac54	-0.16276675
37	0xbdf066e0	-0.11738372
38	0xbd8445dd	-0.06458638
39	0xbd8862d0	-0.06659472
40	0xbd89461b	-0.06702825
41	0x3cd45d73	0.025923466
42	0x3d106179	0.035249207
43	0xbdbaf081	-0.09127904
44	0xbdf2e7dd	-0.11860631
45	0x3d35c2cd	0.04437523
46	0x3e14ff6f	0.14550565
47	0x3d7c29e0	0.061563373
48	0xbde202db	-0.11035701
49	0xbda14103	-0.07873728
50	0x3d5671a2	0.052354462
51	0xbb9da9a7	-0.004811484
52	0xbbc8c571	-0.0061270525
53	0x3ced4cf5	0.02896736
54	0x3cd90a5e	0.026494201
55	0x3b9009a9	0.004395683
56	0xbd9b14f5	-0.075723566
57	0xbd0ab16d	-0.033860613
58	0xbd072ce6	-0.033001803
59	0xbb9cda33	-0.0047867536
60	0x3d56b0d8	0.052414745
61	0x3d8bcc2b	0.06826051
62	0x3dfb99c2	0.12285186
63	0xbd148c3a	-0.036266543
64	0x3a8219ba	0.000992588
65	0x3cb0fc7d	0.02160477
66	0x3c33c7ee	0.01097296
67	0x3d9b58b7	0.075852804
68	0xbd4d46a0	-0.05011618
69	0x3d2d3941	0.04229093
70	0x3d5b5ba6	0.0535542
71	0xbd793bf4	-0.06084819
72	0xbc41aefd	-0.011821506
73	0xbd9367d3	-0.07197537
74	0xbd762602	-0.06009484
75	0x3d01a290	0.031649172
76	0x3cb76bc4	0.022390254
77	0xbc4f7dae	-0.012664242
78	0x3c62fd0b	0.013854275
79	0xbd744812	-0.059639044
80	0xbdfbbb06	-0.12291531
81	0x3c58399a	0.013197327
82	0xbe3a294f	-0.1817982
83	0x3b4bb4e1	0.0031083154
84	0xbdbc0c1e	-0.09181999
85	0xbd64daaa	-0.055872597
86	0xbd5a420a	-0.053285636
87	0xbe255c0d	-0.16148396
88	0xbcb4f487	-0.022089256
89	0xbd14e729	-0.036353264
90	0xbd077df7	-0.033079114
91	0x3dde1143	0.10843136
92	0xbbba560d	-0.0056865276
93	0xbd4fd45d	-0.050739635
94	0xbe090e1c	-0.13384289
95	0x3d5419b1	0.051782314
96	0xbd887cea	-0.066644505
97	0xbc56f62d	-0.013120216
98	0x3cdc8434	0.026918508
99	0x3b7cea6e	0.003859188
100	0x3dcb2a84	0.099202186
101	0xbd5acdb7	-0.05341884
102	0xbce6e7d4	-0.028186716
103	0xbdc4fa20	-0.0961802
104	0xbd00b1eb	-0.031419676
105	0xbe046af4	-0.12931424
106	0xbda63cbf	-0.08117055
107	0xbd55f7b7	-0.052238192
108	0xbdb1e53e	-0.086863026
109	0xbd4fe93a	-0.05075953
110	0xbe3691a5	-0.17828996
111	0xbe18ec29	-0.14933838
112	0xbd2674cf	-0.04063874
113	0xbcd051ba	-0.025429595
114	0xbd85326d	-0.065037586
115	0x3d369699	0.044577215
116	0xbe01cf44	-0.12676722
117	0xbd196634	-0.037450984
118	0xbcaa62fa	-0.020799149
119	0xbde55676	-0.11198132
120	0xbe08b93c	-0.13351911
121	0xbc7bdb69	-0.015372136
122	0x3c29522e	0.010334535
123	0xbe0fb80b	-0.1403505
124	0xbd8bae50	-0.06820357
125	0x3daf084f	0.085465066
126	0xbb8bdd2e	-0.00426831
127	0x3d042715	0.032263834
128	0xbb8b0c1b	-0.0042433864
129	0xbc5ca42f	-0.013466879
130	0xbd83ff8a	-0.064452246
131	0xbdb6db82	-0.089285865
132	0x3d9ec589	0.077525206
133	0xbe015229	-0.12628998
134	0xbe1a29a1	-0.15054943
135	0xbd795caf	-0.060879406
136	0xbda3c2e0	-0.07996154
137	0x3d32fd15	0.04369839
138	0x3b9ac165	0.0047227615
139	0xbdfa72de	-0.122289404
140	0x3d3cf79b	0.046134572
141	0x3c09df94	0.008415122
142	0x3d048a6c	0.032358572
143	0x3de3ab9d	0.11116717
144	0xbdb8029c	-0.08984873
145	0xbc4f07cd	-0.012636137
146	0xbe5fb888	-0.21847737
147	0xbdbb15ed	-0.091350414
148	0x3cd70580	0.02624774
149	0x3c75952b	0.014989178
150	0x3e11c28f	0.14234374
151	0xbcb1a6a2	-0.021685902
152	0x3da8fa4a	0.08250864
153	0xbca16dae	-0.01970562
154	0x3d7b59f8	0.061365098
155	0xbccbb34e	-0.024865773
156	0x3d997abc	0.07494113
157	0x3d8ea5b7	0.06965201
158	0x3d06097f	0.0327239
159	0x3dc9f4c5	0.09861139
160	0xbdfbaa94	-0.122883946
161	0x3d2ab55a	0.041676857
162	0xbd217aea	-0.03942386
163	0xbd1e9cb5	-0.038723666
164	0xbd350793	-0.044196676
165	0xbdb332bc	-0.08749911
166	0x3b9ab406	0.0047211675
167	0xbdd17d5c	-0.102289885
168	0x3d47c023	0.04876722
169	0x3db19904	0.086717635
170	0x3bb1d076	0.005426462
171	0xbd3deff7	-0.046371426
172	0xbdb89bfb	-0.09014126
173	0xbe5baa13	-0.21451597
174	0x3e13b6ed	0.1442525
175	0xbe6dbbb4	-0.23216134
176	0x3c4ac3c2	0.012375774
177	0x3d6fe400	0.058567047
178	0xbd1b757e	-0.037953846
179	0xbd1ffafd	-0.03905772
180	0xbe528008	-0.20556653
181	0x3cdd952d	0.027048672
182	0xbda66b33	-0.081259154
183	0x3c4c8d99	0.012484931
184	0xbcb61be2	-0.022230092
185	0xbe0bd029	-0.13653626
186	0xbe0e255c	-0.13881439
187	0xbe090d95	-0.13384087
188	0xbca5510c	-0.020180248
189	0xbd87743c	-0.06613967
190	0xbe0c2c1b	-0.136887
191	0x3bb0b338	0.0053924583
192	0x3c9df9e4	0.019284196
193	0xbd942d03	-0.07235148
194	0xbd994ae3	-0.07484987
195	0xbd49dc7f	-0.049282547
196	0x3d08f02a	0.033432163
197	0xbd9e129d	-0.07718394
198	0xbd8c2071	-0.06842125
199	0xbe14ffd9	-0.14550723
200	0xbdf76291	-0.12079347
201	0xbd277057	-0.04087862
202	0xbc8a1142	-0.016853932
203	0x3cb970ed	0.022636855
204	0xbdad1c42	-0.084526554
205	0xbc1a8ac4	-0.009432498
206	0x3d7bea15	0.061502535
207	0x3d571eb2	0.052519508
208	0xbd04da9b	-0.03243504
209	0xbcba7b03	-0.022763735
210	0x3d64c068	0.055847555
211	0x3d81a3ec	0.06330094
212	0xbd59a035	-0.0531313
213	0xbdb8de59	-0.090267844
214	0xbcea8b47	-0.028630866
215	0xbd7061c3	-0.058686983
216	0xbe2a6d85	-0.16643341
217	0x3ccb21f7	0.02479647
218	0xbd199c12	-0.037502356
219	0x3d7a7a2b	0.061151665
220	0x3d5c313b	0.053757887
221	0x3e0ac21d	0.13550611
222	0x3dd7e308	0.1054135
223	0xbd1e0b5b	-0.03858505
224	0x3bd02530	0.0063520893
225	0xbba57989	-0.0050498885
226	0x3e397a94	0.18113166
227	0x3d0d32f8	0.034472436
228	0xbc8b592d	-0.017010296
229	0xbcf2d49a	-0.029642392
230	0xbca2c1b8	-0.019867763
231	0xbd5c46ed	-0.053778578
232	0xbe3b72bd	-0.18305488
233	0xbc8bc4fc	-0.017061703
234	0xbc29f048	-0.010372229
235	0x3c7b8186	0.015350705
236	0xbad42622	-0.0016185681
237	0xbb08d6f6	-0.002088008
238	0xbda2f1f8	-0.07956308
239	0xbdb9f156	-0.09079234
240	0x3ccf7f35	0.025329212
241	0x3d7ad0e9	0.06123439
242	0x3cd2960d	0.025706315
243	0xbd5cd7d5	-0.05391677
244	0xbcdb133c	-0.02674257
245	0x3c4a1040	0.012332976
246	0xbd5cc52e	-0.053898983
247	0xbd878778	-0.066176355
248	0x3b48de7c	0.003065019
249	0xbe6e4be5	-0.23271139
250	0x3ca581d2	0.020203505
251	0xbc78e1d4	-0.01519056
252	0x3d89a82e	0.06721531
253	0x3d857f24	0.06518391
254	0x3cc3c46f	0.023897378
255	0xbc21b222	-0.00986913

conv2.bias f4 [32]
0	0xbd0c20da	-0.034211017
1	0xbc650667	-0.013978577
2	0xbd9db89b	-0.07701226
3	0xbc328eea	-0.010898331
4	0xbdb9179d	-0.09037707
5	0xbcfa0eed	-0.030524695
6	0xbcfc482d	-0.030796135
7	0xbc555402	-0.013020517
8	0xbca448a1	-0.020054163
9	0xbcd374a6	-0.025812458
10	0xbdb3dd28	-0.087824166
11	0xbd8049a9	-0.062640496
12	0xbd3d26fd	-0.04617976
13	0xbc9171b9	-0.017754423
14	0xbcd734de	-0.026270326
15	0xbda8b8ef	-0.08238398
16	0xbd31c97f	-0.043405052
17	0xbd2fc21f	-0.042909738
18	0x3c194169	0.009353974
19	0xbd4688b7	-0.048470225
20	0x3ce044f9	0.027376639
21	0xbc1bf3c9	-0.009518572
22	0xbd17ef93	-0.03709371
23	0x3d7870e8	0.06065455
24	0xbcf01d61	-0.029310884
25	0x3d2af7d2	0.041740246
26	0xbccedba3	-0.025251215
27	0xbd04ab39	-0.032389853
28	0x3bb8fcd4	0.005645374
29	0x3c4cd411	0.012501732
30	0x3c52f7a3	0.012876424
31	0xbcf2ced5	-0.02963964

conv3.weight f4 [32, 32, 5, 5]
0	0xbd03c1d3	-0.032167267
1	0x3cb52445	0.022112021
2	0xbe047269	-0.12934269
3	0xbd8e15de	-0.069377646
4	0xbd9db10d	-0.076997854
5	0x3dfc42b9	0.12317414
6	0x3dd32d84	0.10311416
7	0x3d8e1570	0.06937683
8	0x3c93183b	0.01795589
9	0xbd1275ec	-0.03575699
10	0xbc37b007	-0.011211402
11	0x3db6244d	0.088936426
12	0x3e054a78	0.13016689
13	0xbd94648d	-0.07245741
14	0x3b4a9b47	0.0030915306
15	0xbc90b8eb	-0.0176663
16	0x3db25a3c	0.08708617
17	0x3dad6070	0.084656596
18	0xbdd1aa17	-0.1023752
19	0xbcf3dd55	-0.029768625
20	0x3dc07313	0.09396949
21	0x3d50c1a1	0.05096591
22	0x3d6d4e48	0.057935983
23	0xbdeb6691	-0.11494172
24	0xbe43f654	-0.19136935
25	0xbd8d856d	-0.069102146
26	0x3d9943db	0.074836455
27	0xbd40b724	-0.047049657
28	0xbc9c73d1	-0.019098194
29	0x3cb172a6	0.021661114
30	0x3bc940bc	0.00614175
31	0xbdc1e393	-0.094672345
32	0x3d8672ba	0.06564851
33	0xbdc56a1c	-0.096393794
34	0x3cab4005	0.02090455
35	0xbd11a43d	-0.03555702
36	0x3d48bb8c	0.049006984
37	0x3d4271d9	0.047471855
38	0xbe37e9b2	-0.17960241
39	0xbd7421a6	-0.059602402
40	0x3d90b63e	0.0706601
41	0x3db9e9d6	0.09077804
42	0x3d04bb11	0.032404963
43	0xbe35ef18	-0.17766988
44	0xbdd90917	-0.10597437
45	0x3e16d7ae	0.14730713
46	0x3e6946f8	0.22780979
47	0x3e0350a0	0.12823725
48	0xbdf5801f	-0.11987328
49	0xbd030456	-0.031986557
50	0x3e09d189	0.13458838
51	0x3e008dde	0.12554118
52	0x3d446c55	0.047954876
53	0x3d85bf64	0.065306455
54	0xbd5508a6	-0.0520102
55	0x3d944489	0.072396345
56	0x3e0793a9	0.13239922
57	0x3d23632a	0.039889492
58	0xbdd09a8e	-0.10185729
59	0xbd0994f4	-0.03358932
60	0x3c7ec75b	0.01555046
61	0xbca537b8	-0.02016817
62	0xbc75aa78	-0.014994256
63	0x3dd313a7	0.10306483
64	0xbd4b22f8	-0.049593896
65	0x3e658bbd	0.22416587
66	0x3de05957	0.1095454
67	0x3c2d5e78	0.010581605
68	0xbcde6dc5	-0.027151952
69	0x3d21849e	0.039433114
70	0x3dc01a2c	0.09379992
71	0x3de86863	0.11348035
72	0xbc2d558f	-0.010579481
73	0xbc3d917b	-0.01157033
74	0x3d250e5b	0.040296894
75	0x3df29e1e	0.11846565
76	0x3d85515a	0.06509657
77	0x3db6f620	0.08933663
78	0x3cefa1eb	0.029252013
79	0xbc344a23	-0.011004004
80	0x3d9bb9df	0.076038115
81	0x3dc60672	0.09669198
82	0x3e2450cd	0.16046448
83	0x3da1f173	0.07907381
84	0x3c26cf9b	0.010181333
85	0x3cf56314	0.02995447
86	0x3dc954b1	0.09830607
87	0x3e367d37	0.17821203
88	0x3d5dae65	0.054121394
89	0x3db1800b	0.086670004
90	0xbc79d54b	-0.015248607
91	0x3e1c9347	0.15290557
92	0x3e3f6f40	0.18694782
93	0x3bf9caba	0.007623044
94	0xbcef391d	-0.029202038
95	0x3cb955e5	0.022623966
96	0x3ea31f7f	0.31859967
97	0xbb98c893	-0.004662582
98	0x3bcdded9	0.006282669
99	0xbd99947c	-0.07499024
100	0xbe87971a	-0.2648247
101	0xbd9fcb7d	-0.07802484
102	0xbd0367a7	-0.032081272
103	0x3d910351	0.07080711
104	0x3c8cfe9c	0.017211251
105	0xbe044233	-0.12915878
106	0xbe02f6d1	-0.12789465
107	0xbdb552dc	-0.08853695
108	0x3dde5628	0.10856277
109	0x3d912d03	0.070886634
110	0xbdc44703	-0.09583857
111	0xbd85d4f6	-0.0653476
112	0xbb81b400	-0.0039582253
113	0xbcbf02e6	-0.023316812
114	0xbc098ee1	-0.008395881
115	0xbe03e75f	-0.1288123
116	0xbe0e6a53	-0.13907747
117	0xbdd7f9c5	-0.10545687
118	0xbe3c7d42	-0.18407157
119	0xbe04bc3c	-0.1296243
120	0x3d955a81	0.07292653
121	0xbb40cb0e	-0.0029417905
122	0xbc0adfb7	-0.008476189
123	0xbdaf8595	-0.085704006
124	0x3d4495f3	0.047994565
125	0x3c677508	0.0141270235
126	0x3d46ea67	0.048563387
127	0x3d62b4a5	0.055348057
128	0xbcaf4ac7	-0.021397961
129	0xbca0da1b	-0.01963525
130	0x3e0be3b9	0.13661088
131	0x3d863a5f	0.06554102
132	0x3d2ee8e5	0.042702574
133	0x3da4efae	0.08053528
134	0xbcc7829c	-0.024354272
135	0x3d06a1bf	0.032869097
136	0x3d76baf8	0.0602369
137	0x3c328876	0.010896793
138	0xbd84db94	-0.06487194
139	0x3d1a23da	0.037631847
140	0x3dcb1e35	0.09917871
141	0xbd3f5fa8	-0.046722084
142	0x3e6b1930	0.22958827
143	0x3cd0d20c	0.025490783
144	0x3e4c541e	0.19953963
145	0x3da92d60	0.08260608
146	0x3d1737eb	0.036918562
147	0x3e56b1b2	0.20966223
148	0xbd1c1a08	-0.038110763
149	0x3dc5bd99	0.096553035
150	0x3d757576	0.059926473
151	0xbd4147cd	-0.047187615
152	0xbe280353	-0.16407518
153	0xbe0ed864	-0.13949734
154	0xbcbdfd2a	-0.023192007
155	0xbe120be5	-0.1426235
156	0xbcc97958	-0.024593994
157	0x3d6fbe8e	0.058531336
158	0xbe77c07d	-0.24194522
159	0xbcfc47f9	-0.030796038
160	0xbd8fc87c	-0.07020661
161	0xbe1dfd3e	-0.15428635
162	0x3c7458bf	0.014913737
163	0xbe1a72f6	-0.15082917
164	0x3e04c169	0.12964405
165	0x3caf92e5	0.02143235
166	0x3e546993	0.20743398
167	0x3ce2d568	0.02768965
168	0xbda697ad	-0.081343986
169	0x3e6839c6	0.22678289
170	0xbd129ba6	-0.03579297
171	0x3e480591	0.19533373
172	0xbda6f2c0	-0.0815177
173	0xbd48fb22	-0.049067624
174	0x3e2f2386	0.17103395
175	0xbd074cbd	-0.033032168
176	0xbd5613e5	-0.052265067
177	0x3c63aa84	0.013895635
178	0xbd85f733	-0.0654129
179	0xbd91ac01	-0.07112885
180	0xbc67249a	-0.014107848
181	0x3df89e76	0.12139599
182	0x3cebd27b	0.028786888
183	0xbd92e415	-0.071724094
184	0x3d3564aa	0.044285454
185	0x3d9147d2	0.07093777
186	0xbdaa1b0d	-0.08305941
187	0xbd54e4aa	-0.051975884
188	0xbd847862	-0.06468274
189	0x3d94a8ac	0.07258734
190	0x3e1440b0	0.14477801
191	0xbd2a8596	-0.041631304
192	0x3d355c68	0.04427758
193	0x3d191609	0.03737453
194	0x3c667b59	0.014067494
195	0xbbe88cc4	-0.0070968587
196	0xbdd92651	-0.106030114
197	0xbd8a4762	-0.067518964
198	0xbd46d467	-0.048542406
199	0x3e349ead	0.17638655
200	0xbdbc7b6c	-0.09203228
201	0x3c336cf9	0.010951274
202	0x3d9207c0	0.071303844
203	0xbc93a3b0	-0.018022388
204	0xbddc6008	-0.10760504
205	0xbe531770	-0.2061441
206	0xbe414aec	-0.18876237
207	0x3b7b3700	0.0038332343
208	0xbd37c834	-0.044868663
209	0xbc25aecb	-0.010112475
210	0x3e332748	0.17495453
211	0xbd2677f0	-0.040641725
212	0x3c5d39ec	0.013502579
213	0x3cd29af6	0.025708657
214	0x3dfc5def	0.12322604
215	0x3dc9d2c7	0.09854656
216	0xbd8962ff	-0.06708335
217	0xbc5f0227	-0.013611353
218	0x3d6a153c	0.057149157
219	0x3d660e0d	0.056165744
220	0xbd89e728	-0.06733543
221	0xbd3da946	-0.04630401
222	0xbcf20236	-0.02954207
223	0xbce9eb36	-0.02855454
224	0xbd612964	-0.054971114
225	0xbc57c2c8	-0.013168998
226	0x3d10bf3a	0.035338618
227	0x3d9cd84c	0.07658443
228	0xbca0030d	-0.019532705
229	0xbcca24d0	-0.024675757
230	0xbcb4ac46	-0.022054803
231	0x3e2908f1	0.16507317
232	0x3daf78f2	0.0856799
233	0xbd499ee4	-0.049223796
234	0x3ce237f7	0.027614577
235	0x3d85ba60	0.06529689
236	0x3d8192af	0.06326806
237	0xbbf899d1	-0.0075866957
238	0x3dafbab2	0.08580531
239	0xbc4aa565	-0.012368535
240	0xbd9d3fe0	-0.07678199
241	0xbd255602	-0.040365227
242	0xbd323c51	-0.043514553
243	0x3bd21726	0.006411451
244	0xbdde712c	-0.108614296
245	0x3c7d81ec	0.01547287
246	0x3dd99635	0.10624353
247	0xbdef2dcc	-0.11678657
248	0xbd801e11	-0.06255735
249	0x3d7b4485	0.061344642
250	0x3c178254	0.009247381
251	0x3e065bc4	0.13120943
252	0x3d852447	0.0650106
253	0x3d10912f	0.035294708
254	0x3c14052a	0.009034434
255	0x3da6ab07	0.081380896

conv3.bias f4 [32]
0	0xbd39aa59	-0.04532847
1	0xbb06a77d	-0.0020546608
2	0xbd408fcb	-0.04701213
3	0xbd56cc59	-0.052440975
4	0xbd4e87b1	-0.050422374
5	0x3c0aab82	0.008463742
6	0xbdcfb2f5	-0.10141555
7	0xbd214a64	-0.039377585
8	0x3c9b59c9	0.018963711
9	0xbd211312	-0.039324827
10	0xbd83cc86	-0.06435494
11	0xbd2b8557	-0.04187521
12	0xbcb5bc90	-0.02218464
13	0xbc964503	-0.018343454
14	0xbcfe22d1	-0.031022461
15	0xbc42c2a8	-0.01188723
16	0xbd971a4d	-0.07378063
17	0xbc811501	-0.015757086
18	0xbc286660	-0.010278314
19	0xbd134e8d	-0.035963584
20	0xbc7d8714	-0.0154741
21	0xbd26d239	-0.040727828
22	0xbd6f2619	-0.058385942
23	0xbd47aa06	-0.04874613
24	0xbd95d4cc	-0.073159784
25	0xbcc00994	-0.023442067
26	0xbde1b788	-0.11021334
27	0xbd8d769d	-0.06907389
28	0xbc1132a5	-0.008862172
29	0xbe1fb609	-0.15596785
30	0xbd24f4b9	-0.04027245
31	0xbd75f248	-0.06004551

conv4.weight f4 [32, 32, 5, 5]
0	0xba390ddb	-0.00070592546
1	0xbda910bc	-0.08255145
2	0xbe891bed	-0.26779118
3	0xbe3cc069	-0.18432774
4	0xbe0b9050	-0.1362927
5	0x3d3d279a	0.046180345
6	0x3b07db0f	0.0020729934
7	0xbd1b131e	-0.03786003
8	0xbe3630af	-0.17792009
9	0x3dadd613	0.08488097
10	0x3e036e3c	0.1283502
11	0xbe2c22ae	-0.16810104
12	0x3cfa2ab3	0.030537939
13	0x3d97292d	0.073809005
14	0xbd0f91bb	-0.03505109
15	0xbd3b2196	-0.045686327
16	0xbdf8bdec	-0.121456
17	0xbe5140ce	-0.20434877
18	0x3ce04789	0.02737786
19	0x3e13ac21	0.1442113
20	0xbda2624f	-0.07928907
21	0xbe8ac34e	-0.2710213
22	0xbd7902d1	-0.0607937
23	0xbdc52bd8	-0.09627503
24	0x3e1d790f	0.15378211
25	0x3d9f473c	0.07777259
26	0x3d00c48d	0.031437445
27	0x3d90f55c	0.070780486
28	0x3d3e9848	0.046531945
29	0xba97900c	-0.0011563315
30	0x3c9d00ac	0.01916536
31	0xba9a012f	-0.001174962
32	0x3c497410	0.012295738
33	0xbd844551	-0.064585336
34	0x3d479949	0.04873017
35	0xbced955b	-0.029001882
36	0xbd4d1a69	-0.050074015
37	0x3e1762aa	0.14783731
38	0xbdba3720	-0.090925455
39	0xbdb6c9ae	-0.08925186
40	0xbd97a0b8	-0.074037015
41	0xbe0423e2	-0.12904313
42	0xbdc57115	-0.09640709
43	0xbdccfeee	-0.100095615
44	0x3da61d2f	0.08111035
45	0xbe24d042	-0.16095069
46	0xbd7651b4	-0.060136512
47	0xbe37d295	-0.17951424
48	0x3c1588c4	0.009126846
49	0x3d40aca9	0.04703966
50	0xbde572b1	-0.11203516
51	0xbd8627ff	-0.065505974
52	0xbe20425b	-0.15650313
53	0xbe9179e2	-0.28413302
54	0xbe6a729b	-0.22895281
55	0xbe346b16	-0.17618975
56	0xbd8f0394	-0.06983104
57	0x3df95c98	0.12175864
58	0xbe43ebad	-0.19132872
59	0xbe235d7a	-0.15953627
60	0xbe3aaae0	-0.18229246
61	0x3dadd3ed	0.08487687
62	0x3dba3d42	0.09093715
63	0xbe31f8cc	-0.17380065
64	0xbe46fa94	-0.19431525
65	0xbd47456b	-0.048650187
66	0xbd96b331	-0.07358397
67	0xbdbaf9c6	-0.09129672
68	0xbdc77f8d	-0.09741125
69	0x3a534dce	0.0008060605
70	0xb9afe741	-0.000335509
71	0xbd3acbf4	-0.04560466
72	0xbd0e3e6c	-0.0347275
73	0xbcbdf2af	-0.02318701
74	0x3d664577	0.05621859
75	0x3db7f842	0.08982898
76	0x3d625f76	0.05526682
77	0xb96fb85e	-0.00022861498
78	0xbd3ef9c0	-0.0466249
79	0xbcddf666	-0.027095031
80	0x3c10d1f3	0.008839118
81	0xbc511f56	-0.012763819
82	0x3dbaf426	0.09128599
83	0x3d20146b	0.039081972
84	0x3dd50c51	0.1040274
85	0xbdf614ac	-0.120156616
86	0xbe23c3b5	-0.15992625
87	0xbd8b189e	-0.06791805
88	0xbc45f692	-0.012082713
89	0x3a67ac5b	0.00088376336
90	0x3d1307c0	0.035896063
91	0x3cd3f68c	0.025874399
92	0xbd5eefec	-0.054428026
93	0xbd2aa468	-0.041660696
94	0xbcbeb603	-0.02328015
95	0xbdc287c5	-0.09498552
96	0x3ca565e3	0.020190185
97	0xb9b475f9	-0.00034420172
98	0xbe77c4c0	-0.24196148
99	0xbe12ec8f	-0.14348052
100	0x3dc00fc9	0.09378011
101	0x3ccca91e	0.024982985
102	0x3d7aa5aa	0.061193146
103	0x3c91d06e	0.017799582
104	0x3d274801	0.040840153
105	0xbda9c659	-0.08289785
106	0xbd028215	-0.031862337
107	0x3dbdca53	0.09267106
108	0x3dab735e	0.08371614
109	0x3d975db0	0.07390916
110	0xbdbb5ab2	-0.09148158
111	0xbe1408b7	-0.1445645
112	0x3c6a3f5c	0.014297333
113	0x3dc4145f	0.09574198
114	0xbcc1defe	-0.023665901
115	0xbe2321e4	-0.15930897
116	0x3d11395d	0.035455097
117	0x3d2ded2c	0.042462513
118	0xbd2206be	-0.03955721
119	0x3d2edb26	0.042689465
120	0xbd7ac96f	-0.06122726
121	0xbcc83b16	-0.024442237
122	0x3e2de364	0.16981274
123	0x3d5420af	0.051788982
124	0xbdf75b80	-0.12077999
125	0xbd9e1c23	-0.077202104
126	0x3a97a380	0.0011569113
127	0xbcd6bb65	-0.026212404
128	0xbd11d7a8	-0.035606056
129	0xbd07ec82	-0.033184536
130	0xbd6fda1d	-0.05855762
131	0xbd5b778a	-0.0535808
132	0xbd701741	-0.058615927
133	0xbcbd7c8c	-0.023130678
134	0xbd0b16b6	-0.033957206
135	0xbd8458db	-0.0646226
136	0x3c398c0c	0.011324894
137	0xbdb901e6	-0.09033565
138	0xbbac4049	-0.005256687
139	0xbc605530	-0.013692185
140	0xbd5ba5c9	-0.053624902
141	0xbbe77eb3	-0.0070646643
142	0xbd878159	-0.06616468
143	0xbcd7d65b	-0.02634733
144	0xbdafc233	-0.085819624
145	0xbdf597c8	-0.119918406
146	0xbc4b2240	-0.012398303
147	0xbe14f80e	-0.1454775
148	0xbe1c2c20	-0.15251207
149	0xbdd35d1c	-0.103204936
150	0xbdb51e48	-0.08843666
151	0x39d0b516	0.0003980777
152	0xbdbd71db	-0.09250232
153	0xbd9472e2	-0.07248475
154	0xbcb62f71	-0.022239419
155	0x3d251eaf	0.040312465
156	0x3de50972	0.11183442
157	0x3dba7a4c	0.091053575
158	0x3dc5fcaf	0.09667336
159	0x3d6fee48	0.058576852
160	0xbc5093e9	-0.012730577
161	0x3dc5fc88	0.09667307
162	0x3db1b267	0.08676606
163	0x3dc257d0	0.09489405
164	0x3d1f0e0d	0.03883176
165	0xbe0492c9	-0.12946619
166	0xbcf7347b	-0.030176392
167	0xbddf5e84	-0.10906699
168	0xbe4e2e00	-0.20134735
169	0xbde7dd21	-0.11321474
170	0xbe1c1a70	-0.1524446
171	0xbd4b5e90	-0.04965073
172	0x3d1c4464	0.03815116
173	0x3dad5bfd	0.08464811
174	0xbda7f42c	-0.08200869
175	0xbe01848f	-0.12648223
176	0xbd6a28ff	-0.057168003
177	0xb9af23f0	-0.00033405377
178	0x3d32df22	0.043669827
179	0xbdabee11	-0.08395017
180	0xbdd14117	-0.10217493
181	0xbd0b7093	-0.034042906
182	0xbd42a5a8	-0.047521263
183	0xbded24c4	-0.11579278
184	0xbdca2fe1	-0.098724134
185	0xbdfde72f	-0.123976104
186	0xbda2356c	-0.07920346
187	0x3e0f8ac9	0.14017786
188	0x3d4fdcf4	0.050747827
189	0x3d9bc3c7	0.07605701
190	0x3dadfcff	0.08495521
191	0xbcfb3435	-0.030664543
192	0x3dda28be	0.10652302
193	0x3d996dcd	0.07491646
194	0x3d423efd	0.04742335
195	0xbd4e886f	-0.050423082
196	0xbdc0d065	-0.09414748
197	0xbd187dbd	-0.03722929
198	0xbbc5a8d6	-0.0060320897
199	0xbda220c8	-0.07916409
200	0xbd2dfcc1	-0.042477373
201	0xbdce5389	-0.10074527
202	0x3c851fca	0.01625051
203	0x3cefd987	0.02927853
204	0xbd8f1f15	-0.0698835
205	0xbd42317a	-0.047410466
206	0xbd98c7ec	-0.07460007
207	0xbe3c5c45	-0.18394573
208	0x3ce830f4	0.028343655
209	0xbdff6fc5	-0.1247249
210	0x3dac096a	0.08400233
211	0x3cc3f6b9	0.023921357
212	0x3aefaed1	0.0018286352
213	0xbd44672d	-0.04794996
214	0x3da7cd64	0.08193472
215	0x3e1d18a0	0.15341425
216	0x3dd428b2	0.103593245
217	0x3e520bd7	0.20512329
218	0x3da93c79	0.08263487
219	0xbd697e38	-0.057005137
220	0x3da3cc83	0.07997992
221	0x3e02e5a8	0.1278292
222	0x3e25d0ee	0.16192982
223	0x3dce22ad	0.10065208
224	0xbda9e40a	-0.08295448
225	0x3cc81c64	0.0244276
226	0xbe1324b0	-0.14369464
227	0x3dafe725	0.08589009
228	0xbd7fea96	-0.062479578
229	0xbdecbd14	-0.11559501
230	0x3ca9bacd	0.020718956
231	0xbe1bd8be	-0.152194
232	0xbe126254	-0.14295322
233	0x3c984254	0.018586315
234	0x3d5c5a0c	0.053796813
235	0x3ce5d03e	0.0280534
236	0x3c96b4d7	0.018396778
237	0xbdc8bdec	-0.0980185
238	0x3de94f77	0.1139211
239	0x3dc082fe	0.09399985
240	0xbe52185e	-0.20517108
241	0xbdb0e13f	-0.08636712
242	0xbc91fea6	-0.017821621
243	0x3de195d3	0.11014905
244	0x3e032244	0.1280604
245	0xbd6419e9	-0.055688772
246	0xbd0ec735	-0.034857947
247	0xbc7983eb	-0.015229206
248	0x3c3d68cf	0.011560633
249	0xbc987de9	-0.018614726
250	0x3c30614f	0.010765388
251	0xbd827945	-0.063707866
252	0x3b87de40	0.0041463673
253	0xbd434b88	-0.047679454
254	0xba8c01e0	-0.0010681711
255	0xbdea564f	-0.11442243

conv4.bias f4 [32]
0	0xba46128d	-0.0007555865
1	0x3c58675b	0.013208236
2	0xbc7033f3	-0.014660823
3	0xbb8876b9	-0.0041645435
4	0xbdd9af6f	-0.106291644
5	0xbd02c3f5	-0.03192516
6	0xbd1635dd	-0.03667246
7	0xbd624ef6	-0.055251084
8	0xbcc616a8	-0.024180725
9	0xbb95945f	-0.0045648064
10	0xbd3ac781	-0.045600418
11	0xbd324d24	-0.0435306
12	0xbcd5a95f	-0.026081739
13	0x3d581beb	0.052761
14	0x3cf2eb3c	0.029653184
15	0x3c2d617d	0.010582325
16	0xbcc312af	-0.02381262
17	0x3ba4341b	0.0050110943
18	0xbdadb12b	-0.08481058
19	0xbd1125fb	-0.03543661
20	0xbdc95991	-0.098315366
21	0xbce6aef7	-0.028159602
22	0xbd7e05c5	-0.06201722
23	0xbcd15d84	-0.025557287
24	0xbd0cecd6	-0.03440555
25	0xbdc6ca10	-0.09706509
26	0xbc9a992a	-0.018871862
27	0xbdea8bbb	-0.11452433
28	0xbd946aba	-0.07246919
29	0xbd2d1385	-0.042254943
30	0xbce6f55e	-0.028193172
31	0xbd86a966	-0.06575279

conv5.weight f4 [32, 32, 5, 5]
0	0xbd40d806	-0.047081016
1	0xbc56601d	-0.013084439
2	0x3c9dd860	0.019268215
3	0x3e060c86	0.13090715
4	0x3dc779e5	0.097400464
5	0xbdfdb8cc	-0.12388763
6	0xbd2f23d1	-0.042758767
7	0x3c9c4ae7	0.019078685
8	0xba074b1a	-0.00051610323
9	0xbd0a09e0	-0.033700824
10	0xbdf40f7a	-0.119170144
11	0xbcadea73	-0.021229958
12	0xbc1106de	-0.008851735
13	0xbd52bd7d	-0.05145024
14	0xbe0fbb6d	-0.14036341
15	0xbd9fbe94	-0.07800022
16	0x3e43c98f	0.19119857
17	0x3e531870	0.20614791
18	0xbc8f65e4	-0.01750464
19	0xbbfc8035	-0.007705713
20	0xbd53cc63	-0.05170859
21	0x3c0fd388	0.00877846
22	0xbccae787	-0.024768604
23	0xbd49dff4	-0.049285844
24	0xbe0450ad	-0.129214
25	0x3d84c4ba	0.06482835
26	0x3dd2c9b6	0.102923796
27	0xbdab23bf	-0.083564274
28	0xbc2b6532	-0.010461139
29	0xbb37301f	-0.0027952266
30	0xbe1ecc8c	-0.15507716
31	0xbdfc713e	-0.12326287
32	0xbd998e71	-0.07497872
33	0xbcee071f	-0.02905613
34	0xbd5a381d	-0.05327617
35	0xbe25e25c	-0.1619963
36	0xbe044750	-0.12917829
37	0xbdd87b65	-0.10570411
38	0xbe02b61a	-0.12764779
39	0xbce62e40	-0.028098226
40	0x3d8eaaf1	0.06966198
41	0xbd13842d	-0.036014725
42	0xbce10151	-0.027466448
43	0xbc0dba6a	-0.008650402
44	0xbd42ce50	-0.047560036
45	0xbd8431e7	-0.064548306
46	0xbe0ea17f	-0.13928793
47	0xbe04add3	-0.12956934
48	0xbe7ef664	-0.24898678
49	0xbe4b47f9	-0.19851674
50	0x3df2ae5c	0.11849663
51	0x3dd3230d	0.1030942
52	0x3e15701a	0.14593545
53	0x3dd5c2a1	0.10437513
54	0x3df6a45c	0.12043068
55	0xbd6351ea	-0.05549804
56	0x3d88b2fa	0.06674762
57	0x3d47be6d	0.04876559
58	0x3d129a27	0.035791542
59	0x3d6ece87	0.05830243
60	0xbda72cf8	-0.08162874
61	0xbd86e146	-0.06585936
62	0xbda3d0de	-0.07998823
63	0xbcf55487	-0.029947532
64	0x3d42d0c2	0.04756237
65	0xbbb1acf8	-0.005422231
66	0x3ac6f780	0.0015179962
67	0xbdb44044	-0.0880132
68	0xbdfa7a9c	-0.12230417
69	0x3d18c758	0.037299484
70	0x3cf1d44b	0.029520174
71	0xbe057a47	-0.13034926
72	0xbe122580	-0.14272118
73	0xbdd83130	-0.10556257
74	0xbd738c2b	-0.059459846
75	0x3db30636	0.08741419
76	0x3df2ace0	0.118493795
77	0x3d31b44f	0.043384846
78	0x3c27498b	0.010210405
79	0xbd2d4baf	-0.042308506
80	0x3d41ff1e	0.04736244
81	0x3d8063f2	0.06269063
82	0x3dacdd81	0.08440686
83	0x3d415b03	0.047205936
84	0x3cc0622b	0.02348431
85	0x3cfbb8f5	0.030727843
86	0xbd93d04f	-0.07217466
87	0xbd5c9501	-0.05385304
88	0xbe1966fc	-0.14980692
89	0xbd849b37	-0.064749174
90	0xbc4a04c0	-0.012330234
91	0xbe368eb0	-0.17827868
92	0xbe293425	-0.16523798
93	0xbdf147de	-0.11781286
94	0xbdba9e6a	-0.09112246
95	0x3cb2a867	0.021808816
96	0xbe4a735d	-0.1977057
97	0xbe9ded8a	-0.3084529
98	0xbdeb1455	-0.114784874
99	0xbe5fce50	-0.21856046
100	0x3e421dd8	0.18956697
101	0x3cea3ea7	0.028594328
102	0xbd1b913a	-0.037980296
103	0x3b25d7f6	0.0025305725
104	0xbd3175b2	-0.043325134
105	0x3b970bb9	0.0046095517
106	0x3d4deb7c	0.050273404
107	0xbd11c2ee	-0.03558629
108	0xbcb2ea3e	-0.021840211
109	0xbddab0b1	-0.106782325
110	0xbd42ba15	-0.047540743
111	0xbcce3991	-0.025173934
112	0xbd986067	-0.07440262
113	0xbe2a65e4	-0.1664043
114	0xbe24c290	-0.16089845
115	0xbe276f60	-0.1635108
116	0x3b195ac7	0.0023400055
117	0x3c84b475	0.01619933
118	0xbe00869a	-0.12551346
119	0x3bfb6861	0.007672355
120	0xbdcc8483	-0.09986212
121	0x3d15b04d	0.036545087
122	0xbc5c616e	-0.013450963
123	0xbd010c55	-0.0315059
124	0xbdf9dff1	-0.122009166
125	0x3a705461	0.0009167847
126	0x3d7c98c2	0.06166912
127	0x3d336822	0.04380048
128	0x3dac2cde	0.08406995
129	0x3dbba46e	0.09162222
130	0xbd2a66cf	-0.041601952
131	0xbd14ac40	-0.036297083
132	0x3d7ae0dd	0.061249603
133	0x3dc07b7d	0.093985535
134	0x3df361f8	0.118839204
135	0xbd9037c6	-0.07041888
136	0xbe0c3267	-0.13691102
137	0xbddad96a	-0.10686
138	0xbda2cff4	-0.0794982
139	0x3dd72a37	0.10506099
140	0xbddca4dc	-0.10773632
141	0xbe2e9d08	-0.1705209
142	0xbe7756be	-0.24154183
143	0xbe2cf5fd	-0.16890712
144	0xbd782828	-0.06058517
145	0xbdea62fc	-0.11444661
146	0xbdeb54b5	-0.11490766
147	0xbe7a2986	-0.24429902
148	0xbe71b5d7	-0.23604523
149	0x3cf5029e	0.029908475
150	0x3ba2c93f	0.004967838
151	0x3dd4a93c	0.103838414
152	0xbce939ae	-0.028469887
153	0x3b8e3039	0.0043392447
154	0x3dbb688a	0.091507986
155	0xbd6453e2	-0.05574406
156	0xbd0393d9	-0.03212342
157	0xbdb6e648	-0.089306414
158	0xbcd222bf	-0.025651334
159	0x3bb45656	0.005503456
160	0xbe136542	-0.14394096
161	0xbe2f115d	-0.17096467
162	0xbd786669	-0.06064454
163	0xbd159db9	-0.03652737
164	0xbd3be8b8	-0.045876235
165	0xbd942eda	-0.07235499
166	0xbe1d6cf6	-0.15373597
167	0xbdc51073	-0.09622278
168	0xbe080077	-0.13281427
169	0xbde06c35	-0.10958139
170	0xbd8ba9d6	-0.06819503
171	0xbe1c24ad	-0.15248366
172	0xbe397585	-0.18111236
173	0xbe4c48c8	-0.19949639
174	0xbe3167e8	-0.17324793
175	0x3b4d341b	0.0031311575
176	0x3c90f261	0.0176937
177	0x3d8c7da2	0.068599
178	0x3d9c51e4	0.07632807
179	0x3dcb1bab	0.099173866
180	0xbda61d01	-0.08111001
181	0xbb952477	-0.004551466
182	0xbd08c2b9	-0.033388827
183	0xbc999af6	-0.018750649
184	0x3de5151b	0.11185666
185	0xbd0934f5	-0.03349777
186	0x3d922b6a	0.07137187
187	0x3d35ddb0	0.04440087
188	0xbcbb3cc3	-0.022856122
189	0x3d2ec9da	0.04267297
190	0xbda29733	-0.07938995
191	0x3d72fb21	0.059321526
192	0x3d5fab1c	0.054606542
193	0xbc0a90d7	-0.008457384
194	0xbcdf5565	-0.027262399
195	0xbd48dd9c	-0.04903947
196	0xbc84786e	-0.016170707
197	0x3db8c413	0.09021773
198	0x3d3764d2	0.044773884
199	0x3d30089b	0.042976957
200	0x3dc1f02e	0.09469639
201	0x3def739a	0.11691971
202	0x3e0722d0	0.13196874
203	0x3da9c0ea	0.082887486
204	0xbdcdcfc9	-0.100493975
205	0x3c850f32	0.016242597
206	0xbdc8e713	-0.09809699
207	0x3d56eac4	0.052469984
208	0x3da99ce1	0.082818754
209	0xbe2b54c4	-0.16731554
210	0x3dfb96bb	0.12284609
211	0x3c97092a	0.018436987
212	0xbc90828c	-0.017640375
213	0xbd2d5b64	-0.042323485
214	0xbe305aca	-0.17222133
215	0x3dc17f84	0.0944815
216	0x3cfad389	0.030618446
217	0xbe254f75	-0.16143592
218	0xbd671ead	-0.05642574
219	0xbddad8bf	-0.10685872
220	0x3d1e2b87	0.03861573
221	0xbbbc064f	-0.0057380567
222	0xbe879894	-0.26483595
223	0x3dab8e0c	0.08376703
224	0xbe3fd3bf	-0.18733118
225	0xbd8b3680	-0.067975044
226	0x3dd75ca3	0.10515716
227	0xbd09d5ae	-0.033651046
228	0x3ab3b396	0.0013710137
229	0x3d4afaae	0.049555473
230	0x3c9f6880	0.01945901
231	0xbb192035	-0.0023365144
232	0xbd9228d3	-0.07136693
233	0x3d7a430d	0.0610991
234	0x3d71e5ef	0.059057172
235	0xbde6b0de	-0.112642035
236	0xbd16f086	-0.036850475
237	0xbd88977d	-0.06669519
238	0xbd5a2299	-0.05325565
239	0xbd2c0bf1	-0.042003576
240	0xbd972f2f	-0.073820464
241	0xbe292d83	-0.16521268
242	0xbe5d7ff1	-0.21630837
243	0xbe1cd7e6	-0.15316734
244	0xbddcbbc2	-0.107779995
245	0xbd693bfc	-0.05694197
246	0xbe1192c4	-0.14216143
247	0xbeacd122	-0.33753306
248	0xbe2a6fb1	-0.1664417
249	0xbdce7bf5	-0.10082237
250	0xbe27aa66	-0.16373596
251	0xbdbabfb0	-0.09118593
252	0xbd4d77bd	-0.05016302
253	0xbcb42cb6	-0.021993976
254	0x3cbf2c8b	0.02333667
255	0xbe194dbd	-0.14971061

conv5.bias f4 [32]
0	0x3dc81828	0.097702324
1	0xbdf036f6	-0.11729233
2	0xbde5a65e	-0.11213373
3	0x3d68dd37	0.056851592
4	0xbd44ae7c	-0.048017964
5	0xbda337f1	-0.07969654
6	0x3dbe9d77	0.09307378
7	0xbd5d5cc4	-0.054043546
8	0xbe392d9b	-0.18083803
9	0xbb47b6b6	-0.0030473894
10	0x3dff0e34	0.12453881
11	0x3dba06f5	0.09083358
12	0xbdb433c3	-0.08798935
13	0x3de8938d	0.11356268
14	0x3d31cbeb	0.043407362
15	0x3cefbcc3	0.029264813
16	0x3dc599ea	0.096484974
17	0xbda1974e	-0.07890187
18	0x3d7c69a4	0.061624184
19	0x3c353261	0.011059375
20	0x3d9006ce	0.07032548
21	0x3d37bddc	0.0448588
22	0x3d6f12b9	0.058367465
23	0x3d01758f	0.031606253
24	0x3d873043	0.06601002
25	0xbcd59502	-0.026072029
26	0xbe2b8f23	-0.16753821
27	0x3dc8215d	0.097719885
28	0xbd47b610	-0.048757613
29	0xbd0fc762	-0.035102256
30	0xbd31e64f	-0.04343253
31	0xbe0bde32	-0.1365898

conv6.weight f4 [32, 32, 5, 5]
0	0xbd82db41	-0.063894756
1	0xbbbc73a2	-0.005751089
2	0xbad07dc7	-0.0015906625
3	0x3d4745c7	0.04865053
4	0x3c40a8a2	0.011758955
5	0xbd1b9148	-0.037980348
6	0xbca9bbdb	-0.02071946
7	0x3c70ad29	0.014689722
8	0x3d267f5e	0.04064881
9	0xbd28dded	-0.04122727
10	0x3bd49755	0.0064877667
11	0x3b40fad0	0.002944637
12	0x3c3d20a5	0.011543428
13	0xbc95cfc2	-0.018287543
14	0xbc92a300	-0.01789999
15	0xbc0ec901	-0.008714915
16	0xbd20a579	-0.039220307
17	0x3c5e8650	0.013581827
18	0xbc9e6149	-0.019333499
19	0x3a92a74a	0.0011188772
20	0xbba75ed4	-0.00510774
21	0xbca080a0	-0.019592583
22	0xbaa414e7	-0.0012518436
23	0x3c742bc8	0.014903016
24	0xbc6a0637	-0.014283708
25	0xbc88494f	-0.016636519
26	0x3d487206	0.048936866
27	0x3cf56878	0.029957041
28	0xbd4d7eae	-0.05016964
29	0x3d1ea325	0.038729805
30	0x3d1cbf87	0.038268592
31	0x3b4e9ac1	0.0031525346
32	0x3d56cb1b	0.05243979
33	0xbbd239b7	-0.0064155716
34	0x3aaa7910	0.001300605
35	0x3ddc809d	0.107667185
36	0x3dc72119	0.0972311
37	0xbd000dc8	-0.031263143
38	0x3d659c01	0.05605698
39	0x3dca55f6	0.09879677
40	0x3e035808	0.1282655
41	0x3ddb6285	0.107121505
42	0x3dcc617a	0.0997953
43	0xbc1e839f	-0.009674936
44	0x3d94995d	0.07255814
45	0x3dcf5cd4	0.101251274
46	0x3dd34ac8	0.10316998
47	0x3df3e3bc	0.11908671
48	0x3dbbd9c1	0.09172393
49	0x3dd92134	0.10602036
50	0xbd663ea7	-0.056212094
51	0xbc72d397	-0.014820955
52	0x3ca16ff3	0.019706702
53	0x3cf379ab	0.029721102
54	0x3cd6af23	0.026206559
55	0xbd6a60d3	-0.057221245
56	0xbd0e4738	-0.03473589
57	0xbdabbb5e	-0.08385347
58	0xbcd68a54	-0.026189007
59	0xb9a8c66d	-0.00032191296
60	0x3c0abae3	0.008467409
61	0xbc8e96a1	-0.01740581
62	0x3b4fe496	0.0031721941
63	0xbd7e9d8d	-0.06216197
64	0xbcd08872	-0.025455687
65	0xbd1c0661	-0.03809202
66	0xbd01f32d	-0.03172605
67	0x3d6549f6	0.055978738
68	0xbcc8bdb6	-0.024504524
69	0xbced802e	-0.028991785
70	0x3e058a06	0.13040933
71	0x3dc46c3e	0.09590958
72	0x3d9e1c5d	0.077202536
73	0x3cd6c054	0.026214756
74	0x3da429a5	0.080157556
75	0xbd61278c	-0.054969355
76	0xbda1fabd	-0.07909153
77	0xbd88b521	-0.066751726
78	0xbdb26d46	-0.087122485
79	0xbd5ad948	-0.05342987
80	0xbd9c68c6	-0.076371714
81	0xbb5adb4e	-0.0033394876
82	0x3d017051	0.031601254
83	0xbd4843b5	-0.048892695
84	0xbdb12fee	-0.0865172
85	0xbdd221eb	-0.102603756
86	0xbbd3268e	-0.006443805
87	0x3da3213b	0.079653226
88	0x3d8c49d6	0.068500206
89	0x3d8ca9d9	0.06868333
90	0x3d6be74c	0.05759363
91	0x3d1c789f	0.03820097
92	0x3dde343c	0.10849807
93	0x3d670e25	0.056409974
94	0x3dc1b408	0.09458166
95	0x3e03a9ad	0.12857695
96	0x3dc7eab4	0.09761563
97	0xbc586925	-0.013208662
98	0xbd7d9c9c	-0.061916932
99	0xbd9b27ec	-0.07575974
100	0xbbdd8ddf	-0.006761297
101	0xbd22df05	-0.03976347
102	0x3dfaae57	0.12240284
103	0x3d9847dc	0.07435581
104	0xbcb4a925	-0.02205331
105	0xbced1d69	-0.028944688
106	0xbd21685b	-0.03940616
107	0x3e0be7e8	0.13662684
108	0x3e2a9136	0.16656956
109	0x3e14e898	0.14541852
110	0xbd8f7665	-0.07005004
111	0xbce83b0d	-0.02834847
112	0x3ca1a277	0.01973079
113	0x3ca30e4e	0.019904282
114	0x3d89a22a	0.067203835
115	0xbd785e3f	-0.060636755
116	0x3b9fd5cd	0.004877782
117	0xbc1aba96	-0.0094439
118	0x3db3d4ae	0.087808
119	0xbc0b764a	-0.008512089
120	0xbd6ab821	-0.057304505
121	0xbbb84a8c	-0.005624121
122	0xbe13c55b	-0.14430754
123	0x3e00ec45	0.1259013
124	0x3ddc6771	0.107619174
125	0x3d9b53c0	0.075843334
126	0x3dc55fcc	0.096374124
127	0x3c0b0467	0.008484936
128	0xbab3ddc3	-0.0013722706
129	0x3cde531a	0.027139235
130	0x3d934d01	0.07192422
131	0x3dc71021	0.09719873
132	0x3d2f45d3	0.0427912
133	0x3dcdb4a2	0.100442186
134	0x3d5165f8	0.051122636
135	0x3d998c02	0.074974075
136	0x3bd811cb	0.006593918
137	0x3baa9d0f	0.005206711
138	0x3d01275f	0.031531688
139	0x3cac07f6	0.02099989
140	0x3dc5e351	0.09662498
141	0x3d431f8f	0.04763752
142	0x3d5b3d6b	0.05352537
143	0x3d8d1aa2	0.068898454
144	0x3dc77f8d	0.09741125
145	0x3d7851b5	0.060624797
146	0x3da1bcd9	0.07897348
147	0x3d6a7e4d	0.057249356
148	0x3dfe412e	0.12414776
149	0x3df9281c	0.121658534
150	0xbdd30792	-0.10304178
151	0xbd159b0e	-0.036524825
152	0xbd85d35d	-0.06534455
153	0x3d1ebb69	0.038752947
154	0x3d42cb25	0.047557015
155	0xbde2ecb7	-0.11080306
156	0xbcfd046e	-0.030885901
157	0xbd4d2e84	-0.05009319
158	0xbd032f73	-0.032027673
159	0x3ce55410	0.027994186
160	0xbdd4e579	-0.10395331
161	0xbcbcb63d	-0.023036117
162	0xbd01f7ab	-0.031730335
163	0x3bed4675	0.007241065
164	0x3a22a295	0.0006204036
165	0xbbfa1c14	-0.0076327417
166	0xbc2d90ed	-0.010593635
167	0x3d3a9ae0	0.045557857
168	0x3de5e34f	0.11224996
169	0x3dae346c	0.085060924
170	0x3d6cb52a	0.05778996
171	0x3c359e1a	0.011085058
172	0x3d0007c7	0.031257417
173	0x3c86027a	0.016358603
174	0xbc188dc7	-0.009311146
175	0xbd8da0fb	-0.0691547
176	0xbdba3112	-0.09091391
177	0xbdc32c48	-0.0952993
178	0x3bb7a728	0.0056046434
179	0x3d6d4f35	0.057936866
180	0xbd94152b	-0.072306
181	0xbd27aacf	-0.04093438
182	0xbd4773fa	-0.04869459
183	0xbcc2e9c1	-0.023793103
184	0xbc5945c3	-0.013261261
185	0x3b8cdd63	0.0042988523
186	0xbceb0c4b	-0.028692385
187	0xbd0e41e8	-0.03473082
188	0x3d6e2981	0.05814505
189	0x3e368733	0.17825012
190	0x3d29c9d4	0.041452244
191	0xbdc0233e	-0.09381722
192	0xbbeeba1f	-0.007285371
193	0x3bfd4d61	0.0077301716
194	0x3caccf9c	0.02109509
195	0x3d9d3b5d	0.07677338
196	0xbd9d2109	-0.076723166
197	0x3d6d7507	0.057972934
198	0x3dc3feaf	0.095700614
199	0x3d6214e2	0.055195697
200	0xbcf850dd	-0.030311996
201	0xbd88ed45	-0.066858806
202	0xbc8c0d68	-0.017096236
203	0xbd7a3d7d	-0.061093796
204	0xbdc9ab14	-0.09847084
205	0x3db8327f	0.08994006
206	0x3b488561	0.0030597078
207	0x3d654a29	0.055978928
208	0x3cfac07d	0.030609364
209	0xbe02db91	-0.1277907
210	0x3deac7b4	0.114638716
211	0x3d27b6d0	0.040945828
212	0x3dc8a598	0.097972095
213	0x3b3514a8	0.002763072
214	0xbdc978a8	-0.098374665
215	0x3e6bf1d4	0.23041469
216	0x3e76547d	0.24055667
217	0x3df37778	0.11888021
218	0x3db5d00a	0.08877571
219	0xbd423cbe	-0.04742121
220	0x3e225f47	0.15856658
221	0x3e4f11a4	0.20221573
222	0x3e27feba	0.16405764
223	0x3e32820d	0.17432423
224	0x3e0326f1	0.12807824
225	0x3c028a36	0.007967522
226	0xbde27bce	-0.1105877
227	0xbbd18b99	-0.006394815
228	0xbda357d5	-0.07975737
229	0xbd38876e	-0.04505103
230	0xbd5c1096	-0.053726755
231	0xbd6db620	-0.058035016
232	0xbce96e90	-0.028495103
233	0xbcb4c1f4	-0.02206514
234	0x3d8508ab	0.06495794
235	0x3d352b01	0.044230465
236	0xbdd457ef	-0.103683345
237	0xbc0980db	-0.008392538
238	0x3d7bf273	0.061510514
239	0x3e06455a	0.13112393
240	0x3d8b9532	0.06815566
241	0xbbc90e09	-0.0061357063
242	0x3d7ddd37	0.061978545
243	0x3e0f00ef	0.139652
244	0x3e112e7d	0.1417789
245	0x3de93c63	0.11388471
246	0x3d575584	0.05257179
247	0x3d976c22	0.073936716
248	0x3da7b124	0.08188084
249	0x3c5af79c	0.013364699
250	0xbdea74a7	-0.11448031
251	0xbde2ae3a	-0.11068387
252	0xbcebe571	-0.02879593
253	0xba9531ee	-0.0011382678
254	0xbc00c11c	-0.007858541
255	0xbde24803	-0.110488914

conv6.bias f4 [32]
0	0xbe2c284c	-0.16812247
1	0xbc8dbd14	-0.017302074
2	0x3d1abe70	0.03777927
3	0x3c079b30	0.008276746
4	0xbd62de15	-0.055387575
5	0xbd8ee5bc	-0.06977412
6	0x3d23838b	0.03992037
7	0xbd47837b	-0.048709374
8	0x3cde24ff	0.02711725
9	0xbd70a77d	-0.05875348
10	0x3c1304d7	0.008973322
11	0xbd3c77ad	-0.04601257
12	0xbd024a7f	-0.031809326
13	0x3db65dce	0.089046106
14	0x3c9267dc	0.01787179
15	0xbcf88aec	-0.03033968
16	0xbe6904ca	-0.22755733
17	0xbd30ea12	-0.043191977
18	0x3d21e096	0.039520822
19	0x3d61d983	0.055139076
20	0xbda28549	-0.079355784
21	0x3c12ed64	0.008967731
22	0xbe4249a9	-0.18973412
23	0xbe1ec18d	-0.15503521
24	0x3d9d1a87	0.07671075
25	0xbe414e7c	-0.18877596
26	0xbb6f6c98	-0.0036533233
27	0x3d43cb92	0.04780156
28	0xbd616b5d	-0.05503403
29	0xbdf93aa4	-0.12169388
30	0xbe02731a	-0.1273922
31	0xbd34d2a9	-0.044146214
