models/DQN_random.pth (torch, 916661 bytes, 22 tensors)

conv1.weight f4 [32, 1, 5, 5]
00000000: 4746 b4be 9029 89bd 7f52 04be 7041 213e
00000010: 1a36 063b e57c 83be 7b95 513e 18a2 3a3e
00000020: 0f2b 9bbe 3528 39bc 85ea 26bf bfbc 10be
00000030: 4cad 8f3e bfba b1bd 95bf 6c3e 6a4c c03d
00000040: 5dce 4bbe bdee 1abe 8035 f3bc d0d6 f73d
00000050: cb59 9e3d a96b 3fbe 76d0 f9bd f712 0c3e
00000060: beb0 36be f2c3 cc3d 6c0d 0abe 315b 84be
00000070: 457b 95bd aecb 5bbd 186c 8a3d cb4e 2abd
00000080: 25f0 20be b029 133d 0755 c0be 508a c23d
00000090: 2454 ff3d 8be0 ba3d 3f43 0f3e 7c49 85be
000000a0: c313 abbe ea31 fabd 42f5 a43e 605e 89bd
000000b0: 6afb fbbe ffa0 553e f5d0 d6bd 06f3 97be
000000c0: ba8e 283e f331 17be cf10 d1be 598a 8e3d
000000d0: c25b 7d3d 4373 1fbd 878f 0f3e a409 80be
000000e0: 4f9f 793e 5d8a 843d 3b50 c0be f362 08be
000000f0: 792f 383e 2ed3 66bd c0a9 69be ac3b d4be
00000100: 498d 923d b660 fa3d 2a35 67be 7dd5 f43c
00000110: 072e f4be 8718 17be 80e5 8a3d dbd3 06be
00000120: bcb0 203d 5018 53ba 5a04 fd3d 1f93 4c3d
00000130: 113c 5dbd 4252 18be 2f83 91be 42eb f0be
00000140: e4ff 14be 25b6 5fbe dd7a 2dbf 9dae ef3d
00000150: afe4 2cbe 0621 0e3c f062 cabd 4e78 583e
00000160: 3c71 f1bd 05a7 3e3d 6177 2c3e 6837 85be
00000170: 75bb 2b3e 14a9 34be 7bac 1ebe 509b a0bd
00000180: 2c44 b6be 8d02 a5be 99ed 5c3e 235f fc3b
00000190: 5d78 743d 8df4 e2be 8479 103e 8b27 263e
000001a0: 7232 23bc 14cc d13e c41a 27be fb48 353e
000001b0: 6b32 e13c a8c2 d8bd 2816 d4be 5a2b 523e
000001c0: eae9 4ebe d1dd 693e a684 1f3d 35ef 723e
000001d0: d03a 2ebe 24d5 25be 12e9 f3bc 76fa 5e3c
000001e0: 2033 8a3b c92c 113e b145 85bb cf15 b1be
000001f0: 3f23 8c3e f06d 5a3c 466f 3b3d 47f2 063d
00000200: b49b b73d 5963 a2be 6c79 ba3d 75db 6d3e
00000210: c174 0bbc e44b 75bd deff a6bd e652 8d3e
00000220: 4ef6 f6be ef10 7c3d 706b a2bc ac1e a23d
00000230: 7d85 bebe a1a3 d0be 2ceb d23d e365 36bd
00000240: 66c9 673e afae 38be de53 103e c5de e8be
00000250: d3a7 bebc 783d db3d 06e3 03be 671c b5be
00000260: cbe3 0ebe 8d9b b03d fac2 0abe 86a0 3bbe
00000270: 5430 633e 6451 19be 7746 5d3e 73dc 163e
00000280: ef44 793d e423 81be eae0 a3be 737f 1e3e
00000290: 1319 8c3e d74c e73d de0e bfbe 1115 3cbe
000002a0: 2b7c c03e 2489 61be d8e9 e9bd 549d 5fbe
000002b0: 1be2 3f3d 0bfe b6be 8663 c93e fa92 ae3d
000002c0: 62a4 de3d f029 99bd f35c 0b3e b694 423b
000002d0: 464b 2c3e 71d0 ba3e 6abe e13d 8756 90be
000002e0: 28c8 ad3c 9b81 c63d 67ae d8be d208 e53d
000002f0: 2b9f a7bd 7465 3c3d c5f3 2ebe 403d 47be
00000300: ac63 e7bd f6fd 72bd f04e 65be fcae 583e
00000310: e4ad 453e 9efa 4fbe f0f4 103e db6f 693e
00000320: e0bc 53be 040c ad3d fc08 913e d50c 0ebd
00000330: cb12 1c3e 19c8 4abe 6a23 60be e0fb 02be
00000340: a502 bfbd f664 a83d ba06 7b3d 6270 21be
00000350: 4d63 813d 58d9 e03c 7835 e3bd 4a89 143e
00000360: 15ae 28be edf1 4d3e 96b3 053c 1b0c 6bbe
00000370: 76ad 683d dc54 81bc 672c ba3c b070 b73d
00000380: d4e5 e1be 5659 d4bd a822 953e 89b2 b3bc
00000390: 490a 343d 45c8 283e 1605 8f3e fc43 0b3f
000003a0: 5995 01be 199e 7ebd 0096 a03d 9d07 babd
000003b0: 96df e0be 1ce2 7fbd 9e03 023e e583 e3bd
000003c0: 50f6 2fbe 23db c7bd 9b67 f2bc bd0b c43d
000003d0: 869d 053e 086d f2bd 515d 4e3e 62dd 723e
000003e0: 99d0 b0be 2ad5 6dbb 517d e03d e9f6 c2bb
000003f0: 46c0 8c3c f79c 1fbe 4994 80bd 20af e5bd
-0.35209867 -0.066973805 -0.12922095 0.15747619 0.0020479024 -0.25681224 0.20467179 0.18225896
-0.3030629 -0.01130109 -0.652016 -0.14134501 0.28061903 -0.08678197 0.23119958 0.09389575
-0.1990294 -0.15130134 -0.029688597 0.12101519 0.077319704 -0.18693413 -0.12197964 0.1367911
-0.1784086 0.09998311 -0.13481683 -0.25850824 -0.072989024 -0.05366104 0.067588985 -0.04157905
-0.15716608 0.03592843 -0.3756487 0.09499037 0.124672204 0.091248594 0.13990496 -0.26032627
-0.33413514 -0.122165516 0.32218367 -0.06707454 -0.4921525 0.20862196 -0.10489074 -0.296776
0.16460696 -0.14765148 -0.40833136 0.069599815 0.061855085 -0.03892828 0.14019595 -0.25007355
0.24377178 0.06471703 -0.3756121 -0.13318996 0.1798686 -0.05635374 -0.2281866 -0.41451776
0.07155854 0.122254774 -0.22578874 0.029886955 -0.47691366 -0.1475545 0.06782055 -0.13166754
0.039231047 -0.0008052634 0.123543456 0.049944993 -0.054012362 -0.14875129 -0.28420398 -0.47054487
-0.1455074 -0.21846826 -0.677656 0.11703227 -0.16884111 0.008674866 -0.09882152 0.21139643
-0.11789176 0.046546 0.16842414 -0.26018834 0.16770728 -0.17642623 -0.15495484 -0.078421235
-0.35598886 -0.3222851 0.21575011 0.007701771 0.0596851 -0.44327202 0.14108855 0.16226022
-0.009960758 0.40976012 -0.16318804 0.17703621 0.027489861 -0.10584003 -0.41423154 0.2052435
-0.20206419 0.22838522 0.038944863 0.23724063 -0.17014623 -0.16194588 -0.029774223 0.013609519
0.0042175204 0.1417724 -0.0040671458 -0.3458695 0.2737064 0.013331875 0.045760415 0.032945897
0.08965245 -0.3171642 0.09105191 0.23228247 -0.008511723 -0.059886828 -0.081542715 0.2760231
-0.4823479 0.061539587 -0.01982662 0.079160064 -0.37211218 -0.4074984 0.10298762 -0.04453076
0.22635421 -0.18035387 0.14094493 -0.4548246 -0.023273384 0.107050836 -0.12879571 -0.35373232
-0.13954084 0.08623419 -0.1355094 -0.18322954 0.22186404 -0.14972454 0.21608911 0.14732532
0.060856756 -0.25222695 -0.32007533 0.15478306 0.2736288 0.11293953 -0.3731603 -0.18367411
0.37594733 -0.22024971 -0.11421555 -0.2183736 0.04684649 -0.35740694 0.39333743 0.08524127
0.10871197 -0.07478702 0.13609676 0.002969069 0.1682559 0.36487153 0.11022647 -0.28191015
0.021213606 0.09692689 -0.42320558 0.11183323 -0.08184656 0.04599519 -0.17085178 -0.19456959
-0.11298308 -0.059324227 -0.22393394 0.21160501 0.19304615 -0.20310447 0.14155936 0.22796576
-0.20677519 0.084495574 0.28327167 -0.034680206 0.15241544 -0.19802894 -0.2188851 -0.12791395
-0.09326676 0.08222382 0.06128571 -0.15765527 0.06317768 0.027447388 -0.11094183 0.14505497
-0.16472657 0.20111819 0.008160492 -0.22953837 0.05680605 -0.015787534 0.02272625 0.0895704
-0.44120657 -0.10368602 0.29128003 -0.021935718 0.04395512 0.16482647 0.27933568 0.5440061
-0.12654628 -0.062162492 0.0784111 -0.09083483 -0.43920583 -0.062471494 0.12696692 -0.11109141
-0.17183805 -0.09758594 -0.029590419 0.095725514 0.13048372 -0.11837202 0.20152785 0.23717263
-0.34534147 -0.0036290386 0.10961402 -0.005949844 0.017181527 -0.15587221 -0.06278283 -0.11215043

conv1.bias f4 [32]
00000000: 9a5c ebbd 20d2 a5bd ef52 1dbe 9ef8 ce3d
00000010: fa82 89be 0ba7 e6bd 4ea5 10be 3a2a 9fbe
00000020: cadb 8fbe a818 7abe 4bd9 f7be 0342 d0be
00000030: 5f85 d1bd fbd8 e1bd 2b24 453d 877e b2be
00000040: 11ad 00bd efd5 c0bd 3ee7 003e 875f 31be
00000050: ba0f 36bd 59f6 dbbe 03a3 8ebe b611 f4bd
00000060: 8e0b 15be bf5e 9ebe 4ec6 ae3c aaee 073d
00000070: ce7e 87be 5943 b13d 6c21 cabd 74ea b5bd
-0.11492272 -0.08096719 -0.15363668 0.10106014 -0.2685774 -0.1126233 -0.14125559 -0.31086904
-0.28097373 -0.24423468 -0.4840797 -0.40675363 -0.10230517 -0.11027714 0.048130196 -0.34862158
-0.03141505 -0.094158046 0.12588212 -0.17321597 -0.04444859 -0.42961386 -0.27858743 -0.119174406
-0.14555189 -0.3093166 0.021334793 0.033186592 -0.26463932 0.08655424 -0.09869656 -0.08882609

conv2.weight f4 [32, 32, 5, 5]
00000000: d63d fe3d c6ad 8039 cbce 153d 77c5 7bbd
00000010: 7441 81bd a96d 753d cd1b bfbd 3768 6c3d
00000020: 5640 383e 1cb0 4fbc c5e9 5fbd 19d0 94be
00000030: 7967 953d 7d4b f8bd 7c79 35be 2c83 d6bd
00000040: 727b 7fbe 4b4e 793d 0cf5 b33d c0a9 09be
00000050: 42ee 85be 471a 1ebe ff7a 473e 1485 4e3d
00000060: 1024 b73d a558 5cbe 6850 6ebc 286e 5a3e
00000070: 1f1f fa3d 50f7 34bd fce7 793d 80ab 88be
00000080: bf98 4dbd e4f8 513e 720a ddbd 5613 c9bd
00000090: 2e20 b53d 897e a53d 1377 57be 9dd6 85bd
000000a0: 2ffb 623e 25e3 4fbc 9c34 14be a914 2b3e
000000b0: 7ba1 bfbd 991f b8be 20dd 4cbd ab1d 18be
000000c0: 2199 60bc d066 a33e 7331 04bd 7452 a2be
000000d0: e564 25bb 7552 6b3d b3aa 4fbe 8704 ea3d
000000e0: c22d 84be 7edd 423e e5d7 013e 248d 8bbd
000000f0: 33fe c3bd 4ac1 42be b0eb 083d 8ba2 8cbe
00000100: 6dcb 983e 7441 10be e6b3 57be 1261 523e
00000110: 67db 85be b952 c63d 2c09 26be 1ed7 6dbe
00000120: d727 9bbe 1d5c 82be 2d9a 7ebd 6b37 31be
00000130: 5c4e d0bd 44e1 333c b812 acbd 09d2 ff3d
00000140: 9156 b2be 1c0b 9cbe 40fa 82be b539 4f3e
00000150: aa6a 79be e695 97bd 53ea b1bd 0dd6 93bd
00000160: d124 cdbd 856a 1abd 4fde 773c 8152 b7be
00000170: 840b 0a3d 5385 dc3d cafa 3b3e 5006 0cbe
00000180: f278 743e f1a3 4dbe 52ef 513d 5ba7 c83b
00000190: d00e 77be f495 57be 98ab 26bf 11df 4f3e
000001a0: 3c2b a6be e5dc 8ebe 79c1 21be 7070 e83d
000001b0: 1094 063e 3407 863d 4abf 1e3e 82db 9fbd
000001c0: 36ca 8f3e a8b7 debd 2e5f b13d f343 82be
000001d0: fa7e b7be aed5 6b3e b5b5 2d3d 179f 8ebd
000001e0: a555 a03d 9d8e 93bd a69b ebbc 882f f23d
000001f0: 11c7 b7bc 04c7 90be 4d41 adbd 12f4 92bd
00000200: 0de2 81bd 7446 39be 171c a2be 1dd4 05be
00000210: 4809 6fbe 10af 37bd fcff a9be effa 873d
00000220: 0bfc a1be 5b19 8a3d cbc1 ecbd b77e 7bbe
00000230: 62e0 28be cddc dcbd 57eb 8b3e 7283 4ebd
00000240: 4efa 4fbd 9e55 c33d 72f5 35be 32cd 913e
00000250: 3616 afbd e60e 84bd 9bcb ffbd 65c4 abbe
00000260: 005a c03c a3bb 343d 8a24 abbd 113d 6dbe
00000270: 6061 98be da47 603e 3ed4 91be a43f e5bc
00000280: 9766 0dbe e377 1ebe 42d1 953d 1b3a b33b
00000290: 1fce b03d 7270 96be 8a0f 22bd be83 333e
000002a0: 6687 01bf 86f1 2b3d 2487 b3bd 0675 a03c
000002b0: e1f4 e7ba 744f 713e cfa1 6ebe 5823 9fbd
000002c0: 322f 4dbe 48f3 b8bc 08ac a3be cf13 1bbd
000002d0: 2f54 61be 49d6 0b3d 7616 133e c887 67bc
000002e0: 13a6 d63e eaca fa3d 18e8 5a3e fe31 16bf
000002f0: 598f 1c3e e097 de3d 729a e4bc d69a 55be
00000300: acd9 1f3e 72e1 68bd 3f20 ab3b 1254 43bd
00000310: cdd3 b7bd a3fd 88be 6cb4 913e 619e b4be
00000320: 6405 bfbd 1f5d 7ebe 56bb bfbd 0cd2 e83d
00000330: 9e5e 2f3d fbff b43c 9c95 fabd 70d0 23bc
00000340: c392 2e3e b42b ab3d 93ec aebd 265a 8abd
00000350: f444 b93d 1571 eabc 1cdd 693d b714 96bd
00000360: 91a7 bbbd 4b67 d03d 6c54 abbc d840 cc3d
00000370: 3e1d 87bd 788f 8fbc 8be1 99be 87cf 0dbe
00000380: 34fc 1a3e 4cb2 5bbe 445d 6cbd 487a b5be
00000390: 9180 71bd b591 5bbe 31a3 d2bd 72b2 04be
000003a0: 88de dabb 3c36 3d3e 3d62 cc3d a917 bfbd
000003b0: e1b6 a0be d7e4 2fbd 6f6b 5f3d f7c0 9fbe
000003c0: 3923 e5be 254c 68be 3f91 41bd 9eda f4bc
000003d0: e068 193e bc54 37be af57 56bd e01a 6a3c
000003e0: ed32 193e aafa cfbd af9f 1abc 8378 40be
000003f0: 95be 023e 1f74 383d 4af7 6abe 384d c03d
0.12414138 0.00024543534 0.036574166 -0.061467614 -0.06311312 0.059919033 -0.093314745 0.057716575
0.17993292 -0.012676265 -0.0546663 -0.29065016 0.072951265 -0.12123773 -0.17722124 -0.10474238
-0.24949434 0.06086568 0.08786973 -0.1344366 -0.2615834 -0.15439712 0.19480513 0.050419882
0.08942425 -0.2151819 -0.0145455375 0.21331084 0.12212967 -0.044181168 0.061012253 -0.26693344
-0.0501945 0.205051 -0.10793008 -0.09818141 0.088440284 0.08080775 -0.21041517 -0.06535075
0.22166131 -0.012688433 -0.14473194 0.167071 -0.09356972 -0.35961607 -0.05001557 -0.14855067
-0.013708384 0.31914377 -0.03227372 -0.31703532 -0.002523714 0.057451684 -0.2027996 0.11426645
-0.2581616 0.19029805 0.12680013 -0.0681403 -0.09569969 -0.19019046 0.033427894 -0.2746776
0.29842702 -0.14087468 -0.2106472 0.20544842 -0.26143953 0.09683747 -0.16214436 -0.23226592
-0.30303833 -0.25460902 -0.062158752 -0.17306297 -0.10171196 0.0109790005 -0.08402008 0.12491233
-0.3483167 -0.30477226 -0.2558155 0.20236857 -0.24357095 -0.07401638 -0.08687272 -0.07218561
-0.10016788 -0.03769924 0.015128686 -0.35805133 0.03370239 0.10767617 0.18357387 -0.13674283
0.23874262 -0.2008207 0.051253624 0.006123466 -0.24126744 -0.21053296 -0.6510558 0.20299937
-0.3245486 -0.27902904 -0.1579646 0.11349571 0.13142419 0.06544343 0.15502658 -0.0780554
0.28083962 -0.108748734 0.08660732 -0.25442466 -0.35839063 0.23030731 0.042409617 -0.06963938
0.078288354 -0.07204936 -0.028760742 0.11825472 -0.02243379 -0.28276837 -0.08459721 -0.07175459
-0.06341944 -0.18093282 -0.31662056 -0.13069196 -0.23343384 -0.044844687 -0.33203113 0.06639659
-0.31637606 0.067431174 -0.115604006 -0.24560057 -0.16491845 -0.10784302 0.27327988 -0.050418325
-0.05077582 0.095378146 -0.17769411 0.28476864 -0.08549158 -0.06448154 -0.124900065 -0.33548275
0.023480415 0.044124257 -0.08356579 -0.23167826 -0.2976179 0.21902409 -0.2848224 -0.027984448
-0.13808666 -0.1547542 0.073153034 0.005469573 0.086330645 -0.29382664 -0.0395656 0.17530724
-0.50597227 0.04197838 -0.087660104 0.019587051 -0.0017696881 0.23565465 -0.23303913 -0.07770413
-0.20037535 -0.022576943 -0.31967187 -0.037860688 -0.2200477 0.034139905 0.14364037 -0.014131494
0.4192358 0.12245734 0.21377599 -0.5867003 0.15289058 0.108688116 -0.027905677 -0.20859846
0.15610379 -0.056855626 0.00522235 -0.047687598 -0.08975945 -0.2675601 0.28457963 -0.35277084
-0.093272 -0.2484021 -0.09361903 0.11368188 0.042814843 0.022094717 -0.12235567 -0.009998426
0.17048173 0.08357945 -0.08541217 -0.06755476 0.09046355 -0.028618375 0.057095632 -0.0732817
-0.0916282 0.101759516 -0.020914279 0.099733055 -0.065973744 -0.017524466 -0.30054888 -0.13848697
0.1513527 -0.21454734 -0.057706133 -0.35444856 -0.0589605 -0.21442302 -0.102850325 -0.12958696
-0.00667936 0.1847772 0.09979675 -0.09330685 -0.31389526 -0.042942848 0.054545816 -0.31201908
-0.44753435 -0.22685297 -0.047257658 -0.029889401 0.14981413 -0.17903417 -0.052329715 0.014288634
0.14960833 -0.10155232 -0.009437486 -0.18795972 0.12768014 0.045032617 -0.22945896 0.09389728

conv2.bias f4 [32]
00000000: 5756 e9ba 41ed 08be dde5 9abd d22d 1cbe
00000010: ae0c 1cbd 979f e0bd 46e9 a03d bf7d 1bbe
00000020: 207b 33be ee2c d0bd 5a0d 833c ae66 0bbe
00000030: 352a b9bd 9525 d43c d8bc 40bd 9321 dfbd
00000040: 2626 92bd 4db9 28bd ad9a dabd 9c5d 00be
00000050: 958d e2bc eab3 b5bd 90a1 1cbe 5951 32be
00000060: 9aee e7bd 97f3 263c 2bfe b8bd dba2 1fbe
00000070: 4225 6d3d 68d4 803c 866c 2fbe 81b1 533c
-0.001780222 -0.13371755 -0.07563374 -0.15251854 -0.03809803 -0.10967939 0.078569934 -0.15184687
-0.17527437 -0.1016482 0.015997577 -0.13613388 -0.090412535 0.025896827 -0.047055095 -0.10895076
-0.071361825 -0.04119234 -0.10674033 -0.12535709 -0.027655402 -0.088722065 -0.15296006 -0.17413844
-0.113248065 0.010189912 -0.09032854 -0.15589468 0.05789686 0.015726283 -0.17131242 0.012920738

conv3.weight f4 [32, 32, 5, 5]
00000000: d919 7b3d 341e cd3c e61d 303e cf40 293e
00000010: 86c7 51be 23f7 3dbd dbef 8d3d 0f31 96bd
00000020: 3003 e0bb 5d17 1b3e c16c 2a3d b7c8 05bf
00000030: 1d41 8fbe 33bb d6bd 9615 993e d61c 3cbe
00000040: 13f0 a0be 59fb 3bbc c375 b23d f879 a33e
00000050: ea5b 23be 2df7 2a3c 880b 7f3e 0521 6c3e
00000060: 9713 1cbe 1b67 1bbe 8a34 a1bd 3b6e f9bd
00000070: c418 b63d a55a d53b 37f3 893b d954 36bd
00000080: 19c2 eebc c371 893e 0430 00be 4b48 04bf
00000090: 610c 433e df8a 293a 282f 7abd e853 8bbe
000000a0: 6563 38be 66ee aabd d9d4 b0bd 1c49 ef3d
000000b0: 36ca a83d cd3b 493c 69b6 35be 9ab9 ccbe
000000c0: 3970 bbbd 03cb 7abd 42b9 7e3e d374 d13d
000000d0: ff7a 8cbd c45d 4c3e 5b12 4c3e 24d1 4e3e
000000e0: 4b5a 323e b2bc 703c cd94 69be 6998 84be
000000f0: 4e99 3bbd 3793 84bd 54c5 5abc 81d2 27be
00000100: d7dc 103e 7719 8a3c 3d37 e63d 4f44 8f3d
00000110: 86d4 69bb 0d7a 1c3e 8743 033d e908 d13d
00000120: ab2a 823e c118 35be da22 41be 00de d03e
00000130: 0d54 04be ea77 7c3d 569e 4a3e d55a dabd
00000140: 3356 3c3d fb81 b23d ef6a 513e d836 1a3e
00000150: e340 e43d cf62 b5bd 5546 b13d ad45 5e3c
00000160: 4572 85bd fcb3 a23e d585 11bd 215a ba3d
00000170: 0889 d83d 9ebf 1abe f645 083e 4802 d6bd
00000180: 42fd 29bd 4d3c e7bd 4d0c 35be 481b 68bd
00000190: 2a02 f6bd 5057 b53e 8186 7fbc 0e9b 663d
000001a0: 987c 223d ff86 e2bd b83a a73e d6a2 153e
000001b0: 921a d33d f28a fcbb 94c4 183e 0ed4 943c
000001c0: a17d 0e3e 255a 123e 9b1b 84bd 43ff 513e
000001d0: bc42 54bc 2583 a4bd d18c 92bc 7f2c cc3d
000001e0: cbbf 84be 64c9 d0bd 2398 2e3d d8a9 d93d
000001f0: f49b 0abb aaad 1d3e 8415 3cbe 2f8c aabe
00000200: 2560 b3bd 39bf 1a3c a4fd aebe f4f4 e7bd
00000210: 7c98 9cbd 744a 18bc 2b5a 503d 76d3 b6bd
00000220: 8ef9 b83d fccf 9b3e f8b6 78bd 6618 3c3e
00000230: 9b0e 9abe 7de2 4a3e 821e 05be 7816 dabd
00000240: 0d4b 403e 7412 d4bd 783b 35be c0c7 d63d
00000250: 114b 633d 1b48 1bbe 0821 47bd b514 4abe
00000260: 3a26 3bbe 18b6 6bbe a052 4dbe a480 c5bd
00000270: a849 c23c bf81 0dbe 09d8 95bd 078c b73c
00000280: 87b9 063c ab43 673c 9e9e 43be c36a a53c
00000290: 7965 403d ed7f 80bd db2e 6e3e 8667 71bd
000002a0: 1d04 d43c 3f01 6f3c 5290 1e3e cb89 013e
000002b0: 906a b4bd b7d4 95bd 15a1 4a3e c776 823c
000002c0: 3189 fbbc 604e 043e 172c b4bd 46a4 5d3d
000002d0: 4eff 783d c99c b5bd bab7 b6bc 6b2b 1fbe
000002e0: 4504 3a3e a1fd b13e 8c2c c3be 3511 a9bd
000002f0: 2025 823e 63d8 543e b8cd acbc b7c7 893e
00000300: 17fd 0c3d a44d a4bd c2e2 26be c1bf 513e
00000310: 65a8 42be 93c4 603d 3539 40bd 929f 60bc
00000320: a00e b3bd 2b5d 8d3e ae44 4cbd ed5d 093e
00000330: 3b88 4d3e 74c5 26bd 1f3b 1e3e d735 44be
00000340: b059 683d 2368 8b3d 23a8 053d 32cb 5e3e
00000350: 1f82 d7bd 2d2d 533d fc28 9fbb b7ab 03be
00000360: 6bf4 fa3d 57a8 823d 9859 3dbe 7b2b 17bc
00000370: c28a 733d 8996 773c 9b5f 2a3e e5c1 fe3d
00000380: fdd6 50be fa0d 8bbe 192a 303d e233 c83e
00000390: de05 d6bd 4afe 763b 4a56 6c3e 2554 c1bd
000003a0: 883b 983e 169d 8bbd d338 3f3e f7f1 293d
000003b0: 6131 77be 38f1 a13e 84d1 4fbe 495a 57be
000003c0: b597 b33e e1f8 9dbd f241 b73d b5ba cdbe
000003d0: c04c 86be dde5 8fbd e6e1 d1bb be13 bfbb
000003e0: 6532 3abd 0eac 2ebe 7df1 2c3e 19ea 85be
000003f0: d0f9 29be 6f7c 6bbe 6826 f53e c368 d5bd
0.061303947 0.025038816 0.17198905 0.16528629 -0.20486268 -0.046378266 0.069305144 -0.07333576
-0.0068363175 0.15145631 0.041607622 -0.5225939 -0.27979365 -0.10484924 0.2989928 -0.18370375
-0.31433162 -0.0114735 0.087138675 0.31928992 -0.15953031 0.010434908 0.24906743 0.23059471
-0.15241848 -0.1517605 -0.07871349 -0.12179228 0.088914424 0.00651105 0.0042099017 -0.04451451
-0.029145287 0.26844606 -0.12518317 -0.5167281 0.19047691 0.0006467532 -0.061080128 -0.27212453
-0.18006666 -0.08346252 -0.086343475 0.116838664 0.08241694 0.012282324 -0.17745365 -0.39985353
-0.09152264 -0.061228763 0.24875358 0.102273606 -0.06859397 0.19957644 0.19928877 0.20196968
0.17417257 0.014693426 -0.22810669 -0.2589753 -0.0458005 -0.064733915 -0.013352711 -0.16388895
0.14146744 0.016857846 0.112410046 0.06995451 -0.0035679652 0.15280934 0.03204682 0.102067776
0.25423178 -0.17685224 -0.18860951 0.40794373 -0.12922688 0.061637796 0.19786963 -0.10661856
0.045980643 0.08716198 0.20450948 0.15059984 0.11145189 -0.08856737 0.08655993 0.013566417
-0.06515936 0.31777942 -0.035528023 0.09099222 0.10573012 -0.15112159 0.13307938 -0.10449654
-0.04150129 -0.11290798 -0.17680474 -0.056666642 -0.120121315 0.35418177 -0.015596033 0.056300215
0.039669603 -0.11060905 0.32661986 0.14612898 0.10307802 -0.0077069933 0.14918739 0.018167522
0.13915111 0.142922 -0.06450578 0.20507531 -0.012955364 -0.08032826 -0.017889412 0.099694245
-0.25927576 -0.10194662 0.042625558 0.10628098 -0.0021150084 0.15398279 -0.18367583 -0.33310077
-0.087585725 0.009445005 -0.34177887 -0.11326018 -0.076462716 -0.009295095 0.05086724 -0.08927052
0.09031974 0.30432117 -0.060721368 0.18368682 -0.30089268 0.19812961 -0.12999919 -0.10648817
0.1877863 -0.10355082 -0.17698467 0.10487318 0.05549151 -0.15164225 -0.048615485 -0.19734462
-0.18276301 -0.23018682 -0.2005105 -0.09643677 0.023716763 -0.13819025 -0.07316596 0.022405637
0.008222944 0.014115254 -0.19103476 0.02019251 0.046971772 -0.062744 0.23260061 -0.05893662
0.025880868 0.014587699 0.15484741 0.1265022 -0.08809388 -0.07315963 0.1978801 0.015925778
-0.030705066 0.12920523 -0.08797472 0.05411174 0.060790353 -0.08867795 -0.022304405 -0.15543906
0.18165691 0.34763816 -0.38119924 -0.08255235 0.2541895 0.2078567 -0.021094188 0.26910183
0.034421053 -0.08022621 -0.16297439 0.20483305 -0.1900955 0.054874968 -0.046929557 -0.0137099195
-0.08743024 0.27610144 -0.049870186 0.13414736 0.20071499 -0.04071565 0.1545224 -0.19161163
0.056726158 0.06806972 0.03263105 0.217572 -0.105228655 0.051556755 -0.0048571806 -0.12858473
0.1225365 0.063797645 -0.18491209 -0.009226675 0.0594585 0.015111574 0.16638033 0.12439326
-0.20394512 -0.271591 0.043008897 0.39102083 -0.10450338 0.003768819 0.23079792 -0.094398774
0.2973292 -0.06817071 0.1867402 0.04149052 -0.2413993 0.31629348 -0.20294768 -0.21030535
0.3507668 -0.077134855 0.08948125 -0.4018151 -0.2623043 -0.07026265 -0.006405103 -0.005831211
-0.045458216 -0.17057821 0.16888995 -0.26155165 -0.16599202 -0.22996686 0.47880864 -0.10420372

conv3.bias f4 [32]
00000000: 6b54 d4bd 0b17 c9bd 5984 4cbe 0136 17be
00000010: c050 4dbe 01bf b4bc cabd 0dbe be26 15bd
00000020: 04b8 2ebe 6377 4fbe e23a 4dbe 76ab fabd
00000030: f273 3ebe 5d72 58be fdee 74be b0b2 75be
00000040: 1105 18be e91c 89be aa59 1abe c313 2cbe
00000050: f604 f3bd c4e5 f6bd 9789 33be c6b2 0bbe
00000060: 082b f4bc a0d0 53be efce 24be 8702 2ebe
00000070: d7cc 6bbe b280 3dbe 27f7 52be 730e 64bd
-0.10367664 -0.09818848 -0.19972362 -0.14766695 -0.20050335 -0.022063734 -0.1384193 -0.0364139
-0.17062384 -0.20260386 -0.20041993 -0.12239735 -0.18598917 -0.21137376 -0.23919292 -0.23993945
-0.14845683 -0.2677987 -0.15073267 -0.16804413 -0.118661806 -0.12055543 -0.17532955 -0.13642415
-0.029805675 -0.20685053 -0.16094564 -0.16993152 -0.23027359 -0.18506125 -0.20602094 -0.055677842

conv4.weight f4 [32, 32, 5, 5]
00000000: 8709 6ebd aabf 4bbe 24e1 f4be ac6d 44be
00000010: efbc df3d 45e6 68bd 6af4 36be 706d 38be
00000020: 6f7a f9bc 7ede 08be 4152 99bd 2a9f 2fbd
00000030: a6ba 1bbd 4f55 1cbd 2968 28bd 06d6 36be
00000040: 52fd 5bbd 0f54 9b3c 2356 83be fd51 90be
00000050: e305 cc3d 4e21 afbe 7a3a ac3e 4564 83be
00000060: 3e3b f33c 3206 9e3e 6d05 d73d be67 5f3e
00000070: 081a e3bc e4aa b1bd 7243 d6bc 42f4 273e
00000080: c538 b2bd 8746 373b f7a5 2abe 7c6b 8b3d
00000090: 81df 6e3e 99b1 333e 79ac c33d 7039 03be
000000a0: f4ae c5bd 604a 7d3e 3a85 8d3e ee29 103e
000000b0: bd5a d8bd 44c7 3cbd 9b8d 233e 6f27 943b
000000c0: 8144 763c 6a5a 003e 2ddc ad3d a4cf 053e
000000d0: c2a9 8cbd 569d 3cbd f1d1 f83d 19fd 5a3e
000000e0: c3c8 c0ba 2b07 ed3c cbc1 c9bd 215b 32be
000000f0: 5a71 5bbe 9329 f2bc 88af 58be acec d2bd
00000100: b916 4dbe ec5f 9cbd f349 743e 55c6 39be
00000110: 4e10 bebe 70ac 0fbd 6a20 59bd 2b89 8dbe
00000120: 9e33 463d 70f1 a7bd 590f 1f3e 988d 91bb
00000130: f1a6 83be 68a1 92be 3237 a6bd 8521 0b3d
00000140: 3529 88bd 682b 0cbe 47e7 0dbf 154d 2fbe
00000150: 1ba7 efbb 467e 873d 2cd3 07be bb55 0a3e
00000160: 1b5f 1abe 5534 a13b e5b6 c4be b564 0ebe
00000170: 05d7 ddbc 28b8 34be bb03 663e b818 ba3e
00000180: f57c a3bc 61f2 e13d 9619 e33d 336a 683e
00000190: 37ba d4bc 4684 983e 12b9 723d cb28 97be
000001a0: 9687 263e 33cd 543e 718e 413e 0f9c 523e
000001b0: 96ea 303d de02 793d 57e2 28bd a7f6 2dbe
000001c0: c129 08be ac79 8f3d 5d4f b8bc 45d8 0e3d
000001d0: 9ad9 ecbd a65d 95bd 65fe 40bd 2895 84be
000001e0: fa84 4dbd 4165 aa3d 0165 febd ad52 49be
000001f0: e5e2 b43e 89de 01bd ed60 d6bd 6a76 83bd
00000200: 21d5 44bd 9c6b e8bd fdbb 83be a372 3cbe
00000210: e486 d8bd 181f 263e 3d44 c83c e9e6 de3d
00000220: 6f27 f43d f35f 033d cf61 a83d 5430 adbd
00000230: 4cc0 123e 1ca9 32be bb41 b93d e2ae 373d
00000240: fdf0 bebe 265a cebe 6641 29be 31cd acbd
00000250: d476 1cbe c994 dabd 2b54 52be 0a8a 983e
00000260: 375a e8bc feec f4bd 67d0 a53d dd74 72bd
00000270: a25b d7bd 90e4 92be 85eb 64bd a761 ce3d
00000280: 1243 153e 91ab 2d3d 7c41 51be 9587 76be
00000290: 3392 acbe 333b 9c3c a69b e3bd 0e8d 453d
000002a0: c8bf e1bd f4c9 5d3e fac1 69be 33e7 863d
000002b0: 2d3b 8fbd 86fa 28bc 36ae f2bd 90b5 15bd
000002c0: 3b6b cfbd 1611 a93c 8c11 cb3e fef3 4e3e
000002d0: db11 19be 56a8 fc3d f83a ae3b 7415 01bd
000002e0: a27a bc3c 71f1 c6be 4f55 1e3e 611e 893d
000002f0: 22c1 d1bc 784d 2ebe 87dd 2a3e ea6c 2d3e
00000300: 6a7a f0ba cb61 323d 6c6c 1cbe b916 443e
00000310: 527e 7fbe f78f 84bc edac a23c 89fe f23e
00000320: d61a 4139 1689 8d3d 5cfa 01bd 7bd9 77bd
00000330: 7994 4abd b3d2 48bd ad01 80bd 5cb3 85be
00000340: fa15 073e b1e9 2f3e 03cf 36be 9518 20be
00000350: a4d4 263e 0ef6 133e cd52 f63e 000b 20bf
00000360: 0270 76be d6e6 863d bc4d 7abd 8b85 623d
00000370: 078d 803d 6be8 7fbb 566e 23bf aa6d 2bbe
00000380: 7cb9 78be c837 d2bc ee17 f93d 71ae cd3d
00000390: d6c1 82bd aee2 333e 5d5d cf3d 76ff 4cbd
000003a0: b3f2 0c3e 1814 81bd 5265 0a3c 1f5c 523b
000003b0: 1c38 963e c5c9 0b3e 2afd d3bd 997f c93d
000003c0: ec23 97be 386a f7be c965 6abe ab1f 1d3d
000003d0: 9461 513d 9968 0b3e 30e6 24be 93e0 6bbe
000003e0: ff28 2a3e aaa4 913e 8347 af3e dcc0 6cbe
000003f0: 4e06 b6be 2629 9fbd b04d 5cbb 0be3 463e
-0.058114555 -0.19897333 -0.4782802 -0.19182462 0.10924708 -0.056860227 -0.17866674 -0.18010497
-0.030453889 -0.13366124 -0.07486392 -0.0428764 -0.0380198 -0.038167294 -0.04111496 -0.17855081
-0.053708382 0.01896098 -0.25651655 -0.28187552 0.0996206 -0.34205097 0.33638364 -0.25662437
0.029691335 0.30864102 0.10499082 0.21816918 -0.027722374 -0.08675173 -0.026155207 0.1640177
-0.08702234 0.0027965622 -0.16664873 0.068076104 0.23327447 0.17548217 0.09554381 -0.1281488
-0.0965251 0.24735403 0.27640706 0.14078495 -0.10564182 -0.046088472 0.15971987 0.0045213024
0.015030981 0.1253449 0.08489261 0.1306749 -0.06868316 -0.046048485 0.12149418 0.21385612
-0.0014708269 0.028934082 -0.09851416 -0.17417575 -0.21429959 -0.02956084 -0.2116071 -0.10299048
-0.200282 -0.07635483 0.23856334 -0.18142064 -0.37121814 -0.03507656 -0.053009428 -0.27643713
0.04838907 -0.082003474 0.15533198 -0.004441928 -0.25713304 -0.28638768 -0.081159964 0.033967514
-0.066484846 -0.13688433 -0.55431026 -0.17119248 -0.0073136217 0.066158816 -0.1326415 0.13509266
-0.15075342 0.0049195685 -0.38420787 -0.13905604 -0.027080068 -0.17648375 0.2246236 0.36346984
-0.019957045 0.11032558 0.110888645 0.22696762 -0.0259677 0.29788417 0.059258528 -0.2952331
0.1626266 0.20781402 0.18901993 0.20567344 0.04319247 0.06079375 -0.04123148 -0.16988622
-0.13297178 0.07005629 -0.02249878 0.03487422 -0.11564942 -0.07293253 -0.04711761 -0.25895047
-0.050175644 0.08320094 -0.12421609 -0.19660445 0.35329357 -0.031706367 -0.10467706 -0.0641907
-0.048054818 -0.1134865 -0.2572936 -0.18403105 -0.10572603 0.16222799 0.024446601 0.10883886
0.11921584 0.032073926 0.082217805 -0.084564835 0.14331168 -0.17447323 0.0904574 0.044844516
-0.37293234 -0.40303153 -0.16528854 -0.08437575 -0.15279704 -0.1067291 -0.2053992 0.29792815
-0.02836333 -0.11959265 0.0809639 -0.05919348 -0.105155244 -0.28690004 -0.05588867 0.100772195
0.14576367 0.042399947 -0.20435137 -0.24075158 -0.3370529 0.019071197 -0.11113672 0.048230223
-0.110229075 0.2165907 -0.22827902 0.065870665 -0.06993709 -0.010313636 -0.11849634 -0.036550105
-0.101278745 0.02063803 0.39661825 0.20210263 -0.14948218 0.12336795 0.005317088 -0.0315146
0.023007695 -0.3885608 0.1546223 0.066952474 -0.025604788 -0.1702174 0.16686068 0.16936079
-0.0018347029 0.043550294 -0.15275735 0.19149293 -0.24950531 -0.016181929 0.019857848 0.4745982
0.00018415911 0.06910913 -0.031732902 -0.06051014 -0.049458 -0.049029063 -0.0625032 -0.26113403
0.13191977 0.1717899 -0.17852406 -0.15634377 0.16292053 0.14449331 0.48110047 -0.62516785
-0.24066165 0.06586997 -0.06110929 0.055303138 0.06276899 -0.0039048444 -0.63840234 -0.16741052
-0.24289507 -0.025661364 0.12162767 0.10043038 -0.063846275 0.1756694 0.101252295 -0.050048314
0.13764457 -0.06302661 0.008447008 0.0032098365 0.29339683 0.13651188 -0.103510216 0.098387904
-0.29519594 -0.48323226 -0.2289039 0.03836028 0.05111845 0.1361412 -0.16103435 -0.23034887
0.16617201 0.2844594 0.34234247 -0.23120445 -0.35551685 -0.0777152 -0.0033615641 0.19422548

conv4.bias f4 [32]
00000000: 4753 c63c a9d1 9a3d efca 5bbc 1647 743d
00000010: 8a2a 373b a5eb 5f3d 9abd 8bbe 371c 0dbe
00000020: edb2 393d ad32 1dbe 486f 20be ca35 06be
00000030: 3aa8 733c 0d49 3ebc a098 8dbe 1259 dabd
00000040: da90 bd3d dd8b 9f3d a8db 9abd cd2d a9bd
00000050: e5b3 10be 1c99 00bc 5d6a a3bd 80a7 b8bd
00000060: d061 63be 7590 1cbc d826 74bd f4ac d7bd
00000070: df05 2dbe ebdb 0cbe a74e 0abe 66a5 83be
0.024209632 0.07559521 -0.013415082 0.059638105 0.002794894 0.054668088 -0.27293092 -0.13780294
0.045336653 -0.15351363 -0.1566745 -0.13106456 0.014871651 -0.011614096 -0.27655506 -0.1066152
0.09256144 0.07790349 -0.07561427 -0.08260689 -0.14131124 -0.007849004 -0.079792716 -0.09016323
-0.22205281 -0.009555926 -0.059607357 -0.10531035 -0.16896771 -0.13755767 -0.13506566 -0.25712126

conv5.weight f4 [32, 32, 5, 5]
00000000: c420 833e 5ab6 c13d 3fcf 893e fb5b 983e
00000010: bad6 b6bd 30ca a03d eff9 023f 8f39 bc3d
00000020: 0071 333e f1c7 12be 9f91 ec3c c668 e3bd
00000030: 0a2b a4bd 88e0 82bd 2e32 70bd ea45 dabd
00000040: 24d9 e23c 2890 e33d c13b 6f3e 0d57 833d
00000050: 2a85 8a3e 7666 b1bd 19ae a3be abd0 0dbe
00000060: ed00 d7bd 646c 493e 34ac 833e e504 723e
00000070: a292 663e 1608 903e afdd a73d 828c 813e
00000080: 5d6a 963e dbdd b43e 441a 253e 02e1 8a3c
00000090: 8369 db3e 7a07 f73d 4523 4d3e 16db c83d
000000a0: 081f 9b3e fd1e 033e ea6b 2a3e 27d5 473e
000000b0: 9c71 f13c fa28 f43c 9891 ac3e 044a 7f3e
000000c0: 6bc5 933e 805c cf3e 4dc5 a13b 5acb 3c3e
000000d0: 070c cc3c fa4e 29be 453a 8a3d cd36 a7bc
000000e0: 0140 e93d 3fb1 613e 46ec efbd 0cf8 febc
000000f0: f453 95bd 27ac 563b 15cc 053e 0743 2ebe
00000100: 21b6 69bd 38a7 173d 1576 86be 87dd 52bd
00000110: b8d7 143b 176d 793c fcfa f73d 267a 54bd
00000120: ce62 aebb 12ed d4bd 7505 d4bd 1f90 8f3d
00000130: 9a66 27bd 08b2 2abe e40f ecbd adda 2ebe
00000140: b85b 4e3e c50f 0bbe b1b7 12be 91c3 bdbd
00000150: 0c4f 7fbd d3a4 213e af0f 0bbe 0b9d 00be
00000160: 1588 cebd 9671 953d fe83 47bd d26c f33b
00000170: b821 2cbe 7c17 513e f8dc 523e 5e64 c73d
00000180: fa5d 78bd f675 3cbe b8ae 833c b4f6 3d3e
00000190: 48ef 93bd 351a a2be c519 a5bd e361 2cbe
000001a0: a54a 38be ce55 7fbd dc54 9ebd c163 eebd
000001b0: 7e96 833c b602 8c3d 7c2c 2c3d 7afd 213e
000001c0: 2dbb f1bc 27a1 d13d 70a8 95bd a831 fbbd
000001d0: bca4 013e fbff 37be 14bf 40be 2395 12bd
000001e0: 7952 473e 32ba 6ebe 5403 5b3e afcd 0a3e
000001f0: cfc5 b83b ab5b 81bc c0e6 be3d 402f e03d
00000200: 2fc0 bbbc 3082 f1bd f4e1 a7bd 86c3 913c
00000210: 1182 053c 0d2b 7abd 1ba5 f43d 0666 4d3e
00000220: 6fa6 533e f7f6 9ebd a3fc d4bd 7662 05be
00000230: 42a6 8e3d 3727 a63d af34 08be 126d d9bd
00000240: 87ba 353d 1951 293e be3e 7f3d 4dec a1be
00000250: 960a dabd b3d7 0b3e 952c 3bbe 275d 8dbd
00000260: 0465 d73d 0f09 6bbd 53db c83d 2aa0 04bd
00000270: f21e 553e bc63 d23d 82cc a4be 77c3 21be
00000280: 27e2 ce3d 4721 983e e67e 70bb 0b4d 05be
00000290: 641a a6bd ab9b 06be d327 56bd b38b 58bb
000002a0: ac22 22bd a094 31bb 46f9 3c3c 3d11 0ebd
000002b0: 7d3a 153e cd55 71be 86b3 073e 443b 33be
000002c0: ebeb c83d 1ec0 08be 5406 3abe a008 b4bd
000002d0: 11ff 21be cdeb 8cbc cc01 8ebe 2da2 163e
000002e0: e452 7fbe 3a1a 733d 465c 143d 3aa3 b8be
000002f0: c114 2abe 72a0 20be 070d 95be e584 0d3d
00000300: e998 1c3e bb52 2fbd 6b47 8fbc fb2f 88bd
00000310: 55d1 293d fa80 873d b3c2 313e 6d6a 883e
00000320: 5afc 1a3d 372e 153e 1d63 4ebe b2f6 a9bd
00000330: 8b2c b4be 3180 96be 92a5 1ebe 3e89 80bc
00000340: 62a5 803d 272c c73b 00ea c5bc c6de 2ebd
00000350: 1f39 b2bd e638 0cbe 5f61 7fbc 1ef3 d9be
00000360: d431 d5bd f47f d5be 6403 ec3c e25b 1abe
00000370: dfd0 bdbd 48b0 c2bd e533 343d ff03 8a3d
00000380: 29f5 40be 02dd 4cbd c86f ea3d aa79 d03d
00000390: 9704 5bbd 06d3 11bc 5f4e 963c 58b7 70bd
000003a0: 695e 41be 3a16 813d 1bc2 84be 9687 833d
000003b0: 03bc a6bd 8238 72bd cb7a 153d 6918 00be
000003c0: 23f2 d4bd b2cf 01be 3974 353d cb05 473e
000003d0: 9713 273e 6b99 af3d 4d79 47be bdd7 76bd
000003e0: 722d 2a3e 5375 27be 499e 2bbe 3c0b 883d
000003f0: 0437 06be 8db1 6cbe 8b9c 723d 0f32 143e
0.25610936 0.09458609 0.2691593 0.29757676 -0.089276746 0.07851064 0.5116262 0.09190666
0.17523575 -0.14334084 0.028878031 -0.11103968 -0.080160215 -0.06390482 -0.058641605 -0.10657866
0.027691431 0.1111148 0.23362638 0.06413088 0.2705472 -0.08662121 -0.31968763 -0.13849132
-0.104982235 0.19670254 0.25717318 0.2363468 0.22516873 0.2813117 0.0819658 0.2530251
0.29378024 0.35325512 0.16123301 0.016952995 0.42853937 0.12061973 0.20032986 0.09807412
0.30297112 0.1280479 0.16642728 0.19514905 0.029473118 0.029804695 0.3370483 0.24930578
0.28861555 0.4050026 0.00493685 0.18436947 0.024908079 -0.16534033 0.06749395 -0.020411873
0.11389161 0.2204027 -0.117149875 -0.031124137 -0.072914034 0.003275642 0.13066132 -0.17017756
-0.057058457 0.037024707 -0.26261964 -0.051480796 0.0022711586 0.015223763 0.12108418 -0.051874302
-0.005321837 -0.1039678 -0.10352603 0.07009911 -0.040869333 -0.16669476 -0.115264684 -0.17075606
0.20152175 -0.13580234 -0.14327885 -0.09265817 -0.062331244 0.15785532 -0.13580202 -0.12559907
-0.10084549 0.072970554 -0.048709862 0.007428744 -0.16809738 0.20419115 0.20592105 0.097359404
-0.060636498 -0.18404374 0.016074523 0.18551141 -0.07223374 -0.3166062 -0.08061556 -0.16834216
-0.17997225 -0.06233769 -0.077310294 -0.1164012 0.016062971 0.068364546 0.04203461 0.1581935
-0.029508198 0.102358155 -0.073075175 -0.122653306 0.12660497 -0.17968743 -0.1882289 -0.03578676
0.19465055 -0.23313215 0.21387988 0.13555025 0.005638815 -0.015790781 0.09321356 0.10946512
-0.022918789 -0.117924094 -0.08197394 0.017793428 0.008148686 -0.061076213 0.11945554 0.2005845
0.20668958 -0.077619486 -0.10399749 -0.13025841 0.06965305 0.081129484 -0.13301347 -0.10616507
0.04436734 0.16534843 0.062315695 -0.31625596 -0.1064655 0.13656501 -0.18278725 -0.06902533
0.10517314 -0.057381686 0.09807458 -0.032379307 0.20812586 0.10272929 -0.32187277 -0.1579722
0.10101729 0.2971289 -0.003669673 -0.13017671 -0.08110502 -0.1314532 -0.052284073 -0.0033042252
-0.039583847 -0.0027096644 0.011534041 -0.03468441 0.14573093 -0.23567887 0.13252077 -0.17503077
0.09810623 -0.13354537 -0.18166476 -0.087907076 -0.15819956 -0.017202282 -0.27735746 0.14710303
-0.24933964 0.059351183 0.03622081 -0.36062032 -0.1660948 -0.15686205 -0.29111502 0.034550566
0.15292706 -0.042803507 -0.01749011 -0.066497765 0.0414594 0.06616397 0.17359428 0.26643696
0.037838317 0.14568411 -0.20154996 -0.082990065 -0.35190234 -0.29394677 -0.15492848 -0.015690442
0.06281544 0.0060782614 -0.024159431 -0.042692922 -0.08702301 -0.1369358 -0.01558718 -0.42568296
-0.104098946 -0.41699183 0.02881021 -0.15074113 -0.092683546 -0.09506279 0.043994803 0.067390434
-0.18843521 -0.050015457 0.11447102 0.101794556 -0.053471174 -0.00890041 0.018347917 -0.0587686
-0.18883671 0.063030675 -0.2592934 0.06422345 -0.08141329 -0.05913592 0.036494058 -0.12509312
-0.103977464 -0.12676886 0.04430029 0.19435804 0.16316067 0.08574184 -0.19479866 -0.060264338
0.16618899 -0.1635335 -0.167596 0.06642768 -0.13106924 -0.23114605 0.059231322 0.14472221

conv5.bias f4 [32]
00000000: 6c75 fb3d 2f2e 23bd b2a2 d9bd c764 0bbd
00000010: 8218 69bd 4514 21bd 04d3 0fbe 50cd b5bd
00000020: 5a3d 27bd 0a5a 153c 7075 6dbe 7b69 ddbd
00000030: a808 0cbe d69c 44be f3f0 b43c 71e1 cc3c
00000040: 5a4d 313d abcf 473d 2247 47be 4b77 42be
00000050: 4718 9d3d bce4 65be 63cf 8abe cddb 03be
00000060: 0857 87bd 45e5 9b3c c8a6 92be 93a9 a63c
00000070: b3af 2dbe b309 0d3d e14d acbe fc60 b03d
0.12278256 -0.039838966 -0.10626735 -0.034031656 -0.056908138 -0.03932597 -0.1404534 -0.08877051
-0.040829994 0.009115705 -0.2318933 -0.108111344 -0.13675177 -0.19200453 0.02208755 0.025009843
0.04328666 0.048782032 -0.19460729 -0.18990819 0.07670646 -0.22450536 -0.27111349 -0.12876816
-0.06608397 0.019030223 -0.2864287 0.020344531 -0.16961555 0.034433078 -0.33653167 0.08612248

conv6.weight f4 [32, 32, 5, 5]
00000000: 2fec 72bc d780 ec3b 8c04 d93d bf7c 38bd
00000010: 386b da3c 1ea8 b73e c855 b53e 889b c43e
00000020: b99e a83d d199 45bb 2e2f 383e 52a8 463b
00000030: 262b 203d 01a0 c13c 4f86 edbc 3762 d23d
00000040: 80ab ccbd c9f4 50be 3952 38be 7fcd 55be
00000050: a9d9 0e3d 978e c5bc 5d7b 6ebd 56ba 0abe
00000060: a5e1 fcbd fe93 5e3e 7a31 543e 2d2c da3d
00000070: e965 dabd ce35 08be ed43 ffbc b5b7 20bd
00000080: 04da 6a3e a3b3 853d e37a c13d 93de 64be
00000090: 3181 d2bd 2bef 043e b136 0e3e 82e0 3cbd
000000a0: f781 6fbe cd19 74bd 6f76 163e 8f14 fbbd
000000b0: efd0 a2be 6546 063d 501a d53d c2c3 41bd
000000c0: c797 d6bd c11e 953d a240 373e 8356 2bbe
000000d0: f8fe d33c fff4 66be da29 83bd 18a7 2e3d
000000e0: 625c 7d3e 596e 133e 5f6f 9fbd e27f f2bd
000000f0: 5da4 75be 0587 33be 2822 c1bd d10a a6bd
00000100: 9e38 53be 6fd6 94bd 88ca d6bc 9f3b 753d
00000110: f4a6 1b3e eab9 afbe 0782 2e3e 755a fb3d
00000120: c525 42bd 0489 f0bd 40c0 93be 8ff1 183e
00000130: 731f 6c3e 9416 503d e4c9 8dbb 3cec b5be
00000140: 64d4 9c3c 1f53 20bd 0c71 9b3e 9e18 de3d
00000150: 77d5 85bd fdb8 edbc 2ecc a13e 3515 373f
00000160: 8935 bf3e abe2 8a3e b38d 3cbe e197 793d
00000170: 0433 553e 61cc 66be 05da 49be 1a0d aa3e
00000180: 8a61 5fbe 3830 9d3e 5885 373e 76cb b2bc
00000190: 65ff 75be f524 0dbd 6f34 50bd d68b 6f3c
000001a0: ced1 303e dc93 15bd 2bde 39be 42a9 04be
000001b0: 2dc6 dd3c 6f88 873d cf7b 623d d3a0 c23d
000001c0: 9855 a83a 9213 493d b6fe 7f3d c4e1 073e
000001d0: 8d69 483e 972d 8b3e 575f 57be 6af8 aabe
000001e0: 4e73 bb3d 0b97 b13d 3d3e 283e 91cd 3d3d
000001f0: de73 2ebd 79b6 383d 1714 193e 1724 cabc
00000200: 2705 b3bc a514 153e 7eb3 453e fdd0 783d
00000210: 7c86 9fbc 9dbb 74be 703b 32be 8da7 e4bc
00000220: e051 4a3e e84b aa3e 860f a33e a7e2 2f3d
00000230: b00d 413d 4fbc 7a3e cc9b 9a3e 7be6 30bc
00000240: 9769 4b3e 8466 493e c11f 053e e3a9 7e3d
00000250: af87 85bd 81d7 753a 3916 5abd 989a 1abe
00000260: 7f43 babd 732a 7b3c 3032 19be d916 7c3c
00000270: e25f 063e f6ec a1bd c5a1 49be 19a5 9dbe
00000280: 7865 4a3c e685 893e a421 803e 0ab9 e63d
00000290: 904f dd3d 60ba 2ebe e4d9 c3bc aada 0fbd
000002a0: 58cd a03e 3daa b53e 06e4 643d 5191 85be
000002b0: 97b4 b2bd 7389 acbd 8d18 423e 0627 b2be
000002c0: 5fa2 93be 00d8 27be 81d2 87be 15ce e4be
000002d0: f67c 29be b4ae 9bbe 6f40 1bbf f10d 68be
000002e0: 0ee4 a1be 736e 163e 0675 c1be 5745 29be
000002f0: dacb f3bc 6be0 633d 1bd7 fd3d 5a71 1dbe
00000300: 4005 14be e18b 173e 94b3 283e 5e59 8a3d
00000310: 433e 74be 18b6 27be e776 44be 6a1b c13d
00000320: d40a 46be 901d 233e a889 d43e de93 7b3e
00000330: 9990 99bd e6aa bd3d aead de3c 16b8 91bc
00000340: 1dbe 45bd 2249 08be 677f 95bd bcf1 9d3d
00000350: cf2d 1d3e 6ea5 c23e 9f82 af3e 9116 0a3e
00000360: 8e22 eb3d c8d9 833e 3af4 953e 57a6 b43e
00000370: e347 043e 8cc7 d23d d210 5e3e 20b7 c23d
00000380: fc7c 1ebe 510c e13d 4f0c 5bbe ebc5 05bd
00000390: 987b a6bd e75e f5bd 5067 063d 6a2f 1ebe
000003a0: 00a9 a63c 44c9 de3d acf7 62bb 7f4d f4bd
000003b0: 8cde 52be fc32 4abe cbab 0fbe 0016 1cbe
000003c0: 14f8 073d 01de 68be 3c83 02be 9e55 f0bd
000003d0: 3665 51be 3b87 f5bd 5b3d 2abd 7abc 24be
000003e0: 62d4 64be c0fb 4dbe 8963 bcbd 1a84 4bbe
000003f0: d864 1c3e d72e ed3b 542f f53e daae 513d
-0.014826818 0.0072175073 0.105965704 -0.045040842 0.026662454 0.3587045 0.35417008 0.3839991
0.08233399 -0.0030151496 0.17986748 0.003031273 0.03910365 0.023635866 -0.028994707 0.10272639
-0.099936485 -0.20405878 -0.18000115 -0.20879172 0.034875546 -0.024115844 -0.058223117 -0.13547644
-0.12347726 0.21736142 0.20721999 0.10652957 -0.10663969 -0.13301775 -0.03116032 -0.039237697
0.22934729 0.065284036 0.09447267 -0.2235053 -0.102785476 0.1298186 0.1388805 -0.046112545
-0.23389421 -0.059594918 0.14693616 -0.122597806 -0.3180003 0.032781977 0.10405409 -0.04730583
-0.10478168 0.072812565 0.17895749 -0.1673222 0.025878415 -0.22554396 -0.06404467 0.04263982
0.24742272 0.14397563 -0.07784914 -0.11840798 -0.23988481 -0.17531975 -0.09430343 -0.08107532
-0.20627066 -0.072674625 -0.026219621 0.059871312 0.15200406 -0.3432153 0.17041789 0.12273113
-0.0473993 -0.11744884 -0.28857613 0.14935897 0.23058872 0.050802782 -0.0043270458 -0.35531795
0.019144244 -0.03914177 0.30359685 0.10844539 -0.06534856 -0.029018873 0.3160109 0.71516734
0.37345532 0.2712606 -0.18413429 0.06093586 0.20820242 -0.22538902 -0.19712074 0.3321312
-0.21814552 0.3070085 0.1792196 -0.021825533 -0.24023207 -0.034459073 -0.050831255 0.014620742
0.17267534 -0.036517963 -0.18151157 -0.12955192 0.027072037 0.066178195 0.055293854 0.09503331
0.0012842892 0.04909093 0.06249877 0.13269717 0.19571514 0.2718322 -0.21032463 -0.3339265
0.09152852 0.08671387 0.16429992 0.04633862 -0.04259097 0.045095894 0.1494907 -0.024675412
-0.021853043 0.14558657 0.19306752 0.06074618 -0.019473307 -0.23899694 -0.17405486 -0.027911926
0.19757795 0.33261037 0.3184778 0.042940762 0.047132194 0.24485897 0.3019699 -0.010797138
0.19864498 0.19668013 0.13000394 0.062173735 -0.0652002 0.0009378121 -0.05324385 -0.15098035
-0.09094905 0.015329945 -0.14960551 0.015386307 0.13122514 -0.07906525 -0.19690616 -0.30790022
0.012353294 0.2685997 0.25025666 0.11265762 0.10806191 -0.17063284 -0.02390761 -0.035120644
0.31406665 0.35481444 0.055881523 -0.2608743 -0.08725851 -0.08424654 0.18954678 -0.34795398
-0.28834817 -0.16390991 -0.2652779 -0.44688478 -0.16551575 -0.30406725 -0.6064519 -0.22661568
-0.31619304 0.1469057 -0.37784594 -0.16530357 -0.02976029 0.055633944 0.12394544 -0.15375271
-0.14455128 0.14799453 0.16474754 0.06755327 -0.23851876 -0.16378057 -0.19185983 0.09429057
-0.19340068 0.15929246 0.41511273 0.24568126 -0.07498283 0.09261112 0.027182426 -0.017787974
-0.04827701 -0.13309148 -0.07299691 0.07712123 0.15349506 0.38016838 0.34279343 0.13485171
0.114812 0.2575209 0.29287893 0.35283157 0.12918048 0.10291967 0.21686104 0.095075846
-0.15477365 0.10988677 -0.21391414 -0.032659452 -0.081290424 -0.11980992 0.03281337 -0.15447775
0.020344257 0.10878232 -0.0034632487 -0.11928844 -0.20592707 -0.19746011 -0.14030378 -0.15242767
0.03319557 -0.22740938 -0.12745374 -0.1173508 -0.20448765 -0.11988684 -0.04156242 -0.16087523
-0.22346643 -0.20115566 -0.09198672 -0.19874611 0.15272844 0.0072382498 0.4788767 0.051192142

conv6.bias f4 [32]
00000000: 3d5c 80be 4a28 91be 7a6e 5cbe 682f 1dbd
00000010: 815b 6e3e bebc 6cbe 6222 43be 4218 95be
00000020: 4468 c1bd ecae a2be eb1a 2abe bfd1 78be
00000030: a5c7 03bf 6cb0 95be 5a3e b3be 2920 c73c
00000040: 890f c7be c610 283e a575 dcbd 5c9d 573e
00000050: bfca 40be f859 5abe e9f7 95be 1543 873e
00000060: 8e4a a0be fade 83bd 3d27 23be 0392 a0be
00000070: ae58 98bd 45fc 933d 5658 5bbe 8664 c9bd
-0.25070372 -0.2835105 -0.21526518 -0.03837529 0.23277093 -0.23118874 -0.19056085 -0.2912007
-0.09443715 -0.3177408 -0.16611831 -0.24298762 -0.5147651 -0.29236162 -0.35008508 0.024307327
-0.3887904 0.16412649 -0.107646264 0.21056122 -0.18827341 -0.21323383 -0.29290703 0.26418367
-0.3130688 -0.06439014 -0.15932937 -0.31361398 -0.07438789 0.07225851 -0.21420416 -0.098336264

conv7.weight f4 [32, 32, 5, 5]
00000000: a08f 69bd 4be2 77bd 82c7 b8bd 2d3d 68be
00000010: f4fa 8bbd a63c 18be 0b28 91bd 0777 db3d
00000020: ba9c ab3d 8256 5b3e c8e1 bf3c 72ab 25bd
00000030: efa6 163e bc5a 12bd 4f50 a1bd a43f 31bd
00000040: b0ac ca3d 112b 79bb 6d02 563d 53ac fcbd
00000050: fdad 843e 0795 543e 96b7 823e 7978 f83d
00000060: 32d3 e2be 2c53 0abe e334 873e ad22 673d
00000070: 3b15 ab3d de49 803d a1d7 8c3c 9c1b bc3d
00000080: 974b 64be a3b7 82be 8b82 92bc e943 33bd
00000090: 8c23 353c fb9c 1cbe de1b 8abe 03f6 81be
000000a0: 7ae7 9fbe 4908 9b3d 25a6 54bc 0d30 3cbe
000000b0: 76bd ffbc c1d8 e5bd 22af 0f3e de9d 343e
000000c0: 6cf4 07be b045 c6bd 1049 313e f0f2 4b3e
000000d0: 5cd5 38be 5416 f93d 85c3 f03d 0bbd b1bc
000000e0: 97ee 8d3e e89a 13bd c9c6 85bc 0867 9b3e
000000f0: 7bc6 2a3d 18a1 753c a178 0dbe 9ff7 dd3c
00000100: e6d8 013e 0c9a 763e cc4f 353e bfcf b9bd
00000110: a5f1 523d fe16 81be 4fbe 8b3e b86c 1f3e
00000120: 888c 3f3c ca91 97bd 771b 91bd eab4 6bbd
00000130: 2a3b b3bd 26bd 14be e558 66be a2c7 3a3e
00000140: 97d5 1ebd 71d0 96be da9d 05bf c72b 05be
00000150: 8f66 7ebd e59c 413e 581b e2bc 1325 5dbe
00000160: b3f3 a7be 5f7b 6d3d cef2 ad3d f266 adbd
00000170: 87bf 25be 9095 893c d50b bf3d dcc1 4a3e
00000180: 1c8d b53d 0313 8abc 959c 913d a26f d93d
00000190: 5e84 5e3e f82e f73d e706 093e 99d8 51be
000001a0: 9012 02be cb24 ac3d d80e 163d 3020 09bc
000001b0: 9add bcbe 1f64 aabe b206 b6bd fdce f1bc
000001c0: d89a b93c 948b 9e3d 8a51 823e 5edf 043e
000001d0: 7e36 5e3d c97a aebe a96b 22bd 36a9 493d
000001e0: ad29 8b3e 14a9 13be ba4b 3cbe 32d4 0a3e
000001f0: 173c b93e d7d4 893e 23e5 6c3d ef90 b53d
00000200: 3085 a9bd 61e3 233b 0770 253e e2d7 17be
00000210: eeec 02bd bb3e 2fbd 7b39 7f3e 8828 6e3c
00000220: dafc de3d 5244 acbe 79b1 08be 1b0d 133e
00000230: 8e84 343e cf4c 8dbc b847 b8be 2fa0 85bd
00000240: e657 f43d df25 4e3e b628 a2bd 55c1 7dbe
00000250: 0ee8 a13d c7d7 1e3e b222 b93d 5bc5 663d
00000260: 16e5 84bc ad4e 7e3d dbd7 33bd 8de2 4f3e
00000270: 41ce 09be 1a7d 8fbd 6cda 1c3e 610c 043d
00000280: 1528 213e da60 213d 8966 02be 8c5b c53d
00000290: e284 9fbd c560 693d 11a2 513e 14de 25bd
000002a0: 353b d23b e0d5 f83d 6fad 8bbd d424 1fbd
000002b0: b9f9 1cbe aa14 64bd 8f81 903d a80a 843c
000002c0: c65e 003d 150c 5a3e 0aef 953d 8539 8c3d
000002d0: c641 193e 2d10 873e 38ef d43e 34e2 b83e
000002e0: 51b7 9c3e 51d8 0b3e 9b26 7e3c 4ba6 9abd
000002f0: 72fe 793e 8194 853d 21f6 103e 8686 bf3d
00000300: b9f5 77be 8ea3 7abe e107 8cbe 39c7 4e3e
00000310: f321 863e a665 963e a779 2cbd f85f 5dbe
00000320: 0542 c43c a27c 093e 588f 61bc 589f 533d
00000330: ba09 f33b 7dee 0abe 9916 503e e394 2b3e
00000340: a377 e73b ea58 4bbe f75d 8dbe 15ad c0be
00000350: a774 553b 21e9 1e3e 26d6 26be e978 083e
00000360: 69d6 803b cd8a 0fbe a321 99bc 923f afbe
00000370: 603e 603d ac41 563e 96be ad3e 93f7 7b3e
00000380: da96 c3bd f71c 0b3e d91f 593d a515 02be
00000390: da6a d2bd 12ad 363d ab57 173e 1b19 673d
000003a0: f4ad a53d 338c 0a3e 3a63 7e3e d047 7d3e
000003b0: e8d5 d83e 1677 523d f4b3 033c 441e 473d
000003c0: cc2f 6dbe 2f6d 82be af99 47be e456 3b3e
000003d0: 8a67 a23d b5ca a2bd 6e05 c5be 76c7 06be
000003e0: a1bd dc3c 3a53 8a3d 16d8 863e e405 d33d
000003f0: 89ad 36be d39d 0bbe 22b5 e6bd 7e91 5dbd
-0.057021737 -0.060518544 -0.09022428 -0.22679587 -0.06834975 -0.14866886 -0.07087716 0.10716062
0.083795026 0.21419719 0.02342309 -0.040446706 0.14712118 -0.035731062 -0.07876646 -0.043273583
0.09896219 -0.0038020054 0.052248407 -0.12337556 0.25913993 0.20759974 0.2553069 0.12132353
-0.44301754 -0.1350829 0.26407537 0.056429554 0.08353659 0.06264089 0.017192664 0.091849536
-0.2229446 -0.2553073 -0.017884513 -0.043765936 0.011055838 -0.15294258 -0.26974386 -0.25383005
-0.3123129 0.0756994 -0.012979065 -0.18377705 -0.031218272 -0.11222983 0.14031652 0.17638347
-0.13276833 -0.096812606 0.17313027 0.19916892 -0.1805014 0.12162462 0.117560424 -0.021696588
0.27721092 -0.036036402 -0.01633014 0.30352044 0.041693192 0.014992021 -0.13815548 0.027095614
0.12680396 0.24082202 0.17706221 -0.090728275 0.05149998 -0.25212854 0.2729363 0.15568817
0.01169122 -0.07400854 -0.07085317 -0.05754558 -0.08751519 -0.1452528 -0.22494848 0.18240216
-0.038777914 -0.29455903 -0.5219399 -0.13004981 -0.062109526 0.18907507 -0.02760093 -0.21596174
-0.32803115 0.057978984 0.08493577 -0.08466901 -0.16186343 0.01679495 0.09328429 0.19800514
0.08864805 -0.016854769 0.07109944 0.106169954 0.21730182 0.120695055 0.1338154 -0.20492782
-0.12702394 0.08405455 0.03663525 -0.0083694905 -0.3688782 -0.3327951 -0.08887996 -0.029517645
0.022656843 0.07741466 0.25452834 0.12975833 0.054251187 -0.34078053 -0.039653454 0.049233638
0.27180234 -0.14419967 -0.18388262 0.13557509 0.36178657 0.26920196 0.05783571 0.088655345
-0.082773566 0.0025007355 0.16156016 -0.14828447 -0.031964235 -0.042784434 0.24924271 0.014536031
0.10888071 -0.33645874 -0.1334895 0.14360468 0.1762869 -0.01724854 -0.35992217 -0.06524693
0.11930828 0.20131634 -0.07917921 -0.24780782 0.07905589 0.15512 0.09039821 0.056340557
-0.016222518 0.06208675 -0.043907028 0.20301266 -0.13457586 -0.07006283 0.15317696 0.032238368
0.15737946 0.039399005 -0.12734427 0.09636602 -0.07789017 0.056977052 0.2047198 -0.040494993
0.0064157494 0.121501684 -0.06820189 -0.03885348 -0.15329637 -0.05568377 0.07055961 0.016118363
0.031340383 0.21293671 0.07320984 0.068469085 0.14966497 0.2637953 0.4158876 0.3611008
0.3060861 0.13656737 0.015512134 -0.07551249 0.2441347 0.065224655 0.1415639 0.0935183
-0.2421483 -0.24476454 -0.2734976 0.20193185 0.26197776 0.29374427 -0.042108204 -0.2161864
0.023957262 0.1342645 -0.013767086 0.051665634 0.007416931 -0.13567539 0.2032112 0.16756015
0.0070638224 -0.19858137 -0.27610752 -0.3763205 0.003257075 0.15518619 -0.16292629 0.13327374
0.0039318097 -0.14017792 -0.018692797 -0.34228188 0.054746985 0.2092349 0.33934468 0.24606161
-0.09550257 0.13585268 0.053008888 -0.12703569 -0.102742866 0.044598646 0.14779536 0.056420427
0.080898196 0.13530044 0.2484254 0.24734426 0.42350698 0.0513831 0.00803851 0.048612848
-0.23162764 -0.25473925 -0.1949222 0.18294865 0.07929905 -0.079488195 -0.38480705 -0.13162026
0.02694589 0.067541555 0.26336735 0.10303858 -0.17839636 -0.13634424 -0.11265017 -0.05409383

conv7.bias f4 [32]
00000000: dbd1 33be c1a0 a03e a905 693e 8020 6e3c
00000010: 5663 303e 235a 94bc 2197 763e dff1 13be
00000020: bf4e b53e 2b07 c53d e4da d83d 17de 383e
00000030: ce24 f73d a096 e03d c1e0 083d 73c0 1d3e
00000040: f3b1 053e 3d20 493e e80b 383d 8d8b 003e
00000050: 87a8 49bd 362d 143e b168 d73e 7110 e43e
00000060: 6cec 4fbe 560d 593e 60d1 a2be 1bd0 323e
00000070: 8d32 0dbe b1fb 3dbe 1f31 5e3e d1dd 423d
-0.17560522 0.31372645 0.22756065 0.014534116 0.17225394 -0.018109387 0.24081089 -0.14447735
0.3541164 0.09620508 0.10588625 0.1805347 0.12067567 0.109662294 0.033417467 0.15405445
0.13056163 0.19641204 0.04493323 0.12553234 -0.049232986 0.14470372 0.4207206 0.44543794
-0.20305032 0.21196494 -0.31800365 0.17462198 -0.13788815 -0.18553044 0.21698426 0.04757482
