models/DQN_random_kaggle.pth (torch, 916528 bytes, 22 tensors)

conv1.weight f4 [32, 1, 5, 5]
00000000: 937f a23e c3d7 07bf 4d59 9bbe fe16 763d
00000010: cef2 4abe 6277 0d3e afbc 21bd a30d 39bf
00000020: 8aa2 7a3c ce24 44bf 0442 d1be c3de 27be
00000030: c37d 863e 62de 873c 187f 12bc 926f 03bf
00000040: 292b f13d 0caa 97be 917b c8be 572f 07bf
00000050: b7d3 e6be 233f 8cbd 72d1 26bf 42fa 623e
00000060: 6d43 bb3e 0d17 e73c 5054 993e 3035 ecbe
00000070: b388 64bd 9bed 16bf f737 7e3c 0bba ca3e
00000080: 0d78 a63e c2c3 f3be 534f b0be 8251 1f3d
00000090: 3b4a a0be 96cd 52be 7826 70be beed 81be
000000a0: 20a8 c6bb a584 4f3e 97fd d8bc 500b 43be
000000b0: efd5 f3be b120 04bf c4ef 083f 5056 053e
000000c0: 7669 113d 6e06 e8be f027 153e 5b26 96be
000000d0: 3662 2b3e 8726 8dbe 44c0 783e 46d9 45bd
000000e0: bd3d 1b3e 9d3d 90be 18c6 bebe 4ee7 86be
000000f0: 0d31 d23e 7f75 ccbe 460a c6be 46b9 0f3e
00000100: 4f42 18bd f099 10bf e6e1 4cbe 6df8 a43e
00000110: 9544 06be d3b6 853e 6fc8 6c3c c5a2 893e
00000120: 3726 87be 938d c7be fda8 dc3e 1dfb 0e3e
00000130: 6a7e 28bf 566e 54bd d521 1b3b a837 243f
00000140: 86df 7d3e 0213 96be cd04 a73e bb76 fabe
00000150: 6d11 11be 359b 813e cf2d 8dbe 2b7a c1bc
00000160: 6cb5 3a3d 72c2 15bf c3e2 e1be 2cbe 503e
00000170: bc44 733d 02fd 5b3e 3302 c83c 82cc d2be
00000180: 81f8 8e3e 0739 933d 1a40 d8be a848 483e
00000190: 2d2c 623e 7864 fdbe 05c2 943e 1fab 1dbe
000001a0: 633a 973d 75fd 19be 4b3e a13e b4d6 45bc
000001b0: 264d 0f3c 1262 4cbb 31e6 d4be 95b0 00bf
000001c0: df40 81bd de0e 853e 41a7 e2be 004f fb3d
000001d0: 29de febd e563 be3e d1c8 b0be ddb2 21bf
000001e0: b8b5 9bbe da00 50bf 592d e3be 4148 be3e
000001f0: 0124 68be 4a19 093c 55f3 aebd 3b54 dd3e
00000200: fa0b d43d a057 9b3d 556e e53e 93eb 9dbd
00000210: c422 d2bc 6668 b63e 9aa3 003e 1ab0 40bc
00000220: 7055 3ebf 9838 933d 0584 c3be 7339 fe3d
00000230: 9c41 ea3d c6fa 8cbe 56bc 05bf fd4b 443d
00000240: 96e3 0d3f adea 9e3d a191 02be 4d02 18be
00000250: 3e20 8c3e d27a bcbe 8f93 003d ac56 6e3e
00000260: 5854 27bf f1a7 69be a8f7 febe 5b57 af3e
00000270: b9ed 1abe a025 b4bd 9632 0f3f f1f0 7bbf
00000280: 2d55 0abe af5d 21bf 6ff6 b1be 8092 cb3c
00000290: de4b db3d e705 0cbe 98ad 03bf 4f19 38be
000002a0: c6a6 353e 6774 c9be 53e2 1e3e d707 d1be
000002b0: 5720 313b 7768 2b3a 6106 6abe 83f9 0b3f
000002c0: 05e5 9dbe 18af 993e 0ded cdbe 25ea 4d3d
000002d0: 5162 893e 32c5 bdbd 4edb a2bd 56d4 183e
000002e0: 04f4 2d3f d8b8 05bf 7a8a db3d 630e 9cbe
000002f0: e06c 90be 1540 943e 8b8b 59bd 8b39 3ebe
00000300: 7a44 1abe aff7 96be 5d6a 12bf 7dc4 59bd
00000310: 3d44 bfbd 0546 653e cbb6 ebbe 1b79 b03e
00000320: 6a61 8dbe 31aa 7fbd 2fb7 08bf 489e 393e
00000330: aeb7 9abf a8ef 8a3e 9248 463e eb35 0abf
00000340: cf0e 103e 9959 e8bd e67b 1a3d abbd d7be
00000350: 9dc5 82be 7fa3 98be 9aba 2f3f 6044 a53d
00000360: 10eb 36bf 5ec1 eabc 286d 96be abc5 eebd
00000370: 9e5f 303e f2be eb3d bc3e cfbd f302 593e
00000380: 6638 43be a564 883e e4de 84be 5173 93be
00000390: 75ef 8cbd 7777 ccbd 20bb 10bd 89c4 4cbe
000003a0: 21fe cfbe 10d3 f1bd 9dbc 88be b306 c43e
000003b0: 4cf1 363e 6b00 e03e f4a9 1dbf 9843 2abd
000003c0: 0929 21be 709e 84be 61f7 fe3d 87a1 2ebf
000003d0: bc4b 9cbe a23c 7e3e 9e10 46be 2377 bcbe
000003e0: 25fc 13bf 63b6 843e 2ed1 34be 3a94 d5bd
000003f0: feb9 e1bd 919f 0abd 5b1e 8f3e b5fc ddbe
0.31737956 -0.530636 -0.3034157 0.06008052 -0.19819185 0.13815072 -0.039486583 -0.72286433
0.015297541 -0.7661866 -0.40870678 -0.1639357 0.26267824 0.016585533 -0.008941434 -0.5134212
0.1177581 -0.29621923 -0.39156774 -0.5280661 -0.450834 -0.0684798 -0.6516334 0.22165778
0.3657488 0.028209234 0.29947138 -0.4613433 -0.05579443 -0.5895631 0.015516273 0.39595065
0.32513466 -0.4761029 -0.3443552 0.03889609 -0.31306633 -0.20586237 -0.23452175 -0.25376695
-0.0060625225 0.20265444 -0.026488109 -0.19047284 -0.47624156 -0.51612383 0.53490853 0.13021207
0.035500966 -0.45317405 0.14566016 -0.29326138 0.16736683 -0.27568457 0.24292094 -0.04830291
0.1516027 -0.28172007 -0.3726051 -0.26348346 0.41053048 -0.39933392 -0.38679713 0.1403552
-0.03717261 -0.5648489 -0.20008048 0.32220784 -0.131121 0.26116046 0.014452084 0.26881996
-0.26396343 -0.389752 0.43097678 0.1396298 -0.6581789 -0.051863037 0.0023671289 0.64147425
0.24792299 -0.29311377 0.3262085 -0.4891871 -0.14166804 0.25313726 -0.27574012 -0.023617825
0.045583174 -0.58499825 -0.44118318 0.20385045 0.059391722 0.21483234 0.024415111 -0.41171652
0.27923968 0.071886115 -0.42236406 0.19558966 0.22087164 -0.49490714 0.29054275 -0.15397309
0.07384183 -0.15038092 0.31492838 -0.012075115 0.008746421 -0.0031186384 -0.41581872 -0.5026944
-0.06311201 0.25987905 -0.4426823 0.122709274 -0.124447174 0.37185588 -0.3452821 -0.6316355
-0.30412078 -0.812513 -0.44370535 0.371645 -0.22669984 0.008367846 -0.08542506 0.43228325
0.10353847 0.075850725 0.4481074 -0.07710948 -0.025651343 0.35626525 0.12562409 -0.011760736
-0.7434912 0.07188529 -0.3818666 0.12413301 0.11438295 -0.27535075 -0.522405 0.04792403
0.55425394 0.077596046 -0.12750866 -0.14844628 0.2736835 -0.36812454 0.031390723 0.2327525
-0.65363073 -0.22817971 -0.49798322 0.34246334 -0.15129746 -0.08796239 0.55936563 -0.9841452
-0.13509054 -0.63033575 -0.34758326 0.02485013 0.1070783 -0.13674127 -0.5143676 -0.17978404
0.177394 -0.3934662 0.15516023 -0.40826294 0.0027027333 0.0006538699 -0.22853996 0.546776
-0.3083879 0.30016398 -0.40219918 0.050272126 0.26832822 -0.09266128 -0.07951985 0.1492475
0.67950463 -0.52235174 0.10719772 -0.30479726 -0.28208065 0.2895514 -0.053111594 -0.18576638
-0.15065184 -0.29485843 -0.5719355 -0.0531659 -0.09339187 0.22389992 -0.46037897 0.34467396
-0.27613384 -0.062418167 -0.53404516 0.18126786 -1.2087305 0.27135968 0.19363621 -0.5398852
0.14068149 -0.113452144 0.037715815 -0.42136893 -0.25541392 -0.29812238 0.68644106 0.08069682
-0.71452427 -0.028656658 -0.29380155 -0.11658796 0.17223975 0.11511029 -0.101193875 0.21192531
-0.19064483 0.26639286 -0.25951302 -0.28798917 -0.0688161 -0.099837236 -0.035334706 -0.19996847
-0.40623572 -0.11807835 -0.267064 0.3828636 0.17865485 0.4375032 -0.6158745 -0.04156837
-0.1573831 -0.25902128 0.124495275 -0.6821522 -0.3052653 0.24827817 -0.19342276 -0.36809644
-0.5780662 0.259204 -0.1765792 -0.104286626 -0.11021803 -0.03384358 0.27952847 -0.43356863

conv1.bias f4 [32]
00000000: 68fd 7c3e 9626 d6be 5ff6 ecbe 13be 00bf
00000010: 00e1 843e ec2b dabe 0024 2d3e c29a 82be
00000020: aada afbe 2f3d 87bc 2a60 b43c 43f5 b2be
00000030: 5211 38be 67e1 82be 9cc3 1ebf a4b1 1dbe
00000040: 58e2 8a3e b3a4 96be 85bc d7bd 9206 b3bd
00000050: 4a83 27bf c9ea 40be eb33 b73d 234d f1be
00000060: 0ac1 33bf e19a c2be feb2 d6be 279d 1b3f
00000070: 96a0 2bbe 8b4c 06bf 4242 cabe d23f 29be
0.24706042 -0.41826314 -0.46281716 -0.5029003 0.2595291 -0.42611635 0.16908264 -0.25508696
-0.34346515 -0.016508667 0.02201851 -0.34952745 -0.17975357 -0.25562593 -0.62017226 -0.15399796
0.27125812 -0.2942253 -0.10534004 -0.087414876 -0.65434706 -0.18839563 0.089454494 -0.47129163
-0.7021643 -0.38008788 -0.41933435 0.6078667 -0.16760477 -0.52460545 -0.39503676 -0.16528252

conv2.weight f4 [32, 32, 5, 5]
00000000: b10d 13bf 5ffc 92be bb93 b7be 23cc dbbe
00000010: 54b4 c5be 39ff c13e 649f c73e c638 bbbc
00000020: 420e 283e 6d20 f6be e00e 133e 0ff4 48be
00000030: 87b7 8abe a4f1 3cbc ac77 2cbf 13fe d7bc
00000040: 16b3 9e3e 6617 2c3d 0f2f 9bbe 9116 3a3e
00000050: 5e22 a0be f9f3 cd3e 1fb9 a7bd 4286 70bc
00000060: 0cf4 603d 54b1 bd3e 03ba 3c3e 5bbf 6bbf
00000070: 00d5 4b3c 534a 65be af4d dd3d 2e4e dd3e
00000080: c8de 33be 8a2d 53be 6e6f 8f3e c077 313e
00000090: 850b bc3d 6854 b43b 7ae4 b4be e2d6 2c3f
000000a0: 3386 bc3d 2e8a 8b3e dc60 263f 15e0 99be
000000b0: 2ebe 38bf 2678 443c 4482 44be d8f8 cebd
000000c0: c03f b1be 18b9 84bd 62f6 aa3c f9f0 3dbe
000000d0: a243 973c 12a8 0cbe c220 a5bd 911c 033e
000000e0: 6c9d fdbc 9934 ec3e e1db 44bd 6e6e 023b
000000f0: 2f7d c23e c3bd 193e ee3f 15bf cc77 30be
00000100: 8e76 3fbe 2c56 b0bd 8570 dd3d ae01 d53e
00000110: e445 fe3d affa e53d 1853 43bf 5572 09be
00000120: 2754 cbbe 31cd 5b3d 40ad 8fbe 911c 043e
00000130: 171a 823c 81dd 083c 78ff bebe eb66 5cbe
00000140: f9ef 81be 6d8c 2b3e 08c8 51be 72b1 59be
00000150: 1aed 963e 4922 8bbf 8e5f 4d3e 9e31 093d
00000160: 72c5 98bd bd6d a33e f260 bfbe b875 b0be
00000170: 682e 94bd a197 d93d 7407 6abd 0a28 a5be
00000180: c7d6 09bd d140 0bbd 69a5 38bf 0ff9 a43d
00000190: 5bc6 11be 91c5 3abf 930b a13d 18b2 d4be
000001a0: 2379 06be 3703 f03d 7a1b a6be c8f0 4abe
000001b0: c4d6 013e 3d93 08bf 4ae7 e6bc 505e 393d
000001c0: 8623 bebe e765 86be 495b 27be 7b2c a53d
000001d0: 27a2 313f 6eb8 06bf d35a e0bd 3d39 ccbd
000001e0: 182b 15be 2553 f8be 771f c4be 100d 45be
000001f0: b666 f63e 1d56 0d3f 2c0b 393d 1270 203e
00000200: 9f9e ed3d a24f f3be ff5f c6bb 9e41 8fbe
00000210: 856d 47bf 17f6 a4be 35e5 b7be 4cf4 653e
00000220: 4446 5fbe 57d4 f83d 9427 83be 62af 91be
00000230: dd78 d9be 9cf5 cabd 2223 3c3e 469c 693e
00000240: e075 c9bd 8e3e 863e 5f7d 9dbe 28e7 883e
00000250: eea1 1bbd bce7 7c3d 7160 303d 0633 99be
00000260: f060 cebe f256 92be b2f0 68be 0ec0 f13d
00000270: bc1e b7be 5013 e73e f267 17be fccb 0ebf
00000280: 59f2 763e 7084 ba3e 566b a1be 1a50 833e
00000290: 7c98 e03e 4d21 2e3e a92b 13be 7198 00bf
000002a0: b4ba 65bf c555 633e 6753 ccbd b898 f1be
000002b0: d891 473e 7081 b4be 4a92 10bf 87ee a9be
000002c0: 1271 bfbe ad80 583d 73f9 6dbe 624d b6be
000002d0: 9730 d6be c112 3a3e 83e7 1abd 8af6 803d
000002e0: 2149 50be 27fa 963d 9b37 17bf 5080 dfbe
000002f0: 5a98 013f 6983 03bf 915d 2dbe 790c 033c
00000300: 4c0f 8fbe 08e8 cbbe 8dad 22be d9e3 a4be
00000310: 9552 573e eaa8 ff3d 0021 6dbe 78a9 82be
00000320: 811b 023d 9365 7a3e 7019 583e a7f5 f5be
00000330: 3049 f8be 89c7 3a3d 572d debe e278 8d3d
00000340: 1fac 4cbe 4fa6 a5bc c65a 07be 72ca 923e
00000350: d856 efbe 624b ff3d 9c00 d13d b8e0 5e3e
00000360: 585b 143e 39e3 7f3e 983a 1cbe 6897 333d
00000370: 5947 ee3d ad41 7d3e ffd7 6ebd 8c9f 77be
00000380: 5d99 25bf 9723 b7be d8e9 0b3e 54d3 50be
00000390: d867 a3be a07e a13c a0ac e9be fc8d fe3d
000003a0: a1ee f93e a8d7 a5bf fae7 c83e c00e 1bbe
000003b0: bffe 08be b8f4 1f3a 0699 9cbe 036b 09be
000003c0: d23c dcbd 7632 ad3c 5a63 06bf 00a6 1fbf
000003d0: 4098 19bf efe0 38be 369e 9a3e ce90 df3e
000003e0: e6b8 14be 5b79 19be cf61 3c3c f6d9 ca3c
000003f0: f06b 753d 32e3 37be 3c5a 54be 5415 0e3f
-0.57442766 -0.2870817 -0.35854897 -0.4292918 -0.38614142 0.37890032 0.38988793 -0.02285422
0.16411689 -0.48071614 0.14361143 -0.19624351 -0.27093145 -0.011532221 -0.67370105 -0.02636627
0.30996007 0.042014502 -0.3030934 0.18172671 -0.3127622 0.402252 -0.08189606 -0.014680447
0.05492024 0.37049353 0.18430333 -0.9208886 0.01244092 -0.22391634 0.108058326 0.4322371
-0.17565453 -0.2062284 0.28014702 0.17330837 0.09181885 0.005503226 -0.35330564 0.67515385
0.09205284 0.2725386 0.64991546 -0.30053774 -0.7216519 0.011991536 -0.19190317 -0.10106057
-0.3461895 -0.06480616 0.020869438 -0.18548955 0.018464867 -0.13735989 -0.08062889 0.12803866
-0.030958854 0.4613388 -0.048061255 0.0019902247 0.37986133 0.15013795 -0.58300674 -0.17233199
-0.18697569 -0.08610186 0.10812477 0.41602844 0.12415674 0.11229455 -0.76298666 -0.1342252
-0.3971264 0.053662483 -0.28061867 0.12901522 0.015881581 0.008353592 -0.37304282 -0.21523635
-0.25378397 0.16752787 -0.20486462 -0.21259096 0.2947777 -1.0869838 0.20055982 0.033494584
-0.07459535 0.3191966 -0.3737865 -0.34464812 -0.07235414 0.10624624 -0.057136014 -0.3225711
-0.033652093 -0.03399736 -0.72127396 0.08055317 -0.14235823 -0.7295771 0.07863536 -0.41542125
-0.13132147 0.11719363 -0.32442838 -0.19818413 0.12679583 -0.5334967 -0.02818646 0.04525596
-0.37136477 -0.2624962 -0.16343416 0.080651246 0.6938805 -0.5262517 -0.10954823 -0.09971855
-0.1456722 -0.48500934 -0.38305256 -0.19243264 0.48125237 0.55209523 0.04517667 0.15667751
0.1160252 -0.47521693 -0.006053924 -0.2797975 -0.7790149 -0.32219002 -0.3591706 0.22456473
-0.21804148 0.121498756 -0.25616133 -0.2845412 -0.42475024 -0.099101275 0.18372777 0.2281352
-0.09836936 0.262196 -0.30759713 0.26738858 -0.037996225 0.061744437 0.043060724 -0.2992174
-0.40308332 -0.2858196 -0.22748068 0.1180421 -0.35765636 0.45131922 -0.14785746 -0.55780005
0.24115886 0.36429167 -0.31527203 0.2564705 0.43866336 0.1700489 -0.14372124 -0.5023261
-0.8973801 0.22200687 -0.09976845 -0.47186828 0.19489229 -0.35255003 -0.5647322 -0.33189794
-0.37390953 0.05285709 -0.23239689 -0.35605913 -0.41833946 0.18171217 -0.037818443 0.062970236
-0.20340396 0.073719315 -0.5906922 -0.43652582 0.50623095 -0.5137239 -0.16930224 0.007998579
-0.27941358 -0.39825463 -0.15886517 -0.32205084 0.21027596 0.1248339 -0.2315712 -0.2551992
0.03176451 0.2445281 0.21103454 -0.4803898 -0.48493338 0.045600448 -0.43393967 0.06907822
-0.19987534 -0.020220904 -0.13218221 0.2867008 -0.46745944 0.1246555 0.10205194 0.21765411
0.1448797 0.24989022 -0.15256727 0.043845564 0.11634702 0.24732085 -0.05831146 -0.24181956
-0.6468714 -0.3576934 0.13663423 -0.20393115 -0.31915164 0.0197137 -0.45639515 0.12429425
0.48814872 -1.2956438 0.39239484 -0.15142345 -0.13378428 0.00061018346 -0.30585498 -0.13419728
-0.10753788 0.021142226 -0.5249535 -0.6236267 -0.5999794 -0.18054555 0.3019883 0.43665165
-0.14523658 -0.149877 0.011497929 0.024762135 0.05991739 -0.17957762 -0.20737547 0.55501294

conv2.bias f4 [32]
00000000: 248a 9abe f571 aabe 09c1 123e 4bfe 0c3d
00000010: 1fe4 90be 71c0 a4be 2ea6 04be 275a c73c
00000020: e9ef 0fbd fb26 4dbe a012 acbe a5c3 5ebd
00000030: 7e54 4abe 7e8f bebe a95f 013d ecde 45be
00000040: 8740 35be 57ea 58be 5278 8fbe 6ff6 b93d
00000050: 2321 86be b958 89be eeda 95be 858e 2dbe
00000060: a14e 20bd f19f b3be 247b bcbd 1429 37be
00000070: 7bab b5be 0fc5 80be 3910 3bbe 5188 92be
-0.30183518 -0.33290067 0.1433145 0.0344222 -0.28299043 -0.3217807 -0.12954018 0.02433498
-0.035140906 -0.20034401 -0.3360796 -0.0543858 -0.19758794 -0.3721885 0.03158537 -0.19323319
-0.17700396 -0.21183144 -0.28021485 0.090802066 -0.26197156 -0.26825503 -0.29268593 -0.16948898
-0.039137486 -0.35082963 -0.09203175 -0.17886764 -0.35482392 -0.25150344 -0.18267907 -0.28619626

conv3.weight f4 [32, 32, 5, 5]
00000000: 04d0 163e 5a03 273e 6aeb 663e 3873 eebd
00000010: f6e3 39bf 59fe c0bd 628f 833e b9b7 bc3d
00000020: 9c4e e73e 235f a7be 2453 963e e98d 74bf
00000030: f751 783e 5056 7a3e 7e6d a43e 92d2 2abd
00000040: 2701 5f3e c281 3a3f 9588 e8be 4c04 7dbe
00000050: cc8a 2d3f 6d97 be3e e83b 003f 36d6 363e
00000060: a427 1bbf 0047 b03e 3f72 61bf 33dd dabe
00000070: e188 f1bd 049c fdbd 2564 6bbc 9bc1 fbbe
00000080: db55 94be 3539 043f da76 4d3e ca34 993d
00000090: f1bc 65bf 0d42 b93e f921 92be 9972 c13d
000000a0: ddc4 a33d 7463 1cbe 6f60 fdbe c0cf 78be
000000b0: a6b9 59bf 362e d13e 780a 02bf 2ade a73c
000000c0: 8711 42be 74ae 123f a4a5 023e 275c 2b3f
000000d0: 2952 ccbd cfb6 dabe f3a1 c33c 806a 2cbe
000000e0: c221 05bd 9ff5 c93b d4de 95be 7e1f 2cbf
000000f0: efa6 c93d 889b f43e 96df 07be d271 a6be
00000100: dd86 17bf bd1b 91be 1c2a fdbe 28d2 eebe
00000110: e16c d53e 9fa8 193e 04e1 4ebe a0a0 63bd
00000120: 2ce7 d63e 15c0 a2be 95e9 ca3d 9c8d 473e
00000130: 1837 89bd fb00 b13d 0005 6eba 0fd7 0b3f
00000140: ebe5 c53e b666 c4be 036e 3fbe ba6e 533e
00000150: 4913 35be 0f11 9b3d 1df5 eebe de62 733e
00000160: 6e43 69bd 11ba 9a3e 1c21 03bf 2f6e 163e
00000170: 42b2 e3be 43c9 673e 4fe2 d3bd 1093 43be
00000180: 8d4f 883e 838e 1abf faa1 493e 9c83 093f
00000190: ae19 4bbe eb4f 1dbe 3468 7d3e e711 223e
000001a0: 7f3f babe 7654 9e3e 2aef f8bd b43d afbe
000001b0: 4142 5d3e e42e 85be 9bdb 09bf a44c a1bd
000001c0: a10d b3bd c45e a7be 4c56 dabe c845 c43e
000001d0: c3d3 fdbe 9df3 c8be 2fd5 f83d e897 863e
000001e0: c141 a13d 500b cd3c 001a 14bd fab3 81be
000001f0: 1e2d 01bf bed9 c9be bc37 433e a1f1 ec3d
00000200: f808 923e 3bf2 03be fc70 383e 31ec fd3d
00000210: f2ce 05be 732e 4d3d c069 2d3f 1f09 29be
00000220: 041b ecbe ea35 61be 8345 cfbc 86b6 5bbd
00000230: bf4a 90be c302 58be 5a01 80be ecca 8dbd
00000240: 5cce 283f ff05 36bd 1e01 bfbe dcf6 873e
00000250: f719 23bf f52e 97be d15c 593e 9d87 14bf
00000260: f37a 3cbe 7c22 9e3d ed0d 893e 98b3 553e
00000270: 75d0 eebe a7d9 933d 9c77 fabc e304 d43e
00000280: 269e 56be 4cdb 1ebe 3d52 d8be ef4f 07bf
00000290: e681 91be fb06 9dbe e566 a1bc 40d5 c83e
000002a0: 65f4 d4be a556 8fbe 4330 0cbf a4f9 9bbe
000002b0: 0c91 c7be 8ef4 c2be 4658 9f3e 7169 873e
000002c0: 9269 053e c406 55be 9dd5 c0bc b90e 583e
000002d0: 8025 413e df67 5ebf 4669 06bf a41e f83d
000002e0: 3ad2 9cbe 497c 9c3e bf30 debe 33f9 713e
000002f0: da3d c8bd 5813 67be 57f3 3fbe af66 44be
00000300: b3de 2d3e 19cf a6be f301 783e b787 babd
00000310: 67f4 64be 2938 913e 696b 0ebf 1b46 503e
00000320: 1f24 7c3e c8d8 cd3b 0f43 7cbe 6db8 0ebf
00000330: 4903 c7be e2b7 af3e 42a6 853e 8a3f c7be
00000340: 8fac ccbe c2f7 bdbe 0347 71be f0de 583d
00000350: 19cb b1be 5d37 c93e b14a d13d 49c6 543e
00000360: 325d 1abf 9c35 343e 6f95 063e dcd0 5d3e
00000370: fac9 373e a662 143e 69a2 21be cc15 7fbe
00000380: 0645 62bd c248 153f 1732 6dbe eeee 42bd
00000390: c720 c0be a1c5 09bf 7827 04be ca92 c0be
000003a0: 0bd1 a4be 4810 c23e 052c 65bf a4cf febe
000003b0: d1e0 d9be e58c b33d 352d 71bd d1c5 2ebf
000003c0: 0857 6fbd c518 6fbd 7012 54be 77b4 0abf
000003d0: 06c0 afbd ef3c 6d3e 9a65 eb3d a722 08bd
000003e0: c6bb b8be c89e 53be 0da9 d8be 2367 f4bc
000003f0: 1241 053e fb2c 08bf 1653 a63e 81c1 90be
0.14727789 0.16309872 0.22550741 -0.1164307 -0.72613466 -0.09423513 0.2569533 0.0921473
0.45177162 -0.3268977 0.29360306 -0.9552904 0.24250017 0.24446988 0.32114786 -0.04170472
0.21777783 0.72854245 -0.45416704 -0.2470867 0.6778991 0.37224904 0.5009141 0.17855152
-0.6060736 0.3442917 -0.8806495 -0.42746887 -0.11793686 -0.12383273 -0.014367138 -0.49171147
-0.28971753 0.5164979 0.2006487 0.07480772 -0.89741427 0.36183205 -0.28541544 0.09445686
0.07996533 -0.15272313 -0.49487635 -0.24298 -0.850489 0.4085557 -0.50797224 0.020491678
-0.18951999 0.57297444 0.127585 0.6693749 -0.09976608 -0.42717597 0.023880934 -0.16837502
-0.032502897 0.0061633135 -0.29271567 -0.67235553 0.09846293 0.4777491 -0.13268885 -0.32508713
-0.5919016 -0.28341475 -0.4944619 -0.46644711 0.4168463 0.1500573 -0.20203024 -0.055573106
0.41973245 -0.31787172 0.099078335 0.19487613 -0.066999614 0.08642765 -0.00090797246 0.5462503
0.38651976 -0.38359612 -0.1869431 0.20647708 -0.17683138 0.07571613 -0.46671382 0.23768184
-0.05694907 0.30220082 -0.51222396 0.14690469 -0.44471937 0.22635369 -0.10345899 -0.19099069
0.26623192 -0.60373706 0.19690695 0.53716445 -0.19834015 -0.15362518 0.24746782 0.15827142
-0.3637657 0.30923814 -0.12154992 -0.34226763 0.21607305 -0.26012337 -0.53850716 -0.07875946
-0.08742834 -0.32689488 -0.42643964 0.3833449 -0.49575624 -0.39248362 0.121500365 0.2628777
0.0787387 0.025029808 -0.036157608 -0.25332624 -0.5045947 -0.39423937 0.1906423 0.115695246
0.28522468 -0.12885372 0.1801185 0.123985656 -0.13067225 0.050093126 0.67739487 -0.16507386
-0.4611436 -0.21993223 -0.0253017 -0.053640865 -0.28182027 -0.21094804 -0.2500103 -0.0692347
0.6593988 -0.044439312 -0.3730554 0.26555526 -0.63711494 -0.29528013 0.21226813 -0.5801943
-0.18406276 0.07721421 0.26768437 0.20869291 -0.46643415 0.07219248 -0.030574612 0.41409978
-0.20958766 -0.15513343 -0.42250243 -0.52856344 -0.28419417 -0.30669388 -0.019702384 0.39225197
-0.41592708 -0.27995792 -0.5476114 -0.30463898 -0.3897785 -0.38077205 0.31122035 0.26447633
0.13028553 -0.20803362 -0.023539359 0.21099366 0.18861961 -0.86877245 -0.52504385 0.12115219
-0.3062914 0.30563572 -0.43396565 0.23630218 -0.09777422 -0.22565973 -0.1874517 -0.19179796
0.16979484 -0.32579878 0.24219494 -0.09107917 -0.22358857 0.2836316 -0.55632645 0.20339243
0.24623154 0.006281946 -0.24634956 -0.5575016 -0.38869694 0.3431998 0.26103407 -0.38915664
-0.39975402 -0.37103087 -0.23562245 0.052946985 -0.34725264 0.3930005 0.102193244 0.20778765
-0.60298455 0.17598575 0.13142942 0.21661705 0.17948142 0.14490756 -0.15784611 -0.24910659
-0.055241607 0.58314145 -0.23163639 -0.047591142 -0.37525007 -0.5381718 -0.12905681 -0.3761199
-0.32190737 0.37903047 -0.89520293 -0.49767792 -0.42554334 0.08767108 -0.058881003 -0.68270594
-0.05843261 -0.05837323 -0.20710158 -0.5418162 -0.085815474 0.23167776 0.11493988 -0.033236172
-0.3608076 -0.20666039 -0.42316476 -0.029834336 0.13013104 -0.53193635 0.32485265 -0.28272632

conv3.bias f4 [32]
00000000: 6bb4 89be 0af5 bcbe 755a 10be ffd1 5fbe
00000010: 4781 23be 4d01 9bbe 247e 173d 20f5 42be
00000020: 86a3 c0be 5bc6 00be 6b9c 7dbe 1fbe 6bbe
00000030: 2326 24be 56b5 31be 0f39 84be 54c6 953c
00000040: b3a3 e7be 7d23 56be 56f2 9dbe a92b f3be
00000050: 8190 4abe 0bc0 8abe 66f6 bebe 8285 05be
00000060: 13fd 0dbf 7f43 dbbe c4df 703c dc55 5dbd
00000070: c483 b1be e34f 39be d40f 90be 9f18 16be
-0.2689546 -0.369057 -0.14097007 -0.21857451 -0.15967284 -0.3027443 0.03698553 -0.1903882
-0.37624758 -0.12575667 -0.247667 -0.23021744 -0.16030173 -0.1735433 -0.25824782 0.018283047
-0.4524208 -0.20911975 -0.3084895 -0.47494248 -0.19781686 -0.27099642 -0.37297362 -0.1303921
-0.55464286 -0.42824933 0.014701787 -0.05403696 -0.34670842 -0.1809688 -0.28137076 -0.1465783

conv4.weight f4 [32, 32, 5, 5]
00000000: 904e 1dbe 13b1 c7bd 1845 15bf 285b 99be
00000010: ee4d 3f3e 733a ffbd b169 7dbd f136 4abd
00000020: f80f 0fbe 4624 bfbd e718 e63c d541 ddbe
00000030: 0154 bb3e 73e7 b8bd ca4d 47be 6650 12be
00000040: 0b46 523d ea75 edbe 9eaa 32bd 341b ccbd
00000050: af51 5bbe 26c6 37be 6a91 46bf 509b 813e
00000060: 03fc a3be 3ba4 a73e f1c9 d8bd b9e7 943d
00000070: e667 9ebe 37f9 bc3e 7b82 d73d 293f f73d
00000080: b468 243e 5a33 9fbd cdf8 75be 643d 1bbe
00000090: 1d6f 09bf 3644 8abe 2d66 07bf 2d6c 0d3e
000000a0: bf4a cfbe 8e3a a73d d58d 713d e515 51bf
000000b0: 734d 9c3e f3ad 393e ca3b 1cbf 9c96 b93d
000000c0: 3176 9fbd ea3c 4abe e3dd 02bf 7d53 f4bd
000000d0: 3c79 8ebd 5486 38bf 6bdc a33e c711 89be
000000e0: 278e 7e3e 2feb bbbe dbdc 19bf af7c 113d
000000f0: d0ba 9cbe 8674 09bf f9c5 c53e cbdb b63e
00000100: 62ab a5be e301 7b3e edf5 d6be 8c96 ecbe
00000110: 07cc 533d a749 0b3d 05ae 04bf 5d5d db3d
00000120: 13fa 2dbe 8102 0f3f 56ca ba3e b788 25bf
00000130: 8b44 7abe e20d a2bd f05f 3a3e 4d21 ea3d
00000140: 9c44 58be 50f6 cd3d 1032 0ebd 2c76 75be
00000150: 4093 81bd 4282 1f3e d41f 403f e485 0e3f
00000160: 0fd0 d13c 8fa4 aa3e c582 c03d 9500 663e
00000170: a608 27bd cf25 a4be 66bd 623e 8714 4bbd
00000180: 2b6d 44be a989 ccbe 0ac4 39be c6e0 f2be
00000190: 2f3b 133f 0919 b8be 542e 91be 024a 17bf
000001a0: 2b5a 5c3e dd84 f5bb fa2c e63d 47d3 dabe
000001b0: 92fe c43d 5acb 393e a7fd 163d f52b 043e
000001c0: 38b9 d3be 464e b3bd e8dd 8a3d 4087 403e
000001d0: b519 11be ecc6 6dbe aa1c c03c f2e6 293d
000001e0: 8f80 2d3e a902 edbe 2ea2 203e ead1 0a3f
000001f0: b960 acbd 6346 073d 53b9 0cbe e642 3b3d
00000200: eac6 01be 5f99 6c3e 1f8d dabe 2ea2 b8be
00000210: 539d d83e 79b2 fd3d 04fe 72be 34c7 36bf
00000220: d5fd 79bd 2e1f 0cbf 5225 d4be 69c7 563e
00000230: e33d 97be 2a5a 0d3e 6302 91be f0dd 72be
00000240: cf13 c83e 0261 d5be 0870 2a3f 89d8 a63d
00000250: f310 e7bb ca2d 69be 1d53 7fbe eebc 36bd
00000260: de50 423e 0913 cc3d 007e 9bbe 6541 c7bd
00000270: d57a cc3e 4eff c6bd a1da c33e f4c8 933e
00000280: 484c a0bd 514f 06be 68f1 b23e 5cbe d03e
00000290: 3a79 113e d5f0 1c3d beee fdbd 07d0 9a3d
000002a0: 7ac4 a43e 66fd b53e ce13 37be 5e00 053e
000002b0: 1a07 dfbe 105a 91be 33e5 2bbe c7d8 72bd
000002c0: 99f6 0e3e 4c90 74be 0302 df3d 886d b53e
000002d0: 16da a23e e38c 05be 3e9f 71bd 668e c53e
000002e0: 64ec 673e 886e 2a3e 7188 33be d36f b4bd
000002f0: bf61 8cbd 4f9d 97be 103d 273f 90f3 513d
00000300: 38e5 a33c f797 0fbe 729f 97bd 3d04 dfbd
00000310: 5708 f83d dc9d 5b3e c4c8 3dbf 685d f5be
00000320: 6cbb 003b d3a8 6a3e 097b ad3e 89a8 48bd
00000330: 37d6 e4bd 0f8f 17bd ad36 2b3e 7d53 623d
00000340: 8827 8d3e d301 443c 1650 81be fe17 b2bb
00000350: 4d4a 4cbe c1be 1ebf 6683 a6be 3547 2abf
00000360: 4b38 69be 9e8f ecbe bbf3 f2be d6bc e0bc
00000370: 83ef b23e b1c0 d6bd 8399 dcbe 1d06 583e
00000380: 04fc f8bd f670 d5bd 549e 7fbe 93bc 80be
00000390: baa3 8fbe 4ea1 de3e b357 9739 28f9 233f
000003a0: 5277 aabc a8a6 44be 1a1d fb3b 254d 11be
000003b0: fb1a 6e3e 4771 9ebe 5e31 833e 1dcf 873e
000003c0: 8aca 8e3d ed67 913e 2b56 c6bd 91e0 493d
000003d0: c0da 3d3f d002 23bd bc70 303e 7644 9c3e
000003e0: e29f 103f d6d8 3b3c 9f23 d33d 9e3f 18be
000003f0: 97da 04bf ca75 5abf d228 20bf bc57 0fbf
-0.15362 -0.09750571 -0.58308554 -0.2995236 0.18682072 -0.1246232 -0.061868373 -0.049368802
-0.13970935 -0.093330905 0.028088046 -0.43214288 0.36587527 -0.090285204 -0.19463268 -0.14288482
0.05133633 -0.46379024 -0.043619744 -0.09966126 -0.21417879 -0.17946681 -0.77565634 0.25313807
-0.32028207 0.32742485 -0.10585392 0.0727076 -0.30938643 0.36908886 0.10522934 0.12072594
0.16055566 -0.077734664 -0.24020691 -0.15160137 -0.5368517 -0.27005166 -0.5289028 0.13810797
-0.40486714 0.08165465 0.058973152 -0.81674033 0.3052784 0.18132763 -0.6102873 0.090619296
-0.07786215 -0.197498 -0.5111982 -0.119299866 -0.06956717 -0.7207997 0.32004103 -0.26771376
0.24858914 -0.36702868 -0.60102624 0.0355193 -0.30611277 -0.53693426 0.38627604 0.35714564
-0.32357317 0.24512438 -0.419845 -0.46208608 0.051708248 0.034005787 -0.5182803 0.10711167
-0.16989927 0.55863196 0.36482495 -0.64661735 -0.2444021 -0.07912804 0.1820066 0.11432133
-0.21119922 0.10056746 -0.034715712 -0.2397086 -0.06326914 0.15577033 0.75048566 0.5567305
0.025611905 0.33328673 0.09399942 0.2246116 -0.040779732 -0.32060096 0.22142562 -0.049580123
-0.1918227 -0.39948776 -0.18141189 -0.47437114 0.5751218 -0.359566 -0.28355658 -0.590973
0.21518771 -0.007492645 0.11239047 -0.42739317 0.09618868 0.18143979 0.036862995 0.12907393
-0.41352248 -0.08755164 0.067806065 0.18801594 -0.14169963 -0.23220414 0.023451168 0.041480012
0.16943572 -0.46291092 0.15686867 0.54226553 -0.08416886 0.03302611 -0.1374257 0.045718096
-0.12673536 0.23105381 -0.42685792 -0.36061233 0.4230753 0.123875566 -0.23729712 -0.7139771
-0.06103309 -0.54735076 -0.41434723 0.20974506 -0.29539403 0.13803926 -0.28322133 -0.23717475
0.39077613 -0.41675574 0.66577196 0.081467696 -0.007051581 -0.22771373 -0.24934049 -0.04461377
0.18976161 0.09964568 -0.30369568 -0.0972927 0.39937463 -0.09716664 0.38252738 0.28864253
-0.078270495 -0.13116194 0.34949803 0.40770233 0.142064 0.038315613 -0.12399052 0.07559209
0.3218115 0.3554489 -0.17878649 0.12988421 -0.43560106 -0.28389025 -0.16786651 -0.059288766
0.13961257 -0.2388317 0.108890556 0.35435128 0.3180701 -0.13042025 -0.058989756 0.38585204
0.2264877 0.16643727 -0.17532517 -0.08810391 -0.06854581 -0.29612204 0.6532755 0.05125767
0.020006761 -0.14022814 -0.07403459 -0.1088948 0.12110966 0.21446937 -0.7413447 -0.47922826
0.0019642962 0.22915964 0.3388293 -0.048988853 -0.11173671 -0.037001666 0.16720076 0.055255402
0.27569222 0.011963326 -0.25256413 -0.005434989 -0.19950218 -0.6200982 -0.32522124 -0.66514903
-0.2277538 -0.4620332 -0.47451577 -0.027433794 0.34948358 -0.10485972 -0.4308587 0.21096082
-0.12157443 -0.10421936 -0.24962741 -0.2514387 -0.280546 0.4348244 0.00028866305 0.6405206
-0.02080885 -0.192042 0.0076633813 -0.14189585 0.2325248 -0.309458 0.25623602 0.26525202
0.06972225 0.28399602 -0.09684404 0.04928643 0.7416191 -0.039797604 0.17230505 0.30520982
0.5649396 0.011465272 0.103095286 -0.14868018 -0.5189604 -0.8533598 -0.62562287 -0.5599325

conv4.bias f4 [32]
00000000: af72 33be 8ba8 5cbc 4596 ebbe ff23 77be
00000010: face c8be 15b2 3fbe 98ae bcbe 511d 0fbf
00000020: 93d9 90be bc0d a1be 3110 67be 9c33 263e
00000030: 9456 9ebe dbda c2be 15b9 84bd c684 81bd
00000040: b80e 82be 0f93 203e a15d a1bd 0fa3 1a3d
00000050: 55dc cc3c ca1c 65bd ee0c e1bd 3830 b7be
00000060: e7c3 8cbd 92d2 ccbe e7fc 373e aa19 16be
00000070: 0c12 f5be bc95 6bbe 7d20 febe 7f45 d1bd
-0.17524217 -0.013467918 -0.46013084 -0.24134825 -0.3922041 -0.18720277 -0.36851954 -0.5590411
-0.28290996 -0.3145579 -0.2256477 0.16230625 -0.3092543 -0.38057598 -0.06480614 -0.06324153
-0.25401855 0.15681098 -0.078791864 0.03775316 0.025007406 -0.05593566 -0.10988794 -0.35778975
-0.06873303 -0.40004402 0.17967568 -0.14658228 -0.4786533 -0.23006338 -0.49634162 -0.102183335

conv5.weight f4 [32, 32, 5, 5]
00000000: 920f 53be cee1 733d bcc3 9f3e 1e6e 8cbd
00000010: b6f2 c3be 842f 6e3d e5f5 823e fbea 1bbe
00000020: 5ec8 78bc bba8 7bbe 7258 50be 6c49 c8be
00000030: 0092 d63e a984 66bd 9679 05bf 0364 c1be
00000040: 009f c63e eaa8 163e de85 98be 1260 1fbe
00000050: c3da 14be 3f31 4cbf 671a 5abe 5071 debd
00000060: 88f7 b73e 47d8 4ebc 747b c5be 4040 2dbf
00000070: f2f2 10be df38 95bf 58e0 80bd b5a3 88be
00000080: 4662 86bd 8717 61be 1b9f 1bbd 44ac d7be
00000090: dc8d 993c 356e 023f 6933 713e e229 813e
000000a0: d49f ddbe 6394 893d 7919 893c aff4 d83d
000000b0: dcc1 453e 1eff 053e 84d9 04bf 7747 273f
000000c0: 0439 b13e db62 e5be aae5 84be c39d 2e3e
000000d0: c765 01bf 3c16 163f b3bc 3abf 2528 d3be
000000e0: aad1 b33e d8d9 41be a502 02bf 8257 19bf
000000f0: f16a 9dbe 956d 253e b74d cebd d9ff 0a3f
00000100: 9013 c03e b828 05bf 31b8 993e dfa4 a9be
00000110: 12b0 6cbe 0d2e 1e3f dbbf 04bf b162 b23e
00000120: 38ba 52bd 6cb0 6bbd 43a2 31be b0db ca3e
00000130: 10a8 543e 5936 a9bd 4b8f 47be 8f9a b6be
00000140: c2a9 663e d296 113d f70f 23bf fa06 d23e
00000150: 83e2 45bf 0a2e 28be 76ae d1bc e376 b83d
00000160: 48ff 2c3e fb03 5cbe 0390 21be 8131 8ebc
00000170: fac1 c33e afba 49be 3536 33bf 9add 393d
00000180: f083 efbd 16d4 81bd e5a4 4a3e f1bd 88be
00000190: 4852 a83e 4f26 abbd 6222 ae3c 8c7e 143f
000001a0: 33b2 aebe 3de0 a0be b37f 013e 7d7a 82be
000001b0: 8fe7 2c3d 26c5 b63e 5a8d e1bc 272e 283e
000001c0: 00c3 dcbd f42b 853d c0bc 723e 1cf0 46bf
000001d0: b825 58be c7fe 943d eed2 22bf 121a d03d
000001e0: 618e d8be ccac 81be 0c22 b8bd 0673 42be
000001f0: 8097 9e3e c96f 8c3e 29a4 0c3e 0ffd 88be
00000200: b424 9cbe 88f3 c6be 5b8f b5be 1dd2 d43d
00000210: 7f58 d23d e9f3 a73e bdb9 ba3e e19f efbe
00000220: d90f cf3e 93ea b8be c12c 7cbe 17bb 1abe
00000230: 4f0c f1be 2d1c 3bbd 1524 d2be e319 0ebe
00000240: e96f 133d 52f6 453e b49e 943d 6574 ecbe
00000250: e632 16bf 8345 22bf 7f31 923e a995 323e
00000260: d54c 283f 53b1 65be ad28 473f b228 10be
00000270: 89fd 393e 557f 993e 0308 693d 4c3e 5b3e
00000280: 5a07 3bbd f465 dcbe c4c1 f03e dcf8 333d
00000290: d6f1 b5bb 8f57 653d 5337 b73c f4e6 0e3f
000002a0: 6ec5 3cbc 0a83 1a3f 0958 a83e b797 0a3f
000002b0: e04b 10be d643 0e3f a594 a43e 32f3 a73e
000002c0: 7509 673e 1ccf 263f cdd5 3a3f 4695 023e
000002d0: f230 1f3e 8a9a 60bd c09a 083e 5e5b 173f
000002e0: 8661 a6be 2ecd 363e 526f 533d 8b0e ff3d
000002f0: 8f11 8d3e b23f 24be 9594 90bb 0c8e 1fbe
00000300: afdb b43e 20be ecbe 6454 893d 995e fbbd
00000310: 842b 5bbc e119 353f f4c4 bb3e aae3 b73d
00000320: a3e0 acbe cc6e 803e 63ab 1c3e 1c97 29bd
00000330: f459 353e 1dad 15be d008 cb3e 48ba edbe
00000340: 4339 18bf 851b 513e c4e7 8e3e 5282 fe3e
00000350: 97fd a13e 7922 ac3d 2f70 a33d 9ea4 33bd
00000360: 5ff6 053e bcd3 af3d 0a12 58be 53eb 113e
00000370: 3b4e eabe bf36 4d3e fe09 323e 14ba 86be
00000380: 57ac a63c a66f 08bd b7f0 1bbe 76b6 8cbe
00000390: 1b5f 6abe 78ed d4be 56ff c8be 3ecc 88bd
000003a0: bb6f 90be b9d4 5dbd fb9a 6cbc 2881 83be
000003b0: bc4e b7be 0088 f53e 3046 493d c2a4 d43d
000003c0: eaf7 2abf 5fbb 84bd 0243 b8be 44d2 513e
000003d0: b1bf 16bf a4e4 233e c77f c33d 88f6 4ebe
000003e0: dda4 803e 005b 5dbe b905 54be 3061 ed3d
000003f0: faeb 1a3d 3ac2 0ebf d6d2 223f 8b27 2fbe
-0.20611408 0.059541516 0.3120402 -0.06856941 -0.3827111 0.058150783 0.25578228 -0.15226357
-0.01518449 -0.24576084 -0.20346239 -0.39118516 0.41908264 -0.05627886 -0.5213865 -0.37771615
0.38793182 0.14712873 -0.29789633 -0.15563992 -0.14536576 -0.79762644 -0.21299134 -0.108614564
0.3593104 -0.012624807 -0.3857075 -0.6767616 -0.14155176 -1.1657981 -0.0629279 -0.266874
-0.06561713 -0.21981631 -0.03799353 -0.42123616 0.018744402 0.5094941 0.23554768 0.25227267
-0.43286002 0.06717756 0.01673578 0.10593545 0.19312233 0.130856 -0.518944 0.6534342
0.34613812 -0.44801983 -0.2595647 0.17052369 -0.50545925 0.58627677 -0.7294418 -0.41241565
0.35120898 -0.18930757 -0.50785285 -0.5989915 -0.30745652 0.16155083 -0.10073417 0.5429664
0.37514925 -0.52015257 0.3002334 -0.331336 -0.2311404 0.6178902 -0.5185525 0.3484092
-0.051447123 -0.057541296 -0.17347054 0.39620733 0.20767236 -0.08262319 -0.19488256 -0.35664794
0.22525695 0.035544224 -0.63696235 0.41020948 -0.77298754 -0.16423813 -0.025595885 0.09007051
0.16894257 -0.21485893 -0.15777592 -0.01735759 0.3823393 -0.1970012 -0.7000459 0.04537735
-0.11695087 -0.0633928 0.19789465 -0.26707414 0.32875276 -0.08356916 0.02125663 0.58005595
-0.3412033 -0.3142108 0.1264637 -0.25484076 0.04221302 0.35697287 -0.027533222 0.16423856
-0.10779381 0.06502524 0.23704815 -0.7771013 -0.21108139 0.072751574 -0.63603103 0.101612225
-0.42296126 -0.25327146 -0.08990869 -0.1898919 0.3097496 0.27429035 0.13734497 -0.26755568
-0.30496752 -0.38857675 -0.35460934 0.103916384 0.102707855 0.32803276 0.36469832 -0.46801665
0.40441778 -0.36116466 -0.24626447 -0.15110432 -0.47079703 -0.045681167 -0.41043153 -0.13877062
0.035995398 0.19332245 0.07256833 -0.46182552 -0.58671415 -0.63387316 0.28553388 0.17439903
0.65742236 -0.22430925 0.7779644 -0.14078024 0.18163122 0.2997996 0.056892406 0.21410483
-0.045661308 -0.43046534 0.4702283 0.043938503 -0.0055525107 0.055991706 0.022365248 0.55821157
-0.01152168 0.603562 0.32879665 0.5413775 -0.14091444 0.5557226 0.32144657 0.3280273
0.22562201 0.65159774 0.72982484 0.12752256 0.15546015 -0.05483488 0.13340282 0.5912379
-0.3249628 0.17851707 0.051619835 0.12453946 0.2755246 -0.16039923 -0.0044122436 -0.1558153
0.35323855 -0.46238804 0.06705549 -0.122739024 -0.013377074 0.70742613 0.366737 0.0897897
-0.33765134 0.2508453 0.15299754 -0.041403875 0.17710096 -0.14616819 0.3965516 -0.46431184
-0.59462374 0.20420654 0.27911198 0.49708802 0.31638786 0.08405013 0.07980382 -0.043858163
0.13082264 0.08585307 -0.21100631 0.14249925 -0.4576281 0.20040415 0.17386624 -0.2631384
0.02034585 -0.0333096 -0.15228544 -0.27482957 -0.22887842 -0.41587424 -0.39257306 -0.06679581
-0.28210244 -0.054157946 -0.014441247 -0.25684476 -0.35802257 0.47955322 0.0491392 0.103829876
-0.66784537 -0.06481051 -0.35988623 0.20490366 -0.5888625 0.16005188 0.09545856 -0.20211232
0.2512578 -0.21616745 -0.20705308 0.11590803 0.0378227 -0.55765116 0.6360296 -0.17104928

conv5.bias f4 [32]
00000000: 4fa9 67be 4bdd 663e 7990 6fbe a1b5 103d
00000010: 2bc4 073f 74ec cfbe ff2c 08bf 8767 3ebf
00000020: 2130 03bf d6e9 8dbe e68c 20bf 0920 a9bc
00000030: 242f 1ebf c8e5 0bbf ff16 69bf b357 10bf
00000040: 9430 e53e 288b 8fbe 6c27 56bf 7c38 e6be
00000050: e467 753d 589e a83e d5ae 20bf 68b9 a13d
00000060: a04a dcbe d035 06bf f336 08bf 3c31 23bf
00000070: 10a6 afbe 0f13 7bbe 71e2 34bf 9aed 47be
-0.2262318 0.22545354 -0.23394956 0.035329465 0.53033704 -0.40610087 -0.5319366 -0.7437672
-0.51245314 -0.27717465 -0.62714994 -0.020645158 -0.6179068 -0.54647493 -0.91050714 -0.5638382
0.44763625 -0.28035855 -0.83653903 -0.4496497 0.05991353 0.32933307 -0.6276677 0.078966916
-0.43025684 -0.5242586 -0.53208846 -0.63747 -0.34306383 -0.24518989 -0.7065802 -0.19524232

conv6.weight f4 [32, 32, 5, 5]
00000000: d047 99be f4b0 073e 1754 22bd 306f 91be
00000010: 4d26 17bf c274 003f 84a9 97be d021 3ebe
00000020: 059d 3d3e ed11 283d c5e6 913d b53a 953d
00000030: 53b6 76bc 2b17 af3e 104e 053f 7a89 cd3e
00000040: 42aa 823e 17ba acbe 03c9 b3be 1f24 173e
00000050: 54d4 6c3d 4f5c 573e e4c9 2ebe 9f13 c9be
00000060: f342 b1bd 3180 8abd adc2 58bc 1b3f 34be
00000070: 331c c5be 2a88 31bf 6c96 c5bd 8a58 4fbc
00000080: e64a 413d 84bd 9c3e 6020 3d3c a498 4ebd
00000090: f217 613e 5da0 94be 4706 3abc 98d7 45bc
000000a0: 4a1e af3e 3cc1 e4bc 834f ad3d 1b3c 02bf
000000b0: 3441 1cbf 49e9 acbe be43 fdbc b17f 44b8
000000c0: 611a 08bf d4cf 20bf 8cc4 99be 8aa8 d3be
000000d0: dd16 ec3d 4ebc 14be b988 1ebe 7694 ecbe
000000e0: bc74 f53e e78a 68bb dbbf e1bd 1d9e 09bf
000000f0: 6129 fb3d c2cd 523f 60f1 3dbe ef67 c8be
00000100: fad6 8cbe 8b66 083d 3302 cb3e 9ca0 d4be
00000110: e903 6bbf faa9 01bf 9e64 9b3d e3f3 9ebd
00000120: 4277 2b3f dc8a ffbd 9f0f 1fbf 6eab 12bf
00000130: 1e8b 1b3d c150 f33e 115b d4be 689a 83be
00000140: 3ae9 533e 58ac b63e 8731 cd3e 0012 3f3e
00000150: 9f18 d93e c071 a8be 6209 5b3e 5b1f 81be
00000160: ce94 a1be 0496 dfbe b53c 733d 6e35 043f
00000170: a81f 88be 9f6d a13d 5db3 bbbe 3ece ad3e
00000180: e6ce 71be 88ee 32be 8d64 6abe 28f1 aabe
00000190: d552 d2be 50b1 ad3e 3814 e33e 8ddf 833d
000001a0: 3622 f93d 9186 49bd 91b3 6bbe ed66 81be
000001b0: cae9 a53d 57c0 253d 94e7 6abe 8059 8cbe
000001c0: e0dd 053f af7c 91be f703 b23e d144 5fbe
000001d0: 24eb ac3e 49de 8bbd 879d b7be e6b2 15be
000001e0: 0275 ea3c c491 d93e 0f87 d93e 723a 14bf
000001f0: 2444 58bf fd23 153f 7903 46be d5f8 31bf
00000200: 9269 39be 4f48 2b3e 07b8 5e3f c2b2 a83e
00000210: 7879 89be f941 40be 5c39 8c3e 6fd7 17bf
00000220: acf7 eabe d3c7 863c a95a a6be 0371 8dbd
00000230: ca28 3dbe 4592 41bf c53c dabe 964a 20bf
00000240: 77bd 8fbe 1f41 663e 7ac0 afbd 52d0 c7be
00000250: 6ddf eabe c0e5 d6be df4f ce3e bbca cd3d
00000260: 9fd3 13be 6ea4 5c3d 6568 06bf 3378 96bc
00000270: bd33 ecbe 8736 a73d 9a38 893e ce49 1c3e
00000280: 4761 88be 9442 25be 0296 8dbd b0e2 7ebe
00000290: ecd4 3cbe 7b48 03bd 9001 b83e 75fa 943c
000002a0: c3f1 2ebe 1c7f f93e 69fc 023f 6b85 053f
000002b0: d67f 693e e44c 0ebf 129f b2bd 38f9 96bd
000002c0: 0533 133f e6c7 9a3e 5a8b 88be 0c8d 3ebf
000002d0: d631 1abe 47c0 c53e f5eb 233e 6018 893e
000002e0: 30d8 3cbe 3cf1 f5bc 9d71 b03e e40e c0be
000002f0: 575b 96be 96c9 8b3e f191 8dbe 26ac 2f3e
00000300: abe5 c13e 5a4a da3e 3a6e d73e b78a 8b3d
00000310: dd50 98be 3d6a a43e feff 28bf b853 c0be
00000320: ac7e 8c3d 77ab 193e 5b7f d2be d48a 29bf
00000330: 808f 5cbf 2a5d 603e 98a5 393f 745a 45bd
00000340: 8ad3 88bd b9d3 97be c184 c0be 7c9b 603e
00000350: 807b 69be 3673 7dbe e515 23be da27 103c
00000360: 3404 b5be 5b06 70ba 2f9b 0dbf 3fc9 d0be
00000370: bebb 183d 93f1 113e 62ab 2fbe 2414 a53c
00000380: 0212 16be 22b9 a6be 105b bbbe c78f 4e3e
00000390: 9980 d73d 3780 33bf 5d72 19bc 2d83 12be
000003a0: 84d4 d8be d215 0ebf 0901 40bf 637c e23e
000003b0: c6c5 31bd a1b9 f83c b9e0 1ebe 0621 d7bd
000003c0: b93d ab3e 5351 b53e a988 913e e627 243e
000003d0: 2e4f e03e 7af0 0abe ec2d a83d dbdb c4bc
000003e0: 8f75 1b3d 37ec 203d 80e3 04bf d3a4 a93e
000003f0: f666 bcbe db7f 37be fbfe bbbe 653d 6b3d
-0.299376 0.13251096 -0.039630976 -0.28405142 -0.5904282 0.5017816 -0.29621518 -0.18567586
0.1851693 0.04103272 0.07124094 0.07286588 -0.015058118 0.34197363 0.5207224 0.4014395
0.2552052 -0.33735725 -0.35114297 0.14759873 0.05781968 0.21031307 -0.17069203 -0.39272782
-0.08655348 -0.06762732 -0.013230008 -0.17602198 -0.38498077 -0.69348395 -0.09647831 -0.012655387
0.04719057 0.3061334 0.011543363 -0.05043854 0.2198179 -0.29028597 -0.011354036 -0.012075327
0.34202796 -0.027924173 0.08462431 -0.50872964 -0.6103699 -0.33771732 -0.030916091 -4.6848963e-05
-0.5316525 -0.6281712 -0.30032766 -0.41339523 0.11527798 -0.14524958 -0.15481843 -0.46207017
0.47940624 -0.0035483183 -0.11022922 -0.53756887 0.12263752 0.8234521 -0.18549109 -0.39141795
-0.27507764 0.033300918 0.39650115 -0.41528785 -0.9180284 -0.5064999 0.075875506 -0.077613614
0.6697885 -0.12477657 -0.6213321 -0.5729283 0.03797447 0.47522548 -0.41475728 -0.2570374
0.20694438 0.35678363 0.4007685 0.1865921 0.42401597 -0.32899284 0.21390298 -0.25219235
-0.3155884 -0.4366914 0.059384067 0.5164403 -0.26586652 0.07882237 -0.3666028 0.33946413
-0.23614082 -0.17473805 -0.2288992 -0.33387113 -0.4107882 0.3392434 0.44351363 0.06439123
0.12164728 -0.0492006 -0.23017718 -0.2527384 0.08101232 0.040466633 -0.22939903 -0.27412033
0.5229168 -0.2841544 0.3476865 -0.21803595 0.33773148 -0.06829507 -0.3586237 -0.14619026
0.028620247 0.42494023 0.42485854 -0.5790168 -0.84478974 0.5825804 -0.19337262 -0.6952031
-0.18106678 0.16726802 0.86999553 0.3294888 -0.26850486 -0.18775167 0.27387512 -0.593131
-0.45892084 0.016452705 -0.32491043 -0.06906321 -0.18472591 -0.75613815 -0.42624488 -0.6261381
-0.28074238 0.22485779 -0.08581634 -0.39026123 -0.45873585 -0.4197216 0.40295312 0.100484334
-0.14436196 0.05386775 -0.52503043 -0.018367862 -0.46133223 0.08164697 0.26800996 0.15262529
-0.26636717 -0.16138679 -0.06913377 -0.24891162 -0.18440598 -0.032051545 0.35938692 0.018185833
-0.17084412 0.4872979 0.511664 0.52156705 0.22802672 -0.55586076 -0.087217465 -0.073717535
0.57499725 0.30230635 -0.26668817 -0.7443397 -0.15058073 0.38623258 0.16007979 0.2677641
-0.18441844 -0.030022256 0.3446168 -0.3751136 -0.29366562 0.27302235 -0.27650407 0.17155513
0.37870535 0.4263485 0.42076284 0.06813567 -0.29749194 0.32112303 -0.66015613 -0.37563872
0.06860098 0.15006815 -0.4111279 -0.6622746 -0.86156464 0.2191054 0.725183 -0.048181966
-0.06680973 -0.2965372 -0.37601283 0.21934313 -0.22801018 -0.2475098 -0.15926321 0.008798564
-0.3535477 -0.00091562205 -0.55314916 -0.4077854 0.03728842 0.1425231 -0.17155221 0.020151205
-0.14655307 -0.3256312 -0.36592913 0.20172034 0.10522575 -0.70117515 -0.009365645 -0.14307852
-0.42349637 -0.55502045 -0.7500158 0.44235525 -0.043401502 0.030361952 -0.15515412 -0.105043456
0.33445528 0.35413608 0.28424576 0.16030845 0.4381041 -0.13568297 0.08211884 -0.024030617
0.03795391 0.039287772 -0.5190964 0.33133563 -0.36797303 -0.17919867 -0.36717972 0.057431597

conv6.bias f4 [32]
00000000: 1678 893e e60b d6be 7df9 213f d321 553f
00000010: 34d0 42bf a41a 30bf 3b3c 43bf 9b97 90be
00000020: 3c16 0b3c dd73 38bf 6265 c8be 0137 2abf
00000030: caca adbe 13ed 1abe 1ce1 7d3e 337d e13e
00000040: c255 5c3d 9630 37be 6d07 e93e 1d0c 903f
00000050: 3191 72be 589b f43e 8101 eabe aa0d 883e
00000060: 5df3 14bf 5597 483d 6b4d 4f3f cf36 5bbf
00000070: 3374 8e3e d39a 463f 9823 d93d 51a9 0c3f
0.2684943 -0.41805953 0.63271314 0.83254737 -0.7609894 -0.6879065 -0.7626378 -0.28240666
0.008489188 -0.72051793 -0.3913985 -0.6649018 -0.33943778 -0.15129499 0.24792904 0.44040832
0.053792723 -0.17889628 0.45513478 1.1253697 -0.23688199 0.47774768 -0.45704272 0.26572925
-0.5818384 0.048972446 0.80977505 -0.85630506 0.27823028 0.77579993 0.10602492 0.54945856

conv7.weight f4 [32, 32, 5, 5]
00000000: d4eb b2be e89f 0abf dd1e 2bbe e615 fabe
00000010: dcb0 71bd a612 debd 0341 c1be a51b 13bb
00000020: bad4 6bbe ca52 f1bd 67fa c53e 247a 69bd
00000030: 91dc fb3d d659 7e3d ca1f 463e 6f17 bc3e
00000040: 31bb c23b fe03 4ebe 3b0e d93d 6e93 a73d
00000050: 1a75 d53e 3f58 f0be 8492 60bd e9e6 d03d
00000060: e4d8 383e 8031 bd3e 87d5 4c3f d6c3 58bd
00000070: 37ae 383e 0ce8 f0bd 91c9 81bd 02ef e5bd
00000080: ca33 0b3c bc9e bdbe c4fd 39bf b89e bcbe
00000090: a89d a5bb bcc7 28bd 76f3 c0be c68b f6bd
000000a0: 98d2 babd dc1e a8be 50d9 b4be 0d1c c43d
000000b0: 4497 24be 3dd7 76be 5504 eebd 9af8 17bf
000000c0: dd42 6d3e 7bc0 1dbe e58f cdbe fe5d 8ebe
000000d0: cc27 d4be fa77 aabe e614 4fbf 9ebf 0ebf
000000e0: 97dc 51be a631 e4be 9858 7cbe 6101 a2be
000000f0: c419 7a3e 9984 463d a30f e2bd b9cc 3fbe
00000100: b2f7 3bbe 756e 3d3e ac76 823e c7c8 c0bd
00000110: edbc 45be 9b03 3e3d bd21 0c3f 241b 57bc
00000120: 5a19 a43c 98ec ef3d a5ec d0be b1a9 a73d
00000130: 2ca2 fd3c bec1 263e 13ab 8c3d 00cb 8cbe
00000140: dd1b d13e d9e0 4b3e 1ef0 a63d e86a 5bbd
00000150: 301d 9ebe 025d 5bbc c382 b2bd 66ab d4bd
00000160: 5aff 87bd 62aa 48be f455 12be 9f5d 91be
00000170: cf96 10be e0c3 7ebe ff85 cdbd 9348 b6be
00000180: 5eab 2abf e533 b1be 765f 01bc 2434 66be
00000190: 5227 0abe ebf9 08bf 4997 8fbe 3366 d8be
000001a0: 132f 18be 5ee7 163d f99a a0be 2022 9e3c
000001b0: 0dcb 983e ee9a 1f3e 73d8 4cbd e4cc eabe
000001c0: 0e29 bcbe 202e 853d 1224 0fbe 8a5e fa3e
000001d0: e2d9 ee3e badd 9e3e 7e52 26bd 0d12 e33d
000001e0: 7fcb 6d3e fbc0 63bc 7625 1ebe 107b f13e
000001f0: e1a8 99bc 0dbb 31be f66a 6dbc 84e6 96be
00000200: 01ab e6bd 8457 debe b89b c3be acdf bc3d
00000210: 2bb8 033e 1803 9fbc b7ae 09bf 66ea 92be
00000220: a968 9cbe 54d3 c23c 1598 063e d29c 66bf
00000230: fe7e 19bf 610f dc3d 7f0e 39be 771e b83d
00000240: e602 27bf 1b96 e43d b49a abbd e283 a2bd
00000250: af00 383f 313d 1cbe 3632 a73d 6c27 04bf
00000260: fafb 223e ec93 2cbe bb0a 48bd 52d9 29be
00000270: 5af8 c6be 8223 b1be c153 fe3d 7299 d73e
00000280: 9d47 36be 9cb1 29bf 6ab9 95be 29a7 61be
00000290: a910 373e baf5 c2be 5cd2 b0be f47c 3abe
000002a0: 1a11 f9be d69d 27be 7e98 ac3e 45d4 9d3e
000002b0: 28dc 00bf 8751 6d3d 3739 81bd 5a53 233e
000002c0: d3d4 51be 66f9 2fbe 7ae5 a93c 2f5a 2b3e
000002d0: e493 dbbe 20ea 95be 3796 26be d91f 0b3e
000002e0: b804 cf3e b06f cfbe 282b 44bd b079 6ebe
000002f0: 9f33 17be 2f04 023e 0d97 e5be 12bd 11be
00000300: cc8c 4c3e f45f a5bd e737 55be 1b87 0ebf
00000310: 2cb4 2abe a3d9 8dbe 67fa 19be 254c bebe
00000320: c45b 72be 0848 c1be ac4e a6be 6bfb d4be
00000330: e06b 923c 4717 1f3d 6c9f 503e 5529 58bd
00000340: 7985 4dbe 40fd 90bd ca4c a63d 8d13 603e
00000350: 83d4 943e ba11 11be 0003 10be ec6c 7a3d
00000360: cc86 4d3e feae d13e b9c1 043d 0e7e a73d
00000370: e4b8 923e 663b cbbd 724f afbe 899d 6a3e
00000380: cd0e ccbc 6b26 593e 35da 493e 583f fcbd
00000390: 3e8f cd3d 2e98 13bd 87ca 65be a453 d8be
000003a0: a540 ccbe adce 973d ea40 68bd ef77 60be
000003b0: dc93 dcbe 359c ccbe de89 843e ee2a e93d
000003c0: f81f 713e 1246 83be 992d 7ebe c684 4d3e
000003d0: f2ff 9a3e cbb9 76bd 3112 7ebd 68b2 443d
000003e0: 1082 fe3e 2b17 9f3d 9093 66be 70c5 e2be
000003f0: c974 8dbe fdf5 533e acae af3d 7b2d 02bf
-0.34945548 -0.5415025 -0.16710992 -0.48844832 -0.059006557 -0.10843401 -0.37744913 -0.0022446897
-0.23030367 -0.11783369 0.38667604 -0.057001248 0.12297929 0.062097393 0.19348064 0.36736628
0.005942725 -0.2011871 0.10598417 0.08182417 0.41690904 -0.46942326 -0.05482723 0.102002926
0.18051487 0.36951828 0.80013317 -0.05292114 0.18035208 -0.117630094 -0.06337274 -0.11227228
0.008496234 -0.37035167 -0.7265284 -0.36839843 -0.0050541945 -0.041206107 -0.37685746 -0.120383784
-0.09122199 -0.32836044 -0.35322046 0.09575663 -0.16073328 -0.24105544 -0.1162192 -0.5936371
0.23170038 -0.15405457 -0.40148845 -0.27806085 -0.41436613 -0.3329466 -0.80891263 -0.55761135
-0.20494305 -0.4456913 -0.24643171 -0.31641677 0.24423891 0.0484663 -0.11038139 -0.18730439
-0.18356207 0.18499167 0.25481164 -0.09413295 -0.1931035 0.046390157 0.5473898 -0.013129029
0.02003162 0.117150486 -0.40805545 0.08186663 0.030961119 0.16284844 0.06868567 -0.27498627
0.4084157 0.19909991 0.081512675 -0.05356875 -0.30881643 -0.013388874 -0.08716347 -0.10384254
-0.06640501 -0.19596246 -0.14290601 -0.2839174 -0.14120029 -0.24879408 -0.10035323 -0.35602245
-0.66667736 -0.34609905 -0.007896295 -0.22480828 -0.13491562 -0.53506345 -0.2804511 -0.42265472
-0.14861707 0.036841743 -0.31368235 0.019303381 0.29842415 0.15586445 -0.05001111 -0.45859444
-0.36750072 0.06502938 -0.13978603 0.48900253 0.46650606 0.3102854 -0.040606014 0.11087427
0.23222159 -0.013900991 -0.15443978 0.47164202 -0.018757286 -0.1735651 -0.0144908335 -0.29472744
-0.11263085 -0.43426144 -0.3820474 0.092223495 0.12863223 -0.019410655 -0.5378222 -0.28694457
-0.305486 0.02378241 0.13143952 -0.9008304 -0.599594 0.10745121 -0.18071936 0.08990186
-0.652388 0.11161443 -0.08379117 -0.07935311 0.71876043 -0.15257718 0.08163874 -0.51622653
0.15916434 -0.16853303 -0.04883836 -0.16586807 -0.38861352 -0.34597403 0.124183185 0.42109257
-0.17800756 -0.66286635 -0.29243022 -0.22036423 0.17877449 -0.380781 -0.3453549 -0.18211728
-0.4864586 -0.16368803 0.33710092 0.3082601 -0.5033593 0.05793908 -0.06309741 0.15949765
-0.20491342 -0.17184982 0.020739306 0.16733621 -0.4288627 -0.29280186 -0.1626824 0.13586368
0.40433288 -0.40514898 -0.04789272 -0.23288608 -0.14765786 0.12696908 -0.44841805 -0.14232281
0.19975585 -0.08074942 -0.20822106 -0.55674905 -0.16670293 -0.27705106 -0.15036927 -0.3716747
-0.23667818 -0.37750268 -0.32481897 -0.41598067 0.017873704 0.03884056 0.20373315 -0.052773792
-0.20070447 -0.070795536 0.08120115 0.21882458 0.29068384 -0.14166918 -0.14063644 0.061139032
0.20070952 0.4095382 0.03241131 0.0817834 0.28656685 -0.09923439 -0.342403 0.22911657
-0.024909401 0.21206062 0.19712146 -0.12316769 0.10037087 -0.0360338 -0.2244054 -0.42251313
-0.3989307 0.07412467 -0.056702532 -0.21920751 -0.43081558 -0.39962927 0.25886434 0.11385141
0.23547351 -0.25639397 -0.24822082 0.2007018 0.30273396 -0.06023578 -0.062029067 0.048021704
0.49708605 0.07768091 -0.22517228 -0.44291258 -0.27628163 0.20699306 0.08578238 -0.5085065

conv7.bias f4 [32]
00000000: 8f97 473f d92a 683f 0f7b f0bc 6bbf b9be
00000010: 448c 35be 1fe8 e2be caae 7abe 1f65 7ebe
00000020: aa0a 0a3e af20 c8be fcc2 e93c 9a0d df3e
00000030: ac7a 983e 6204 9d3e eebb 4c3d 710e 29be
00000040: b0d0 c93c 880f dabe 238b 8e3f c970 33bf
00000050: 4aac 2040 ba6a af3d fb35 45be 0f28 683f
00000060: 6b4c 3b3f 8219 5b3f 78d1 353e 2843 2dbf
00000070: 0e3a c7be 29f0 a2bd f19c 0c3f 5780 d3be
0.77965635 0.9069038 -0.029355554 -0.36278853 -0.17729288 -0.4431772 -0.24480739 -0.24843262
0.1348063 -0.39087436 0.028535359 0.43565065 0.2978109 0.30667406 0.04998391 -0.16509415
0.024635643 -0.42589974 1.1136211 -0.7009397 2.5105157 0.08565278 -0.19258873 0.90686125
0.7316348 0.85585797 0.17755687 -0.676806 -0.3891148 -0.07955963 0.54926974 -0.41308853
