models/DQN_random_kaggle.pth (torch, 916528 bytes, 22 tensors)

conv1.weight f4 [32, 1, 5, 5]
000000 f7 57 bf 3e 4f 8b 39 bf 9b bd e7 3c c9 d8 08 3c
       0.373718 -0.72478193 0.028288653 0.008352467
000010 18 ac 80 be 99 5c 82 3e 96 ce d8 bb fc d2 2f bf
       -0.25131297 0.2546127 -0.006616424 -0.6868131
000020 4b 23 29 3d de 00 24 bf 15 7a e3 be 20 3d 17 be
       0.041293424 -0.64063823 -0.4442908 -0.14769411
000030 68 ea 10 3e d2 ea 42 3e 53 46 9e 3d a9 78 3a bf
       0.14151919 0.1903489 0.07728257 -0.7284036
000040 d4 2e 8c bc e4 6e de be f7 97 c9 be 56 f7 e5 be
       -0.017112173 -0.43443978 -0.39373752 -0.44915265
000050 72 86 3b bf db 82 02 be fb 92 91 bf 5c bd 3a 3e
       -0.7325202 -0.1274523 -1.137298 0.18236297
000060 15 42 b8 3e 9d de d7 3d 0c 94 af 3e ef 01 9e be
       0.35987917 0.10540507 0.34292638 -0.3086085
000070 46 17 31 3e 06 ed d8 be 48 6c 8f bd 53 44 c0 3e
       0.17294034 -0.42368335 -0.07003075 0.37552127
000080 b4 2a d2 3e e7 f1 96 be 2a 0c 9f be 56 7a 6d 3d
       0.41048205 -0.29481432 -0.31063968 0.057977997
000090 ea 5c b4 be 62 b9 fd bd d9 3a 91 be 27 b6 c6 be
       -0.35227138 -0.123888746 -0.2836521 -0.38810846
0000a0 d9 f9 01 3c fe 9f 2a 3e 48 9d 12 bd 2f 28 a1 be
       0.0079331035 0.16662595 -0.035794526 -0.3147597
0000b0 d3 fc 98 be 1a 4f 25 bf 91 1a 1a 3f 9d 2e a5 3d
       -0.2988039 -0.64573824 0.6019679 0.080655314
0000c0 4f d2 00 3d 66 02 e0 be ab 80 8c 3d cf 1d 02 bf
       0.031450566 -0.4375183 0.06860479 -0.50826734
0000d0 30 a8 50 3e 53 22 15 be 7c 19 83 3e b8 05 67 3d
       0.20376658 -0.14563875 0.2560538 0.05640194
0000e0 87 31 7b 3d 70 2e 8a be eb 38 2f be 55 08 9a be
       0.06132653 -0.26988554 -0.17111556 -0.30084482
0000f0 6a 58 df 3e e1 e7 bc be f8 df f0 be 95 c7 95 3e
       0.43622142 -0.3689566 -0.47045875 0.29253832
000100 5b d8 6c bd 74 7a 0b bf 3d 6e 23 be 92 ee 8e 3e
       -0.05782352 -0.54483724 -0.15960021 0.2791639
000110 bb 41 3e bc 64 de ac 3e ec 86 fc 3d e3 4e da 3e
       -0.011612351 0.3376342 0.12330422 0.4263831
000120 9d c9 b6 be f0 28 e2 be 27 d2 ac 3e d1 8c 63 3e
       -0.35700694 -0.44171858 0.33754084 0.22221686
000130 3d bc 3f bf c4 a8 30 be c1 5f 79 bd 72 fb 30 3f
       -0.74896604 -0.17251879 -0.060882334 0.69133675
000140 e6 76 b0 3e 88 c5 d1 be 7e 84 ae 3e 7d f5 f7 be
       0.34465712 -0.40971017 0.3408546 -0.4842948
000150 c3 21 a7 bd 15 93 95 3e ce c0 ec be 28 b6 8a bd
       -0.081607364 0.29213777 -0.46240848 -0.06773025
000160 ff 70 0d 3e c4 09 32 bf f5 0f fa be c1 06 81 3e
       0.13812636 -0.6954615 -0.488403 0.25200465
000170 af 04 a3 3c 4a 5d 59 3e ee 2b 93 3d 9f 48 d0 be
       0.019899694 0.21226993 0.07186113 -0.40680405
000180 1a b2 88 3e 40 12 31 3d 2e bd e6 be 90 fa a5 3e
       0.2669838 0.043230295 -0.45066208 0.32417727
000190 31 9a e3 3d 36 38 57 be 6c 7e 97 3e f3 b0 d8 bd
       0.11113394 -0.21017537 0.2958864 -0.105806254
0001a0 b5 fd 2f 3d 64 25 6e bd 73 be b6 3e 72 18 c2 3c
       0.042966563 -0.058141127 0.35692176 0.023693297
0001b0 0b b3 7f 3d 6f 4c f2 bc c0 30 df be 10 3d f1 be
       0.062426608 -0.029577462 -0.4359188 -0.471169
0001c0 aa d7 55 bd cb e1 8a 3e b7 5c ee be a3 75 f7 3d
       -0.052207626 0.2712539 -0.4655511 0.12082984
0001d0 93 49 ba bd 66 ba 0a 3f 42 d4 ba be 3e a9 42 bf
       -0.090960644 0.5419067 -0.36490065 -0.76039493
0001e0 4e 13 0c bf 87 a6 6f bf e2 61 d9 be 12 fb 8e 3e
       -0.54716957 -0.93613476 -0.4245749 0.27925926
0001f0 68 91 ca be 4f f1 86 bd 2d 55 da bd f5 09 c3 3e
       -0.3956406 -0.06588995 -0.10660777 0.38093534
000200 7c b9 75 3d 6c e7 c0 3d 57 ab b6 3e 68 a5 dd bc
       0.059991345 0.0941914 0.35677597 -0.02705641
000210 63 93 14 3d 6c a8 c2 3e c3 52 dc 3d 94 c9 b7 bb
       0.03627337 0.3801912 0.10757973 -0.005608747
000220 fd 2a 5e bf 62 36 e1 bb d0 0f 06 bf c5 0e e0 3d
       -0.86784345 -0.006872938 -0.5236788 0.10940317
000230 45 e3 2c 3e b0 b6 8c be 4b 4d 1f bf 75 77 38 bb
       0.16883571 -0.2748313 -0.62227315 -0.0028147374
000240 29 e9 30 3f 1e 84 06 3d fb 8d a5 be 0e a2 ca bd
       0.69105774 0.03284084 -0.32334885 -0.09894191
000250 53 08 86 3e b6 06 b8 be f5 76 d2 3c 84 cc 3c 3e
       0.26178226 -0.3594262 0.025691489 0.18437392
000260 c6 67 2e bf fb aa 9f be f5 f6 53 be 4e f1 f2 3e
       -0.68127096 -0.31185135 -0.20699675 0.47449726
000270 5f 41 8c be 95 7e 06 be 65 a8 30 3f af 6f 34 bf
       -0.27393624 -0.13134225 0.6900695 -0.70482916
000280 0d 99 25 bd 25 fb 3a bf 9e ab b2 be aa 6e 42 bd
       -0.040429164 -0.73039466 -0.3489656 -0.04746882
000290 4f 9e df 3d c6 9d 39 be 04 e3 ec be 9f bc 53 bd
       0.10918867 -0.18126592 -0.4626695 -0.051693555
0002a0 47 b4 4c 3e 64 e3 12 bf 2e fb 2f 3e d2 cc ea be
       0.19990645 -0.5737822 0.17185661 -0.4585939
0002b0 c9 ad d5 bc b8 20 eb bc 32 ab d5 be a3 57 05 3f
       -0.026083844 -0.028702125 -0.41732174 0.5208685
0002c0 cc 00 81 be 06 55 f1 3e 24 e5 da be 20 33 fa 3d
       -0.2519592 0.4713518 -0.42752945 0.122167826
0002d0 f9 66 7d 3e f9 b2 3a be d4 3b 14 3d 4f fc 50 3e
       0.24746312 -0.18232335 0.03618987 0.20408748
0002e0 4c fc 3d 3f 9c b9 1e bf c7 e1 f6 3c 0c 18 bb be
       0.742131 -0.6200197 0.030136956 -0.36541784
0002f0 92 85 9a be 50 df c9 3e 6d 70 11 be 6a d3 97 be
       -0.3018003 0.39428186 -0.14203043 -0.29653484
000300 fd 0b b3 be 74 f9 a3 be 71 67 1a bf 4b 96 f1 bd
       -0.34970084 -0.32026255 -0.6031409 -0.11796244
000310 bc 56 38 be a2 6e 22 3e 6f 6a d3 be f2 53 95 3e
       -0.18001837 0.15862516 -0.4129214 0.29165608
000320 59 93 ca be f4 c2 93 3d cc 91 16 bf c0 56 c4 3d
       -0.39565542 0.07214919 -0.5881622 0.09586859
000330 ff 5f a3 bf b3 59 43 3e 5b 7d 86 3e 18 4e 07 bf
       -1.2763671 0.19077186 0.26267514 -0.52853537
000340 80 45 bd 3c 8d f5 79 be 7a ea 62 3d 59 64 de be
       0.02310443 -0.24410076 0.055399396 -0.43435934
000350 96 df b6 be 83 85 b8 be ba fb 29 3f 8f 23 04 3e
       -0.35717458 -0.3603936 0.6639973 0.1290419
000360 c3 25 3d bf 31 08 f2 bd 9a f8 a4 be 49 83 9b bd
       -0.73885745 -0.11817969 -0.32220918 -0.075934
000370 50 32 aa 3e 07 1c 97 3d 65 a3 37 be 1a e1 9c 3e
       0.3324151 0.07378393 -0.17933424 0.3064049
000380 d9 0e 12 be 19 57 a6 3e ad 1a b9 be 52 30 79 be
       -0.14263476 0.32488325 -0.36153165 -0.24334839
000390 36 b2 a5 be 4a 46 b6 3c af 98 f6 bd e8 e1 86 be
       -0.32362527 0.022250313 -0.12040841 -0.26344228
0003a0 c3 38 0d bf 11 e6 4a be d1 fa 64 be ea cc f1 3e
       -0.55164737 -0.19814326 -0.22361304 0.4722665
0003b0 ac 34 50 3e 04 d7 95 3e 76 c8 7f bf 65 e7 9e be
       0.20332593 0.29265606 -0.99915254 -0.31035915
0003c0 e5 7b 04 be 63 16 dd be fc 11 88 3d 64 00 0d bf
       -0.12937887 -0.43181142 0.06644055 -0.5507872
0003d0 7d 5f 4b be 3f 97 44 3e f6 81 9f be 14 0e 9e be
       -0.19860645 0.19198321 -0.3115384 -0.30870116
0003e0 47 da 3f bf 23 b3 1d 3e b2 37 94 bd 65 4b 00 3e
       -0.7494244 0.15400366 -0.072371855 0.1252876
0003f0 16 66 36 be 32 17 6b bd 5c 90 e3 3e f6 6e c5 be
       -0.1781238 -0.057395168 0.44446075 -0.3856122

conv1.bias f4 [32]
000000 a9 88 b7 3e 91 37 14 bf d1 8b 08 bf 62 f6 04 bf
       0.3584645 -0.5789729 -0.5333834 -0.5193845
000010 85 a6 90 3e 33 4a 00 bf 86 5d 2d 3e 44 63 7f be
       0.28252044 -0.5011322 0.16930208 -0.2494021
000020 bf 8d ac be 74 c1 0f 3d 70 37 27 bd 93 40 e4 be
       -0.33701894 0.0350966 -0.040824354 -0.44580516
000030 3f f9 9d be 77 0d 87 be c8 f8 2c bf 48 44 33 be
       -0.30854222 -0.2637746 -0.6756711 -0.17506516
000040 84 57 bd 3e aa 28 c8 be f1 59 83 bd 7d 55 19 be
       0.36980832 -0.39093524 -0.06413639 -0.14974017
000050 f6 22 2b bf 72 02 2d be d7 6a 03 3e 58 87 0c bf
       -0.6685022 -0.16895464 0.12833725 -0.5489402
000060 90 d0 37 bf 84 b5 dc be 29 16 e7 be 86 54 27 3f
       -0.71802616 -0.43107235 -0.45134094 0.6536335
000070 e9 49 8a be e4 6e f4 be 37 9e 0b bf 5b 74 5c be
       -0.27009514 -0.47740853 -0.5453829 -0.21528761

conv2.weight f4 [32, 32, 5, 5]
000000 b6 d1 00 bf de 0c 4f be 18 80 00 bf 35 c4 ca be
       -0.50319993 -0.20219752 -0.50195456 -0.3960282
000010 c1 70 40 bf 93 99 dc 3e ae 8c fc 3e 92 fc 54 bd
       -0.7517205 0.43085918 0.4932608 -0.051998682
000020 e7 c7 a6 3d 4b 40 43 bf 9a f7 2c 3c 83 0c 39 be
       0.08143597 -0.7626998 0.01055708 -0.18071179
000030 b9 ab d5 be e3 c7 7d be 46 ac 43 bf 09 db 0d be
       -0.41732576 -0.24783282 -0.76434743 -0.13853087
000040 e6 9a a4 3d 81 bf 0b 3e c5 7c c4 be 8c 20 38 3e
       0.08037357 0.13647272 -0.38376442 0.17981166
000050 75 66 a5 be 98 55 9d 3e ab f2 7c be 78 a4 50 be
       -0.3230473 0.30729365 -0.24701945 -0.2037524
000060 5c d2 cf 3c 46 95 c8 3d 23 67 f2 3e 79 6c 8d bf
       0.025368862 0.09794097 0.47344312 -1.1048728
000070 f1 24 36 3e 03 05 06 3d 36 30 72 3e 32 ac 05 3f
       0.1778753 0.032719623 0.23651204 0.52215874
000080 e7 25 05 be 02 82 65 be 4d 6e ff 3e db 57 98 3e
       -0.1300274 -0.22412875 0.4988884 0.29754528
000090 c0 98 36 3d fa 05 48 3d 9f 20 ea be 7f 65 2c 3f
       0.044579268 0.048833825 -0.45728013 0.6734237
0000a0 bd f6 98 3e 56 0e b5 3e 22 4c 1a 3f d0 4a 15 bf
       0.29875746 0.353625 0.6027242 -0.5831728
0000b0 25 a0 51 bf 21 6b e3 bd d7 54 b9 be 43 c6 03 3e
       -0.81884986 -0.111044176 -0.3619754 0.128686
0000c0 80 75 84 be 94 60 03 be 36 28 d7 bc 5e 67 a7 be
       -0.25870895 -0.1282981 -0.026264291 -0.3269605
0000d0 ae 8b 17 be 3c d6 c2 be 75 b2 54 be 3e 87 ea 3d
       -0.14799377 -0.38054073 -0.20771201 0.11451577
0000e0 3a 61 5f bd 5a d9 79 3e 77 19 bf bc ce 5d dc bd
       -0.05453608 0.2439932 -0.023327572 -0.10760079
0000f0 09 c4 9b 3e 61 61 a0 3d fe 24 18 bf 11 6b 0e bf
       0.30423 0.078310736 -0.59431446 -0.5563212
000100 38 77 bf be f9 68 81 bd 68 13 ca 3d ce f2 03 3f
       -0.37395644 -0.0631885 0.09866983 0.51542366
000110 ce 96 44 3d da e6 24 bc fe f3 0d bf 05 29 d6 ba
       0.04799538 -0.010064805 -0.5545043 -0.0016339129
000120 2a e5 a2 be a2 69 17 be 81 46 15 bf 16 d2 70 3d
       -0.31815463 -0.1478639 -0.58310705 0.058794104
000130 83 49 a3 bc 36 c3 2c 3e a7 83 03 bf 9b a2 f4 bd
       -0.019932514 0.16871342 -0.5137276 -0.11945077
000140 f8 84 a4 be 68 55 d5 3e 82 48 15 be ed db 22 be
       -0.32132697 0.41666722 -0.14578441 -0.15904208
000150 dc 06 ce 3e f1 e9 70 bf bd 44 69 3e 85 4a 20 3e
       0.40239608 -0.94106966 0.22780128 0.15653427
000160 a0 eb 36 be c4 2a 27 3e 22 ff 9a be b9 b4 16 bf
       -0.17863321 0.16324908 -0.30272776 -0.5886951
000170 6d 75 98 3d a9 84 ef 3e e6 65 03 be 9f 7e da bd
       0.07444272 0.467809 -0.1283184 -0.10668682
000180 9b 68 e9 3c 49 71 1e 3e 91 c4 2a bf 47 c8 1a 3e
       0.028492263 0.15472902 -0.66706187 0.15115462
000190 4f 45 13 be 80 a6 eb be 86 a5 ec bc ab cf d2 be
       -0.14381908 -0.46025467 -0.028887521 -0.41174063
0001a0 da 82 49 be 06 a0 4d 3e e5 f1 5b be 3c 76 41 be
       -0.19678822 0.20080575 -0.21478994 -0.18892759
0001b0 c8 e3 9d 3d b1 66 15 bf fe 14 34 ba 21 ae eb 3d
       0.077094615 -0.5835982 -0.0006869583 0.11507822
0001c0 0c 85 22 bf 48 51 f2 be d8 db 5c be 42 47 cd 3c
       -0.63484263 -0.47327638 -0.21568239 0.025058392
0001d0 23 82 0a 3f 41 90 fd be 03 e1 33 be 98 3d d2 bd
       0.5410482 -0.4952412 -0.17566304 -0.10265654
0001e0 d8 10 27 bd 1a 3a 26 bf 59 a5 b5 be 28 07 ec be
       -0.040787548 -0.64932406 -0.35477713 -0.4609921
0001f0 28 66 f4 3e 9e 99 41 3f 81 e8 62 3e 27 ff 0e 3e
       0.4773419 0.75625026 0.22159006 0.1396452
000200 a8 91 b3 3d a8 d6 e7 be c4 a0 9d bd 85 94 99 be
       0.08768016 -0.45280957 -0.07696679 -0.29996124
000210 09 59 3b bf 6b a9 c8 be d4 17 68 3d 72 49 c7 3e
       -0.7318273 -0.39191756 0.05666335 0.38923222
000220 c6 62 45 be af 2f 79 bc 30 3e c1 be 3c 6f 3a be
       -0.1927596 -0.015209123 -0.37742758 -0.18206495
000230 e2 41 fe be 40 b7 2e be 74 30 2b 3e ee d8 02 3e
       -0.4965964 -0.17062092 0.16717702 0.12778065
000240 37 9d 25 be 7b a9 e6 3e c1 d9 f1 be 11 27 02 3f
       -0.16173254 0.45051178 -0.47236446 0.5084086
000250 67 7f 2f 3e 37 92 93 bd b9 79 22 3d 73 b6 46 be
       0.17138444 -0.07205623 0.039666865 -0.19405536
000260 5c b3 cd be 87 0f 18 bf 16 dc ae be ff 6e 35 3e
       -0.40175903 -0.5939869 -0.34152287 0.17718123
000270 6b 0a 25 be 75 c6 ea 3e 4b e5 a1 be 8f 78 26 bf
       -0.16117255 0.45854536 -0.3162025 -0.6502771
000280 13 59 8e 3e d0 6b 63 3e 80 0d 94 be 9c 8b 03 3d
       0.27802333 0.22209096 -0.2891655 0.032115564
000290 28 ab f3 3e 4e 75 16 3d 00 d0 03 be 66 43 be be
       0.4759152 0.036732964 -0.12872314 -0.37160796
0002a0 cf ee 94 bf 82 86 19 be 7f 55 18 3d 82 c3 0d bf
       -1.1635379 -0.14992717 0.03719091 -0.55376446
0002b0 a3 b6 a0 3e 8c 62 e3 be 56 92 2b bf 0c 40 3d be
       0.3138934 -0.44411123 -0.67020166 -0.18481463
0002c0 58 2f 53 be 44 a0 fd 3d 75 c0 5f be 3e 31 c3 be
       -0.20623529 0.12384084 -0.2185076 -0.38123506
0002d0 2a 32 1f be 6b bc 64 3e ab 11 37 3e 26 16 88 3d
       -0.1554648 0.22337501 0.17877834 0.066448495
0002e0 5a a9 88 be dd d7 9c 3d e1 88 05 bf 64 ae df be
       -0.26691705 0.0765836 -0.52161986 -0.43687737
0002f0 9a 50 b1 3e da 3f d6 be a4 4c 59 be a7 3d 3d bc
       0.34631807 -0.4184559 -0.21220642 -0.011550344
000300 dd e9 2d be 10 71 fa be 5d f9 33 be 73 05 fe be
       -0.16983743 -0.48914385 -0.17575593 -0.49613532
000310 79 9b 2a 3d e2 a2 d3 3d 54 15 d3 be db 17 9b be
       0.041652177 0.10333802 -0.4122721 -0.30291638
000320 0b 85 25 3e ce 56 4d 3e 74 68 8e 3d a4 09 25 bf
       0.16164033 0.20052645 0.069535166 -0.64467835
000330 c2 52 f9 be c7 96 a6 3d 92 29 ed bd f3 a6 c2 3d
       -0.48695952 0.08134227 -0.115801945 0.09504499
000340 76 9c 2c 3d 36 f8 4b 3d eb 9f 63 be aa df 00 3e
       0.0421414 0.04979726 -0.22228973 0.12585321
000350 bd 6d c8 be 39 db 75 3d 34 d0 7d bc 4d f3 18 3e
       -0.39146224 0.06002352 -0.015491534 0.14936562
000360 4b d0 40 3e de 19 85 3e f0 70 e9 be b5 f7 23 3d
       0.18829457 0.25996298 -0.45593977 0.040031154
000370 be 29 c4 3e dd cc d2 3e 19 c1 e8 be 71 78 78 be
       0.38313097 0.41171923 -0.45459822 -0.24264695
000380 6f 9f e3 be 11 80 67 be 4e 40 21 3c 6a d9 20 be
       -0.44457576 -0.22607447 0.009841992 -0.15707937
000390 d9 7e 2b bf 14 e0 2c 3e ff 7d 21 bf 77 c2 83 3e
       -0.6699043 0.16882354 -0.6308288 0.25734302
0003a0 14 43 c4 3e 23 6c c1 bf 87 1c a5 3e c8 fe ed 3d
       0.38332427 -1.5111126 0.32248327 0.11620861
0003b0 7c 88 6a bd 85 71 2e 3c 58 27 10 bf fc 4a 94 be
       -0.057259068 0.010647182 -0.56310034 -0.2896346
0003c0 7e 3b 30 be d2 8d 7a 3e 50 19 3b bf 28 41 f7 be
       -0.17210194 0.24468163 -0.730855 -0.48291898
0003d0 ab 2e 66 bf 92 4b 8e be 16 12 de 3e b8 7d aa 3e
       -0.8991496 -0.2779203 0.43373173 0.3329904
0003e0 a5 61 9a bd 0a f3 6d 3c 54 a0 7b 3c cd 9b 6f bd
       -0.075381555 0.014523277 0.015358049 -0.058498193
0003f0 02 8d 87 3e 2e 04 61 be ab a4 29 be f8 c9 1a 3f
       0.26474768 -0.2197425 -0.16566722 0.6046443

conv2.bias f4 [32]
000000 e9 22 ac be 83 20 c3 be a3 eb a4 3d 70 20 c1 bd
       -0.33620384 -0.38110742 0.08052757 -0.09430015
000010 dc 22 b3 be b9 12 b8 be 6f 64 68 be cc 91 68 bd
       -0.34987533 -0.35951784 -0.22694562 -0.056779668
000020 83 ab e6 bb 52 58 81 be 86 1e c2 be 63 bc c6 bd
       -0.0070394888 -0.25262696 -0.37913913 -0.09703901
000030 7b 00 59 be 66 d4 b7 be 0e 45 1c bd 0d f1 9a be
       -0.2119159 -0.35904235 -0.038151793 -0.30262032
000040 b7 99 aa be dc b2 91 be b2 23 75 be a5 2a 99 3d
       -0.333204 -0.2845677 -0.23939398 0.07478837
000050 78 a7 b6 be 6d ff 8d be dc 93 47 be 9a a7 81 be
       -0.35674644 -0.27733937 -0.19489998 -0.25323182
000060 fa a3 1d bd f5 22 8b be 6e ee 91 bd a8 b3 d5 be
       -0.03848646 -0.27175108 -0.07125555 -0.4173863
000070 b5 c7 db be db 9a a3 be 5a 03 48 be 77 a8 92 be
       -0.42925802 -0.31954083 -0.19532529 -0.28644153

conv3.weight f4 [32, 32, 5, 5]
000000 75 27 e6 3d 36 f4 83 3e f7 4d 97 bd 7c a3 04 be
       0.112379946 0.25772256 -0.073879175 -0.1295299
000010 34 51 27 bf 0c 3a b0 bd 8a 1a 9b 3d 10 54 1b 3e
       -0.6535828 -0.086048216 0.07573421 0.15168786
000020 2a 95 d5 3e b2 ce 1a bf d8 46 06 3e c1 c1 60 bf
       0.41715366 -0.6047164 0.13112962 -0.87795645
000030 11 69 ef 3d cb cd 72 3e ae b2 a9 3e 01 26 42 3d
       0.11689962 0.23711316 0.33144134 0.047399525
000040 0a 2f 10 3f 7e f5 53 3f 80 f3 89 be 20 9c c1 bc
       0.56321776 0.82796466 -0.26943588 -0.023634017
000050 b2 3b 43 3f a2 43 34 3f 21 cc 25 3f 6a 30 82 3e
       0.7626296 0.704157 0.647646 0.25427562
000060 de 39 22 bf 92 ca 96 3e 0e 81 93 bf 5e e0 02 bf
       -0.6336955 0.29451424 -1.1523759 -0.5112361
000070 a0 5c 93 be e0 32 ef be 77 f4 fc 3c 85 7c 5d be
       -0.28781605 -0.46718502 0.030878289 -0.21629532
000080 6f 24 d4 be 4d a8 36 3f dd 91 64 3e 2f 6c d8 3e
       -0.41434047 0.71350557 0.22321267 0.42270038
000090 47 7a 82 bf 17 54 1b 3e 63 b5 78 be 88 aa 4b 3c
       -1.0193566 0.15168796 -0.24287944 0.012430795
0000a0 f2 97 2b 3e 8e 43 4b be f0 4b 8b be 55 db 49 bd
       0.16757181 -0.19849989 -0.27206373 -0.049281437
0000b0 9b 4c 75 bf 36 5b 4f 3e fa 34 3c bf 54 ed 25 3b
       -0.95820016 0.20249638 -0.73518336 0.002531846
0000c0 71 bf b9 bd 0d 2b 54 3f d1 ce cb 3e 03 c1 25 3f
       -0.09069718 0.8287819 0.39806226 0.6474764
0000d0 b7 37 2b be f3 7e 10 bf 50 4f 21 bd c6 22 c3 3d
       -0.16720472 -0.5644371 -0.03938228 0.09528117
0000e0 12 32 9e bd 6b 0e fa 3d fb 57 60 be c1 71 1d bf
       -0.07724394 0.12209781 -0.21908562 -0.615017
0000f0 f2 0b a2 3e 0f b4 1e 3f d4 7e d2 bd f7 c3 43 be
       0.3164974 0.619935 -0.10278097 -0.19117723
000100 92 05 c0 be cd 1d 08 bf 47 4a 14 bf 69 d6 b0 be
       -0.3750425 -0.5317047 -0.5792584 -0.34538582
000110 f7 ed 4a 3e 8a d1 8c 3e aa 1b c0 be ea bc 71 be
       0.19817339 0.27503616 -0.37521106 -0.23607221
000120 a7 3b 9a 3e de 0b 86 be 8b bd 46 3e ac 64 17 3e
       0.30123636 -0.2618093 0.19408242 0.14784497
000130 cc 71 48 bd 8e 03 82 bc c4 25 ae 3d a1 40 02 3f
       -0.04893665 -0.015870836 0.08503297 0.50879866
000140 f2 96 f6 3e 73 14 32 bf 43 e2 a9 be 2f 66 72 3c
       0.48162037 -0.69562453 -0.33180436 0.01479487
000150 04 72 de 3b 09 84 9f 3d d5 15 a8 be dc 32 df 3d
       0.006788494 0.077888556 -0.32829157 0.108983725
000160 85 f0 74 be 16 3a 08 3e b4 92 75 be 29 62 c7 b8
       -0.23919876 0.13303408 -0.23981744 -9.507343e-05
000170 5c 31 16 bf ae bb 68 3d 47 fb 70 be d2 8d d7 be
       -0.58669066 0.05681961 -0.23533355 -0.42100388
000180 30 ca a6 3e d7 35 60 bf 83 01 2f 3e 95 5b 16 3f
       0.32576132 -0.87582153 0.1709042 0.58733493
000190 8e 54 9b be be 7c b2 be d6 1f 87 3e 46 50 b2 3b
       -0.30337948 -0.34860796 0.26391476 0.0054416982
0001a0 fd 45 c8 be 2b 0d bf 3e ef fb 6a bd 19 82 bc be
       -0.39115897 0.37314734 -0.05736917 -0.36818007
0001b0 5a f4 1b 3e 64 b8 de be dc 64 02 bf e8 34 77 3e
       0.15229931 -0.43500054 -0.5093515 0.24141276
0001c0 3d 2a 0f 3a 95 c9 fa bd 4c 45 97 be 24 6b 4a 3f
       0.0005461311 -0.1224548 -0.29545057 0.79069734
0001d0 a9 a4 00 bf c8 ae 12 bf 77 fb 05 bd 55 64 de 3d
       -0.5025125 -0.57297945 -0.03271052 0.108589806
0001e0 d0 68 8f 3d e4 0c 87 3c e1 5e 9f bd 8f 88 89 be
       0.07002413 0.016485639 -0.077817686 -0.26861998
0001f0 6b ac c9 be b1 80 e3 be 33 0e 38 3d 8a f6 c3 3c
       -0.39389357 -0.4443412 0.044935416 0.02392127
000200 22 2e d8 3e a2 be 81 bc 4e f4 e1 3d fa 83 c4 3d
       0.42222697 -0.015837971 0.110329255 0.09595485
000210 0f 53 4e be 3f 14 c0 3d b4 a8 11 3f ad 16 4e be
       -0.20148872 0.09378862 0.56898046 -0.20125838
000220 a5 71 a6 be 87 f4 7e be d4 58 67 bd 4e 5e 70 3c
       -0.3250858 -0.24897967 -0.056481197 0.0146709215
000230 cc 5a a1 be 38 26 f5 bd 66 be 78 be b2 6d 89 bc
       -0.31514585 -0.1197018 -0.24291381 -0.01677594
000240 aa fe 12 3f 75 cd 58 3c 30 29 e8 be f4 bc b5 3e
       0.57419837 0.0132325785 -0.45343924 0.35495722
000250 44 11 27 bf 07 65 17 bf f6 d3 28 be 7b 0a 6c bf
       -0.6526072 -0.5913853 -0.16487107 -0.9220349
000260 cb d8 b7 be 74 0c 05 be 0b 93 80 3d fc 98 d1 3e
       -0.35907587 -0.12993032 0.06278046 0.4093703
000270 10 63 05 bf e7 e9 4d 3d af fc 41 be 00 28 a8 3e
       -0.5210428 0.050271895 -0.18944047 0.32843018
000280 48 1a 0e be 45 c4 1a 3e 16 04 0c bf 11 76 d8 be
       -0.13877213 0.15113933 -0.54693735 -0.42277578
000290 74 71 dc be 7a 4e 33 be 40 45 bb bd f2 24 ca 3e
       -0.43055308 -0.17510405 -0.09144068 0.39481312
0002a0 01 10 8d be e7 a3 30 be ad f3 bc be a7 8e bf bb
       -0.27551273 -0.17250024 -0.3690466 -0.005845863
0002b0 dc aa 19 bf e3 7a cd bd 00 d3 85 3e 20 fa 5c 3e
       -0.60026336 -0.100332044 0.26137543 0.2157979
0002c0 56 c2 4e 3c b2 08 a4 be 7e 75 00 be 61 0f 32 3d
       0.0126195755 -0.32037884 -0.1254482 0.043471698
0002d0 00 ce 6a 3e d8 bf 1a bf 45 97 f2 be b8 76 d3 3d
       0.22930145 -0.6044898 -0.47381034 0.10325378
0002e0 8e 79 4f be b1 3f f3 3e db 5a 01 bf 78 72 a6 3e
       -0.20261213 0.4750953 -0.5052926 0.32509208
0002f0 74 3a 82 bd 23 94 4c be 8f b3 93 be 50 e9 9e bb
       -0.06358805 -0.19978385 -0.2884793 -0.0048495904
000300 65 fa ea 3d 72 f4 b4 be cd 99 8e 3e 1b d1 96 3d
       0.1147354 -0.35342747 0.27851716 0.073641025
000310 d7 7c 24 be c3 bb ab 3e d8 ce 44 bf d5 29 9b 3e
       -0.16063248 0.33541688 -0.7687812 0.30305353
000320 4c e1 a6 3d 3a e9 2a bd 0f b9 64 be db 0b 05 bf
       0.08148441 -0.04172633 -0.22336219 -0.51971215
000330 e7 37 c8 be 58 30 d4 3e f4 90 c0 3e 79 b7 e0 be
       -0.3910515 0.41443133 0.3761059 -0.4388998
000340 9a 8d e8 be d7 85 19 bf 29 57 a6 be 58 40 91 3e
       -0.45420533 -0.5996985 -0.32488373 0.28369403
000350 34 fd b1 be 5a 7c d0 3e 53 e2 2b 3e 19 81 a1 bd
       -0.3476349 0.40719873 0.16785555 -0.078859515
000360 70 c9 48 bf 12 7e 49 3a 69 22 07 3d 95 3b e3 bc
       -0.7843237 0.00076863274 0.0329918 -0.027738372
000370 7f 57 ab 3e 8d 7c 31 3e 0f 92 0a be 38 ad 18 bc
       0.33465192 0.17332669 -0.1353228 -0.009318642
000380 84 1a d3 bd 4c 25 17 3f 54 ab be be 3d 67 3f 3e
       -0.10307792 0.59041286 -0.37240088 0.18691726
000390 4c 70 cd be c7 e3 34 bf 4b ee 8d be 04 7b a9 be
       -0.40124738 -0.7066006 -0.27720866 -0.33101666
0003a0 5f 1b 1d be 57 7a 15 3f 13 50 7b bf 6b cb 9b be
       -0.15342472 0.583898 -0.9816906 -0.30428633
0003b0 f9 4c 8e be 4c 20 32 3e 3c 74 17 be 20 5e 1b bf
       -0.277931 0.17395133 -0.14790434 -0.606905
0003c0 b3 b6 04 3e fc 1a cc 3c 8f 3d ca be fa 13 14 bf
       0.12960319 0.02491521 -0.3950009 -0.5784298
0003d0 fb 1e f1 bd 04 1f 70 3e 56 c7 b6 3d 88 f4 8e be
       -0.11773487 0.23449332 0.08924739 -0.27920938
0003e0 70 86 08 bf fa 43 1e bd 59 17 e3 be 85 12 93 be
       -0.53330135 -0.038639046 -0.4435375 -0.28725067
0003f0 fd 3f 0a be bf 39 22 bf 0e 77 b4 3e a3 6e 90 be
       -0.13500972 -0.63369364 0.35247082 -0.2820941

conv3.bias f4 [32]
000000 28 45 85 be 0d ac bd be 0d c7 18 be ae c2 86 be
       -0.26029325 -0.37045327 -0.14919682 -0.26320404
000010 2e 14 39 be 51 1b a0 be 2d a9 28 3e 2d 57 34 be
       -0.18074104 -0.3127084 0.16470785 -0.1761138
000020 26 18 d3 be bf 17 9d bd 50 30 32 be 57 07 83 be
       -0.4122936 -0.07670545 -0.17401242 -0.25591537
000030 09 0b 3c be 5c 56 07 be 70 a8 8c be 7c 1a 84 bd
       -0.18363585 -0.13216537 -0.27472258 -0.06450364
000040 2f c3 e8 be 51 0d 13 be 91 e3 cc be f4 7d 0b bf
       -0.45461413 -0.14360549 -0.4001737 -0.54489064
000050 f6 fd 49 be aa c2 ca be 58 d4 8c be c9 26 3e be
       -0.19725785 -0.39601642 -0.27505755 -0.18569483
000060 d1 ab 1b bf 1f 4f 02 bf 2b d6 2b bd 54 8d 20 be
       -0.60809046 -0.5090198 -0.041952293 -0.15678912
000070 25 f5 a1 be 9d 7f c2 bd 7e eb b5 be 8e be 45 be
       -0.31632343 -0.094969966 -0.3553123 -0.19310972

conv4.weight f4 [32, 32, 5, 5]
000000 93 11 98 be 3c 3b 74 be 62 3d a8 be 45 68 25 be
       -0.29700908 -0.23850721 -0.3285933 -0.16153057
000010 6a 3e 4e 3e 1f f7 ef bc 4c 18 eb 3c 1d c2 d9 bc
       0.20140997 -0.029292641 0.02869811 -0.026581818
000020 54 72 8f 3d 95 85 19 3e 9c c2 16 3e 03 89 a0 be
       0.07004228 0.14992364 0.14722675 -0.31354532
000030 1b 07 14 3f 5e 43 88 be df f8 2d 3e be 9a ca bd
       0.5782334 -0.26613897 0.16989468 -0.09892796
000040 96 63 1f 3e 09 67 ee be 2c 2d c3 3e 9b 4d c3 3d
       0.15565333 -0.46562985 0.381204 0.095362864
000050 2c 43 1f 3c 25 43 3b bd ef a3 f8 be d8 f3 82 3e
       0.009720605 -0.04571833 -0.4856257 0.25576663
000060 68 4a ac be f7 a6 6e 3e 53 45 c9 3c 8c 8e 1c be
       -0.33650517 0.2330588 0.02456919 -0.15288752
000070 9e 0c 1b be b4 eb a9 3e 59 92 d3 3e 64 6f f7 3d
       -0.15141532 0.3318764 0.41322592 0.12081793
000080 8b 0d 13 bd 29 4d 97 be 48 fd 93 be d0 36 05 be
       -0.035901587 -0.29551056 -0.28904176 -0.1300919
000090 84 7f 17 bf bb 15 c2 be fb 11 e1 be 4e 6d ae 3c
       -0.5917895 -0.37907204 -0.4395903 0.021292355
0000a0 85 5a 0c bf bc ad d6 be 11 89 74 3e b9 d8 82 bf
       -0.5482562 -0.41929424 0.23880412 -1.0222389
0000b0 2b 05 55 3e 66 b3 50 3e fb cc 5f bf ec 26 3d 3e
       0.20802753 0.20380935 -0.8742215 0.18471879
0000c0 c3 6b 09 bc 8c c1 01 bf f2 12 37 bf 0b 55 b6 be
       -0.008387509 -0.50685954 -0.71513283 -0.35611758
0000d0 6e b7 95 be be 56 6e bf 85 bb d7 3e e6 c0 93 be
       -0.29241508 -0.9310111 0.42135254 -0.28858107
0000e0 d3 24 a2 3e 42 33 13 bf 27 04 07 bf ae 11 da 3d
       0.3166872 -0.5750009 -0.5274071 0.106479034
0000f0 bf 84 6e be 92 2b 6f bf 22 f9 b6 3e 31 ef 11 3f
       -0.23292826 -0.9342586 0.35736948 0.570056
000100 cc 57 0c 3d f8 75 11 3e 59 9b c5 be c2 04 b8 be
       0.034263417 0.14205158 -0.38595083 -0.3594113
000110 91 09 c1 bc 8b 90 1c 3e 01 82 28 bf 84 ea 30 3e
       -0.023564132 0.15289514 -0.6582337 0.1727696
000120 e6 9b b4 be eb 90 f9 3e db c1 b5 3e 7c 5f 0a bf
       -0.3527519 0.48743376 0.35499462 -0.5405195
000130 04 34 ee bd 47 b7 ce 3d 62 39 a4 3e ab 01 a6 3c
       -0.11631015 0.10093551 0.3207503 0.020264467
000140 20 a0 9f bd 80 eb 7e 3d 0d e9 37 3e 2b ac de bd
       -0.07794213 0.06223631 0.17959996 -0.10872682
000150 f5 f1 28 be 97 25 0c 3f 96 0a 28 3f 6b 38 11 3f
       -0.1649855 0.5474486 0.6564115 0.5672671
000160 4c fc 4d be ba a7 b1 3e 25 45 65 3e 5c 07 bd 3e
       -0.20115775 0.34698278 0.22389658 0.36919677
000170 21 ea 5e be 5d f7 69 be 7b ee 72 3e f1 9f 1b be
       -0.21769 -0.22848268 0.23723786 -0.15197732
000180 f5 99 e1 be 44 77 b7 be 45 b1 9f 3b 9f c9 c4 be
       -0.44062772 -0.3583318 0.004873427 -0.38435075
000190 c0 e1 09 3f d8 07 0f be 34 6d 52 be 5e 4d 08 bf
       0.5386009 -0.13967836 -0.2054947 -0.5324305
0001a0 dd 1f 30 3e 13 b1 ab 3d c0 cc 88 3d 8e 56 ce be
       0.17199655 0.083833836 0.06679678 -0.4030041
0001b0 46 bc 1a 3e ca 3b 86 3e 75 6c 45 be 46 95 36 3d
       0.15110883 0.2621749 -0.19279654 0.044575952
0001c0 5b eb b8 be c5 42 85 be 6f d9 57 3e 03 4e 79 3e
       -0.36117062 -0.26027504 0.21079038 0.24346165
0001d0 08 73 54 be 39 b0 86 be 78 b6 58 3e 72 2b b3 3d
       -0.20747006 -0.26306322 0.21163356 0.08748521
0001e0 f5 af 34 3d bc 59 c1 be c3 72 39 3e 67 8f 11 3f
       0.04411312 -0.37763774 0.18110184 0.5685944
0001f0 c6 64 ce 3e 43 1a 2b be 5b 05 27 be 38 a1 9b be
       0.4031126 -0.16709237 -0.16310637 -0.30396438
000200 f0 f0 d7 bc 43 ad 59 3e df e9 52 be ec d0 3b bf
       -0.026360005 0.212575 -0.20597027 -0.73365664
000210 25 45 7c 3f c7 08 09 3f b3 c8 34 be 28 c2 58 bf
       0.98543006 0.5352902 -0.17654686 -0.8467126
000220 78 ed 30 be 90 be 12 bf 85 4e ae be e8 72 8b 3e
       -0.17278087 -0.57322025 -0.3404428 0.27236104
000230 90 16 8e be cc e0 e6 3c 9e 68 88 be c5 20 2e bc
       -0.2775159 0.028183363 -0.26642317 -0.01062793
000240 51 8c 06 3f 4c eb bc be ce 8e 03 3f 93 d4 1f 3e
       0.52557856 -0.36898267 0.5138978 0.15608434
000250 38 ff 68 bc ea 6f 86 bc ea ce cc be 54 b0 95 bd
       -0.014221005 -0.016410787 -0.40001613 -0.073090225
000260 14 63 a3 3d df 78 45 3d c8 9d d7 be a5 59 4e be
       0.07977882 0.048210975 -0.42112565 -0.20151384
000270 c3 7e 16 3f 37 36 4a be 7d 49 a6 3e 6a bf 05 3f
       0.58787173 -0.19747244 0.32477942 0.522452
000280 e1 70 bb bc ed 04 43 bd bd 85 a7 3e f3 64 0f 3f
       -0.022880973 -0.04761212 0.32719222 0.5601341
000290 9d 61 38 3e 73 58 0d 3e 20 01 85 3c 94 9a 0b 3c
       0.18005987 0.13803272 0.016235888 0.008520741
0002a0 7e 02 ca 3e 44 4d a3 3e 79 7e 93 bd eb 70 d2 3e
       0.39455026 0.31894886 -0.07201857 0.41101775
0002b0 36 89 11 bf 05 d3 32 bf f0 f2 83 be 72 ba 7c be
       -0.5684999 -0.6985324 -0.25771284 -0.24680498
0002c0 a3 19 af 3e 0c fa d3 be 7c 08 13 3d 4b 97 0c 3f
       0.34199247 -0.41401708 0.035896763 0.54918355
0002d0 77 18 ba 3e e7 cb 69 3e 5e ad 7a be d7 65 ef 3d
       0.3634679 0.22831689 -0.24480197 0.11689346
0002e0 fe cf eb 3c 5e 9b 97 3e 2c c0 a3 be ad 1b 47 bd
       0.028785702 0.29610723 -0.31982553 -0.048610378
0002f0 85 1c ae be 7b ca fe be 79 80 32 3f 66 2e cc bd
       -0.34006134 -0.49763855 0.69727284 -0.09969787
000300 e2 c2 b4 bc 8c 31 c1 be 08 c0 ca bc 08 71 37 be
       -0.022065584 -0.37733114 -0.02474977 -0.17914212
000310 3d c0 d1 3e 9b d3 1f 3e e6 65 5f bf 3c ee 2f bf
       0.4096698 0.15608065 -0.8726486 -0.6872289
000320 9d 75 5b be 55 db 9b 3e 2b b2 08 3f 96 79 bb 3d
       -0.21431585 0.30440775 0.5339686 0.0915405
000330 67 d1 3b be b0 f4 c0 3c d0 6f 9c 3e 47 09 3d bd
       -0.183416 0.023554176 0.30554056 -0.046151426
000340 3c 76 ca bd 46 e5 6d 3e f2 83 a1 be d4 55 2c 3e
       -0.09885833 0.23231992 -0.3154598 0.16829616
000350 09 85 74 be d8 90 22 bf 46 97 b6 be d5 7a 25 bf
       -0.23878874 -0.63502264 -0.35662287 -0.6464055
000360 30 fd 09 3e f6 43 2e bf 89 9d 21 bf e6 aa 55 3e
       0.1347549 -0.6807245 -0.63131005 0.20865974
000370 97 7e 7d 3e be 31 9e be 89 cf 0b bf 90 70 a5 3e
       0.24755321 -0.30897325 -0.5461355 0.3231244
000380 93 65 00 bf 1a 96 a8 bd e8 91 ad be 09 b9 14 bf
       -0.5015499 -0.082317546 -0.3390038 -0.5809484
000390 32 3b 05 bf 92 48 95 3e 79 33 05 be f6 ba 2f 3f
       -0.5204345 0.2915693 -0.13007917 0.68644655
0003a0 0a 79 53 be 8f 65 b4 3c 82 ae af 3d 49 2e 46 3e
       -0.20651641 0.022021083 0.085782066 0.19353594
0003b0 de 69 62 3e fd df ea be 1e e0 05 3f 88 ea 9c 3d
       0.22110698 -0.45874014 0.522951 0.07661921
0003c0 70 a7 69 bd b1 09 25 3e fb 2c 86 be e9 b7 9d 3e
       -0.057044446 0.16116978 -0.26206192 0.30804375
0003d0 c8 b3 cc 3e f1 17 21 be f8 18 85 3d 7c c8 84 3e
       0.39980912 -0.15731789 0.06498903 0.25934207
0003e0 44 86 09 3f cd 21 a3 3e d6 67 7d 3d 5e c5 6a bd
       0.537205 0.31861725 0.061866604 -0.05731713
0003f0 cf bc ff be f1 a6 85 bf c3 54 f0 be 09 5d 76 be
       -0.49948737 -1.0441571 -0.46939668 -0.24058928

conv4.bias f4 [32]
000000 cd 9f 3b be d0 ea 2d be ca a6 29 bf c3 13 b5 be
       -0.18322678 -0.16984105 -0.66270125 -0.3536664
000010 95 c4 fb be 8e 4c b0 be 6b 6a be be 05 9e fd be
       -0.49173418 -0.34433407 -0.37190565 -0.49534622
000020 32 a9 2e be cf f8 8a be ae 84 9c be 40 0f 26 3e
       -0.1705673 -0.2714295 -0.30569977 0.16216755
000030 e6 8d d2 be d4 0c b4 be f9 8a 58 be 11 73 35 be
       -0.41123885 -0.35166037 -0.21146764 -0.17719676
000040 29 72 c0 be 20 1a 7f 3e 53 50 16 bd f5 05 0c be
       -0.37587097 0.2491231 -0.036697697 -0.13674147
000050 8f 57 9d 3c b6 9e d8 bd f1 33 b7 bd e2 f3 f1 be
       0.01920679 -0.10577147 -0.08945454 -0.4725638
000060 3d 04 ad bd 42 dd e1 be 17 0c cc 3d 3a b5 54 be
       -0.08448074 -0.4411412 0.099632435 -0.20772257
000070 55 d1 eb be fc b7 9d be ee b3 db be 99 77 65 3d
       -0.46058145 -0.3080443 -0.42910713 0.05602226

conv5.weight f4 [32, 32, 5, 5]
000000 a2 12 06 bf e4 be 9a 3a 37 11 9b 3e f3 f4 74 bd
       -0.5237218 0.0011806157 0.3028657 -0.059803914
000010 17 26 fd be df 60 ae be b1 24 b7 3e b6 6e 8b be
       -0.49443123 -0.34058282 0.3577018 -0.27232903
000020 b2 f6 6a 3e cb 8f 89 3d e9 8e 79 be 00 dc 07 bf
       0.2294567 0.067168795 -0.24370922 -0.5307007
000030 01 44 cd 3e 3c 12 25 be 4e e7 d8 be b9 5d 6a be
       0.40090945 -0.16120237 -0.4236397 -0.22887315
000040 13 ec ae 3e 59 fb 47 3e 9f 27 ed be 89 48 8f be
       0.34164485 0.19529475 -0.4631929 -0.27985027
000050 8b bd 81 be 3a e3 13 bf a3 0f 7d be f8 bc 15 bd
       -0.25339922 -0.57768595 -0.24712996 -0.036557168
000060 6f dd c7 3e d2 64 f9 bd 7e 7e 0d bf 47 56 5c bf
       0.39036128 -0.12177433 -0.55271137 -0.8606915
000070 16 09 46 be d2 82 a4 bf 5f 31 a5 be 77 6c 9d be
       -0.19339404 -1.2852423 -0.3226423 -0.30746815
000080 22 da 61 3d cb 92 8e be 51 d3 94 3e 03 07 c9 be
       0.05513967 -0.2784637 0.29067472 -0.39263162
000090 f0 a7 14 3e f2 0a fd 3e f2 91 73 3e 10 11 6a 3e
       0.14517188 0.49422413 0.23786142 0.22858071
0000a0 58 1b 87 bf c8 8c c9 3e 6a 80 fe bd 3b 02 09 3d
       -1.055522 0.3936522 -0.12426837 0.033449393
0000b0 4e 6e 1e 3e 14 39 76 3e 41 f4 37 bf 32 c4 47 3f
       0.15471765 0.24045211 -0.71857077 0.78033745
0000c0 ac 18 b3 3e aa b1 0c bf 50 ef b6 be 8d 31 05 3e
       0.3497976 -0.54958594 -0.35729456 0.13007183
0000d0 4a 64 08 bf 21 a4 18 3f 69 c2 65 bf ee 07 c6 be
       -0.5327803 0.5962544 -0.8974977 -0.38677925
0000e0 4a 11 81 3e e3 c3 0b be 7e 2a b4 be b2 68 1a bf
       0.25208503 -0.13648944 -0.3518867 -0.60316
0000f0 ad 9a a8 be fb 2a c2 3e b2 94 dc bd cc e2 b5 3e
       -0.32930508 0.37923416 -0.10770549 0.35524595
000100 9e 56 39 3f 2f f8 0a bf ee ad 0f 3e d6 82 8b be
       0.7239779 -0.5428495 0.14031193 -0.27248257
000110 c9 df 8a be ef 38 de 3e 65 79 05 bf 19 92 1c 3e
       -0.2712386 0.43402812 -0.5213836 0.15290107
000120 46 c4 08 be 4c d2 93 3e d7 dd b9 bb ac e1 2a 3f
       -0.13356122 0.2887138 -0.0056721973 0.667506
000130 a5 ee 1f 3e 1a 14 8c be 1c 9a c7 be 87 ee 2a bf
       0.1561838 -0.27359086 -0.38984764 -0.66770214
000140 e9 ee 3d 3e 84 c4 dd bb da ab 38 bf 39 88 f4 3e
       0.18548168 -0.0067678113 -0.72137225 0.4776018
000150 5a 8c 57 bf ea 90 ca be 57 d6 81 be 1e ed 59 3e
       -0.84198534 -0.39563686 -0.2535884 0.2128186
000160 fe b7 50 3e 02 31 26 3d 0e 47 29 be 10 30 56 bd
       0.20382687 0.04057408 -0.16531011 -0.05229193
000170 66 8a 17 3f 84 ed 9f be d4 c6 30 bf 93 0e 93 3d
       0.59195554 -0.31235898 -0.6905339 0.07180514
000180 5d 03 9b bb 05 4a 23 be 15 bd ba 3d 53 9f f4 bd
       -0.0047306255 -0.15946205 0.09118096 -0.11944451
000190 d8 05 82 3e 46 98 55 be 94 43 f4 3b 7c 3f 21 3f
       0.25395083 -0.20858869 0.007454345 0.62987494
0001a0 7e 38 bd be f1 20 a3 be b7 67 e5 bc 00 8c f6 be
       -0.36957163 -0.3186107 -0.028003557 -0.48153687
0001b0 97 e0 14 3d e3 2d c9 3e 9a 5b bf bd fb b5 c1 3e
       0.036346998 0.3929282 -0.093436435 0.37834153
0001c0 37 80 77 be 3d 22 80 3e d0 8c e0 3d 4e 80 2c bf
       -0.24170004 0.25026122 0.10964358 -0.6738328
0001d0 70 95 57 3d fa 12 2c 3b 79 3d 47 bf 23 9b 65 bc
       0.05263275 0.0026256428 -0.77828175 -0.014014038
0001e0 20 19 0b bf 38 7e b1 be ec 26 5c be c4 ed 09 be
       -0.5433521 -0.3466661 -0.21499223 -0.13469607
0001f0 34 4f cb 3e 37 1e 9e 3e 9c e1 f9 3d fa 89 e5 be
       0.39708865 0.30882427 0.12201235 -0.4483183
000200 c7 68 0b 3d 1c 87 e8 be cb 72 8f be 02 ca bd bd
       0.03403547 -0.4541558 -0.28017268 -0.092670456
000210 45 bf ae 3d da ef d9 3e 97 be cb 3e ec 06 bc be
       0.085325755 0.42565805 0.39793846 -0.3672403
000220 d2 3f fd 3e a1 98 0f bf 17 5a ba be f5 fe 1b be
       0.49462754 -0.5609227 -0.36396858 -0.15233977
000230 4d f2 9d be 1f 63 08 3d 02 5d d6 be 0a 71 76 3e
       -0.30848923 0.033297654 -0.41867834 0.24066558
000240 fb e6 5b be 3c 31 fd 3c 8a 64 6c bb 29 9b e8 be
       -0.21474831 0.030907266 -0.0036070668 -0.45430878
000250 bf 4e 04 bf 46 a0 12 bf a3 ed 05 3f 23 af 31 be
       -0.51682657 -0.5727581 0.5231573 -0.17351966
000260 80 e6 3f 3f 1a 34 31 bf dc 34 55 3f 34 0b c6 bb
       0.7496109 -0.69220126 0.8328378 -0.006043816
000270 d2 66 df 3d 94 e7 e6 3e a3 46 c8 bd f0 b6 26 3e
       0.10908283 0.45098555 -0.09779098 0.16280723
000280 a6 39 6e 3d a8 63 0c bf d9 8f 2e 3f 32 87 47 bd
       0.058160447 -0.54839563 0.68188244 -0.048712917
000290 bd f9 6a 3d 8f ed 37 3e 8f 0d 4e 3e 96 5a 0a 3f
       0.057367075 0.17961715 0.2012236 0.54044473
0002a0 49 5d 49 3a 87 fc 3a 3f 72 eb f9 3d 3f e9 02 3f
       0.0007681442 0.73041576 0.12203111 0.51137155
0002b0 d7 0d ab be 30 01 86 3e 9f ef 9b 3e 44 ad 9f 3e
       -0.33408996 0.2617278 0.30456254 0.3118688
0002c0 68 05 07 3f db a1 3c 3f 35 32 e7 3e 4e ad 3c 3e
       0.52742624 0.7368447 0.45155492 0.18425485
0002d0 73 fd 04 ba 08 b6 7c 3d 63 6e 13 3e 5c 1d 0a 3f
       -0.0005073167 0.061697036 0.14397578 0.5395105
0002e0 23 cf 0c bf 96 b3 5d 3e 47 f7 12 3e 54 42 0a 3d
       -0.55003566 0.21650538 0.14352141 0.03375466
0002f0 e4 6d 9b 3e b5 0f a2 bd 59 2c 0b 3e 23 63 51 3e
       0.30357277 -0.07913152 0.13591136 0.20447974
000300 00 30 0e 3f 18 a3 1f bf 5b c2 39 bc b4 0f 86 be
       0.5554199 -0.62358236 -0.011337842 -0.26183856
000310 a6 e4 a2 be 1d cf 65 3f de c5 f1 3e 70 e8 f4 3e
       -0.3181507 0.89769155 0.47221273 0.47833586
000320 e0 ee 5b be cd 28 9a 3e 72 c3 ff 3d 2b 69 ee 3d
       -0.21477842 0.30109254 0.1248845 0.11641153
000330 e7 5e 04 3e 89 d6 a4 3c e3 10 07 3f 7b 27 2f bf
       0.12926827 0.02012183 0.5276014 -0.6841962
000340 8c 84 46 bf 93 d7 d1 3e 1e 51 da 3e 41 c2 fa 3e
       -0.77546 0.40984783 0.42640013 0.4897633
000350 9b d7 94 3e f9 3e db be 7a 7a 71 3e 73 e6 f3 3d
       0.29070744 -0.42821482 0.23581877 0.11909189
000360 bd f6 6a 3d aa f5 1b 3d d9 51 2f be 21 76 85 3e
       0.057364214 0.03807608 -0.17121066 0.26066688
000370 6a 04 23 bf 50 a8 d9 3e b7 15 85 3e bc 8e 46 bd
       -0.6367861 0.42511225 0.2599313 -0.048475966
000380 6c 95 81 3c 7c e3 05 3e 83 80 e8 bd fa df 5a bd
       0.01581832 0.1307506 -0.11352637 -0.053436257
000390 8f 53 8f bd 12 df b3 be 22 9e 43 bf d0 9a 25 be
       -0.069983594 -0.35131127 -0.76413167 -0.16172338
0003a0 97 e2 1b be 31 67 f9 3d 85 f2 2b be 18 34 0c bf
       -0.15223156 0.12177885 -0.16791733 -0.5476699
0003b0 bb c4 c9 be 0b 0f a7 3e ca 72 ff 3d 83 22 f6 3d
       -0.39407906 0.32628664 0.12473066 0.12018301
0003c0 cc a3 ad be ec 6e 26 be c2 12 9e be 2d 16 17 3e
       -0.3391403 -0.16253251 -0.30873686 0.14754553
0003d0 b6 4c 08 bf 68 54 0a 3e 59 0f ea bc 37 60 28 be
       -0.5324205 0.13508761 -0.028571771 -0.16442953
0003e0 fa 82 c8 3e 6c aa a3 be 79 93 41 be c6 5a e8 bd
       0.39162427 -0.3196596 -0.18903913 -0.11345439
0003f0 83 d8 f0 3d ab 1c a6 be 28 61 e6 3e 28 78 17 be
       0.11760046 -0.32443747 0.44996 -0.1479193

conv5.bias f4 [32]
000000 8d fd 7d be 8a f5 48 3e 93 48 76 be ef d3 d3 bc
       -0.24803753 0.19624916 -0.24051122 -0.025857894
000010 23 8f fe 3e d7 c8 b8 be 4c de dc be b7 06 51 bf
       0.4971858 -0.3609073 -0.4313835 -0.8165087
000020 7a 14 0f bf 63 da c5 be f5 75 3c bf c1 f2 68 bc
       -0.5589062 -0.38643178 -0.7361749 -0.014218033
000030 8b 45 0b bf 61 2b 13 bf fc a5 5e bf c5 5d 22 bf
       -0.5440299 -0.57488066 -0.8697202 -0.6342433
000040 0c 6b ed 3e 58 d6 9b be bf fb 5e bf 26 56 de be
       0.46370733 -0.3043697 -0.87102884 -0.434251
000050 fe 22 80 3d 2e 43 c2 3e ad 13 28 bf 47 e9 53 3e
       0.06256674 0.3794188 -0.6565502 0.20694457
000060 44 d2 fc be da 2c f3 be 1f c5 08 bf 90 da 16 bf
       -0.4937917 -0.47495157 -0.5342578 -0.5892725
000070 22 a6 ac be 73 80 d7 be 54 ab 3a bf a5 4f 61 bd
       -0.337205 -0.42090186 -0.72917676 -0.055007596

conv6.weight f4 [32, 32, 5, 5]
000000 8c 86 05 bf 16 0d d3 3e 2f 37 36 3d 43 fc 32 bf
       -0.5215843 0.4122092 0.04448622 -0.6991617
000010 88 ed 80 bf 9e 17 e5 3e 89 30 35 be 86 7e fc bd
       -1.0072489 0.4474458 -0.17694296 -0.1232882
000020 0d 1a c9 3d 31 04 d0 3d 37 21 ab 3d 5a ea 26 3e
       0.09819422 0.101570494 0.083559446 0.16300336
000030 d7 23 1d be 37 0d fe 3e 81 cb 27 3f 4d c9 14 3f
       -0.15345703 0.49619457 0.655449 0.5811966
000040 57 83 ce 3e 37 ea 10 bf e2 25 ae be f1 0c 05 3f
       0.4033458 -0.56607383 -0.34013277 0.5197287
000050 b4 f0 fe ba 34 1f 97 3e 47 51 b2 be a7 f3 b3 be
       -0.0019450397 0.29515994 -0.34827635 -0.3514683
000060 75 c2 0c be 86 ac 91 3c 1c 6c 06 be 2f 2a 19 be
       -0.13746054 0.01778246 -0.13127178 -0.14957498
000070 d7 59 15 be 2e c8 0c bf 29 79 5a bd d0 8f 93 3e
       -0.14585052 -0.5499295 -0.053338204 0.28820658
000080 99 8f 90 3e a9 49 41 3d c4 f9 a4 bc e4 97 aa bd
       0.28234556 0.04718939 -0.020138629 -0.08329752
000090 97 ed c0 3e 5b b1 74 be 5f f5 ae 3d 98 08 eb 3d
       0.37681267 -0.2389578 0.085428946 0.114762485
0000a0 88 85 f8 3e b4 7d be bc 2a 2a 97 3e 23 94 e2 be
       0.48539376 -0.0232533 0.29524356 -0.44253644
0000b0 ec 76 31 bf 96 82 d5 be 7e 32 1e bd 64 54 0e bd
       -0.69322085 -0.41701192 -0.03862237 -0.03474845
0000c0 86 dc e8 be d5 ce 74 bf 36 6c d9 be e2 ea af bd
       -0.45480746 -0.956281 -0.4246537 -0.08589722
0000d0 f9 5a 63 be f1 64 93 3d 51 9d 3f bd 4b e6 75 bd
       -0.22202672 0.071969874 -0.046780888 -0.060034078
0000e0 4e 61 1b 3f e9 60 96 bc 08 03 36 bd 5c af c8 be
       0.6069535 -0.018356757 -0.044436485 -0.3919629
0000f0 ae 40 4a be a5 95 63 3f e4 4b be be d5 12 99 be
       -0.19751236 0.88900214 -0.37167275 -0.2989718
000100 c7 bf 35 be 7e b4 d3 3d d1 80 f9 3e 9b f4 d3 be
       -0.17748939 0.103371605 0.48731092 -0.41397557
000110 9c 8a 83 bf 69 f0 48 bf d0 56 35 3e 60 76 89 be
       -1.0276675 -0.78491837 0.17708898 -0.26848125
000120 d4 65 04 3f 7b 84 27 bf 9c 39 5a bf 68 bc fc be
       0.5171788 -0.65436524 -0.85244155 -0.49362493
000130 89 21 fd 3d 7c 05 af 3e b9 c1 2b bf 02 67 8b be
       0.12359912 0.34183872 -0.6709247 -0.27227026
000140 72 5c 8f 3e 58 c6 eb 3e c4 7f bf 3e a8 e0 30 bd
       0.28000218 0.46049762 0.37402165 -0.043183
000150 ec bc c2 3e cf df 61 be 10 d4 65 3e 8c cf bd 3b
       0.3803476 -0.22058032 0.22444177 0.005792564
000160 4b 88 64 be 4c 2d 03 be 9c c5 84 3d 8a 74 35 3f
       -0.22317617 -0.12810248 0.064830035 0.7088095
000170 e8 2c a0 be 0e 44 61 3e 54 71 54 be a8 be de 3e
       -0.3128426 0.21998617 -0.20746356 0.43504834
000180 82 3e 5b be 24 c1 0a be cf 1f b7 bd 8c f8 23 bf
       -0.21410564 -0.1355024 -0.08941614 -0.6405113
000190 13 bb 11 be 40 25 7b 3e d8 f5 c8 3e 65 cd b5 be
       -0.1423152 0.24525928 0.39250064 -0.35508266
0001a0 cb 95 1d 3e 9b 97 cf bc 50 84 bb be 6f 6d e2 bd
       0.15389173 -0.025340846 -0.36624384 -0.11056029
0001b0 66 a2 ad bc 2f d0 71 3d d1 17 ce be 49 7d 07 bf
       -0.021195602 0.05903643 -0.40252545 -0.52925545
0001c0 7f f8 10 3f 5c f0 af bd d4 75 94 3e bc b0 93 be
       0.56629175 -0.08590767 0.28996146 -0.28845775
0001d0 9e 36 95 3e 7c 2c 1c bc e7 7a a3 be 29 39 4a be
       0.29143232 -0.00953209 -0.31929705 -0.19748367
0001e0 d0 18 46 3e 1f ed 17 3f a3 ec e7 3e 9c d4 63 bf
       0.19345403 0.59346193 0.45297727 -0.8899629
0001f0 2e 69 6d bf 12 7b d1 3e 87 ba f6 bd b0 e0 4b bf
       -0.92738616 0.40914208 -0.12047296 -0.7963972
000200 48 71 c5 bd 91 40 87 3e 79 36 98 3f fc 78 57 3e
       -0.09640747 0.26416448 1.1891624 0.21042246
000210 e3 b3 7c be f3 c0 52 be fa a9 73 3e 6a 14 9f be
       -0.24677996 -0.20581417 0.2379531 -0.31070262
000220 76 32 c0 bd 54 0a 9d 3d 3b 05 d0 be bc 14 c1 3c
       -0.09384625 0.076679856 -0.4062899 0.023569457
000230 6e 4e 90 be dd 6f 64 bf 0b 92 e2 be 61 69 5a bf
       -0.28184837 -0.8923319 -0.44252047 -0.85317045
000240 8c e8 bd be 91 61 de 3b a9 77 5f be 5a 33 87 be
       -0.37091482 0.006786533 -0.2182299 -0.26406366
000250 11 5c 23 bf 9e 7c 16 bf 39 fb 42 3e 3a b1 42 3d
       -0.6381236 -0.587839 0.19041146 0.047532298
000260 31 0b 24 3e 1f 7f 50 be 67 2f fa be d6 6d 9a 3c
       0.16019894 -0.20360993 -0.4886429 0.018851202
000270 a8 1d ce be a1 e0 fd 3d bc 1c 9d 3e f5 67 31 bc
       -0.40257 0.1239636 0.30685985 -0.010828008
000280 6f c7 33 3d 7b 34 ff bd 79 94 03 bd dc 85 75 be
       0.043891367 -0.12461182 -0.032124016 -0.23976845
000290 06 56 66 be df 59 b9 3c 2d 6b 0a 3f 3f 5e 4d 3e
       -0.22493753 0.022625862 0.5406979 0.20055483
0002a0 92 fc 3a be bd f9 25 3f 20 d1 ca 3e de f2 07 3f
       -0.1826041 0.64834195 0.39612675 0.5310496
0002b0 92 6a 1e 3e 67 08 0f bf c5 93 15 be 1f 50 ec bd
       0.15470341 -0.55872196 -0.14607151 -0.115387194
0002c0 a0 d4 2e 3f d4 37 9f 3e ac 38 a0 be 54 96 25 bf
       0.6829319 0.3109728 -0.31293237 -0.6468251
0002d0 b1 3f 07 bf dd 59 0c 3f bb 1a 0f bd f5 4d 14 bb
       -0.5283156 0.5482462 -0.0349376 -0.0022629474
0002e0 91 f6 15 bf b0 2b 61 be 25 1d 0a 3f 39 ad 25 be
       -0.58579355 -0.21989322 0.5395072 -0.1617936
0002f0 ed 81 95 bd df 83 12 3f 37 ae 3f 3d be 0a a8 3d
       -0.07300172 0.5723247 0.046797004 0.08205174
000300 28 4d bd 3e cb bc d3 3e 99 46 c6 3e f3 f1 c8 3e
       0.36972928 0.41354975 0.38725737 0.39247093
000310 64 98 e7 be 24 56 9c 3c 03 a9 22 bf 67 91 ad be
       -0.45233452 0.019084044 -0.6353914 -0.33899996
000320 f7 e1 d8 3c 97 3d fa 3d 1a b3 13 bf d5 71 2d bf
       0.026474936 0.122187786 -0.5769516 -0.6775182
000330 20 ec 7b bf fe e9 9d 3d c7 e2 35 3f 7c 39 a7 bd
       -0.98407173 0.07710646 0.7104916 -0.08165261
000340 e2 84 0a be 17 08 33 be 45 12 99 be 05 15 52 3d
       -0.13527253 -0.17483555 -0.2989675 0.051289577
000350 9c 6f 37 3c 67 ba 1e bf 12 e7 1e bd 74 21 0e 3e
       0.011196043 -0.6200318 -0.038794585 0.13879949
000360 7c 94 94 be 12 f2 09 bc 5d fc ef be 08 5d ac be
       -0.29019535 -0.0084195305 -0.46872225 -0.33664727
000370 95 7a e5 3d 45 ec 06 be 6f 69 85 bd 13 c1 5b be
       0.11205021 -0.13176067 -0.065142505 -0.2146037
000380 99 cc a4 be f9 14 e3 bd 0c 3b 2e bf 01 f5 d7 3e
       -0.32187346 -0.110879846 -0.6805885 0.4217911
000390 09 c7 eb 3e 8d 2e 41 bf 91 c8 0e be 08 fc 11 be
       0.4605029 -0.75461656 -0.13943698 -0.14256299
0003a0 80 c0 ab be 44 4e 42 bf 97 58 73 bf e8 d5 1d 3f
       -0.33545303 -0.75900674 -0.9505705 0.6165452
0003b0 55 42 ba 3d c2 87 ad bd 39 16 f9 be 91 43 e4 3b
       0.09094683 -0.084731594 -0.48649767 0.0069660624
0003c0 c0 06 05 3f d0 5d f9 3e ed 03 1d 3d e4 d0 b6 3d
       0.51963425 0.48704386 0.038333822 0.089265615
0003d0 a5 94 06 3f 6e ca 67 be fb 68 c8 3d 64 13 95 bb
       0.52570564 -0.22635815 0.097856484 -0.0045494307
0003e0 ee 67 ca 3d ce 49 e4 3d 53 e0 32 be 87 71 d8 3d
       0.09883104 0.111468896 -0.17468385 0.105685286
0003f0 aa 65 15 bf fc af 81 be 36 46 1b bf 8b 2d 0d 3e
       -0.5835825 -0.25329578 -0.6065401 0.13786905

conv6.bias f4 [32]
000000 11 cb 91 3e a7 79 de be 47 ca 1d 3f eb 09 6f 3f
       0.2847524 -0.43452188 0.61636776 0.9337451
000010 e8 db 6a bf 26 6f 24 bf 27 7b 28 bf cf 22 95 be
       -0.917418 -0.642321 -0.65812916 -0.2912812
000020 3d aa 42 be d6 75 4b bf 9e 8e d0 be bb b3 3a bf
       -0.19010253 -0.7947668 -0.40733808 -0.72930497
000030 6d 3b c6 be 2d 27 52 be e5 54 69 3e ec 58 06 3f
       -0.38717213 -0.20522757 0.22786291 0.52479434
000040 17 5e 80 be 5b c6 8d bd 00 9a 84 3e b0 c0 a0 3f
       -0.25071785 -0.06922599 0.25898743 1.2558804
000050 79 41 c2 be 78 02 d2 3e 5d 36 f2 be d1 47 fe 3e
       -0.37940577 0.41017509 -0.473071 0.49664167
000060 85 b8 24 bf 8f 9a 70 3d 5a e6 45 3f c8 07 9e bf
       -0.64344054 0.05874115 0.77304614 -1.2346125
000070 b1 89 a5 3e b9 45 39 3f c8 67 b9 bc 8b 51 12 3f
       0.32331613 0.72372013 -0.022632495 0.57155675
