models/DQN_random_kaggle.pth (torch, 916528 bytes, 22 tensors)

conv1.weight f4 [32, 1, 5, 5]
0	0x3e995185	0.29945007
1	0xbec33095	-0.38123003
2	0xbe8991aa	-0.26868945
3	0x3dbbd71b	0.091718875
4	0xbe3fd427	-0.18733273
5	0x3e1c0614	0.15236694
6	0x3c816f46	0.01580013
7	0xbf445c8b	-0.7670371
8	0x3a55d308	0.0008156751
9	0xbf37a7c9	-0.71740395
10	0xbec68d28	-0.3877957
11	0xbd8f1002	-0.06985475
12	0x3e8843f6	0.2661435
13	0xbd34d489	-0.044148
14	0x3d24dc44	0.040249124
15	0xbf0af88d	-0.5428551
16	0x3e08b1a2	0.13349012
17	0xbe7a9a16	-0.24472842
18	0xbec7da37	-0.39033672
19	0xbeea83fa	-0.45803815
20	0xbedbe25c	-0.42946136
21	0xbce5c853	-0.028049624
22	0xbf154a49	-0.58316475
23	0x3e3f3598	0.18672788
24	0x3ea22f09	0.3167651
25	0x3d1a0ab5	0.037607867
26	0x3eb871e4	0.36024392
27	0xbedc7de7	-0.43064806
28	0xbdbf788d	-0.09349165
29	0xbf17489f	-0.59095186
30	0xbd2ca1da	-0.04214654
31	0x3ecf27ca	0.40460044
32	0x3ea3eae2	0.3201514
33	0xbef7e178	-0.48414207
34	0xbe591597	-0.21199642
35	0x3da5d755	0.08097712
36	0xbe8efd01	-0.27927402
37	0xbe5881eb	-0.2114331
38	0xbe278625	-0.16359766
39	0xbe09bfa5	-0.13452013
40	0xbd635c2e	-0.05550783
41	0x3e516885	0.20450027
42	0xbdc02a7e	-0.09383105
43	0xbe51a79c	-0.20474094
44	0xbeb2787b	-0.34857544
45	0xbf073525	-0.5281547
46	0x3ee8a84a	0.45440894
47	0x3e0dd61f	0.13851212
48	0xbdb821d2	-0.08990826
49	0xbefa7c9c	-0.48923194
50	0x3da4b3da	0.080421165
51	0xbe69c5de	-0.22829387
52	0x3e0be281	0.13660623
53	0xbe77b6b4	-0.2419079
54	0x3e88e35e	0.26735967
55	0xbd8099d6	-0.06279342
56	0x3e4e459d	0.20143743
57	0xbe8819f4	-0.265823
58	0xbea76036	-0.3269059
59	0xbebe3af2	-0.37154347
60	0x3eead29a	0.458638
61	0xbea6336a	-0.324611
62	0xbebb4f35	-0.36583868
63	0x3e2000c4	0.15625292
64	0x3cb1c6ba	0.021701206
65	0xbefede16	-0.49778813
66	0xbe54c116	-0.20776781
67	0x3eb5e4e7	0.355262
68	0xbd9325b3	-0.07184925
69	0x3e98ae0d	0.2982029
70	0x3e01e32b	0.12684314
71	0x3e581160	0.21100378
72	0xbea33e02	-0.31883246
73	0xbea9e995	-0.3318602
74	0x3eba6e05	0.36412063
75	0x3d9d0db6	0.07668631
76	0xbf18f7e4	-0.5975325
77	0xbd982dda	-0.074306205
78	0x3be43060	0.0069637746
79	0x3f23afd6	0.6394018
80	0x3e170f4b	0.14751928
81	0xbea5019d	-0.32227793
82	0x3ec07671	0.37590364
83	0xbeef62d8	-0.467551
84	0xbdf9059f	-0.12159275
85	0x3df91976	0.121630594
86	0xbe55df8a	-0.20886055
87	0x3c95b149	0.018273013
88	0x3de67375	0.112524904
89	0xbefa9803	-0.489441
90	0xbee296ab	-0.44255576
91	0x3e773176	0.24139962
92	0x3d94b91a	0.07261868
93	0x3e29ee6b	0.16594855
94	0x3ca313a6	0.01990683
95	0xbecff5ff	-0.40617368
96	0x3e91f5a7	0.2850773
97	0x3da75c8b	0.08171948
98	0xbee2dcd5	-0.44309106
99	0x3e4b3f15	0.19848283
100	0x3e2a14fa	0.16609564
101	0xbee3b7a5	-0.44476047
102	0x3eb13205	0.34608474
103	0xbcfe1c58	-0.031019375
104	0x3d33ae62	0.043867476
105	0xbe3b5b23	-0.18296485
106	0x3ea8a008	0.32934594
107	0x3d72292b	0.059121292
108	0xbcb68d32	-0.022284124
109	0x3d8a3551	0.067484505
110	0xbecdd2d4	-0.40199912
111	0xbf00dc9c	-0.50336623
112	0x3d446425	0.047947068
113	0x3e7b202f	0.24523996
114	0xbebc09fa	-0.36726362
115	0x3dbe1ab2	0.092824355
116	0xbe270b99	-0.16313018
117	0x3edf8d90	0.4366269
118	0xbee1c464	-0.44095147
119	0xbf0a0346	-0.53911245
120	0xbe56909c	-0.20953602
121	0xbf607bcf	-0.87688917
122	0xbec17abe	-0.37788957
123	0x3eae831d	0.34084406
124	0xbdf951ff	-0.12173843
125	0x3d801060	0.06253123
126	0xbd2e7156	-0.042588554
127	0x3e8e5206	0.27796954
128	0x3dd2cbb7	0.10292762
129	0x3c888c75	0.016668538
130	0x3ee032c6	0.43788737
131	0xbd694a66	-0.056955718
132	0xbdc76c6a	-0.09737475
133	0x3eb61340	0.35561562
134	0x3e2216fe	0.15829083
135	0xbd236bcb	-0.03989772
136	0xbf36f82a	-0.7147242
137	0x3cd21ba3	0.025647944
138	0xbebdf7a3	-0.37102994
139	0x3e5b08a0	0.21390009
140	0x3dde92c0	0.10867834
141	0xbe74f0d9	-0.23920001
142	0xbf0a2416	-0.5396131
143	0x3c0025af	0.0078214845
144	0x3f1118df	0.56678575
145	0x3d72b289	0.059252296
146	0xbdea4ab8	-0.11440033
147	0xbe0150a6	-0.12628421
148	0x3e94068b	0.28911242
149	0xbec2b294	-0.3802687
150	0x3cfdbb79	0.030973183
151	0x3e5da22e	0.21643898
152	0xbf1fb708	-0.6238866
153	0xbe8668f4	-0.26251948
154	0xbf0a59c7	-0.5404324
155	0x3e9e45dc	0.30912673
156	0xbe0601ab	-0.13086574
157	0xbd935783	-0.07194426
158	0x3f16fe90	0.5898218
159	0xbf692dc5	-0.91085464
160	0xbe16bcfe	-0.14720532
161	0xbf114249	-0.5674177
162	0xbe67e23b	-0.22644894
163	0xbb5f4bca	-0.0034072273
164	0x3d3752e3	0.04475678
165	0xbe5b7922	-0.21432927
166	0xbf0eb0a5	-0.5573829
167	0xbe1cc64c	-0.15310019
168	0x3e2bb139	0.16766824
169	0xbeb50eb7	-0.3536279
170	0x3daed164	0.08536032
171	0xbe98561b	-0.29753193
172	0x3d8e7195	0.06955258
173	0x3c7475cf	0.014920666
174	0xbe7cf57e	-0.24703023
175	0x3f01ac8d	0.50653917
176	0xbe84c11e	-0.25928587
177	0x3eb92bff	0.3616638
178	0xbef322e0	-0.47487545
179	0x3dbe9087	0.0930491
180	0x3e6e675f	0.2328162
181	0xbdbfd879	-0.09367461
182	0xbd82b049	-0.0638128
183	0x3d3b1bbd	0.04568075
184	0x3f17c8b6	0.59290636
185	0xbf153e0c	-0.582978
186	0x3dc3c75d	0.0955951
187	0xbe8e10b3	-0.27747115
188	0xbe8b55ac	-0.272138
189	0x3e90666e	0.28203148
190	0xbd7e451c	-0.062077627
191	0xbe523936	-0.20529637
192	0xbe02ca8d	-0.1277258
193	0xbe9631a8	-0.2933476
194	0xbf0c1106	-0.54713476
195	0xbcea5d24	-0.028608866
196	0xbdcb4988	-0.09926134
197	0x3e5f7831	0.21823193
198	0xbee9c794	-0.4566008
199	0x3ec3c7d4	0.38238394
200	0xbe67052b	-0.22560565
201	0x3d95d187	0.07315355
202	0xbf0185c7	-0.50594753
203	0x3e280ee5	0.16411932
204	0xbfa58649	-1.2931606
205	0x3e8dc0e7	0.27686235
206	0x3e39508a	0.1809713
207	0xbefae5af	-0.4900336
208	0x3e0e6167	0.13904344
209	0xbded4864	-0.11586073
210	0x3d5bfe08	0.05370906
211	0xbee44011	-0.4458013
212	0xbde27100	-0.11056709
213	0xbe790f5d	-0.24322267
214	0x3f34bdc8	0.70602083
215	0x3d971e67	0.07378846
216	0xbf1ebbf0	-0.6200552
217	0x3d9a484f	0.07533323
218	0xbe41fd7a	-0.1894435
219	0xbd33f19e	-0.043931596
220	0x3e443cd4	0.19163829
221	0x3e1e8e40	0.15483952
222	0xbddd5901	-0.10807992
223	0x3e8899e2	0.26679903
224	0xbe412069	-0.1886002
225	0x3e4e0f86	0.20123109
226	0xbe021ea4	-0.12707001
227	0xbecd6f62	-0.4012404
228	0xbcbf4570	-0.02334854
229	0xbe21a633	-0.15786056
230	0xbd8686b2	-0.0656866
231	0xbe3fdc1f	-0.18736313
232	0xbef4ac04	-0.47787488
233	0xbd9bbe21	-0.076046236
234	0xbe91b7c2	-0.2846051
235	0x3ea5f5c9	0.32414082
236	0x3e3d22f5	0.18470366
237	0x3ebcecad	0.3689932
238	0xbf20c939	-0.6280704
239	0xbd4e8a9c	-0.050425157
240	0xbe018f40	-0.12652302
241	0xbe9d4573	-0.30717048
242	0x3d8d41cb	0.06897315
243	0xbf3775df	-0.7166423
244	0xbe95a79c	-0.29229438
245	0x3ead768e	0.33879513
246	0xbde5a75f	-0.11213564
247	0xbecd67b9	-0.40118197
248	0xbf0793e6	-0.5296005
249	0x3e68de2a	0.22740999
250	0xbe07417b	-0.13208573
251	0xbe045686	-0.12923631
252	0xbcb90044	-0.022583134
253	0x3ccb37a9	0.024806814
254	0x3e963cd3	0.2934328
255	0xbedf6022	-0.4362803

conv1.bias f4 [32]
0	0x3e8164f0	0.25272322
1	0xbec70605	-0.3887178
2	0xbee401e2	-0.44532686
3	0xbee45538	-0.44596267
4	0x3e8a41b3	0.2700325
5	0xbee28c74	-0.44247782
6	0x3e393260	0.18085623
7	0xbe92c70c	-0.28667486
8	0xbe9212f7	-0.28530094
9	0x3dc78172	0.097414866
10	0xbd90d433	-0.07071724
11	0xbeb6b5de	-0.3568563
12	0xbe30a456	-0.17250189
13	0xbe64ee3c	-0.22356504
14	0xbf0d5829	-0.55212647
15	0xbe05092f	-0.12991785
16	0x3e8a164d	0.2697014
17	0xbe97273b	-0.29522118
18	0xbdf449b1	-0.11928118
19	0xbe1682c6	-0.14698324
20	0xbf1efa58	-0.62100744
21	0xbe2276a8	-0.15865576
22	0x3e0f022f	0.13965677
23	0xbef79e63	-0.48363027
24	0xbf2fa3c7	-0.6860928
25	0xbeb0c708	-0.3452685
26	0xbec88cba	-0.39169866
27	0x3f184e4c	0.5949447
28	0xbe0028cd	-0.12515564
29	0xbf03ce89	-0.5148702
30	0xbec19c7e	-0.37814707
31	0xbe16f4f0	-0.14741874

conv2.weight f4 [32, 32, 5, 5]
0	0xbef9483b	-0.4868792
1	0xbe6bc705	-0.23025139
2	0xbecc7d48	-0.39939332
3	0xbf188c11	-0.59588724
4	0xbec0df2c	-0.37670267
5	0x3ec89b58	0.39181018
6	0x3e757770	0.23971343
7	0xbe12e38b	-0.14344613
8	0x3dd6de1a	0.10491581
9	0xbecaead4	-0.39632285
10	0x3e998d49	0.29990605
11	0xbe7075d8	-0.23482454
12	0xbea616bc	-0.3243922
13	0xbde80068	-0.113282025
14	0xbf2a5e11	-0.66549784
15	0xbc142d79	-0.009044045
16	0x3d812d1b	0.06307431
17	0x3dcb5a48	0.09929329
18	0xbeb5a491	-0.35477117
19	0x3e3446d4	0.17605144
20	0xbe995861	-0.2995024
21	0x3eb7e61d	0.3591775
22	0xbcfca4c8	-0.030840293
23	0x3dbb726f	0.09152686
24	0x3d6ed00c	0.058303878
25	0x3ea7d264	0.32777703
26	0x3e05065e	0.1299071
27	0xbf844988	-1.033494
28	0xbc3f48c5	-0.011675064
29	0xbe9fa4b2	-0.3118034
30	0x3dd9efb1	0.10641421
31	0x3ebeb286	0.37245578
32	0xbe82f818	-0.25579906
33	0xbe768c2a	-0.24076906
34	0x3e67203c	0.2257089
35	0x3e373c16	0.17894015
36	0xbc9b9c94	-0.01899556
37	0x3dfcf2a4	0.123509675
38	0xbe7c5726	-0.2464262
39	0x3f0a5ce8	0.54048014
40	0xbc92ddbd	-0.017927999
41	0x3de29860	0.110642195
42	0x3f3b5fb4	0.73192906
43	0xbe4c0a55	-0.19925816
44	0xbf30eedd	-0.69114476
45	0xbd1304d8	-0.03589329
46	0xbe552d05	-0.20817955
47	0xbe0d4d7f	-0.13799094
48	0xbe7d8c8f	-0.2476065
49	0x3dbdd1ed	0.09268556
50	0xbd179c17	-0.037014093
51	0xbe40aa96	-0.18815073
52	0xbdac95b7	-0.08426993
53	0xbdd039ce	-0.10167275
54	0xbd9d41f9	-0.07678599
55	0x3e1562e9	0.14588512
56	0xbcc6abe6	-0.02425189
57	0x3ea50c73	0.3223606
58	0xbdaf86c8	-0.08570629
59	0xbb72e650	-0.0037063546
60	0x3ee33d3a	0.4438265
61	0x3dc1adb9	0.09456963
62	0xbf14db26	-0.58146894
63	0xbe287899	-0.16452254
64	0xbd922ea8	-0.07137805
65	0xbd846f0d	-0.06466494
66	0x3da64076	0.08117764
67	0x3ec5eb93	0.3865629
68	0x3d8eb981	0.06968976
69	0x3da9bf68	0.08288461
70	0xbf1d5a1e	-0.6146563
71	0xbe2a9915	-0.16659959
72	0xbf03efc1	-0.5153771
73	0x3d58b648	0.052908212
74	0xbe6e3968	-0.23264086
75	0x3e061c9a	0.13096848
76	0x3c9b2279	0.018937336
77	0x3d594bef	0.05305093
78	0xbe8d937b	-0.2765158
79	0xbe7d3dca	-0.24730602
80	0xbe21c8b8	-0.15799224
81	0x3e0f1d2d	0.13975973
82	0xbe3e7d28	-0.18602431
83	0xbe59fa64	-0.21286923
84	0x3e561d71	0.20909669
85	0xbf7f0562	-0.9961759
86	0x3e3d6700	0.18496323
87	0xbd217ef8	-0.039427727
88	0xbcaf431b	-0.021394303
89	0x3e9fac1f	0.31186005
90	0xbed72936	-0.4202363
91	0xbf043192	-0.5163814
92	0x3d9047d1	0.07044948
93	0x3d3a651d	0.045506585
94	0xbdbe6d03	-0.09298136
95	0xbe78a9b9	-0.24283494
96	0xbd4859b5	-0.048913676
97	0xbd21347a	-0.039356686
98	0xbf15be0f	-0.5849313
99	0x3e0550c1	0.13019086
100	0xbd883e03	-0.06652453
101	0xbf38837d	-0.72075635
102	0x3e3daaf5	0.18522246
103	0xbefa369d	-0.48869792
104	0xbde209f2	-0.11037053
105	0x3db7c482	0.08973028
106	0xbeeeb501	-0.4662247
107	0xbe313f58	-0.1730932
108	0x3cb66bb3	0.022268152
109	0xbefee2de	-0.4978246
110	0x3cb2e9fd	0.02184009
111	0xbc60c34e	-0.013718439
112	0xbeca93df	-0.39565942
113	0xbe8d609c	-0.2761277
114	0xbe6be8f5	-0.23038085
115	0xbc44507c	-0.01198208
116	0x3f1b8541	0.60750204
117	0xbee3d6b6	-0.4449975
118	0xbdcf32d4	-0.101171166
119	0xbc0f4320	-0.008744031
120	0xbd85d1af	-0.065341346
121	0xbee4acf7	-0.44663212
122	0xbe781f33	-0.24230652
123	0xbe4aff6e	-0.19824001
124	0x3eb4a491	0.35281804
125	0x3f19b962	0.60048497
126	0x3dc630bd	0.09677265
127	0x3e2523dc	0.1612696
128	0x3dfb3da3	0.12267616
129	0xbf139db5	-0.57662517
130	0x3d056b94	0.032573298
131	0xbe6a0983	-0.22855191
132	0xbf3d8628	-0.7403283
133	0xbec30c79	-0.38095453
134	0xbe86d067	-0.26330873
135	0x3e9e1efc	0.30883014
136	0xbe88b20e	-0.26698345
137	0x3d9595f8	0.07303995
138	0xbe7b13b4	-0.24519235
139	0xbdd5b008	-0.10433966
140	0xbeb2c3ce	-0.34915012
141	0xbe116db6	-0.14202008
142	0x3e03ab53	0.12858324
143	0x3e06b0ce	0.13153383
144	0x3aca45e8	0.0015432211
145	0x3ece3038	0.40271163
146	0xbee85e77	-0.4538457
147	0x3e630295	0.22168954
148	0xbe296291	-0.16541506
149	0xbce76f57	-0.028251333
150	0xbd8e4c1d	-0.06948111
151	0xbe8b34a7	-0.27188608
152	0xbeab591d	-0.33466426
153	0xbe462d4f	-0.19353221
154	0xbdd53d2e	-0.1041206
155	0x3d01b032	0.031662174
156	0xbeb45cac	-0.35226953
157	0x3f0dc545	0.55379134
158	0xbe573ba0	-0.21018839
159	0xbf0be89c	-0.5465181
160	0x3e2aaf8a	0.16668525
161	0x3ebbd663	0.36687002
162	0xbe49a979	-0.19693555
163	0x3e2cecd5	0.16887219
164	0x3f01d3af	0.5071363
165	0x3e20b19b	0.15692751
166	0xbdf6d87f	-0.12053012
167	0xbec5fc01	-0.38668826
168	0xbf745961	-0.9544888
169	0x3e3dd17e	0.18536946
170	0xbdfd4205	-0.12366108
171	0xbeb9b085	-0.36267486
172	0x3e287cb6	0.16453823
173	0xbea4f2d5	-0.32216516
174	0xbf0edf2f	-0.558093
175	0xbe488912	-0.19583538
176	0xbe957525	-0.29190937
177	0x3d805663	0.06266477
178	0xbe6a4e22	-0.22881368
179	0xbe8cc379	-0.27492884
180	0xbed6267e	-0.41826242
181	0x3de8a295	0.11359135
182	0x3df672c6	0.1203361
183	0x3e001d51	0.12511183
184	0xbe119fbf	-0.14221095
185	0x3d93c956	0.07216136
186	0xbf0a3a70	-0.5399542
187	0xbed189c6	-0.40925425
188	0x3efea6af	0.49736544
189	0xbf1fa836	-0.62366045
190	0xbe74ee4d	-0.2391903
191	0xbd9bb8bc	-0.07603595
192	0xbebad9a3	-0.3649417
193	0xbf02639b	-0.50933236
194	0xbe85f869	-0.26166084
195	0xbeb3dc7e	-0.3512916
196	0x3e25a98c	0.16177958
197	0x3e662396	0.22474512
198	0xbe5733aa	-0.21015802
199	0xbd9fe117	-0.07806604
200	0x3dda26fd	0.10651968
201	0x3eac3c8f	0.33639953
202	0x3e2fb22b	0.1715781
203	0xbef756cf	-0.48308417
204	0xbefce55b	-0.49393734
205	0x3dc8887e	0.09791659
206	0xbeafc339	-0.3432863
207	0x3db95a59	0.090504356
208	0xbe591b9c	-0.21201938
209	0xbdc9f845	-0.09861807
210	0xbd878b2a	-0.0661834
211	0x3e8548b9	0.26032045
212	0xbf048fab	-0.5178172
213	0x3d3cef98	0.046126932
214	0x3e1a3a2a	0.1506125
215	0x3e40d217	0.18830143
216	0x3e23f3b4	0.16010934
217	0x3e4e5624	0.20150048
218	0xbdb2ec16	-0.08736436
219	0x3dbc3368	0.091894925
220	0x3e1990a3	0.14996581
221	0x3e727c67	0.23680268
222	0xbd96e8f8	-0.07368654
223	0xbe98593c	-0.2975558
224	0xbf235d7e	-0.6381453
225	0xbe97cace	-0.29646915
226	0x3e4292db	0.19001333
227	0xbe582426	-0.2110754
228	0xbe9f6974	-0.31135142
229	0x3c4813fc	0.012211796
230	0xbef2e0f0	-0.4743724
231	0x3df32bf4	0.11873618
232	0x3f07af48	0.5300183
233	0xbfa3ac57	-1.2786969
234	0x3ef5696d	0.47931996
235	0xbc986296	-0.018601697
236	0xbe74f360	-0.23920965
237	0xbd39d814	-0.045372084
238	0xbeb51da2	-0.3537417
239	0xbd8608cd	-0.06544647
240	0xbe0126f9	-0.12612523
241	0x3d521941	0.051293615
242	0xbee66596	-0.4499938
243	0xbf18035a	-0.59380114
244	0xbf1afbf9	-0.6054073
245	0xbe7132ea	-0.23554578
246	0x3e5de4e7	0.2166935
247	0x3ea4348f	0.3207135
248	0xbe355ffc	-0.17712396
249	0xbe4cd630	-0.20003581
250	0xbc08abbf	-0.008341729
251	0x3d3a6d7a	0.04551456
252	0x3d360b6d	0.04444449
253	0xbe24d8ab	-0.16098277
254	0xbe6cfe58	-0.231439
255	0x3f058971	0.52162844

conv2.bias f4 [32]
0	0xbe9a6913	-0.3015829
1	0xbea9a42a	-0.3313306
2	0x3db6651f	0.08906006
3	0xbb3d4ea0	-0.0028885975
4	0xbe6bf998	-0.23044431
5	0xbe977146	-0.29578608
6	0xbdf165f2	-0.11787023
7	0x3c632184	0.013862971
8	0xbc57ee0f	-0.013179316
9	0xbe59a724	-0.21255165
10	0xbeb04679	-0.34428766
11	0xbd0e5c0d	-0.034755755
12	0xbe7a0a0f	-0.244179
13	0xbea02929	-0.31281403
14	0x3d70a588	0.058751613
15	0xbe4ad6e3	-0.19808535
16	0xbe3face2	-0.18718293
17	0xbe71cddd	-0.23613687
18	0xbea19d9c	-0.3156556
19	0x3d17c49a	0.03705273
20	0xbe971409	-0.29507473
21	0xbe6772c1	-0.22602369
22	0xbe801f7b	-0.25024018
23	0xbe1578ac	-0.14596814
24	0xbd58ee02	-0.052961357
25	0xbeb290fe	-0.34876245
26	0xbe043de2	-0.12914231
27	0xbe496f8a	-0.19671455
28	0xbed78fac	-0.421018
29	0xbe6926fe	-0.2276878
30	0xbe38ff6d	-0.18066187
31	0xbe81b4e0	-0.2533331

conv3.weight f4 [32, 32, 5, 5]
0	0x3e577e52	0.21044281
1	0x3e344139	0.17603005
2	0x3e710cac	0.2353999
3	0xbe63004e	-0.22168085
4	0xbf379966	-0.7171844
5	0x3cd55da0	0.02604562
6	0x3e4cdf53	0.20007066
7	0x3d523858	0.051323265
8	0x3ece2647	0.40263578
9	0xbea55b5a	-0.32296258
10	0x3e9730e1	0.2952948
11	0xbf52eafd	-0.82389814
12	0x3e8e570a	0.2780078
13	0x3e86e0f9	0.26343516
14	0x3e561cf2	0.2090948
15	0xbe3a1ddf	-0.18175457
16	0x3e2a7ce6	0.16649207
17	0x3f2547e4	0.6456282
18	0xbefdaead	-0.4954733
19	0xbe15066f	-0.14553235
20	0x3f302703	0.6880953
21	0x3eb96717	0.36211464
22	0x3eed939f	0.46401688
23	0x3e84f5a2	0.25968653
24	0xbf027dd1	-0.5097323
25	0x3e05099f	0.12991951
26	0xbf80089a	-1.0002625
27	0xbf012092	-0.50440323
28	0xbdca494f	-0.09877264
29	0xbd8ea0f1	-0.06964291
30	0xbc0ca6e4	-0.008584712
31	0xbf158502	-0.5840608
32	0xbe94eca6	-0.29086798
33	0x3f0d7877	0.5526194
34	0x3ddc5d0e	0.10759936
35	0x3d19a08b	0.03750662
36	0xbf5541fa	-0.833038
37	0x3ec3e26f	0.38258693
38	0xbe450b11	-0.19242503
39	0x3e0ab118	0.13544118
40	0x3da0bd48	0.078486025
41	0xbe3b0fca	-0.18267742
42	0xbf1474ea	-0.57990897
43	0xbe0c3bd5	-0.13694699
44	0xbf450764	-0.769644
45	0x3f0900b5	0.53516704
46	0xbee32462	-0.44363695
47	0x3e137328	0.14399397
48	0xbd9d0143	-0.07666256
49	0x3f260877	0.64856666
50	0x3cc7504e	0.024330284
51	0x3f13341e	0.575014
52	0xbdaf9421	-0.08573175
53	0xbf0fd44c	-0.56183314
54	0x3bbd443f	0.005775958
55	0xbe52f4ea	-0.2060124
56	0x3dcac6c5	0.099011935
57	0x3c5f662a	0.013635198
58	0xbe8a55f5	-0.27018705
59	0xbf27ad8a	-0.65499175
60	0x3de4becf	0.11169206
61	0x3ebc067e	0.36723703
62	0xbd3e6cf4	-0.046490625
63	0xbe8e7381	-0.27822497
64	0xbf181af5	-0.59416133
65	0xbe799b6f	-0.243757
66	0xbf03c7a1	-0.51476485
67	0xbef926e9	-0.486625
68	0x3ed58f8e	0.41711086
69	0x3e36e88d	0.17862149
70	0xbe6a7018	-0.22894323
71	0xbdc35b29	-0.09538872
72	0x3eb70862	0.35748583
73	0xbeab707d	-0.3348426
74	0x3df74efb	0.12075611
75	0x3dc78284	0.09741691
76	0xbd923c83	-0.07140448
77	0x3d1cec50	0.038311303
78	0x3df2133b	0.11820074
79	0x3f0cd5a4	0.5501349
80	0x3ea9dd59	0.33176687
81	0xbe8968c6	-0.26837748
82	0xbe26fc33	-0.16307144
83	0x3e37d036	0.1795052
84	0xbe190a51	-0.14945342
85	0x3d721c5c	0.059109077
86	0xbedb2150	-0.42798853
87	0x3eb91df8	0.36155677
88	0x3cdb8c52	0.026800308
89	0x3e5b1f78	0.21398723
90	0xbf04f6fd	-0.51939374
91	0x3e37377b	0.17892258
92	0xbef035fc	-0.46916187
93	0x3e560205	0.20899208
94	0xbe21f141	-0.15814687
95	0xbe6ca8bc	-0.23111242
96	0x3e8825e2	0.26591402
97	0xbeea1399	-0.45718077
98	0x3e139dfc	0.14415735
99	0x3f11736b	0.5681674
100	0xbdc1b90f	-0.09459125
101	0xbe64f160	-0.22357702
102	0x3e9127a3	0.28350553
103	0x3e0c433e	0.13697526
104	0xbee6665d	-0.44999972
105	0x3e95bd48	0.29245973
106	0xbe5eaf02	-0.21746448
107	0xbe7e8b99	-0.2485794
108	0x3ea47186	0.32117862
109	0xbe780f41	-0.24224569
110	0xbf1a18cf	-0.60194105
111	0xbd138187	-0.0360122
112	0xbdbf3d03	-0.09337809
113	0xbebd533c	-0.36977565
114	0xbeecbb99	-0.46236876
115	0x3eccaf94	0.39977705
116	0xbebe3a15	-0.37153688
117	0xbe90f408	-0.2831118
118	0x3e11a3e6	0.14222679
119	0x3e8caa14	0.2747351
120	0x3e0dd993	0.13852529
121	0x3c7f387a	0.01557743
122	0xbd18f1d3	-0.037339997
123	0xbeca84d6	-0.3955447
124	0xbec9b315	-0.3939444
125	0xbeb6e98c	-0.35725057
126	0x3e80bd09	0.25144222
127	0x3e05bb47	0.13059722
128	0x3ead7b65	0.33883205
129	0xbd505682	-0.05086375
130	0x3dfd2b70	0.12361801
131	0x3dafb422	0.085792795
132	0xbdf8851d	-0.12134764
133	0x3d749e0d	0.05972104
134	0x3f283130	0.65700054
135	0xbe4ad959	-0.19809474
136	0xbef0cf51	-0.4703317
137	0xbe625b70	-0.22105193
138	0xbd96df74	-0.07366839
139	0xbdee0c95	-0.116234936
140	0xbe73cb06	-0.23807916
141	0xbe0474bd	-0.12935157
142	0xbe493716	-0.1964992
143	0xbd16e232	-0.03683681
144	0x3f093e87	0.53611034
145	0xbca25f37	-0.019820793
146	0xbeb73f4e	-0.35790485
147	0x3e8d96a4	0.27653992
148	0xbf23bcee	-0.6396016
149	0xbe8fcc86	-0.28085726
150	0x3e3dff76	0.18554482
151	0xbf29ecd3	-0.6637699
152	0xbe84e37d	-0.2595481
153	0x3e22d6a5	0.15902193
154	0x3e5816d5	0.2110246
155	0x3e16de9f	0.1473336
156	0xbf14b6c5	-0.58091384
157	0xbcaae4ba	-0.020861018
158	0x3ca308dd	0.019901687
159	0x3eff027d	0.49806586
160	0xbe5895d8	-0.21150911
161	0xbe5e443f	-0.21705721
162	0xbe8f4ec0	-0.2798977
163	0xbf076501	-0.52888495
164	0xbe90dcf8	-0.28293586
165	0xbeb8e0e9	-0.36109093
166	0x3da19566	0.078898236
167	0x3edd5b0c	0.43233526
168	0xbeb0aa4f	-0.34504935
169	0xbe8cfe0a	-0.27537566
170	0xbedafbf6	-0.42770356
171	0xbeb9e1b9	-0.36305025
172	0xbeae17a9	-0.34002426
173	0xbed3241d	-0.4123849
174	0x3e884934	0.2661835
175	0x3e4c0341	0.19923116
176	0x3dc138c1	0.09434653
177	0xbe82f1f6	-0.25575227
178	0xbc660e06	-0.014041429
179	0x3e57a240	0.21057987
180	0x3da0f9c4	0.07860139
181	0xbf51b2fc	-0.81913733
182	0xbed3510a	-0.41272765
183	0x3da53301	0.08066369
184	0xbe36cb41	-0.17850973
185	0x3e969987	0.29414007
186	0xbec270d6	-0.37976712
187	0x3e54a765	0.20766981
188	0xbd48693a	-0.048928477
189	0xbea8f233	-0.32997283
190	0xbe5c75de	-0.21529338
191	0xbe29f0d9	-0.16595782
192	0x3daf2b72	0.085532084
193	0xbe641fa1	-0.2227769
194	0x3e27dcb2	0.16392782
195	0xbe6d941f	-0.23201035
196	0xbe6b1c2b	-0.22959964
197	0x3e5d3339	0.21601571
198	0xbefb2ae4	-0.4905616
199	0x3e647a23	0.22312216
200	0x3e83f245	0.25770774
201	0xbd8efa1f	-0.069813006
202	0xbe6b2e3e	-0.22966859
203	0xbf033ca9	-0.51264435
204	0xbed4eebf	-0.415884
205	0x3ed3bd6d	0.41355458
206	0x3e1494e7	0.14509927
207	0xbea321c2	-0.31861693
208	0xbece2a14	-0.40266478
209	0xbea9ddc4	-0.33177006
210	0xbdefe5e6	-0.117137715
211	0x3dad18fe	0.084520325
212	0xbe96dd16	-0.2946555
213	0x3ed6cc0c	0.4195255
214	0x3debda4e	0.11516248
215	0x3e330a86	0.17484483
216	0xbf187277	-0.5954966
217	0x3dbaa1de	0.09112905
218	0x3d3149a7	0.04328313
219	0x3e6b0e3c	0.22954649
220	0x3e2d4798	0.16921842
221	0x3e09cc88	0.13456929
222	0xbe50f4e8	-0.20405924
223	0xbe7a68d2	-0.24454048
224	0xbdebcb2e	-0.11513363
225	0x3f2fccc3	0.68671817
226	0xbe7ce3ed	-0.24696322
227	0xba118cf2	-0.00055523135
228	0xbec42719	-0.3831108
229	0xbf153991	-0.58290964
230	0xbd3887ea	-0.045051493
231	0xbecf9ac7	-0.40547773
232	0xbe1e3ef3	-0.154537
233	0x3eb38e7e	0.3506965
234	0xbf58db76	-0.8470987
235	0xbf0152eb	-0.5051715
236	0xbf1d6d73	-0.6149513
237	0x3dc18476	0.09449093
238	0x3d63f6f5	0.05565544
239	0xbf2c1370	-0.6721716
240	0xbcdc66d4	-0.026904501
241	0xbe1d8640	-0.15383244
242	0xbe7c8b03	-0.24662404
243	0xbf0b810d	-0.5449379
244	0xbe5763be	-0.21034142
245	0x3e88c902	0.26715857
246	0x3d386117	0.045014467
247	0xbd88bcc1	-0.06676627
248	0xbecc38e2	-0.39887148
249	0xbe7825b3	-0.24233131
250	0xbef7068d	-0.48247185
251	0xbd93377c	-0.07188317
252	0x3e74a7d9	0.23892154
253	0xbf0099f4	-0.50234914
254	0x3e75ccef	0.24003957
255	0xbe9c0a18	-0.3047645

conv3.bias f4 [32]
0	0xbe893a2d	-0.26802197
1	0xbec230ea	-0.37927943
2	0xbe4f044b	-0.20216481
3	0xbe45b528	-0.19307387
4	0xbe24d767	-0.16097794
5	0xbe95ffa9	-0.29296616
6	0x3dccc24e	0.09997998
7	0xbe374a45	-0.17899425
8	0xbe90121f	-0.28138825
9	0xbdf9e173	-0.12201204
10	0xbe937444	-0.2879964
11	0xbe81879e	-0.2529878
12	0xbe0a2f6c	-0.13494653
13	0xbe454bd0	-0.19267201
14	0xbe76e224	-0.24109703
15	0xbc608ae2	-0.013704987
16	0xbee5cb37	-0.44881603
17	0xbe93b416	-0.28848332
18	0xbeba9c3f	-0.3644733
19	0xbee979ba	-0.45600682
20	0xbe409a87	-0.18808948
21	0xbe921494	-0.28531325
22	0xbea14bd3	-0.31503162
23	0xbe428b85	-0.18998535
24	0xbf0be8a6	-0.5465187
25	0xbecb2211	-0.39674428
26	0x3d8ec37f	0.06970882
27	0xbd7aef61	-0.061263446
28	0xbec45f60	-0.38354015
29	0xbe192a37	-0.1495751
30	0xbe3ac923	-0.1824079
31	0xbe1b3ff0	-0.15161109

conv4.weight f4 [32, 32, 5, 5]
0	0xbe4dbc5c	-0.20091385
1	0xbd72f8c8	-0.059319288
2	0xbefb77f7	-0.49114963
3	0xbe5a3e8a	-0.2131292
4	0x3e169b9b	0.14707796
5	0xbe3caedd	-0.1842608
6	0x3dfc600d	0.12323008
7	0x3c4a99b4	0.012365747
8	0xbdafa1b9	-0.08575768
9	0xbe44ae2f	-0.19207071
10	0xbd8cb8cd	-0.068711855
11	0xbec30c47	-0.38095304
12	0x3e8eafc4	0.27868474
13	0xbe285fbc	-0.1644277
14	0xbde872a3	-0.1134999
15	0xbe9ef43d	-0.31045714
16	0x3d05a498	0.032627672
17	0xbea1fb53	-0.31637058
18	0xbd85a290	-0.06525147
19	0xbd0eef0c	-0.03489594
20	0xbe661694	-0.2246955
21	0xbe262ff8	-0.16229236
22	0xbf6914e9	-0.9104753
23	0x3eb0b182	0.34510428
24	0xbe79f891	-0.24411227
25	0x3ec23428	0.37930417
26	0xbda56aa6	-0.08076982
27	0x3e06d896	0.13168558
28	0xbe6d3cd3	-0.23167734
29	0x3efbd29a	0.49184114
30	0x3c2595fa	0.010106558
31	0x3e3b90e9	0.18316998
32	0xb9c860c7	-0.00038219077
33	0xbc9873c2	-0.018609885
34	0xbe6c3d1b	-0.23070185
35	0xbd8d1416	-0.06888597
36	0xbf03615d	-0.5132044
37	0xbe659164	-0.22418743
38	0xbf106331	-0.56401354
39	0x3ccd9446	0.025095116
40	0xbeb1fc93	-0.3476301
41	0x3dccd465	0.100014485
42	0xbc28b55c	-0.010297146
43	0xbf41d621	-0.7571736
44	0x3e87cb24	0.26522171
45	0x3d70dbdf	0.058803435
46	0xbf1b161e	-0.60580623
47	0x3def5b1f	0.11687302
48	0xbda17af0	-0.078847766
49	0xbe8d5469	-0.27603462
50	0xbef02dfc	-0.46910083
51	0xbe014f68	-0.12627947
52	0xbd90bcc2	-0.07067253
53	0xbf3e059a	-0.742273
54	0x3e91be0b	0.28465304
55	0xbea35c4c	-0.31906354
56	0x3e2157f8	0.15756214
57	0xbea1000f	-0.31445357
58	0xbf0467eb	-0.51721066
59	0xbe1a5721	-0.150723
60	0xbeb07db5	-0.34470907
61	0xbefb4d16	-0.4908225
62	0x3e90f6b3	0.28313217
63	0x3ea2e4c7	0.31815168
64	0xbea09f86	-0.31371707
65	0x3d49390f	0.04912668
66	0xbe8121fa	-0.25221235
67	0xbee16e81	-0.4402962
68	0x3d88fbaa	0.06688626
69	0xbd035737	-0.032065596
70	0xbec93658	-0.39299273
71	0x3e03c464	0.12867886
72	0xbd09cf4c	-0.03364496
73	0x3ef878a9	0.48529556
74	0x3eb5bdc1	0.35496333
75	0xbf13a837	-0.5767855
76	0xbeb06563	-0.34452352
77	0xbe8f06b5	-0.27934805
78	0x3dada387	0.08478456
79	0xbd369672	-0.04457707
80	0xbe539f8a	-0.20666328
81	0x3d13b822	0.036064275
82	0xbdd38619	-0.103283115
83	0xbea92bc3	-0.330412
84	0x3c9255d8	0.0178632
85	0x3ddee5b6	0.10883658
86	0x3f4c7cb1	0.79877764
87	0x3f007c20	0.501894
88	0xbd653944	-0.055962816
89	0x3ec8ca40	0.39216805
90	0x3d292c7e	0.041302197
91	0x3da28085	0.079346694
92	0xbe209b4a	-0.15684238
93	0xbec69c85	-0.3879129
94	0x3e8e5225	0.27797046
95	0xbd6987fe	-0.057014458
96	0xbe14b5f6	-0.14522538
97	0xbec8b7e2	-0.3920279
98	0xbe53c6cc	-0.20681304
99	0xbf04e324	-0.5190909
100	0x3f040711	0.5157328
101	0xbed5d254	-0.4176203
102	0xbe8e409a	-0.27783662
103	0xbf1fbf02	-0.6240083
104	0x3dad4eaf	0.08462273
105	0x3d858beb	0.06520828
106	0x3b33e6b2	0.0027450738
107	0xbeb1f00e	-0.3475346
108	0x3dc221dd	0.09479115
109	0x3e08bd5a	0.13353482
110	0xbd579036	-0.052627765
111	0x3e06ce98	0.13164747
112	0xbe9f5ed4	-0.31127036
113	0xbcddc82e	-0.027072992
114	0x3d629bdd	0.055324424
115	0x3e05275b	0.13003294
116	0xbe5b0145	-0.21387203
117	0xbe9311e8	-0.287246
118	0x3d8f908c	0.07009992
119	0x3e292445	0.16517742
120	0x3d82ed92	0.06392969
121	0xbf1f355c	-0.62190795
122	0x3e11ff16	0.14257464
123	0x3ee0aeae	0.4388327
124	0xbd299a78	-0.04140708
125	0x3e22983e	0.15878388
126	0xbdfb3d1a	-0.122675136
127	0xbdafe676	-0.08588879
128	0xbe368b12	-0.17826489
129	0x3e4ce788	0.20010197
130	0xbed9ff32	-0.4257751
131	0xbe84c1be	-0.25929064
132	0x3ec1db42	0.37862593
133	0x3defc3c5	0.11707262
134	0xbe92e986	-0.2869379
135	0xbf1c70a5	-0.6110938
136	0xbd979332	-0.07401122
137	0xbefcb86e	-0.4935946
138	0xbec29351	-0.38003018
139	0x3e608c61	0.2192855
140	0xbe5a086b	-0.21292274
141	0x3e752b70	0.23942351
142	0xbe8c2426	-0.2737133
143	0xbe7999f1	-0.2437513
144	0x3ed5ae29	0.41734436
145	0xbec32ee8	-0.38121724
146	0x3f1e449f	0.6182346
147	0xbcbd9dac	-0.023146473
148	0xbdfa2180	-0.12213421
149	0xbe4d89f4	-0.20072156
150	0xbd65ca15	-0.056100924
151	0xbcea6ce3	-0.028616374
152	0x3e84fe1f	0.2597513
153	0x3e87690f	0.2644734
154	0xbe64ac92	-0.22331455
155	0xbe30664e	-0.17226526
156	0x3eb714f0	0.35758162
157	0xbb2ba6c9	-0.002619194
158	0x3ea306c3	0.31841096
159	0x3e9afc58	0.30270648
160	0xbdf42a73	-0.11922159
161	0xbe53f9c4	-0.20700747
162	0x3e638f0b	0.22222535
163	0x3eab7f77	0.33495685
164	0xbd3c21ce	-0.045930676
165	0xbda208c6	-0.0791183
166	0xbe538926	-0.20657787
167	0xbaa94ff9	-0.001291751
168	0x3eb1efa6	0.3475315
169	0x3ec2471e	0.37944883
170	0xbdcffce0	-0.10155654
171	0x3e5ec0a8	0.2175318
172	0xbec8f9b1	-0.39253
173	0xbe45e6ba	-0.19326296
174	0xbda702fc	-0.08154866
175	0xbdaeabbf	-0.08528852
176	0x3d8f212e	0.069887504
177	0xbe1fa800	-0.1559143
178	0x3d90e7ea	0.07075484
179	0x3e825521	0.25455573
180	0x3de0bd99	0.10973663
181	0xbdf42aef	-0.119222514
182	0xbda37415	-0.07981125
183	0x3ed37890	0.4130292
184	0x3e96b0a9	0.29431656
185	0x3e1e9a13	0.15488462
186	0xbdc31805	-0.09526066
187	0xbd4177e8	-0.047233492
188	0xbe0ef3d8	-0.13960207
189	0xbed5fb3e	-0.41793245
190	0x3f14c1cd	0.58108217
191	0x3c0f516b	0.008747439
192	0xbc3c4217	-0.011490366
193	0xbe00918f	-0.12555526
194	0xbdcbe2bb	-0.09955355
195	0xbe55822e	-0.20850441
196	0xbc876e08	-0.01653196
197	0x3e6bb7c2	0.23019317
198	0xbf1bfd26	-0.6093315
199	0xbf028e95	-0.5099881
200	0xbda8dbbd	-0.08245037
201	0x3e4225f3	0.18959789
202	0x3edf2d18	0.4358909
203	0x3d23b63c	0.039968714
204	0xbe06906e	-0.13141033
205	0x3df17642	0.11790134
206	0x3e9b8018	0.30371165
207	0x3e858f54	0.26085913
208	0x3ea3d577	0.31998798
209	0xbcb8c400	-0.022554398
210	0xbe518964	-0.20462567
211	0x3db14feb	0.08657821
212	0xbde73f08	-0.11291319
213	0xbf12e6b0	-0.5738325
214	0xbeba5cf6	-0.3639905
215	0xbf31780d	-0.6932381
216	0xbe817397	-0.252835
217	0xbedbd090	-0.42932558
218	0xbebef939	-0.37299517
219	0xbe036b33	-0.12833862
220	0x3e4ed7e3	0.20199542
221	0xbe0877b7	-0.13326918
222	0xbed1f464	-0.41006768
223	0x3e3983be	0.18116662
224	0xbe759aba	-0.23984805
225	0xbe22b5f5	-0.15889724
226	0xbe1b3115	-0.15155442
227	0xbe7add9d	-0.24498601
228	0xbe90450c	-0.2817768
229	0x3ed8ed7b	0.42368683
230	0x3dea220c	0.11432275
231	0x3f303f57	0.6884665
232	0xbd47f66e	-0.048818998
233	0xbe600995	-0.21878655
234	0xbd0b2480	-0.033970356
235	0xbe13e986	-0.14444551
236	0x3e53d561	0.20686866
237	0xbea87ef9	-0.32909372
238	0x3e44ece3	0.1923099
239	0x3e5a477d	0.21316333
240	0x3d682f10	0.056685507
241	0x3ecd3003	0.40075693
242	0xbe099c3b	-0.13438503
243	0x3d71ee42	0.05906511
244	0x3f335ab2	0.70060265
245	0xbcce0c2a	-0.025152285
246	0x3e30dcce	0.1727173
247	0x3e871863	0.26385793
248	0x3eff98b2	0.49921185
249	0x3d050e74	0.032484487
250	0x3ddd9154	0.10818735
251	0xbe49efa8	-0.19720328
252	0xbeca41dd	-0.39503375
253	0xbf5cc6b3	-0.8624069
254	0xbf08ef50	-0.5349016
255	0xbf3c658a	-0.73592436

conv4.bias f4 [32]
0	0xbe5eced6	-0.21758589
1	0x3d99b71e	0.0750563
2	0xbee5457a	-0.4477957
3	0xbe9d7281	-0.30751422
4	0xbed53d96	-0.4164855
5	0xbdf8cb5d	-0.121481635
6	0xbea8a912	-0.3294149
7	0xbf23630b	-0.63823
8	0xbe9da559	-0.30790213
9	0xbe979ee7	-0.2961342
10	0xbe592b3d	-0.212079
11	0x3e0cf107	0.1376382
12	0xbe92bcd1	-0.2865968
13	0xbeb69d47	-0.35666868
14	0xbe09bcbc	-0.13450903
15	0xbd3e377f	-0.046439644
16	0xbe8509d5	-0.25984064
17	0x3e113960	0.14182043
18	0xbddbebdd	-0.10738347
19	0xbd917f00	-0.071043015
20	0x3c112ec5	0.008861248
21	0xbd68cd9a	-0.056836702
22	0xbd99576c	-0.074873775
23	0xbeb5aa80	-0.35481644
24	0xbd99dc15	-0.075126804
25	0xbec4e3db	-0.3845509
26	0x3e3d70ca	0.18500057
27	0xbe0434a3	-0.12910704
28	0xbeda2eac	-0.42613733
29	0xbe4cb658	-0.19991434
30	0xbef228b7	-0.47296688
31	0xbdc136c5	-0.094342746

conv5.weight f4 [32, 32, 5, 5]
0	0xbe05d94f	-0.13071178
1	0xbd25caa8	-0.04047647
2	0x3e2a077e	0.1660442
3	0xbe09e76c	-0.13467187
4	0xbe923afc	-0.28560627
5	0x3dd29867	0.10282975
6	0x3e6069e9	0.21915402
7	0xbe2fe3be	-0.1717672
8	0xbb11e109	-0.0022259376
9	0xbe8f4288	-0.27980447
10	0xbe69dd1e	-0.22838256
11	0xbeb3c311	-0.3510976
12	0x3ebec146	0.3725683
13	0xbdd139a1	-0.1021607
14	0xbf037b7d	-0.51360303
15	0xbe71b7f2	-0.23605326
16	0x3ef4a9ee	0.47785896
17	0x3df1327c	0.11777207
18	0xbea15951	-0.31513456
19	0xbe9a5c18	-0.30148387
20	0xbd9a888b	-0.07545575
21	0xbf2c8e0e	-0.6740426
22	0xbd897d90	-0.06713402
23	0xbe1c3591	-0.15254809
24	0x3ee845fa	0.45365888
25	0x3cfc08b4	0.030765869
26	0xbe85b248	-0.2611258
27	0xbf202dfe	-0.6257018
28	0xbe4391e5	-0.19098623
29	0xbf8b5872	-1.0886366
30	0xbdbe82c9	-0.09302289
31	0xbe95eb6b	-0.29281172
32	0xbc57f371	-0.0131806
33	0xbe927ee5	-0.28612438
34	0xbd861804	-0.06547549
35	0xbec4f990	-0.3847165
36	0x3e08469f	0.1330819
37	0x3ef54b11	0.47908834
38	0x3e8058a8	0.2506764
39	0x3e7d5e56	0.24743018
40	0xbed2fcad	-0.412084
41	0x3d39afed	0.04533379
42	0x3cc539c4	0.024075396
43	0x3e24ec5e	0.16105792
44	0x3e0450c9	0.12921442
45	0x3d1b56e8	0.037924677
46	0xbf0bde27	-0.5463585
47	0x3f2c8424	0.6738913
48	0x3e781db0	0.24230075
49	0xbf0509a7	-0.51967853
50	0xbe0085ab	-0.1255099
51	0x3d991626	0.074749276
52	0xbefc2db8	-0.4925363
53	0x3f10510e	0.5637368
54	0xbf42fdb9	-0.761684
55	0xbef3511f	-0.47522828
56	0x3e9c8c8e	0.30575985
57	0xbde96d67	-0.1139782
58	0xbeb8ebc3	-0.36117372
59	0xbf0e34d1	-0.5554934
60	0xbe9f6956	-0.31135052
61	0x3e4c4f17	0.19952045
62	0xbe1d9474	-0.15388662
63	0x3f1984d8	0.5996833
64	0x3eb31028	0.34973264
65	0xbf143047	-0.57886165
66	0x3e8dfd26	0.277322
67	0xbea1aab0	-0.31575537
68	0xbe90bd5e	-0.28269476
69	0x3f16bf5b	0.58885735
70	0xbf1098c4	-0.564831
71	0x3e7a2071	0.24426438
72	0xbcf9d0ff	-0.030495165
73	0xbdd90c00	-0.10597992
74	0xbe4eee21	-0.20208026
75	0x3eb3f8ec	0.3515085
76	0x3e66fc7e	0.22557256
77	0xbd26436e	-0.04059165
78	0xbe4e2ba5	-0.20133837
79	0xbf0b34b0	-0.5437727
80	0x3eb2a517	0.3489158
81	0x3db6d300	0.08926964
82	0xbf064e28	-0.52463007
83	0x3ebd7560	0.37003613
84	0xbf2f089c	-0.6837251
85	0xbe612e54	-0.21990329
86	0xbd836307	-0.06415372
87	0x3d86e75b	0.06587096
88	0x3e2c36de	0.16817805
89	0xbe60ecd8	-0.21965349
90	0xbe4fda77	-0.20298181
91	0xbb0505ae	-0.0020297575
92	0x3e9b4b18	0.3033073
93	0xbdeadecf	-0.114682786
94	0xbf45d349	-0.7727552
95	0x3bc9817c	0.006149469
96	0xbe50fbb8	-0.20408523
97	0xbd73f554	-0.059560135
98	0x3e804f84	0.25060666
99	0xbe9783ad	-0.29592648
100	0x3ec7c59c	0.3901795
101	0xbd8bbdd7	-0.068233185
102	0xbc0df4e0	-0.00866434
103	0x3f175e58	0.5912833
104	0xbeae6997	-0.34064934
105	0xbe9d6fb5	-0.30749288
106	0x3e478aba	0.19486514
107	0xbe39d851	-0.18148924
108	0x3e0ca06c	0.13733071
109	0x3edd0fe0	0.43176174
110	0xbd4ee938	-0.050515383
111	0x3dc811fb	0.097690545
112	0xbde7a243	-0.11310246
113	0x3ddc6fef	0.10763537
114	0x3e6ceddb	0.2313761
115	0xbf4c2ce5	-0.79756004
116	0xbe76d163	-0.24103312
117	0x3d97d7e1	0.074142225
118	0xbf1b6d19	-0.60713345
119	0x3e29c6f4	0.16579801
120	0xbec39941	-0.3820286
121	0xbe7768d4	-0.24161083
122	0xbda5d007	-0.08096319
123	0xbdf91ff1	-0.121642955
124	0x3d874ac2	0.06606056
125	0x3e7f5358	0.24934137
126	0x3e583988	0.21115696
127	0xbe95404b	-0.29150614
128	0xbe949b35	-0.29024664
129	0xbec8a391	-0.3918729
130	0xbeb74e7d	-0.3580207
131	0x3d76e059	0.06027255
132	0xbcc57473	-0.024103379
133	0x3e9f233a	0.31081563
134	0x3ed3fa70	0.41402006
135	0xbecd2ee5	-0.4007484
136	0x3eacbac4	0.3373624
137	0xbe8bc318	-0.27297282
138	0xbe746ae8	-0.23868906
139	0xbe9303d1	-0.2871385
140	0xbedb1c82	-0.42795187
141	0xbd303263	-0.043016803
142	0xbeb41c9c	-0.35178077
143	0xbe01bfc7	-0.12670814
144	0x3e166623	0.146874
145	0x3e31f75b	0.17379515
146	0x3e1a0700	0.15041733
147	0xbf0e1623	-0.5550253
148	0xbef3d5b9	-0.47623995
149	0xbf1dd49b	-0.61652535
150	0x3e5adcc1	0.21373273
151	0x3e843773	0.25823554
152	0x3f120e9b	0.57053536
153	0xbddc7c39	-0.10765881
154	0x3f307925	0.6893485
155	0xbe3130bc	-0.17303747
156	0x3e1eda19	0.15512885
157	0x3e9fb67a	0.31193906
158	0x3e1725e7	0.14760552
159	0x3e57dd78	0.21080577
160	0xbd7e04ff	-0.062016483
161	0xbee4a874	-0.4465977
162	0x3eb583aa	0.35452014
163	0xbcdbcf8d	-0.026832366
164	0xbc2fffc2	-0.01074213
165	0xbdafc9b0	-0.08583391
166	0x3d2f9d14	0.04287441
167	0x3ececd9b	0.4039124
168	0x3cd8020a	0.02636816
169	0x3efffa6b	0.4999574
170	0x3ea8a6ae	0.32939667
171	0x3f15051d	0.5821093
172	0xbd9228cd	-0.071366884
173	0x3f00bfbd	0.5029257
174	0x3ed58b4c	0.41707838
175	0x3ea0233a	0.31276876
176	0x3eabd428	0.335603
177	0x3f236d33	0.638385
178	0x3f27f3d0	0.65606403
179	0x3d80799b	0.062731944
180	0x3e2fe857	0.17178474
181	0xbddeadc6	-0.108729884
182	0x3de85c78	0.11345762
183	0x3f1a6fd6	0.603269
184	0xbe94f96b	-0.2909654
185	0x3c3dd502	0.01158643
186	0xbc705396	-0.014668366
187	0x3c834f94	0.016029157
188	0x3e8ab467	0.2709076
189	0xbe30d725	-0.17269571
190	0xbe098ddd	-0.13433023
191	0xbe4b289f	-0.19839714
192	0x3e7b9682	0.24569133
193	0xbef32f20	-0.4749689
194	0x3e0a5f9a	0.13513032
195	0xbd6b08fa	-0.057381608
196	0xbd14f69e	-0.036368005
197	0x3f3f04d2	0.7461673
198	0x3ea4be64	0.32176507
199	0x3c9060a4	0.017624207
200	0xbe9a1aac	-0.30098474
201	0x3e60d5a6	0.219565
202	0x3dab8b65	0.08376197
203	0xbdb24224	-0.087040216
204	0x3dc2b56f	0.09507262
205	0x3a068009	0.0005130773
206	0x3ee22af7	0.44173405
207	0xbec3eeac	-0.3826803
208	0xbef335b2	-0.47501904
209	0x3e561579	0.20906629
210	0x3e3cbd3e	0.18431565
211	0x3eae4b07	0.34041616
212	0x3eba851b	0.36429676
213	0xbcca0aef	-0.024663417
214	0x3e258187	0.16162692
215	0xbdbd7276	-0.09250347
216	0x3e357c3a	0.1772317
217	0x3d804a02	0.06264116
218	0xbe817bd0	-0.25289774
219	0x3dafdfc3	0.08587601
220	0xbeb70b9a	-0.3575104
221	0x3e5775b0	0.21040988
222	0x3e7d3b4c	0.24729651
223	0xbe8ac386	-0.27102298
224	0x3dbdcd60	0.09267688
225	0xbe109811	-0.14120509
226	0xbdcffac2	-0.1015525
227	0xbea9dc74	-0.33176005
228	0xbe893bf2	-0.26803547
229	0xbee682dc	-0.45021713
230	0xbebf4d88	-0.3736384
231	0x3cab68e3	0.020924037
232	0xbea60d22	-0.32431895
233	0xbd5dd0a8	-0.05415407
234	0xbd9a1deb	-0.07525238
235	0xbe7ce709	-0.24697508
236	0xbeb50951	-0.3535867
237	0x3eeb2a5d	0.45930758
238	0x3e1153a3	0.14192061
239	0x3e38b2b3	0.18036918
240	0xbf045b95	-0.51702243
241	0xbd1e5832	-0.03865833
242	0xbead2148	-0.33814454
243	0x3e86c2bf	0.26320454
244	0xbf271965	-0.65273124
245	0x3e56ef48	0.20989716
246	0x3e1cf521	0.15327884
247	0xbe8bed27	-0.2732937
248	0x3e40c03d	0.18823333
249	0xbd9f3fbc	-0.07775828
250	0xbe645319	-0.22297324
251	0x3df6c122	0.12048556
252	0x3d15601b	0.036468606
253	0xbeeaeda8	-0.45884442
254	0x3f04932b	0.5178706
255	0xbdc7afdf	-0.097503416

conv5.bias f4 [32]
0	0xbe772466	-0.24134979
1	0x3e13ae7d	0.14422031
2	0xbe5c8405	-0.21534736
3	0x3de1617c	0.11004922
4	0x3f0fcf41	0.5617562
5	0xbeb66bc6	-0.356291
6	0xbee22710	-0.44170427
7	0xbf2b9115	-0.6701825
8	0xbefb527a	-0.49086362
9	0xbea81bb2	-0.3283363
10	0xbf1b0bb1	-0.60564715
11	0x3c37ff31	0.011230276
12	0xbf1ba5f1	-0.6080008
13	0xbf091cbc	-0.5355947
14	0xbf596a6e	-0.84928024
15	0xbf1a697f	-0.60317224
16	0x3edc0d57	0.42978927
17	0xbe813090	-0.25232363
18	0xbf4dc17c	-0.8037336
19	0xbeca3dcc	-0.39500272
20	0x3d449f46	0.048003457
21	0x3ec39744	0.38201344
22	0xbf29586f	-0.66150564
23	0x3d200e41	0.039076094
24	0xbef60a1e	-0.48054594
25	0xbf04550d	-0.5169228
26	0xbed9cc29	-0.42538574
27	0xbf089093	-0.533456
28	0xbeb61adf	-0.35567376
29	0xbe5247bf	-0.20535181
30	0xbf2e4338	-0.6807132
31	0xbe3bf721	-0.18355991

conv6.weight f4 [32, 32, 5, 5]
0	0xbe998240	-0.29982185
1	0x3bbb51e4	0.005716549
2	0xbd93bd4b	-0.07213839
3	0xbea48b61	-0.32137588
4	0xbf09441a	-0.5361954
5	0x3eb9c2f9	0.36281565
6	0xbed820f1	-0.42212632
7	0xbe532bde	-0.20622203
8	0x3e684f0b	0.22686402
9	0x3d47618a	0.048677005
10	0x3ca395f0	0.019968957
11	0xbcc52ae5	-0.024068305
12	0xbdacf9c8	-0.084460795
13	0x3df4e69e	0.11958049
14	0x3ee6fcf9	0.45114878
15	0x3ec2534a	0.3795417
16	0x3ea17b67	0.3153946
17	0xbe860c2f	-0.2618117
18	0xbebfe2e2	-0.37477785
19	0x3ddb285e	0.10701059
20	0xbc6f295f	-0.014597266
21	0x3e56670a	0.20937744
22	0xbd99724f	-0.07492506
23	0xbebff684	-0.37492764
24	0xbdd74596	-0.10511319
25	0xbd6474f5	-0.0557756
26	0xbdaf504a	-0.08560236
27	0xbd09802a	-0.033569492
28	0xbe9a781e	-0.30169767
29	0xbf1b02f3	-0.60551375
30	0xbe051fab	-0.13000362
31	0xbd93b202	-0.07211687
32	0x3dede849	0.116165705
33	0x3e1ef58e	0.15523359
34	0xbda40822	-0.08009364
35	0xbd685d93	-0.056729864
36	0x3e0ca583	0.13735013
37	0xbe8ca638	-0.27470565
38	0xbd9052f1	-0.0704707
39	0xbdb0cd40	-0.08632898
40	0x3e9402b8	0.28908324
41	0xbd7ca5b1	-0.061681453
42	0x3d6aef0e	0.057356887
43	0xbebadd54	-0.36496985
44	0xbf2f3b03	-0.6844942
45	0xbe83c2ed	-0.25734654
46	0xbd47d093	-0.048782896
47	0x3dfbe542	0.12299587
48	0xbf03f7ee	-0.51550186
49	0xbf158a7a	-0.58414423
50	0xbe5203e0	-0.2050929
51	0xbf0d6b7f	-0.5524215
52	0x3d215aff	0.03939342
53	0xbe7d2c3d	-0.24723907
54	0xbe89fb5d	-0.26949587
55	0xbeba2edd	-0.3636388
56	0x3ef09f67	0.46996614
57	0x3c2152dd	0.009846416
58	0xbe06bca6	-0.13157901
59	0xbf024f8b	-0.5090262
60	0xbbe3f132	-0.006956243
61	0x3f3b4f48	0.7316785
62	0xbddf5468	-0.10904771
63	0xbe71f1a1	-0.2362733
64	0xbec46146	-0.38355464
65	0xbdfb661c	-0.12275335
66	0x3ed0d154	0.40784705
67	0xbe9a8058	-0.30176044
68	0xbf532c4c	-0.82489467
69	0xbf0c3d1f	-0.54780763
70	0xbd58a1f7	-0.052888837
71	0x3d6018e6	0.054711245
72	0x3f44e57e	0.7691268
73	0x3d17faf8	0.037104577
74	0xbf11be04	-0.56930566
75	0xbf04eafb	-0.5192105
76	0x3d2ac1d8	0.04168877
77	0x3eddec20	0.43344212
78	0xbec749ee	-0.3892359
79	0xbe0ae388	-0.13563359
80	0x3df07340	0.11740732
81	0x3e7d52e0	0.24738646
82	0x3eaf7ce7	0.3427498
83	0x3dabd588	0.08390337
84	0x3f0c6122	0.5483571
85	0xbe9a46d2	-0.30132157
86	0x3e8cfcbb	0.27536568
87	0xbe5ce937	-0.2157334
88	0xbeb53819	-0.35394362
89	0xbec8ed54	-0.39243567
90	0x3df5cfe4	0.120025426
91	0x3edc4be2	0.43026644
92	0xbe1d1781	-0.15340997
93	0x3e4704f3	0.19435482
94	0xbf0ca797	-0.5494322
95	0x3e8afc07	0.27145407
96	0xbe38958b	-0.18025796
97	0xbe0b37fa	-0.13595572
98	0xbe6dd2be	-0.23224923
99	0xbea3c2c4	-0.31984532
100	0xbe69f7d6	-0.22848448
101	0x3ec9aa03	0.3938752
102	0x3ed0180a	0.4064334
103	0xbd0868a6	-0.033302926
104	0x3d7581bb	0.059938174
105	0xbc962f61	-0.018333139
106	0xbe513062	-0.20428613
107	0xbe8b3040	-0.2718525
108	0x3d8cde79	0.06878371
109	0x3d625cd3	0.055264305
110	0xbe549a5f	-0.20762013
111	0xbe222f85	-0.1583844
112	0x3edc24f6	0.4299695
113	0xbe487a67	-0.19577943
114	0x3e8701d3	0.2636858
115	0xbe9d853b	-0.3076571
116	0x3e55f4b4	0.20894128
117	0xbce45333	-0.027871704
118	0xbe8750c6	-0.26428813
119	0x3d6fd67a	0.05855415
120	0x3d116de7	0.0355052
121	0x3ecfdbea	0.4059747
122	0x3f0b9681	0.54526526
123	0xbf166a09	-0.58755547
124	0xbf515238	-0.8176608
125	0x3f0307ac	0.5118358
126	0xbe632d2f	-0.22185205
127	0xbf0ddd76	-0.5541605
128	0xbe0be3f8	-0.13661182
129	0x3e5f7b8f	0.21824478
130	0x3f30c906	0.6905674
131	0x3e9d1965	0.30683437
132	0xbe1ce2ff	-0.15320967
133	0xbe5ae11a	-0.21374932
134	0x3e9efe2b	0.3105329
135	0xbf191e19	-0.5981155
136	0xbefbd59d	-0.49186411
137	0x3c181a8a	0.009283671
138	0xbec808bd	-0.39069167
139	0xbe08be47	-0.13353835
140	0xbddc6708	-0.10761839
141	0xbf47fcc1	-0.78120047
142	0xbefdaf66	-0.4954788
143	0xbf2aeecd	-0.6677063
144	0xbe858942	-0.26081282
145	0x3e8e2286	0.27760714
146	0xbe344b26	-0.17606792
147	0xbec73bd8	-0.38912845
148	0xbec78750	-0.38970423
149	0xbea3c710	-0.3198781
150	0x3e9af509	0.30265072
151	0x3cb1a2a4	0.021683998
152	0xbdddb45f	-0.10825419
153	0x3cac02f9	0.020997511
154	0xbf0fd5b1	-0.5618544
155	0xbdaeb079	-0.08529753
156	0xbf0bf182	-0.54665387
157	0x3d874b93	0.066062115
158	0x3e61bc0a	0.22044387
159	0x3ea1f69a	0.31633455
160	0xbe453c95	-0.19261391
161	0xbe4dcab2	-0.20096853
162	0xbdbc91f2	-0.09207524
163	0xbe88e157	-0.2673442
164	0xbe4f487d	-0.20242496
165	0xbdc9ef19	-0.098600574
166	0x3eb570cd	0.35437623
167	0xbd62c485	-0.055363197
168	0xbe3c572e	-0.18392631
169	0x3f11d150	0.5696001
170	0x3ec82b1c	0.3909539
171	0x3f10006c	0.56250644
172	0x3e606189	0.21912207
173	0xbf126c61	-0.57196623
174	0xbe032a4c	-0.12809104
175	0xbbc38e5c	-0.0059678983
176	0x3f0d3de1	0.55172545
177	0x3ebe980b	0.37225375
178	0xbe9ce910	-0.30646563
179	0xbf20c695	-0.6280301
180	0xbe0dd1d4	-0.13849574
181	0x3ebfb624	0.3744365
182	0x3e45b999	0.19309081
183	0x3ea666f7	0.3250043
184	0xbe34cd03	-0.17656331
185	0xbc92909c	-0.01789122
186	0x3ea7a49c	0.32742774
187	0xbed2d393	-0.41177043
188	0xbe632e79	-0.22185697
189	0x3e75983a	0.23983851
190	0xbea7c4b4	-0.3276726
191	0x3e04e263	0.12976985
192	0x3ebbf830	0.3671279
193	0x3ef9f28b	0.48817858
194	0x3f009206	0.50222814
195	0x3e2f3229	0.17108978
196	0xbe9e442b	-0.30911383
197	0x3ef36024	0.47534287
198	0xbf1e12f8	-0.61747694
199	0xbeb3f546	-0.35148066
200	0x3e0066ae	0.12539169
201	0x3dde1dad	0.10845504
202	0xbecbfef9	-0.39842966
203	0xbf18305b	-0.59448785
204	0xbf5a575c	-0.8528955
205	0x3dc543a9	0.09632046
206	0x3f417260	0.7556515
207	0x3ce069ab	0.027394136
208	0xbd6c544c	-0.05769758
209	0xbe5d86fd	-0.21633525
210	0xbebaf8bd	-0.36517897
211	0x3e284fb7	0.16436659
212	0xbe68c40e	-0.22731039
213	0xbecf1145	-0.40442863
214	0xbe618a34	-0.22025377
215	0x3db8dd60	0.09026599
216	0xbed29071	-0.41125825
217	0xbe115de4	-0.14195973
218	0xbedec396	-0.43508595
219	0xbef1d813	-0.47235164
220	0x3e5aca23	0.21366172
221	0x3e476268	0.19471133
222	0xbdaeccfd	-0.08535192
223	0xbd25546f	-0.040363725
224	0xbc0809a5	-0.008303081
225	0xbeb3388a	-0.35004073
226	0xbecc39a3	-0.39887723
227	0x3e669a9b	0.22519915
228	0xbcbca208	-0.023026481
229	0xbf1fd3bd	-0.6243246
230	0xbdae06be	-0.0849738
231	0xbe90dbe1	-0.28292754
232	0xbeb0bf74	-0.34521067
233	0xbf14df76	-0.58153474
234	0xbf0991bb	-0.5373799
235	0x3ed5c2f9	0.41750315
236	0xbd9cce97	-0.076565914
237	0x3cbf5764	0.0233571
238	0xbe8d31db	-0.275771
239	0xbe2a9aa3	-0.16660552
240	0x3ed416be	0.414236
241	0x3ec4875a	0.38384515
242	0x3e4771a6	0.19476947
243	0x3da7a47f	0.08185672
244	0x3ea0f530	0.31437063
245	0xbd90ffbf	-0.0708003
246	0x3de2c258	0.110722244
247	0xbde5a74d	-0.11213551
248	0xbdf8cf4c	-0.12148914
249	0xbe132934	-0.14371186
250	0xbee9f153	-0.45691928
251	0x3e9b1951	0.30292752
252	0xbe9b2dc4	-0.30308354
253	0xbe78a059	-0.24279918
254	0xbec312b1	-0.38100198
255	0x3d9d7b6e	0.07689558

conv6.bias f4 [32]
0	0x3e8d6141	0.2761326
1	0xbeef276e	-0.4670977
2	0x3f1c8393	0.61138266
3	0x3f48bef6	0.78416383
4	0xbf46ae9f	-0.776102
5	0xbf326502	-0.69685376
6	0xbf49efd6	-0.78881586
7	0xbe9fd3d8	-0.3121631
8	0x3d906e2c	0.070522636
9	0xbf308c5f	-0.6896419
10	0xbeb67dc8	-0.35642838
11	0xbf1e2cf3	-0.6178734
12	0xbe718d93	-0.23589163
13	0xbe6b224b	-0.229623
14	0x3e60c9a1	0.21951915
15	0x3ef5002b	0.4785169
16	0x3e0a93d7	0.13532959
17	0xbe40220a	-0.18762985
18	0x3f06b287	0.5261616
19	0x3f861d3e	1.0477674
20	0xbe556fc6	-0.2084342
21	0x3ed3390f	0.4125447
22	0xbf0437d4	-0.51647687
23	0x3ec4ff73	0.38476142
24	0xbf1fb28e	-0.6238183
25	0xbd8a4c2c	-0.0675281
26	0x3f3b4e70	0.7316656
27	0xbf289f86	-0.65868413
28	0x3e6058b4	0.21908838
29	0x3f3bc14b	0.73341817
30	0x3de662cc	0.11249313
31	0x3ef96484	0.487095
