models/DQN_wb__kaggle.pth (torch, 916528 bytes, 22 tensors)

conv1.weight f4 [32, 1, 5, 5]
0.038702145 0.031620786 -0.3347452 -0.09723828 -0.0036934982 -0.07382567 0.48863506 -0.006317837
0.17473565 0.042820983 -0.4189784 -0.0047148294 -0.096382685 -0.028515194 0.25168082 0.12915534
-0.3510933 0.0067928866 -0.07033606 -0.026645038 -0.2596538 0.3754831 0.53450847 -0.02683659
0.13292503 0.13905506 -0.2724128 0.24676584 -0.0032214117 0.40703163 0.028429326 -0.16972575
0.06005593 -0.006401477 -0.03952 0.16720207 -0.5844886 -0.20347759 -0.43843833 0.43736365
0.09159856 -0.4393588 -0.46272188 -0.17421933 0.0053067077 -0.21559362 -0.060520303 0.16555457
-0.41307926 -0.12666364 -0.21480958 -0.20547354 0.1043752 0.040918387 -0.0058666277 -0.2699964
0.1720812 -0.059356865 0.08080645 -0.0028552997 -0.5374184 0.5426527 0.019590883 -0.15904364
0.05591226 -0.15932047 -0.436747 0.20488518 -0.06818451 0.21134663 -0.13214318 -0.039708227
-0.2407348 0.08700227 0.20962104 -0.18454666 0.29012826 -0.3677566 -0.17819117 0.3981548
0.19459718 0.21979645 -0.4023526 0.024748001 0.28285128 0.3652909 -0.23424648 -0.28357363
-0.44838288 -0.020856827 -0.27392283 0.40266976 -0.11493958 -0.18156931 -0.2900715 0.2803549
-0.27508667 0.020839721 -0.07564233 -0.19673465 -0.87873495 -0.29123753 0.26848686 0.19803925
-0.10746834 0.34750786 -0.15107246 0.14632832 -0.41083956 -0.044973668 -0.25935084 -0.046939183
-0.24382468 -0.2852367 -0.03320406 0.21824121 0.047874283 -0.14063485 -0.096507855 0.3828219
-0.08232882 0.17751326 -0.4199282 -0.04510139 -0.4169943 -0.083360344 -0.44954288 0.0032035753
-0.18490504 0.058609962 0.19123416 0.09229246 -0.037650708 0.042668566 -0.118655026 -0.18931791
-0.06514044 0.19315526 0.027485961 -0.21772674 -0.4071638 0.11126522 0.7004883 0.19831076
-0.32573542 -0.3371137 -0.20823759 -0.22170863 -0.18194571 -0.29995576 -0.15676309 -0.42366838
-0.12103691 0.28377292 0.08014552 -0.020502035 -0.15334931 0.20532098 -0.18800011 -0.34212604
0.37967736 0.12924014 -0.10720833 0.08138125 -0.07793232 0.1628971 0.11172961 -0.41764277
-0.22241063 0.015454857 -0.24919286 0.07352087 -0.043800015 -0.3797236 0.008646015 -0.51005334
0.33707243 -0.10279087 0.047867406 -0.16194864 -0.5049795 0.120326154 0.055403665 0.46120894
-0.62943596 0.15243445 -0.3411989 -0.09962614 0.10705063 -0.51108974 0.13089709 0.1422454
-0.40241525 -0.28225484 0.1341329 -0.67378646 -0.15147674 -0.68348837 0.2205892 0.15598975
0.081044324 0.12704507 0.31334764 0.100464 -0.29838705 0.39783147 -0.19941601 -0.30617678
0.35676888 -0.15631151 -0.17389867 -0.04835959 -0.07378259 -0.1558765 -0.028976133 -0.051681943
0.4812578 -0.05754709 -0.5136256 0.23895577 0.35866633 -0.38277933 0.007789523 -0.7029658
0.27264223 -0.957947 0.115976326 -0.043159854 -0.48271096 0.4078948 0.3544596 -0.051270846
0.08675778 -0.2415436 -0.1462723 -0.14655063 -0.24136251 0.12880927 0.1384224 -0.31134206
-0.46044177 -0.0044905078 -0.26006585 0.23570216 0.22582354 0.1338945 0.3720389 -0.016221628
-0.29195657 0.071235545 0.10010507 -0.0701022 0.000775277 -0.18154539 0.102641694 0.12798244
00000000: 2486 1e3d cc84 013d b963 abbe dd24 c7bd
00000010: 9e0e 72bb ea31 97bd 602e fa3e dc05 cfbb
00000020: e7ed 323e 0e65 2f3d 5684 d6be db7e 9abb
00000030: 4964 c5bd b298 e9bc 4fdc 803e 4c41 043e
00000040: 80c2 b3be dd96 de3b 5a0c 90bd b246 dabc
00000050: 58f1 84be 523f c03e 8cd5 083f 69d8 dbbc
00000060: 801d 083e 7364 0e3e b179 8bbe 2fb0 7c3e
00000070: 521e 53bb 7366 d03e 9ee4 e83c 96cc 2dbe
00000080: 35fd 753d 7bc3 d1bb b9df 21bd 0537 2b3e
00000090: 0ba1 15bf 6e5c 50be fd7a e0be 21ee df3e
000000a0: 0798 bb3d a3f3 e0be e2e9 ecbe 8d66 32be
000000b0: e4e3 ad3b 93c4 5cbe 23e4 77bd 2387 293e
000000c0: 207f d3be 1db4 01be 0bf7 5bbe a867 52be
000000d0: aac2 d53d 0a9a 273d d73c c0bb f83c 8abe
000000e0: 0e36 303e 2f20 73bd da7d a53d fb1f 3bbb
000000f0: 4194 09bf 4aeb 0a3f 0f7d a03c 56dc 22be
00000100: 4104 653d e824 23be 4e9d dfbe 6ccd 513e
00000110: 52a4 8bbd 406b 583e 8b50 07be 18a5 22bd
00000120: 2f83 76be 3f2e b23d e6a6 563e cdf9 3cbe
00000130: b18b 943e 984a bcbe bf77 36be f2da cb3e
00000140: 7c44 473e 5212 613e 2901 cebe 52bc ca3c
00000150: e2d1 903e 6907 bb3e 4fde 6fbe 9030 91be
00000160: 7192 e5be f0db aabc 9d3f 8cbe bb2a ce3e
00000170: 7165 ebbd 4eed 39be 4084 94be ad8a 8f3e
00000180: 29d8 8cbe 10b8 aa3c 5eea 9abd cf74 49be
00000190: c6f4 60bf 161d 95be 1c77 893e cdca 4a3e
000001a0: 5c18 dcbd 8dec b13e bdb2 1abe 17d7 153e
000001b0: 9059 d2be 4f36 38bd a2c9 84be 4d43 40bd
000001c0: 2dad 79be 8b0a 92be fb00 08bd a07a 5f3e
000001d0: d317 443d 9502 10be e9a5 c5bd 3b01 c43e
000001e0: 039c a8bd 09c6 353e d400 d7be 3cbc 38bd
000001f0: 4780 d5be d4b8 aabd 7c2a e6be 13f3 513b
00000200: bf57 3dbe 0011 703d e3d2 433e d403 bd3d
00000210: a137 1abd 3cc5 2e3d 6801 f3bd 8edc 41be
00000220: 5a68 85bd 7eca 453e 3d2a e13c c2f3 5ebe
00000230: c677 d0be 05df e33d 3453 333f fa11 4b3e
00000240: cbc6 a6be 2b9a acbe 3c3c 55be 9607 63be
00000250: fa4f 3abe cd93 99be 8186 20be 10eb d8be
00000260: 33e2 f7bd af4a 913e 5623 a43d e2f3 a7bc
00000270: 9a07 1dbe aa3f 523e 1a83 40be 252b afbe
00000280: 1265 c23e 8757 043e 0a90 dbbd 36ab a63d
00000290: fb9a 9fbd 7fce 263e 7ed2 e43d 46d5 d5be
000002a0: 9dbf 63be 5e36 7d3c 6a2c 7fbe 1c92 963d
000002b0: a567 33bd 226b c2be 04a8 0d3c db92 02bf
000002c0: c294 ac3e 0584 d2bd 9d10 443d ddd5 25be
000002d0: 5646 01bf 8f6d f63d f4ee 623d 9423 ec3e
000002e0: b722 21bf c717 1c3e 9fb1 aebe ca08 ccbd
000002f0: 5c3d db3d c7d6 02bf e309 063e c7a8 113e
00000300: 5f09 cebe b583 90be 235a 093e 457d 2cbf
00000310: b81c 1bbe 18f9 2ebf 23e2 613e c7bb 1f3e
00000320: 91fa a53d 1a18 023e 1a6f a03e 12c0 cd3d
00000330: 30c6 98be 91b0 cb3e b633 4cbe 34c3 9cbe
00000340: 69aa b63e 2010 20be 7e12 32be b514 46bd
00000350: 541b 97bd 179e 1fbe 5b5f edbc 72b0 53bd
00000360: 6c67 f63e 7fb6 6bbd f87c 03bf d2b0 743e
00000370: 1da3 b73e a7fb c3be 413f ff3b 91f5 33bf
00000380: c397 8b3e 043c 75bf ff84 ed3d 63c8 30bd
00000390: e425 f7be 96d7 d03e bb7b b53e 6101 52bd
000003a0: 10ae b13d 3557 77be 68c8 15be 5e11 16be
000003b0: bc27 77be 94e6 033e 9abe 0d3e 3a68 9fbe
000003c0: 06bf ebbe 1c25 93bb 5a27 85be e85b 713e
000003d0: 493e 673e a41b 093e e27b be3e 38e3 84bc
000003e0: 557b 95be f1e3 913d e303 cd3d be91 8fbd
000003f0: f53b 4b3a 09e7 39be cf35 d23d d40d 033e

conv1.bias f4 [32]
-0.45031157 0.18591696 -0.5070568 -0.29045194 0.08661069 -0.32033253 -0.47086987 0.110039875
-0.0021089015 -0.34727472 -0.5195816 -0.3351524 -0.62208414 -0.15972856 -0.4694216 -0.22047445
-0.3064653 -0.049598143 0.060152482 -0.29011482 -0.5306182 -0.38873446 -0.39543027 -0.5589475
0.13828582 0.23696268 -0.28832152 -0.24138781 0.16931143 0.02750046 0.32720762 -0.10726253
00000000: 3d8f e6be 0461 3e3e 79ce 01bf 1eb6 94be
00000010: f260 b13d a002 a4be db15 f1be 965c e13d
00000020: 7f35 0abb fecd b1be 4d03 05bf 1899 abbe
00000030: e840 1fbf e28f 23be 0758 f0be 0ec4 61be
00000040: 05e9 9cbe 6c27 4bbd 7362 763d ee89 94be
00000050: 98d6 07bf 3408 c7be d675 cabe 2f17 0fbf
00000060: cc9a 0d3e 58a6 723e e19e 93be 5e2e 77be
00000070: fa5f 2d3e a548 e13c c287 a73e 75ac dbbd

conv2.weight f4 [32, 32, 5, 5]
0.093637116 -0.12291903 0.07872272 -0.055441167 -0.1257515 0.13329776 0.25066224 -0.0358845
0.003285049 -0.074372336 0.24123387 -0.34543046 -0.17384066 0.2768731 -0.1776177 0.076295175
-0.058136623 -0.17201732 -0.19262254 0.33510616 -0.19272017 0.19412223 0.092050485 -0.24535985
0.08283169 0.28114426 -0.1588444 -0.45664775 -0.32602572 -0.03249421 -0.07375145 0.24549395
-0.18230256 -0.3003693 -0.12500134 -0.0041077514 -0.02437343 -0.07615726 -0.52768195 -0.17260002
-0.37438294 -0.15623531 -0.17488389 0.2894084 0.27566522 0.017835932 0.3157604 -0.35593128
-0.0017359649 -0.2718618 -0.0017962987 -0.29813507 0.25496432 -0.454482 -0.34231815 -0.37893668
-0.0114754485 0.10199259 0.13062192 0.16549064 0.2983921 0.14329655 -0.34023765 -0.27061182
-0.19812253 -0.13691315 -0.040552903 0.07249011 -0.035163812 -0.27767745 -0.4224216 0.06026965
0.024873842 -0.08767906 0.074641876 0.25113907 0.3981482 -0.4673265 0.311839 -0.079301395
0.46776506 -0.2909828 -0.12473668 -0.2975575 -0.10671228 0.06618856 -0.11968754 0.16052951
-0.19520316 -0.2365647 -0.03126554 0.16831726 -0.5393814 0.042416442 -0.050024457 0.14089972
0.14747769 -0.049888786 0.17506933 -0.044961486 0.398133 -0.16076717 0.0014464224 0.21111983
-0.49794808 -0.75698996 -0.24942046 -0.07304452 -0.44733453 -0.3842565 -0.11308008 0.047489278
-0.051131215 -0.24777237 0.41825843 0.1753076 -0.42670405 0.2686212 -0.1933466 -0.33187303
0.4073595 -0.3082661 0.27712107 -0.05111284 -0.4309785 -0.25733683 0.525518 0.62245303
0.2812804 -0.13872948 -0.60836744 0.14990406 -0.22315964 -0.21974212 0.2589774 0.13454892
0.07265553 -0.46393657 -0.49831 -0.16308981 -0.5835129 0.087601624 0.21612543 -0.04895555
-0.008380304 0.4452384 -0.12639782 -0.08181114 -0.45367435 0.27000776 0.08153307 0.14066756
0.095600255 -0.161812 0.2323836 -0.058407106 0.18269676 0.39963093 -0.071622714 0.076662995
0.36922646 0.31427854 0.033416316 -0.427828 -0.14518222 -0.19305784 0.11197691 0.33987358
-0.028162446 0.12645443 0.01297713 0.0832767 0.07147146 -0.37028188 -0.44503263 0.14645576
-0.2755613 -0.2051665 -0.7405436 -0.15806617 -0.06695135 0.014388808 0.11549135 -0.84882414
-0.123510696 0.022513455 0.060729265 0.11900075 0.19788437 0.28366557 -0.81640863 -0.19327277
-0.23752786 -0.41677278 -0.02273481 -0.26393092 0.266955 0.30855587 -0.2961099 -0.14703411
-0.1296673 -0.27137884 -0.02449276 0.36560708 -0.33213744 0.19800276 0.118886076 -0.44156754
-0.035772026 0.023458105 -0.5780635 0.110810705 0.53990793 0.08275738 -0.04530572 0.09040923
-0.4033726 -0.057379078 0.2052379 -0.2376052 -0.17875855 0.25999114 -0.011479595 -0.0600751
-0.22442706 0.120770216 -0.08035171 -0.018111696 -0.16823982 -0.16124125 -0.21712954 -0.42266804
0.2734964 0.07258016 -0.3347477 -0.22373706 -0.5325412 0.02571406 -0.2040773 0.2163617
0.03715128 -0.32678515 0.08239365 -0.12796785 -0.092008874 0.32381973 0.32149222 0.24810289
0.34253162 -0.33857542 -0.13872273 0.096070856 -0.111791745 -0.2161717 -0.46778664 0.30684745
00000000: d1c4 bf3d f9bc fbbd 6139 a13d 4716 63bd
00000010: 00c5 00be 357f 083e cd56 803e a0fb 12bd
00000020: fa49 573b 8650 98bd 0306 773e 43dc b0be
00000030: 4903 32be 50c2 8d3e 6ae1 35be a540 9c3d
00000040: ab20 6ebd 4f25 30be d83e 45be 0993 ab3e
00000050: 7058 45be fac7 463e f784 bc3d 9d3f 7bbe
00000060: a9a3 a93d 24f2 8f3e 1ba8 22be bccd e9be
00000070: d8ec a6be a618 05bd 000b 97bd c462 7b3e
00000080: 86ad 3abe 01ca 99be 5a00 00be 519a 86bb
00000090: caaa c7bc 56f8 9bbd 2a16 07bf 0fbe 30be
000000a0: 1faf bfbe 26fc 1fbe c314 33be 562d 943e
000000b0: fe23 8d3e a91c 923c 59ab a13e a03c b6be
000000c0: 5189 e3ba 7831 8bbe c871 ebba 29a5 98be
000000d0: af8a 823e ddb1 e8be 5344 afbe fd03 c2be
000000e0: 8503 3cbc 7ee1 d03d c1c1 053e 6176 293e
000000f0: d9c6 983e 55bc 123e a133 aebe a28d 8abe
00000100: a2e0 4abe f632 0cbe cd1a 26bd b275 943d
00000110: ee07 10bd bd2b 8ebe a547 d8be 4fdd 763d
00000120: 3ac4 cb3c 1491 b3bd d7dd 983d 4d95 803e
00000130: 15da cb3e 6b45 efbe 5da9 9f3e c568 a2bd
00000140: e77e ef3e b3fb 94be f275 ffbd 7559 98be
00000150: f88b dabd de8d 873d be1e f5bd d961 243e
00000160: 56e3 47be 043e 72be 4b10 00bd 5c5b 2c3e
00000170: e614 0abf ddbc 2d3d 72e6 4cbd 0448 103e
00000180: 6404 173e 2f58 4cbd 6045 333e 8929 38bd
00000190: 17d8 cb3e 26a0 24be e295 bd3a cc2f 583e
000001a0: 0df3 febe 18ca 41bf 1468 7fbe 5e98 95bd
000001b0: 0809 e5be 45bd c4be 8796 e7bd 1e84 423d
000001c0: f76e 51bd 0ab8 7dbe f825 d63e d683 333e
000001d0: f478 dabe b888 893e a7fc 45be 43eb a9be
000001e0: 6d91 d03e 0ed5 9dbe d0e2 8d3e b35b 51bd
000001f0: 37a9 dcbe a7c1 83be 5988 063f 1559 1f3f
00000200: fc03 903e 1a0f 0ebe f8bd 1bbf 7380 193e
00000210: f683 64be 1404 61be b098 843e 31c7 093e
00000220: 6ccc 943d 1889 edbe 7d22 ffbe 0401 27be
00000230: 1a61 15bf 7b68 b33d fc4f 5d3e 9d85 48bd
00000240: 8b4d 09bc 4af6 e33e 6e6e 01be 998c a7bd
00000250: 0148 e8be 753e 8a3e cffa a63d 280b 103e
00000260: 11ca c33d 0cb2 25be f7f5 6d3e 4a3c 6fbd
00000270: dc14 3b3e 6d9c cc3e eeae 92bd 7d01 9d3d
00000280: 400b bd3e 1ee9 a03e 8cdf 083d 460c dbbe
00000290: a6aa 14be f4b0 45be 2654 e53d e903 ae3e
000002a0: eeb4 e6bc 457d 013e 079e 543c f98c aa3d
000002b0: a15f 923d 9695 bdbe 51db e3be 80f8 153e
000002c0: 5f16 8dbe 2b17 52be 4494 3dbf 19dc 21be
000002d0: ca1d 89bd 09bf 6b3c bb86 ec3d 8a4c 59bf
000002e0: 2df3 fcbd 236e b83c 40bf 783d aab6 f33d
000002f0: 33a2 4a3e 9d3c 913e 2800 51bf 4ce9 45be
00000300: 813a 73be 3e63 d5be 5a3e babc f421 87be
00000310: 53ae 883e 09fb 9d3e b89b 97be 1c90 16be
00000320: 81c7 04be 2bf2 8abe 0aa5 c8bc da30 bb3e
00000330: eb0d aabe 3cc1 4a3e 8b7a f33d 2415 e2be
00000340: b085 12bd 362b c03c f8fb 13bf b9f0 e23d
00000350: 6837 0a3f b47c a93d 7e92 39bd 7928 b93d
00000360: da86 cebe 5306 6bbd e229 523e c74e 73be
00000370: 7b0c 37be 8f1d 853e e914 3cbc 4f11 76bd
00000380: 35d0 65be 6056 f73d 708f a4bd fb5e 94bc
00000390: 0f47 2cbe 6d1c 25be 3557 5ebe f267 d8be
000003a0: b807 8c3e e8a4 943d 0d64 abbe 541b 65be
000003b0: 9f54 08bf 4ba6 d23c a4f9 50be ec8d 5d3e
000003c0: f12b 183d 6250 a7be 01be a83d 010a 03be
000003d0: 266f bcbd b3cb a53e a19a a43e af0e 7e3e
000003e0: 4e60 af3e c259 adbe 550d 0ebe ccc0 c43d
000003f0: 12f3 e4bd 1d5c 5dbe bb81 efbe 1c1b 9d3e

conv2.bias f4 [32]
0.013570064 -0.114062905 -0.038710818 -0.13146928 -0.16426274 -0.22716552 -0.034928154 -0.0755056
-0.16006738 -0.23333704 -0.07073652 -0.19656105 -0.0333677 -0.19932882 -0.023132073 -0.10393419
-0.054495197 -0.09382356 -0.17719254 -0.3661909 -0.09539554 -0.053586446 -0.17549735 -0.0853026
-0.1514295 -0.117116965 0.0020798845 -0.04390948 -0.16690855 -0.07300873 -0.019195385 -0.12538037
00000000: f954 5e3c d099 e9bd 3c8f 1ebd e29f 06be
00000010: 7e34 28be 149e 68be d310 0fbd aea2 9abd
00000020: b4e8 23be e8ef 6ebe 4fde 90bd 4d47 49be
00000030: 92ac 08bd db1c 4cbe 797f bdbc 73db d4bd
00000040: 5b36 5fbd 9126 c0bd f671 35be 607d bbbe
00000050: bd5e c3bd 767d 5bbd 94b5 33be 21b3 aebd
00000060: 5610 1bbe 05db efbd ac4e 083b 6dda 33bd
00000070: 13ea 2abe 9a85 95bd a43f 9dbc b663 00be

conv3.weight f4 [32, 32, 5, 5]
-0.31192148 -0.06828385 0.46433914 -0.32463017 0.10976159 -0.075984135 0.040053464 0.093624495
0.019112036 0.08482586 0.18759772 -0.17704394 -0.09438436 -0.037024878 0.04315979 -0.107819095
0.023416998 0.016504623 -0.29683727 0.3317989 0.48500642 -0.30994722 0.26909631 -0.8002307
-0.08015373 0.13972835 0.22313285 0.6084118 -0.28017467 0.028470298 -0.42049748 -0.03622052
-0.8622412 -0.34318277 0.22494756 -0.023323596 0.1857723 -0.28246102 -0.11991283 0.08779292
0.10652121 0.12951948 -0.17359659 -0.23943771 -0.50661343 0.17692456 -0.35279685 -0.26692408
-0.37105867 -0.4360014 -0.21069704 -0.5489037 -0.36239743 0.085505284 -0.01907672 -0.25477096
-0.17550851 -0.3542634 0.19522789 -0.14255312 0.13477778 0.2729746 -0.17711511 -0.2722098
-0.14731842 0.117671125 0.09373472 0.1911601 -0.42730898 0.064455874 -0.02598183 -0.007552
-0.19599137 0.07006531 -0.4216973 0.35108763 -0.270288 -0.5055942 -0.14617634 0.028850697
0.36249092 -0.033291593 -0.20370151 0.32720634 -0.27971077 -0.16843437 0.15736923 -0.06095856
0.18529816 -0.29665744 -0.040162805 -0.22096094 -0.10008352 0.20921177 -0.11427057 0.3450844
0.10819377 0.09938023 -0.38020197 0.0040490213 -0.397695 0.0010258382 0.08229326 0.12710793
-0.036591914 0.025892612 0.13677539 -0.048314095 0.115712315 -0.006692064 0.5536259 0.12273413
0.22551253 0.07222921 0.116780564 0.024005186 -0.3118215 0.03064688 0.21226455 -0.24698332
0.26261374 0.21419333 0.1033162 0.2498843 -0.15518685 0.31276676 0.038095817 0.32405272
0.13974941 -0.020457545 0.71993595 0.049504783 -0.12876342 0.43266895 0.46905527 0.052516297
0.044479333 -0.624534 0.115342766 0.08531537 0.16863024 0.18804958 -0.14808558 -0.038910363
0.5900206 0.025433335 -0.050471198 -0.47282845 -0.15998635 0.11118992 0.13689965 0.079766005
-0.17701496 -0.34954154 0.38046244 0.095608056 0.2942951 0.11245999 0.05893578 -0.4842651
0.461914 0.1475077 -0.19808194 0.121210195 0.027295118 -0.26656044 -0.28462133 0.17152147
-0.22804534 -0.25062922 -0.22912793 0.36136833 0.07395718 -0.056877192 -0.16799396 -0.3850734
-0.22299989 -0.2799739 -0.22372955 0.31909356 0.11240655 0.33007884 -0.21844925 0.19143917
0.030139614 0.12941904 -0.32079166 0.25227562 0.31697696 -0.108701505 -0.30104238 0.16834474
-0.33401653 -0.13096191 -0.18001285 0.36453342 -0.089249484 0.5164839 -0.114107154 -0.5612863
0.24455783 0.041847892 -0.05553093 -0.117969066 -0.1189111 0.25487533 -0.05132371 0.37798208
0.04963237 0.049593635 0.16268967 0.32669324 -0.36007124 0.07136338 -0.17788354 0.14729653
0.4628621 -0.17132336 -0.021881249 -0.0434022 0.12639025 -0.2198597 -0.2646678 -0.08751913
-0.33528438 0.23160045 0.19234684 -0.15781358 0.32992437 -0.014480396 0.09754698 -0.0970439
0.46102148 -0.3796645 -0.14926851 -0.2828235 -0.04305348 -0.1719804 -0.33813655 0.35625738
0.10317854 0.027897498 0.06652848 -0.046741247 0.13312134 0.13439406 -0.15227401 -0.057403717
-0.019325832 -0.41309538 -0.07738756 0.13742854 -0.058476444 0.47236043 -0.28014016 0.23585944
00000000: 2cb4 9fbe 67d8 8bbd dcbd ed3e ed35 a6be
00000010: afca e03d 929d 9bbd 1a0f 243d 33be bf3d
00000020: d890 9c3c 2eb9 ad3d 9e19 403e 024b 35be
00000030: 964c c1bd 66a7 17bd 52c8 303d 42d0 dcbd
00000040: 01d5 bf3c b434 873c 0efb 97be 8ce1 a93e
00000050: c352 f83e 67b1 9ebe fec6 893e ebdb 4cbf
00000060: a427 a4bd f314 0f3e f07c 643e e0c0 1b3f
00000070: 0e73 8fbe 8b3a e93c 724b d7be f85b 14bd
00000080: d7bb 5cbf a7b5 afbe a758 663e 2011 bfbc
00000090: 183b 3e3e bb9e 90be dc94 f5bd c6cc b33d
000000a0: cb27 da3d c1a0 043e 4ec3 31be 292f 75be
000000b0: 6bb1 01bf b62b 353e caa1 b4be 46aa 88be
000000c0: 67fb bdbe 933b dfbe f7c0 57be f484 0cbf
000000d0: 288c b9be 651d af3d c846 9cbc 5771 82be
000000e0: 81b8 33be 0362 b5be d2e9 473e 72f9 11be
000000f0: 3003 0a3e 54c3 8b3e aa5d 35be 155f 8bbe
00000100: a4da 16be 8ffd f03d fdf7 bf3d 79bf 433e
00000110: 3ec8 dabe 7101 843d d9d7 d4bc c576 f7bb
00000120: f6b1 48be 677e 8f3d b5e8 d7be c2c1 b33e
00000130: 3063 8abe 9f6e 01bf 40af 15be 4c58 ec3c
00000140: 6998 b93e c45c 08bd 2197 50be 9787 a73e
00000150: 4036 8fbe 0f7a 2cbe 6625 213e afaf 79bd
00000160: cdbe 3d3e 7ce3 97be c181 24bd 9643 62be
00000170: 97f8 ccbd 9c3b 563e b006 eabd e7ae b03e
00000180: b294 dd3d dd87 cb3d d5a9 c2be a7ad 843b
00000190: ae9e cbbe 6b75 863a 5e89 a83d 9528 023e
000001a0: 67e1 15bd be1c d43c d90e 0c3e 00e5 45bd
000001b0: 94fa ec3d 1a49 dbbb 6dba 0d3f 085c fb3d
000001c0: c2ec 663e e8ec 933d a62a ef3d 86a6 c43c
000001d0: 11a7 9fbe 2a0f fb3c e15b 593e 32e9 7cbe
000001e0: 4f75 863e 7f55 5b3e 7297 d33d ace1 7f3e
000001f0: 4de9 1ebe f722 a03e 5c0a 1c3d 3dea a53e
00000200: 781a 0f3e 9596 a7bc b94d 383f 87c5 4a3d
00000210: 8fda 03be c986 dd3e 0328 f03e 541b 573d
00000220: f62f 363d 76e1 1fbf d438 ec3d d3b9 ae3d
00000230: 68ad 2c3e 1290 403e bfa3 17be 7960 1fbd
00000240: 970b 173f 9259 d03c e3ba 4ebd 9216 f2be
00000250: 76d3 23be 8ab7 e33d 6c2f 0c3e 5c5c a33d
00000260: 6943 35be 1cf7 b2be f9cb c23e 28ce c33d
00000270: d9ad 963e 6c51 e63d a566 713d 98f1 f7be
00000280: fe7f ec3e 420c 173e fed5 4abe 0d3d f83d
00000290: 039a df3c 9c7a 88be e3b9 91be 53a3 2f3e
000002a0: b884 69be 7952 80be 83a0 6abe 4505 b93e
000002b0: dd76 973d 0ff8 68bd 9c06 2cbe 5728 c5be
000002c0: 155a 64be bd58 8fbe 5c19 65be 3b60 a33e
000002d0: 6835 e63d 1800 a93e 29b1 5fbe a108 443e
000002e0: 5ae7 f63c 6d86 043e ce3e a4be 452a 813e
000002f0: ce4a a23e e59e debd 3a22 9abe 9062 2c3e
00000300: 3704 abbe e11a 06be 4a55 38be 20a4 ba3e
00000310: 6fc8 b6bd 4a38 043f 03b1 e9bd 75b0 0fbf
00000320: 5e6d 7a3e b268 2b3d 6774 63bd c499 f1bd
00000330: aa87 f3bd 057f 823e cf38 52bd de86 c13e
00000340: 504b 4b3d b222 4b3d 1f98 263e 5644 a73e
00000350: 425b b8be f726 923d 1a27 36be e7d4 163e
00000360: 43fc ec3e 646f 2fbe 4e40 b3bc 81c6 31bd
00000370: 726c 013e e722 61be 8a82 87be 3b3d b3bd
00000380: 65aa abbe ab28 6d3e 92f6 443e e299 21be
00000390: d9eb a83e 2f3f 6dbc b6c6 c73d f4be c6bd
000003a0: 020b ec3e 6363 c2be d8d9 18be 3ece 90be
000003b0: d958 30bd a11b 30be 3c20 adbe 5e67 b63e
000003c0: 454f d33d 4b89 e43c 1540 883d c073 3fbd
000003d0: f650 083e 999e 093e b8ed 1bbe 2920 6bbd
000003e0: 3551 9ebc 3d81 d3be 5e7d 9ebd 11ba 0c3e
000003f0: ff84 6fbd 3ad9 f13e 886e 8fbe 2385 713e

conv3.bias f4 [32]
-0.42638987 -0.06640632 -0.13709718 -0.13227274 -0.18386658 -0.078440055 -0.18830265 -0.33813313
-0.19872779 -0.15715618 -0.14747 -0.40683147 -0.21621527 -0.15027805 -0.13083573 -0.081010945
-0.22031753 -0.3783684 -0.28510743 -0.16023602 -0.33159167 -0.19810314 -0.27698255 -0.33876982
-0.2947044 -0.3306176 -0.15282746 -0.02570138 -0.01691363 -0.15530632 0.068937086 -0.23907436
00000000: c64f dabe 0900 88bd 3463 0cbe 8172 07be
00000010: 8547 3cbe 2ea5 a0bd 69d2 40be c91f adbe
00000020: 4c7f 4bbe 8ded 20be 6002 17be 374c d0be
00000030: 8967 5dbe 7de2 19be cdf9 05be 11e9 a5bd
00000040: eb9a 61be 81b9 c1be 9af9 91be e914 24be
00000050: 62c6 a9be 8ddb 4abe a8d0 8dbe 3d73 adbe
00000060: 7fe3 96be b646 a9be cd7e 1cbe b38b d2bc
00000070: 748e 8abc 9f08 1fbe e32e 8d3d e9cf 74be

conv4.weight f4 [32, 32, 5, 5]
-0.5201804 -0.5994597 0.04551853 -0.6006847 -0.245188 -0.27552107 0.066225186 0.21907249
0.21198677 -0.18551071 0.4614769 -0.71753526 0.11705671 0.20015702 -0.05643215 0.08786759
0.08157083 -0.33576933 -0.1618449 0.10994523 -0.03259835 -0.04286937 -0.076577865 -0.015306974
0.26712635 0.14074348 -0.44689947 -0.2933375 0.07398367 0.0486564 -0.2391274 -0.039336544
-0.09677591 0.2519681 0.13921817 0.3287628 0.12262065 0.20418105 0.37462264 -0.27897605
-0.15390928 -0.047824055 -0.012237047 0.2527127 0.05037151 -0.26952896 0.014971233 0.2751004
0.31119227 0.32455245 0.398041 -0.06250107 -0.18846413 -0.09634275 -0.1030429 -0.2571244
0.27911773 -0.33902177 -0.3187152 0.16174568 -0.09397459 -0.08685329 0.008198908 -0.078461036
-0.42443272 -0.03864726 -0.13974476 0.09013648 0.32232666 0.080125205 0.30877885 -0.12798628
0.03833964 -0.30490944 0.008225733 -0.2943012 0.22260226 0.116391614 -0.59493697 -0.007663912
0.12282867 0.096790195 0.1737985 -0.09854149 -0.094642736 -0.14102513 0.06786659 -0.14966273
0.11576152 0.3953641 -0.0059817987 0.22426485 0.059226077 0.2439338 0.09481177 -0.34383884
0.09919377 -0.43263 0.0061996975 0.22993517 0.06032872 0.059964728 0.038301714 -0.19702183
-0.15746395 0.43643183 0.25380597 0.054498598 -0.24758919 0.26554927 0.2528441 0.19748601
0.075462885 -0.007717207 -0.28270277 -0.09669459 0.49083853 0.12025887 -0.12525058 0.32243872
0.20809859 -0.33509892 0.4068821 -0.13881315 -0.121513136 -0.27718693 0.06611851 0.31925797
0.1002288 -0.00045394638 -0.30199495 -0.07600568 -0.14424393 -0.121025115 -0.01410024 -0.12140562
0.2198935 -0.29414436 -0.17918792 0.12732182 -0.49665627 -0.3026757 0.10920573 -0.5300907
-0.2616418 -0.11814352 0.28005114 0.2353791 0.09929786 0.014787819 -0.53093886 0.10160309
-0.5649361 0.046293527 0.32441682 -0.4485839 -0.095610514 -0.42949837 -0.16023263 0.009234186
0.038822487 0.44827345 -0.26938367 0.18361928 0.040288184 -0.3863091 -0.28747028 -0.47089553
-0.46641546 0.06765648 0.05109083 0.2026904 -0.54076993 0.42787912 -0.047376573 -0.036602423
0.27631697 -0.30337632 -0.15951909 0.40375704 -0.16525634 -0.097105764 -0.29339713 -0.5845961
0.03532033 0.22467548 0.35075176 0.115035765 -0.69128394 -0.16287462 -0.17022423 -0.12463524
0.29339242 -0.18531425 0.22176479 -0.23717953 -0.015123585 -0.63347906 0.027352039 0.27562192
0.52343404 -0.23650695 -0.3304153 -0.39288893 0.29098567 0.04212703 0.13683453 -0.1957317
0.11658718 0.2442091 -0.06369756 -0.053419773 0.19318114 -0.08677455 -0.052641958 0.21021755
0.0042434363 -0.21143708 0.22806364 -0.027863799 -0.24910748 -0.13975507 0.03628856 0.27017298
-0.017831858 0.5673256 -0.20554318 -0.39627352 -0.0040425314 -0.09182479 0.16456367 -0.039022047
-0.23155074 0.075215034 -0.20376873 0.3239597 0.023813324 -0.2527532 -0.033984333 0.14368868
-0.33197007 -0.33832863 -0.1160881 -0.42696512 -0.13348325 0.026006987 -0.1367276 -0.04400059
-0.06379493 -0.19880068 -0.31385103 0.02617728 -0.2647097 -0.38790083 0.2656389 -0.057747323
00000000: 8b2a 05bf 3176 19bf a371 3a3d 79c6 19bf
00000010: 9012 7bbe 1911 8dbe 12a1 873d 8a54 603e
00000020: 0f13 593e 85f6 3dbe b346 ec3e 64b0 37bf
00000030: 6ebb ef3d f6f5 4c3e 6625 67bd ecf3 b33d
00000040: 9b0e a73d f5e9 abbe abba 25be f72a e13d
00000050: d985 05bd cb97 2fbd dbd4 9cbd 1aca 7abc
00000060: c9c4 883e 0f1f 103e 02d0 e4be 5530 96be
00000070: c084 973d ef4b 473d d0dd 74be 5b1f 21bd
00000080: 7332 c6bd f601 813e 358f 0e3e 9953 a83e
00000090: 8920 fb3d d614 513e 8ace bf3e f3d5 8ebe
000000a0: 659a 1dbe 28e3 43bd e57d 48bc 8f63 813e
000000b0: 5b52 4e3d b3ff 89be e749 753c f6d9 8c3e
000000c0: 9854 9f3e bd2b a63e 08cc cb3e 9000 80bd
000000d0: befc 40be 594f c5bd 2808 d3bd cfa5 83be
000000e0: 85e8 8e3e 4394 adbe a42e a3be a9a0 253e
000000f0: c075 c0bd 23e0 b1bd b654 063c 2eb0 a0bd
00000100: 3f4f d9be 974c 1ebd 4019 0fbe 7a99 b83d
00000110: 0008 a53e af18 a43d 4318 9e3e d60e 03be
00000120: 070a 1d3d 171d 9cbe 3ac5 063c a6ae 96be
00000130: d9f1 633e ba5e ee3d ca4d 18bf 8e21 fbbb
00000140: 998d fb3d f039 c63d 3cf8 313e 1fd0 c9bd
00000150: 0dd4 c1bd e468 10be a4fd 8a3d 3041 19be
00000160: 6014 ed3d 2a6d ca3e f702 c4bb afa5 653e
00000170: 0b97 723d c8c9 793e ac2c c23d a50b b0be
00000180: 1a26 cb3d ae81 ddbe d526 cb3b 2074 6b3e
00000190: 3f1b 773d 939d 753d 42e2 1c3d 17c0 49be
000001a0: 3b3e 21be fe73 df3e dbf2 813e ec39 5f3d
000001b0: 0588 7dbe 13f6 873e c874 813e c639 4a3e
000001c0: 498c 9a3d a0e0 fcbb 6bbe 90be d007 c6bd
000001d0: 304f fb3e 484a f63d b041 00be b016 a53e
000001e0: cc17 553e 1692 abbe da52 d03e 0925 0ebe
000001f0: e1db f8bd 72eb 8dbe 2469 873d c875 a33e
00000200: c244 cd3d a7ff edb9 159f 9abe dea8 9bbd
00000210: aeb4 13be 04dc f7bd b104 67bc 82a3 f8bd
00000220: c32b 613e 179a 96be 0a7d 37be a760 023e
00000230: bb49 febe 4ff8 9abe 41a7 df3d 06b4 07bf
00000240: eaf5 85be 3bf5 f1bd dd62 8f3e 3807 713e
00000250: ad5c cb3d 9c48 723c 9ceb 07bf 4815 d03d
00000260: a79f 10bf 489e 3d3d f619 a63e caac e5be
00000270: 72cf c3bd 36e7 dbbe 0614 24be fc4a 173c
00000280: 5404 1f3d 1984 e53e a8ec 89be b106 3c3e
00000290: 3905 253d 4eca c5be 4e2f 93be 3819 f1be
000002a0: 02ce eebe 7b8f 8a3d 9e44 513d 128e 4f3e
000002b0: e66f 0abf f912 db3e f00d 42bd 6cec 15bd
000002c0: 6b79 8d3e 2454 9bbe f958 23be 3eb9 ce3e
000002d0: f538 29be 63df c6bd 2638 96be 17a8 15bf
000002e0: 0dac 103d 5411 663e bc95 b33e df97 eb3d
000002f0: fcf7 30bf 9bc8 26be 434f 2ebe c340 ffbd
00000300: 8837 963e 05c3 3dbe 4f16 633e 31df 72be
00000310: eac8 77bc af2b 22bf 6211 e03c 511e 8d3e
00000320: c6ff 053f e12e 72be 322c a9be bd28 c9be
00000330: 13fc 943e 658d 2c3d 5a1e 0c3e e46d 48be
00000340: 42c5 ee3d f311 7a3e de73 82bd b1ce 5abd
00000350: 47d1 453e dbb6 b1bd 189f 57bd 4543 573e
00000360: 860c 8b3b f682 58be 8489 693e 9f42 e4bc
00000370: 0816 7fbe f41b 0fbe 50a3 143d 1d54 8a3e
00000380: 1e14 92bc 403c 113f e979 52be 5de4 cabe
00000390: 3677 84bb a30e bcbd 6183 283e 95d5 1fbd
000003a0: a31b 6dbe 570a 9a3d c0a8 50be 0cde a53e
000003b0: 2914 c33c de68 81be 2833 0bbd 2023 133e
000003c0: fbf7 a9be 6939 adbe 99bf edbd 2c9b dabe
000003d0: d5af 08be 9b0c d53c 5202 0cbe f639 34bd
000003e0: eba6 82bd 6892 4bbe 15b1 a0be bc71 d63c
000003f0: 0888 87be f09a c6be d201 883e 7588 6cbd

conv4.bias f4 [32]
0.25643438 -0.31400734 -0.006387218 -0.2877257 0.17795672 0.010957307 -0.24719869 -0.19594915
0.1245829 -0.19384703 -0.14596255 0.18562339 0.17488255 -0.36290252 -0.4416965 -0.25107393
-0.14604646 0.021096699 -0.24946335 -0.10367821 0.16801432 -0.069503956 -0.23315434 -0.19206306
0.19196993 -0.04880222 -0.17190595 -0.15244088 0.24722478 0.062124375 -0.064175256 -0.31737268
00000000: 5e4b 833e 92c5 a0be de4b d1bb c850 93be
00000010: 493a 363e 4786 333c a721 7dbe e5a6 48be
00000020: 5225 ff3d d67f 46be 3577 15be 0f14 3e3e
00000030: 6914 333e 5cce b9be 0b26 e2be c38c 80be
00000040: 348d 15be fcd2 ac3c 5273 7fbe 3e55 d4bd
00000050: f20b 2c3e 1758 8ebd 03c0 6ebe 2eac 44be
00000060: c493 443e d6e4 47bd 1d08 30be 7619 1cbe
00000070: 7e28 7d3e 2176 7e3d 516e 83bd ac7e a2be

conv5.weight f4 [32, 32, 5, 5]
-0.47028556 -0.29623106 0.010366859 0.15198433 0.28363448 -0.37549016 -0.45291108 -0.23635793
-0.36316645 0.2828782 -0.05599258 0.21338035 0.108042106 -0.24611491 -0.18110666 0.05816589
-0.13773641 0.07738627 -0.39223787 -0.26638713 -0.23941222 -0.120373815 0.019747075 -0.2420698
-0.16222616 -0.26439106 -0.64348596 0.100341186 0.025638193 -0.4337455 0.25069875 -0.12748182
0.022704236 0.07987775 -0.28920248 0.36397004 0.06793059 -0.15510447 -0.014275055 0.09893329
0.14869907 0.13773559 -0.34063157 -0.1540644 -0.2791289 -0.14928016 -0.0038385084 0.14533594
-0.23494595 -0.22917184 -0.06969351 -0.16431592 -0.60488 -0.026993822 -0.3389087 -0.28314993
-0.14492266 -0.17468894 0.1887335 -0.42829403 0.19846423 -0.25484398 -0.35286862 0.10843877
0.24956472 0.07688628 0.1463252 -0.10986603 0.40061656 0.14393516 -0.008716933 -0.06408551
0.00013475123 0.09206937 0.18516833 -0.011274994 -0.32453015 -0.29319823 -0.08771881 0.5105663
-0.4482493 -0.36113656 -0.16444042 0.36749682 0.33709022 0.13044122 -0.3882354 -0.3045318
0.51251435 -0.2590118 -0.37797397 0.28793538 0.13502577 0.5022491 -0.30972904 -0.21921808
0.3938741 0.0928027 -0.13111576 -0.02575175 -0.15277949 -0.18774989 -0.0116416775 -0.34452757
-0.08074112 -0.39237374 -0.1674091 -0.11202588 -0.06716156 -0.16326801 0.22824895 -0.13881432
-0.047249593 -0.0012102972 -0.3697413 -0.0046279137 0.07850852 0.0019769187 0.23202664 0.110869914
-0.53905565 -0.12928002 -0.17089081 0.31024683 0.25604308 0.3609705 -0.014333579 -0.24946977
0.23619267 -0.27553496 0.16721886 -0.0021734997 -0.391824 -0.0036156834 -0.023564724 0.22313052
-0.15517782 -0.2819189 -0.11444108 -0.048626862 -0.104536556 0.09252884 -0.12735176 0.056528825
0.23437314 -0.12561695 -0.22240704 0.11133565 0.373144 -0.05452087 0.25773042 0.08367575
0.120055586 -0.14401405 -0.01609752 0.087779075 0.024209032 0.17990899 -0.16649821 0.08241079
-0.11842982 0.24988243 -0.063158326 0.08026736 -0.073804036 -0.2923612 0.122919336 0.6788409
0.041950554 0.2523624 -0.35988992 0.6080127 0.40404472 -0.068954945 0.18742438 0.3366785
0.15666606 -0.06596661 -0.1774043 0.0038478903 -0.29040843 -0.048034042 -0.39914796 0.0031547
-0.051727433 0.29334986 -0.19021994 -0.28676337 0.022792608 0.14231206 -0.08364936 -0.118246876
-0.5374429 0.31748956 0.2676656 -0.18129984 -0.06834739 -0.38593155 -0.17423189 -0.1224056
-0.22036119 0.12178148 -0.057314336 -0.065743834 -0.18213014 -0.38313258 0.63097847 -0.04581009
-0.04553682 -0.35862765 -0.27104792 0.44222447 -0.20038304 -0.1169371 -0.32197836 -0.012483091
-0.24604827 -0.17610233 -0.2290722 -0.4193009 -0.029182846 -0.10158104 -0.4331423 -0.29661977
0.039246276 0.015094575 0.1468681 -0.043307975 0.014666883 0.5262135 -0.3405578 -0.06643985
0.2837552 0.20974451 -0.025500717 -0.05142299 -0.20517509 -0.025093285 -0.04785089 0.11605018
0.33864182 -0.3290243 -0.45109424 0.3641685 -0.3378016 0.31647927 -0.17366506 -0.31822112
0.12556516 0.008118481 0.1906761 0.18487072 0.21391357 0.021361524 0.09982384 -0.13937049
00000000: 45c9 f0be 99ab 97be c2d9 293c c8a1 1b3e
00000010: 8a38 913e 3f40 c0be f6e3 e7be d007 72be
00000020: f4f0 b9be 69d5 903e 7a58 65bd 6180 5a3e
00000030: 2e45 dd3d 8c05 7cbe 0674 39be 5b3f 6e3d
00000040: c60a 0dbe b17c 9e3d 67d3 c8be e563 88be
00000050: 7a28 75be 8c86 f6bd 9ec4 a13c 25e1 77be
00000060: 9d1e 26be 445e 87be 7fbb 24bf ae7f cd3d
00000070: 3007 d23c e413 debe 965b 803e 988a 02be
00000080: 3cfe b93c f296 a33d 5912 94be 485a ba3e
00000090: 311f 8b3d b5d3 1ebe ece1 69bc 899d ca3d
000000a0: 9244 183e 8f0a 0d3e 4367 aebe 0fc3 1dbe
000000b0: fce9 8ebe e6dc 18be 7c8f 7bbb f2d2 143e
000000c0: ac95 70be 06ac 6abe 79bb 8ebd 6f42 28be
000000d0: 6ad9 1abf 2622 ddbc 7185 adbe 07f9 90be
000000e0: 9b66 14be a8e1 32be 5b43 413e 5b49 dbbe
000000f0: 353a 4b3e e97a 82be 32ab b4be 2515 de3d
00000100: e58d 7f3e 8e76 9d3d 46d6 153e 7101 e1bd
00000110: 9d1d cd3e bd63 133e 78d1 0ebc 443f 83bd
00000120: 024c 0d39 de8e bc3d c49c 3d3e c1ba 38bc
00000130: d128 a6be 141e 96be eba5 b3bd 79b4 023f
00000140: ef80 e5be e4e6 b8be 1263 28be 8b28 bc3e
00000150: 1797 ac3e 6292 053e cac6 c6be 98eb 9bbe
00000160: 2434 033f 329d 84be ce85 c1be 446c 933e
00000170: 3244 0a3e 6693 003f ce94 9ebe b47a 60be
00000180: dea9 c93e 580f be3d 3643 06be 56f5 d2bc
00000190: 3a72 1cbe 8241 40be bcbc 3ebc eb65 b0be
000001a0: 9a5b a5bd 36e5 c8be 4b6d 2bbe d36d e5bd
000001b0: 008c 89bd bb2f 27be 18ba 693e 5725 0ebe
000001c0: ca88 41bd d6a2 9eba bb4e bdbe c1a5 97bb
000001d0: 13c9 a03d 318f 013b 6498 6d3e c40f e33d
000001e0: 8dff 09bf fb61 04be 00fe 2ebe acd8 9e3e
000001f0: 1418 833e 20d1 b83e 63d7 6abc 0175 7fbe
00000200: 7edc 713e eb12 8dbe 6c3b 2b3e 4671 0ebb
00000210: 289d c8be 1af5 6cbb cf0a c1bc 547c 643e
00000220: efe6 1ebe ad57 90be 1660 eabd f62c 47bd
00000230: 4317 d6bd c37f bd3d 8068 02be c58a 673d
00000240: 83ff 6f3e bba1 00be acbe 63be f203 e43d
00000250: bb0c bf3e 4751 5fbd 3ef5 833e 315e ab3d
00000260: b4df f53d 6b78 13be f2de 83bc 84c5 b33d
00000270: 0552 c63c 103a 383e 827e 2abe fdc6 a83d
00000280: 558b f2bd 2ee1 7f3e 2759 81bd 3763 a43d
00000290: 9226 97bd 5eb0 95be 22bd fb3d 84c8 2d3f
000002a0: 58d4 2b3d a535 813e 7e43 b8be b8a6 1b3f
000002b0: f3de ce3e 4038 8dbd 2dec 3f3e 2061 ac3e
000002c0: 116d 203e 8119 87bd 79a9 35be e32c 7c3b
000002d0: 6ab0 94be 58bf 44bd 1f5d ccbe 15bf 4e3b
000002e0: 25e0 53bd f431 963e 04c9 42be a6d2 92be
000002f0: 90b7 ba3c 41ba 113e 5b50 abbd 6b2b f2bd
00000300: dc95 09bf fe8d a23e 770b 893e aaa6 39be
00000310: b7f9 8bbd d298 c5be d869 32be caaf fabd
00000320: 5da6 61be 9268 f93d 70c2 6abd b4a4 86bd
00000330: 5380 3abe f429 c4be ce87 213f 5ca3 3bbd
00000340: d184 3abd 0b9e b7be cbc6 8abe 3f6b e23e
00000350: 3631 4dbe b87c efbd 59da a4be e185 4cbc
00000360: 14f4 7bbe 2b54 34be e791 6abe 9cae d6be
00000370: dd10 efbc b809 d0bd d4c4 ddbe 8cde 97be
00000380: b4c0 203d 3c4f 773c 9764 163e b463 31bd
00000390: 5e4d 703c eeb5 063f 985d aebe 9e11 88bd
000003a0: 5d48 913e 44c7 563e e1e6 d0bc eaa0 52bd
000003b0: 6b19 52be 6f90 cdbc 4bff 43bd b7ab ed3d
000003c0: 7662 ad3e e075 a8be d3f5 e6be 4b74 ba3e
000003d0: 55f4 acbe 9209 a23e 41d5 31be e1ed a2be
000003e0: 2794 003e 6103 053c 9840 433e c04e 3d3e
000003f0: 290c 5b3e 5dfe ae3c 7170 cc3d 23b7 0ebe

conv5.bias f4 [32]
-0.07381082 -0.56536096 0.22749437 -0.46022013 0.59078526 -0.2729999 0.34911194 -0.5604198
-0.7163333 -0.71093655 0.076032594 -0.6274674 0.16939 0.15400024 -0.6235631 -0.5005003
0.19120665 -0.05356323 -0.6209583 -0.4882285 -0.4727237 0.10783332 -0.5937165 -0.67227674
0.055286955 -0.37105578 -0.523697 -0.47992608 -0.5563639 -0.38765687 -0.44735727 -0.19142896
00000000: 212a 97bd 7fbb 10bf 49f4 683e f9a1 ebbe
00000010: b43d 173f a5c6 8bbe cdbe b23e ac77 0fbf
00000020: 9f61 37bf f0ff 35bf fab6 9b3d b4a1 20bf
00000030: 9274 2d3e 3db2 1d3e d5a1 1fbf ca20 00bf
00000040: adcb 433e 1e65 5bbd 20f7 1ebf 16f9 f9be
00000050: d708 f2be b7d7 dc3d cefd 17bf 541a 2cbf
00000060: 9374 623d 06fb bdbe 0211 06bf dfb8 f5be
00000070: dd6d 0ebf f67a c6be 030c e5be f405 44be

conv6.weight f4 [32, 32, 5, 5]
0.56313425 -0.1682479 0.24009153 0.06374337 -0.0026605404 -0.1998257 -0.15629841 0.47596285
0.009349968 -0.20475632 -0.2680891 -0.3892281 0.31213966 -0.2855755 -0.059657697 0.21161224
-0.06873892 -0.0024676302 -0.30762827 0.030296406 0.069125146 0.034989953 0.10031244 -0.13357994
-0.15293306 -0.06536868 -0.15782766 -0.16964997 0.0032413118 0.09452122 -0.10718886 -0.16253312
0.3853344 0.026268829 -0.031527102 0.16535681 -0.10817462 -0.00906587 0.07627886 -0.019358672
-0.36335292 -0.035444427 -0.22483239 -0.2286139 -0.003672594 -0.011156671 -0.10523542 0.17372537
-0.31531477 -0.09643019 0.2637099 -0.29872516 0.63733196 -0.33696005 -0.13250314 0.50071216
-0.434394 0.14489624 -0.31847328 -0.08992608 0.4857183 0.20019962 -0.10316513 -0.20635223
0.081722274 0.11079168 0.2813177 -0.019637514 -0.27766886 -0.26095223 -0.09602268 0.35408694
0.33105928 -0.3220185 -0.072208054 0.32800856 0.053015325 -0.51052797 -0.109130494 -0.015663253
-0.17478065 -0.22896603 -0.29617357 -0.18269327 0.11550825 -0.2577087 -0.22933015 0.094039574
-0.06536236 -0.2176655 0.2707385 0.044410113 0.45395246 0.021453133 -0.09161509 0.3887132
0.13015838 -0.044132836 -0.24112195 -0.031414215 0.19784087 0.065732375 -0.229525 -0.22240274
-0.030967245 -0.10779245 0.0017747391 -0.26507452 -0.18205115 -0.05282664 -0.21306965 0.10587021
-0.39418456 -0.43369704 -0.26281938 -0.47054532 -0.16637053 -0.38038343 -0.47320604 -0.05802232
-0.47383988 0.056275405 -0.2095725 -0.041505806 -0.3222231 -0.17066616 0.092077434 -0.14670068
-0.4909822 -0.0301624 0.24158941 -0.31111404 -0.46118715 -0.45692647 -0.028984712 0.08240433
-0.1622823 0.04555506 -0.3520515 -0.48918852 0.12898648 -0.3207984 0.23882031 -0.38522366
0.109555654 0.08148049 -0.06775278 0.0043488736 -0.030477047 -0.016197784 0.3399744 0.45980108
-0.03898076 -0.06482916 -0.12092507 0.20905796 -0.0970063 0.30290955 -0.08898803 -0.19381642
0.0076778596 -0.1974385 0.053601768 -0.20081374 -0.19836634 0.0536734 -0.43169308 -0.1257434
-0.37233233 -0.35143676 -0.11604492 -0.20139372 -0.09548526 -0.022354884 0.013335523 0.047784865
0.34641606 -0.12956508 -0.26041248 0.048733026 0.18283255 -0.44003907 -0.31425896 -0.020101199
0.19106326 0.4323278 0.0070729502 -0.08005777 0.063382655 -0.21204008 0.077708445 0.20801447
0.1066842 0.116442926 0.081484176 -0.2281448 0.034989055 -0.058442898 0.14432961 -0.14060391
0.6257625 0.12388741 -0.102291755 -0.09137388 -0.108615756 0.07367491 0.070389256 0.2239467
-0.30054173 0.13531098 -0.05985149 -0.063221104 -0.36113104 0.05965365 0.027993519 -0.087423675
-0.15969977 -0.0591016 0.32815868 -0.26462302 0.22648537 0.048935216 0.41733286 -0.19567522
0.12070364 -0.36201692 -0.37005842 -0.24469516 -0.5244672 -0.41566342 0.2149535 0.0034366543
0.2145599 -0.34259874 0.011574868 -0.28931457 0.11638422 -0.101046026 0.11974782 -0.11742612
-0.29034442 -0.37207127 0.04541369 -0.3318878 -0.25329444 -0.045045424 -0.30268353 -0.24061507
-0.31686613 0.08970212 0.1336312 -0.3696081 0.11410401 0.039513074 -0.2320183 -0.10325229
00000000: 9129 103f 2d49 2cbe 8eda 753e e28b 823d
00000010: 765c 2ebb 1c9f 4cbe b10c 20be 67b1 f33e
00000020: 9c30 193c a4ab 51be f942 89be e848 c7be
00000030: c5d0 9f3e f436 92be a15b 74bd e1b0 583e
00000040: fec6 8cbd f7b7 21bb 7481 9dbe 2b30 f83c
00000050: 7c91 8d3d a051 0f3d 9c70 cd3d 2ec9 08be
00000060: 7c9a 1cbe 04e0 85bd 939d 21be b9b8 2dbe
00000070: 306c 543b 5794 c13d d585 dbbd 156f 26be
00000080: 8d4a c53e ba31 d73c 9022 01bd 4c53 293e
00000090: a88a ddbd 0489 14bc 1738 9c3d 1496 9ebc
000000a0: 6509 babe 2d2e 11bd 763a 66be c319 6abe
000000b0: e7af 70bb 78ca 36bc ab85 d7bd 10e5 313e
000000c0: f070 a1be 317d c5bd fc04 873e 81f2 98be
000000d0: 3028 233f 0786 acbe e7ae 07be ac2e 003f
000000e0: e468 debe ae5f 143e ee0e a3be 2a2b b8bd
000000f0: 12b0 f83e 2101 4d3e 3d48 d3bd 004e 53be
00000100: 025e a73d c0e6 e23d e008 903e dade a0bc
00000110: 9d2a 8ebe 889b 85be 8aa7 c4bd e24a b53e
00000120: 9a80 a93e 9cdf a4be d1e1 93bd bdf0 a73e
00000130: 9926 593d f6b1 02bf cf7f dfbd 3950 80bc
00000140: b3f9 32be 1276 6abe 10a4 97be f213 3bbe
00000150: 978f ec3d 65f2 83be 86d5 6abe d297 c03d
00000160: b3dc 85bd b4e3 5ebe 3d9e 8a3e 61e7 353d
00000170: 756c e83e 7bbe af3c b1a0 bbbd 6b05 c73e
00000180: 3d48 053e a2c4 34bd ace8 76be 31ac 00bd
00000190: cc96 4a3e b29e 863d 9a08 6bbe 8bbd 63be
000001a0: 05af fdbc 4ac2 dcbd 5d9e e83a d9b7 87be
000001b0: 9e6b 3abe bf60 58bd ee2e 5abe 7bd2 d83d
000001c0: 8fd2 c9be 8a0d debe 4390 86be 51eb f0be
000001d0: 095d 2abe 9ec1 c2be 1048 f2be d0a8 6dbd
000001e0: 249b f2be 0a81 663d 2c9a 56be fe01 2abd
000001f0: 6dfa a4be 1cc3 2ebe 1893 bc3d b438 16be
00000200: 0562 fbbe 2317 f7bc 3763 773e 574a 9fbe
00000210: b920 ecbe 44f2 e9be 5971 edbc 9ac3 a83d
00000220: 552d 26be f197 3a3d 1840 b4be eb76 fabe
00000230: 0815 043e b03f a4be 508d 743e 093c c5be
00000240: b75e e03d 3edf a63d f8c1 8abd ff80 8e3b
00000250: 00ab f9bc 37b1 84bc 2011 ae3e 0c6b eb3e
00000260: 4aaa 1fbd 27c5 84bd 90a7 f7bd 4a13 563e
00000270: 3dab c6bd f616 9b3e 5b3f b6bd d077 46be
00000280: 8e96 fb3b 512d 4abe 878d 5b3d 1ea2 4dbe
00000290: 8c20 4bbe a4d8 5b3d e006 ddbe e1c2 00be
000002a0: 58a2 bebe 85ef b3be f6a8 edbd 283a 4ebe
000002b0: c78d c3bd 9721 b7bc 3d7d 5a3c 10ba 433d
000002c0: 725d b13e b5ac 04be c954 85be 489c 473d
000002d0: 7538 3b3e cd4c e1be 8de6 a0be 45ab a4bc
000002e0: 16a6 433e 125a dd3e 35c4 e73b 54f5 a3bd
000002f0: c4ce 813d 0921 59be 9b25 9f3d bf01 553e
00000300: 3f7d da3d a179 ee3d 2de1 a63d ca9e 69be
00000310: af50 0f3d d261 6fbd 24cb 133e 79fa 0fbe
00000320: f931 203f afb8 fd3d 577e d1bd 3b22 bbbd
00000330: f071 debd dfe2 963d 3e28 903d 4952 653e
00000340: 9be0 99be f68e 0a3e d626 75bd 117a 81bd
00000350: 2be6 b8be 6357 743d aa52 e53c 2f0b b3bd
00000360: 5688 23be 8514 72bd 6a04 a83e ab7c 87be
00000370: c8eb 673e 4b70 483d a7ac d53e 165f 48be
00000380: 7833 f73d 485a b9be 4c78 bdbe 5e91 7abe
00000390: 7b43 06bf d6d1 d4be c51c 5c3e 7e39 613b
000003a0: 97b5 5b3e 1a69 afbe 84a4 3d3c 0a21 94be
000003b0: da5a ee3d 38f1 cebd 583e f53d 1b7d f0bd
000003c0: 06a8 94be 2080 bebe b503 3a3d 33ed a9be
000003d0: cfaf 81be 8d81 38bd 56f9 9abe cc63 76be
000003e0: 473c a2be bfb5 b73d 9ed6 083e 463d bdbe
000003f0: 5daf e93d 76d8 213d 3596 6dbe f075 d3bd

conv6.bias f4 [32]
-0.3782186 -0.6329005 0.52362955 -0.76530063 -0.6737237 -0.25428274 0.4014958 -0.7069376
-0.14876677 -0.44387355 0.010262177 -0.02406185 -0.6323553 -0.98837876 -0.70873505 -0.21649057
-0.21111473 -0.50808334 -0.23998944 -0.3689891 -0.28782222 -0.51263666 -0.5084521 -0.33873016
-0.4564318 0.69047344 -0.55908746 -0.2141085 -0.21339111 -0.13715401 -0.013667808 -0.7424215
00000000: dea5 c1be c405 22bf 960c 063f beea 43bf
00000010: 2879 2cbf 5931 82be dc90 cd3e ddf9 34bf
00000020: 5156 18be 6543 e3be b122 283c 5b1d c5bc
00000030: 09e2 21bf 6406 7dbf a96f 35bf b4af 5dbe
00000040: 762e 58be c011 02bf cbbf 75be 24ec bcbe
00000050: 6f5d 93be 283c 03bf eb29 02bf 0a6e adbe
00000060: 6eb1 e9be dec2 303f 5b20 0fbf 423f 5bbe
00000070: 3383 5abe 1a72 0cbe f1ee 5fbc 560f 3ebf

conv7.weight f4 [32, 32, 5, 5]
0.041606348 -0.054083783 -0.14454381 0.08353364 -0.059900258 0.067277834 0.044317525 0.011198324
0.14873022 0.031448457 -0.034051515 -0.05829762 0.011145411 -0.015304096 -0.016420895 0.009848048
-0.05011884 -0.02265922 0.034194022 -0.118857004 -0.07820891 -0.050714288 -0.024174212 -0.0057693133
0.018298646 0.14330721 -0.080427684 -0.19181617 -0.08463804 -0.1421192 0.15220322 0.1049133
-0.024563525 0.017662926 -0.14711863 -0.16113257 -0.17046669 -0.009574856 -0.044411726 -0.00043139726
-0.106065206 -0.080981456 0.054002266 -0.18241338 -0.042309403 0.06499681 0.1636726 0.05374005
0.046474166 0.07389019 0.076968454 -0.0043605436 -0.05232789 -0.08140508 -0.04430822 0.04297226
-0.06129851 -0.06720891 -0.05830167 0.038647886 -0.03645755 -0.069008656 -0.062191907 -0.019055253
0.0010837355 -0.039136223 -0.004595966 -0.004025581 -0.014320524 -0.021764107 -0.029672584 -0.07387742
-0.015507501 -0.024175698 -0.05827898 0.14349131 -0.07077073 0.09295327 0.08054947 0.038711816
0.050806724 -0.043464433 0.084786974 -0.011200047 0.04461746 0.0500443 0.04868982 0.14200525
-0.071169265 0.02706976 0.11099392 0.052496005 0.030493436 -0.069733314 0.03271617 0.073695056
0.047947846 0.009784329 0.063371256 0.0509381 -0.09667805 -0.16528091 -0.052837275 0.04355193
-0.03916429 0.15153827 -0.048449527 -0.06248771 0.11826021 -0.016465109 0.11267631 -0.033406716
-0.115603864 0.070989445 0.027987542 0.063354686 -0.045453474 -0.053685047 0.009313973 0.008166068
0.119468905 0.00069444504 0.010932157 0.016600747 0.12967555 0.11484561 -0.01469451 -0.034602918
0.09858555 0.046686962 0.084789574 0.081625514 0.08428296 0.15576668 0.10122502 -0.012919435
0.018128233 0.17759173 0.16305165 0.011922267 -0.008997618 0.040784035 0.10816389 -0.022582244
-0.02618024 -0.054026537 -0.018617498 -0.012521447 0.011342723 0.03375335 -0.1325216 -0.111380436
-0.0881009 -0.048003778 0.023550276 -0.04018878 0.0351632 -0.08528575 0.055042166 0.1520626
-0.21185963 -0.061010964 -0.0025420252 0.018884102 -0.001103576 -0.09076085 -0.056404363 -0.14851005
0.06110359 0.02368041 0.023110198 0.0121082105 -0.16015111 -0.051108886 0.0064853 -0.037403475
0.21017154 -0.094047196 0.05239517 0.011702459 -0.10146886 0.15408663 0.067212306 0.04173082
-0.12124716 -0.01025326 0.15300517 0.11350236 0.03572674 -0.03782721 0.090142176 0.19796346
0.04168266 0.0746182 0.031382147 0.29094565 0.08502583 0.036385726 0.022888092 0.014985959
0.05021431 0.017356724 -0.067011364 -0.026582962 -0.14730018 -0.09946668 -0.042037416 0.06480252
0.04732639 0.12879251 0.03677642 -0.080007195 -0.042380825 -0.09916653 -0.0585793 0.07445279
-0.033911064 -0.10306936 -0.07246349 -0.010940256 0.012463399 0.004101909 -0.04698047 -0.081622705
0.1007721 0.06647586 0.07092191 -0.06733587 -0.093107365 0.049948875 0.004282477 -0.008930019
-0.07763696 0.0024141518 -0.0401581 -0.0562756 0.11543197 -0.04992168 -0.029016038 -0.01580991
-0.09616787 0.08364994 0.047486078 0.026294665 -0.053613428 -0.30984557 0.04336461 0.0056009647
0.008524017 0.08068952 -0.13674659 -0.09189046 0.010901633 -0.013865404 0.010511232 -0.05197382
00000000: 6b6b 2a3d f586 5dbd 4b03 14be af13 ab3d
00000010: f959 75bd f6c8 893d 4b86 353d 2d79 373c
00000020: bc4c 183e 19d0 003d 9a79 0bbd 7cc9 6ebd
00000030: 3e9b 363c 08be 7abc 1d85 86bc b559 213c
00000040: 6a49 4dbd d49f b9bc 080f 0c3d 4d6b f3bd
00000050: fe2b a0bd c9b9 4fbd ff08 c6bc 820c bdbb
00000060: 0be7 953c 20bf 123e 45b7 a4bd 756b 44be
00000070: b556 adbd b287 11be 29db 1b3e c9dc d63d
00000080: 7239 c9bc d7b1 903c 44a6 16be f0ff 24be
00000090: d28e 2ebe dbdf 1cbc 12e9 35bd 292d e2b9
000000a0: b738 d9bd 9bd9 a5bd 7b31 5d3d 93ca 3abe
000000b0: a04c 2dbd 0c1d 853d ca99 273e 871e 5c3d
000000c0: b25b 3e3d bd53 973d a3a1 9d3d e4e2 8ebb
000000d0: c555 56bd b5b7 a6bd 897c 35bd ae03 303d
000000e0: 2514 7bbd d3a4 89bd bbcd 6ebd 3f4d 1e3d
000000f0: 8354 15bd 6954 8dbd f1bc 7ebd c319 9cbc
00000100: 210c 8e3a 4e4d 20bd c299 96bb 05e9 83bb
00000110: a2a0 6abc a44a b2bc eb13 f3bc 0b4d 97bd
00000120: 2c13 7ebc 1d0c c6bc f1b5 6ebd 63ef 123e
00000130: 3ff0 90bd 495e be3d 1ff7 a43d 4890 1e3d
00000140: b61a 503d c307 32bd cba4 ad3d 6780 37bc
00000150: ccc0 363d 40fb 4c3d fa6e 473d d369 113e
00000160: 31c1 91bd 67c1 dd3c c850 e33d 0d06 573d
00000170: 5fcd f93c 57d0 8ebd 6401 063d 6fed 963d
00000180: f664 443d 734e 203c cac8 813d 78a4 503d
00000190: 24ff c5bd 663f 29be e66b 58bd 8263 323d
000001a0: bc6a 20bd d92c 1b3e 0373 46bd 1df3 7fbd
000001b0: 6932 f23d d6e1 86bc d6c2 e63d 7bd5 08bd
000001c0: b8c1 ecbd ea62 913d 2146 e53c 1ac0 813d
000001d0: 6c2d 3abd dae4 5bbd a299 183c f9ca 053c
000001e0: 1dac f43d 6b0b 363a ca1c 333c 4afe 873c
000001f0: abc9 043e 2d34 eb3d 3ec1 70bc cabb 0dbd
00000200: 39e7 c93d d43a 3f3d 28a6 ad3d 472b a73d
00000210: 8b9c ac3d 4d81 1f3e 104f cf3d 0aac 53bc
00000220: a981 943c 9bda 353e 03f7 263e 9d55 433c
00000230: bf6a 13bc 290d 273d 0885 dd3d 66fe b8bc
00000240: f177 d6bc ee4a 5dbd b983 98bc c126 4dbc
00000250: d4d6 393c f440 0a3d beb3 07be 6d1b e4bd
00000260: 3f6e b4bd 9c9f 44bd 82ec c03c fd9c 24bd
00000270: 4a07 103d 4caa aebd e573 613d 4cb6 1b3e
00000280: bbf1 58be a2e6 79bd 1b98 26bb d5b2 9a3c
00000290: dea5 90ba d3e0 b9bd 4308 67bd 0513 18be
000002a0: c247 7a3d 6bfd c13c 9951 bd3c 8461 463c
000002b0: a7fe 23be 8d57 51bd a482 d43b 6334 19bd
000002c0: 3537 573e d19b c0bd 519c 563d acbb 3f3c
000002d0: e8ce cfbd e3c8 1d3e 9ba6 893d f0ed 2a3d
000002e0: 6e50 f8bd 4afd 27bc 63ad 1c3e ed73 e83d
000002f0: 3456 123d b4f0 1abd 769c b83d efb6 4a3e
00000300: 70bb 2a3d 6dd1 983d 918a 003d d4f6 943e
00000310: 0622 ae3d 3309 153d cf7f bb3c ab87 753c
00000320: 85ad 4d3d b02f 8e3c 413d 89bd 83c4 d9bc
00000330: dcd5 16be 30b5 cbbd 6d2f 2cbd 2fb7 843d
00000340: 51d9 413d 2fe2 033e dfa2 163d d0da a3bd
00000350: 8497 2dbd d217 cbbd d9f0 6fbd b47a 983d
00000360: 54e6 0abd 0716 d3bd bd67 94bd c23e 33bc
00000370: 4933 4c3c 4f69 863b 986e 40bd ce29 a7bd
00000380: 9a61 ce3d 7f24 883d 823f 913d 63e7 89bd
00000390: 13af bebd 3197 4c3d 0554 8c3b 374f 12bc
000003a0: 2000 9fbd bf36 1e3b d27c 24bd 3e81 66bd
000003b0: 9967 ec3d ad7a 4cbd 0bb3 edbc c983 81bc
000003c0: a9f3 c4bd a950 ab3d c380 423d e967 d73c
000003d0: c199 5bbd 14a4 9ebe 179f 313d 4c88 b73b
000003e0: 52a8 0b3c 8c40 a53d 4c07 0cbe 1131 bcbd
000003f0: c39c 323c b82b 63bc 4d37 2c3c 80e2 54bd

conv7.bias f4 [32]
1.0778732 -0.6474331 -0.5109335 -0.68952286 -0.3197727 1.0086894 -0.032601543 -0.95705575
-0.8175113 1.0498966 0.65448725 -1.0234169 -0.19872265 0.25495723 0.60593426 -0.14780146
-1.408602 1.1421686 -1.0456122 -0.28479898 -1.0667588 -0.49010336 0.57093334 -1.6957685
-1.246747 -0.042519957 -0.06299081 1.0292456 1.0846012 -0.83855766 -0.6262206 -0.8142614
00000000: c0f7 893f 2dbe 25bf 8acc 02bf 9284 30bf
00000010: 3fb9 a3be bc1c 813f 3289 05bd 9b01 75bf
00000020: 6c48 51bf 0363 863f 7a8c 273f 53ff 82bf
00000030: f37d 4bbe c189 823e 821e 1b3f 4459 17be
00000040: 124d b4bf 9532 923f 9fd6 85bf 2cd1 91be
00000050: 8d8b 88bf d4ee fabe b028 123f f10e d9bf
00000060: 6895 9fbf 6829 2ebd 5301 81bd 52be 833f
00000070: 36d4 8a3f b7ab 56bf fe4f 20bf 6f73 50bf
