models/DQN_wb_kaggle.pth (torch, 916528 bytes, 22 tensors)

conv1.weight f4 [32, 1, 5, 5]
0	0xbf0ded02	-0.5543977
1	0xbc9e27fd	-0.019306177
2	0x3e5f6b82	0.21818355
3	0xbe86c8a9	-0.26324967
4	0x3e98a1df	0.29810998
5	0xbf6fffba	-0.9374958
6	0xbe87ab39	-0.2649782
7	0xbee9aee4	-0.45641243
8	0xbef70f7e	-0.48254007
9	0xbda4ba79	-0.08043379
10	0xbed3c02a	-0.41357547
11	0xbe2ba76b	-0.16763084
12	0xbe18bb34	-0.14915162
13	0x3f17438e	0.59087455
14	0x3f62d21c	0.8860185
15	0x3ed0c3d9	0.4077442
16	0xbf2fa9fb	-0.68618745
17	0xbea4263d	-0.32060423
18	0x3d887672	0.06663217
19	0xbed2ed53	-0.4119669
20	0xbe99814b	-0.29981455
21	0x3e36d9f1	0.17856576
22	0xbe1df1f4	-0.15424329
23	0xbe868b6d	-0.26278248
24	0x3dbcbc11	0.09215558
25	0xbf30bba3	-0.6903631
26	0x3dd53b7f	0.104117386
27	0x3ee6e58a	0.45097
28	0xbee776ed	-0.4520792
29	0xbe831cab	-0.2560781
30	0xbe85b6cf	-0.26116034
31	0xbeb41b5f	-0.35177132
32	0xbe043552	-0.12910965
33	0xbf1304e8	-0.5742936
34	0xbee94c9e	-0.45566267
35	0x3ed5d248	0.41761994
36	0xbea2c1c8	-0.31788468
37	0xbf6f5fdb	-0.9350564
38	0x3df80da5	0.121119775
39	0x3ea3e161	0.32007888
40	0x3dc4bcbb	0.0960631
41	0x3ee6bb84	0.45064938
42	0xbf10904d	-0.56470186
43	0x3ded29e0	0.11580253
44	0xbe82d703	-0.25554666
45	0xbb6fa31f	-0.0036565734
46	0xbecf16ef	-0.40447184
47	0xbef8d890	-0.48602724
48	0x3e0459cc	0.1292488
49	0x3ed5579b	0.416684
50	0x3e32f3f2	0.1747587
51	0x3e9ca976	0.30598038
52	0xbebcc4f5	-0.36869016
53	0x3ee358ba	0.4440363
54	0xbe726a22	-0.23673299
55	0x3e219122	0.1577802
56	0x3e88f41f	0.2674875
57	0x3e8ca145	0.2746679
58	0x3c10ef3f	0.008846103
59	0xbd02f0b8	-0.03196785
60	0xbed6fc61	-0.41989425
61	0x3eadf2a9	0.33974198
62	0xbea69f07	-0.32543203
63	0xbf03a2c2	-0.51420224
64	0x3df2b21b	0.11850377
65	0xbedac51d	-0.4272851
66	0xbe955f13	-0.29174098
67	0xbf0fe53b	-0.5620915
68	0xbf2d61b6	-0.6772722
69	0xbdfe2745	-0.12409834
70	0xbf6a29fd	-0.9147032
71	0x3eaefbcd	0.34176484
72	0xbda6c539	-0.08143086
73	0xbe3d7d24	-0.18504769
74	0xbe69fbd9	-0.22849979
75	0x3e207df1	0.15673043
76	0x3e050843	0.12991433
77	0xbc4c8824	-0.01248363
78	0xbf194dcd	-0.5988434
79	0x3db22af4	0.08699599
80	0xbe28588f	-0.16440032
81	0xbd2b1c44	-0.041775003
82	0xbcb5797d	-0.022152657
83	0xbda6cbb1	-0.0814432
84	0x3d557cc5	0.052120943
85	0xbe0e194a	-0.13876835
86	0xbe0080f2	-0.12549189
87	0xbeb34595	-0.35014024
88	0xbddb5257	-0.107090645
89	0x3e9e5f9e	0.30932325
90	0x3e18def8	0.14928806
91	0x3cb8e0bc	0.0225681
92	0x3e1bba87	0.15207873
93	0xbd6518fe	-0.055932038
94	0x3cd9beea	0.026580293
95	0xbe916297	-0.2839553
96	0xbde999be	-0.11406277
97	0xbe7ee439	-0.24891748
98	0xbd254a9d	-0.04035436
99	0xbe4613c8	-0.19343483
100	0xbdbcf2d5	-0.09226004
101	0xbf80d4cc	-1.006494
102	0x3ee91a1d	0.45527735
103	0xbe96cd01	-0.2945328
104	0xbf0dfaf7	-0.55461067
105	0xbf04cee1	-0.5187817
106	0xbe621ad0	-0.2208054
107	0xbe357e2e	-0.17723915
108	0xbe36e135	-0.17859347
109	0x3d1db6b6	0.038504325
110	0xbc84d1a4	-0.016213246
111	0x3dbe687b	0.09297272
112	0x3e3d2570	0.18471313
113	0xbe71a3c7	-0.23597632
114	0x3e924c43	0.28573808
115	0xbe91db40	-0.28487587
116	0x3cc6e731	0.024280163
117	0xbed6c37d	-0.4194602
118	0xbeb666c3	-0.35625276
119	0x3dbc9429	0.09207947
120	0xbdaab579	-0.083353944
121	0x3e3e4161	0.18579628
122	0xbe9a6b93	-0.30160198
123	0x3dde9b8f	0.10869514
124	0xbe4a0848	-0.19729722
125	0x3da65a6b	0.081227146
126	0xbda0c14a	-0.07849367
127	0x3ea34565	0.3188888
128	0xbe7e9253	-0.24860506
129	0xbf2ae266	-0.66751707
130	0xbb8cbb58	-0.004294794
131	0x3f3e0605	0.74227935
132	0x3e0f0b75	0.13969214
133	0x3f63e9b9	0.8902851
134	0x3eaefac1	0.34175685
135	0x3ec1ce8a	0.3785289
136	0xbee7ed25	-0.45298114
137	0xbeec5a87	-0.46162817
138	0xbd87ca9d	-0.06630442
139	0xbd9e4315	-0.07727639
140	0x3eaf80ab	0.34277853
141	0x3d31ed84	0.043439403
142	0xbf291ed4	-0.66062665
143	0xbe174f67	-0.14776383
144	0x3d915f41	0.07098246
145	0xbeb88cfe	-0.36045069
146	0xbe218d13	-0.15776472
147	0xbe710df8	-0.23540485
148	0x3dac9e76	0.084286615
149	0xbf18edea	-0.5973803
150	0xbebcd611	-0.3688207
151	0xbf40efa2	-0.7536565
152	0x3e4d110f	0.20026039
153	0x3dd77f67	0.10522347
154	0xbeaec6d1	-0.3413606
155	0x3e42ca50	0.19022489
156	0xbf3ee64d	-0.7457016
157	0x3e02ba98	0.12766492
158	0x3d56996b	0.052392405
159	0x3e5532dd	0.20820184
160	0xbf06d95f	-0.5267543
161	0xbea3add5	-0.3196856
162	0xbe9c4f99	-0.30529478
163	0xbef6ac1e	-0.4817819
164	0xbe113524	-0.14180428
165	0xbf1c9c1c	-0.61175704
166	0x3e75d27a	0.24006072
167	0xbe9a26e5	-0.301078
168	0xbe3066c4	-0.17226702
169	0x3f095f7b	0.53661317
170	0x3f0b5359	0.54424053
171	0x3e307586	0.17232332
172	0x3ee583a3	0.44826993
173	0xbddd6990	-0.1081115
174	0xbe89aad9	-0.2688816
175	0xbd091202	-0.03346444
176	0x3edd6ea2	0.4324847
177	0x3e705734	0.23470765
178	0xbf5e9b08	-0.8695531
179	0xbe2193f9	-0.15779103
180	0xbd39cf94	-0.045363978
181	0x3e95e169	0.29273537
182	0xbe931823	-0.28729352
183	0xbf897efc	-1.0741878
184	0x3ef46f73	0.4774128
185	0x3e4d872f	0.200711
186	0xbecb1972	-0.3966785
187	0xbe597615	-0.21236451
188	0x3ec6028d	0.3867382
189	0xbe9d4e99	-0.30724028
190	0x3d2c755c	0.04210411
191	0xbe81184c	-0.2521385
192	0xbf2241c1	-0.6338158
193	0xbeaf8198	-0.3427856
194	0x3e38b01f	0.18035935
195	0xbe1323e7	-0.14369164
196	0xbf298bbe	-0.66228855
197	0xbd6eb754	-0.058280304
198	0xbec6155a	-0.38688165
199	0x3e9c778e	0.30559963
200	0x3df70979	0.12062354
201	0xbec51a01	-0.38496402
202	0xbe022ca6	-0.12712345
203	0x3e14602d	0.14489813
204	0x3e724095	0.23657449
205	0xbe6bc543	-0.23024468
206	0xbf3bc924	-0.7335379
207	0x3e64af79	0.22332563
208	0xbe3c048a	-0.18361107
209	0xbea47cc5	-0.32126442
210	0x3ed4ec5b	0.41586575
211	0xbecd3a09	-0.4008334
212	0xbe65e345	-0.22449978
213	0x3da04b7f	0.078269
214	0xbe8d93b1	-0.27651742
215	0xbd6aae3b	-0.057295065
216	0xbf055443	-0.520817
217	0xbe036fc6	-0.12835607
218	0x3f36ddb4	0.7143204
219	0x3e7d4a88	0.24735463
220	0x3df9b97b	0.12193581
221	0xbe09b2c2	-0.13447097
222	0x3e873b14	0.2641226
223	0xbe9a8a9b	-0.30183873
224	0x3e1000a1	0.1406274
225	0xbe5ba34c	-0.21449012
226	0xbe974669	-0.29545906
227	0x3da8cff4	0.08242789
228	0xbf03549f	-0.51300997
229	0x3f06b92f	0.5262632
230	0xbf288504	-0.65827966
231	0xbcd7ee82	-0.026358847
232	0x3ec89e70	0.39183378
233	0xbd40e275	-0.047090966
234	0x3d39fc06	0.045406364
235	0xbe6fd159	-0.23419704
236	0xbec1e45c	-0.37869537
237	0x3df98363	0.12183263
238	0xbe39f42a	-0.18159547
239	0x3da031c0	0.07821989
240	0xbf0fbbb6	-0.561458
241	0x3bd82bde	0.0065970263
242	0xbe883fb1	-0.26611093
243	0xbe55da4d	-0.20884056
244	0xbdf71414	-0.120643765
245	0x3eea7d0d	0.4579853
246	0x3ee75583	0.45182428
247	0xbeffa62f	-0.49931476
248	0xbdde213b	-0.10846182
249	0xbf2c6f82	-0.6735765
250	0xbf5a7fd1	-0.8535128
251	0xbf7486ce	-0.95518196
252	0xbebee322	-0.37282664
253	0xbec43683	-0.3832284
254	0x3e95f096	0.29285115
255	0x3e76d328	0.24103987

conv1.bias f4 [32]
0	0xbe6bfd00	-0.2304573
1	0xbe487328	-0.19575179
2	0xbd1c6652	-0.038183518
3	0xbe9cb8f8	-0.3060987
4	0xbf013759	-0.5047508
5	0xbed6eb46	-0.41976374
6	0xbeb297b5	-0.34881368
7	0xbe86f4fc	-0.26358783
8	0xbf22d57b	-0.63606995
9	0xbe4a09f6	-0.19730362
10	0xbf0599a6	-0.52187574
11	0xbe851031	-0.25988916
12	0x3f14c081	0.5810624
13	0xbe60921f	-0.21930741
14	0xbea1d78e	-0.31609768
15	0xbe9c5436	-0.30532998
16	0x3ef41ce1	0.47678283
17	0xbebae77d	-0.36504737
18	0xbf0aee6b	-0.54270047
19	0xbeb84d52	-0.3599649
20	0xbea6b6c2	-0.32561308
21	0xbed1af9a	-0.40954286
22	0xbeff3afb	-0.49849686
23	0x3e784a0e	0.24247
24	0xbe304dfd	-0.1721725
25	0xbe2ba511	-0.16762187
26	0xbf07ca77	-0.5304331
27	0xbe28a8b3	-0.16470604
28	0xbecb10bc	-0.39661205
29	0xbe729650	-0.23690152
30	0xbecc80a1	-0.39941886
31	0xbea8df01	-0.32982638

conv2.weight f4 [32, 32, 5, 5]
0	0xbe1a25ec	-0.15053529
1	0xbf2ea869	-0.68225724
2	0xbe9f5194	-0.31116927
3	0x3ef5f99b	0.48041996
4	0x3e5cbe49	0.21556963
5	0xbec9349d	-0.39297953
6	0xbf31cc69	-0.6945253
7	0xbd567723	-0.05235971
8	0x3b926ceb	0.0044685504
9	0xbf5bc02c	-0.85840106
10	0x3ed57d69	0.41697243
11	0xbe37cb2b	-0.17948596
12	0xbf16d19c	-0.5891359
13	0xbe4f4b39	-0.20243539
14	0xbe5693d6	-0.20954832
15	0x3e83f53f	0.25773045
16	0xbeba33c9	-0.36367634
17	0xbefecbb1	-0.4976478
18	0xbeb43674	-0.35197794
19	0xbf585239	-0.8450046
20	0x3ecb0ac9	0.39656666
21	0xbe8a1812	-0.2697149
22	0x3e79cbb0	0.24394107
23	0xbcdd99dd	-0.027050907
24	0xbf33a806	-0.7017826
25	0xbf2be7b5	-0.6715043
26	0xbcf4002b	-0.029785236
27	0xbe65709a	-0.22406235
28	0x3ed94f15	0.42443147
29	0xbe1c40e2	-0.15259126
30	0xbc730caf	-0.014834567
31	0xbf05dcb7	-0.5228991
32	0xbe44c0a2	-0.19214109
33	0x3f15abd2	0.584653
34	0xbbfe977e	-0.007769524
35	0x3f0b3392	0.54375565
36	0xbebc87a9	-0.3682225
37	0xbf05ba0a	-0.52237
38	0x3c0ebe72	0.008712398
39	0xbf334ae4	-0.7003615
40	0xbdde6806	-0.10859685
41	0xbea30929	-0.31842926
42	0xbe756378	-0.23963726
43	0xbea6ad68	-0.32554173
44	0xbec12d76	-0.37729996
45	0x3de2d808	0.11076361
46	0xbdc22a92	-0.09480776
47	0x3e4fc3ee	0.20289585
48	0xbf499220	-0.78738594
49	0xbee01281	-0.43764117
50	0xbf8e7b83	-1.1131443
51	0xbe49b7d7	-0.19699036
52	0xbf1308e9	-0.5743547
53	0x3d363694	0.044485644
54	0x3e77103e	0.2412729
55	0x3d2673fe	0.040637963
56	0x3e749dbc	0.23888296
57	0xbf2746a3	-0.6534216
58	0xbf34825e	-0.70511425
59	0x3eb5619b	0.3542603
60	0x3c981106	0.018562805
61	0xbdcb66a0	-0.099316835
62	0xbd655e9e	-0.055998437
63	0x3e817730	0.25286245
64	0xbe87e071	-0.26538423
65	0xbedd4e95	-0.43224016
66	0x3ea7120c	0.32630956
67	0xbf1e8f9b	-0.61937875
68	0xbec36ce8	-0.38169026
69	0x3d3c080b	0.045906108
70	0x3e87c0e9	0.26514366
71	0x3da79b57	0.081839256
72	0xbe9dd5c0	-0.3082714
73	0x3f21638c	0.6304252
74	0x3d9f5de9	0.07781584
75	0xbea2cbdb	-0.31796154
76	0xbe4816bc	-0.19539922
77	0x3e3b51f7	0.18292986
78	0xbc1ed312	-0.009693878
79	0xbe2cb838	-0.16867149
80	0xbe68d998	-0.22739255
81	0xbeb30288	-0.3496287
82	0xbca72b02	-0.02040625
83	0xbe277f85	-0.16357239
84	0xbe3c0962	-0.18362954
85	0xbe57345b	-0.21016066
86	0xbe08e26e	-0.13367626
87	0x3e342ee1	0.17596008
88	0x3b9d52e1	0.0048011397
89	0x3cba89d4	0.0227708
90	0xbd7604a1	-0.06006301
91	0xbeaea192	-0.34107643
92	0xbf03bb88	-0.51458025
93	0x3e8c4c4a	0.27401954
94	0xbdca0976	-0.09865086
95	0xbec7863f	-0.3896961
96	0xbe903d7d	-0.28171912
97	0xbdeb0fd6	-0.1147763
98	0xbe3bdb84	-0.18345457
99	0x3e0f0187	0.13965426
100	0xbe667279	-0.22504605
101	0xbd83424e	-0.06409131
102	0xbe387ffd	-0.18017574
103	0xbccdcf12	-0.025123153
104	0xbcd085e8	-0.025454476
105	0x3e511f21	0.20422031
106	0xbee35f7a	-0.4440878
107	0xbf102e50	-0.5632067
108	0x3f287b45	0.65813094
109	0xbdaebe8a	-0.08532436
110	0xbea431d5	-0.3206927
111	0xbf146d73	-0.57979506
112	0xbea27481	-0.3172951
113	0x3eabd07e	0.33557504
114	0x3ddc107f	0.10745334
115	0xbee86ec1	-0.45397
116	0xbeab8b38	-0.33504653
117	0x3e5cfe70	0.21581435
118	0xbf156195	-0.58352023
119	0x3d100bc7	0.03516748
120	0xbea4d179	-0.32191065
121	0xbe4ee12e	-0.20203087
122	0x3c3481f5	0.011017312
123	0x3f3cd0bd	0.7375601
124	0xbef7fab6	-0.48433465
125	0xbe6dd04e	-0.23223993
126	0x3f0a41ba	0.5400654
127	0x3f8b67c1	1.0891038
128	0xbeed2666	-0.46318358
129	0x3e835f0e	0.25658458
130	0xbd105c65	-0.035244364
131	0x3d3f81f1	0.04675478
132	0xbedb7ad6	-0.42867154
133	0x3e6be50d	0.23036595
134	0x3e7c8aca	0.24662319
135	0x3e826ced	0.2547373
136	0x3dcef57c	0.10105416
137	0xbdc16a5f	-0.09444117
138	0x3d27674c	0.040869996
139	0xbf669b87	-0.90081066
140	0xbf0cf3fd	-0.55059797
141	0xbe7bf2b5	-0.24604304
142	0xbeb016d4	-0.34392416
143	0x3e656711	0.22402598
144	0x3f3b6148	0.73195314
145	0x3f0a02c7	0.5391049
146	0x3ec09912	0.37616783
147	0x3d8ac66f	0.067761295
148	0xbdc6dc69	-0.09710009
149	0xbe58f66c	-0.21187752
150	0xbd84b72d	-0.064802505
151	0xbdc53b83	-0.096304916
152	0xbed9e523	-0.4255763
153	0xbf2f9fe1	-0.6860333
154	0x3e8e4b71	0.27791932
155	0xbea995d0	-0.3312211
156	0xbb9c9d9e	-0.0047795316
157	0xbef47f39	-0.47753313
158	0xbefcb874	-0.49359477
159	0xbf33bb35	-0.7020753
160	0x3f25a304	0.6470187
161	0xbef1b298	-0.4720657
162	0x3e439ecc	0.19103545
163	0xbea0c25c	-0.31398284
164	0xbede8952	-0.43464142
165	0xbd9216a5	-0.07133225
166	0xbc1dad6b	-0.009623866
167	0xbe2043b1	-0.15650822
168	0x3d5f1d1b	0.054471117
169	0x3f1a37d9	0.60241467
170	0xbf1ac55a	-0.60457385
171	0x3e3bb691	0.18331362
172	0x3b63f9b7	0.0034786293
173	0xbdf05520	-0.11734986
174	0x3dcad1b3	0.09903278
175	0x3be643fa	0.0070271464
176	0xbe288c11	-0.16459681
177	0xbd58afe9	-0.052902136
178	0xbf204e26	-0.62619245
179	0xbbebe90f	-0.0071994136
180	0xbf343c37	-0.7040438
181	0xbf0aecc9	-0.54267555
182	0xbf1f2ef8	-0.62181044
183	0x3e1ac65a	0.15114728
184	0x3f2bb7df	0.6707744
185	0x3ceb686e	0.02873632
186	0x3db40018	0.087890804
187	0xbe8319a7	-0.2560551
188	0xbe9ad05f	-0.302371
189	0x3e8cc08f	0.2749066
190	0xbe7b1635	-0.2452019
191	0x3e8b90c1	0.27258876
192	0xbe04ef22	-0.12981847
193	0xbf271162	-0.652609
194	0xbe14a4e9	-0.14516033
195	0xbe9427b3	-0.28936538
196	0x3d1dce02	0.038526542
197	0x3e0ab70e	0.13546392
198	0x3f0a59f4	0.5404351
199	0x3ef238dd	0.47309008
200	0x3ea7bfea	0.32763606
201	0xbe88d888	-0.267277
202	0x3db56a4b	0.088581644
203	0xbe57a434	-0.21058732
204	0xbe8bfbfd	-0.2734069
205	0x3ec92bdd	0.39291278
206	0xbe82b1c4	-0.2552625
207	0x3e5cc6e0	0.2156024
208	0xbc3de5b2	-0.011590408
209	0x3d877980	0.06614971
210	0xbdd6ce7b	-0.10488602
211	0xbe89c6e3	-0.2690955
212	0xbf136748	-0.5757947
213	0xbe90d05c	-0.28283966
214	0x3de38f88	0.11111361
215	0xbec260ab	-0.37964377
216	0xbe24bf42	-0.16088584
217	0xbf562e11	-0.8366404
218	0xbf089a7b	-0.5336072
219	0x3e56fb37	0.20994268
220	0x3ee809b0	0.4531989
221	0x3ea50158	0.32227588
222	0xbe8c96b9	-0.27458742
223	0x3ea0e3ae	0.31423706
224	0xbec0fb08	-0.37691522
225	0xbe1c29ac	-0.15250272
226	0xbef62e9d	-0.48082438
227	0xbf16db3b	-0.5892827
228	0x3f234e6b	0.6379153
229	0xbf18980e	-0.5960702
230	0x3ec51805	0.38494888
231	0x3eb3bc15	0.35104433
232	0xbebf9cf4	-0.37424433
233	0x3e9dd95c	0.30829895
234	0xbf00a488	-0.50251055
235	0x3f4a9cd4	0.7914555
236	0xbeda03fd	-0.42581168
237	0xbf56e903	-0.839493
238	0x3e3c5308	0.18391049
239	0xbdab1cae	-0.083550796
240	0xbed339f2	-0.41255146
241	0xbf31d5f2	-0.6946708
242	0xbf0c91cd	-0.54909974
243	0x3e6a8b60	0.2290473
244	0x3b3e104a	0.0029001408
245	0xbd793124	-0.06083788
246	0xbee512c2	-0.44740874
247	0xbda93a0f	-0.08263027
248	0xbde5b02a	-0.11215241
249	0xbf066ef9	-0.5251308
250	0x3ed4706a	0.41492015
251	0xbf0ea781	-0.5572434
252	0x3d916cd5	0.07100836
253	0xbdf74861	-0.12074352
254	0xbe34ae56	-0.17644629
255	0x3f1428bc	0.57874656

conv2.bias f4 [32]
0	0xbe58f517	-0.21187244
1	0xbea02da6	-0.31284827
2	0xbef6c278	-0.48195243
3	0xbeb0477d	-0.3442954
4	0xbea7aa9c	-0.32747352
5	0xbf050a5c	-0.5196893
6	0xbeb334e7	-0.350013
7	0xbed34c9f	-0.41269395
8	0xbe8731ab	-0.2640508
9	0xbee251c5	-0.4420301
10	0xbef62c4a	-0.48080665
11	0xbdc9f5b9	-0.09861321
12	0xbe812b8d	-0.2522854
13	0xbebd6af8	-0.36995673
14	0xbed73351	-0.4203134
15	0xbd960b02	-0.07326318
16	0xbedef0fe	-0.43543237
17	0xbead2380	-0.33816147
18	0xbe6ba4b0	-0.23012042
19	0xbe41ffff	-0.18945311
20	0xbebc588c	-0.36786306
21	0xbd8538b5	-0.06504957
22	0xbe316626	-0.17324123
23	0x3c5ac86c	0.013353448
24	0xbdbd4ae7	-0.09242802
25	0xbdaa30fa	-0.08310123
26	0xbe919281	-0.28432086
27	0xbed5ad5b	-0.41733822
28	0xbe292fe5	-0.16522177
29	0xbe3dad62	-0.18523172
30	0xbe88347f	-0.2660255
31	0xbeb0c563	-0.34525594

conv3.weight f4 [32, 32, 5, 5]
0	0xbe16543c	-0.1468057
1	0xbe34f8cb	-0.17673032
2	0x3de87228	0.113498986
3	0xbee58eb2	-0.4483543
4	0xbf8b9bbb	-1.09069
5	0x3e9632c4	0.29335606
6	0x3eaa6cab	0.33286032
7	0xbf03a463	-0.5142271
8	0xbda94fb3	-0.082671545
9	0x3db7a137	0.08966296
10	0x3eeba2c8	0.4602263
11	0xbea5ca6a	-0.32380992
12	0xbec82023	-0.39087018
13	0x3db48847	0.08815055
14	0xbee9a059	-0.45630148
15	0xbde4a835	-0.111648954
16	0x3c61ec77	0.013789288
17	0xbf853909	-1.0408031
18	0xbe8e73dc	-0.2782277
19	0xbdc5ec72	-0.09664239
20	0xbd8d6126	-0.06903295
21	0x3f2f2f58	0.68431616
22	0x3ee6b778	0.4506185
23	0x3dd9fd32	0.10643996
24	0x3f03e638	0.5152316
25	0x3d9a7655	0.07542101
26	0xbd8e1444	-0.06937459
27	0x3cba2589	0.022722976
28	0xbf6c69fc	-0.9234922
29	0xbf1cf0f6	-0.6130518
30	0x3e52645c	0.20546097
31	0xbf5a1063	-0.85181254
32	0xbf0f39ef	-0.55947775
33	0xbdd7d5ee	-0.10538851
34	0xbe955d05	-0.2917253
35	0x3d3bce2b	0.045850914
36	0xbe885797	-0.26629326
37	0x3f1966cc	0.5992248
38	0xbea115d0	-0.31461954
39	0xbf0cdb5d	-0.5502222
40	0x3eaa62db	0.33278546
41	0xbe231138	-0.15924537
42	0xbf077de5	-0.52926475
43	0x3df26383	0.118353866
44	0xbe334ba9	-0.17509331
45	0xbf00a4da	-0.50251544
46	0xbf0392ae	-0.5139569
47	0x3e077901	0.13229753
48	0x3d32fcba	0.04369805
49	0xbf9ac344	-1.209084
50	0x3dfc9015	0.12332169
51	0x3da94015	0.08264176
52	0x3cb99920	0.022656024
53	0xbf01003a	-0.5039097
54	0x3e575a33	0.21030502
55	0xbf0b8bbb	-0.54510087
56	0x3e9df5cd	0.30851594
57	0xbea9bc7f	-0.33151624
58	0x3e970fdb	0.29504284
59	0x3e3e2b4c	0.18571204
60	0xbd34cdf6	-0.044141732
61	0x3e869b7b	0.26290497
62	0xbe73b436	-0.23799214
63	0x3db3349f	0.08750271
64	0xbe0fbb10	-0.14036202
65	0xbe2d8f45	-0.16949184
66	0xbe9161db	-0.2839497
67	0xbdcb6c77	-0.099327974
68	0x3e8228c4	0.25421727
69	0xbe86bb8f	-0.2631497
70	0x3e516637	0.20449148
71	0x3eb1398a	0.3461421
72	0x3d94195d	0.072314
73	0x3d550312	0.05200488
74	0x3e120b63	0.14262156
75	0x3f2a4b5e	0.6652125
76	0xbc9f4fab	-0.019447168
77	0x3ee2fbb5	0.44332662
78	0xbe21228f	-0.1573584
79	0x3eba9c24	0.3644725
80	0x3f4d7739	0.80260044
81	0x3e7b4e4d	0.24541588
82	0x3ec0a116	0.376229
83	0x3d8652dc	0.06558773
84	0xbe510022	-0.20410207
85	0x3e65781f	0.22409104
86	0x3d45f9bf	0.04833388
87	0xbeb43d75	-0.35203138
88	0xbe5c7091	-0.21527316
89	0x3dcc54ac	0.099770874
90	0x3ed2e95a	0.41193658
91	0x3f52bb6a	0.8231722
92	0xbe2f5242	-0.17121223
93	0xbe1424db	-0.14467184
94	0xbe40d63a	-0.18831721
95	0xbbcbfb34	-0.006225014
96	0x3efd3cd4	0.4946047
97	0x3df278b8	0.118394315
98	0xbc1481ed	-0.00906418
99	0x3f1ae19d	0.6050051
100	0x3e8d22d1	0.27565625
101	0x3f2e1fda	0.6801735
102	0x3e1329b7	0.14371382
103	0xbf0d2b92	-0.5514461
104	0xbd2e06b6	-0.04248687
105	0x3ead6fea	0.33874446
106	0xbde1133b	-0.10989996
107	0xbe1d2095	-0.1534446
108	0x3e7cff7e	0.24706838
109	0xbe5e6793	-0.21719198
110	0x3f38291a	0.71937716
111	0x3ed43bef	0.41451976
112	0xbe8882c3	-0.26662263
113	0x3d9379bc	0.07200953
114	0xbe0734f5	-0.13203795
115	0x3eb1695c	0.34650695
116	0x3e4213a2	0.18952802
117	0x3e7c359f	0.2462983
118	0x3f0cd9b9	0.5501972
119	0x3cdc8889	0.026920574
120	0x3e80332b	0.25039038
121	0x3cd56a39	0.026051627
122	0xbce85393	-0.028360164
123	0x3df31bcc	0.11870536
124	0x3ee09eed	0.4387125
125	0x3f88d46e	1.0689828
126	0x3d611b43	0.05495764
127	0x3fa7d359	1.3111373
128	0xbf0092f1	-0.50224215
129	0x3edcdc41	0.4313679
130	0x3d6506bb	0.05591462
131	0xbefec5ef	-0.49760386
132	0xbe16f513	-0.14741926
133	0x3edfd2e4	0.43715584
134	0xbefa8166	-0.48926848
135	0xbdcaff77	-0.09912007
136	0x3ec41fc7	0.38305494
137	0xbef864f1	-0.48514512
138	0x3e20695e	0.15665194
139	0x3da89ff0	0.08233631
140	0xbcedf6a5	-0.029048273
141	0xbe6553b3	-0.2239521
142	0xbec0a9d6	-0.37629575
143	0x3ed3d1f0	0.41371107
144	0xbee7b079	-0.45251825
145	0x3ea3135c	0.31850708
146	0x3f01a885	0.50647765
147	0x3eaa836b	0.3330339
148	0xbe17330f	-0.14765571
149	0x3f1f8e5c	0.623266
150	0xbe420ad6	-0.18949446
151	0x3f2ba48f	0.6704797
152	0x3ec64055	0.38720956
153	0x3b97414e	0.004615939
154	0xbe7a0fa6	-0.24420032
155	0x3e967c32	0.29391629
156	0xbd0854fb	-0.03328417
157	0x3e747d7f	0.23875998
158	0x3d941a5d	0.07231591
159	0xbf5f69d2	-0.87270844
160	0x3e6498e2	0.22323945
161	0xbef907af	-0.48638675
162	0x3ef89304	0.48549664
163	0xbef0a162	-0.46998125
164	0xbe287ce9	-0.164539
165	0x3f011f84	0.50438714
166	0x3d5faff3	0.054611158
167	0x3eb6aad1	0.35677198
168	0xbe702910	-0.23453164
169	0xbd944ee9	-0.072416134
170	0x3e64c7f6	0.22341904
171	0x3de847b4	0.11341801
172	0xbda8bda1	-0.08239294
173	0xbd909450	-0.07059538
174	0x3e948d95	0.2901427
175	0xbdec9444	-0.11551717
176	0x3f1512f6	0.5823206
177	0x3c42321e	0.011852769
178	0xbe0a9a2f	-0.13535379
179	0x3e52b618	0.20577276
180	0x3dbc0408	0.091804564
181	0x3e1581d8	0.14600313
182	0x3d3831b4	0.044969276
183	0x3de20a0f	0.11037075
184	0xbdf57849	-0.11985833
185	0xbe7da69e	-0.2477059
186	0x3e1cf084	0.15326124
187	0x3dc39757	0.0955035
188	0xbf4a725d	-0.79080755
189	0xbe212150	-0.15735364
190	0xbe8d558d	-0.27604333
191	0x3ee37573	0.44425544
192	0x3d549305	0.05189802
193	0x3d79b176	0.060960256
194	0xbea5c10e	-0.32373852
195	0x3e6bec81	0.23039438
196	0x3d9cc537	0.07654803
197	0xbe807f67	-0.250972
198	0xbe83384f	-0.25628898
199	0xbe1783e5	-0.14796408
200	0xbf00d9bc	-0.50332236
201	0xbdfb2611	-0.1226312
202	0xbe878c7b	-0.26474366
203	0xbdab2f95	-0.08358685
204	0xbf1ebafa	-0.62004054
205	0x3f3d02d2	0.7383243
206	0x3d10a189	0.035310302
207	0x3ead8d6a	0.33896953
208	0xbe8eb2b3	-0.27870712
209	0xbe9a1f8c	-0.30102193
210	0x3e5f79e5	0.21823843
211	0x3e527edb	0.20556204
212	0xbee52e54	-0.44761908
213	0x3f0c957c	0.54915595
214	0xbe06b4ec	-0.13154954
215	0x3e314406	0.17311105
216	0x3e5ddeb1	0.21666981
217	0xbe485cd3	-0.1956666
218	0xbdf7b472	-0.12094964
219	0x3e362a5d	0.17789598
220	0xbe8e69b1	-0.2781501
221	0xbf0901cf	-0.53518385
222	0x3e656cf0	0.22404838
223	0xbef73f82	-0.4829064
224	0x3de3ee44	0.1112943
225	0x3e526062	0.2054458
226	0xbecb7f58	-0.39745593
227	0x3f0a6fa5	0.54076606
228	0xbec2cdc8	-0.38047624
229	0x3df66dac	0.12032637
230	0x3ea40013	0.32031307
231	0xbe74e4dd	-0.2391543
232	0xbe4d55a0	-0.20052195
233	0xbf16df01	-0.58934027
234	0xbea3fedb	-0.32030377
235	0x3e93bd36	0.28855294
236	0x3d7542e3	0.05987824
237	0x3d9b3148	0.07577759
238	0x3dbc9406	0.09207921
239	0xbdc4adff	-0.096034996
240	0x3c40575b	0.011739577
241	0xbacf371a	-0.0015809268
242	0xbea43dca	-0.3207839
243	0xbe121ea2	-0.14269498
244	0xbf37a8ba	-0.7174183
245	0xbe069cf3	-0.13145809
246	0x3eba1079	0.36340693
247	0xbda3c181	-0.07995892
248	0xbe499cd1	-0.19688727
249	0x3e376a17	0.17911564
250	0xbdbd07ef	-0.09230029
251	0x3f785b26	0.9701408
252	0xbe033b12	-0.12815502
253	0xbe1aca9c	-0.15116352
254	0x3e0289e8	0.1274792
255	0xbe2b1ca0	-0.16710138

conv3.bias f4 [32]
0	0xbf254a5d	-0.64566594
1	0xbebd4f3b	-0.3697451
2	0xbeff19b3	-0.49824294
3	0xbe8d7130	-0.27625418
4	0xbb859b12	-0.0040773237
5	0xbd84fd33	-0.064936064
6	0xbe961a77	-0.29317066
7	0xbe6175c2	-0.22017577
8	0xbdb928ff	-0.090410225
9	0xbeda5f5a	-0.42650872
10	0xbecf91aa	-0.4054082
11	0xbeaf025e	-0.34181494
12	0xbec5011c	-0.3847741
13	0x3d2559c3	0.040368807
14	0xbd20c69c	-0.03925191
15	0xbeace85d	-0.3377103
16	0xbe15ef04	-0.14641958
17	0xbf82a3f0	-1.020628
18	0xbebbc296	-0.36671895
19	0xbece8fc4	-0.4034406
20	0xbee660e0	-0.44995785
21	0xbe91c259	-0.28468588
22	0xbe9401fa	-0.28907758
23	0xbe8f7d4b	-0.28025278
24	0xbef4ce23	-0.4781352
25	0xbeb693fa	-0.35659772
26	0xbe014f1e	-0.12627837
27	0xbdc87704	-0.097883254
28	0xbe62c310	-0.22144723
29	0xbef76da9	-0.48325852
30	0xbdaf9b9e	-0.085746035
31	0xbf195e7d	-0.599098

conv4.weight f4 [32, 32, 5, 5]
0	0x3d07aebe	0.03312563
1	0xbe2c0688	-0.16799366
2	0xbf325955	-0.6966756
3	0xbeea7001	-0.45788577
4	0xbd793d74	-0.060849622
5	0x3f1f1843	0.62146395
6	0xbf02b1e4	-0.5105269
7	0x3d7ee3ba	0.062228896
8	0x3e846512	0.2585836
9	0xbe20b04b	-0.1569225
10	0xbe2aecc2	-0.16691878
11	0xbced1778	-0.028941855
12	0x3f5b0cdb	0.8556649
13	0x3e8bf1e0	0.27332973
14	0xbe293e1a	-0.16527596
15	0xbdbf3d2c	-0.093378395
16	0xbe848794	-0.25884688
17	0x3eddf6d0	0.43352365
18	0x3c3e0b84	0.011599425
19	0xbe6f39c4	-0.2336188
20	0x3e41acae	0.18913528
21	0xbe4e8d6b	-0.20171134
22	0x3e5c0f94	0.21490318
23	0x3cdedb02	0.02720404
24	0x3dc33054	0.09530702
25	0xbf17840a	-0.5918585
26	0x3f131b5d	0.5746363
27	0x3df5c53a	0.120005086
28	0xbf26c2c0	-0.65140915
29	0xbe949769	-0.29021767
30	0xbdd2e416	-0.1029741
31	0xbe907e14	-0.2822119
32	0xbdabada2	-0.08382727
33	0xbea5d70c	-0.3239063
34	0xbef74e0b	-0.4830173
35	0xbdf338ee	-0.11876093
36	0xbf026d7f	-0.5094833
37	0xbef2c6a1	-0.47417167
38	0xbf54a3d6	-0.83062494
39	0x3e9a73b5	0.30166402
40	0xbf45a4cf	-0.772046
41	0xbf2606a3	-0.64853877
42	0xbee0b5a9	-0.43888596
43	0xbf2d7023	-0.6774923
44	0xbf0f4902	-0.55970776
45	0xbe4d88f5	-0.20071776
46	0xbe7547c2	-0.23953155
47	0xbf14113e	-0.5783881
48	0xbf07d573	-0.5306007
49	0xbf662664	-0.8990233
50	0x3ee45bc7	0.4460127
51	0x3f0abf73	0.5419838
52	0xbed62880	-0.41827774
53	0xbcba7577	-0.02276109
54	0xbe7d7fe6	-0.2475582
55	0x3e9ae3ec	0.30252016
56	0xbee8587a	-0.45380002
57	0xbe91351d	-0.28360835
58	0xbe7ed6a2	-0.24886563
59	0xbdefa55e	-0.11701463
60	0xbf1232f8	-0.5710902
61	0xbf5717f7	-0.8402094
62	0xbf3d78b5	-0.7401231
63	0xbe9992ec	-0.29994905
64	0x3dc11756	0.09428279
65	0xbd465a5b	-0.048426013
66	0x3884e5d4	6.337059e-05
67	0xbf5fd263	-0.874304
68	0xbeee4dd7	-0.46543762
69	0xbef8cdcb	-0.48594508
70	0xbf3d6b1b	-0.73991555
71	0xbf1daeb8	-0.61594725
72	0xbf70d58d	-0.9407585
73	0xbeeea640	-0.46611214
74	0x3d0cbe97	0.03436145
75	0xbe1b8c48	-0.15190232
76	0xbe375a41	-0.17905523
77	0x3ec54a6d	0.38533345
78	0x3e201878	0.15634334
79	0xbe9c913c	-0.30579555
80	0x3e90c39a	0.28274232
81	0x3e3ae014	0.18249542
82	0xbebc1e61	-0.36741927
83	0xbe0bd49b	-0.13655321
84	0x3e892755	0.2678782
85	0x3ef78cf2	0.4834972
86	0xbee09879	-0.43866327
87	0xbf1d1632	-0.6136199
88	0xbf3b6ef8	-0.732162
89	0xbf29900b	-0.6623542
90	0xbef555cc	-0.4791702
91	0xbe8b8f56	-0.27257794
92	0xbf3fea41	-0.7496682
93	0xbf032ccc	-0.5124023
94	0xbf1dde90	-0.6166773
95	0xbebaca6b	-0.36482558
96	0xbeadd696	-0.3395278
97	0xbf0f7e35	-0.5605195
98	0xbf300b91	-0.6876765
99	0xbeb399ea	-0.35078365
100	0xbef51eb7	-0.47874996
101	0xbf550795	-0.83214694
102	0x3f2df3df	0.6795024
103	0xbe6c164e	-0.23055384
104	0xbe06371d	-0.13106962
105	0x3e55e0c5	0.20886524
106	0x3e89e17b	0.2692984
107	0xbf9139c7	-1.1345757
108	0xbf194fae	-0.59887207
109	0x3e5dff26	0.21679363
110	0xbf025ca3	-0.509226
111	0xbf0dcd69	-0.55391556
112	0xbe378897	-0.17923199
113	0xbe8ec234	-0.2788254
114	0xbee9dd7c	-0.45676792
115	0x3cd9702d	0.026542747
116	0xbf5bcae2	-0.8585645
117	0xbf073ca7	-0.52826923
118	0xbec83338	-0.39101577
119	0xbee9eb6e	-0.4568743
120	0xbf1cdd5f	-0.61275285
121	0xbf21b16a	-0.6316134
122	0xbea67204	-0.32508862
123	0xbf4e3850	-0.80554676
124	0xbf312446	-0.69195974
125	0xbe2e0357	-0.16993462
126	0xbde60f46	-0.11233382
127	0xbea86ce2	-0.3289557
128	0xbe1264c4	-0.14296252
129	0x3ef9a4b3	0.48758468
130	0x3d1f4b93	0.038890433
131	0x3eaffbe6	0.3437187
132	0xbf0661d0	-0.52493
133	0x3db4b938	0.0882439
134	0x3e5d589c	0.21615833
135	0x3d3f044f	0.04663497
136	0x3cb2f64b	0.021845957
137	0xbd63e548	-0.05563858
138	0xbf4fac5d	-0.8112238
139	0xbee57d64	-0.44822228
140	0xbcc13e96	-0.023589414
141	0x3debcc87	0.1151362
142	0xbf27de7b	-0.65573853
143	0xbf6faafe	-0.9362029
144	0xbe4deb30	-0.20109248
145	0xbdbfa2c1	-0.09357215
146	0xbe4afaa0	-0.19822168
147	0xbebf2b0b	-0.37337527
148	0xbf4f227b	-0.8091199
149	0xbea9ed57	-0.33188888
150	0x3ea856dd	0.3287877
151	0xbdd66d44	-0.104700595
152	0xbe2053eb	-0.15657012
153	0xbe7214bb	-0.2364072
154	0xbeafbd25	-0.34323993
155	0xbd4a9c5a	-0.049465515
156	0x3eb921ae	0.36158508
157	0xbf2477b8	-0.64245176
158	0xbeb0b2a8	-0.34511304
159	0x3e65923d	0.22419067
160	0xbe83f290	-0.25770998
161	0xbf606d6f	-0.8766698
162	0xbe8ccdca	-0.27500755
163	0xbee38865	-0.44439998
164	0xbea6d4f3	-0.32584342
165	0x3e10926d	0.14118357
166	0xbf01e800	-0.5074463
167	0xbf35fffd	-0.7109373
168	0xbe8a18a7	-0.26971933
169	0xbf216dd4	-0.6305821
170	0xbeae8c74	-0.34091532
171	0xbec9d445	-0.3941976
172	0xbf036044	-0.51318765
173	0xbf1f10fe	-0.62135303
174	0xbf08a986	-0.5338367
175	0xbe7a90c1	-0.24469282
176	0x3e9e8aed	0.30965367
177	0xbf1f8b2d	-0.6232174
178	0xbf11621a	-0.56790316
179	0x3ecb50f7	0.3971021
180	0xbed3bd1f	-0.41355225
181	0x3d6200d8	0.055176586
182	0x3ed16cae	0.4090323
183	0xbf1156ef	-0.56773275
184	0xbe29829d	-0.16553731
185	0xbe07b0c7	-0.13251029
186	0xbe7f70f6	-0.24945435
187	0x3ccdbb49	0.025113719
188	0xbf133bf2	-0.57513344
189	0xbd641ddc	-0.05569254
190	0xbe801938	-0.2501924
191	0xbeaf1ea1	-0.34203056
192	0xbf24a6b3	-0.6431686
193	0xbe939d04	-0.2883073
194	0xbea2a070	-0.3176303
195	0xbeae647d	-0.3406104
196	0xbd3b6f90	-0.04576069
197	0x3e10fbee	0.14158604
198	0xbeb487a5	-0.3525974
199	0xbeb16ab1	-0.34651712
200	0x3e628733	0.22121887
201	0xbdab8918	-0.08375758
202	0xbf12328e	-0.5710839
203	0xbe88531b	-0.26625904
204	0x3eeeee32	0.46666104
205	0x3e0282e1	0.12745239
206	0x3e52e280	0.20594215
207	0x3dcf4ca7	0.10122042
208	0xbf1f386f	-0.62195486
209	0xbf03f967	-0.5155243
210	0xbe383f3a	-0.17992869
211	0xbdd3dd07	-0.10344892
212	0xbce2dea5	-0.027694056
213	0xbebaf80d	-0.36517373
214	0x3ea77bd2	0.32711655
215	0x3e158edb	0.14605276
216	0xbda50472	-0.080574885
217	0x3c0fe7b6	0.008783272
218	0xbea89ef0	-0.3293376
219	0xbe7ffd76	-0.24999031
220	0xbe29f9ab	-0.16599147
221	0x3e7c5017	0.24639927
222	0xbee084f8	-0.43851447
223	0xbee7be93	-0.45262584
224	0xbe9f8381	-0.31155017
225	0xbed7af41	-0.42125896
226	0xbe8406df	-0.25786492
227	0xbecdab88	-0.4016993
228	0xbe8f3a0e	-0.2797398
229	0xbf127555	-0.57210284
230	0x3e1a73fe	0.1508331
231	0x3d04ea02	0.03244973
232	0x3ecadf90	0.3962369
233	0x3e566cd4	0.20939952
234	0x3e9ccfda	0.30627328
235	0xbec388bd	-0.3819026
236	0xbeea1cfe	-0.45725244
237	0xbf58ceaa	-0.84690344
238	0x3f06861a	0.5254837
239	0xbed9203d	-0.42407408
240	0xbf05873c	-0.52159476
241	0xbf18201a	-0.59423983
242	0xbf1a5c2b	-0.6029689
243	0xbede3c89	-0.4340556
244	0x3e7fd54e	0.24983713
245	0xbc26396e	-0.010145528
246	0xbef65ca3	-0.4811755
247	0xbea4a5f7	-0.3215787
248	0x3e1b23ef	0.15150426
249	0xbe195692	-0.1497443
250	0x3e94eada	0.29085428
251	0x3d8dc281	0.06921864
252	0x3da83e75	0.08215038
253	0x3ba09163	0.004900144
254	0xbdd83007	-0.105560355
255	0x3e8b9986	0.27265567

conv4.bias f4 [32]
0	0xbeecaabd	-0.46224013
1	0xbefda842	-0.49542433
2	0xbf1ae6f2	-0.60508645
3	0xbe96aeb3	-0.2943016
4	0xbeda3cdb	-0.42624554
5	0xbf35bab6	-0.70988023
6	0xbf5637c7	-0.8367886
7	0xbec9a4c6	-0.39383525
8	0xbf41d028	-0.75708246
9	0xbf2cf808	-0.67565966
10	0xbf3ef2fe	-0.74589527
11	0xbf4c34e9	-0.79768234
12	0xbf087f46	-0.53319204
13	0xbf0a8a49	-0.54117256
14	0xbf6b34b4	-0.91877294
15	0xbf44cca9	-0.76874787
16	0xbed79c43	-0.42111406
17	0xbebbe95d	-0.3670148
18	0xbf0814ed	-0.5315693
19	0xbf878daa	-1.0590107
20	0xbf5003d6	-0.81255853
21	0xbe9cda2d	-0.30635205
22	0xbdb9cfc6	-0.09072833
23	0xbf463ff3	-0.7744133
24	0xbedc7fd0	-0.43066263
25	0xbebd76b8	-0.37004638
26	0xbe6a9926	-0.22909984
27	0x3c45470f	0.0120408675
28	0xbf20a1d0	-0.62746906
29	0xbf115512	-0.5677043
30	0xbef229ec	-0.4729761
31	0xbf44d6d8	-0.76890326

conv5.weight f4 [32, 32, 5, 5]
0	0x3e33ceb2	0.17559317
1	0x3dabdf4e	0.08392201
2	0x3ea250d4	0.31702292
3	0xbe5400ed	-0.20703478
4	0x3c5ed441	0.01360041
5	0x3e356ad2	0.1771653
6	0xbd185461	-0.037189845
7	0x3ec57e8f	0.3857312
8	0x3e80fe70	0.2519412
9	0x3e4834ed	0.1955144
10	0x3ece3a3d	0.40278807
11	0x3f3e9e78	0.74460554
12	0x3db27eb8	0.08715576
13	0x3e92dde8	0.28684926
14	0x3ed25396	0.41079396
15	0xbdf8ff0c	-0.12158021
16	0xbdd48e23	-0.10378673
17	0x3c6fcf64	0.014636848
18	0x3e49f0d7	0.1972078
19	0x3d49edc7	0.049299028
20	0x3f1bd48c	0.60871196
21	0x3f80b562	1.0055354
22	0x3e7f9cef	0.24962209
23	0x3ef6d83b	0.48211846
24	0x3d5f834b	0.05456857
25	0xbf614249	-0.8799177
26	0x3efa92a8	0.48940015
27	0xbda3d4a2	-0.07999541
28	0xbef0c7eb	-0.47027525
29	0x3f280ea4	0.6564734
30	0x3d593bd3	0.05303557
31	0x3d8d7ee0	0.06908965
32	0xbe36e7d7	-0.17861877
33	0xbdda6ff5	-0.10665885
34	0x3ec2d9e8	0.38056874
35	0xbe8c889a	-0.2744797
36	0xbe54eada	-0.20792714
37	0xbf2f4538	-0.68464994
38	0xbef8d700	-0.48601532
39	0x3dddcb13	0.10829749
40	0x3d8605a2	0.06544043
41	0x3bdb5fe6	0.0066947816
42	0xbde35c03	-0.11101534
43	0x3f193e67	0.59860843
44	0x3db4b1cd	0.08822975
45	0xbe774acf	-0.24149631
46	0xbe5059f4	-0.20346814
47	0x3e86a454	0.26297247
48	0xbe409128	-0.18805373
49	0xbb4c391b	-0.0031161967
50	0x3de8b2f3	0.11362257
51	0x3eb10ac1	0.34578517
52	0xbf0859c7	-0.5326199
53	0x3f0ceda4	0.5505011
54	0xbd720a07	-0.059091594
55	0xbe30b04c	-0.17254752
56	0xbd8456c9	-0.064618655
57	0xbe30ae9b	-0.17254107
58	0xbe2a353e	-0.16621873
59	0xbe7b82b7	-0.24561583
60	0x3c8ad763	0.016948408
61	0xbede3eff	-0.43407437
62	0x3ecda496	0.40164632
63	0x3eab120f	0.33412215
64	0xbd0fc95c	-0.03510414
65	0x3eec7def	0.4618983
66	0x3e305404	0.1721955
67	0x3e37415d	0.17896028
68	0xbf0a9529	-0.5413385
69	0xbd67d3d0	-0.056598485
70	0xbefd1fac	-0.49438226
71	0x3e14ab04	0.14518362
72	0x3e5fbe63	0.2184997
73	0x3f1a9ff7	0.60400337
74	0xbe960787	-0.29302618
75	0x3ee78f97	0.45226738
76	0x3cb5a1f7	0.022171957
77	0x3c47daf6	0.0121982
78	0xbd4b6502	-0.049656875
79	0x3e736967	0.23770677
80	0x3f03c382	0.51470196
81	0x3ae22f11	0.0017256459
82	0x3d8bac2b	0.06819948
83	0x3dfce522	0.12348391
84	0x3e0d68ae	0.13809463
85	0x3e808f81	0.25109485
86	0x3e197b2d	0.14988394
87	0xbeddb2cc	-0.43300474
88	0x3e3ecaa2	0.18631986
89	0x3f3c534e	0.7356461
90	0xbd960562	-0.073252454
91	0x3e95744b	0.29190287
92	0x3d165251	0.036699597
93	0xbe3938e2	-0.18088105
94	0xbd52ae42	-0.051435716
95	0x3f647cd3	0.89252967
96	0xbf57a464	-0.84235215
97	0x3f414a6e	0.75504196
98	0x3ed5fe50	0.41795588
99	0x3ce9dcb0	0.028547615
100	0x3e4e90c3	0.2017241
101	0xbd8834c0	-0.06650686
102	0x3e3e7356	0.18598685
103	0x3daa3b62	0.083121076
104	0x3eebc3f7	0.46047947
105	0x3eb092c6	0.3448698
106	0x3d3acfd0	0.04560834
107	0x3e8fa06d	0.28052083
108	0xbd1803da	-0.037113048
109	0x3edabad6	0.4272067
110	0x3eb1b329	0.34707
111	0x3d7624ec	0.060093805
112	0xbd4551f7	-0.04817387
113	0x3d4a638d	0.049411345
114	0x3eedee25	0.46470752
115	0x3e9aeb91	0.30257848
116	0x3d08a1dd	0.03335749
117	0x3dd8dafc	0.10588643
118	0x3f0acb97	0.54216903
119	0x3f246298	0.6421294
120	0x3bbe1067	0.005800295
121	0x3e348257	0.17627846
122	0x3e101e8f	0.14074157
123	0x3d2e5a7c	0.04256676
124	0x3eb1775c	0.34661376
125	0x3f121bb2	0.5707351
126	0x3e88f6b0	0.26750708
127	0x3e356ce8	0.17717326
128	0xbe5e2f54	-0.21697742
129	0xbd934f75	-0.071928896
130	0x3f0b2201	0.5434876
131	0xbf375627	-0.71615833
132	0xbdb3f1ba	-0.0878634
133	0xbdbeae6e	-0.093106136
134	0xbe2bbdc0	-0.16771603
135	0xbe527d30	-0.20555568
136	0xbea75a56	-0.32686108
137	0xbe637d37	-0.22215734
138	0xbe9196ec	-0.28435457
139	0x3eb8fa7a	0.36128598
140	0xbe77bce2	-0.24193147
141	0xbdc0881b	-0.0940096
142	0x3ec92f32	0.3929382
143	0x3dc55efe	0.09637259
144	0x3f16ebac	0.58953357
145	0xbeb1fb8d	-0.3476223
146	0x3e6753b8	0.2259053
147	0xbee7f504	-0.4530412
148	0x3d626733	0.0552742
149	0x3e5cc312	0.21558788
150	0x3cac1719	0.021007108
151	0xbf2741f5	-0.6533502
152	0x3dd74a08	0.10512167
153	0x3e96fd9f	0.29490373
154	0x3e5bb0d0	0.21454167
155	0x3d13d766	0.03609409
156	0xbd4843b4	-0.04889269
157	0x3e5a9ae8	0.21348155
158	0xbca0c763	-0.019626325
159	0xbdd90784	-0.105971366
160	0x3f3a4d82	0.7277452
161	0x3e3a3138	0.18182838
162	0x3de20639	0.11036343
163	0xbe68edd2	-0.22746971
164	0x3ea97b3a	0.33101827
165	0x3aa1d036	0.0012345377
166	0xbe2f15ab	-0.1709811
167	0xbd1a6a6c	-0.037699148
168	0xbea4e830	-0.32208395
169	0xbe24d325	-0.1609617
170	0x3e9885f7	0.29789707
171	0xbeb01f90	-0.3439908
172	0xbe964ba3	-0.2935458
173	0x3e092032	0.13391188
174	0x3e70eb67	0.23527299
175	0xbde6c362	-0.11267735
176	0xbe45c42c	-0.19313115
177	0x3c9f2709	0.019427793
178	0x3dc19319	0.09451885
179	0x3ddac2b6	0.106816694
180	0x3ee63743	0.44964036
181	0xbe765f09	-0.2405969
182	0x3cdfe906	0.027332794
183	0x3d62877a	0.05530498
184	0x3eb9760e	0.3622288
185	0x3e4b25db	0.1983866
186	0xbd1e186f	-0.03859752
187	0xbd31e79f	-0.04343378
188	0xbe579715	-0.21053727
189	0x3e80bdbe	0.25144762
190	0x3f19f425	0.6013816
191	0x3caea049	0.021316664
192	0xbe08667d	-0.13320346
193	0xbead4c9e	-0.33847517
194	0x3f2c53fa	0.6731564
195	0xbdc04ba9	-0.09389431
196	0x3e7b31b6	0.24530682
197	0x3ea6d4a4	0.32584107
198	0xbdf874dc	-0.12131664
199	0x3eab0625	0.33403125
200	0x3f15ba73	0.58487624
201	0x3d330cc9	0.043713365
202	0xbe306096	-0.17224345
203	0xbf0c1797	-0.54723495
204	0x3f1cea63	0.61295146
205	0x3e961e00	0.29319763
206	0x3e2975fe	0.16548917
207	0xbe9eaacd	-0.30989686
208	0x3f22059e	0.6328982
209	0xbd36f955	-0.044671375
210	0xbc602794	-0.013681311
211	0x3f56a4bc	0.83845115
212	0xbd95435b	-0.07288238
213	0xbe53fabd	-0.20701118
214	0x3e670f66	0.22564468
215	0x3ecc26db	0.39873394
216	0x3e29dc73	0.16588001
217	0x3d998ae0	0.074971914
218	0x3e93df90	0.28881502
219	0xbe7e2bfe	-0.24821469
220	0x3efc3cec	0.4926523
221	0x3e9f0f59	0.31066397
222	0x3e059d7c	0.13048357
223	0x3f26a3ff	0.6509399
224	0x3f144cab	0.57929486
225	0x3ccad433	0.024759388
226	0x3d1f8986	0.038949512
227	0xbe2af213	-0.16693906
228	0xbe50718d	-0.20355816
229	0x3ce029bc	0.02736365
230	0x3e371990	0.17880845
231	0xbdf80f1f	-0.12112259
232	0xbdca0e70	-0.09866035
233	0x3d117e54	0.035520867
234	0xbe22c5ea	-0.1589581
235	0x3e8912e8	0.26772237
236	0xbd71d4ca	-0.059040822
237	0x3e1ffdc9	0.15624155
238	0x3ec38401	0.38186648
239	0xbd251000	-0.040298462
240	0x3e20f8bb	0.15719883
241	0xbdb8e3ea	-0.09027846
242	0xbcf83039	-0.030296432
243	0x3e870741	0.26372722
244	0x3d14f73b	0.03636859
245	0x3e886cc1	0.26645473
246	0x3d2643bd	0.040591944
247	0x3c7b3038	0.01533132
248	0xbd46170d	-0.048361827
249	0x3ddb6b4d	0.107138254
250	0x3e0b6fb1	0.13616826
251	0x3e0f80bc	0.14013952
252	0xbd70a75c	-0.058753356
253	0xbcff150c	-0.031137966
254	0x38bf7719	9.1297734e-05
255	0x3e4412c5	0.19147785

conv5.bias f4 [32]
0	0xbf6e80a9	-0.9316507
1	0xbf769f5d	-0.9633692
2	0xbf1b3096	-0.6062101
3	0xbf3fee7b	-0.7497327
4	0xbf67c7ee	-0.90539443
5	0xbf877eb5	-1.0585543
6	0xbf82ceb7	-1.0219334
7	0xbf7e3972	-0.99306405
8	0x3e5370a2	0.20648435
9	0xbf191d06	-0.5980991
10	0xbd9619f5	-0.0732917
11	0xbf6afc52	-0.9179126
12	0xbf979652	-1.1842749
13	0xbf1d4885	-0.6143878
14	0xbf73000f	-0.94921964
15	0xbc4835a8	-0.012219824
16	0xbf301c37	-0.6879305
17	0xbf306c69	-0.6891542
18	0xbf6aa45a	-0.9165703
19	0xbe955971	-0.291698
20	0xbf64cc90	-0.8937464
21	0xbf061e14	-0.52389646
22	0xbf8cc069	-1.0996219
23	0xbd231617	-0.03981599
24	0xbf1d3788	-0.6141286
25	0xbf91b1c0	-1.138237
26	0xbf4a3c31	-0.78998095
27	0xbf74abd4	-0.9557469
28	0xbf6806bc	-0.90635276
29	0xbf801d3a	-1.0008919
30	0xbf5e44ad	-0.8682354
31	0xbfb89ad5	-1.4422251

conv6.weight f4 [32, 32, 5, 5]
0	0x3e41e158	0.18933618
1	0x3e1790af	0.14801286
2	0x3acc947d	0.0015608218
3	0xbe7581e3	-0.23975329
4	0x3d0d016e	0.03442519
5	0x3f30c717	0.69053787
6	0xbe8a2069	-0.26977852
7	0x3e8fdd6d	0.28098622
8	0xbf0f4584	-0.5596545
9	0x3e486834	0.19571
10	0xbdde918e	-0.10867606
11	0xbe80feda	-0.25194436
12	0xbf053779	-0.5203777
13	0xbecde886	-0.40216464
14	0x3e904b86	0.2818262
15	0x3deafa64	0.114735395
16	0x3ec79e22	0.38987833
17	0xbee2f559	-0.4432781
18	0x3e02069b	0.12697832
19	0x3f1d852f	0.6153135
20	0xbe6731ec	-0.22577637
21	0x3dccf564	0.10007742
22	0xbe8b85d9	-0.27250555
23	0xbebe606e	-0.37182945
24	0xbe6f4951	-0.23367812
25	0xbdb1051d	-0.086435534
26	0x3d56976d	0.052390505
27	0xbd4cd1b5	-0.05000468
28	0x3d0fcbb9	0.035106394
29	0xbc48962e	-0.012242837
30	0x3df3c7fb	0.119033776
31	0x3eea9721	0.45818427
32	0x3e1cdc37	0.1531838
33	0x3e22b120	0.1588788
34	0xbc80cbe1	-0.015722217
35	0x3e4b713b	0.19867413
36	0x3ecbbd71	0.3979297
37	0x3d2dfe15	0.04247864
38	0x3d9b5e07	0.07586294
39	0x3df30930	0.11866987
40	0xbdc6985d	-0.0969703
41	0x3e921892	0.2853437
42	0xbe073a72	-0.13205889
43	0x3e47b90a	0.1950418
44	0x3e17eebb	0.14837162
45	0xbcf19d91	-0.029494079
46	0x3d8a0c35	0.067406096
47	0x3d98c816	0.07460038
48	0x3d143174	0.036179975
49	0xbdf92140	-0.12164545
50	0x3de051c7	0.10953098
51	0x3d15b37b	0.03654812
52	0xbebae59a	-0.36503297
53	0xbe98bbf1	-0.29830888
54	0x3e84bbaa	0.25924426
55	0x3efdb412	0.49551445
56	0x3c92021b	0.01782327
57	0xbee334ed	-0.44376317
58	0x3dcf6375	0.10126392
59	0x3e6c941f	0.23103379
60	0x3e0b5b87	0.13609134
61	0x3e7a19c4	0.24423891
62	0xbd9a7f54	-0.07543817
63	0x3e646de9	0.22307552
64	0xbeb51c44	-0.35373127
65	0x3cf5baa2	0.02999622
66	0x3edbcb50	0.42928553
67	0xbd0ee497	-0.03488597
68	0xbd75213e	-0.059846155
69	0xbeb47253	-0.35243472
70	0x3eb682ff	0.35646817
71	0xbc308a97	-0.01077523
72	0x3edf6088	0.43628335
73	0xbeafde7a	-0.34349424
74	0xbdfa6f11	-0.122282155
75	0x3e03251e	0.12807128
76	0xbd5bdd18	-0.05367765
77	0x3ebe1419	0.37124708
78	0x3e188de5	0.14897878
79	0x3d87f52b	0.06638559
80	0x3c825ba2	0.015912835
81	0x3d975278	0.073887765
82	0x3e5bed36	0.21477208
83	0x3d895946	0.06706481
84	0x3ddd3ba2	0.1080239
85	0x3eceda10	0.40400743
86	0x3e9dc262	0.30812365
87	0xbd99fdc2	-0.075191036
88	0xbe0a4695	-0.13503487
89	0x3e91ab46	0.28450984
90	0x3e44eec7	0.19231711
91	0x3eafc534	0.34330142
92	0x3e2fe9ec	0.17179078
93	0xbde8a886	-0.11360268
94	0x3db6f2f9	0.08933062
95	0x3e571ba4	0.21006638
96	0xbcdac4ad	-0.02670511
97	0x3e68b117	0.22723804
98	0x3cd5300d	0.026023889
99	0x3ca85c61	0.020551862
100	0xbe1b1caa	-0.15147653
101	0xbef756be	-0.48308367
102	0x3be3bc8b	0.0069499663
103	0xbeff52ad	-0.49867764
104	0x3d3480e3	0.04406823
105	0x3e7c6193	0.24646597
106	0xbf1161b0	-0.56789684
107	0x3e1ece0f	0.15508293
108	0xbe867238	-0.26259017
109	0xbe68e4d7	-0.22743545
110	0xbde8fc9a	-0.11376305
111	0xbe9042d5	-0.2817599
112	0xbe5acdd6	-0.21367583
113	0xbe59d209	-0.21271528
114	0x3db3cb83	0.08779051
115	0xbe189967	-0.14902268
116	0x3d49d84b	0.04927854
117	0xbb56afc1	-0.0032758566
118	0xbe02c665	-0.12770994
119	0x3df0337f	0.11728572
120	0x3f615b4c	0.8802993
121	0xbf30a61e	-0.69003475
122	0x3e812d1e	0.25229734
123	0xbec26d4b	-0.3797401
124	0xbea8d39f	-0.32973954
125	0xbeb7bd15	-0.35886446
126	0xbd9b8ad5	-0.075948395
127	0xbddbec1b	-0.10738393
128	0x3e8cda2b	0.275102
129	0x3d84f7ee	0.06492601
130	0xbf08c7e3	-0.5343
131	0x3ee310c7	0.44348738
132	0xbe52a0ce	-0.20569155
133	0x3e405806	0.18783578
134	0x3d49c10c	0.04925637
135	0x3ec80b12	0.39070946
136	0x3f0c91e5	0.5491012
137	0xbeb83240	-0.35975838
138	0xbd453c56	-0.048153244
139	0x3d51179b	0.051047903
140	0x3da01c50	0.078179
141	0x3e305d95	0.17223199
142	0x3e5c9621	0.21541645
143	0xbe8affd8	-0.27148318
144	0xbce86bf8	-0.028371796
145	0xbe51b344	-0.2047854
146	0xbe859810	-0.26092577
147	0x3eecd261	0.46254256
148	0x3eb2c173	0.34913215
149	0x3ed10ae9	0.40828636
150	0xbebe531d	-0.37172785
151	0xbca92238	-0.0206462
152	0xbdcd6cb6	-0.100305006
153	0xbed712eb	-0.4200662
154	0xbdc99d3d	-0.09844444
155	0xbe4bcfae	-0.19903442
156	0x3c993537	0.018702133
157	0xbdfb5421	-0.12271906
158	0xbe1e10cf	-0.154361
159	0x3d73866c	0.059454367
160	0xbdd52221	-0.104069
161	0xbc8279fe	-0.015927311
162	0xbdceeb1b	-0.101034366
163	0xbd42bb2b	-0.04754178
164	0x3d2a22eb	0.041537207
165	0xbf0c090b	-0.547013
166	0xbecdf83b	-0.40228447
167	0x3eb673ad	0.3563513
168	0xbead3b36	-0.33834237
169	0xbd8faa7f	-0.070149414
170	0xbe7baa39	-0.24576654
171	0x3e892037	0.2678239
172	0x3e4280f6	0.18994507
173	0x3e16c940	0.14725208
174	0x3e2353d7	0.15949951
175	0xbed491dd	-0.41517535
176	0x3ec0e033	0.3767105
177	0x3d6fc819	0.058540437
178	0x3d8bb5ff	0.068218224
179	0xbd1cc2e1	-0.03827179
180	0x3e810393	0.2519804
181	0xbde3b4dc	-0.111184806
182	0xbe203242	-0.15644172
183	0x3dca9cca	0.098931864
184	0xbdae136d	-0.08499799
185	0xbe3c8161	-0.18408729
186	0xbeeb1988	-0.45917916
187	0x3ddfa3ad	0.109198906
188	0x3dc7aa8c	0.09749326
189	0xbd14a23d	-0.036287535
190	0xbebdad64	-0.3704635
191	0xbeb222be	-0.3479213
192	0xbdb32e54	-0.08749071
193	0xbaefefa2	-0.0018305669
194	0xbefab83e	-0.4896869
195	0xbebd8709	-0.37017086
196	0x3e7a1fa6	0.24426135
197	0xbca6c7b3	-0.020358896
198	0x3e6fde3c	0.2342462
199	0x3e4ec966	0.20194015
200	0xbc5d9b82	-0.0135258455
201	0x3e9ec146	0.3100683
202	0xbc79c40f	-0.015244498
203	0x3eb2bf24	0.34911454
204	0x3a38ffcb	0.0007057159
205	0x3d874ec8	0.06606823
206	0x3dcbd48f	0.09952652
207	0x3ef4a971	0.47785524
208	0xbd34ee03	-0.0441723
209	0x3d96e3e8	0.073676884
210	0xbedf7288	-0.43642068
211	0xbc934bc8	-0.017980471
212	0xbda49d9c	-0.08037874
213	0x3dbb585a	0.09147711
214	0x3e864bd3	0.26229724
215	0x3ea3ac11	0.31967214
216	0xbe152bb6	-0.14567456
217	0xb92728c2	-0.00015941545
218	0xbbef7a9d	-0.007308318
219	0x3ea86191	0.32886937
220	0xbe228c1b	-0.15873758
221	0xbe02e1b1	-0.12781407
222	0xbc893af0	-0.016751736
223	0x3ad465eb	0.001620469
224	0xbf00d273	-0.5032112
225	0x3f003391	0.50078684
226	0x3cdfcdb2	0.027319763
227	0xbd49742f	-0.049183067
228	0x3db052b3	0.086095236
229	0xbdbb5e34	-0.09148827
230	0x3d418bf0	0.047252595
231	0xbd78fc69	-0.060787592
232	0x3eae18e5	0.34003368
233	0xbd07cb4c	-0.033152863
234	0xbdacad94	-0.08431545
235	0x3dab391a	0.08360501
236	0x3d3bb9b0	0.045831382
237	0x3e3b6982	0.18301967
238	0xbd08b91a	-0.03337965
239	0x3dd95b3f	0.10613107
240	0x3e7b849d	0.24562307
241	0x3e394999	0.18094482
242	0xbd436db0	-0.047712028
243	0xbe6a5d48	-0.22887146
244	0xbdd0f43c	-0.10202834
245	0x3e962dd3	0.29331836
246	0x3e5454b7	0.20735441
247	0x3e419b72	0.18906954
248	0x3e3c882a	0.18411317
249	0x3e0542f7	0.13013826
250	0x3e3381d9	0.17530002
251	0xbf553d80	-0.83296967
252	0x3e74758a	0.23872963
253	0x3f03513a	0.51295817
254	0xbd1f43ad	-0.0388829
255	0x3e7ddb5d	0.24790712

conv6.bias f4 [32]
0	0xbf4186d4	-0.75596356
1	0xbf28e5b5	-0.65975505
2	0xbf7b4d00	-0.9816437
3	0xbfa21e52	-1.2665503
4	0xbf9add70	-1.2098827
5	0x3e8bd2c1	0.2730923
6	0xbfad4e64	-1.3539548
7	0xbf9946e8	-1.1974764
8	0x3da6ed47	0.08150726
9	0xbf8d3358	-1.1031294
10	0xbe94f2ec	-0.29091585
11	0x3f724982	0.94643414
12	0xbfa32f30	-1.2748775
13	0xbf48c4cd	-0.78425294
14	0xbf57a977	-0.8424296
15	0xbf6d7453	-0.9275562
16	0xbf3634f6	-0.7117456
17	0xbf0b5087	-0.5441975
18	0xbf1e1647	-0.6175274
19	0xbf473cc4	-0.77827096
20	0xbfbba7d1	-1.4660589
21	0xbf532dc9	-0.8249174
22	0xbeeae09e	-0.45874494
23	0xbf220784	-0.6329272
24	0xbfab843e	-1.3399732
25	0xbf7073da	-0.93926775
26	0xbf65970e	-0.89683616
27	0xbf4091c7	-0.7522244
28	0xbf7171c5	-0.94314224
29	0xbf940d02	-1.156647
30	0xbf5e2835	-0.867801
31	0xbf5a5173	-0.8528053
