models/DQN_wb_kaggle1.pth (torch, 916528 bytes, 22 tensors)

conv1.weight f4 [32, 1, 5, 5]
00000000: cd10 16bd 3c32 1e3e 89d0 403d e72f c73c
00000010: de82 8d3e 02c0 08bc da64 a5be 5a31 dbbd
00000020: b252 243d c334 4abe 4261 b63e fe8e 993e
00000030: a6d5 e8bd c534 fabd a333 d6bc 1833 b0bd
00000040: 2ffc 02be 9fb4 41be 359e 16bd a544 02be
00000050: 1c47 6bbe c7c6 c23d 362b ef3d 90dd fabd
00000060: 6df2 e2bc 3a05 ea3d b936 6f3e 0fcd 8bbd
00000070: c4a0 823e 62fa cfbd 1c61 973d 8dff 8f3e
00000080: 7c93 e13c 8704 db3b d980 253d 1650 bd3e
00000090: 2ce7 29be 24e9 b7bb 7f75 bbbd 1807 62be
000000a0: 546d 57be 9260 43be 5faf 263e 64d1 67be
000000b0: 3197 36be 5a04 ab3c 9393 603d fc45 273e
000000c0: 89b2 1bbe 4b90 99bc 23db 9c3c 3a00 71be
000000d0: 8521 bfbd 7604 4c3e 01ab 71bc 4fd1 b9bd
000000e0: 3e60 85be 0830 863d 4482 3cbe d0dd 5a3e
000000f0: 3d76 c8bd 29cd 54be 7c74 823e 4e5c 423e
00000100: 070b eebd fd69 e93d c07b 973d 9e5d 3dbc
00000110: 8472 72be 9f7b df3d afc2 95bd 7725 b63b
00000120: 2cc6 0a3e 6bf4 30be 7c71 c3be 65e4 193e
00000130: 3b6d aa3d 449e e63e b3be 07be 2288 563e
00000140: 9dde 9b3e a0a5 5fbe 15c9 b0bd 42b2 c43d
00000150: 0484 80be 644e edbd 387c 943d f167 89be
00000160: a3b4 633c 5ec8 06be a2ad 2cbd e97c 84be
00000170: b9f6 353e 2249 54be 998c f6be 760f 09bd
00000180: 6637 b1be 7fe2 4dbe b774 703e 35cb cb3b
00000190: 3ac3 ddbd 7e69 f3bd 088b 8a3e 2fa0 febd
000001a0: ade2 aabe 47c0 b83d 9a10 5a3d 9bc2 543e
000001b0: e2b0 23be 3c7f 273e 5990 293e c245 93be
000001c0: 0643 f5bc abd5 ffbd 3259 07be 14bc aabe
000001d0: 1954 c33d d241 3dbe 8311 79bd 5f5b 103d
000001e0: fb89 2a3e 2728 04be fa28 e3bd a25c a8be
000001f0: 5f50 6abe a22e 47be bbc2 d5bd 24f2 a4bc
00000200: 2322 f0bd 7791 863d 175a a7be e63c 9a3c
00000210: 7376 c9bb e654 99bd 534f 513d 2e63 863d
00000220: 7c2e 983e 3c11 44be 53c2 883d 9fac 87bd
00000230: 0c74 eabd 50b3 81be c855 e43c 7a4d d0be
00000240: b6d8 a0bd 149f efbc 2782 28be 01ed fa3d
00000250: 4d56 253e b314 99be 1d6b de3d 3f6f 4ebe
00000260: 375e 643e 16fb af3d a071 b6bd c8bd a73d
00000270: 250e 92bc e275 073e 962b 393e 85d1 a3bd
00000280: 6a2c 67be 7ec3 d53e 3ae7 85be 73b7 32be
00000290: e4ae b03a 9e25 003d 179a efbc 1d5d 4d3e
000002a0: b9b4 3abe 630b 20bd 71d5 af3e 1e38 24be
000002b0: 4820 75be cea9 6ebe e8ae d0bd e481 14bd
000002c0: dd20 bebd 1b99 65bb d475 863d 6381 6e3d
000002d0: 3fc6 193e 438e 5d3e 1dc5 213e 8e16 cbbd
000002e0: dc9a 41be 12c1 4abe c998 50be 7913 c93c
000002f0: 1c95 1cbe 761b 0e3e 224a fa3d de5d 74bd
00000300: c178 243e 24c7 46be 3759 6a3e f6d8 ae3e
00000310: 7227 21be 5c7f 3fbe b06a b6bd 7fb4 4abe
00000320: 020e 0bbe c244 2f3e 6a6f a3bd a2b8 cd3c
00000330: 1184 823d 37f4 15be 040e 4abe 6399 153e
00000340: d476 b7be 09d5 8cba ee88 99be f4e9 9a3e
00000350: c56e d8bc 0965 0e3e 60cf c23d 4e19 573e
00000360: 91d2 48be c357 b93d 7219 653d 3125 31be
00000370: d267 36bd d539 92be 4f22 953c fed6 ccbd
00000380: 7148 963e 52b7 bb3e c63c 76bb 8a65 94bd
00000390: 79a1 a43d 6705 4b3e 511a 88be a0d6 c2bd
000003a0: 369e 2cbe 9e37 0a3e 3f21 5b3d a72e 11bd
000003b0: 7cc0 853d 6e75 5d3e 1c3b 18be e3db 12ba
000003c0: cea9 873e 9980 6bbe a911 56be b96d aebc
000003d0: 16f2 773d fe2a eabe 23eb 373d 0780 1d3e
000003e0: 30c5 143e b7d4 68be e3ac eabd 4e6b e9bd
000003f0: f0b8 11bf 1131 64be a606 873e e074 283e
-0.036637116 0.1544885 0.047073875 0.024314834 0.27638906 -0.0083465595 -0.32303506 -0.107027724
0.040117927 -0.1974669 0.35621077 0.29991907 -0.11368875 -0.12217096 -0.02614767 -0.08603495
-0.12791513 -0.18916558 -0.03677197 -0.12721498 -0.22976345 0.0951057 0.11678164 -0.12249291
-0.027703488 0.11426778 0.23360719 -0.06826221 0.2551328 -0.101551786 0.07391569 0.28124657
0.027536146 0.0066838893 0.04040608 0.36975163 -0.16592091 -0.0056125093 -0.0915327 -0.22073019
-0.21037799 -0.19079807 0.16277836 -0.2263847 -0.17831112 0.020876098 0.054828238 0.1633529
-0.15204825 -0.018745562 0.019147461 -0.23535243 -0.09332565 0.19923577 -0.014750243 -0.090731256
-0.2604999 0.0655213 -0.18409067 0.21373677 -0.09788177 -0.20781387 0.25479496 0.18980524
-0.11623197 0.11397169 0.0739665 -0.011557965 -0.23676497 0.10912251 -0.073125236 0.0055586654
0.13552159 -0.17280738 -0.3817252 0.15028532 0.08321615 0.45042622 -0.1325634 0.20950368
0.30443278 -0.21840525 -0.08632103 0.096043125 -0.2510072 -0.115872175 0.07250255 -0.26837113
0.013898048 -0.13162372 -0.042157777 -0.2587655 0.17769898 -0.20731023 -0.48154142 -0.03346201
-0.34612578 -0.20105933 0.23482023 0.0062192925 -0.10828252 -0.118853554 0.27059197 -0.12432896
-0.33376065 0.09021049 0.05323849 0.20777361 -0.15985444 0.1635713 0.1655897 -0.28764158
-0.029939186 -0.12491926 -0.13217619 -0.33346617 0.09537525 -0.1848214 -0.060807716 0.03524339
0.16654198 -0.12905942 -0.110918 -0.32883173 -0.22882222 -0.19451383 -0.104375325 -0.020134993
-0.11725261 0.06570714 -0.3268592 0.018827867 -0.0061481535 -0.07486896 0.05110104 0.06561886
0.29722965 -0.191472 0.066776894 -0.06624722 -0.114479154 -0.25332117 0.027872935 -0.4068411
-0.07853834 -0.029250659 -0.16455899 0.12252236 0.16146202 -0.29898605 0.10860274 -0.20159625
0.22301565 0.08592813 -0.08908391 0.08190495 -0.01782901 0.13228562 0.18083033 -0.07998947
-0.22575536 0.4175071 -0.26152974 -0.17452793 0.0013479856 0.031285875 -0.02924828 0.20055051
-0.18233003 -0.03907336 0.3434253 -0.16037032 -0.23938096 -0.23306963 -0.10189611 -0.036256686
-0.09283612 -0.0035033885 0.06565443 0.05822886 0.15017031 0.216363 0.15797849 -0.09916411
-0.1890673 -0.19800213 -0.20370783 0.024545418 -0.15291256 0.13877663 0.12221171 -0.05965983
0.16061689 -0.19411904 0.22885595 0.34149903 -0.15737703 -0.18700927 -0.08907068 -0.19795416
-0.13579562 0.17116073 -0.07980235 0.025112454 0.06372846 -0.14643942 -0.19731909 0.14609294
-0.35832846 -0.0010744642 -0.29987282 0.30256617 -0.026420007 0.1390573 0.0951221 0.21005747
-0.19611575 0.09049942 0.05593247 -0.17299344 -0.044532605 -0.28559747 0.018204836 -0.10001944
0.29352143 0.366633 -0.0037572845 -0.072459295 0.08038611 0.1982628 -0.26582578 -0.09513593
-0.16857228 0.13497779 0.053498503 -0.03544488 0.06530854 0.21626827 -0.14866298 -0.00056022237
0.26496738 -0.22998275 -0.20905174 -0.021292554 0.060533606 -0.45735925 0.04490198 0.1538087
0.14528346 -0.22737394 -0.11458757 -0.1139742 -0.5692282 -0.22284342 0.2637226 0.16450834

conv1.bias f4 [32]
00000000: 245c 963c a598 adbe a276 2fbe afed bbbc
00000010: 07a6 ae3d 93bb b7bd b44b 59be 66f5 69bd
00000020: 4502 05be 7b44 95bc 99de 0dbd e99b e93d
00000030: 4b85 263e 0cde dabb d879 70bb 6761 09be
00000040: 76ee 863d 6e77 56be 0cec 70be e361 a1be
00000050: 7a99 473e 814d abbd ef04 99bd 429a 6e3d
00000060: 1228 83be 99a0 e9bb 79d0 9bbe fb97 b3be
00000070: 1b1f 83be 374f 89be fbca 7abe 5651 e83c
0.018354483 -0.3390552 -0.17135099 -0.022940485 0.08527761 -0.08971324 -0.21220285 -0.057118796
-0.12989147 -0.01822113 -0.034636114 0.114066906 0.16261785 -0.006679302 -0.0036693718 -0.13416062
0.065884516 -0.20943996 -0.23527545 -0.31519994 0.1949214 -0.08364392 -0.07471644 0.05825258
-0.2561651 -0.0071297404 -0.3043249 -0.3507689 -0.2560967 -0.2681825 -0.24491493 0.028359096

conv2.weight f4 [32, 32, 5, 5]
00000000: 50d3 05be eb69 26bd ed92 0e3d 52b0 5ebc
00000010: 800a 633e 871b d8bd 8f1b b43d 7603 40be
00000020: f7c1 31be edca fdbd bcd4 75be 4a7e f5be
00000030: 30f8 efbc eb02 b23d 250f e7bb df35 00bd
00000040: d283 0fbe 833e 5f3e d562 d9bd 3bac 13be
00000050: aea9 7f3c bf45 d1bd f3d8 2fbe 8595 6e3d
00000060: 08ca 403e e39b 6cbe 9ee8 cd3d 3a86 be3d
00000070: a207 623e e3fb e1bc 07a9 c0bd 4615 3d3d
00000080: f758 14be 765c 793c 4e9f 98bd b22a febd
00000090: a67c 75bd 9f54 0c3e b514 2b3d 52b6 80bc
000000a0: 8c90 18be 73f3 fdbd 8815 3a3e 45b7 b03d
000000b0: b7b7 c1bb 0ebb 9cbe 47fc 89be 206d cdbc
000000c0: ea89 91be 2d13 0f3e 9dd2 4b3c 26bc 98bc
000000d0: 1af5 2ebe e101 dd3b a971 75be 9682 c5bd
000000e0: b597 e939 3dcc edbc 4dd5 3f3e a8e2 fa3d
000000f0: 8364 95bc c9f4 a43d 8918 fcbd 063b 5c3e
00000100: 15df 69be d452 b4be 34b3 e1bc 5c19 523d
00000110: 9ac6 753e 69eb 893d 7cfd b63d b885 3b3e
00000120: 703c 8bbc b882 83bd a4d1 f83b 0e98 393d
00000130: 5d5c a3be 5225 89be 298a debd da7f a4bd
00000140: 9e55 2abc 8e80 9cbe 1447 20be 70a1 df3e
00000150: d436 6dbe 27a6 4dbe fe3a a23d 0fba 08bd
00000160: 5f16 de3d 35e5 1dbb afd4 07be 8ac4 39be
00000170: 20a2 4cbd de6d 98bd 1030 b2be ba1f fa3d
00000180: d68c cabe ec51 7fbc e15d 833e 875e 1fbe
00000190: 24c9 b53d c667 bcbe a060 75bd 7612 113e
000001a0: cb5d 12be 6abb 813d 70fc 8e3d cf3c b3bd
000001b0: dd85 e83c d37a 303e 2db0 adbd 1f77 65be
000001c0: ecac 7cbe 158e c5bc 3c9b cdbd 39d3 fe3d
000001d0: 9521 c1bc b812 0bbe 4560 bf3d 7150 033d
000001e0: d4e1 833d c802 85bc 49fc cabd 9d47 883e
000001f0: 5802 2cbe fb0e d93d 1e71 bdbd a97f 18be
00000200: e39b 153c 6221 81bd 8331 af3e 4a45 aabd
00000210: d4fe 87be 7817 f43c 3439 59bd dbb6 f6bd
00000220: e1ca 8fbe e88e 243d 6909 42be af06 6c3d
00000230: 674b a8bd fa92 2b3e dea6 0cbd be7d 84bd
00000240: c761 1b3d 2f0f 4b3e 2018 31be c0c8 813d
00000250: 3fcd dcbd 56d4 433e 4922 68be 7c72 ee3c
00000260: 9100 cf3c 90f1 853c aea8 db3d ab0f b7be
00000270: 2e3b 9abe c2e9 2b3e 7cab a43d 5982 fdbd
00000280: f2c4 e2be 494d 163e 39e2 54bd b42e f33d
00000290: c2e5 6f3d b215 03be cff5 e4bd 1711 c1bd
000002a0: 7e96 89be 07d3 0c3b 4d1d 85bd 4bac 77be
000002b0: e5f5 d03c 6687 2a3e 7aa9 f1bd af4b dabc
000002c0: 0650 b4bd 8048 ed3b 7a3c 6b3d e44e ec3d
000002d0: e96c b9be d404 edbd 5022 ba3c 05fd 823e
000002e0: 88fb c9bc 3a6c 8abe b3c5 c1bd 4bbc 76be
000002f0: 8eaf e83d 9199 8dbe 916c d3be 27b9 c1bc
00000300: 97b3 95be c127 fabd 0829 c23d 3f15 c53d
00000310: 222a 3dbe b195 c0bd 3a33 a1bd cf19 45bc
00000320: 2cc4 31be fd13 2c3d 51f4 e2bc fbd9 bc3d
00000330: 2daa 33be 486e 7fbd 514d 9e3d 8f72 b1bd
00000340: 3b46 1f3d b5cb e33c a8a4 2b3e c912 4d3c
00000350: 3f10 2ebc bcfe 5fbe 3ae8 40bd dad9 3c3e
00000360: 96a8 59bd 14d7 2dbe d31e 84be f03c 93bd
00000370: 7f9b e3bd 2582 993c e931 803b 2179 aebd
00000380: c5af 143e ab8f aabd 80f1 2b3e 2de6 d1bd
00000390: f3fc 00bd 3e88 bf3c 268d c63d cf17 79be
000003a0: d6b2 37be ef87 f5bd 8023 c8bd e2f2 23be
000003b0: 6e31 293d 35e8 363d eef2 5b3e 2667 35be
000003c0: cd9c 79be 2a16 9cbc ef68 a0bd 391a 8abe
000003d0: f7e7 b93d 2f0f 093e b233 173d 0fca f0bb
000003e0: c9e8 2fbe 0e28 f13c e3a9 bbbd 6d7a 7e3d
000003f0: 232f b73a 9e14 c0bd 8333 8f3e 411d a5bd
-0.1306889 -0.040628355 0.034808088 -0.013591843 0.22171974 -0.105521254 0.08794319 -0.1875132
-0.17359148 -0.12392221 -0.24006933 -0.47947913 -0.02929315 0.08691963 -0.007051366 -0.031301375
-0.14015129 0.2180119 -0.10614554 -0.1442117 0.01560442 -0.10218381 -0.17172603 0.05824806
0.18827069 -0.23106341 0.10054134 0.093029454 0.22073224 -0.02758593 -0.094072394 0.046162866
-0.14487062 0.015219798 -0.0745226 -0.12410487 -0.059933327 0.13704155 0.041767795 -0.015711937
-0.1489889 -0.1239995 0.18172276 0.08628706 -0.005911793 -0.3061146 -0.26950285 -0.025076449
-0.28425533 0.13972159 0.012440351 -0.018644404 -0.17085686 0.0067446087 -0.23969139 -0.09644048
0.00044554254 -0.029028052 0.18733712 0.122502625 -0.018236404 0.080545016 -0.12309367 0.2150689
-0.22839005 -0.35219443 -0.027551271 0.051293716 0.24001542 0.06734354 0.08935067 0.18312728
-0.016996592 -0.06421417 0.0075933505 0.045311026 -0.31906405 -0.26786286 -0.10866196 -0.08032198
-0.010396389 -0.3056683 -0.15652114 0.43677855 -0.23165447 -0.20082913 0.07921408 -0.033380564
0.10844111 -0.0024092917 -0.13264726 -0.1814138 -0.049959302 -0.074428305 -0.34802294 0.122130826
-0.39560574 -0.015583497 0.2565756 -0.15563403 0.08876255 -0.36797923 -0.059906602 0.14167199
-0.14293592 0.063345745 0.069817424 -0.08751833 0.028384143 0.17234354 -0.084808685 -0.22408722
-0.2467534 -0.024115602 -0.10039374 0.12442631 -0.023575583 -0.1358136 0.09344534 0.032059137
0.06439558 -0.016236678 -0.09911401 0.26617137 -0.16797769 0.105985604 -0.09250091 -0.14892448
0.009131405 -0.063051954 0.34217462 -0.08313997 -0.26561606 0.029796347 -0.05303307 -0.12046596
-0.28084472 0.04017535 -0.18948902 0.05762356 -0.08217507 0.16755286 -0.034338824 -0.06469296
0.037935045 0.19830011 -0.17294359 0.06337118 -0.10781335 0.19123968 -0.22669329 0.029107325
0.025268825 0.016350538 0.107255325 -0.3575414 -0.30123276 0.1678839 0.080405205 -0.123783775
-0.44290882 0.1467792 -0.051973555 0.11874142 0.058568723 -0.12801245 -0.11179697 -0.09427088
-0.2687263 0.0021488087 -0.06499729 -0.24186818 0.025507877 0.16653213 -0.11799903 -0.026647417
-0.08804326 0.0072413087 0.05743072 0.11538485 -0.36215904 -0.115731865 0.02272144 0.25583664
-0.024656072 -0.27035695 -0.09461536 -0.24095266 0.113616094 -0.27656224 -0.41293767 -0.023647858
-0.2923858 -0.12214614 0.09480482 0.09623193 -0.18473104 -0.09403551 -0.07871099 -0.012030079
-0.1735999 0.04201125 -0.02770439 0.09221264 -0.17545386 -0.06236103 0.07729591 -0.086644284
0.038885336 0.027807096 0.1676203 0.012516686 -0.010623991 -0.21874517 -0.04709647 0.18442479
-0.05313929 -0.16976577 -0.25804767 -0.07189357 -0.11113643 0.018738816 0.0039121998 -0.08519197
0.14520176 -0.08328184 0.16791344 -0.10248981 -0.03149123 0.023380395 0.09694891 -0.24325489
-0.17939314 -0.11988818 -0.09772396 -0.16010621 0.041306905 0.044655044 0.21479389 -0.1771513
-0.24376221 -0.019053537 -0.078325145 -0.2697313 0.09077447 0.13384698 0.036914535 -0.007348306
-0.17178644 0.029438045 -0.09163263 0.062128473 0.001397584 -0.093789324 0.27968988 -0.0806222

conv2.bias f4 [32]
00000000: 2529 1fbe 8b71 89bd c019 8ebd c77b 92bc
00000010: cefd 9bbd 9423 02be f326 0ebe 2d87 fbbd
00000020: 17ae 94bd e328 aebd 3d48 37bd b0ca b0bd
00000030: 0471 23bd ae23 07bd b050 0d3d 2259 c8bd
00000040: ac05 8abd 308c 3fbd 9a42 6abd 656c a7bc
00000050: 79b8 b5bd a749 86bd fc23 01be 1650 1cbe
00000060: f6a1 2ebd f4a1 d5bd ce89 00be 2a46 d0bd
00000070: d9b1 5dbc 4fae 7ebd 117e ebbd 71dd a2bd
-0.15543039 -0.0671111 -0.06938505 -0.017881287 -0.07616769 -0.12708884 -0.13882045 -0.12281642
-0.072597675 -0.08503892 -0.044746626 -0.086324096 -0.039902702 -0.03299301 0.034500778 -0.09782626
-0.06739363 -0.046764553 -0.057192422 -0.020437429 -0.08873076 -0.06557017 -0.12611383 -0.15264925
-0.042634927 -0.10431281 -0.12552568 -0.10169633 -0.013531172 -0.062177952 -0.11498655 -0.07952393

conv3.weight f4 [32, 32, 5, 5]
00000000: 6379 62bb e75b 9cbc d333 8f3e 4e87 6a3d
00000010: a220 3b3e cf90 c73d fc6c 4b3d 8fd4 cfbd
00000020: de1a b1bc 5fba ebbd c9d1 4cba 273a 9e3d
00000030: c5b4 a9bd 45a5 0b3e 9145 1b3e 57fd d43d
00000040: d33c 903d 965e b03d 8e70 913d e042 c3bd
00000050: 8868 4bbe 978a 7e3e df6b 033e a978 733e
00000060: 1288 bbbd 87ad a23d c8de a53d 7a65 843e
00000070: 7858 41be 92b4 783e fe5a 5fbe 5b86 67be
00000080: 5088 a9bd 3860 2f3d bfea 9dbd faed 263d
00000090: 62a8 92bd 07c6 6abd 46c3 083e 799e b5bd
000000a0: b456 633e 1704 fc3d 4abd debc 8961 cdbd
000000b0: a86b 2dbe 132a 43be 9911 dbbd 6a07 833d
000000c0: 6088 0bbe 4f8e 8e3c 6c73 4bbd 5f77 5bbb
000000d0: 1960 80bb 3670 a03d 88a2 3d3e 8abc eb3d
000000e0: fdd4 f33d e734 19bd e184 59bd 962b 6f3e
000000f0: 9e26 87be 62cc 17bd c7d1 95bd 3be5 adbd
00000100: 419b b4be 5b60 9f3d 88ed 3f3e ba40 d9bd
00000110: c434 3e3b 2d55 573d 41f0 c73d 51da 4fbc
00000120: 828f 85be f598 bbbd 05a0 74bd d10c babd
00000130: 156e 1a3d 6bfc 8abe 4b89 dfbc 56ac e0bd
00000140: 3674 17be 5b9c e7bd 6ecf 86be 4536 903d
00000150: 20ca 88bc bd53 9f3d 8e1a 6ebe 70e5 53be
00000160: 491a b43c 4342 e5bd 1b9c 2d3e 9b8a 223e
00000170: 049f 42bd 6e9b b7be 8db4 52be a632 253e
00000180: 79d9 26be ea1b cfbd c00b e13d 3214 36be
00000190: 1f03 0d3e 1770 7ebd 5e59 553b 4272 edbd
000001a0: f973 abbe 5939 053e 044b 703d c253 65be
000001b0: fa12 69bc df24 02be ad5a 2abe 4b86 423d
000001c0: de48 66bd 19dc debd 7e3a 86be ca9d 1ebd
000001d0: a1a4 013e b53c 83bd e65e 85bd a36c e7bd
000001e0: 7d31 6cbe 4081 c8bd 98ec b83d 3549 143b
000001f0: 7286 d43d e0af afbd c1ae ae3d 9e38 3c3e
00000200: 2680 e43c 830a 503e 81dc 043d 1a2d d5bd
00000210: 55c8 06be 1a88 a23d ce89 033d 7e43 863d
00000220: 9925 c5bc 8110 1f3e bf2e ccbd 445e 9a3d
00000230: c5b0 19be 9d95 183d 6899 b43d dc23 32bc
00000240: 4f2a 00be 591f 913e 8e11 623e 5589 07be
00000250: 99a9 b33d c120 69be 65b9 44bc 2452 3dbe
00000260: 674a d9bd 9d62 d73d 7aaf 343d 9878 623e
00000270: 8cd4 45bd 7752 bcba bb49 243e 8dd9 6a3e
00000280: d6a1 cfbd 464c 25bc c4a1 82bc 1567 933d
00000290: b00d 55bd 8bda 75bd e801 223d 65b2 ebbd
000002a0: 1bcb a63d 1ac5 58bd a4aa 58be 2c73 c9bd
000002b0: 9afe cd3d 6da5 10be 2e50 a93d 57de 9b3d
000002c0: 8f22 4b3e 83cb f73c aa74 7c3d e6d4 d03d
000002d0: 883b 2fbd 6ea2 a1be cd81 203b 7c47 02be
000002e0: a4a6 d83d 0569 23be 81b5 28be 711c 633e
000002f0: f546 d83d aa34 063d 36a8 f23d b233 67bd
00000300: 4464 d2bd 7b19 abbc af80 16bc 7894 d83d
00000310: e718 933e 0442 84bd 3bfd e0bd c80d 48be
00000320: 52f8 953c 7a1a eebb 6002 a93d 3af6 e03d
00000330: 232a 0dbe 8930 c2bd 3fa6 063e 4682 a33d
00000340: 8011 3d3d 7b6b cfbd 2586 023e f3bf 82bd
00000350: 2f1a 6a3b cad7 98bc 8608 9cbe 999b 4a3d
00000360: 1eea 70be 7fea 5bbe 8e17 20bd 474a 063d
00000370: 8e60 a8be 7b8d 19bd 029e b9bd cfb3 f83d
00000380: c560 ab3b 1c88 f03c 9486 cbbd c6ae 433d
00000390: e890 4c3e 3d69 d1bc e42e 133e 46bc f6bd
000003a0: 413d b3bb 489f 913d 717a 073e 49a7 0cbe
000003b0: 326b a43d 749a 49bd 38f6 2e3c 1af0 12bd
000003c0: 4a0d c53c 1b22 8bbe bb69 b8be e976 5bbe
000003d0: 696a 0b3c 8ac3 673e 21dc a53d 6c33 9dbc
000003e0: 0c4c ae3d 4922 0c3e 3e44 773d eb9b 213e
000003f0: 9bc6 393d 079c 8cbd f0dd 1b3e 40e5 4dbd
-0.0034557215 -0.019086791 0.27969226 0.057257943 0.18274167 0.09744417 0.049664482 -0.10147964
-0.021619257 -0.11510157 -0.0007813243 0.077259354 -0.08286432 0.13637264 0.15163256 0.10399883
0.07042851 0.08611791 0.07101546 -0.0953424 -0.19864094 0.24857555 0.12834118 0.23776497
-0.09156813 0.07943254 0.08099133 0.2585867 -0.18881404 0.24287632 -0.21812055 -0.22609846
-0.08277953 0.04281637 -0.0771079 0.040754296 -0.07161023 -0.05731776 0.13355741 -0.08868117
0.22201043 0.123054676 -0.02718987 -0.10028369 -0.16935599 -0.19059019 -0.10696716 0.063978985
-0.13626242 0.017401842 -0.04967062 -0.0033487899 -0.0039177057 0.078339025 0.18519032 0.1151057
0.11905859 -0.037403967 -0.05310524 0.2335647 -0.2639665 -0.03706015 -0.073154025 -0.08490988
-0.352747 0.0778205 0.18742955 -0.10608049 0.002902315 0.052571464 0.09762622 -0.012686328
-0.2608605 -0.091600336 -0.05972292 -0.09084476 0.03770264 -0.27145705 -0.027287146 -0.109703705
-0.14790425 -0.11309119 -0.2633013 0.07041601 -0.016697943 0.07779644 -0.23252317 -0.20692992
0.02198519 -0.11194279 0.16954081 0.15873186 -0.04751493 -0.3586077 -0.20576687 0.16132602
-0.16293897 -0.10112746 0.10988569 -0.17781141 0.13770722 -0.062118616 0.0032554488 -0.115940586
-0.33486918 0.13010158 0.05866529 -0.22395232 -0.014225716 -0.12709378 -0.16636153 0.047491353
-0.056221835 -0.10881824 -0.262165 -0.038724698 0.12660457 -0.06408063 -0.06512241 -0.11300018
-0.23065753 -0.097902775 0.09029502 0.0022626643 0.10377206 -0.08578467 0.085294254 0.18380973
0.027893137 0.2031651 0.03243685 -0.10408993 -0.13162358 0.079361156 0.032113843 0.06555842
-0.02406578 0.1553364 -0.099698536 0.07537511 -0.15008838 0.037252057 0.088183224 -0.010872807
-0.1251614 0.2834423 0.22077009 -0.13235982 0.087725826 -0.22766401 -0.012007092 -0.18488365
-0.10609894 0.10516856 0.04411266 0.22116315 -0.048298404 -0.0014367838 0.16043751 0.22934552
-0.1013829 -0.010088986 -0.015946276 0.07197396 -0.052015007 -0.060022872 0.0395526 -0.115086354
0.08144208 -0.052922346 -0.21158844 -0.098364204 0.10058327 -0.14125605 0.08267246 0.07610767
0.19837402 0.03024841 0.061634697 0.10196857 -0.042781383 -0.31569237 0.002449143 -0.12722582
0.10578659 -0.1595803 -0.16475488 0.22178818 0.10560409 0.032765068 0.1184849 -0.056445785
-0.102730304 -0.020886173 -0.009185954 0.10575193 0.28729936 -0.06457904 -0.109858 -0.19536507
0.018306885 -0.00726634 0.08252406 0.10984464 -0.13785605 -0.094819136 0.13149355 0.07983832
0.046159267 -0.10127922 0.12746485 -0.06384268 0.0035721173 -0.018657584 -0.30475253 0.049464796
-0.23526809 -0.21476172 -0.039084964 0.03278568 -0.32886165 -0.037488442 -0.09063341 0.12143671
0.0052300417 0.029361777 -0.09937778 0.0477741 0.19977152 -0.025562877 0.14373356 -0.12047629
-0.0054699485 0.071104586 0.13230301 -0.13735689 0.080282584 -0.049219564 0.01067882 -0.03587351
0.024054188 -0.27174458 -0.36018166 -0.2143208 0.008509257 0.22633186 0.08098627 -0.019189559
0.085105985 0.13684954 0.060367815 0.15782134 0.04535542 -0.06865697 0.15221381 -0.050267458

conv3.bias f4 [32]
00000000: ee66 3cbe 165a 7dbd c7a7 00bc d88d 13be
00000010: 7c71 adbd f7f6 95bd 46c5 3dbe 4206 40be
00000020: e876 24bc e8c1 9ebd 96d7 3cbe 8514 f4bd
00000030: da3b afbd 96f2 02be 16d6 e3bd 8be6 afbd
00000040: 8bb3 adbd 64c6 28bd 4acf dcbd 38a0 cdbd
00000050: e7e5 2dbe 7fd9 d7bd b871 14be aff2 1ebe
00000060: b0be 8ebd a920 173d 5be0 8ebd 7589 53bd
00000070: b789 ddbd ac7d cbbd e3c2 f1bd 68e6 1cbe
-0.1839864 -0.06185349 -0.007852501 -0.14409578 -0.08468911 -0.073224954 -0.18532285 -0.18752387
-0.010038115 -0.077518284 -0.18441615 -0.11917976 -0.08556338 -0.12787852 -0.11124818 -0.085888945
-0.08481511 -0.041204825 -0.10781725 -0.10040325 -0.16982232 -0.10539531 -0.14496505 -0.15522264
-0.069699645 0.03689638 -0.06976386 -0.05164476 -0.10817283 -0.099360794 -0.1180475 -0.15322268

conv4.weight f4 [32, 32, 5, 5]
00000000: 5293 223e 3d2a cc3d 5097 563e a263 bebd
00000010: bc9b d63d 3e01 8a3d 38b5 60bd 1a9f 64be
00000020: 5b4c ea3d c57f 1fbe e28b a4be d27a 28be
00000030: bd5c 31be 1d94 69bc 893f 52be fc66 29be
00000040: ae9d c2bd bfe4 2fbe 7e69 bcbe 6b43 90be
00000050: 0ace 8dbe 1011 eabd 5236 12be 0b60 91bd
00000060: dbcd 17be 3ae0 a53d b678 543c c35b de3a
00000070: dc92 39bd dbd8 cd3c c5b7 223e 6318 923e
00000080: 526d 5c3e dddf cdbd 875e 23bd 832e 23be
00000090: f484 27bd cd80 e7bd 5425 3e3e 69e1 fbbd
000000a0: d68a 1b3d a7f9 883e 4b1c 893d c2bb 3ebe
000000b0: 4ab5 03be c9f9 25be 642d aabc 21fb b43d
000000c0: 7546 50bd 36d4 d9bd e39a 053e 4aa6 923d
000000d0: d163 24bd 1493 d5bd 47ab 093e 5e35 923e
000000e0: 3782 043d 5691 0fbe 3513 1b3d bb1a 2d3e
000000f0: 0acf 8b3e e77b ed3c 6e1c 90bd 6c17 103e
00000100: f32f b23d 88e6 26be ea34 53be 7184 1cbd
00000110: b3ce b53d 4d97 093c 28ec d6bd 5f7e 2dbe
00000120: a3d7 773d b99c f43d ae07 9dbb 79cf 963c
00000130: 09f0 763d 5775 863c 1a3e 94bb ebb4 cfbd
00000140: 1c42 36be 1b5f b63d 7975 063e 9c25 943c
00000150: d679 90be bb75 23be 4c8b 96be d082 0d3e
00000160: 4ae3 9b3d cdb6 1cbd c1ea da3d 70e8 c93c
00000170: b0bb df3c 42d6 73bc e979 34be ffc2 4b3d
00000180: ee18 5c3d 27e4 8b3e 2219 0b3e 8eb2 8bbd
00000190: 8da5 0a3e 3dda 593e d744 25be a566 4dbe
000001a0: 1302 20be 2376 e2bb 3ce7 be3c f45d 44be
000001b0: d757 863d 0471 c33d 2f01 6e3d bda6 a1bd
000001c0: 870f 053c f4a9 adbd 635b c8bc 6e2d 243d
000001d0: e731 0ebe 4782 13be 15bb 513d b306 40be
000001e0: 0319 abbc fd70 c9bd 96ff b43d 9d96 67bd
000001f0: aec9 77be f5fe 10be 95f7 f33d 297e 0cbd
00000200: 5d19 373d 1382 0ebd 3aba 593d 565a 47bd
00000210: cc39 b1be d165 05be e8dd 66be 27ba b5bd
00000220: 9499 2abe 4c5d aabe 6c07 6fbe 3abe e3bd
00000230: 7329 bcbe 9469 d33c 3568 61bd 52c8 4ebe
00000240: cce2 4dbe b57e 3bbe 5413 3e3d c16d b33d
00000250: bcaa 18be 9189 653d d627 c6bb e365 4ebe
00000260: 84d4 3a3d f0f2 dbbd 9235 afbe c0c6 75be
00000270: 04bb 8bbd fed9 7e3c a7a7 313d 7ec1 623d
00000280: b2c7 28be 44f6 acbc a8c1 1fbe 6649 b7bd
00000290: f2c4 08be 85ef f3bd ad24 01bd 5f6a 213e
000002a0: 9efa 263e 1f65 f7bb 7da8 2c3e db41 d9bd
000002b0: dfaf 11be 6f6a b13d 1c50 fa3d f353 81bc
000002c0: 24fe a2bd 5f96 05be 83b8 41bd 168b 34be
000002d0: 96fa 633d 345c e5bd f929 c63d 03c5 23be
000002e0: 28de dcbd 6d1e 433e 65aa 283e dbab 383e
000002f0: 6a51 18be eb57 66bc f1bc 4bbb 0bc5 ef3d
00000300: 2fc3 c9bd ba5a 273e b71e 103d da1d f6bb
00000310: 14b6 493d 68ea 0b3e 0ac0 873c 74ae e8bc
00000320: 77c7 4fbd d61b 023e ec3f d5bd bc81 54bd
00000330: 10f8 0abe 7a44 0ebe 1d32 543e 410b 26be
00000340: 54ff abbd b68c 3abe 307b 29be 7ca8 fb3d
00000350: 9ff1 833d 2a03 babd 070e 843c 4623 afbb
00000360: fd29 843d 1d98 343e e837 07be 6c86 d4bd
00000370: 2ae8 e5bd d7fa 08be 2093 9a3d 52a3 0ebe
00000380: e53e 04be 21d7 013e 40f0 47be 5829 26be
00000390: 20de df3d de3f 7e38 872f 2e3b 4fd1 c8bd
000003a0: 04b9 5dbe 7e75 bfbd ea5c f8bd 6ddd 17bd
000003b0: 2236 03bd 99cc 083e 6b93 863d 6da2 13bd
000003c0: 5434 3dbc 77ce 1b3d 5d5c 01be 0b38 c53c
000003d0: 8d73 3ebe e195 5fbd dc95 4cbe 5dcf b33d
000003e0: 6541 fbbd 51f0 973d 4fc7 c43e 7b43 343e
000003f0: 7823 c53d a267 08be 5161 86be c541 853d
0.1587651 0.09968994 0.20956159 -0.09296347 0.10478923 0.06738518 -0.054860324 -0.22326317
0.11440345 -0.15576084 -0.32137972 -0.16453102 -0.17320533 -0.014256504 -0.20532049 -0.16543192
-0.09502731 -0.17177103 -0.36799234 -0.28176436 -0.27696258 -0.11429036 -0.14278534 -0.07098397
-0.14824621 0.080994084 0.012968233 0.0016964603 -0.04530607 0.025127819 0.15890415 0.2853423
0.21526077 -0.10052464 -0.03988507 -0.15935712 -0.04089828 -0.11303864 0.18568927 -0.12298853
0.0379742 0.2675297 0.066948496 -0.18626311 -0.12862125 -0.16208567 -0.020773597 0.088369615
-0.050848443 -0.10636179 0.13047366 0.07160623 -0.040134255 -0.104284436 0.13444243 0.2855634
0.032350745 -0.14020285 0.037860114 0.16904728 0.27306396 0.028989745 -0.070366725 0.14071435
0.08700552 -0.16298878 -0.20625654 -0.038212243 0.08877315 0.008397889 -0.10494262 -0.16942738
0.06050838 0.11943955 -0.0047921753 0.018409478 0.06028751 0.016413374 -0.0045240046 -0.10141929
-0.17798656 0.08904859 0.1313075 0.01808434 -0.28217953 -0.1596288 -0.2940315 0.13819432
0.07611711 -0.03826027 0.10689307 0.024646968 0.027311176 -0.014882626 -0.1762463 0.04974651
0.053734712 0.27322504 0.13583806 -0.06821166 0.13539715 0.21274658 -0.16139542 -0.20058687
-0.15625791 -0.0069110557 0.02330362 -0.19176465 0.06559723 0.095430404 0.058106598 -0.07893131
0.008121378 -0.084796816 -0.02445764 0.040082388 -0.13886224 -0.14405166 0.051203806 -0.18752556
-0.02088595 -0.09836004 0.08837812 -0.05654012 -0.24198028 -0.14159758 0.11912457 -0.034300003
0.044701923 -0.034792017 0.053156115 -0.048670135 -0.34614408 -0.13027121 -0.22545588 -0.08873396
-0.16660148 -0.33274305 -0.23342675 -0.11120267 -0.36750373 0.02580718 -0.05503102 -0.20193604
-0.20106047 -0.18310054 0.04640515 0.08761168 -0.1490888 0.056039397 -0.0060472293 -0.20156054
0.045612827 -0.10739696 -0.34220558 -0.24001598 -0.0682278 0.015554903 0.043372776 0.05536031
-0.16482428 -0.021113522 -0.15601218 -0.089495465 -0.13356379 -0.11910919 -0.031529117 0.15763234
0.1630654 -0.0075498964 0.16861148 -0.10608264 -0.14227246 0.08662879 0.12222311 -0.0157871
-0.0795863 -0.13045643 -0.047295105 -0.17631182 0.0556589 -0.11199227 0.096759744 -0.15993123
-0.107845604 0.19054575 0.1647125 0.18034308 -0.14874807 -0.014059047 -0.003108796 0.11707505
-0.098516814 0.16343203 0.035185542 -0.007510883 0.04924591 0.13663638 0.016571064 -0.028403498
-0.050727334 0.12705931 -0.10412583 -0.051881537 -0.13571191 -0.13893309 0.20722242 -0.1621523
-0.08398309 -0.1821774 -0.16550899 0.12287995 0.0644257 -0.09082635 0.01611997 -0.005344781
0.06453321 0.17636152 -0.1320492 -0.103772014 -0.112259224 -0.13376938 0.07547593 -0.1392949
-0.12914617 0.12679721 -0.19525242 -0.16226709 0.10931039 6.06178e-05 0.0026578621 -0.098055474
-0.21652609 -0.09348582 -0.12127097 -0.037076402 -0.032034047 0.13359298 0.065710865 -0.036043573
-0.0115481205 0.038038697 -0.1263289 0.024074575 -0.18598767 -0.054586295 -0.19979042 0.08779786
-0.122683324 0.074188836 0.3843331 0.17603867 0.09625906 -0.13320783 -0.26246122 0.06506685

conv4.bias f4 [32]
00000000: afca 5f3c 35c8 813c 4fbc 48bd da79 b4bd
00000010: 12c7 babd 42c1 22bd 68e6 5abd fe83 4c3d
00000020: a871 b6bc 47fb a3bd 2e39 0cbd 7464 0a3c
00000030: 9a4a a3bd 062e 5dbe 322d f9bc 993a edbd
00000040: 1432 b6bc bd01 57bd a275 0b3d e187 02be
00000050: 1caa 27be 694a d9bd 6bb9 07be 19b3 48b9
00000060: 827d ab3c 14a2 0cbe ed7d cabd cca3 83bc
00000070: 1343 1bbe b0f9 05ba 93ab bfbd ab73 7abd
0.013659163 0.015842536 -0.04900771 -0.08812304 -0.09120001 -0.039735086 -0.05344239 0.049930565
-0.022270992 -0.08006912 -0.03423422 0.008446801 -0.079732135 -0.21599588 -0.030417059 -0.11583442
-0.022240676 -0.052491892 0.03404773 -0.12747146 -0.16373485 -0.10609896 -0.13254325 -0.00019140205
0.02093387 -0.13733703 -0.098873 -0.016069315 -0.15162306 -0.00051107537 -0.09358897 -0.061145466

conv5.weight f4 [32, 32, 5, 5]
00000000: 3523 d0bc 44c4 1bbd 7f55 8dbe b246 93bd
00000010: c3f7 fdbd 4958 77be b001 c03d ec7a eb3d
00000020: f6b0 3c3d 1ba0 02be 38ec 63bd 6555 053b
00000030: 6fed 4cbd 68fe e3bc 6c58 cf3d bd88 c53c
00000040: 020a af3d b00b ba3d da28 453e 206f 8b3e
00000050: 6913 b53b d92a 43be f0f1 97bd 6898 11be
00000060: 1504 7f3d 4324 a9bd ce5f 183b 9b67 2ebe
00000070: 0533 1f3c c921 0e3c f0ce 80bd 129d 3fbe
00000080: 24d4 69bc ada2 623e 4205 f23d 16c0 a53d
00000090: 564c bb3b fca5 9d3c 92e3 74bc 267a 343d
000000a0: 9857 5a3e 0910 22bd acdf 0cbd 7bdc 9d3d
000000b0: 8e47 b53d deda 153e 2272 2f3e 6a3a cc3d
000000c0: e388 dd3d f2b3 f63d cc2e 0e3d 6df5 b23b
000000d0: d757 f43d 1875 c53d f25f 823d 80f8 d03c
000000e0: 7bfd 19be 927a ec3b eb76 dfbd 3338 d83d
000000f0: c8bc 083e b546 ae3d 5e26 673e f6e9 a53e
00000100: 25bb 263e 43ef 2a3d de1a 7c3d 671a 243e
00000110: 3007 3f3e 8eba 233e 7039 f33c 342a 603d
00000120: de4e e63d b5ca 103e e191 963e ae9f 993c
00000130: 1d77 0a3d 82a5 263d 06c6 a43c c08c a53c
00000140: c191 a83d 9f98 98bd a659 e13d 355f 4a3d
00000150: 2ccc c93b 4ab4 403d ea14 13be 1294 b0bb
00000160: eae7 2abe cc50 75be da76 36be 49f6 c2bd
00000170: 8c44 073d 5b1d 0dbe 67a5 83bd 6666 35be
00000180: e9d9 2cbc fc69 84be e7bb 3cbe b66b 17be
00000190: 85a0 1abe 8c22 bc3d f60e d83d e3a8 3c3e
000001a0: 349a 733e 3f32 34bc 18d0 75bd 29ab 213e
000001b0: 99e2 2c3e 8185 0c3e 45ef 583e 7acc 963e
000001c0: 2fd1 623e 4da0 5b3e 413a 463e a582 023e
000001d0: a03b 8f3e ddb4 8f3e 0ee7 b63d 5241 abbd
000001e0: ccbc 573e 1e6e f43d a085 323e 409f d7bd
000001f0: 08dd 9abe 268a 573e 23c2 d03d 98f4 9e3d
00000200: cdb8 66be 9804 573d b644 cd3c 5ecf fdbd
00000210: f9fd a9bd b3ec 9a3c cfa2 ca3b dd60 bebd
00000220: 2035 00be 5ae6 35bd 7e60 19be 1296 87be
00000230: d268 65be 9367 6dbd 96be 1ebd 57cf ddbd
00000240: 22fa 8fbd 9563 49be 42f7 17be 58e6 8abd
00000250: 16b2 183d 71cf c03d 9a6f 54be 3dd5 c6bd
00000260: a580 b23c 7895 153d e7b4 993d e7fc 993c
00000270: 214a 143e 7674 00be f6b3 d03d 12f8 96be
00000280: ff82 a5bd b148 813d 5709 0b3d 403a 613d
00000290: ca77 603c ce7f 39be ce4d 30be 9de8 e0bd
000002a0: 1587 803d cc71 0f3e ba61 51be 9c64 e2bd
000002b0: 81d1 e63d b398 153d 9bce 70bd f4f1 36be
000002c0: 06a7 84be b412 3bbe bbdf ca3d 066a ebbb
000002d0: 6661 083e f0cc 86bd 7be4 423c d013 c5bc
000002e0: bbdf a93d db1f 643c 041b a8bd 9e28 0f3e
000002f0: ce38 773d 39aa 52bd b7da 4cbd e8c1 b03d
00000300: 42dd 263e 6044 fc3d c7db 793c 5478 bbbc
00000310: 18d2 12bd 587c ddbe 6d8a 75be 8ffb 2fbe
00000320: 0c4b 3dbe 810e 4fbd c388 88be 7490 cbbd
00000330: 91bf 363c 3ea2 75bd 222c e8bc 558e 22bb
00000340: ffaa ffbb 6bb2 d9bd b666 0dbe 8f2f 5fbd
00000350: 2dff c93b cadc 02be 6830 6a3d bd2c a03d
00000360: 43db 0b3e c451 1c3e 4598 083e 4504 453e
00000370: 6e91 1bbe 730f 33be 6351 2d3c ca94 503d
00000380: ce23 683e 769c 77bd 271b 0fbe 9cfe 8dbc
00000390: f0f7 183c 2b3b 50be 33de ef3c 73e7 28bd
000003a0: ba84 cdbd 927c b6bd 0a22 89bd ec52 82bd
000003b0: dddb f7bc d9fd 18be ee3f efbd c18f c1bc
000003c0: 41a8 01be e585 e0bd a006 67bd 0fba 3b3b
000003d0: 409f 873d 6c3d 61be 85c2 42be f69c 0fbe
000003e0: d6fa 863d 9251 3abe 2894 f43d e0cd 02bd
000003f0: 4c6e 043d cd4c 7d3d 3c70 a13b 854b ae3d
-0.025407413 -0.03802897 -0.2760429 -0.071912184 -0.124007724 -0.24154772 0.09375322 0.11498055
0.0460672 -0.12756388 -0.055645198 0.0020345089 -0.05003112 -0.027831271 0.10124287 0.024113053
0.08546831 0.090842605 0.19253865 0.2723322 0.0055259955 -0.19059314 -0.07419193 -0.14218295
0.062259752 -0.082588695 0.0023250463 -0.1703171 0.009716754 0.008675047 -0.0628947 -0.18712261
-0.01427177 0.22132368 0.11817409 0.08093278 0.005715887 0.019244187 -0.014946835 0.044061802
0.21322477 -0.039566074 -0.034392998 0.07708069 0.088515386 0.14634272 0.17133382 0.09972079
0.10817125 0.120460406 0.034712598 0.005461386 0.119308166 0.096414745 0.06365956 0.025509119
-0.15038101 0.00721676 -0.10911354 0.10557594 0.13353264 0.0850958 0.2257323 0.3240506
0.16282327 0.041732084 0.06154906 0.16025697 0.18655086 0.15989134 0.029690474 0.054727748
0.112455115 0.14139827 0.29408172 0.018752899 0.033805 0.040685184 0.020113956 0.020208716
0.08230925 -0.07450985 0.11003427 0.049407203 0.0061583724 0.047046937 -0.14363447 -0.005388745
-0.1669003 -0.23956603 -0.17818776 -0.095196314 0.033024356 -0.1378073 -0.06428032 -0.17714843
-0.010550001 -0.2586211 -0.18431054 -0.14787182 -0.15100296 0.09186277 0.105497286 0.184238
0.23789293 -0.010998308 -0.060012907 0.15787949 0.16883315 0.13722803 0.21185024 0.29452878
0.2215011 0.21447869 0.1935816 0.1274515 0.27975178 0.28067675 0.08930789 -0.08362068
0.21068114 0.11935066 0.17433786 -0.105284214 -0.30246758 0.21048793 0.10193279 0.07761496
-0.22531433 0.052494615 0.025057178 -0.12393068 -0.083003946 0.018911695 0.006183959 -0.09295819
-0.12520266 -0.044409133 -0.14978215 -0.26481682 -0.22403267 -0.057960104 -0.038755976 -0.108305626
-0.07030131 -0.19666894 -0.14840415 -0.06782216 0.03727921 0.09414566 -0.20745698 -0.09708641
0.021789858 0.036519498 0.075052075 0.018797351 0.14481403 -0.12544426 0.10190575 -0.29486138
-0.08081626 0.06312693 0.033944454 0.054987192 0.013700435 -0.1811516 -0.1721718 -0.109818675
0.06275765 0.14008254 -0.20447436 -0.11054346 0.112704284 0.03652258 -0.058790784 -0.17865735
-0.2590868 -0.18268853 0.099059545 -0.00718427 0.13318405 -0.065820575 0.011895294 -0.024057299
0.08294626 0.013923611 -0.08208278 0.13980338 0.060356908 -0.05143187 -0.05001327 0.08630735
0.1629534 0.12317729 0.015250153 -0.022884525 -0.035844892 -0.4325893 -0.23978586 -0.17185806
-0.1848566 -0.05055094 -0.2666684 -0.099396616 0.011154071 -0.05996918 -0.028341357 -0.0024804075
-0.0078023667 -0.10629734 -0.13808712 -0.054488715 0.0061644525 -0.12779537 0.05717507 0.07821033
0.1365786 0.15265566 0.13339336 0.1923991 -0.15192196 -0.17486362 0.010578486 0.050923146
0.22669908 -0.060451947 -0.13975202 -0.017333321 0.009336457 -0.20335071 0.029280758 -0.041236352
-0.10035081 -0.08910479 -0.066959456 -0.06363472 -0.030256206 -0.14940585 -0.116821155 -0.023628118
-0.1266184 -0.10963038 -0.056402802 0.0028644835 0.066221714 -0.21996087 -0.19019516 -0.1402472
0.06590812 -0.18195179 0.11942321 -0.03193462 0.03233175 0.06184082 0.0049267095 0.08510498

conv5.bias f4 [32]
00000000: aeaa 5bbe 02c0 203c 6be9 d8bd 7e46 b1bd
00000010: 28b2 52be 12ff 9fbd eed2 aebd 366a d8bb
00000020: 3882 b6bd a539 35be 2818 41bd 6963 44be
00000030: 49b6 48be 5abd 31be a390 01be 30fb 8f3d
00000040: 2a76 ba3d 4198 51bd db6e eabc 7356 26be
00000050: a179 0dbc 236d 57be 0128 c7bb e568 2ebc
00000060: e939 47bd 1898 b6bd aba7 eebd 22e2 40be
00000070: a56f 69bd 4778 00be f899 373b f1d3 35be
-0.21451828 0.009811403 -0.10591396 -0.086560234 -0.20575774 -0.07812323 -0.085363254 -0.006604458
-0.08911556 -0.17697771 -0.047142178 -0.19178547 -0.19600786 -0.17357388 -0.12652831 0.07030332
0.09104569 -0.05117059 -0.028617313 -0.16243915 -0.008634956 -0.21037726 -0.006077767 -0.010645126
-0.04863921 -0.08915728 -0.11653074 -0.18836263 -0.05699124 -0.12545882 0.0028015357 -0.1775663

conv6.weight f4 [32, 32, 5, 5]
00000000: 2260 76bd faf2 c73d 8902 053e 542a fbbd
00000010: 676a d5bd 445c 01be 7d3d e3bd b870 e0bd
00000020: 28ae d63d 6460 28be 4355 29be 7456 81be
00000030: 8a5b 20be e7bd ca3e e0bc d93c f783 aabd
00000040: ec98 9ebd 9581 37be bee4 48bd 0df3 a5be
00000050: fa45 d6bc abbc 1abe 3017 a0bd 8b5c 653d
00000060: 15ad 0cbe bf70 a93d 5a69 653d 2265 af3d
00000070: 4665 c93d 31b1 77bd b757 b8bd 87f6 e6bd
00000080: d0e1 dbbc 10e8 d7bd fc00 96be b5c8 0c3d
00000090: 55be 12be 8c21 24bd 89cf 89bc 19ed 22be
000000a0: c6f6 0cbe 2ed4 adbd e57f 0c3e ec0a 063e
000000b0: 2ef7 ca3d 5789 ba3b 3b66 2cbe 2b14 323d
000000c0: d996 253e 4521 ea3c 5678 d93c a4f3 8abd
000000d0: cbda 183d 242a 66be 9daf b2bd ddd6 ccbd
000000e0: a785 b1bd 6e5f 803d f139 55be d7c7 923d
000000f0: 9b02 8d3e 6bfc ed3d c8dc bfbc 8041 163d
00000100: aaac 8cbd 4a5e 1ebe a3b1 29be 5dcc 2bbe
00000110: 4fba 93bc 31c3 8f3d 2797 dfbd 50a2 a9bd
00000120: b2e9 3fbe 27a0 403e fd44 88bd 93ff c6bd
00000130: 17e5 0a3e 1f95 a83d 3b0c 9f3d 8648 e33c
00000140: 2462 90be e7fc 18be 3400 cc3c b0a0 3c3d
00000150: 76f3 1a3e 6af9 1bbe b9be 6abd 2e5d 1e3e
00000160: 69f8 a1bd 393b d93d 9afd d03d 5ec3 0bbe
00000170: 652d 3fbd 0bb9 f6bd f634 65bd 60d8 50be
00000180: 60d8 46be 6201 a0bd 1de1 34be 140f 1f3c
00000190: 98eb 04be cd0f 53be c01a 22be 6b2f 61bd
000001a0: d309 2a3d c87d 61be 708b 80bd 4722 b93d
000001b0: 5e2d c63d a993 473e 2ed6 22be bc13 f9bc
000001c0: 6e89 2ebe b364 033d cab0 27be a1c3 c23d
000001d0: fcfd acbd ad7a bf3b 3bc3 283e f997 2e3e
000001e0: a614 413e 39b8 e0bd 05e1 5dbe 5f34 7c3d
000001f0: dd67 803e b360 823d 9c39 13be 2338 2dbd
00000200: 098d e5bd 0e4b c1be 4bed 20be eb89 26be
00000210: 420b 26be beb6 ec39 1683 703e 7232 cf3d
00000220: 8547 7bbe ea40 03be c754 773d 9783 0bbd
00000230: a712 573d ec3c 523d fef0 4d3c 0a46 52bc
00000240: 3739 263d 9c2b 57be b2b7 d93a 340f 653c
00000250: 05f7 723e be18 32bd b928 41be 1dec e7bd
00000260: 960e eabd 7e44 153e 09f7 6d3b dbe3 c2bd
00000270: 0df2 15be 6d38 0ebd 3026 9c3d 40be 063d
00000280: 4c0a ee3d 6497 a7be cee4 1bbd ef79 8dbd
00000290: b784 103c f60c 60bd a383 233d 7154 033e
000002a0: d087 2fbe 5d17 263d 980c 9abd f66c 253e
000002b0: 49c0 ef3c 884a a8bd 3399 75bd a316 d4bd
000002c0: 1754 10be 87dc ec3d fa33 123d aa01 32bd
000002d0: 2349 6abd 3c0e e9bd 103b 80bd 5824 5abd
000002e0: d803 72be a35b 16be 6fa3 2dbe 603e 17ba
000002f0: 5ab5 febd 138d c2bc b510 b0bd e813 01be
00000300: 5342 72bd cdd9 b2bb bf30 14bd c36b 88be
00000310: d993 7bbd 5289 83be 804a 8cbd e569 83bd
00000320: 928a e93d db7d debc c410 efbd bdb2 e63d
00000330: 3fbd 2b3e 4133 403e ab4a 3f3d 69c4 563e
00000340: e0c6 2cbe 1c70 a6bd 0b52 723c cb10 ae3c
00000350: 9890 8f3d 66ba 26be 5b4f 5ebd fa50 4f3e
00000360: 0f1a cdbc f28c 9abd f7d0 0cbe 2074 d53d
00000370: 33c6 fd3e 825a a33d f7cd 8fbb 1e0b 3d3c
00000380: f218 3d3d 675a 60bd c9d4 30be 5c8c 76be
00000390: f6e7 ec3d 99a5 13bc 4d57 3cbd 955e babc
000003a0: 7492 9fbe c7f3 e4bd 8dbe aabd a5a4 cebd
000003b0: 508c 2cbe 928f 77be 01b5 b5bd 8ffb 4dbe
000003c0: 1e75 11be 3558 40be 6efb f9bd eeb8 fc3d
000003d0: 5536 53bd ce1f f33c f36c 24bd d144 2abe
000003e0: e10e 05be 4fab dcbd 3b2e e53d e4db 173e
000003f0: fa29 643e 30fd 2f3e f4e9 37bb 0e99 603d
-0.060150273 0.09763141 0.12989248 -0.12263933 -0.10420685 -0.12632853 -0.11095712 -0.109589994
0.104824364 -0.1644302 -0.16536431 -0.2526127 -0.1565992 0.3959801 0.02657932 -0.083259515
-0.07744011 -0.17920525 -0.04904627 -0.32411996 -0.026156414 -0.15111034 -0.07816923 0.05599646
-0.137379 0.08273458 0.056008674 0.085642114 0.098337695 -0.060471717 -0.09001105 -0.1127749
-0.026841074 -0.10542309 -0.29297626 0.034371097 -0.14330418 -0.040071055 -0.016822593 -0.15910758
-0.13766012 -0.08487736 0.13720663 0.13090104 0.09910427 0.0056926417 -0.16835873 0.043476265
0.16170825 0.028580317 0.026546638 -0.06784752 0.037318032 -0.22477013 -0.08724902 -0.100019194
-0.0866807 0.06268202 -0.20822884 0.07167023 0.2754105 0.116204105 -0.023420706 0.03668356
-0.068688706 -0.15465656 -0.1657167 -0.16777177 -0.018033175 0.07019652 -0.10917502 -0.08282912
-0.18741491 0.18811093 -0.066537835 -0.09716716 0.13563953 0.082315676 0.07766005 0.027744543
-0.28199875 -0.14940225 0.02490244 0.04605168 0.15131935 -0.15231863 -0.057310794 0.15465233
-0.079087086 0.10606999 0.10204621 -0.13648745 -0.04667415 -0.12047013 -0.05595871 -0.2039504
-0.19418478 -0.07812764 -0.17663999 0.009708185 -0.12980497 -0.20611496 -0.15830517 -0.054976862
0.041513275 -0.22020638 -0.062765956 0.09039741 0.09676622 0.19489922 -0.15902016 -0.030404918
-0.17044613 0.032078456 -0.16376033 0.095099695 -0.08446881 0.0058434815 0.16480725 0.1705016
0.18855533 -0.10972638 -0.2166787 0.061573382 0.2507924 0.063661 -0.14377445 -0.042289864
-0.11208541 -0.37752575 -0.1571552 -0.16263549 -0.16215232 0.0004514958 0.23487505 0.101170436
-0.24539001 -0.12817731 0.060383584 -0.03406104 0.052508023 0.05132763 0.012569664 -0.012834081
0.040581908 -0.2101273 0.0016610532 0.0139806755 0.23727043 -0.043480627 -0.1886319 -0.11324332
-0.11428563 0.14576909 0.0036310575 -0.09516116 -0.14643116 -0.03472178 0.07624471 0.03289628
0.11623058 -0.3273269 -0.038060002 -0.069080226 0.008820704 -0.05469986 0.03992046 0.1282518
-0.17141652 0.040549625 -0.07521933 0.16154847 0.029266493 -0.08217341 -0.059960555 -0.1035588
-0.14094578 0.115655 0.0356941 -0.04345862 -0.057198655 -0.11379668 -0.06261265 -0.053257316
-0.23634279 -0.14683394 -0.16956876 -0.00057694875 -0.12436934 -0.02374891 -0.085969366 -0.1260525
-0.059145283 -0.005458093 -0.0361793 -0.26644716 -0.061420295 -0.25690705 -0.06850147 -0.06416682
0.11403383 -0.027159622 -0.1167312 0.1126456 0.1677141 0.18769552 0.04670207 0.20973362
-0.1687274 -0.08126852 0.014790068 0.021248242 0.07010001 -0.16282043 -0.054274898 0.20245734
-0.02503684 -0.075464144 -0.13751589 0.1042254 0.49565277 0.07976247 -0.0043885666 0.011538295
0.046166368 -0.054773714 -0.17268671 -0.2407698 0.115676805 -0.0090116495 -0.045981694 -0.022750178
-0.31166422 -0.11179309 -0.08337126 -0.10089997 -0.168504 -0.24175861 -0.088724144 -0.20115493
-0.14204833 -0.18783648 -0.122061595 0.1233996 -0.051565487 0.029678252 -0.040142965 -0.16627814
-0.12993957 -0.10774862 0.111904584 0.14829975 0.22281638 0.17186427 -0.002806303 0.054833464

conv6.bias f4 [32]
00000000: d9b4 d4bd 61b2 503c 1446 fdbd 6c4b 6d3d
00000010: 49ad 1abd e83c 3d3d 6f93 b63d 6c2b 26bd
00000020: c8c8 793c 1fc8 783e ffe2 2e3e d31f fbbc
00000030: d5e0 a3bd bb9b 58be afc9 9a3d 23a6 793d
00000040: f6eb c23d bc46 d9be 53ec 603e 498b 36bd
00000050: 3ad8 1fbd 1e0a 263e bfdc a0bb fcb7 8b3d
00000060: b97f 49be c02c 41be 3a14 753e d343 58be
00000070: df49 8abc f28f 4c3e 3c3f ed3d 4232 d13d
-0.103860565 0.012737841 -0.12366882 0.057933256 -0.037762914 0.046200663 0.089148395 -0.040568754
0.015245624 0.2429509 0.1707878 -0.030654823 -0.08001868 -0.21153156 0.07557999 0.060949456
0.09517662 -0.4243678 0.2196515 -0.044566426 -0.03902457 0.16214797 -0.0049091275 0.068222016
-0.19677629 -0.18864727 0.23933497 -0.21119623 -0.016880928 0.19976786 0.115843266 0.10214664

conv7.weight f4 [32, 32, 5, 5]
00000000: 3e92 69be 06d7 ccbd 51e1 71be 62ef ebbd
00000010: 5d75 3d3d 535b 27be 3b40 cebd af90 2fbe
00000020: 7e36 13be 21e3 42be 65ac fbbb bcee 6b3e
00000030: a6fe 583e ab28 9a3d 726a 1cbc 3385 d0bd
00000040: a7e1 f93d 3526 e93d 4e4a fe3d 2596 3ebb
00000050: 5ace 3bbe 9fc0 24be db0e 3e3d 4b15 a73d
00000060: 6c79 883e 5818 98bc 1295 c23d 85d5 eb3d
00000070: 975f 243e 1486 9bbc 71b6 17bc 6b18 1a3d
00000080: 0842 563d 7c6f 04bd 754f 393d 8dfc 953d
00000090: 60d4 7e3d f7a9 cb3d 2347 813d 73fa e2bc
000000a0: 54d7 dd3c e56a c03d 47a1 d8bc 875c aabd
000000b0: 47da 4cbe dd1f 673d 836d f93d cb70 7f3d
000000c0: de28 a43c ef30 133e ef95 6bbd 28b8 2cbd
000000d0: ba36 1f3d 71af 8c3d f637 ce3d 0f5e 9f3d
000000e0: e551 f63d 7181 3b3e 09a5 353e b3f9 a13d
000000f0: d73b f2bd 1045 6f3b ed22 fc3c 5e75 0cbd
00000100: afc5 afbd c5a6 26be a400 d8bc 7d34 343d
00000110: 8560 edbd 0a43 8ebc 6f71 5ebe 60fc 90bd
00000120: e61c 5bbd c049 16be 0495 f6bd 5acc 00bd
00000130: 6ddc 3bbe 74b9 57be 0645 28bd 449b 4e3d
00000140: 4158 fa3d dde2 05be 0d82 65be a144 773c
00000150: 11cc 7e3b 9746 98bd ea46 083a ac83 84bd
00000160: 3012 193e d63f 853e 6e17 a13d 25ee 823d
00000170: 20b9 963c d445 953d bf5c 0a3e 230b 483c
00000180: 0d4c 923b 0d32 4f3d 44e4 3cbd 8823 a7bd
00000190: 0e5c e83c c4c7 3b3c bbe5 ea3d 306c b63d
000001a0: 17a0 2d3d a0da 403d cd6c 9a3d c916 fb3c
000001b0: 219c cd3d db18 e93d b8df 9f3d 65c7 483d
000001c0: 132a babc 65f7 aa3d e868 553d e617 153e
000001d0: 4934 813d ad76 a73c a07c 113e 52fc 963c
000001e0: daf8 823d 587b 0f3e 05af 203e 1253 103e
000001f0: 7328 893c 55ba 17bd efff 07be a78b 6dbd
00000200: 0925 573c 5489 9dbd cb08 e4bd d299 57be
00000210: a0b0 0abd 641b 093c 2485 773e dd1a 103d
00000220: 5fcb 4ebc 0a7a 4b3e ab67 ab3e 35b0 843e
00000230: 5a62 323e 64a8 883d d76a 813d cf0f 923d
00000240: d234 89bd c6df cb3d b72f c53d 718d 3b3d
00000250: c0e6 473e f2ad 133d ac99 e83d b509 673d
00000260: 980c 2d3e a3a1 083e 32e2 b1bd f663 133e
00000270: aac1 72bd 43b6 d03d 851b 443e 451e 3a3d
00000280: 5697 80bd 0491 b53d 5b48 433c 0934 a1bb
00000290: 1560 c3bd 71fa e73d 88a5 fd3d e5a5 683d
000002a0: 5c5e b43d 5d74 87bd b8a2 8e3d 0b59 193d
000002b0: f4ee 27bd f36c 4a3e ed56 c03d 6b40 143e
000002c0: 0436 a13c 0214 523c 1d58 94bd 8f71 82bd
000002d0: 4ccb 7d3d ad9f 2ebc 473b 483d fe36 9c3d
000002e0: b656 4b3e 34da b33d 53b8 8cbd 9664 92bd
000002f0: 11e2 6dbd 4277 933d ec16 233e 0ff7 48bc
00000300: e0b5 01bc 23ed fc3d 18e4 ecbd f2b4 4d3e
00000310: 332b f73d 9465 233e 65b2 c03d 5c76 a63d
00000320: 0190 4dbd 3182 edbd 5387 83bd ae17 9abd
00000330: 950b 85bd 8a00 1f3e 7f0a 793d 26ee f53d
00000340: 6c21 863e 368a 623e d5e7 513d d684 62bc
00000350: 2d84 7a3d 008f e83d 6aed f7bb 12b7 333d
00000360: b3b3 8fbd ba73 68be 2b6b 213a 0b36 6dbd
00000370: 14c8 1b3d ba7a 7ebd 4ed2 e9bc 67a6 5d3e
00000380: 287c 513c 1bab 18bd 5345 93bd c5cb 4039
00000390: d5f1 e9bd 064b 74bd cacc a7bc 1193 a03d
000003a0: 614f f13c bce1 22bc 6171 d7bd 9448 eebc
000003b0: 780d ed3b 0308 cc3d 7ae0 cb3d 6ac0 c53d
000003c0: b7b6 f9bd 3287 b6bd 07ce 3b3d b950 febc
000003d0: cb68 cfbd 2cac 0abd f4b8 b8bd 6e00 f3bc
000003e0: 467f 3abe 3de0 6cbe 2c80 1e3b 57b2 11bd
000003f0: 9124 22bd fe50 3abe dae4 0cbe 18aa 333c
-0.22809693 -0.1000195 -0.23621108 -0.11520268 0.046254504 -0.16343431 -0.10070845 -0.17145036
-0.14376256 -0.19031955 -0.007680463 0.23040289 0.2119089 0.07527288 -0.009546863 -0.10181656
0.12201243 0.113842405 0.12416516 -0.0029081192 -0.18340436 -0.16089104 0.046400886 0.08158358
0.26655138 -0.018566296 0.09501089 0.11515335 0.1605209 -0.018984832 -0.009259806 0.037620943
0.052309066 -0.032332882 0.04524179 0.07323561 0.062214255 0.099445276 0.063123964 -0.027707314
0.027080216 0.093953885 -0.02644409 -0.083184294 -0.20005141 0.05642687 0.12179091 0.062363427
0.020039018 0.14374135 -0.057516035 -0.042167813 0.03887055 0.068694 0.100692675 0.07781612
0.12027339 0.18311097 0.17738737 0.079089545 -0.1182782 0.003650967 0.030778373 -0.034291618
-0.08582627 -0.16274555 -0.026367493 0.04399537 -0.11590675 -0.017365951 -0.21722959 -0.07079387
-0.053494357 -0.14676571 -0.12040141 -0.031444885 -0.18345805 -0.21066839 -0.04108145 0.05044104
0.12223864 -0.13074823 -0.22412892 0.015092046 0.0038878957 -0.07435339 0.00051985553 -0.06470427
0.14948344 0.26025265 0.07865797 0.06393079 0.018398821 0.07288709 0.13511942 0.012209686
0.0044646324 0.05058484 -0.04611613 -0.08161074 0.028364208 0.011461202 0.11469599 0.08907354
0.042389 0.047083497 0.07540283 0.030650513 0.10039545 0.11381694 0.07806343 0.049018282
-0.02272514 0.08347968 0.052102 0.14559898 0.06308801 0.020442331 0.14207697 0.018430863
0.06395121 0.14011896 0.15691765 0.14094189 0.01674292 -0.037042934 -0.13281225 -0.05799451
0.013131388 -0.07692209 -0.111344896 -0.21054772 -0.03385985 0.008368347 0.24171883 0.03518187
-0.01262173 0.19870773 0.3347753 0.25915685 0.1742033 0.06672743 0.06319206 0.071319215
-0.06699528 0.09954791 0.096282415 0.045789186 0.19521618 0.03605456 0.113574356 0.05640574
0.16899335 0.1334291 -0.086857215 0.14393601 -0.059266724 0.10191014 0.19151123 0.045439024
-0.06278865 0.0886555 0.011919106 -0.004919533 -0.095398106 0.11327065 0.12385088 0.056798834
0.0880706 -0.066139914 0.0696463 0.037438434 -0.040999368 0.19768123 0.0939158 0.14477699
0.019679077 0.012822153 -0.07243369 -0.06369316 0.061961457 -0.010658187 0.048884656 0.076276764
0.19857296 0.08781853 -0.068710946 -0.071480915 -0.05807692 0.07200481 0.15926713 -0.012265935
-0.007916898 0.12349918 -0.11566943 0.20088556 0.120687865 0.15956718 0.09409026 0.08128044
-0.05018616 -0.11597098 -0.064222954 -0.07524048 -0.0649635 0.1552755 0.060801025 0.12008314
0.26197374 0.22123036 0.051246483 -0.013825616 0.06116121 0.113554 -0.0075661438 0.04387576
-0.07016697 -0.22700396 0.0006157632 -0.057912868 0.038032606 -0.06212876 -0.028542664 0.21645509
0.012785949 -0.037272554 -0.07190957 0.00018386457 -0.11423079 -0.05964186 -0.020483393 0.07840551
0.029456796 -0.009941515 -0.10519672 -0.029087342 0.0072342716 0.099624656 0.09954925 0.09655841
-0.12193053 -0.08912505 0.04585078 -0.031044351 -0.101274095 -0.033855602 -0.09019652 -0.02966329
-0.18212613 -0.23132415 0.0024185283 -0.03557047 -0.039585654 -0.18194959 -0.13759175 0.0109658465

conv7.bias f4 [32]
00000000: 73a4 273e 4a02 ef3d 7b17 673e 6d4d 803e
00000010: 2135 5e3e 6890 903d bc7c 5a3e 5a24 743e
00000020: a399 873e d986 143e 84a0 703e ca91 4b3e
00000030: 44bd 8f3e cbf2 f83e e340 813e 6926 7b3e
00000040: 2e39 ac3e c347 953d d236 403e d129 343e
00000050: 0b1a b53e 7f99 803e 379d 4b3e df7d 833e
00000060: 5eed 523e 9027 cb3e 2108 973e fff9 6b3e
00000070: c4a8 a83e 5688 873e 2449 ad3e ba5b 7e3e
0.16371326 0.116703585 0.22567551 0.2505907 0.21699955 0.07058793 0.21336645 0.23841992
0.26484403 0.14504565 0.23498732 0.19879833 0.28074086 0.48622736 0.25244817 0.24526371
0.33637375 0.07289078 0.18770912 0.17594077 0.35371432 0.25117108 0.19884191 0.2568197
0.20598361 0.3967862 0.2949839 0.23044585 0.32941258 0.26471204 0.33844864 0.24839678
