models/DQN_wb_10000_700_5e-4_20.pth (torch, 915386 bytes, 22 tensors)

conv1.weight f4 [32, 1, 5, 5]
000000 3d 99 7e be fc a0 5f 3d bf dd a4 be b0 31 d1 3d
       -0.24863143 0.054596886 -0.3220043 0.10214555
000010 31 5f 6e bd 04 7a 03 be c9 7b 22 be ad 8b 1f 3e
       -0.05819625 -0.12839514 -0.15867533 0.15580626
000020 bb ee db bd dc d2 99 3d 52 91 00 bd a1 cd 99 3d
       -0.107388936 0.07510921 -0.03138859 0.07509924
000030 93 e7 4a be 6b 41 8b 3c 04 e1 7a be 08 0b 95 be
       -0.19814901 0.016998967 -0.24499899 -0.2910998
000040 f4 d5 09 3e 13 9a 54 3e 0f 34 0c 3e 66 a1 88 be
       0.13460523 0.207619 0.13691734 -0.26685637
000050 df 80 94 3d ec c5 3e be 47 94 96 be 15 d0 dd 3c
       0.07251143 -0.18630189 -0.29410002 0.02707676
000060 53 6a f6 3d e8 34 07 3e 1e 07 71 be 2b 2a 55 be
       0.120319985 0.13203776 -0.23537871 -0.20816867
000070 88 1a 1b bc 27 c6 c5 bc 4d 9a 0c 3d e7 e3 52 3d
       -0.009466775 -0.024142338 0.03432684 0.051486876
000080 2a c6 eb 3d ad 2f 4c bd a2 1c 24 be b6 33 4a bd
       0.11512406 -0.049850155 -0.16026548 -0.04936572
000090 08 8a 0c 3e 27 00 f2 3c 72 07 14 be 06 bf 5d be
       0.1372453 0.029541088 -0.14455965 -0.21654901
0000a0 08 4f cc 3d 80 ee 5e bd 57 af bf 3c 8d 56 f9 bd
       0.099760115 -0.05442667 0.023399038 -0.121747114
0000b0 f6 0e c1 be 4e 9a 04 be da 50 9c 3d a2 0b 71 bc
       -0.37706727 -0.12949488 0.07632609 -0.014712246
0000c0 9c 4d e3 3d 40 98 87 be 63 b6 b0 3c 5a 44 1d bd
       0.11098787 -0.26483345 0.021571344 -0.038395263
0000d0 44 e4 79 be fa e5 30 3e 5c b7 0a 3a 45 ea 96 be
       -0.24403483 0.17275229 0.0005291605 -0.29475608
0000e0 4b b0 9e 3e e9 83 6f bd 92 ee 23 3d 50 9e 0d be
       0.30993876 -0.05847541 0.04002244 -0.13829923
0000f0 9b 33 01 3e a8 88 69 be 0a eb 18 be d8 1c 96 be
       0.12617342 -0.22806036 -0.1493341 -0.2931888
000100 f4 f1 02 be 02 c1 56 3c a9 28 d9 bd d3 83 1c 3e
       -0.1278761 0.01310754 -0.106034584 0.15284662
000110 26 99 a0 bd 51 18 95 bd 8d dc b0 3c 96 71 40 be
       -0.07841711 -0.072800286 0.021589542 -0.1879333
000120 a6 84 d1 bd a3 e2 9e bd 19 40 90 be 53 21 74 bd
       -0.10230379 -0.07758071 -0.28173903 -0.059602093
000130 0b 42 06 3e d4 99 ce bc 22 56 30 be 1e 55 a4 be
       0.13111131 -0.025219835 -0.17220357 -0.3209619
000140 b0 ad b1 3c d9 62 9b 3e 75 e6 b9 3d c5 cd 51 be
       0.021689266 0.30348852 0.09077159 -0.20488651
000150 da 36 cf 3c 54 18 f5 3c 2c 90 82 be f9 3f 92 bc
       0.02529471 0.029918827 -0.2550062 -0.01785277
000160 30 2e 23 3c 8d c6 0a be 12 55 80 be 74 2c b2 3d
       0.009959742 -0.13552304 -0.25064903 0.08699885
000170 5a 02 97 bd a0 4d 0d 3e a2 3a 33 bd e4 d7 39 be
       -0.073734954 0.13799143 -0.04375709 -0.18148762
000180 8a 7f 1e bc b9 17 92 3c b6 b5 8b 3d b6 9a 1b 3d
       -0.009673962 0.017833577 0.06821768 0.03798934
000190 5b 13 82 3e 76 68 5c 3e 27 8c f5 bd 0f 02 be 3d
       0.25405392 0.21524224 -0.119896226 0.092777364
0001a0 b3 2d 7c be ea cc 11 be 5e 54 7b be c4 cb 0f 3e
       -0.24626808 -0.14238325 -0.24543902 0.14042574
0001b0 43 1d 34 3e 58 3f d3 3c 86 c0 98 bc b2 16 49 3d
       0.17589287 0.02578704 -0.01864649 0.04909391
0001c0 44 84 49 bd 6a 42 19 3c cf 31 d1 bd da 40 60 3d
       -0.049198404 0.009354213 -0.10214578 0.054749347
0001d0 33 30 2d 3e 10 9f 64 be ae d3 43 be 2d 0e 12 3e
       0.16912918 -0.22326303 -0.19123718 0.1426322
0001e0 f1 1c 5f 3d b7 50 fc bd af 95 2f be 1d 88 1f 3e
       0.05447096 -0.12320083 -0.17146944 0.15579267
0001f0 87 ff 39 3e 19 74 85 3c 47 73 99 bc 08 be 76 bd
       0.18163882 0.016290711 -0.018731726 -0.06023982
000200 a7 f7 0c bd 80 d3 8c be 5d 29 30 be 1f 6a e6 bc
       -0.034415867 -0.27505112 -0.17203279 -0.028126774
000210 53 72 44 bd 99 d0 66 3e 83 7d 17 bb e1 40 54 bc
       -0.04796059 0.22540511 -0.0023115582 -0.012954921
000220 0f 00 6f be 3a da 66 3d d7 44 1d be bb fa 1a be
       -0.23339866 0.05636046 -0.15358292 -0.15134709
000230 7b 8c 7e 3e 76 e4 65 3c 72 a7 b5 3d 68 29 b5 bb
       0.24858277 0.01403152 0.08869828 -0.0055286177
000240 6c 5f 72 bc a1 f6 75 be 88 55 03 3d c0 03 1c bc
       -0.014793258 -0.24019863 0.03206399 -0.009522378
000250 f0 e4 18 bd f9 d9 ba 3d c3 c7 3c 3e 5c 13 7c be
       -0.037327707 0.09123606 0.18435578 -0.2461676
000260 42 ba ce 3d 56 4a 7a be d4 6b 61 3e 74 46 29 be
       0.100941196 -0.2444242 0.2201379 -0.16530782
000270 89 97 9d 3e fe 31 f5 bd 69 1f 2b 3e 67 4d 57 be
       0.30779675 -0.11972426 0.16711201 -0.2102562
000280 aa 1d 1e 3e d4 1b a7 bd ab 98 0e 3e 00 dc 5a 3c
       0.15441003 -0.08159605 0.13925426 0.013358116
000290 2a 05 02 be f1 92 60 bd d1 b1 20 be 9f 1a 8e 3b
       -0.12697282 -0.054827634 -0.15692832 0.0043366696
0002a0 5e 46 be bd eb 6e 03 3e 78 26 7c bd 11 5e 6c be
       -0.09290765 0.1283528 -0.061560124 -0.23082758
0002b0 d3 1f 8b 3d 82 b4 60 3e 1f e6 91 be 1f 06 c7 ba
       0.06793179 0.21943858 -0.2849588 -0.0015184319
0002c0 cc 2c 30 be 6e 78 06 3d b8 9d 8d 3d 37 c7 3c be
       -0.17204589 0.032829694 0.06914848 -0.1843537
0002d0 54 d8 93 bd 14 d3 14 be 5f 12 05 3e 40 95 38 be
       -0.07218996 -0.14533645 0.1299529 -0.18025684
0002e0 f7 ae 57 be a9 c4 eb bd 8c e5 16 be ad 78 51 be
       -0.21062838 -0.11512119 -0.14736003 -0.2045619
0002f0 17 10 e2 3c e4 7d 09 ba d1 ab 9d bb 53 c1 d0 bb
       0.027595563 -0.00052448944 -0.004811742 -0.0063707023
000300 18 77 0c 3e e1 ab 9b 3d db c7 0a 3e 97 a4 af bc
       0.13717306 0.07601143 0.13552801 -0.021440787
000310 4c 4a 2b 3d b2 53 04 3e 94 b8 51 be 0b c6 a2 bc
       0.041818902 0.12922552 -0.20480567 -0.019869825
000320 7f fc d4 bd 20 d7 04 3e cf 92 82 be 62 67 5a bd
       -0.10399722 0.12972689 -0.2550263 -0.05332125
000330 ae 1b f5 3d 2e b8 02 3e ea f8 a7 3c 67 f1 92 3d
       0.1196817 0.12765571 0.020504434 0.0717495
000340 22 06 74 be 22 02 bd bd c6 4f a5 3d 3f 2b 44 bd
       -0.23830464 -0.092289224 0.08071856 -0.047892805
000350 15 74 6f be 35 62 81 3d cd 5b 48 3d 29 4d df bd
       -0.23384126 0.0631756 0.048915673 -0.10903389
000360 90 e4 7a be 07 a5 73 be 2a 14 46 3e 9e 67 3b 3e
       -0.24501252 -0.23793422 0.1934363 0.18301246
000370 dc 31 96 bd 15 f5 f2 bd ff af b6 3d 57 a6 0a be
       -0.07333729 -0.11863152 0.08920287 -0.13540016
000380 e1 6a e5 3c 91 67 bb bd 1e 31 92 3d 89 96 ff bc
       0.028005065 -0.09150613 0.071382746 -0.03119971
000390 d7 9d 39 bc c2 b6 34 3d b8 64 72 be 53 9d 12 3e
       -0.011329136 0.044119604 -0.23671234 0.14317827
0003a0 32 08 04 3e c3 da ad 3d 75 88 d9 3d 2f 1c 34 be
       0.12893751 0.08488991 0.1062173 -0.17588876
0003b0 63 3d 90 be 25 28 08 3e a7 76 84 bd fb 07 e0 bc
       -0.28171834 0.13296564 -0.06467944 -0.027347555
0003c0 80 e7 2d 3e 85 65 56 3e 3e a3 69 bd c5 93 1e 3e
       0.16982841 0.20937164 -0.057040446 0.15486057
0003d0 a4 dc 82 be c1 23 60 3e e2 34 a0 be da a1 25 3e
       -0.2555896 0.21888639 -0.31290346 0.16175023
0003e0 83 0b a4 39 b0 40 71 be a9 36 55 3e 9e 34 38 3e
       0.00031289094 -0.23559833 0.20821632 0.17988822
0003f0 cd fb 38 3e 14 ed a5 3e 4e dc be be cc f0 89 3e
       0.18064804 0.3240744 -0.37277454 0.26941526

conv1.bias f4 [32]
000000 e9 59 b4 bd 41 9f 27 be 41 8b e8 3d 6c 2f 71 bd
       -0.088062115 -0.16369344 0.113546856 -0.058883116
000010 35 3a 55 be 65 e3 ab bd d1 54 b6 bd 06 00 80 be
       -0.20822985 -0.083929814 -0.08902896 -0.25000018
000020 f0 6a 48 be 7b 7b 5c be 07 c3 81 bd 7a 00 e0 bd
       -0.19572043 -0.21531479 -0.06336027 -0.10937591
000030 98 16 b6 3d 48 a1 72 be d6 33 3e 3c 53 a4 48 be
       0.08891028 -0.23694336 0.011609038 -0.19593935
000040 8a d3 6c be ee cf 25 bd da 5f ed bd b3 c5 1f bd
       -0.23127571 -0.0404815 -0.11590548 -0.0390069
000050 2a 1a e6 3d fc 3f eb 3d f4 e8 87 3c 58 4d 92 3d
       0.11235459 0.114868134 0.016590573 0.071436584
000060 10 d7 72 3a 1a 52 8f be 7e 06 de 3b 0b b2 2a be
       0.0009263614 -0.27992326 0.0067756763 -0.1666948
000070 10 52 5b be e1 18 a4 3d 28 c7 43 be 4b 83 c4 3d
       -0.21418023 0.08012558 -0.19118941 0.09595355

conv2.weight f4 [32, 32, 5, 5]
000000 8a ef 7e 3c a7 4a a1 bd b3 13 0a be 6a f3 07 3d
       0.01556004 -0.07875567 -0.13484077 0.033191122
000010 ac 31 6f 3d 9c e0 9e bd 73 40 3b bd 17 a4 81 bd
       0.05839698 -0.077576846 -0.04571576 -0.06330126
000020 7b b6 a9 be 97 0c 27 be 52 c0 5b 3d a7 49 10 3c
       -0.33147034 -0.16313396 0.053650208 0.008806623
000030 26 f1 33 bd 0a a9 94 bd 08 5e 92 3d 41 3c 23 be
       -0.04393115 -0.07258804 0.07146841 -0.15940954
000040 79 e4 ec bc 43 f5 6a bd 13 9b b1 bd f4 ad 0e be
       -0.028917538 -0.057362806 -0.08672156 -0.13933545
000050 35 4b 0f 3e 88 44 da bd ef 5d b1 3d 73 ea c6 bc
       0.13993533 -0.106576025 0.086604945 -0.024281716
000060 57 6a 32 3e 9b 8e 6d bd 77 d4 f2 bb e6 13 b6 bc
       0.17423378 -0.057997327 -0.0074105817 -0.022226285
000070 c8 f8 7f bd e6 41 3d ba 78 b4 24 3d f8 20 62 be
       -0.062493116 -0.00072195975 0.04021117 -0.22082889
000080 f0 9b 4d bd 3c 5d 14 be 83 a8 b3 bc fe 21 d5 3d
       -0.05019754 -0.14488691 -0.021930939 0.10406874
000090 87 07 9e bd 8d 3c 55 bd 83 b5 82 be 42 73 b9 3b
       -0.077162795 -0.0520597 -0.25529107 0.0056594918
0000a0 e8 32 18 3d c3 06 37 bc 0d d1 99 bc 54 02 63 be
       0.037157923 -0.011171046 -0.018776441 -0.22168857
0000b0 17 73 98 3d 4b 4b da 3d 82 fb 92 bc fb f9 27 be
       0.07443827 0.10658892 -0.017942194 -0.16403954
0000c0 12 e8 76 be 1d 34 18 3c 91 09 55 bc ef 01 55 3e
       -0.24111965 0.0092897685 -0.013002769 0.20801519
0000d0 33 35 c4 3c 86 37 36 3d a6 da 18 bc 6b b9 7d be
       0.023951149 0.044486545 -0.009329474 -0.24777763
0000e0 6e ff 57 3d f4 66 3a 3c b1 44 cd 3d 0d 44 f2 bd
       0.05273383 0.011377085 0.100228675 -0.11829386
0000f0 6b 0d 91 3c f3 1f 0c bc 28 45 51 be 9e 0f 54 bd
       0.017706593 -0.008552539 -0.20436537 -0.051772706
000100 dd 87 d4 bc 2c 00 ef bc cc 5f ca 3d be 74 98 bc
       -0.02594369 -0.029174887 0.09881553 -0.018610355
000110 c9 e8 0a be 84 ef 8e 3c ff 49 46 3d d7 24 b0 3d
       -0.13565363 0.017448194 0.048410412 0.08600777
000120 23 53 79 bd a5 cd 5d bd da 0a 88 be d6 80 f3 3d
       -0.0608703 -0.054151196 -0.2657078 0.11889808
000130 91 ce a2 bd 7e c0 3d bd 61 c5 14 bc 82 4d 50 be
       -0.07949556 -0.046326153 -0.009080262 -0.20342067
000140 d9 92 29 bd 3f 58 97 3d 4a 2d 21 be 5f 76 1e 3e
       -0.04139981 0.073898785 -0.15739933 0.15474842
000150 0d e9 9c bd f2 d4 00 3e f7 f0 6b be 6f b0 ad 3d
       -0.076616384 0.12581232 -0.2304114 0.08480918
000160 fc 5a 71 bd 92 8e a5 bd 7d cd e7 3c 18 a2 fe bc
       -0.05892466 -0.08083834 0.028296227 -0.031083152
000170 16 54 ec 3d 21 14 1a 3e 88 01 62 bd 75 61 d8 3d
       0.115394756 0.15046741 -0.05517724 0.105654635
000180 44 91 c4 bd 06 00 06 be d8 3a 72 bb 6b 85 91 be
       -0.0959802 -0.13085946 -0.0036961343 -0.28422102
000190 31 cc 4c 3d 9e 19 b1 3d c9 23 03 be 58 99 de bd
       0.04999942 0.08647464 -0.1280662 -0.10869092
0001a0 9c e8 8b bd 64 3c 0f 3d 73 8d 28 bc d6 29 65 3c
       -0.06831476 0.034969702 -0.01028763 0.013987025
0001b0 2b f4 89 3d e8 43 c7 bd 37 6f 25 bd 05 f8 2b 3a
       0.067360245 -0.09729749 -0.040389266 0.000656009
0001c0 18 06 ad bc d0 76 56 3d 8f be a5 3d 96 04 d3 3b
       -0.02112107 0.052359402 0.08092987 0.0064397557
0001d0 b0 81 87 3d 20 8d 3d 3c e5 4c f6 bd c1 77 75 be
       0.06616533 0.011569291 -0.12026385 -0.23971464
0001e0 69 2e 5d be 03 2f 1a bc 8b e4 41 be 43 2f 76 be
       -0.21599735 -0.0094106225 -0.18934838 -0.24041466
0001f0 f9 c5 0e be 02 dd 5d bd a1 1e 0e 3e dd 79 3a be
       -0.13942708 -0.054165848 0.13878872 -0.1821055
000200 f7 e8 d2 3c 0b 80 35 be d1 9d 50 3d 16 9e ac bd
       0.025745852 -0.17724626 0.050931755 -0.0842859
000210 a1 6e ba 3d 02 14 43 be 82 53 53 be f2 7d ac bc
       0.09103132 -0.19050601 -0.20637324 -0.02105615
000220 42 53 08 be 90 58 a6 bd 0b bf 36 3d 26 67 b0 3d
       -0.1331301 -0.08122361 0.044615787 0.08613424
000230 4e f3 ef 3c 94 90 14 3e b0 0b 7f 3c 95 e0 a6 3c
       0.029290821 0.14508277 0.015566751 0.020370761
000240 ae ae 8d bd 05 2e b1 bd 04 23 a2 3d d5 4a d8 bd
       -0.06918083 -0.08651356 0.07916835 -0.10561148
000250 85 bb 88 3d 61 0f cd ba 8a 5d 61 be 70 66 b3 3b
       0.066763915 -0.0015644842 -0.22008339 0.005474858
000260 8e c4 6c 3d d7 0a 09 bd 57 1d 8d bd fd 47 41 bd
       0.057804637 -0.033457603 -0.06890362 -0.047187794
000270 62 3e d1 3d c3 5f 9d bd c4 ee fb 3d 66 ec b8 3c
       0.10216977 -0.07684281 0.123014 0.022573661
000280 f1 f1 86 3d b6 ef 9e be 06 23 b2 3c c8 9f 03 be
       0.065891154 -0.3104226 0.021745216 -0.1285392
000290 62 3f 18 ba 3e 23 67 3c c7 e7 8a bd 30 73 4e be
       -0.00058077846 0.0141075235 -0.06782489 -0.20161128
0002a0 ab e7 88 bd 95 66 81 be 1e 15 52 be fe b1 8a 3c
       -0.06684812 -0.25273576 -0.20515868 0.016930576
0002b0 aa 50 4c bd 78 50 ce 3d 52 8d 16 be 1e a2 db 3d
       -0.049881615 0.10073942 -0.14702347 0.10724281
0002c0 3a 04 59 3c 6b 6d 3d 3d 0e ca 49 3d 7d cc ce bd
       0.013245637 0.046246927 0.04926496 -0.10097597
0002d0 cf ea 37 3d 62 65 d2 3c 16 46 a7 bd 1c 90 0e bb
       0.044901665 0.025683109 -0.08167665 -0.0021753376
0002e0 e6 24 ab bc 98 7f 02 3e a5 17 20 bd 4e 24 89 bd
       -0.020891618 0.12743986 -0.03908505 -0.06696378
0002f0 17 05 13 3d a4 b6 37 3e 4a 01 5a 3d b5 64 df bd
       0.035893526 0.17940766 0.053223886 -0.1090788
000300 6e 3d 89 bd 7e a7 00 3e 3f 0c b9 3d 97 d0 b1 3c
       -0.0670117 0.12563893 0.09035539 0.021705909
000310 a0 8c a4 bc a8 c4 03 3e 38 06 bd 3d 74 33 84 bd
       -0.020086586 0.12867987 0.09229702 -0.064551264
000320 b9 69 ef 3d f9 44 e1 3c 4f 50 93 3d a9 0c 01 bd
       0.11690087 0.027498709 0.07193052 -0.031506214
000330 77 0c 02 be 4e 89 bb 3d 48 4b 6f bd c3 50 94 be
       -0.12700067 0.09157048 -0.058421403 -0.28967866
000340 31 28 83 bd 92 bb a7 3c 42 5d 49 3d ad b3 00 3d
       -0.0640415 0.020475183 0.049161203 0.031421352
000350 7e 7e c1 bc 23 be 49 bb 78 5a 00 be e2 ad e7 bc
       -0.023619886 -0.0030783496 -0.12534511 -0.028281156
000360 0e 61 8b bd 5d 86 8b 3d ef 43 5a bd df e7 2b be
       -0.06805621 0.06812737 -0.053287443 -0.1678767
000370 d2 2e b4 bd 43 2f 5a 3c eb 27 de 3d aa fe 0b bc
       -0.08797993 0.013316932 0.108474575 -0.008544603
000380 77 5a c8 bd 97 28 4e bd ce ed e8 bc ec 9b a5 bd
       -0.0978288 -0.05033168 -0.028433707 -0.0808638
000390 c1 ac 39 be 5d 65 be bd 0e 68 07 3d 9f 59 e1 3c
       -0.18132307 -0.09296677 0.03305822 0.027508555
0003a0 b8 79 c8 3d 00 ed 8b be 1e fc bc 3d 2b 79 d7 3d
       0.09788841 -0.27329254 0.09227775 0.10521158
0003b0 23 45 48 3d ea 77 fd bc b3 20 cf 3d 46 a8 03 3a
       0.04889406 -0.030940969 0.10113659 0.0005022328
0003c0 ca 6e f4 bc 55 e6 2b bc 52 99 28 3d 5f eb 45 3c
       -0.029837985 -0.010491927 0.041161843 0.012080043
0003d0 c3 c9 1e bd 3a 38 a0 bc da 55 c6 3d fc 48 8f 3c
       -0.038766634 -0.01955806 0.09684344 0.017490856
0003e0 3b c3 cc bb b6 a3 f4 3d 8a 85 c4 3c 74 ef 29 bd
       -0.006248859 0.11945288 0.023989458 -0.041488126
0003f0 d5 75 f9 bd 93 fe 80 bd 5f 99 e8 bd 0a fe 26 be
       -0.12180678 -0.06298556 -0.11357378 -0.16307846

conv2.bias f4 [32]
000000 4e 64 3b bd d6 41 09 bd 5c 9a 63 bc 12 84 88 ba
       -0.045749955 -0.03351005 -0.013891783 -0.0010415337
000010 f5 fc a8 bd 0b 3c a2 3b 9e 1c 97 bd 2d cd 19 bd
       -0.08251373 0.0049510053 -0.07378505 -0.037549186
000020 4a b9 5d bd cb 6e d5 ba 86 97 8a 3d 6d 25 c6 bc
       -0.054131784 -0.0016283629 0.06767182 -0.024187768
000030 6c a3 ba bc 2e a0 54 bc f8 71 59 bb d0 de 2a bc
       -0.022783004 -0.012977643 -0.0033179503 -0.010429099
000040 88 64 84 bd 23 08 0b be 4e 40 36 bd 71 0c b2 3c
       -0.06464487 -0.13577323 -0.04449492 0.021734448
000050 08 a8 85 bd 41 b5 ba bc 15 21 05 bd f0 c1 06 bd
       -0.0652619 -0.022791507 -0.032502253 -0.032899797
000060 9b ec c8 bd 3f 48 97 bd 30 dc 6e bd e0 ea 94 bd
       -0.09810754 -0.07386827 -0.058315456 -0.07271361
000070 ee 6f 97 bd af ae 7b bd 6c 98 8e bb ce 4b 98 bd
       -0.07394396 -0.061445888 -0.004351666 -0.074363336

conv3.weight f4 [32, 32, 5, 5]
000000 88 27 b8 3d 3d d0 b7 bd a5 83 49 3c b0 a6 ca bd
       0.08991915 -0.08975265 0.012299453 -0.09895074
000010 ac 91 f7 3d 26 f6 72 3d b4 cb cc bd e5 15 df bb
       0.120883316 0.059316777 -0.09999791 -0.00680803
000020 4d 0f 94 bd 63 ad d5 bd da 1d f0 3d d0 39 04 3e
       -0.07229481 -0.104334615 0.11724444 0.12912679
000030 ba 8a b8 bd 86 a6 aa bd 2d eb c8 3c ba 26 a4 3c
       -0.09010835 -0.08332543 0.024526203 0.020037998
000040 2d 9f de 3d ca d8 6b 3d 4d a0 1b be 0b 2d 74 bd
       0.10870204 0.057579793 -0.15197869 -0.05961327
000050 90 7d ed 3c ce 97 d5 3c 1c 5a c8 bd 80 28 4b bb
       0.028990537 0.026073363 -0.09782812 -0.0030999482
000060 83 b7 db 3d 11 ab a1 38 b6 73 a5 bd 96 88 99 bd
       0.107283615 7.708942e-05 -0.08078711 -0.07496755
000070 69 f2 ec 3d 0c 57 82 3d d7 8e 18 bd 81 e9 05 be
       0.115696736 0.06364259 -0.037245598 -0.13077356
000080 f9 dc 76 bd 34 1b d0 3d 3b a0 3f 3e d6 b4 1b 3e
       -0.06026933 0.101614386 0.18713467 0.15205702
000090 13 f0 69 bd ae da 99 3c 1c a1 80 bb 62 9a 19 bd
       -0.05711372 0.018781032 -0.0039254557 -0.037500747
0000a0 14 d7 d7 3d 84 b3 af 3c be a8 8e 3d 43 a7 94 bd
       0.1053907 0.021447904 0.06965779 -0.07258465
0000b0 5c d1 85 3d 04 5b b4 3b f0 21 37 bc cd 7d 4b 3e
       0.06534073 0.005504014 -0.011177525 0.19872208
0000c0 c8 54 d1 bd 38 96 88 bd 0c 97 db bd a2 83 a8 3d
       -0.10221249 -0.06669277 -0.10722169 0.08228232
0000d0 63 25 5b 3d 2e fd 40 be 65 7d b7 bd 9e 6f 38 3e
       0.05350245 -0.1884658 -0.08959464 0.18011329
0000e0 5a 1f 04 3d eb ea d1 3c 4b 7a 80 bd 93 f5 dc b9
       0.03225646 0.025624713 -0.062733255 -0.00042144637
0000f0 f7 cf 40 3e 42 5a 4a bc 56 3b 58 bd ce d6 cb bd
       0.18829332 -0.012350621 -0.052790962 -0.0995308
000100 74 1a c3 bd 24 06 c6 bd 0b b5 a6 bd 4f 4c d2 bd
       -0.0952653 -0.0966914 -0.0814 -0.10268461
000110 e8 67 15 3e 12 51 17 bd 6d bb dd 3d 24 ba a8 3c
       0.14590418 -0.03694255 0.10826764 0.020596571
000120 9e 98 e1 bd 46 9d 2e 3c 34 da af 3b 2f eb a6 bd
       -0.110154375 0.010657614 0.005366588 -0.081503265
000130 00 83 0f 3e 7c 56 1c 3d 69 29 bd 3d a4 3e b6 bd
       0.14014816 0.038168415 0.09236414 -0.088986665
000140 49 97 55 bd 05 db 3a bb 09 10 83 3d fd 88 52 bd
       -0.05214623 -0.0028511893 0.06399543 -0.051400173
000150 79 8a e1 3d 16 6b ba 3d af cf 61 3d 3e 7a 46 bd
       0.1101274 0.09102456 0.055129703 -0.048456423
000160 cf 9d 87 bd 42 2c ad bd 17 e5 eb 3c 65 c2 d2 bc
       -0.066218965 -0.08455707 0.028795762 -0.02572746
000170 ba 7d 90 bd 1c 39 13 be 41 e6 14 bd 14 d6 1b 3d
       -0.070552304 -0.14377254 -0.0363524 0.038045958
000180 48 de c2 bd 5a 62 e5 bd 47 52 53 3e bd b5 c8 3c
       -0.09515053 -0.112004 0.20636855 0.024500722
000190 0c 38 2c be 7e 47 ea 3d ea 25 d5 3d 82 df a7 3c
       -0.16818255 0.11439417 0.10407622 0.020492319
0001a0 af c1 01 3e 5a 61 03 be 01 8f a8 3d bf 56 6e 3c
       0.1267154 -0.12830105 0.08230401 0.014547049
0001b0 24 bb ff 3d 31 e6 1f be d9 92 84 3d dd 6d 64 3e
       0.12486866 -0.15615155 0.064733215 0.22307535
0001c0 41 91 12 3d ce e3 f9 bd 01 21 aa bd c5 80 e8 bc
       0.035783056 -0.122016534 -0.08307076 -0.028381715
0001d0 8e 04 09 3b c2 67 8f 3a 08 de 00 3e 74 b7 05 be
       0.0020907256 0.0010940956 0.12584698 -0.13058263
0001e0 c8 61 48 bd 89 0c d4 bd 32 33 83 3d b6 ec 28 3e
       -0.048921376 -0.103539534 0.06406249 0.16496548
0001f0 a2 43 9d bc c9 00 ce 3d b3 66 05 3c 54 00 60 be
       -0.019197289 0.100587435 0.008142161 -0.21875125
000200 dd 7e 33 bd ee 89 86 bb 20 15 ab bd 1e 48 87 3b
       -0.043822158 -0.004105798 -0.08353639 0.00412847
000210 5f 2b 88 bd 98 12 b1 bd 3c 65 1f be 03 11 1a 3d
       -0.066488974 -0.086461246 -0.15565962 0.03761388
000220 bc db 88 3d 45 c8 90 3d 73 66 9b 3b c8 0c f3 bd
       0.06682536 0.070694484 0.0047424375 -0.11867672
000230 55 69 ce 3c b0 34 15 3e 77 f6 e9 3d 41 56 e2 bd
       0.02519671 0.1457088 0.114239626 -0.11051608
000240 6f c3 39 be 93 e0 9c bd 0c 06 97 3d f3 94 75 bd
       -0.18140958 -0.07660022 0.073742 -0.059956502
000250 9d 73 8d bd ac ab 24 bd 4f e9 17 3d 4d a8 1f bd
       -0.06906817 -0.04020278 0.037087735 -0.038978864
000260 2e b9 ea 3c ea 58 cb 3b 17 ea f2 3d 9d a9 cc bd
       0.028652754 0.0062056677 0.11861055 -0.09993289
000270 5e c1 1b be 55 14 b7 bd 9b 61 4f bd 4d c9 94 3d
       -0.15210482 -0.08939425 -0.050630193 0.072649576
000280 94 e6 8a bd 67 77 eb 3d dc 23 1a be 0a 6e 45 be
       -0.067822605 0.114973836 -0.15052742 -0.19280258
000290 c4 36 ea bd 6c 84 d4 bc 29 c8 85 3d b9 56 cd 3d
       -0.11436227 -0.02594205 0.06532318 0.10026307
0002a0 1c 03 87 3b 71 45 a8 bd 5f 8e 82 bc ca ca 97 bd
       0.0041202437 -0.0821637 -0.015937028 -0.07411726
0002b0 bc 81 df bd 71 6b e8 bd 35 05 84 bd 05 74 b4 bc
       -0.10913417 -0.11348618 -0.06446306 -0.022027979
0002c0 de 84 d1 bd 03 81 ed 3d 9b f3 38 bd 66 07 49 3e
       -0.102304205 0.11596873 -0.045154195 0.19631729
0002d0 c8 39 e8 3d b0 12 b8 bd 5f 68 87 bd 7e 14 89 3d
       0.11339146 -0.08987939 -0.06611704 0.06693362
0002e0 dc 49 31 3d 90 d9 3c 3d 13 f8 a6 bd 3b 12 9f 3c
       0.04328333 0.04610592 -0.08152785 0.019417873
0002f0 7b 12 05 bd ab c7 66 3e ce 5a a3 bd fd b8 7f bc
       -0.032488327 0.22537105 -0.07976304 -0.0156080695
000300 a0 5e 85 bd 8e 2d b0 bb c8 bc 92 bd 25 59 9b 3b
       -0.06512189 -0.0053765243 -0.071649134 0.0047408515
000310 2c 67 b1 bd 86 68 30 be fd 1f 8f 3d 92 d3 fa bc
       -0.086622566 -0.17227373 0.06988523 -0.030618463
000320 f4 9b 0e 3d 75 c9 04 bc 39 f4 e1 bd d3 bb 3b 3b
       0.034816697 -0.008104672 -0.1103291 0.0028645888
000330 e7 16 05 be 18 f7 84 bd 96 be bc bc c7 2c 17 bc
       -0.12997018 -0.06492442 -0.023040097 -0.009226984
000340 f4 92 c2 3c c6 8a 1d 3c 21 43 87 3d 74 68 bd bd
       0.023751713 0.009615606 0.06604601 -0.092484385
000350 4c a9 2f 3d f5 0b cb 3c a5 f9 a9 3c e1 45 d5 3c
       0.042886063 0.024785975 0.020748923 0.026034297
000360 61 13 84 bd 02 0c 03 bd fc 8b ec bd 5d 7a 20 bd
       -0.06449009 -0.031993873 -0.115501374 -0.039179195
000370 06 83 b9 39 1f 72 49 3e d3 07 60 3e 89 3c 74 bd
       0.0003538357 0.1967244 0.21877985 -0.059628043
000380 2f d1 5b be 14 a6 9b be f0 2f 11 bd 45 21 1f 3c
       -0.21466516 -0.30400145 -0.035446107 0.009712522
000390 34 c7 05 bd 88 82 82 bd 47 6d 48 bd d0 0d d9 3d
       -0.032660678 -0.06372553 -0.04893234 0.10598338
0003a0 b1 dc 51 bd a5 25 a8 3d 38 d0 07 3d 22 b7 2b be
       -0.05123586 0.08210305 0.033157557 -0.16769078
0003b0 15 ad e6 bc a3 3d 31 bc c6 a8 21 be 85 a5 b7 3d
       -0.028158704 -0.010817918 -0.15787038 0.08967117
0003c0 e8 4e 97 3c 96 2e 99 3d 27 08 db bd e1 75 56 3e
       0.018470243 0.07479589 -0.10694914 0.20943405
0003d0 5d 78 fd bd 3b 39 0f be bb ee 67 3b 03 ee d8 3d
       -0.12376473 -0.13986675 0.0035390097 0.10592272
0003e0 b3 0a 12 bd b0 22 82 3d 01 5e 21 bd 70 6e 95 bd
       -0.035654735 0.06354272 -0.03939629 -0.07296455
0003f0 79 5b 4d 3e 6b c3 ed 3c 94 ab 58 bc 36 6c b1 bd
       0.20054425 0.029023847 -0.013224501 -0.08663218

conv3.bias f4 [32]
000000 56 8a b5 bd d0 5d 16 be f7 dc d3 bd ef 25 cc bd
       -0.08864276 -0.14684224 -0.1034488 -0.09968173
000010 e8 2b 19 be 14 fa 26 be 83 14 79 bd ac 9a f2 bd
       -0.14958155 -0.16306335 -0.060810577 -0.118459076
000020 bc d8 7e bd 76 d7 02 be dd 9b 75 bb e6 b1 2d bd
       -0.062218413 -0.12777504 -0.0037476935 -0.042405985
000030 27 64 0f be ff 29 b5 bd 6d 50 88 bd a7 00 86 ba
       -0.14003049 -0.08845901 -0.06655965 -0.0010223583
000040 c1 36 c0 bd ed 68 a7 bd 8a eb 04 be c5 83 01 be
       -0.093854435 -0.0817431 -0.12980476 -0.12647922
000050 9a 82 d4 bd 84 92 bb bd 80 57 87 bd d8 c0 21 be
       -0.10376473 -0.09158805 -0.06608486 -0.1579622
000060 68 f7 05 be 1c 69 c3 bd a9 07 9a bd 75 44 6b bd
       -0.13082659 -0.095415324 -0.07520992 -0.057438333
000070 f3 2e 37 be a0 97 ad bd 0a 06 bb bd c6 4d 18 be
       -0.17889003 -0.08476186 -0.09132011 -0.14873418

conv4.weight f4 [32, 32, 5, 5]
000000 9c 19 64 bd fa 5b 4d bd 81 e7 72 3d 78 26 c2 bc
       -0.055688486 -0.050136544 0.05930281 -0.023699984
000010 33 0d fd 3d 3b 55 d5 bc 91 e3 b0 bc 57 b5 d8 3b
       0.12356033 -0.026041618 -0.021592887 0.0066134143
000020 b7 ba 43 3c d8 80 f3 bb 2a 09 87 bd 3f ed 02 bd
       0.011946372 -0.007431131 -0.06593545 -0.031964537
000030 cf 42 06 3d db 92 2c 3d c6 05 50 bd 92 58 d3 3d
       0.032778557 0.04213224 -0.050786756 0.10319628
000040 ff e8 e8 bd cd 5e df 3d 5c 7e 2a bd 80 48 ae bb
       -0.113725655 0.10906754 -0.041624412 -0.0053187013
000050 2f eb 5b bd 53 15 a7 3d 97 e3 e5 3d 31 21 87 bd
       -0.053691085 0.08158364 0.1122505 -0.06598128
000060 05 1a ca bb 6f 4f 6e 3c 56 1e 07 3d 08 5d 3f 3d
       -0.0061676526 0.014545306 0.032987915 0.04671958
000070 c1 1f b9 3c 43 2f 75 3e 33 33 52 bd f0 26 e9 bd
       0.02259815 0.2394381 -0.05131836 -0.1138438
000080 c9 d7 07 3e 7f 6b a2 3c e4 a4 4e 3d 89 e7 97 bd
       0.13265909 0.019826649 0.05045022 -0.07417209
000090 50 97 65 bc b1 9a 80 bd 44 ae 4b bd dc 54 37 bd
       -0.0140131265 -0.06279505 -0.04972674 -0.044758663
0000a0 4b c5 1b 3d f9 20 b9 3c 25 45 5c bd ec 04 ff 3b
       0.03802995 0.02259873 -0.05377688 0.007782569
0000b0 cb 2c 3d bd 28 4b 90 3d 8f 15 9b ba 78 45 c5 3d
       -0.046185296 0.07045585 -0.0011831986 0.09632391
0000c0 c7 d6 ef 3c d8 4b fd 3d dc db 44 3e 24 57 09 bd
       0.029277219 0.12367982 0.19224495 -0.03353037
0000d0 54 48 c4 bd 17 01 0e bd 43 6a b4 bb ec e0 b3 3d
       -0.09584108 -0.034669008 -0.0055058314 0.08783135
0000e0 94 4d fe 3b dc 03 d9 3c d0 ba 4f 3d 1a 32 6b bd
       0.007760713 0.026491098 0.050715268 -0.057420827
0000f0 49 62 80 3d a6 ca a1 bd 47 0f 42 be a7 1a 00 3d
       0.062687464 -0.0789998 -0.1895114 0.031275418
000100 e4 33 aa bc 1f 0d 93 3d 26 6d ab bd d3 19 d6 bd
       -0.020776697 0.07180237 -0.08370428 -0.10454144
000110 5e d9 ee bd e6 c0 5b 3d 8f 52 bd 3d fc 9a 85 bd
       -0.11662553 0.05365076 0.092442624 -0.065237015
000120 d9 04 24 be 70 0e a7 bd 89 23 af bc 0c ff 1a 3e
       -0.16017474 -0.081570506 -0.02137925 0.15136355
000130 a4 b5 0b 3e 5e 7a 11 be cf 36 82 be 4d 96 35 be
       0.13643509 -0.14206836 -0.2543244 -0.17733116
000140 9f f1 d4 3d ce a8 70 bc 21 0a f2 3d 4a 8c 3e be
       0.10397648 -0.014688684 0.11818338 -0.18608204
000150 2d 33 16 be 66 d5 e6 3b c9 8b a4 bc 97 64 a0 3c
       -0.1466796 0.007044482 -0.020086186 0.019579215
000160 26 0d 0a be e8 57 01 be fd b8 99 3d 52 c2 3d 3d
       -0.13481578 -0.1263119 0.07505987 0.046327896
000170 11 37 ed 3a b8 aa 53 3c bb d3 87 bd cf 89 83 3d
       0.0018098076 0.0129191205 -0.06632181 0.06422769
000180 39 07 98 bd 15 ab c7 bc 2c 6a ec bd 59 94 3d bc
       -0.074232526 -0.02437357 -0.11543688 -0.011571013
000190 d4 a9 7d 3d 37 bf ce bc 2d dc 45 bd 74 cc 6d bd
       0.06192954 -0.025237663 -0.04830568 -0.05805631
0001a0 88 47 b3 bd 33 1a 89 3d 97 6d 8b 3c 55 4f 9f 3d
       -0.08753878 0.0669445 0.01702003 0.07778803
0001b0 c8 dc f3 bc a4 ba 16 3d 78 d9 03 3e c8 5d 0b 3e
       -0.029768363 0.036799088 0.12875926 0.13609993
0001c0 29 04 13 3d 19 0a 56 3d 66 9c d1 bb a8 4c 56 3e
       0.03589264 0.052255724 -0.006396818 0.2092768
0001d0 22 c1 0d 3e 6e 93 2d 3e 04 40 b3 3d 4a b6 39 bc
       0.13843206 0.16950771 0.087524444 -0.011334965
0001e0 40 b4 39 3d a8 d1 d5 3d 12 35 3e 3d b1 2a 4e 3c
       0.045337915 0.104403794 0.04643733 0.012583421
0001f0 7f 32 f3 3d dd 94 1f 3d 0f a0 8b 3d 7c 1c c1 bb
       0.11874866 0.038960326 0.06817638 -0.005893288
000200 d3 83 0a 3e 0d f5 04 3e 19 2b 35 be 0a 90 11 bc
       0.1352685 0.12984104 -0.17692222 -0.008884439
000210 e0 9a 13 3e 90 99 96 3c 80 c8 53 3d 71 df 26 be
       0.14414549 0.018383771 0.051704884 -0.16296174
000220 49 4d 29 bd f9 cd 20 3d 49 b1 1a bc bb 6e 6c 3d
       -0.04133347 0.03925893 -0.009441682 0.05772279
000230 97 80 19 be 69 2f 60 bd 7c b0 d8 3d 26 ea 93 bd
       -0.1499046 -0.054732714 0.10580537 -0.07222395
000240 23 ae a4 bb 0b 5a 33 bd 6e f2 00 be 1c 00 b1 bd
       -0.0050256415 -0.043787044 -0.1259248 -0.08642599
000250 ef 38 a1 bd 1a 48 f5 3c f4 13 bb 3d a2 10 b1 3d
       -0.07872187 0.029941607 0.09134665 0.086457506
000260 7a f7 4d 3d 5e eb 09 3d fc a4 29 3e 09 b3 15 3e
       0.05028484 0.03367173 0.16566843 0.14619078
000270 aa 2b 0f 3c 53 e5 f1 3d d3 f1 14 bc 0a 80 c4 3d
       0.008738438 0.11811318 -0.0090908585 0.09594734
000280 82 bd 58 be 9a ec a2 3c 3d 50 01 3b 43 00 3d bd
       -0.21166041 0.019888211 0.0019731664 -0.046142828
000290 f1 55 68 bd 82 af 11 be 57 b1 e9 bd 09 e3 47 3d
       -0.056722585 -0.14227107 -0.11410778 0.048800502
0002a0 23 20 c3 bd d8 fa ad 3c 34 b1 fc bd 33 6e da bd
       -0.09527614 0.021237776 -0.12338486 -0.1066555
0002b0 30 bc 87 bd 0a c9 6e bd 53 08 0a bb 0a 3c e9 3d
       -0.06627691 -0.058297195 -0.002106209 0.11388405
0002c0 7c 1e ed 3d 12 8e a4 bc f2 08 4f be 92 c7 cd bd
       0.1157808 -0.020087276 -0.20218256 -0.10047831
0002d0 85 84 e1 bc ce 2f 66 bd 36 a4 53 bd ec fc 83 bd
       -0.02752901 -0.056197934 -0.051670276 -0.064447254
0002e0 21 a7 fe bd f7 6f 9d bd fa 24 26 3d 42 2f 56 be
       -0.12434221 -0.07687371 0.040562607 -0.20916465
0002f0 d1 7e cd bd 0c 03 c6 bd c2 93 d7 bd 7b b2 d2 bd
       -0.10033954 -0.0966855 -0.105262294 -0.10287949
000300 ed 0a 28 be 57 69 37 bd 5d 36 87 bd 78 cc 78 bd
       -0.16410418 -0.044778194 -0.06602166 -0.06074187
000310 14 f0 37 3c 49 09 3a 3d dd 0b da bd 0c 74 e5 bd
       0.011226673 0.04541901 -0.10646794 -0.11203775
000320 81 c9 35 3e be b4 24 3d 0a 70 6c 3d c0 5d 10 be
       0.17752649 0.04021143 0.057724036 -0.14098263
000330 3d 68 cb bd a4 4d 14 3e fe b2 dc 3d 0a 4c 52 bd
       -0.09931991 0.14482743 0.107763276 -0.051342048
000340 66 3e 16 be de 8a cf 3c a6 82 11 3d ac 11 f6 3d
       -0.1467224 0.025334772 0.035524987 0.120150894
000350 cf d7 4d 3d e6 6c 51 be 71 01 83 bd 15 d9 07 be
       0.05025464 -0.20451698 -0.06396759 -0.13266404
000360 32 5c 4b be 20 3e 95 3c dc 3e b9 bc dd 8b 10 bd
       -0.19859388 0.0182181 -0.022612981 -0.035289634
000370 bb 41 fe bd 63 43 f9 bd 23 4b 82 3d d6 11 22 be
       -0.12414881 -0.12171056 0.063619874 -0.15827116
000380 59 ab df bd 42 1a c4 ba 43 65 af bb f7 2b 8f 3c
       -0.10921354 -0.0014961439 -0.0053526475 0.017477019
000390 1a 48 02 3e 85 4e 98 3d 3e 13 82 bc 93 eb c1 3d
       0.12722817 0.074368514 -0.015878316 0.0946876
0003a0 93 9d 01 3e f2 56 ce 3b ca 22 a9 bd bf ed d1 bb
       0.12657766 0.006296986 -0.082585886 -0.0064065154
0003b0 23 54 24 3e e2 f7 b9 bd 53 6e 10 3d 3e 3e 33 3d
       0.1604772 -0.09080483 0.035261463 0.04376053
0003c0 11 87 95 3d 10 60 56 3e f6 d8 19 be e3 13 06 3d
       0.073011525 0.20935082 -0.1502417 0.03273381
0003d0 c9 7b 40 be 59 9e 02 bd 2a b3 22 3e 64 fb fa 3c
       -0.1879722 -0.031889293 0.15888658 0.03063745
0003e0 fb 10 cf bc f3 b1 f8 bc 48 d2 35 3d 0a b5 8f 3b
       -0.025276652 -0.03035829 0.044389993 0.004385595
0003f0 a5 89 d6 3b 39 ae 9b bc b0 c4 40 bd ee 16 06 be
       0.00654717 -0.019003974 -0.047062576 -0.13094684

conv4.bias f4 [32]
000000 62 f5 92 bd a2 cf de bd bd f7 94 3c 93 42 2d be
       -0.07175709 -0.108794466 0.018184537 -0.16919927
000010 6c cd 3c be 43 0c 12 be 87 c2 3f be 8a b6 b9 3b
       -0.18437737 -0.1426249 -0.1872655 0.0056675123
000020 36 4a 24 be 43 c8 a8 bd 83 a8 25 be da 75 0f 3d
       -0.16043934 -0.08241322 -0.16177563 0.0350245
000030 eb 00 4f bd 22 be c4 bd 87 0f f9 bc 03 37 7b bd
       -0.050537985 -0.096065775 -0.030402912 -0.06133176
000040 72 e6 e2 bd 8b b4 bf bd 19 68 e1 bd 69 c8 cc bd
       -0.1107911 -0.09360608 -0.11006183 -0.09999163
000050 c9 d0 11 be 17 8e 68 3c a3 11 01 3e 0d 9e 0e be
       -0.14239801 0.014194033 0.12604384 -0.13927479
000060 5c 54 ad b7 50 72 bf bd b0 aa c7 bd 82 4b c4 bd
       -2.066249e-05 -0.09347975 -0.09749353 -0.095847145
000070 61 a9 1b be 65 ac ff bd 10 6a 00 be 90 71 01 be
       -0.15201332 -0.124840535 -0.1254046 -0.12640977

conv5.weight f4 [32, 32, 5, 5]
000000 ad 84 f9 3c 6f 7b be bd cc 3d c2 3d 9a d7 a3 3d
       0.030458773 -0.09300887 0.09484443 0.08000107
000010 3f 5c 9e 3d 7f c8 35 bd 40 18 27 bd 82 4e ce 3c
       0.07732438 -0.04438066 -0.04079461 0.02518392
000020 e5 87 2a 3e 01 bc a5 3d 57 ac f8 3d c6 ce 57 bd
       0.16653402 0.080924995 0.12142246 -0.05268743
000030 80 86 76 bd 10 a3 51 3d 21 62 b9 3d 29 24 4a 3e
       -0.060186863 0.0511809 0.0905192 0.19740357
000040 c1 b5 d0 b8 6e 5a 28 bd 4e c3 79 bc cc 1e 9b 3d
       -9.952067e-05 -0.041101865 -0.015244318 0.075742334
000050 06 4f f1 3c b6 96 9e 3c 38 47 f4 bc 7c 14 b3 3b
       0.029456627 0.019358974 -0.029819116 0.0054650884
000060 44 8f cd bd 49 6f 5f 3e 11 14 e1 3c a1 b7 51 bd
       -0.100370914 0.21819796 0.027475389 -0.051200513
000070 56 d2 63 bd ad ed 8c be 0a 29 37 3d 15 5b 08 3e
       -0.055620514 -0.27525082 0.044716872 0.13315995
000080 f0 2c e3 3c 15 84 8e bd 61 31 28 bc 3a 0d 44 bd
       0.027731389 -0.069587864 -0.010265679 -0.047864176
000090 4d 02 27 3b de 9a 37 3c 2a 22 32 bd 8e 5a b3 ba
       0.002548355 0.011206357 -0.043489613 -0.0013683604
0000a0 fb af b4 bd 0a 04 1a be fa d5 09 bd 74 54 86 bc
       -0.08822628 -0.15040603 -0.03365133 -0.016397692
0000b0 71 db c3 bd c0 cb 90 bc 02 c2 66 bd 65 fe c8 3c
       -0.095633395 -0.01767528 -0.056337364 0.024535367
0000c0 1d 16 c5 3d 29 2c 86 3d 03 94 b5 3d 4a 66 17 bc
       0.096233584 0.06551392 0.088661216 -0.009240696
0000d0 48 05 92 bd fb cb 3f be b2 3c d4 bc 43 dc b8 bc
       -0.071299136 -0.18730156 -0.025907848 -0.022565966
0000e0 83 9e 0b bd c8 79 d6 bd 06 aa 37 be ba 3f ea bd
       -0.034086715 -0.10472447 -0.17935953 -0.11437936
0000f0 1c 8e b7 bd 7d eb a7 3c d7 ef 82 3d 44 56 06 be
       -0.08962652 0.020498032 0.06393402 -0.13118845
000100 17 c1 ac bd 2f 2e 28 bd bf 89 5a 3c d9 3b d9 3c
       -0.084352665 -0.04105967 0.013338505 0.026517795
000110 20 cd 19 bd ba ad e3 3a 19 ac b3 3a b9 1c 03 3d
       -0.037549138 0.00173705 0.0013707905 0.032009814
000120 5b 94 b5 bc cc 06 8b 3d 31 3e e2 3d 60 2a 9f 3d
       -0.022165468 0.06788406 0.11047018 0.07771754
000130 59 51 10 3e 8d 8e 0a 3e 52 13 f9 3d 27 2f 92 bd
       0.14093532 0.13530941 0.12161888 -0.071379
000140 0d a5 f7 3b 33 e2 f3 3d 8f eb 27 3e a4 85 24 3e
       0.0075575174 0.119083785 0.16398452 0.16066605
000150 86 5f b4 3c af 27 6e 3d a8 fd 5e bd a1 99 69 3d
       0.022018205 0.058143314 -0.054441124 0.057031278
000160 9d d5 37 3e ea 3a c8 3d bc 15 9f 3d 88 f1 7c bc
       0.17952581 0.09776862 0.077678174 -0.015438445
000170 be 8a 17 be fc 05 7a 3c d7 f0 6f 3d d3 81 1d be
       -0.1479902 0.015260216 0.058579292 -0.15381555
000180 99 35 3d 3e 00 85 98 bc 70 11 9c bd 4e 77 3c be
       0.18477477 -0.018618107 -0.076205134 -0.18404886
000190 68 e6 5a bd c7 bf 6a bd 95 92 4a 3d 68 e6 5f 3d
       -0.05344239 -0.0573118 0.049456198 0.054663092
0001a0 b4 db 3b bc f1 8d 9e 3c c3 51 6f bc 5e a9 9c bd
       -0.0114659555 0.019354792 -0.014606896 -0.07649492
0001b0 32 21 e4 bb c1 de 93 3d 74 dd c4 bc 9d f3 3c bd
       -0.006961965 0.07220221 -0.024031378 -0.046130765
0001c0 0d 81 0b bd 99 55 89 bd 62 e6 95 3d 13 f5 d7 bc
       -0.03405862 -0.067057796 0.07319333 -0.026361978
0001d0 ef 3d 41 3c 22 c5 b2 bb e7 38 b4 bd ea 57 9a bb
       0.011794551 -0.005455629 -0.08799916 -0.004710187
0001e0 cd dd 83 bb 6c 58 56 3c 46 b6 a6 3d 2d 6c 1c bc
       -0.0040242434 0.013082605 0.08140235 -0.0095472755
0001f0 e2 50 6b bb f4 54 3f 3e ad 87 d9 3c 6b 38 92 3d
       -0.0035906364 0.18684751 0.026553953 0.07139667
000200 64 be 8a 3d 00 dc ee 3d 82 de 0b 3e 53 2f a5 3d
       0.067745954 0.116630554 0.13659099 0.08065667
000210 48 fa a7 3d db 0c d0 3d d8 97 19 3d e9 5b 1f 3d
       0.08202034 0.10158702 0.037498325 0.03890601
000220 03 04 13 bc 10 dc 3e 3d c2 71 3b 3b f5 57 99 3d
       -0.008973124 0.046596587 0.002860174 0.074874796
000230 c6 60 37 3d ec 52 e4 bd 07 9f bf bc 91 91 73 3d
       0.044770025 -0.111486286 -0.02339126 0.059464995
000240 f4 bc 4c 3d fb 40 d9 3d fc de 13 be 8d f6 0a bc
       0.049984887 0.10608097 -0.1444053 -0.008481634
000250 f4 9a 87 bc 93 3e 82 bd de d5 59 bd 47 64 f2 bc
       -0.01655338 -0.06359591 -0.053182475 -0.029588832
000260 86 16 85 bc f2 2f 15 3e 39 29 c1 3d 6a a5 06 be
       -0.016246092 0.14569071 0.09431691 -0.13149038
000270 ec 4e e4 bd 32 64 8f bd 4a 8f b1 b8 83 25 db bb
       -0.11147866 -0.070015326 -8.4667074e-05 -0.0066878214
000280 72 1f 90 be a2 90 d1 bd e3 a2 9b bd f6 42 74 bd
       -0.2814899 -0.10232665 -0.075994276 -0.05963417
000290 04 4a e1 bd a0 a0 d2 bd ac 2c 12 3c 55 0e 9d bd
       -0.110004455 -0.10284543 0.008921783 -0.07668749
0002a0 88 18 0f bd c7 36 0a be a7 d7 56 3d 06 16 8c 3d
       -0.034935504 -0.13497458 0.052451756 0.06840138
0002b0 5c 68 bd bd 25 b8 87 bd d5 14 46 be 22 1d da bd
       -0.092484206 -0.0662692 -0.19343884 -0.10650088
0002c0 22 1d 28 bd f8 1a 43 3d e0 68 de 3d 6c f2 10 3e
       -0.04104341 0.04763314 0.10859847 0.14154977
0002d0 c9 a3 a9 bd 1c b6 8b bd 74 ad f8 3b 55 4c 9d 3d
       -0.08283193 -0.06821844 0.0075890366 0.07680575
0002e0 76 1e 07 3e 74 7c 18 be 52 52 09 be 10 b1 cc bd
       0.13195214 -0.14891225 -0.13410309 -0.099947095
0002f0 c6 8d b9 bd 6a 13 7e bd 93 63 c9 bd e6 21 af bd
       -0.09060244 -0.062030233 -0.098334454 -0.085513875
000300 69 07 37 bd 76 6a 33 be 25 0e d4 bc 8d 06 9d 3a
       -0.0446848 -0.1752108 -0.02588565 0.0011980102
000310 49 f4 c3 bd 45 ef d0 bd f5 2c 5d be 98 30 dd 3c
       -0.09568078 -0.10201887 -0.21599181 0.02700071
000320 f8 53 b2 3c f0 42 2a 3b 7d db b1 bc 44 a0 3e 3d
       0.021768555 0.002597984 -0.021711105 0.04653956
000330 e3 2b b2 3d 5e 70 8d 3a d3 26 c0 3d b6 13 4e bb
       0.08699777 0.0010790934 0.09382405 -0.0031444854
000340 76 7c 8e bc 7c 03 f3 3b 71 6c 00 be 61 36 8f 3e
       -0.017393332 0.007416187 -0.12541367 0.27971175
000350 51 f4 53 3d 10 8e 39 bd 40 9a 19 3d e6 28 6a bd
       0.05174667 -0.045301497 0.03750062 -0.05716791
000360 70 65 9e 3e 73 86 10 3e c3 0b 23 3d 1f 00 48 3c
       0.30936766 0.14113788 0.03980614 0.01220706
000370 98 7c 3c bc 8c 6a 8b 3e c7 88 b0 bc 85 17 61 bd
       -0.011504315 0.27229726 -0.021549596 -0.05495407
000380 bd 53 b4 bd 1d 22 9d 3c 0b 81 5d 3d df 7b a0 3c
       -0.08805034 0.019181306 0.054078143 0.019590316
000390 47 a9 1b 3b b9 e5 39 3d 71 4e 43 bd 96 5f 93 bd
       0.002375202 0.045385096 -0.04768223 -0.07195966
0003a0 77 22 9d 3a 4a 61 7a 3c 1a 30 c8 bc 3b 7a 4a bd
       0.0011988421 0.015281985 -0.024437 -0.049432974
0003b0 1e fd 81 bd 80 c6 48 be 5b f4 19 ba 25 93 dc 3c
       -0.063471064 -0.19606972 -0.00058728986 0.026925633
0003c0 ed 68 50 3d be 25 07 be bc bf 55 be 17 86 17 bd
       0.050881315 -0.13197991 -0.20873922 -0.036993112
0003d0 ba a7 8e 3c 24 2f b5 3d 5f 74 e0 3b 9f 51 07 be
       0.017413963 0.08846882 0.00684981 -0.1321473
0003e0 50 d7 f9 bc 2a d6 6f bc 10 09 5d 3e ac 39 05 3e
       -0.030498177 -0.014638463 0.21585488 0.13010281
0003f0 e7 ec 16 3d b0 0b 33 bb 58 f0 13 3e 2b 51 10 3e
       0.03684702 -0.0027320199 0.14447153 0.14093463

conv5.bias f4 [32]
000000 89 17 de bd 15 03 bd bd cc 45 05 bd 39 7c 85 bd
       -0.10844333 -0.092291035 -0.032537267 -0.06517834
000010 c8 70 ec bd 87 db ce 3d f2 5d 85 bd 55 c7 5e bd
       -0.11544949 0.10100465 -0.06512059 -0.054389317
000020 fe 2d 67 bd 76 4d 8f 3d d0 ab 1f be 16 f4 2a bd
       -0.056440346 0.069971964 -0.15592885 -0.041736685
000030 98 f1 86 3d 79 85 cf bd c5 29 20 be 74 38 f3 bd
       0.06589049 -0.1013288 -0.15640934 -0.11876002
000040 ac bd 73 bd 36 e6 27 be 52 9b d4 bd 52 94 04 be
       -0.059507057 -0.16396412 -0.103811875 -0.12947205
000050 66 bd e9 3d 46 e2 aa bd 2e 7f ad bd 98 dd 9c bd
       0.11413078 -0.083439395 -0.08471523 -0.07659453
000060 77 44 09 bd 14 1f c8 bd 25 e4 ee bd c0 b4 23 3d
       -0.03351256 -0.09771553 -0.11664609 0.0399673
000070 18 d2 cd bc 78 49 c1 bd d5 b3 48 3d 08 b0 aa 3d
       -0.025124595 -0.09437841 0.048999626 0.083343565

conv6.weight f4 [32, 32, 5, 5]
000000 48 8d 1e be 87 74 b4 bc e3 f2 82 3d 68 4a 0d 3e
       -0.15483582 -0.02202822 0.06393983 0.13797915
000010 6b 91 d0 3d bf 4a 4f be af b6 54 be 69 e0 8d bd
       0.10183986 -0.20243357 -0.20772813 -0.069275685
000020 ee cd d3 3d 9b 37 a1 3d ea 21 00 be 4f c5 4e be
       0.10342012 0.07871934 -0.12512937 -0.20192455
000030 79 d7 21 be db 34 18 3c 00 e5 9c 3d b0 31 19 be
       -0.15804853 0.0092899455 0.07660866 -0.1496036
000040 bf 76 48 be 1e 7f 04 be eb cc 6c bd d7 56 8a 3d
       -0.19576548 -0.12939116 -0.057812613 0.06754845
000050 6f 7c d5 bd 6c a0 31 be d7 b8 ab bd 9f df ef bc
       -0.104241244 -0.17346352 -0.08384865 -0.029281436
000060 e6 2c 59 ba 88 65 58 3a 0f ae 01 3c 16 52 2d bd
       -0.00082845835 0.00082548754 0.007915034 -0.04231461
000070 1a 37 cd bc ea 31 a0 3d 8a 7c 29 bb d8 22 4e bc
       -0.025050689 0.0782202 -0.0025861585 -0.01258155
000080 8a 1a c5 bd 02 7f 72 bc f8 14 0a 3e ae d9 18 bd
       -0.096242025 -0.014800789 0.13484561 -0.03731697
000090 e1 57 d3 bc b8 83 11 be 89 90 70 bc 07 ad be 3d
       -0.02579874 -0.14210403 -0.014682897 0.09310346
0000a0 9b 9d bd bd 05 9c a8 bc a7 17 84 bd 53 fd 8c bd
       -0.092585765 -0.020582208 -0.06449824 -0.06884255
0000b0 b5 ac 3a bc 80 a1 5d bd 9e 85 f6 bc 0e 2c b1 bd
       -0.011393716 -0.054109097 -0.03009301 -0.08650981
0000c0 c1 11 99 bd 76 f6 df bd 42 ce 95 3d 18 71 4d bd
       -0.074740894 -0.109356806 0.07314731 -0.050156683
0000d0 14 8b 03 3d 89 4f c6 ba 8b 83 96 3d 7b 5c d0 3d
       0.032115057 -0.0015129904 0.073493086 0.10173889
0000e0 a6 c6 05 3d ac 9b 69 3a 56 c8 81 3b 48 f2 b6 3d
       0.03266015 0.00089114415 0.0039606495 0.0893293
0000f0 f1 cf 8c 3d eb cb 54 bd f7 f0 76 bd 49 a5 4d 3c
       0.06875599 -0.051952284 -0.060288396 0.012551614
000100 5f 1e db 3d a7 4b 2b be bb f9 51 be 64 fd 0f be
       0.10699152 -0.16728078 -0.20505421 -0.14061505
000110 2c ac 88 bc a5 46 d6 3d 2d 42 94 bd 52 89 d3 bd
       -0.01668366 0.10462693 -0.072391845 -0.10328926
000120 5e 29 60 be 17 9c 3a bc 65 fd 04 3e 41 6a 34 be
       -0.2189078 -0.011389754 0.12987287 -0.17618658
000130 57 89 a1 3d 30 94 0a 3e 86 78 41 3e 85 4a b5 3d
       0.078875236 0.13533092 0.18893632 0.08852104
000140 3c b4 25 be 8e d9 14 3d b8 3b f5 3d 3a b9 49 3e
       -0.16182035 0.03634029 0.11974281 0.19699565
000150 5f 63 81 3d 26 89 4b be c6 1e 29 bd f1 3c 41 3d
       0.06317782 -0.19876537 -0.041289113 0.04717726
000160 2e b2 12 3e b0 9f 83 3d 42 b9 3c be b9 08 9d bd
       0.14325783 0.06426942 -0.18430045 -0.07667679
000170 13 4b c6 bc 76 41 87 3d bc 53 b4 3b ea 48 b4 bd
       -0.02420572 0.066042826 0.005503146 -0.0880297
000180 ec 0e 2d bd 2a 0f 39 bd a3 c4 20 3c ee 9a 2e 3b
       -0.04225056 -0.045180477 0.009812507 0.0026642638
000190 ea f6 27 bc d2 a8 fe bc da 03 ba bc 81 9e 6e bd
       -0.01025174 -0.03108636 -0.022706915 -0.05825663
0001a0 b9 2d 24 3d 55 0c 53 3c a0 58 05 be 32 e1 cc bd
       0.040082667 0.012881358 -0.13022089 -0.1000389
0001b0 f0 ce a2 bd 72 6f 87 bd c5 3e 06 3d 91 0c 93 bd
       -0.079496264 -0.066130534 0.032774705 -0.07180131
0001c0 c9 b7 83 bd 9b d4 13 be 26 d0 f2 bd db 5a f2 3c
       -0.064315386 -0.14436571 -0.118561074 0.029584339
0001d0 7d e5 ee 3c e2 2b 46 bc 8b 1a b8 bd bf 57 3d be
       0.029162163 -0.012095423 -0.08989438 -0.18490504
0001e0 a4 c7 fa bb 6c ec 61 3d 61 2e 83 3d 78 ae 57 bd
       -0.0076531935 0.05515711 0.064053304 -0.05265662
0001f0 61 3d 11 be 2b 5f b3 3d 33 a8 34 3d da 37 9c bb
       -0.1418357 0.08758386 0.04410572 -0.0047674
000200 9e b2 05 bc de 0f f8 3d d9 30 f4 3d b6 6b 8d 3d
       -0.008160261 0.121124014 0.119233795 0.0690531
000210 37 98 b6 bc b4 0e b9 3c d3 7e c5 3d 5e 21 cd 3d
       -0.022289379 0.022590019 0.096433304 0.1001613
000220 52 8e c0 3b cc 08 73 bd 11 02 23 3c 0b 96 4a 3d
       0.005876341 -0.05933456 0.009949223 0.0494595
000230 c6 4d ed bc d1 6a 4d bd 68 85 cb bd 80 e0 5c bd
       -0.02896775 -0.050150696 -0.099375546 -0.053925037
000240 93 c0 37 3d 7a 5f 55 3d bf 4c a8 bd ec d7 e7 bd
       0.044861387 0.052093007 -0.08217763 -0.11320481
000250 3b ad 84 bd 99 e7 78 3d d5 b1 9f bd 53 10 cb 3d
       -0.064783536 0.060767744 -0.07797591 0.09915223
000260 2b e9 3c 3e 22 87 4b 3e f5 9c aa 3d ab db 26 bd
       0.18448322 0.19875768 0.083307184 -0.040736835
000270 4d e9 4f 3d 03 17 0e 3e 13 12 d4 3d ec a8 e3 3c
       0.050759602 0.13875966 0.1035501 0.02779051
000280 6e 04 19 be 03 ad a9 3c 49 50 f8 3d 60 5e 04 3e
       -0.14943096 0.020712381 0.12124688 0.12926626
000290 34 8b 88 bc 5d c6 ff bd 48 5a 9a bd e5 76 d0 3d
       -0.01666794 -0.12489007 -0.07536751 0.10178927
0002a0 82 ee aa 3d 8e d6 e6 3c f1 9d a7 bd d3 2e bf bd
       0.08346273 0.02817848 -0.08184422 -0.09335103
0002b0 15 91 b5 3c 5b 48 06 3d 33 56 76 bd 41 8d d8 bc
       0.022163907 0.032783847 -0.0601408 -0.026434543
0002c0 15 74 c2 3d 08 48 3b 3e 00 f9 09 3e 27 3d 19 3c
       0.09494797 0.18289196 0.13473892 0.009352959
0002d0 1a 08 82 bd 05 74 f2 3d 8d 93 44 3e c1 13 f1 3d
       -0.063492015 0.11838535 0.19196911 0.11771346
0002e0 c0 45 5e bd eb 7f db bd 03 96 6d 3d a9 62 15 3e
       -0.054265738 -0.10717758 0.05800439 0.14588417
0002f0 c0 cb 6f 3d 2a db bd bc 74 ab 37 bd c6 63 c6 bc
       0.05854392 -0.023175795 -0.044841245 -0.024217498
000300 c5 f0 18 3e ac 1f da 3d 4e 4f 22 bd cc 7d 4b be
       0.14935596 0.10650572 -0.039626412 -0.19872206
000310 a4 e0 6d bd 6d c2 4c 3d dc 4a 6f 3d af 6a 8c bd
       -0.058075562 0.049990106 0.058421 -0.06856286
000320 d9 86 9a bd 66 5f 4c 3d 51 e2 03 3e 19 c4 0d 3e
       -0.075452514 0.049895667 0.12879302 0.13844337
000330 2f 8b 18 3b dc 86 16 bd 12 b5 6e 3d 01 fb 04 3e
       0.002327632 -0.036749706 0.05827815 0.12986375
000340 db ae 86 3d 3a 79 69 bd cf f2 86 bd 78 20 cd 3c
       0.0657632 -0.057000376 -0.06589281 0.025039896
000350 bd e3 14 3e ce cd 90 3d 9f ac b0 bc ef ef d6 bd
       0.1454 0.07070504 -0.021566687 -0.104949825
000360 24 97 8c 3a 03 a8 cb 3d 67 9a ba 3c b8 03 95 bc
       0.0010726196 0.09944155 0.022778703 -0.01819025
000370 ac 9b cb bd b1 ec 42 bd 2a 6b a2 3d 59 e8 5a 3d
       -0.099418014 -0.047589008 0.07930596 0.05344424
000380 19 58 93 bc c8 e8 81 3d e0 74 a8 3d 28 28 c7 3d
       -0.017986344 0.063432276 0.08225417 0.09724456
000390 37 da 12 bd 93 b2 55 3b 90 ae ca 3d d0 dd 75 3d
       -0.035852637 0.003260766 0.098965764 0.06002599
0003a0 56 52 97 3b e6 fb 2a bd 3b d1 3d 3c ee e4 6e 3d
       0.0046179695 -0.041744135 0.011585529 0.058323793
0003b0 6a 3e 2c bd d9 0e 65 bd c3 2e f4 bd 4f e4 30 3c
       -0.04205171 -0.055922363 -0.119229816 0.0107966205
0003c0 a9 45 38 bc 87 15 18 be 25 a2 0a be 2d 29 ec bd
       -0.011247077 -0.14851962 -0.13538416 -0.11531291
0003d0 98 3c 20 bd bf 2f 7a 3d 04 3b db bd d0 85 bd bd
       -0.039120287 0.06108069 -0.10704616 -0.09254038
0003e0 02 1b 82 bd 65 f8 a4 3d a8 be 81 3e 4b e2 f9 3d
       -0.063528076 0.0805519 0.25340772 0.12201365
0003f0 cf b2 0b 3c 90 31 cf bc 3b 4a 5b 3d b0 b1 c0 3d
       0.008526518 -0.025292188 0.05353759 0.09408891

conv6.bias f4 [32]
000000 96 70 8c bd 53 c1 40 3e f9 8b 6b be 6f 04 f4 bd
       -0.068574116 0.18823747 -0.23002614 -0.11914908
000010 a9 60 3d be 5d c1 ff 3d e7 0b 59 be 2d 8d 5b be
       -0.18493904 0.12488053 -0.21195947 -0.21440573
000020 fc c1 28 be 16 8b 24 be e4 74 3a be ea 0d 95 bd
       -0.16480249 -0.16068682 -0.18208653 -0.072780445
000030 fb cc 59 be 2e 65 0b be 3f af 0d be 52 69 52 be
       -0.212696 -0.13612816 -0.13836382 -0.20547989
000040 03 75 7e be 21 6f 27 3e 86 b9 e7 3c dc 75 b6 bc
       -0.24849324 0.16350986 0.028286707 -0.022272997
000050 91 40 6d be c7 ed 4c bd 64 8f 13 3e 9f 49 d3 bb
       -0.23169161 -0.05003145 0.14410168 -0.0064479853
000060 b9 ec b9 bd f5 c4 26 bd 1d 2b c2 3d f9 25 04 be
       -0.090783544 -0.040715177 0.094808795 -0.1290511
000070 d0 1e 48 3e f3 d1 6e be 32 4e e5 bc 35 f1 54 bd
       0.19543004 -0.23322277 -0.027991388 -0.051987845
