models/DQN_wb?_kaggle.pth (torch, 916760 bytes, 22 tensors)

conv1.weight f4 [32, 1, 5, 5]
00000000: 2bf5 06ba 2fe5 07be 26d8 2dbe d4bb 3fbf
00000010: efed 8e3c e7f5 1d3e 5fb1 84be 9bb2 72be
00000020: 65af cf3e 3f2d d93e 4516 e9be e52e 0b3e
00000030: 163c d6be 4347 1abe 4486 b8be c0e8 1a3d
00000040: 1752 ef3d d12f aabe bf1e 293e ef5e 913e
00000050: 9b87 6d3e ce75 92bd 8049 00be bcd0 8b3d
00000060: d8ae 5bbe e769 9abd a466 d2bd b753 0dbf
00000070: e369 3c3d ae00 9dbe 380b 4abe 55c6 1a3e
00000080: f71e fa3d 36ed 4b3e 186c 7e3e 4b1c 58be
00000090: e8ad ce3d ac05 e9bd 2a19 77be cda0 77be
000000a0: 58bf cabe 98d6 6e3e ee23 b3be 39d7 a63e
000000b0: aadb c0be 10d9 42be b289 a0be 6322 61be
000000c0: a548 b2bd 95f9 85bc 7bcd 70bd 485b 733e
000000d0: b5aa 853e cc15 c73e f727 a23e 902b 63bd
000000e0: 0aa3 45be b76c 793c 4a4b 16be 0f0a a0be
000000f0: 658b 06bf 5fe1 a73e a452 82be 493b c6be
00000100: d3a0 02bf ea22 26bd cc1a 02be 64b8 2b3e
00000110: 29cf 423e 47da 053e 90b9 8b3d eacb 82be
00000120: 0b95 82bd 3ece 3fbc d05a f0be 4ecd 133e
00000130: b111 cbbc ede8 633a 3a5f dabb 268e 7f3e
00000140: 6c25 0ebe 3fbc 1b3d 28c0 663e a74b 73be
00000150: c270 82be ee03 103c 3673 6fbe eceb 2b3e
00000160: 3c5b 903e 03a8 91be 6141 e8be 9f52 a23e
00000170: 5684 dabe edd5 743e 34af 643e fefe cb3e
00000180: d80c 43be 116d 113e 97c4 adbe 72dd 3ebe
00000190: 2fec 6cbe 1b7a a4be ae29 f5bd 84cd 053e
000001a0: 65f9 92be 1a08 20be a0eb 863e 6644 823e
000001b0: c465 3d3d dda3 17be bff7 00bf 69a5 ee3d
000001c0: f282 b3be 09af 713e ceaf 8a3e 0d98 a8be
000001d0: 42a8 9dbe 1d08 703e 4877 2d3e 6be6 f7bd
000001e0: 9b8c 8dbd 88eb 21be cd4e 2b3e ccbd a9be
000001f0: d879 963e 39d1 83be accf 513c b4cb 5abe
00000200: f3db bcbd 2f44 a83d a412 e53d fb37 dbbe
00000210: abd1 e63e 74d5 983e a4b2 4cbe 807c 8b3e
00000220: bf71 323e 1ebb 94be a663 ddbd 9196 66bc
00000230: 0848 95be 3f44 bdbd dcb4 0fbe 1bd9 89be
00000240: 05d8 61be 03b7 ca3d 2911 d03d ceb9 1c3e
00000250: 0205 29be e118 adbd 05c7 91be c70a 683e
00000260: cd49 92be e035 87be 5df4 8dbd 202c ca3e
00000270: 787b b73c e0bd 93bd 3155 5e3e 1b6b d1be
00000280: c57e 1ebe d8d0 cebd 4bea cb3e 96e4 cabd
00000290: fdc2 11bf d864 9bbd 5550 203e 101d 99be
000002a0: e76a 91be b773 69be b7fc 2d3b 0e71 923d
000002b0: 2636 99be 6ee7 2a3e cf80 383e 5525 133e
000002c0: fbe3 07bd 2360 35bf 4537 01bd 34ed 0fbe
000002d0: 849e 303d c0a8 d13d ba46 23bd 4ac9 f83d
000002e0: 04cb cb3d eac6 8fbe 56c5 21bf cec2 863e
000002f0: c3dc b43e d61a 4e3e b60f e7bc 4aca ccbd
00000300: ef68 173d fd3a 95be 22da 93be 5d00 81be
00000310: 2f75 50be 696a efbd 1bd8 b83e 11d5 55be
00000320: 4f2c c03e 40d9 c8be 4c2e f63e f335 bfbe
00000330: cd1f cebe f09e acbd d707 acbd 1f9a 82be
00000340: bd63 383d 8ff1 b33c f6b5 463e 76d6 90bd
00000350: 63a6 85be cd95 c7bd 12bb ba3d f54c 383e
00000360: ea5b 82be 7fec 7e3e f98c 123d 9a7c a4bd
00000370: d46b 4d3d a526 d8bc 39a3 303e 2b7a aabe
00000380: 0853 7dbe 1ba5 843e 2a3f 393d 5962 29bc
00000390: d9af a1be b4ed 713e f1a0 863d 12ae 6dbe
000003a0: 213c 453e 41c5 4f3e d494 813e 165d 843d
000003b0: 04d7 e43d 0c15 b73d 9259 0fbe dcbe 11bf
000003c0: 8e00 db3d 1848 9c3d 7fb8 82be 062a 1d3b
000003d0: b383 043e 255c 2abe b26f 8abc ceec a43e
000003e0: 7330 0fbe 66df 84bd e3f9 093e d1c5 8ebe
000003f0: f6ba f53e 877b 63be f964 cd3a 0978 893d
-0.0005148227 -0.1327102 -0.16976985 -0.7489598 0.01744744 0.15425836 -0.25916573 -0.23700945
0.40563503 0.42417333 -0.45524803 0.13592108 -0.41842717 -0.15066247 -0.36039937 0.037819624
0.11685579 -0.33239606 0.16515635 0.2839274 0.2319626 -0.07151376 -0.12528038 0.06826922
-0.21453416 -0.075397305 -0.102734834 -0.55205864 0.04599942 -0.3066458 -0.19730842 0.1511472
0.12212937 0.19914708 0.24845922 -0.21104543 0.10091764 -0.11378035 -0.24130693 -0.24182434
-0.3959911 0.23324049 -0.3498835 0.32586077 -0.3766759 -0.19028115 -0.31355053 -0.21985774
-0.08705262 -0.016354362 -0.05878971 0.2376529 0.26106802 0.38883817 0.31671116 -0.055461466
-0.19300476 0.015223674 -0.14677158 -0.31257674 -0.5255645 0.32789132 -0.25453675 -0.38717106
-0.5102665 -0.04056064 -0.12705535 0.16769558 0.19024338 0.13071547 0.068225026 -0.255462
-0.06376084 -0.011706887 -0.46944284 0.14433786 -0.02478871 0.00086940714 -0.006664184 0.24956569
-0.13881463 0.038021322 0.2253424 -0.23759328 -0.25476652 0.008789999 -0.23383793 0.16789216
0.28194606 -0.28448495 -0.4536238 0.3170366 -0.4267909 0.23909731 0.2233246 0.3984298
-0.19047868 0.14201762 -0.3393905 -0.18639162 -0.23136972 -0.3212441 -0.119708404 0.13066679
-0.28705898 -0.1562809 0.26351643 0.2544281 0.04623963 -0.14808603 -0.5037803 0.11652643
-0.3506084 0.23601927 0.27087253 -0.32928506 -0.30792433 0.23440595 0.16940033 -0.121044956
-0.06911584 -0.15812504 0.16729279 -0.33152616 0.29389834 -0.25745562 0.0128058605 -0.21366769
-0.092216395 0.0821613 0.11185196 -0.42816147 0.4508184 0.29850352 -0.19990021 0.27243423
0.17426203 -0.2904901 -0.10810022 -0.014073984 -0.29156518 -0.092415325 -0.14033836 -0.2692345
-0.22055061 0.09898188 0.10159523 0.15305254 -0.16505817 -0.08452011 -0.28472152 0.22660361
-0.2857193 -0.2640829 -0.06931374 0.3948679 0.022397742 -0.0721395 0.21712185 -0.40902027
-0.15478046 -0.100984275 0.3982719 -0.099068806 -0.56938154 -0.07587594 0.15655644 -0.29904985
-0.28401873 -0.22798048 0.0026548335 0.0715047 -0.29924124 0.16689846 0.18017887 0.1436971
-0.033176403 -0.7084982 -0.03154685 -0.1405533 0.043119922 0.10237265 -0.039862372 0.12147768
0.099508315 -0.28081447 -0.63191736 0.263205 0.35324678 0.20127425 -0.028205734 -0.09999521
0.036965307 -0.29146567 -0.2887736 -0.2519559 -0.20357202 -0.11690218 0.36102375 -0.2088206
0.37533805 -0.3922825 0.48082197 -0.37345847 -0.40258637 -0.084287524 -0.08399933 -0.2550821
0.045016993 0.02196577 0.1940535 -0.07072155 -0.26103505 -0.09745369 0.09117712 0.17998107
-0.2546075 0.24894904 0.035778973 -0.08031578 0.05015166 -0.026385615 0.17249765 -0.33296332
-0.24738705 0.25907215 0.045226254 -0.010338389 -0.31579474 0.23625833 0.06573666 -0.23210934
0.19261219 0.2029009 0.2530886 0.06463067 0.111738235 0.08939561 -0.13999012 -0.56931853
0.10693465 0.07630938 -0.25531384 0.0023981347 0.12940864 -0.16636713 -0.016898964 0.32211918
-0.13983326 -0.06487922 0.1347423 -0.27885297 0.47994202 -0.2221509 0.0015670351 0.06712348

conv1.bias f4 [32]
00000000: a596 e1bd bf27 87bd e703 0d3e a4bc a4bc
00000010: ab28 bdbe d68d 9ebe 230d 56be 7d6c 3dbe
00000020: aad9 8abe 7fcc c7be 0a06 b3bd 6fda c8be
00000030: a44a e0bd 62b6 71bc caea 40bb 1715 643d
00000040: 5931 b1be 3133 03bf d5ef 64be 6418 3dbe
00000050: e3db 91be 00df e2bd bfce b2bd 9240 c2be
00000060: a311 17be 95ad 4ebe 9470 043e f37d 7cbe
00000070: 4f16 e73d a895 a2be a536 01be fbc5 acbe
-0.11015061 -0.06599378 0.1377102 -0.020109482 -0.3694509 -0.30967587 -0.20903449 -0.18498416
-0.2711919 -0.39023206 -0.08741386 -0.39229152 -0.109517366 -0.014752956 -0.002943682 0.055684175
-0.34607962 -0.51249987 -0.22357114 -0.18466336 -0.28488073 -0.1107769 -0.0873084 -0.37939888
-0.14752822 -0.20183404 0.1293357 -0.24657421 0.11283552 -0.31754804 -0.12618501 -0.33744797

conv2.weight f4 [32, 32, 5, 5]
00000000: dce3 09be 0762 4ebd b999 dfbd b6c1 49be
00000010: dcc1 c1bc cc80 a8be 616c 8b3c 0b19 51bf
00000020: 0a86 dcbd 9202 8dbd b772 8abe 4fc3 67bc
00000030: 3759 f2bd 6a51 a73d c172 abbe 9408 273e
00000040: f70a 0a3e 4348 73be 489c 94bd 4c04 393e
00000050: d77f 063e 88e1 09be 0d28 f9bc 3e1a aebd
00000060: fe22 c8be fba7 ae3d 0d71 5cbe 657d 273f
00000070: cdc9 ce3d 5c5f 8fbe ceb2 d3bd 47da e3bc
00000080: 8ab2 463d 62c9 513e b72d b4be 1b8b 5e3e
00000090: 0877 7d3e 95c1 703e 12af 663e 71f2 d2be
000000a0: 7cab 3e3e 7c6f c0be 8179 d43d f5ab 9abe
000000b0: 2972 02bc 116a 5ebe 298f 40be 2930 a2be
000000c0: 0469 5bbe 115b 00be 8978 913e c36a dcbe
000000d0: 695d 3a3e 2903 603e 5549 b53d a507 1e3e
000000e0: 7b3a 623e 0155 04be adf7 9abe 556a 61be
000000f0: d43d 86bd af58 54be 2cdb 42be 7667 cb3d
00000100: 168d 29bd dc6e 583e baa6 603e 1d31 cd3e
00000110: 77bd 3dbe 0533 773e c1b5 863e 03dc 56be
00000120: fa0a d2be 3387 dabd 3529 5dbe dc54 debd
00000130: 60f6 e1be 87f5 2f3d 645c c4be b7b3 8abe
00000140: b911 5bbe df0c 91be 7f8b dfbe e775 373e
00000150: 5690 aebe 6736 18bf 8641 a33e b2c5 32bd
00000160: 442f 99bd 6b30 e5be 733b e0bc 693a 8f3d
00000170: 30f3 e0bd 720f 43bd 746b 9b3e 96d3 1abe
00000180: 6c9d 84be baa2 703d 431e 95be 1a62 c1be
00000190: a571 c63e d8d1 d5bd fbd0 19be 274c 91be
000001a0: a820 2d3d 8942 4cbd a4d6 b2be 5849 e6bd
000001b0: 73ff 5bbe a110 27be c09d 2c3e 4bcb 5b3e
000001c0: ab69 c1be 2aab a83d 018f bd3d 8641 173e
000001d0: 9f33 e33d 7636 01be b708 41be 3250 553e
000001e0: 8850 f33d af5a ec3d 69c5 36bf 8837 9b3d
000001f0: 7e67 ae3d 5d89 1bbf 2bd5 9ebe 3068 b13d
00000200: d024 9fbe 10e0 a73e 0975 c1be 8923 a2bd
00000210: 653d 44be e59b 61be 996d 8ebe e55d 453e
00000220: 3ebd f63d 5e21 29be d3e6 ab3e 35c5 013e
00000230: 5173 a7bd fb08 a1be e571 8dbe 0598 24bd
00000240: b081 e1be cdb5 e63d 4a47 33be 6e9a a6bd
00000250: 32c1 d1bd 1475 903d 40c8 10ba 2503 3cbe
00000260: e506 6a3e 4894 a43d 4ed6 bdbe d732 9bbc
00000270: af6f 063d 376f c3be 8efb 533e 327e 913e
00000280: 6269 c2be 0e78 153e cb49 533e 8aba 483c
00000290: ed2a dabe 032e ed3d 297a 4fbe a826 96be
000002a0: 3315 00bf a9b3 c4be 3ec7 d6be 7acb 03be
000002b0: f3f4 4d3e 6a4c 1b3e a3ed e9be d169 a8be
000002c0: 1324 513e ab3b c1be 287f abbe 673f 8fbd
000002d0: 3318 0f3e f59c d0be a692 683d 0fd0 5fbe
000002e0: 1809 d43e 54c0 063e bad3 a63c c1ba bcbd
000002f0: 1738 e9be 8953 1abf 33d2 3ebd 271a bf3d
00000300: b956 573e bce8 d1be 06dd a0be 0ca5 8f3e
00000310: c021 a63e 6439 cd3e c67f c9bd 522b febd
00000320: 2735 8d3c 7775 d9be 8d74 9b3e 2c9e f2be
00000330: a727 9cbe f92b ccbe 53f8 5a3e b9d3 c23d
00000340: 8b84 6c3e 8630 0fbf 9a3c 03bf 1ece dbbc
00000350: 2680 4ebd 9029 14be daa4 d4bd c188 7e3e
00000360: c5c7 09bf c8e4 7c3d 6c69 953e 263d 5cbe
00000370: 1f53 39be 9799 2bbd c59e aabe 3c3b d5bd
00000380: f3d8 b2be 0787 97be 8a61 73be faca eb3d
00000390: bca6 3dbc 55ee a0be 46fc f8bd 6c42 183d
000003a0: d5f9 15bf 968f 6b3e 806f 613e ccdb 0bbf
000003b0: 3c6e 4b3d d2aa 18be 895c e6bd 7768 c9ba
000003c0: ecf0 90be a925 ea3d 4bd7 83be 2dff d3be
000003d0: 56de d8bd 55ab aabe 3579 14bf 63ca ca3d
000003e0: 1b56 233e d031 1fbf abde 883e 5c14 10bf
000003f0: b043 e6be 1eb8 32bd e4e8 2dbe 5bd2 26bf
-0.13465828 -0.050386455 -0.10917992 -0.19702801 -0.02365201 -0.32910764 0.017019453 -0.8167884
-0.107677534 -0.06885256 -0.27040645 -0.014145686 -0.11833423 0.081698254 -0.33485988 0.16311866
0.13480745 -0.23758034 -0.07256371 0.18068045 0.13134705 -0.1346494 -0.030414606 -0.08501099
-0.39089197 0.085281335 -0.215275 0.6542571 0.10097084 -0.2800244 -0.10336839 -0.027814044
0.048510112 0.20486978 -0.35191128 0.21732752 0.24752438 0.23511346 0.22527722 -0.41200593
0.18620104 -0.37585056 0.103747375 -0.30209318 -0.007961788 -0.21720149 -0.18804611 -0.31677368
-0.21426779 -0.12534739 0.28412274 -0.43050203 0.18199696 0.21876206 0.088518776 0.15432604
0.22092621 -0.12923051 -0.30267087 -0.22013219 -0.065547615 -0.20736955 -0.1902892 0.09931843
-0.041394316 0.2113604 0.21938601 0.40076533 -0.18529306 0.24140556 0.26310542 -0.20982365
-0.41024 -0.106703185 -0.2159775 -0.108560294 -0.44133282 0.042958762 -0.38351738 -0.27090237
-0.2139348 -0.28330132 -0.43661115 0.1791607 -0.34094495 -0.5945801 0.31885928 -0.04364557
-0.07479718 -0.44763502 -0.027372098 0.06993563 -0.10983884 -0.04762215 0.30355418 -0.15119776
-0.25901353 0.05874894 -0.2912465 -0.37770158 0.3875858 -0.10440415 -0.15021126 -0.28378412
0.04226747 -0.04986814 -0.34929383 -0.11244458 -0.21484165 -0.16314937 0.16857052 0.21464269
-0.3777593 0.08235772 0.092557915 0.14771089 0.1109383 -0.12618431 -0.1885098 0.20831373
0.118805945 0.11540734 -0.71394974 0.07578951 0.08515833 -0.60756475 -0.3102201 0.0866245
-0.31082773 0.32788134 -0.37784603 -0.07916934 -0.19164045 -0.22032125 -0.2781799 0.19274099
0.12047814 -0.16516635 0.33574542 0.12672885 -0.08176292 -0.31452164 -0.27625957 -0.04018404
-0.44044256 0.112651445 -0.17507663 -0.08134924 -0.10241927 0.07053581 -0.00055230036 -0.18360575
0.22854193 0.08036095 -0.37077564 -0.01894514 0.032821354 -0.38170788 0.20701429 0.28416592
-0.37971026 0.14596578 0.20633619 0.012251506 -0.42610875 0.11581042 -0.20261444 -0.29326367
-0.5003235 -0.3841832 -0.41948885 -0.12870589 0.20112972 0.15165868 -0.45689115 -0.32893232
0.20423917 -0.37740836 -0.3349545 -0.06994515 0.13974075 -0.4074475 0.05678048 -0.21856712
0.41413188 0.13159305 0.020364631 -0.09215308 -0.45550606 -0.60283715 -0.04658718 0.0933116
0.21029176 -0.40997875 -0.31418628 0.28055608 0.32447624 0.40082848 -0.09838824 -0.124106064
0.01723726 -0.4247243 0.3036236 -0.473863 -0.30499002 -0.39877298 0.2138379 0.09513039
0.23097436 -0.55933416 -0.51264346 -0.026831683 -0.05041518 -0.1446898 -0.103830054 0.24856855
-0.5382045 0.06174162 0.29181993 -0.21507701 -0.18098114 -0.04189452 -0.33324257 -0.10411689
-0.34931144 -0.29595205 -0.23767677 0.11513324 -0.011575397 -0.31431833 -0.12157492 0.03717272
-0.5858434 0.23003992 0.2201519 -0.5463226 0.049665675 -0.14908913 -0.112481184 -0.0015366216
-0.2830881 0.11432964 -0.25750193 -0.4140562 -0.10589282 -0.3333384 -0.5799745 0.099018835
0.15950815 -0.6218538 0.26732382 -0.56281066 -0.44973516 -0.04363262 -0.16983372 -0.65164727

conv2.bias f4 [32]
00000000: b6cf 533d f34c 4cbe 8580 823b 274f 0cbe
00000010: 33e5 dcbd 7bea 97be 11d3 dabd 0622 2abe
00000020: 31c2 a0bd 55ce b2bc c4d1 18be 5f9d 1cbe
00000030: 0523 29be 0702 c7bd f254 22be 1867 fcbd
00000040: 37ed aebd 3ee9 cf3c 75e4 c4bd f597 03be
00000050: 4ea9 64bd a5e5 88be 9382 12be f233 1cbe
00000060: d599 a4bd 5bff a4bd 418e 7d3c a964 5fbe
00000070: 8803 5ebd a4d4 3fbe 4ae0 4dbe c2d0 b9bd
0.05171176 -0.19951229 0.003982606 -0.13702069 -0.10785904 -0.29671082 -0.10684789 -0.16614541
-0.07849539 -0.021826902 -0.14923769 -0.15294407 -0.16517265 -0.097171836 -0.15852717 -0.12324351
-0.08541339 0.025379773 -0.09613887 -0.12850936 -0.055825524 -0.26737705 -0.14307623 -0.1525419
-0.08037154 -0.08056518 0.0154758105 -0.21815743 -0.054202586 -0.1873346 -0.2010509 -0.090730205

conv3.weight f4 [32, 32, 5, 5]
00000000: 7a91 103d e451 c63d f49d a43e f019 dd3d
00000010: 2d5b ea3d ddd4 a13d 80d5 9ebe a318 223e
00000020: 3383 d43d 5c53 70be f2ae 713e 274c c23e
00000030: cb1e a83d d852 093e b577 47be 3317 b0be
00000040: b170 5fbe 703f 993e 3b0a 5ebe 6f78 68be
00000050: 6fa9 d2bd 0bd1 e8be 891f 893d df58 3e3e
00000060: a035 8bbb 8168 44be d857 403e 779d 32be
00000070: f8df bb3e 0a31 7f3e 34c3 593e 2f7f d73e
00000080: 0d1e 76be 0a0f 1abe a9c3 60be 3486 06bd
00000090: edf7 e4bd 2917 cd3e 9a50 80be 8f37 18bf
000000a0: 8c40 25be eb32 ef3e 444c 5bbe 0798 83be
000000b0: 68e6 4ebe 0937 bf3d e82e 4ebe 24f2 eebb
000000c0: 166b 893d b149 fe3c 5fd8 023e 2744 adbe
000000d0: fc02 d3bd cef1 40bd fa33 993e e400 e7bd
000000e0: 8108 95bd 6004 d5bd c3b4 05bc c0dc 21bf
000000f0: 63f0 7ebd e137 8fbd 8dc7 a93d 79dd 9abd
00000100: 3dd9 933e ddca 5a3d 3323 70bd e8d7 d6bc
00000110: 9833 e03b 1181 cc3e 8209 fa3d ea70 3dbd
00000120: f6c6 4a3d 0ab5 e73d fa90 cb3e 4d17 433e
00000130: 4f0d e53e 8653 603e 1727 1a3c 3904 eb3d
00000140: 4354 b4be 7414 55be 360a 05bf 7f61 643e
00000150: c607 8abe 0bfe d1bd 18ba 85bd 49fc 0c3f
00000160: 4335 e7be d3d7 4abd a44c b23e 3926 513e
00000170: 006b 88bd f033 e43b 5e50 aebe d91a 73bd
00000180: 7dcf 583e ecfb bfbe 944a a23d 205f 58be
00000190: 828e 8b3e 20f2 64bc 6010 dc3c b79d 233d
000001a0: 1787 56be 4685 56be 3f09 483e 25dd e1bd
000001b0: 4788 d6bd 886f 983e 511f eebd 6ab9 14bf
000001c0: 87f0 13be 8d5d 19bd 4cf0 1b3e 25b7 2f3c
000001d0: b6eb ad3e 6ae4 53bd 11a5 debe bc33 cb3d
000001e0: e530 b6be 6148 753e 98a7 77be ff2a 0bbe
000001f0: 000a 86bc f36d aebe 35ad c73e d471 36be
00000200: 94d7 6d3e 82ae 8f3e 3fcb abbd 0feb b9bd
00000210: f8ca 10bf a494 0e3e 9e97 563d d047 a33d
00000220: c15c 78be 005f c53e fa86 a93e d1e0 633e
00000230: c5a2 ca3e 8876 08be 924d cabc 5af6 e1bd
00000240: d0dc b6be 0848 c6bd 5cca 0dbf bf05 b4be
00000250: c3d3 22be f424 eebd ac66 b7bd 0441 a0be
00000260: c4b8 afbe 69a3 99bd 0506 2b3d 7a44 30be
00000270: 8292 393e 8b2e 51be 9cfc ac3d 8a57 a4be
00000280: 5bb8 f2bd 24ca d13e 1fea 20be 265e 46be
00000290: 05a0 9e3d a128 f9bd 4243 dc3d 3ec6 923d
000002a0: c43c f1be 9bad 53be df81 b43e 3d46 b4be
000002b0: 1248 cfbd 4d7d 6fbe 9f1d 30bd 277d a2bd
000002c0: 913f 41bc 7772 54be 2216 c43d f0d2 913d
000002d0: 464a b2be 7da2 e13e d614 c73d 5e8d 483e
000002e0: 5c4d ffbd 27c4 94be 13cf 09bf 0e97 673c
000002f0: 7a5d 463e 5508 4bbe 77bd 453e 9209 f13e
00000300: 83aa 823e e719 e9be 930f a3be f573 88bc
00000310: dc9d cc3d dc59 e5bb bd6f 92bd f7e4 3f3e
00000320: 8383 13be 7d22 023f 8ed8 2aba a5a1 ae3e
00000330: 984e 753e 7e5a 0bbe b449 67be fc53 043d
00000340: 9ed3 983d d248 ef3d d704 01bb 2a31 09be
00000350: 75d2 b6be c0b4 acbe 0bef d5bd 4d23 2bbd
00000360: a052 4abe dfea 08be a22a debd 6e66 81be
00000370: fb88 6dbd 6dfc f63b 225d f73d 32eb d8bd
00000380: f235 b7be bea5 91be 8e60 803e a4bc d33d
00000390: f3bb 93bd a441 9c3e a5dc eb3c 376f c53e
000003a0: 01ff b83e 18de 80bb 9cae 823e d9e5 20bd
000003b0: b216 163e 5910 1bbe 86d8 76be c2ca 633d
000003c0: d1cd 8d3d b74b 12be dd0d 81be 1627 563c
000003d0: d6ee eabd e53f 263e 598a 36be 6b84 d03c
000003e0: 0630 cbbe d102 2dbf eb42 bdbc 2165 b3bd
000003f0: 91b8 a3bc c0db 6ebe 226c 94be b32c 033e
0.035294987 0.09683588 0.3215176 0.10795963 0.11443172 0.079019286 -0.31022263 0.1582971
0.10376587 -0.23469299 0.23601893 0.37948725 0.08208998 0.13410509 -0.19479258 -0.343927
-0.21820332 0.2993121 -0.2168359 -0.22702192 -0.10286223 -0.45471987 0.06695468 0.18588589
-0.004248336 -0.1918049 0.1878351 -0.1744288 0.36694312 0.2492105 0.2126587 0.4208922
-0.24034901 -0.150448 -0.21949638 -0.03284283 -0.111801006 0.40056732 -0.25061494 -0.59459776
-0.16137904 0.46718535 -0.21415812 -0.25701925 -0.2020508 0.09336669 -0.20135081 -0.007292049
0.06709878 0.031040998 0.12777852 -0.3384106 -0.103033036 -0.047105603 0.29922467 -0.11279467
-0.072770126 -0.10401225 -0.008160773 -0.6322746 -0.06224097 -0.0699308 0.082900144 -0.07561774
0.28876677 0.05341612 -0.05862732 -0.026225999 0.006842088 0.3994222 0.12208845 -0.04625026
0.04950615 0.11313827 0.39759046 0.19051857 0.44736716 0.21906862 0.009408734 0.11475415
-0.35220537 -0.20808583 -0.51968706 0.22302817 -0.26959056 -0.10253533 -0.06529635 0.55072457
-0.45157823 -0.049522232 0.34824097 0.20424737 -0.06661034 0.0069641992 -0.3404569 -0.059351776
0.211729 -0.3749689 0.07924381 -0.21130037 0.27257162 -0.013973743 0.026863277 0.03994533
-0.2094997 -0.20949277 0.19534777 -0.11028508 -0.104752116 0.29772592 -0.11627067 -0.5809542
-0.14447223 -0.037442733 0.15228385 0.010724817 0.33968896 -0.051731504 -0.4348531 0.09921977
-0.3558418 0.23953392 -0.24185026 -0.1359062 -0.01636219 -0.3406826 0.38999334 -0.1781686
0.23226768 0.28062826 -0.083883755 -0.09078037 -0.56559706 0.1392389 0.052390687 0.079726815
-0.24254133 0.38549042 0.3311079 0.2225373 0.39577308 -0.13326466 -0.024695192 -0.11033316
-0.35715342 -0.096817076 -0.553869 -0.35160634 -0.15901093 -0.11628142 -0.0895513 -0.31299603
-0.34320652 -0.07501871 0.041753788 -0.17213622 0.18122295 -0.20427911 0.08446619 -0.32098037
-0.11851569 0.40974534 -0.1571431 -0.19371852 0.07745365 -0.121659525 0.10755016 0.07166718
-0.47116673 -0.20671694 0.35255334 -0.35209838 -0.10121168 -0.23387642 -0.042997 -0.07934027
-0.011794941 -0.2074679 0.09574534 0.07120311 -0.3482229 0.4406928 0.09720771 0.19585177
-0.12465927 -0.29055902 -0.53831595 0.014135135 0.19371596 -0.19827397 0.19310556 0.47077614
0.25520715 -0.45527574 -0.3184782 -0.016656855 0.09991047 -0.0069992375 -0.07150219 0.18739687
-0.14405636 0.50833875 -0.00065172545 0.341077 0.23955762 -0.13608739 -0.2258671 0.032306656
0.07462238 0.11683811 -0.0019686723 -0.13397661 -0.3570744 -0.3373165 -0.104459845 -0.041781712
-0.19758081 -0.13370846 -0.10847975 -0.2527346 -0.057991963 0.0075374157 0.120783105 -0.10591735
-0.35783345 -0.28446764 0.25073665 0.10338715 -0.07213583 0.3051883 0.028791735 0.38561413
0.36132053 -0.0039327256 0.2552384 -0.0392817 0.14657095 -0.15142955 -0.24106035 0.055613287
0.06924022 -0.14286695 -0.2520589 0.013070842 -0.114713356 0.16235311 -0.17826213 0.025453767
-0.39685076 -0.6758242 -0.023103198 -0.08759523 -0.019985469 -0.23326015 -0.2898875 0.1281002

conv3.bias f4 [32]
00000000: 9e5d 98be 4c69 14be 8cc8 d7be 023e 91bd
00000010: dc8b aabd 9514 46be 6972 b8bd fff3 b0be
00000020: 9dce 98be 71f8 0abf 5772 c6be c71a 46be
00000030: 0047 a8be 31d8 08bf 7a74 a2be e9d6 a2be
00000040: 5a5d 04bf 86e9 9cbe b34a 98be f044 b8be
00000050: 2e12 60be 30c1 1cbe ccdf 8bbe c79a c0be
00000060: 6e53 42be 5dc1 57be 9f2d 27be a34f a1be
00000070: 20cb 19be be3a 72be 290d 91be 0bc1 8fbe
-0.29758924 -0.14493293 -0.42145193 -0.07091905 -0.08327457 -0.19343789 -0.09006197 -0.34561154
-0.29845133 -0.5428534 -0.3875911 -0.19346152 -0.3286667 -0.5345488 -0.3172949 -0.31804588
-0.51704943 -0.30646914 -0.2974449 -0.35990095 -0.21881935 -0.1530807 -0.2731918 -0.37618086
-0.18977138 -0.21069856 -0.16325997 -0.3150607 -0.15018892 -0.23655221 -0.28330353 -0.28076968

conv4.weight f4 [32, 32, 5, 5]
00000000: 7753 853d c189 bd3d 9749 c83d 4151 e03d
00000010: 448c 96be f4de bc3e dbcb 6dbe 4f9d b83d
00000020: 8159 35bd 3135 ecbc 8cd3 dcbe 57a1 b93c
00000030: ccac 2e3e a943 c03e 5139 a4bd 0058 513e
00000040: 4130 f3be 199a 5a3e d5dd b13d 837d 983e
00000050: 11d1 053e 6925 91be a1f7 59bd 5c36 66be
00000060: 63e4 423e 30db 863c c23e d2bd 0c19 07bf
00000070: 1b64 9d3d 9d6b d13d 489a 763c 2ead b4be
00000080: 9d79 2cbe f396 d7bc 7eff 913e dc06 213f
00000090: 2762 923d 36a0 383e 378b 423e 0515 e4bd
000000a0: 581d 33be 6781 dbbd e259 60be 33a5 783c
000000b0: af21 23be 9a5b bbbd 179a 02be 8b46 b0be
000000c0: 5342 f9bd 2fcd f03d 32d9 a5be d334 7f3e
000000d0: 6378 16be 1244 053e 7a77 4bbe cd57 cb3e
000000e0: b31b 98be 0e22 0cbd f8e1 c8be d5df e9bd
000000f0: a73b c43d 4f5f 2ebd 2e6d 343e 97aa 093e
00000100: cc91 47be 046f d83c d4d0 8fbd f373 8fbe
00000110: 9bcb 213d 7b21 d8be e35c 35bd c847 c23e
00000120: 67f5 bbbe d783 563d 6c04 89bd 8636 81bd
00000130: 00c1 e8be 99e3 edbc 688d 57be 0c86 50be
00000140: 94b8 80bc 9677 c43d d699 5e3e f75d a4be
00000150: 8ca2 403e 3334 09be 3966 9ebd 04db 983d
00000160: 40c7 bd3e e9e0 773d f73d 26be 33d8 03be
00000170: 6845 943d 52ae c43d ef77 04bf 9811 a1bc
00000180: ea68 b8be f85f 79bc c149 f0bd a57e df3e
00000190: d5a8 59be 16dc 5e3e c01b 2cbd 2433 1bbe
000001a0: 822f 81be 4f8e 7cbd eec0 20bd 8500 b5bd
000001b0: 02c9 a0be cdd8 94be 2b27 c4bd c3b5 923e
000001c0: 363a b33e 8c4d a9bc 47d4 9abd 25e9 45bb
000001d0: afe1 e03d 1bbf c9be e74f 693d 7046 9abd
000001e0: 7c2d e83c 1da0 92be 09d0 54be bc69 a83e
000001f0: 461f 1c3e cf0f 7a3d 179a e1bd 975d d53d
00000200: f63b bd3e 1ce1 fcbe 7fb9 ea3d 00af e23d
00000210: 1463 c43e 0c96 b5be 8a6b fa3d 510f b6bd
00000220: 6a64 b03b 0fa9 5c3e 44c5 b33c 4abc 8ebd
00000230: e407 b2be 7ea0 cfbe c843 5cbe 17c8 33be
00000240: 533b a93d 8c67 6f3e d5f7 0d3e 35cd 97bc
00000250: c1e6 a63e 1c20 5b3d bde6 243e 353c c8be
00000260: 5d8a e73d d0ea b03e bb01 31be 5dac 803e
00000270: 9a79 06bd d769 b73e 0633 973e 46ed 68bb
00000280: 0d6b 6f3e 2127 97be 2243 abbe a4cd b23d
00000290: f52c 61be e8df d6bd fb6e 373e a885 94bd
000002a0: deee ed3d 1c7f db3c eea1 b3be 4339 29bd
000002b0: b741 813c 20b9 6bbd da86 b43e 78b0 aebd
000002c0: 1a9f 5d3e 5a61 a63e d451 d6bd 86fc ed3d
000002d0: 4394 b03d b03e cb3d f495 253d 712f a7be
000002e0: d030 89be 4bb6 9bbd 4fc9 24be 1de6 bdbe
000002f0: ec74 bf3d 3122 ddbd 3d88 6ebe caca 0c3e
00000300: eed4 ffbd fe84 dfbd c2fc 1e3e 19a1 1f3f
00000310: 099b c8bd 9672 6b3e cf37 093e 2606 53be
00000320: 73c1 aebb 59b4 dcbd 0737 6dbe 7527 d8bc
00000330: d756 d1be f89c d73d 9b6b 2bbe 44ba 27be
00000340: 4071 bcbe 6205 05be 77d0 53be 74e3 19be
00000350: f3a3 7f3c f8b6 623d 2349 6b3e 61d5 7c3e
00000360: 5d0d 17be a0bc 6f3d be34 a23e f4ba 673e
00000370: f422 6c3e ac4b 1dbc eb20 be3e 5c6c 21be
00000380: 6dfd 70bd 4083 883e 714b 053f dd37 81bd
00000390: 2aae 4b3d 1d3a e83e fcb0 25be bccb f63d
000003a0: 9543 0c3e 7564 6b3d 9d08 03be 4c7b a2bd
000003b0: 1b80 52bc b437 debd 4970 6e3e a1fc 06be
000003c0: 7878 14be 3151 57bc d29a 2ebe 61bd 5b3c
000003d0: 00a3 383e f958 b2be 0dcf 1b3e e982 563e
000003e0: 362c 7cbe 8f6f 233e 3bd5 a83d 73d9 4b3e
000003f0: 55da 953d 2e02 593e 1daf 83be 61ad 2e3e
0.0651006 0.0925479 0.09779661 0.10952998 -0.2940389 0.3688885 -0.23222296 0.09014379
-0.04427481 -0.028833957 -0.43130147 0.02265994 0.17058104 0.3755162 -0.08018745 0.20443726
-0.47497752 0.21347846 0.08684889 0.29783258 0.13068034 -0.28348854 -0.053214673 -0.22481674
0.19032435 0.016461939 -0.10265876 -0.52772593 0.07685109 0.10225604 0.015051432 -0.35288376
-0.16843267 -0.026317095 0.28515238 0.6290109 0.07147627 0.18029866 0.18998419 -0.11136822
-0.17491663 -0.10718041 -0.21909288 0.015176105 -0.15930818 -0.09148331 -0.12754093 -0.3442882
-0.121708535 0.11757886 -0.3239227 0.24922495 -0.14694361 0.13014248 -0.19869795 0.39715424
-0.29708633 -0.034212165 -0.392349 -0.11419646 0.0958169 -0.042571362 0.17619774 0.13443981
-0.19489211 0.026420124 -0.07022253 -0.2801815 0.039500814 -0.42213044 -0.044278037 0.3794539
-0.36710665 0.052371826 -0.066902965 -0.06309228 -0.45459747 -0.029039191 -0.21050036 -0.20363635
-0.015713014 0.09593122 0.21738371 -0.3210294 0.18812007 -0.13398819 -0.07734341 0.07463649
0.37066078 0.060517225 -0.16234575 -0.12875442 0.07239801 0.096035615 -0.51745504 -0.01966171
-0.36017543 -0.015220635 -0.117328174 0.4365131 -0.2125581 0.21763644 -0.042018652 -0.15156227
-0.25231558 -0.061659154 -0.039246492 -0.0883799 -0.31403357 -0.29071656 -0.09577783 0.28654298
0.3500535 -0.02066686 -0.0756002 -0.003019878 0.10980546 -0.39403614 0.056960966 -0.07532966
0.028342001 -0.28637782 -0.20782484 0.3289317 0.15246305 0.061050232 -0.110157184 0.104182415
0.3695981 -0.49390495 0.11461162 0.11068535 0.3835684 -0.3546604 0.12227543 -0.0888964
0.005383064 0.21548866 0.02194465 -0.06969507 -0.34771645 -0.40552133 -0.21510231 -0.17556797
0.08263268 0.23379344 0.13864072 -0.018530468 0.32597926 0.05349742 0.16103645 -0.39108434
0.113056876 0.34554148 -0.17285816 0.25131503 -0.032830812 0.35822937 0.29531115 -0.0035541817
0.2338068 -0.2952204 -0.33449656 0.08730629 -0.21989806 -0.104919255 0.1791343 -0.072520554
0.11617826 0.026794009 -0.3508448 -0.041314375 0.015778406 -0.057549596 0.35259134 -0.085297525
0.21642724 0.32496148 -0.10464826 0.11620431 0.08622029 0.09924066 0.04042621 -0.32653382
-0.26795053 -0.07603129 -0.16092418 -0.37089625 0.09348473 -0.10797537 -0.23294158 0.13749233
-0.12491785 -0.10914038 0.15526107 0.6235519 -0.097951956 0.2299293 0.13400196 -0.20607814
-0.0053331195 -0.10776586 -0.23165523 -0.026386002 -0.40886566 0.10527986 -0.16740267 -0.16379648
-0.36805153 -0.12990335 -0.20684992 -0.15028173 0.015603053 0.055350274 0.22977118 0.24690773
-0.14751191 0.058529496 0.31680864 0.2262991 0.23060209 -0.009600561 0.3713449 -0.15763992
-0.058835436 0.26662636 0.5206824 -0.06309483 0.049726643 0.45356837 -0.16180795 0.12050578
0.13697655 0.05746885 -0.12796254 -0.07933673 -0.012847926 -0.10850468 0.23285021 -0.13182308
-0.1449908 -0.013141916 -0.17051247 0.013411851 0.1803093 -0.34833506 0.15215702 0.20948376
-0.2462624 0.15960525 0.082437955 0.19907169 0.07317034 0.21192238 -0.25719538 0.17058326

conv4.bias f4 [32]
00000000: 0ee7 5a3e 16d4 ffbd 84bf 7dbe 8314 843d
00000010: 3126 01be f78f 16be ab32 65be 6b75 053e
00000020: 59d7 0c3e 0646 0cbe ba3a a8bd 0f13 093d
00000030: a3c8 43be 3e93 be3d 404d b73d 96e1 51be
00000040: 3ffa d2bd e5f8 f2be 490c dd3d c191 a6be
00000050: 384f b1bb a0a1 c93d c813 82be d911 ba3e
00000060: 9b7d 82bd 0633 5bbc 9489 edbd 773b 9c3d
00000070: 0cba fa3d 4a3d 403e adfb 8bbd c3b1 bebe
0.21377203 -0.12491624 -0.24780089 0.06449225 -0.12612225 -0.14703356 -0.2238261 0.13033073
0.13754024 -0.13698587 -0.08214326 0.03346544 -0.19119506 0.09305428 0.08950281 -0.2049621
-0.10301637 -0.47455516 0.10793359 -0.32533076 -0.005411055 0.09845281 -0.25405717 0.36341742
-0.063716136 -0.013378864 -0.115985066 0.076285295 0.12242517 0.1877338 -0.06835113 -0.37244996

conv5.weight f4 [32, 32, 5, 5]
00000000: 7a13 81be 4118 023f 2ff4 f83e c557 cbbd
00000010: ea8f 2cbe b1fa f1bd 0e59 7c3c b516 493e
00000020: 12f6 84be 7666 c5bb 7ad7 433e 9bd6 ed3d
00000030: 2a50 bb3d 54c2 863d 06cc 433e a851 f0bd
00000040: fc7f 0dbf 82f6 bbbe e7d9 90be b611 e33d
00000050: 13b3 633f dfa3 fb3e edb6 b93c 2aaa 88be
00000060: 8b8b 703e c563 0ebe 8d52 e2be 0efc 6cbe
00000070: db33 d23c 6aa1 e13d fb0e 8fbe 9321 87be
00000080: 72a9 7bbd 9b3c 183e d090 033e f99b 2abd
00000090: cc44 cd3d 1eac 83bd bb48 bebc 3821 683e
000000a0: bb58 58bd 0bf6 44bd d636 72be 8604 eebe
000000b0: 7f6d dabe 200a 513e 58d8 96bc 52ad 04be
000000c0: 64d4 8dbd 6d91 5dbc 0398 afbe 972d d13d
000000d0: 1892 67bd e914 113f b33f 6c3e 0eb2 f43e
000000e0: 7579 f4bd b37e 8ebd 7abc 6b3e dcf0 42be
000000f0: 2c69 d3be 6a6b 05be 4461 9ebe 3840 17be
00000100: 57e0 0f3e 2373 373e e763 753e b4d7 e63e
00000110: fde9 23bd 9c49 93bd f630 e7be 477f 203e
00000120: c4ea 1abc 87a6 203e af91 22bf e50d f63c
00000130: 2b2c 59be f6b0 87be d815 643d 6589 073e
00000140: f621 c0bc 58de 5f3d 539d 513d 80ac 143e
00000150: 69e0 013e e57b b1bb 16e5 3cbe 8556 13bd
00000160: 5207 87bd 5e67 bcbc 91e2 413d c76a da3e
00000170: 7ac7 4c3e 6184 723d bcd1 84bd 216c 18be
00000180: 1da8 37be 8f89 55be 3071 19be da8b 9d3d
00000190: dbd3 1b3e 833b 4d3d a618 02be 08cb 12be
000001a0: 1eff 21be 8b31 34bb 3e1a 853c da6d 97bd
000001b0: 6aaa 3bbc 9dd2 00be dcde d43e 9841 8d3e
000001c0: 666d 68bd da0d 973d fe12 ee3d 41ed 81be
000001d0: d761 45bc 315a 99bc c0b9 a6bd 46bb 863e
000001e0: fc46 223c d91e cc3d c20f 8ebe e815 a0bd
000001f0: 9948 01be 7e8d 3ebd d6ce 84be fb8d 4fbe
00000200: 18d6 153e 13c4 c93d 7215 103e dd95 b23b
00000210: e415 e73e 3020 7b3e 7d01 623e 9e82 83bb
00000220: 38b4 3b3d 793a 033d 0462 1f3f e20a e23e
00000230: 69cc aa3e 0e21 843e 26a2 bebe 2cef f9ba
00000240: 419a f6bd d75d 1fbe 545f 9cbd 7c9d 0a3e
00000250: b0dc 433e c465 ce3d d0f9 a43d d4a8 d23c
00000260: 5275 813d 1d00 3bbe d06d eebe a7f6 c4bd
00000270: 1e7a 343e 7947 b23c 0fc2 aabd cbbd bf3d
00000280: 35e2 f4bd 405d 073e 6d1a b93e d0a2 ac3e
00000290: 6981 6d3e ea39 e3be 9036 813e 1f49 c9bd
000002a0: a6ee 1f3e e5bb b6bd 088e 9ebe 5711 86be
000002b0: 1153 c4be bcc6 acbe 949d dbbb 7f0a bb3e
000002c0: b974 d03e ec05 933e a9e6 503d 2eb1 b6be
000002d0: 0a75 7ebd 119f 0bbe b0cb d5be 2901 a6bd
000002e0: 39cd 793d 933f 76be 1714 0dbf 0012 ba3d
000002f0: f6bc 52be d79c b53d 3156 78bd 85a3 843d
00000300: 1422 6a3c 3151 853e e803 72be b3c4 363f
00000310: a324 b23e d5a6 433d 433a cabd 9031 debe
00000320: 4701 a53e 57cc 91be 27d5 99be 9a06 c6be
00000330: 70b6 17be bc2f 4d3d ee6d b6bd 062a 573e
00000340: 3696 ba3e 0bdf e8bd c544 e9be 29c0 96be
00000350: 91fd 8dbe 6218 d8bd 3483 063e 7f19 0b3e
00000360: 58fd 993e fadd 0a3e e1a1 9ebe e16b 31bd
00000370: 8781 9ebe 5808 8fbb 1e87 73be 8052 cebc
00000380: 6366 25be 56c7 73be ee47 623d 0f75 ebbc
00000390: 6af1 1dbc 9d70 a2be dfa1 763d de4b ee3d
000003a0: 49f0 0c3d c6ae 0d3d d61a 93bd c7e9 80be
000003b0: 33fc aebe 714b c6bb e00f 51be 0e57 273e
000003c0: 084b 01be a6f8 313b cb01 6fbe 5ab8 353e
000003d0: 4a26 9cbd 4347 3a3e 2f49 aa3c f2b1 c73d
000003e0: d6c8 f9be 4805 ecbe f050 003e 4a46 f5bc
000003f0: 0004 a4bd 778f c0bb ea85 5cbe 6042 b9be
-0.25210172 0.5081826 0.48623797 -0.0992885 -0.16851774 -0.11815394 0.015402092 0.19637568
-0.25968987 -0.006024177 0.19125167 0.11613198 0.091461495 0.06580034 0.19120798 -0.11734325
-0.55273414 -0.36711508 -0.28291246 0.110873625 0.8894512 0.4914846 0.022670234 -0.26692325
0.23490731 -0.13905247 -0.44203606 -0.23143026 0.025659492 0.110171154 -0.27941117 -0.26392803
-0.061440893 0.14866869 0.1284821 -0.041652653 0.100228876 -0.06429313 -0.02322804 0.22668922
-0.052818995 -0.048086207 -0.23653731 -0.46487826 -0.42661664 0.20414019 -0.018413708 -0.12956741
-0.06925276 -0.013523442 -0.34295663 0.10213774 -0.05653581 0.5667253 0.23071174 0.47792095
-0.119372286 -0.0695776 0.23021117 -0.19037193 -0.41291177 -0.13029256 -0.30933583 -0.14770591
0.14050423 0.17915015 0.23963891 0.45086443 -0.04001807 -0.07191774 -0.45154542 0.15673552
-0.009455387 0.15688525 -0.63503546 0.030035922 -0.21208255 -0.26502198 0.055684894 0.13236006
-0.023453694 0.054655403 0.051175427 0.14518929 0.12683262 -0.0054163807 -0.18446764 -0.035971183
-0.06593193 -0.022998508 0.04733521 0.4265959 0.1999797 0.059208278 -0.06485316 -0.14884998
-0.17935224 -0.20853256 -0.14984584 0.0769269 0.15217535 0.050105583 -0.12704715 -0.14335263
-0.15819976 -0.002749535 0.016247865 -0.073939994 -0.011454204 -0.12580343 0.41576278 0.27589107
-0.056744955 0.07375689 0.11624716 -0.25376323 -0.012047253 -0.018719764 -0.08140898 0.26314753
0.009904619 0.09966821 -0.27746397 -0.07816678 -0.1262535 -0.046521656 -0.25939053 -0.20269005
0.14632452 0.09851851 0.1407068 0.005449994 0.4513389 0.24523997 0.2207088 -0.0040133735
0.045826167 0.032038186 0.62258935 0.44148928 0.33359078 0.2580647 -0.37233084 -0.0019068471
-0.1204114 -0.15563141 -0.0763537 0.13536638 0.19127154 0.10078004 0.080554605 0.02571527
0.06321205 -0.18261762 -0.46568155 -0.09617358 0.17624709 0.021762596 -0.08337795 0.09362372
-0.11957208 0.13219166 0.36152974 0.33717966 0.23193897 -0.44380122 0.2523694 -0.098284
0.15618381 -0.08922557 -0.30967736 -0.26185104 -0.38344625 -0.33745372 -0.0067021344 0.36531445
0.40714052 0.28715456 0.051001225 -0.35682052 -0.062123336 -0.13634898 -0.41756964 -0.0810569
0.06098673 -0.24047689 -0.5510878 0.090854645 -0.20579895 0.088678055 -0.060629074 0.064765014
0.014290351 0.26038507 -0.23634303 0.7139389 0.34793577 0.047766525 -0.09874394 -0.43397188
0.32227537 -0.2847621 -0.30045435 -0.38676912 -0.14815688 0.05009435 -0.08907686 0.21012124
0.36442727 -0.11370667 -0.4556028 -0.29443482 -0.27732518 -0.10551526 0.13135988 0.13583945
0.30076098 0.1356124 -0.3098288 -0.043315772 -0.30958197 -0.0043650083 -0.23782012 -0.025185823
-0.16152339 -0.2380651 0.05524438 -0.028742341 -0.009640077 -0.31726542 0.060212966 0.11635564
0.03440884 0.034590505 -0.07182853 -0.25178358 -0.34176788 -0.006051474 -0.20416212 0.16341802
-0.12626278 0.0027156263 -0.23340528 0.17746106 -0.076244906 0.18191247 0.02078685 0.09750737
-0.48786038 -0.4609778 0.12530875 -0.029940743 -0.080085754 -0.0058764773 -0.21535459 -0.36183453

conv5.bias f4 [32]
00000000: e277 87be 231c 32be cfe9 06be a2d5 f43e
00000010: fb59 98bd 15c0 d6be ba23 9d3e d65c 6cbe
00000020: 2cb4 41be 411e 26bf 6d2c 803d a68c 993e
00000030: f70e 45bf f449 e8be 950a 18be b935 f9be
00000040: 3b57 c1bd 36f8 48bf 03a8 21bd 8d9a a3be
00000050: 3123 f6bd a1d4 3abf f8cd b33d 11dc 11bd
00000060: ad8b 94bc d325 efbd 7200 7bbe a4cf 82be
00000070: c3b4 21bf 6a56 d2be 3c3e c73e 64d0 023e
-0.2645865 -0.17393546 -0.13175128 0.4781924 -0.074390374 -0.41943422 0.3069132 -0.23082289
-0.18916386 -0.64889914 0.062584735 0.2999012 -0.7697596 -0.45368922 -0.14847787 -0.486738
-0.09440466 -0.7850374 -0.03946687 -0.3195385 -0.12018431 -0.72980696 0.0877952 -0.035610262
-0.018133009 -0.11677136 -0.24511889 -0.25549042 -0.63166445 -0.41081554 0.3891467 0.12774807

conv6.weight f4 [32, 32, 5, 5]
00000000: 7369 8a3d b952 9ebc d25c 863d dd0c cc3d
00000010: 16b3 cc3e a5ce 79be 324a fbbc 9c31 f7bd
00000020: de09 493e 7567 3ebd 62c5 9e3d f7e7 86be
00000030: 87da 0bbd d155 203e 9abf 453e e68a e13d
00000040: e4f6 30bd cda2 c8be 9c69 cfbd 7891 c2be
00000050: 8cc0 21be 9c85 d83e 872d 623e f693 a63e
00000060: 5bb9 a43c e762 943e 6b4f 713d 53d5 993d
00000070: f7cd ca3a 9094 4f3e e076 b7be b99f 0f3e
00000080: 3d9a 89bd 61f6 603d 94dd a93e f8ee a1bd
00000090: 2196 0dbe 8404 413d b70f 5cbe 646f 53be
000000a0: bbee 303e 1113 c93b 8679 88bd 18e7 b13d
000000b0: 00a8 30be e934 253e e95e ca3d 7a07 5fbe
000000c0: 2c39 8c3c e789 71bd c65f a63e c760 da3c
000000d0: 36d0 b2bd 419b abbe 45b2 293d b3c9 eb3e
000000e0: beef 92bd 4a0d 8ebd 9f9f e7bd 1522 1d3e
000000f0: 156f d5bd 2c1b 8e3e da0e e03c 6e30 bc3d
00000100: abd2 583e 8ea4 a53c 1808 e33c de0f b2be
00000110: 2646 95be 1fa6 00be 1825 c9be 549f 2ebe
00000120: aef9 8dbe 7772 9d3d 8255 313e 8176 95bd
00000130: 5e02 cd3c c995 0ebc 322a 65be 587b 5e3d
00000140: f205 71be d64a bdbe 6620 26be 8880 da3c
00000150: afdc 023d 0366 8dbe eb9e b2bd 86c0 03be
00000160: 417c 78bd 78aa 7f3d e2c8 9abe 9c3e eebc
00000170: 6453 55be 131d 14be 59e4 86be 59e1 153d
00000180: 6b3c c9bd 86c0 3bbe 6224 2fbe f142 f4bc
00000190: 111d dfbd 31dd 79be d0ff aebe 2907 20be
000001a0: 853f 94bd cef4 72be 31e0 d9bd 7cd0 c2be
000001b0: c025 87bd d781 9d3d 7c6b b7be d1cb bdbe
000001c0: 2df1 b7be d5a3 613d d073 e8bd 0d87 633e
000001d0: 2193 913e 6293 64be 6a09 cdbe 3a7b cc39
000001e0: a315 cabd e432 f13d 9ea6 1dbd 6cda e23d
000001f0: b9b0 58bd 45a4 0b3e b3cb 4d3d bec0 d13e
00000200: fda2 ff3e a926 c03e 20a3 403e dd22 05be
00000210: 125f 9bbe 9121 25bf 1c67 51be 83bd e4be
00000220: bd9c 58be 81cf 623a 97e4 5cbe 6e06 293e
00000230: b132 013e 5ae1 903e 5805 1bbe c68d 3a3e
00000240: 3d8d b83d 7c8e 08be ebdf 31be 116a 1a3d
00000250: b666 a03e fbe5 f23d c8c9 38bd 1318 a63e
00000260: 546b 70bd 6912 38be 0191 f6be 3aaa f93d
00000270: 2755 033e c675 89ba 9c3f 58be df61 43be
00000280: 7685 57be a41b 23be 5379 d9bd 4421 28be
00000290: 6e4b c03e de8d 93be 0bd0 a6be a71a 59bd
000002a0: e5ee 073d 3ef3 b63e 2f99 7a3e 517c 5fbb
000002b0: 5d8a 53bd cea8 073e e56c 953d 6b86 723e
000002c0: ffd5 cfbd a7dc aabe eac7 96be 2b74 513e
000002d0: b927 2c3e 981f 1e3e 9dda 6d3d 9480 b43c
000002e0: d487 40bd dbdc a8be f1e0 723c f775 12bd
000002f0: af75 ccbd 3695 d43c 343e 6fbe f0d5 8ebe
00000300: c417 afbe 4a38 78be f226 b8be c6d6 2a3d
00000310: 5530 443c e781 1d3e d993 9dbb 18fe aa3d
00000320: 815d 1e3e 2765 493e e6ca 5cbc 2e4a 54be
00000330: aefa 503e 7092 7a3e 2fe8 643e 2796 cabd
00000340: ee8b cabe 6bae 87bd 197e 83be dbd0 f8bd
00000350: 738c 04be 22f2 903e f27f a93d ad2e b13d
00000360: e773 1abe 26aa 863d 0234 f13d 1db5 90be
00000370: 20f3 653e afb1 cf3e a51a 753e 1a01 803d
00000380: 5539 1b3e 979a ba3e 5432 063e 0efa 443d
00000390: cf2b 84be 1e5c 7f3d 1f32 473e 87bb 563e
000003a0: 7af5 4cbe c7eb 133d 2a61 053e ac7a a4be
000003b0: cd39 823e 85cc 73be 0e42 70bc cbd6 c13c
000003c0: 5c8d 8a3e 3feb 813e ac1b 09be 8772 64bd
000003d0: 1300 4abd 0858 843d 8d56 063f 367b df3e
000003e0: c869 033f ab2e 023f 94c9 13be 4800 c0bb
000003f0: 79d0 3dbe f7e6 55be c1df 673e 90e5 e03d
0.06758394 -0.019326555 0.06560673 0.09963391 0.39980382 -0.24395235 -0.030675028 -0.12070009
0.1963267 -0.046485383 0.077524915 -0.2634885 -0.03414395 0.15657736 0.19311371 0.11012821
-0.043204203 -0.39186707 -0.10127565 -0.3800161 -0.15796107 0.42289436 0.2208768 0.3253476
0.020107916 0.28981707 0.05891363 0.075113915 0.0015472759 0.20271516 -0.35832882 0.14025773
-0.06718872 0.054922465 0.33176863 -0.07906908 -0.13826801 0.047123447 -0.2149037 -0.20647961
0.17278568 0.006136306 -0.06663804 0.08686656 -0.17251587 0.16133465 0.09881384 -0.21780196
0.017117105 -0.058969405 0.32494944 0.026657475 -0.08731119 -0.33516887 0.041429777 0.46052322
-0.071746334 -0.069361284 -0.11309742 0.15345033 -0.10421578 0.27755105 0.027350832 0.09188925
0.21174113 0.020220067 0.02771382 -0.3477773 -0.29155082 -0.1256337 -0.39286113 -0.17052966
-0.27729553 0.07687848 0.17317775 -0.072979935 0.025025543 -0.008702704 -0.22379377 0.05431685
-0.23537424 -0.36971158 -0.16223297 0.026672617 0.03194874 -0.2761689 -0.087217174 -0.1286641
-0.060665373 0.06241843 -0.30231386 -0.029082589 -0.20832592 -0.14464216 -0.2634609 0.03659186
-0.09825977 -0.1833516 -0.17103723 -0.029817076 -0.10894216 -0.24400784 -0.34179544 -0.15627731
-0.07238678 -0.23726198 -0.10638464 -0.38049686 -0.06598997 0.076907806 -0.35824192 -0.37069562
-0.3592619 0.055087883 -0.113502145 0.22219487 0.28432563 -0.22321847 -0.40046245 0.00039001723
-0.09867408 0.11777285 -0.038488977 0.11076817 -0.05290291 0.13636883 0.05024309 0.40967363
0.49929038 0.37529495 0.18812227 -0.1300158 -0.3034597 -0.64504343 -0.2044949 -0.44675836
-0.21153541 0.00086521363 -0.21571575 0.16506359 0.12616993 0.2829693 -0.15138757 0.18218145
0.09011314 -0.13335603 -0.17370574 0.03769881 0.31328362 0.118602715 -0.04511431 0.32440242
-0.058696106 -0.17975773 -0.48157504 0.12190671 0.12825452 -0.001048737 -0.21118015 -0.19080304
-0.21047005 -0.15928513 -0.10618844 -0.1641894 0.37557548 -0.28819174 -0.325806 -0.053003933
0.033186812 0.35732454 0.24472497 -0.0034101198 -0.051645625 0.13247988 0.072961606 0.23684089
-0.101482384 -0.3337147 -0.29449397 0.20454471 0.16812028 0.1544174 0.058069814 0.022033967
-0.047004536 -0.32981 0.014824138 -0.03575703 -0.09983384 0.025950056 -0.23363572 -0.27897596
-0.3419782 -0.24240223 -0.35967213 0.04170873 0.011974414 0.15381585 -0.0048088846 0.08349246
0.15465356 0.19667493 -0.013476109 -0.20731422 0.20408127 0.24469924 0.22354196 -0.098919205
-0.39559883 -0.066250645 -0.25682142 -0.12149211 -0.12944202 0.28309733 0.08276357 0.08651481
-0.15083276 0.06575422 0.11777498 -0.28263178 0.22456026 0.4056525 0.23935945 0.0625021
0.15158589 0.36446068 0.13105136 0.048090033 -0.25814673 0.06234371 0.19452713 0.20969974
-0.20015517 0.036113527 0.13025346 -0.3212484 0.25434723 -0.23808487 -0.014664186 0.023661992
0.27060974 0.2537479 -0.13389462 -0.055773284 -0.049316477 0.06462103 0.52475816 0.4364869
0.51333284 0.5085246 -0.14432365 -0.0058594085 -0.18536557 -0.20888887 0.22643949 0.109812856

conv6.bias f4 [32]
00000000: b66a 1cbf 173c 12bf 0ab4 5fbf c050 cebe
00000010: 2a9f ffbe dfbc d1be 197b 32bf c45e 76be
00000020: 2b87 fcbe 6dbf 1abf b87a 3cbf 244d ef3e
00000030: 4164 8bbe e6e7 023f 588f c3be 2b91 cbbd
00000040: c115 253f 68ea fc3c 2e82 3a3d b256 13bf
00000050: 0c1f a3bd 5a60 b63e 634c 813e d4f5 2abf
00000060: 541f 2ebf cdd8 e0be 7f81 b9be 1a50 9ebe
00000070: 96cc 21bf cb8d 68bf 77d3 0dbf 5129 4fbe
-0.6110033 -0.5712294 -0.8738409 -0.40295982 -0.4992612 -0.4096441 -0.6971908 -0.24059588
-0.49321875 -0.6044834 -0.73624754 0.4673854 -0.27224925 0.511351 -0.381953 -0.09939798
0.6448632 0.030873492 0.045534305 -0.5755416 -0.07964906 0.35620385 0.2525359 -0.66781354
-0.6801655 -0.43915406 -0.3623161 -0.30920488 -0.632028 -0.9084136 -0.55400795 -0.20230605

conv7.weight f4 [32, 32, 5, 5]
00000000: 468a 2b3d f689 b4bd 89d4 00be 3c3d 7dbe
00000010: 385a a2bd eacd 4bbe 470c ce3d 7045 77bc
00000020: 98a4 3d3c 60e7 0a3d 81e8 73bd 7571 44bb
00000030: ea2e 94be 942e 81bd 1d79 76bd cc9d 2d3e
00000040: a548 203d ccef f5bc 11ae 8d3d 5366 2ebe
00000050: e1f0 a4bd 5c6c 933d 62b7 893e a48c 9f3d
00000060: 7286 1bbd f540 6a3e 6390 b73d 7f1b e8bd
00000070: 5deb 34be a895 483d d89f 5dbe b3fe b8bd
00000080: 8ea9 80be 7d11 3b3e 5d21 08be d262 bc3d
00000090: 55b5 393e ac9d 73be 07bb 15be 36ea 93bd
000000a0: 2923 833e 9ffb a2bd ec14 e1bd bec8 b5bd
000000b0: b66d 7b3e 3b28 dfbd b608 6cbe d21b 31be
000000c0: 921c 70be 51dc 173e 99d5 9bbe 4951 5dbe
000000d0: fa35 03be a3bf 473e f66d a83e 856e fc3d
000000e0: c406 74be 1c1a 12bf cde1 b5be 3e0a ecbd
000000f0: 1906 f3be baef 03bf 2925 96be 899e e9bd
00000100: d4a3 53bd 6b90 f8bd 9a71 dd3c 1b47 f73d
00000110: 5f63 b53c d763 bfbe f755 323e 8a8d 0e3e
00000120: 70b5 09bc 039d 5e3d 6c93 7e3e e2fe 183e
00000130: 5a34 c1bd b28e cbbe bc58 dd3d 6bdd 663b
00000140: b37a 593e 3ea4 eebd da8d 03be 9672 86bd
00000150: 414d bcbd abdd 1c3e 1f53 58bd 5c5b 40be
00000160: ace1 f7bc 1595 2a3e feb0 02bd 8aba b63e
00000170: 8988 323e ed59 11be 39c3 b6bd ff1e 833c
00000180: 5249 573d 7db3 b83d c1ee e33e a63a d23e
00000190: 0bd2 493d cc06 063e 39cd c43d 0172 723e
000001a0: fc08 ba3d 2438 c9be a142 e2bd 3a4e b2bc
000001b0: a764 8ebc 6a49 f1bd b2f6 c4be 5512 80be
000001c0: be48 86be 54e4 3ebd 6f16 883d caa9 b8bd
000001d0: c67e 20be 7b31 b73e 1e15 413e e3a9 78bd
000001e0: 4689 293e c7e2 9f3e 5f42 633e d5ca c83b
000001f0: 3048 863e e273 e83d 2315 b23d 9af8 d63d
00000200: da96 493e e4a6 203e f9a1 8e3e a2a3 713d
00000210: af79 35be 10d5 173d 144c 21bd ebfa 253e
00000220: a86c 3b3e 0557 c2bc eaaa 023e 4047 193d
00000230: f808 5abe 3238 363e 92a4 35bd 12b8 7c3d
00000240: fbc9 b2bc 4173 4fbd abd6 99be c6ad 0cbd
00000250: bba6 5a3e 9215 10bd 392a 973d 3f7a 743e
00000260: 08f2 143e 3f58 be3c 2b4b 593d dbf6 97be
00000270: 83ae 683c 319d 213d 3d3a 0d3e 9ffd ebbd
00000280: 029a d9bc 83ce 90bc af2c f53d 0708 383d
00000290: e28c 9abd 56b9 cb3e 869b 113d 0121 1cbd
000002a0: 5505 6cbc 6c44 2d3d b62e 8dbd f13c 0abf
000002b0: bd15 88be d2f6 33be e84c 1e3d 9865 a8be
000002c0: 82cd 48be 4388 d3bc c845 8d3d 2668 8cbd
000002d0: 9325 fd3c e1ff 05bf 7a52 83be 71fb 09be
000002e0: a3f9 8fbd 9f40 61bd c9fc 42be a985 36bc
000002f0: cfbe 6cbe c252 c53d a5af a5bd b837 433d
00000300: 50b0 7ebe 2395 84be 93b8 18be cad5 993d
00000310: df78 1fbd b830 bf3c 05b6 44bc 5478 79be
00000320: 1188 0c3d 1189 dabe 88c5 5bbe abcd 20be
00000330: 20d5 913d e2a3 923b 8cb6 93be e559 c2bd
00000340: 6ec4 6d3e b55c 813e 0a5c 873b df72 d33c
00000350: decb 0fbe bb98 5fbe b493 0c3e 3950 d5bd
00000360: 3254 a9be 521a a3bd 3441 ebbd 2ede d8bd
00000370: dc58 cabe fe74 63be 2c58 3bbe 1075 53be
00000380: 7a66 0d3e 659b 9dbe d65e a03d a207 e03d
00000390: 0d2d a0be 38dd c3be ba0b 99bd c1ff f33c
000003a0: 9a84 ffbd 8b59 633c 969b 753b 557e 82bc
000003b0: 7ed3 2dbe 8819 b6bd f546 b83d f4de 813e
000003c0: 38e4 4ebe 77ba 90bd a89a 4bbe 7ec7 e9be
000003d0: ec4f debd 628b dabe ee2f 04bf 26ef 7ebe
000003e0: de09 b3be dbfc a63e 1435 eebe 4241 fcbe
000003f0: 118c c8bd 8e2e 913c 5581 b23d b382 a33d
0.041879915 -0.088153765 -0.12581076 -0.2473039 -0.07927364 -0.19902769 0.100609355 -0.015092239
0.011574887 0.033912063 -0.059547905 -0.0029974852 -0.28942043 -0.06307712 -0.060174096 0.16954726
0.03913178 -0.03002157 0.06917966 -0.17031221 -0.080537565 0.07198402 0.26897722 0.07790497
-0.037970014 0.22876342 0.089630865 -0.113333695 -0.17667909 0.04897085 -0.21643007 -0.09032955
-0.2512936 0.1826839 -0.13293977 0.09198536 0.18135579 -0.23790616 -0.14622127 -0.072224066
0.25612763 -0.07958149 -0.10990319 -0.08876179 0.2455357 -0.10896345 -0.23050198 -0.17295769
-0.23448399 0.14830138 -0.304364 -0.21613039 -0.12813559 0.19506697 0.32896394 0.123257674
-0.23830706 -0.5707109 -0.35523835 -0.11525391 -0.4746559 -0.5153767 -0.29325226 -0.11407191
-0.05166991 -0.121369205 0.027031709 0.12074109 0.02214211 -0.3738086 0.17415605 0.1392118
-0.0084050745 0.054348957 0.24860924 0.1494098 -0.094338134 -0.39757305 0.1080794 0.003522719
0.21238212 -0.116524205 -0.12847081 -0.06564824 -0.091944225 0.15318935 -0.052813645 -0.18784851
-0.030258976 0.16658433 -0.031907074 0.35689193 0.17434897 -0.1419446 -0.089239545 0.016005991
0.052560158 0.0901861 0.44518092 0.4106037 0.04927258 0.1308853 0.096094556 0.23676302
0.09083745 -0.39300644 -0.11047865 -0.021765817 -0.01738198 -0.11781581 -0.38469464 -0.25013986
-0.26227373 -0.04660447 0.06644904 -0.0901676 -0.1567336 0.35779938 0.18855712 -0.06070889
0.16556272 0.31227705 0.22193287 0.006127695 0.2622695 0.11350228 0.08695438 0.10496636
0.19686452 0.15688664 0.2785795 0.058993943 -0.177222 0.037068427 -0.039379194 0.16208999
0.18303168 -0.023723135 0.12760511 0.037421465 -0.21292484 0.17794874 -0.0443464 0.06169898
-0.021824827 -0.050647024 -0.3004659 -0.03434541 0.21352665 -0.03517682 0.073811 0.23874758
0.14545453 0.023235438 0.0530502 -0.29680523 0.014201763 0.03945655 0.13791747 -0.11522984
-0.026562694 -0.017676597 0.11971413 0.04492953 -0.075464025 0.39789838 0.03554871 -0.038117412
-0.014405568 0.04230158 -0.06893675 -0.5399924 -0.26579085 -0.17574623 0.038647562 -0.3289001
-0.19609645 -0.02582181 0.06898075 -0.06855802 0.030901706 -0.52343565 -0.25648862 -0.13474824
-0.07030036 -0.054993268 -0.19041742 -0.0111402655 -0.23119663 0.096349254 -0.08090142 0.04766056
-0.24871945 -0.25895032 -0.1491416 0.0751148 -0.03893363 0.02333866 -0.012006287 -0.24362308
0.03430945 -0.42682698 -0.21462071 -0.15703456 0.071207285 0.0044751028 -0.2885021 -0.09489802
0.23219463 0.25266042 0.004130845 0.02581161 -0.14042613 -0.21835606 0.1372822 -0.10415692
-0.33072048 -0.079640046 -0.11487046 -0.105892524 -0.3952092 -0.22212598 -0.18295354 -0.20650125
0.13808623 -0.3078262 0.078305885 0.10938956 -0.3128437 -0.38254714 -0.0747294 0.029785039
-0.124764636 0.013876329 0.003747677 -0.01592938 -0.16975209 -0.088915884 0.08997909 0.25365412
-0.20204246 -0.07066815 -0.19883215 -0.45660013 -0.10855088 -0.42684466 -0.51635635 -0.24895915
-0.34968466 0.32614788 -0.4652487 -0.49268538 -0.097923405 0.017722394 0.087160744 0.07983913

conv7.bias f4 [32]
00000000: 6887 b23d 77b5 6b3f 0599 743f 0836 26bf
00000010: 6842 0bbf 2f97 6fbe 31f6 0f3f c605 7e3f
00000020: 6133 fcbe a139 5bbf 88b9 6bbe 4c88 483f
00000030: 5fa0 653f d8bd 36bd 223b 883f b7a3 22bf
00000040: 63f2 a5be d81b 14bf 669f 473f f165 b3be
00000050: 975c 24bf 8219 0abf 0aab 82be 0f87 893f
00000060: c94e 31bf fc3f 5f3e c93a 4bbf df6b f5be
00000070: af3d 32bf 3965 233e c8e0 8fbf 23eb 4a3f
0.08717233 0.9207377 0.9554599 -0.64926195 -0.543982 -0.23397516 0.56235033 0.9922756
-0.4925795 -0.8563481 -0.23019993 0.7833297 0.8969783 -0.044614643 1.0643046 -0.6353106
-0.3241149 -0.57854986 0.779776 -0.35038713 -0.6420378 -0.5394517 -0.25521117 1.0744342
-0.6926084 0.21801752 -0.79386574 -0.47933862 -0.6962537 0.15956582 -1.1240473 0.7926504
