models/DQN_wb__reward_2__DQN_light.pth (torch, 497358 bytes, 17 tensors)

conv1.weight f4 [32, 1, 5, 5]
0	0xbe8d0726	-0.27544516
1	0x3ea7a933	0.32746276
2	0xbc893769	-0.016750054
3	0xbd9bcebe	-0.07607792
4	0xbe5d0e78	-0.2158755
5	0xbd340a78	-0.043955296
6	0x3d59706e	0.053085737
7	0x3d81507e	0.06314181
8	0x3dbedc93	0.09319415
9	0xbe5f4f6c	-0.21807641
10	0x3e0b3d11	0.13597514
11	0x3d87e354	0.06635156
12	0x3ec410bb	0.38294014
13	0x3ed2c992	0.4116941
14	0xbd302d7e	-0.043012135
15	0x3de0d252	0.109776154
16	0xbf21d0b3	-0.63209075
17	0x3cbef044	0.023307927
18	0xbe27a01d	-0.16369672
19	0x3e154de1	0.1458049
20	0x3ef73012	0.48278862
21	0xbe8a00d8	-0.2695377
22	0x3f1340dc	0.5752084
23	0xbec08dd0	-0.37608194
24	0xbf0f5259	-0.5598503
25	0x3d35df7f	0.044402596
26	0x3eb62d41	0.355814
27	0x3e8b8863	0.27252492
28	0xbe244625	-0.16042383
29	0x3ed240e1	0.41065124
30	0xbd747cc4	-0.0596893
31	0xbd0b4432	-0.034000583
32	0x3bd90696	0.0066230996
33	0xbd252c17	-0.04032525
34	0x3e837cba	0.25681096
35	0xbea27b72	-0.31734806
36	0xbe12c466	-0.14332733
37	0xbee10846	-0.43951625
38	0x3e86b77d	0.26311865
39	0xbe6cee8e	-0.23137876
40	0xbe4a4358	-0.19752252
41	0xbe15deeb	-0.14635818
42	0xbeb28708	-0.34868646
43	0x3f3865af	0.72030157
44	0xbd34fad2	-0.044184513
45	0xbe54fd2b	-0.20799701
46	0xbe3efb19	-0.18650474
47	0x3d345064	0.04402198
48	0x3e2754aa	0.1634089
49	0xbe20c567	-0.15700303
50	0xbc7bdb45	-0.015372102
51	0xbedb4ad1	-0.42830518
52	0x3f20ad3b	0.6276433
53	0xbc3e9718	-0.011632703
54	0xbe44f5b6	-0.19234356
55	0xbdbe05d4	-0.092784554
56	0xbe675612	-0.22591427
57	0x3c0373b5	0.008023192
58	0xbd1a5516	-0.0376788
59	0xbea992de	-0.33119863
60	0xbde87167	-0.11349755
61	0x3e140f47	0.14458953
62	0xbfaae2a7	-1.3350419
63	0xbc7a071a	-0.015260482
64	0xbd01da41	-0.031702284
65	0xbd86b2ae	-0.06577049
66	0x3ec86658	0.39140582
67	0x3fd37772	1.6520827
68	0x3e14378c	0.14474314
69	0x3e1e86fd	0.15481181
70	0xbd9e0252	-0.07715286
71	0x3d0ade80	0.0339036
72	0xbeddf383	-0.43349847
73	0xbd838cc0	-0.0642333
74	0x3d1fe621	0.039037827
75	0x3e8b4850	0.27203608
76	0x3d27038d	0.04077487
77	0xbe67a5d2	-0.22621849
78	0xbea38a45	-0.3194143
79	0x3d2d1ee0	0.042265773
80	0x3df5bc26	0.11998777
81	0xbe3b9861	-0.18319847
82	0xbefe56bb	-0.49675545
83	0xbf346d13	-0.70478934
84	0x3e739011	0.23785426
85	0xbe9d328d	-0.3070263
86	0xbd3a2f90	-0.045455515
87	0x3f1732a6	0.5906166
88	0x3ec846f8	0.39116645
89	0x3bfe974e	0.007769502
90	0xbf1221fa	-0.57083094
91	0x3e757174	0.2396906
92	0x3f4a969f	0.7913608
93	0x3eae085f	0.33990762
94	0x3e05d4d2	0.13069466
95	0x3dcc050a	0.099618986
96	0xbe5ac849	-0.21365465
97	0xbeb4898a	-0.35261184
98	0x3b71b0d1	0.0036879072
99	0x3eb0a1fc	0.34498584
100	0xbe583554	-0.21114093
101	0x3d7fe31b	0.062472444
102	0xbf074e3d	-0.5285376
103	0xbba16ac4	-0.0049260575
104	0xbd9a7ab3	-0.07542934
105	0x3e03c8fd	0.1286964
106	0xbd006bc7	-0.031352784
107	0xbe48b69f	-0.19600914
108	0x3d98e30a	0.07465179
109	0x3e4f0ada	0.20218983
110	0xbe147422	-0.14497426
111	0xbd8a319d	-0.06747744
112	0x3f172c9a	0.5905243
113	0xbe058cc8	-0.13041985
114	0xbdb8e0a7	-0.09027224
115	0x3e130d1a	0.14360467
116	0x3beca885	0.0072222375
117	0xbef83c58	-0.4848354
118	0xbda59a9c	-0.0808613
119	0xbe368949	-0.17825808
120	0xbdb165f3	-0.086620234
121	0xbd91675a	-0.07099791
122	0xbe6b6fa4	-0.22991806
123	0x3db6a508	0.08918196
124	0xbd14680f	-0.03623205
125	0x3dd4560d	0.103679754
126	0xbf0fa998	-0.56118155
127	0x3e68191a	0.22665825
128	0xbe1c58b6	-0.15268216
129	0xbe18bdc4	-0.1491614
130	0x3e8db513	0.2767721
131	0xbe1ba34e	-0.15199015
132	0x3e181e7f	0.14855383
133	0xbe50f67a	-0.20406523
134	0xbdc6bb91	-0.09703744
135	0x3e90784d	0.28216782
136	0xbe58e6ad	-0.21181746
137	0x3dc02cc5	0.09383539
138	0xbd269c8a	-0.04067663
139	0xbd105535	-0.03523751
140	0x3edd4212	0.4321447
141	0x3e998ab0	0.29988623
142	0xbe880e61	-0.2657347
143	0x3ec70d4a	0.38877326
144	0xbdcbfd7a	-0.09960456
145	0xbd8e2718	-0.0694105
146	0x3d5374c3	0.051625025
147	0xbed42bdc	-0.41439712
148	0x3f4eecc1	0.8083001
149	0xbe502a8b	-0.20328729
150	0x3e0b27de	0.13589427
151	0xbcd0bbd5	-0.02548019
152	0xbdf88265	-0.12134246
153	0xbe496ca1	-0.19670345
154	0x3c58e0a9	0.013237157
155	0xbe456398	-0.19276273
156	0x3e48afa4	0.19598252
157	0xbe4419d3	-0.19150476
158	0x3ebc4c86	0.36777133
159	0xbd4037e7	-0.046928313
160	0x3c932596	0.017962258
161	0xbdd8d902	-0.10588266
162	0x3ea2e6ba	0.31816655
163	0x3c7e3616	0.015515825
164	0xbd7af409	-0.061267886
165	0x3d15a761	0.036536578
166	0x3dd7906f	0.105255954
167	0x3e864389	0.262234
168	0xbcb05f27	-0.021529747
169	0xbca42e09	-0.020041483
170	0x3e70b937	0.23508154
171	0x3e8b1782	0.27166373
172	0xbe1fff92	-0.15624836
173	0x3e5e1e28	0.21691191
174	0xbdd4dca1	-0.10393644
175	0x3d34c47f	0.044132706
176	0x3e02ee30	0.12786174
177	0x3eb52257	0.35377762
178	0xbea72dcb	-0.32652125
179	0x3e0e4797	0.13894497
180	0xbdba3f0f	-0.09094059
181	0xbd2dbea6	-0.042418145
182	0xbf8560a6	-1.042012
183	0xbde8be65	-0.1136444
184	0x3e264a3e	0.16239259
185	0x3db1c617	0.08680361
186	0x3ec2665a	0.37968713
187	0x3c0ded58	0.008662544
188	0x3c531f3b	0.012885864
189	0x3e7598b1	0.23984028
190	0x3e26d19e	0.162909
191	0x3d7ea8e9	0.062172804
192	0x3c5b33aa	0.013379017
193	0xbd8ba9fe	-0.06819533
194	0x3dc346c6	0.09534983
195	0xbe62c0bb	-0.22143833
196	0xbccef6ba	-0.025264133
197	0x3bdf4538	0.0068136714
198	0xbd250ccf	-0.04029542
199	0xbe82d8aa	-0.25555927
200	0x3e280cd0	0.16411138
201	0xbd433e2e	-0.04766672
202	0x3e691700	0.2276268
203	0x3dad8e3f	0.08474397
204	0x3e96f694	0.29485
205	0x3e518345	0.20460232
206	0x3e966d7e	0.2938041
207	0x3e308b6d	0.17240687
208	0xbc99b755	-0.018764177
209	0x3cbd34e0	0.023096502
210	0xbdf718a7	-0.12065249
211	0xbe158e89	-0.14605154
212	0xbdf63d4b	-0.120234095
213	0xbe238fe2	-0.15972856
214	0xbe8a2010	-0.26977587
215	0xbc54c47c	-0.012986299
216	0xbeee15b0	-0.4650092
217	0x3e3d16d4	0.1846574
218	0x3ea03a40	0.3129444
219	0xbddf700e	-0.109100446
220	0xbe037722	-0.12838414
221	0x3eb8a6fb	0.36064896
222	0x3e1a3413	0.15058927
223	0xbea36820	-0.3191538
224	0x3c204888	0.009782918
225	0xbdb976db	-0.09055873
226	0xbdc7d7fb	-0.09757992
227	0xbe76895e	-0.24075839
228	0x3c7bc0b3	0.015365767
229	0xbe313c36	-0.17308125
230	0x3dc88ea5	0.09792832
231	0x3dbb5796	0.09147565
232	0x3d5cada5	0.053876538
233	0x3db0e1ad	0.08636794
234	0x3d1a0974	0.03760667
235	0x3e4eccfc	0.20195383
236	0xba03ab48	-0.00050227763
237	0x3e300d0c	0.17192477
238	0x3e12a07e	0.14319035
239	0x3e5486a8	0.20754492
240	0xbe753fd0	-0.23950124
241	0xbd159407	-0.036518123
242	0xbb846953	-0.004040876
243	0x3e749232	0.23883894
244	0xbc96979e	-0.018382844
245	0xbe803b2d	-0.25045148
246	0xbd0e169a	-0.034689523
247	0xbdc49763	-0.09599187
248	0x3e3dbd48	0.18529236
249	0x3eaa3989	0.3324702
250	0x3da744ab	0.08167394
251	0x3ef2d293	0.4742628
252	0xbfb2984a	-1.3952725
253	0xbeac46b2	-0.33647686
254	0xbebc91e1	-0.36830047
255	0xbe8fe8e7	-0.28107378

conv1.bias f4 [32]
0	0xbe2eca90	-0.17069459
1	0xbd1e061a	-0.038580038
2	0xbf3dc709	-0.7413183
3	0xbf1ad538	-0.60481596
4	0x3e86c7f7	0.26324436
5	0x3e035ac1	0.12827589
6	0xbe86e135	-0.26343694
7	0x3eee9fc1	0.46606258
8	0x3eaef77e	0.34173197
9	0xbed01e8c	-0.40648305
10	0x3ec42c5c	0.38315094
11	0x3d2ced7e	0.042218678
12	0xbdfbebc0	-0.12300825
13	0x3e9208c9	0.28522328
14	0xbed132e7	-0.40859148
15	0x3ec9b1f0	0.39393568
16	0xbf053056	-0.5202688
17	0x3d7e4fc6	0.062087797
18	0x3ef3da82	0.47627646
19	0x3eaf3fe5	0.34228435
20	0x3e5ff1ca	0.21869579
21	0xbed78179	-0.42090967
22	0x3e30d83f	0.17269991
23	0xbea34d4c	-0.3189491
24	0x3e9c6a69	0.30549935
25	0x3e9a8580	0.30179977
26	0xbe11ca54	-0.14237338
27	0x3e6815d7	0.22664581
28	0xbeb5b117	-0.3548667
29	0x3edaeea2	0.42760187
30	0xbf204e9c	-0.6261995
31	0x3da97398	0.08274001

conv2.weight f4 [32, 32, 5, 5]
0	0xbdf4d108	-0.11953932
1	0xbed7ab00	-0.4212265
2	0xbbc8f136	-0.00613227
3	0xbe374710	-0.17898202
4	0xbe1debff	-0.15422057
5	0xbe548a11	-0.20755793
6	0xbe14f812	-0.14547756
7	0x3e06b19a	0.13153687
8	0xbe6e55ab	-0.23274867
9	0xbd2b1310	-0.041766226
10	0x3da44cda	0.08022471
11	0x3e610d07	0.21977626
12	0x3e0cf0c9	0.13763727
13	0xbdfc9675	-0.12333385
14	0xbe48453c	-0.19557661
15	0x3de37711	0.111066945
16	0x3d5fca9b	0.05463658
17	0x3e632980	0.221838
18	0xbf0c4d22	-0.54805195
19	0xbe6a417a	-0.2287654
20	0xbdc64b3d	-0.09682319
21	0xbe3525a0	-0.17690134
22	0xbd08c7e0	-0.03339374
23	0xbebafa05	-0.36518875
24	0x3e2c70b4	0.16839868
25	0x3ebbeb50	0.36702967
26	0x3dad9d23	0.08477237
27	0xbea15bc1	-0.31515315
28	0xbe8ee81e	-0.27911466
29	0x3dbe6325	0.09296254
30	0x39d020ca	0.0003969728
31	0x3dc5890f	0.096452825
32	0xbe03c429	-0.12867798
33	0xbe1287d3	-0.14309625
34	0xbd4af4a8	-0.04954973
35	0xbf04e576	-0.5191263
36	0x3e742275	0.2384127
37	0xbc795f5e	-0.015220491
38	0x3df61579	0.12015814
39	0x3e83ad47	0.25718138
40	0xbed099fc	-0.4074248
41	0x3db9fcbd	0.09081409
42	0x3c8025b2	0.015642975
43	0xbd9b0c6a	-0.07570727
44	0x3e20e463	0.15712123
45	0xbf212ea7	-0.6296181
46	0xbdd8c2e4	-0.105840474
47	0xbee2017e	-0.44141763
48	0xbf5526e9	-0.832625
49	0xbec59cb3	-0.38596115
50	0xbc47d3cb	-0.0121964915
51	0x3f57276a	0.84044516
52	0xbeb0cfa5	-0.3453342
53	0xbe3949bc	-0.18094534
54	0xbe6507ec	-0.22366303
55	0xbd0fbc74	-0.035091832
56	0xbeeac46d	-0.45852986
57	0xbde17f49	-0.11010606
58	0x3c5999cc	0.013281297
59	0xbda7916d	-0.08182035
60	0x3ee5b566	0.4486496
61	0xbef7807e	-0.4834022
62	0xbe88a56a	-0.266887
63	0x3bbec2ec	0.0058215763
64	0x3e61b908	0.2204324
65	0x3f2f5fd8	0.6850562
66	0x3e4fd5ed	0.2029645
67	0x3f0a05de	0.539152
68	0x3f014e0b	0.5050971
69	0x3e9f26be	0.31084245
70	0x3ee08d6e	0.43857902
71	0x3e280bff	0.16410826
72	0xbd7c2b5d	-0.061564792
73	0x3dd1b56e	0.10239683
74	0xbd28e713	-0.041235995
75	0xbdea1af4	-0.11430922
76	0xbca3fd66	-0.02001829
77	0xbd59582a	-0.053062595
78	0xbce4b794	-0.027919568
79	0x3e293d3f	0.1652727
80	0x3e61bc83	0.22044568
81	0x3d10884d	0.035286237
82	0xbe59f2f8	-0.21284091
83	0xbe68771f	-0.22701691
84	0x3cc72aa7	0.02431233
85	0x3e32cc70	0.17460799
86	0xbe504f42	-0.20342734
87	0xbe52f586	-0.20601472
88	0x3e384683	0.17995648
89	0x3dddb3c3	0.108253025
90	0xbce98fb7	-0.028510911
91	0xbea29489	-0.31753948
92	0x3e44ffe4	0.1923824
93	0x3ea776d8	0.32707858
94	0x3e8cff8c	0.27538717
95	0xbe90c867	-0.28277895
96	0xbe84a3d4	-0.2590624
97	0x3e10a3f2	0.1412504
98	0xbe9f8c9e	-0.3116197
99	0xbed89b1c	-0.4230584
100	0x3ea0f1ce	0.31434482
101	0x3ed7539a	0.4205597
102	0x3f0a0482	0.5391313
103	0x3e2409cf	0.16019367
104	0x3f3d8eab	0.7404582
105	0x3d68dd7d	0.056851853
106	0x3f8447a5	1.0334364
107	0x3e93ad25	0.28843036
108	0x3e95ca9e	0.29256147
109	0x3f0a4dda	0.5402504
110	0x3f54b37a	0.8308636
111	0x3f21f783	0.632683
112	0x3f122f1c	0.57103133
113	0x3f2acd27	0.6671929
114	0x3ed95cdb	0.42453656
115	0x3ed75bde	0.42062277
116	0xbe64e7a3	-0.22353987
117	0x3f149f7f	0.5805587
118	0x3df41cfe	0.11919592
119	0x3e5cc837	0.21560751
120	0x3e5d2f20	0.21600008
121	0x3e9ee51c	0.31034172
122	0x3e8d2a52	0.2757135
123	0x3eba7ddb	0.36424145
124	0xbed91e8a	-0.42406112
125	0xbdca4fc2	-0.09878494
126	0x3d70ced7	0.058791008
127	0xbe116770	-0.14199615
128	0xbe83a344	-0.257105
129	0xbbe2c683	-0.006920637
130	0xbc9412d9	-0.018075394
131	0x3e51e356	0.20496878
132	0xbe5d694f	-0.21622203
133	0xbe8aca97	-0.2710769
134	0x3e19e6c9	0.15029444
135	0x3e17dbdc	0.14829963
136	0x3e52da68	0.20591128
137	0xbdfbbba5	-0.1229165
138	0xbef9446a	-0.48685008
139	0x3dcd1314	0.100134045
140	0xbd2d39d1	-0.042291466
141	0x3aa08a4b	0.0012248246
142	0xbeb06121	-0.34449103
143	0xbf185db8	-0.59518003
144	0x3d8a5a82	0.06755544
145	0xbc083eb4	-0.008315731
146	0xbe0c053f	-0.13673876
147	0xbec3405d	-0.38135043
148	0xbe7a8764	-0.2446571
149	0xbf090023	-0.53515834
150	0xbd68ffea	-0.056884684
151	0xbd185bf1	-0.037197057
152	0xbdc03282	-0.093846336
153	0xbe6a6e50	-0.22893643
154	0xbdb34e6f	-0.087551944
155	0xbc89f1b1	-0.01683888
156	0x3d362ec5	0.044478197
157	0xbe8aa73b	-0.27080712
158	0xbe047c77	-0.12938105
159	0x3ce58ba6	0.028020691
160	0x3e19254d	0.14955635
161	0xbe220fc6	-0.1582633
162	0xbb09b770	-0.0021013878
163	0xbdf40c8b	-0.11916455
164	0x3dcc05b7	0.099620275
165	0xbe62a7f7	-0.22134386
166	0xbea1bc0c	-0.3158878
167	0xbe4ef6e3	-0.20211367
168	0xbebc4f71	-0.3677936
169	0xbdc76c4d	-0.097374536
170	0xbe9b8f7b	-0.30382904
171	0xbec977e5	-0.39349285
172	0xbe58eefe	-0.21184918
173	0xbec80dbe	-0.39072984
174	0xbedc58e5	-0.4303657
175	0x3e93d9af	0.28877017
176	0x3e9f583e	0.3112201
177	0x3edfb92f	0.4369597
178	0x3f1474fb	0.57991
179	0x3e8a6517	0.2703025
180	0x3ee1d8e3	0.44110784
181	0x3e7870f4	0.24261838
182	0xbd0eb86c	-0.034843847
183	0xbe50d53b	-0.20393841
184	0xbda2271b	-0.07917615
185	0x3e120116	0.14258227
186	0xbe01715a	-0.12640896
187	0xbeb25d73	-0.3483692
188	0xbe0c1ac0	-0.1368208
189	0xbd5e4181	-0.05426169
190	0x3d08a2cc	0.03335838
191	0xbe0d0b27	-0.13773786
192	0xbe03065c	-0.12795395
193	0x3e1c45e7	0.1526104
194	0xbcbc7707	-0.023005975
195	0x3d431a9f	0.04763281
196	0x3d091993	0.033471655
197	0x3be33bf5	0.0069346377
198	0x3d863922	0.06553866
199	0xbe32c357	-0.17457329
200	0x3eaf08d7	0.34186432
201	0x3dae81f9	0.08520884
202	0xbdd83e95	-0.105588116
203	0x3d88ba5e	0.06676172
204	0x3e461058	0.19342172
205	0xbd3c77d1	-0.046012703
206	0xbe97e56e	-0.29667228
207	0x3df47e49	0.119381495
208	0x3c485273	0.012226689
209	0xbd447555	-0.04796346
210	0xbe959de3	-0.2922202
211	0xbd08433a	-0.033267237
212	0x3e9b8a9e	0.30379194
213	0x3c37ec39	0.011225753
214	0x3e197cd3	0.14989023
215	0xbe09c523	-0.13454108
216	0x3de3352a	0.110941246
217	0xbd0599d4	-0.032617405
218	0xbea83cc0	-0.3285885
219	0xbe43b983	-0.19113736
220	0xbe83613c	-0.2566012
221	0xbf0669a4	-0.52504945
222	0xbec0a3d6	-0.37624997
223	0xbf0e4d71	-0.55586916
224	0xbea24638	-0.31694198
225	0xbf046f4d	-0.5173233
226	0xbdc89026	-0.09793119
227	0xbe53735e	-0.20649478
228	0xbd7723e5	-0.060336966
229	0x3e52c9b8	0.20584762
230	0xbe85e240	-0.26149178
231	0xbe11a099	-0.1422142
232	0xbe25c212	-0.16187313
233	0x3c147563	0.00906119
234	0x3e253c28	0.16136229
235	0x3cf23810	0.029567748
236	0x3db5cf37	0.08877414
237	0xbe25cf04	-0.16192251
238	0xbe24023d	-0.16016479
239	0xbe2b6c74	-0.1674059
240	0xbd82f31a	-0.06394024
241	0xbe733de0	-0.23754072
242	0xbe210c1f	-0.1572728
243	0xbea66efb	-0.32506546
244	0xbe6ef6e7	-0.23336373
245	0xbe22f923	-0.1591535
246	0xbe4b6c9f	-0.19865654
247	0xbe57a762	-0.21059945
248	0xbe5c10f4	-0.21490842
249	0xbdd5fb5b	-0.10448333
250	0x3e8f8a15	0.28035036
251	0x3e8b8411	0.27249196
252	0x3e9d5a26	0.3073284
253	0x3f0b778b	0.54479283
254	0x3f0f9d33	0.5609924
255	0xbdb2fbe3	-0.0873945

conv2.bias f4 [32]
0	0x3e85edb3	0.26157913
1	0x3ec34921	0.3814173
2	0xbeaa66f0	-0.3328166
3	0xbe91b876	-0.28461045
4	0xbf16d666	-0.58920896
5	0x3dff0261	0.124516256
6	0xbf0f6d70	-0.56026363
7	0xbe974542	-0.29545027
8	0xbe15fe5a	-0.14647809
9	0xbe911e82	-0.28343588
10	0xbe204b47	-0.15653716
11	0xbe13a4a7	-0.14418279
12	0x3ea4735e	0.32119268
13	0x3ed696f5	0.41912046
14	0xbf15c2b1	-0.585002
15	0xbf001268	-0.50028086
16	0xbed75b64	-0.42061913
17	0xbe6094de	-0.21931788
18	0x3e893af2	0.26802784
19	0xbbb6fe19	-0.00558449
20	0x3ed5a376	0.41726273
21	0x3ee0e363	0.43923482
22	0xbee3193b	-0.44355187
23	0x3d0af5d9	0.033925865
24	0x3eaa8583	0.33304986
25	0xbecccc6c	-0.39999712
26	0xbe8a4374	-0.27004588
27	0xbeb8ae16	-0.36070317
28	0x3eb05fd7	0.3444812
29	0xbf03377e	-0.5125655
30	0x3cebf45c	0.028803043
31	0xbf27e55a	-0.6558434

conv3.weight f4 [32, 32, 5, 5]
0	0x3e20de84	0.15709883
1	0xbea73a4d	-0.32661667
2	0xbe801de8	-0.25022817
3	0xbd8916c2	-0.06693794
4	0x3e94c0ba	0.2905329
5	0xbdc941e1	-0.098270185
6	0xbdb58844	-0.08863881
7	0xbde05c61	-0.1095512
8	0x3da82737	0.08210605
9	0xbe8cf405	-0.27529922
10	0x3e31b2f9	0.17353429
11	0xbe016e96	-0.12639841
12	0x3e16f45e	0.14741656
13	0x3ec00d7e	0.37510294
14	0x3dc48bf4	0.095970064
15	0xbe0ad6aa	-0.1355845
16	0xbe033cc2	-0.12816146
17	0xbe6cfea9	-0.2314402
18	0xbd885b07	-0.06657987
19	0x3b87b410	0.004141338
20	0xbe95eced	-0.29282323
21	0xbc2ca7fd	-0.010538098
22	0xbdd400cf	-0.10351717
23	0xbec22f48	-0.37926698
24	0xbe79ccd5	-0.24394543
25	0x3d358dde	0.04432475
26	0x3d0bf9f7	0.034173932
27	0xbd0feeab	-0.03513972
28	0x3b845836	0.004038836
29	0x3cd03ebe	0.025420543
30	0xbd8f142e	-0.06986271
31	0x3de657c3	0.11247208
32	0x3e07fbf1	0.13279702
33	0x3bfd7089	0.0077343625
34	0x3df78ba8	0.12087184
35	0xbdaac0a0	-0.083375216
36	0x3e43bac5	0.19114216
37	0x3e53f99d	0.20700689
38	0x3e7e26ab	0.24819438
39	0x3ea839ab	0.32856497
40	0xbe4e592c	-0.20151204
41	0xbeb9b003	-0.362671
42	0xbdb8058d	-0.08985434
43	0x3ce34ebe	0.027747508
44	0x3e5dc7af	0.21658204
45	0xbe2ffc46	-0.17186078
46	0xbe2d729d	-0.16938253
47	0xbda12b3e	-0.07869576
48	0xbde09305	-0.10965542
49	0x3dc454bb	0.095864736
50	0xbf2b1967	-0.66835636
51	0xbeb39965	-0.35077968
52	0x3e57abb0	0.21061587
53	0xbe9bcdfc	-0.3043059
54	0xbe7b7e6c	-0.24559945
55	0xbf289ba9	-0.6586252
56	0xbe942242	-0.28932387
57	0x3de415d8	0.11136979
58	0x3d5f4423	0.05450834
59	0x3d62fa1b	0.0554143
60	0xbe94a7cc	-0.2903427
61	0x3dc5bfa1	0.09655691
62	0xbe946c75	-0.28988996
63	0x3e04c2a5	0.12964876
64	0x3d97b4f5	0.07407562
65	0x3d7b09b4	0.06128855
66	0x3c38b55a	0.011273706
67	0xbdcfad54	-0.101404816
68	0xbe3c8d97	-0.18413387
69	0xbed1f080	-0.410038
70	0xbef97354	-0.487208
71	0xbdf2671b	-0.11836072
72	0xbd664218	-0.056215376
73	0x3edef115	0.43543306
74	0x3e97e656	0.2966792
75	0xbd06a960	-0.032876372
76	0xbe9e9b3e	-0.30977815
77	0x3e9881db	0.29786572
78	0x3b891158	0.0041829757
79	0x3e43b4fc	0.19112009
80	0xbe80a3f7	-0.25125095
81	0xbed2327e	-0.41054147
82	0x3e718fe9	0.23590054
83	0xbe4672e3	-0.19379763
84	0x3dd7e217	0.1054117
85	0x3d05f3af	0.032703098
86	0xbed124d5	-0.40848413
87	0x3c355432	0.011067437
88	0x3e58383f	0.21115206
89	0xbef1e08a	-0.47241622
90	0x3e8224dd	0.2541875
91	0x3d0c780a	0.034294166
92	0x3cc651af	0.024208872
93	0x3e3ac648	0.18239701
94	0xbe08ad3e	-0.13347337
95	0x3e01217e	0.12610433
96	0xbe90e9d6	-0.28303403
97	0xbcaefda7	-0.021361185
98	0x3eb02cc4	0.34409153
99	0x3ebf7511	0.37394002
100	0xbe28eca6	-0.16496524
101	0xbead73f8	-0.3387754
102	0x3ee6552c	0.44986856
103	0xbce2e019	-0.027694749
104	0x3d9c4e2f	0.076321
105	0xbd2686e3	-0.04065598
106	0xbf4da023	-0.80322474
107	0x3e93dd43	0.28879747
108	0x3f0f35a8	0.5594125
109	0x3e8ded4b	0.27720103
110	0x3e0de606	0.13857278
111	0x3dfc4534	0.12317887
112	0xbf317f50	-0.6933489
113	0x3e49064c	0.19631308
114	0x3e0a1c0a	0.13487259
115	0x3e19a15f	0.15002964
116	0x3eac21d5	0.33619562
117	0x3dac30dd	0.084077574
118	0x3e769cb8	0.24083221
119	0xbf68d4b3	-0.90949553
120	0xbf1f556d	-0.62239724
121	0xbe0daca0	-0.13835382
122	0x3e6faf51	0.23406722
123	0x3e067278	0.13129604
124	0xbf001899	-0.50037533
125	0x3e4cb74f	0.19991802
126	0xbca16ffc	-0.019706719
127	0xbe1bad1b	-0.15202753
128	0xbeaff2f8	-0.34365058
129	0x3e6ae646	0.22939405
130	0xbe1ea227	-0.15491544
131	0x3e49e178	0.19714916
132	0xbd8f236a	-0.069891766
133	0xbe2090af	-0.15680192
134	0xbd361345	-0.04445197
135	0xbe0b52d7	-0.1360582
136	0xbcb277dd	-0.02178567
137	0xbd2996ce	-0.041403584
138	0x3cb6e70d	0.02232697
139	0xbd52a854	-0.05143006
140	0xbd660801	-0.056159977
141	0xbe82a6bf	-0.25517842
142	0xbeaee899	-0.34161833
143	0x3e262d00	0.16228104
144	0xbe207360	-0.15669012
145	0xbd61d548	-0.05513504
146	0xbbbb03c0	-0.005707234
147	0xbe9daef7	-0.3079755
148	0xbdb9d273	-0.09073343
149	0x3bb76e84	0.0055978913
150	0xbe2a703f	-0.16644381
151	0xbf05efbc	-0.5231893
152	0x3e87317d	0.26404944
153	0xbda89369	-0.08231241
154	0x3df61181	0.12015057
155	0xbe1bce6d	-0.15215464
156	0xbe3890af	-0.18023942
157	0x3e3fff80	0.1874981
158	0x3f1cc7ad	0.6124218
159	0xbed83576	-0.42228287
160	0xbc73a5ac	-0.014871042
161	0x3e762f57	0.24041496
162	0xbfa2792b	-1.2693228
163	0x3cadba6b	0.021207055
164	0xbda733e4	-0.08164194
165	0x3ec88322	0.39162546
166	0x3e890e6d	0.26768818
167	0x3e5d89ef	0.21634649
168	0xbd33f343	-0.043933164
169	0xbedb18bb	-0.42792305
170	0xbdec6ce2	-0.11544205
171	0xbecad105	-0.39612594
172	0x3d9c9a6d	0.07646642
173	0x3d0ebf99	0.03485069
174	0xbdbfb22f	-0.09360158
175	0x3e175fb8	0.14782608
176	0x3f2af82f	0.6678495
177	0x3da01296	0.07816045
178	0x3eb7fcd6	0.35935086
179	0x3e38d841	0.18051244
180	0x3f13ae40	0.5768776
181	0x3c65042f	0.013978048
182	0xbd9d05ab	-0.07667097
183	0x3e2f49f7	0.17118059
184	0x3e8d0ba9	0.27547958
185	0x3ee12888	0.43976235
186	0xbe8fded9	-0.28099707
187	0x3e5b479d	0.21414037
188	0xbed1c57e	-0.40970987
189	0xbe4ed916	-0.20199999
190	0x3d9a3e1f	0.0753138
191	0x3cba82f4	0.022767521
192	0x3e1a65ec	0.15077943
193	0xbe81bb85	-0.2533838
194	0xbd15cd2a	-0.036572613
195	0x3e4af59e	0.19820258
196	0x3dbfb958	0.093615234
197	0xbf21f645	-0.632664
198	0xbd240e32	-0.0400526
199	0xbe5d1acb	-0.21592252
200	0x3e38bae4	0.18040043
201	0xbdb10d6a	-0.08645137
202	0x3e10c8c0	0.1413908
203	0x3de24d77	0.110499315
204	0x3e051ddb	0.1299967
205	0x3e386340	0.18006611
206	0x3bfc0939	0.007691529
207	0xbc557f3b	-0.013030822
208	0xbe146377	-0.14491068
209	0xbdeab579	-0.114603944
210	0xbdc59a0e	-0.09648524
211	0xbf484b40	-0.7823982
212	0xbf15be8e	-0.5849389
213	0xbea88a59	-0.3291805
214	0xbde2dd2e	-0.11077343
215	0x3eea36ed	0.4574503
216	0xbee02921	-0.4378138
217	0xbe817c85	-0.25290313
218	0xbddb380e	-0.10704051
219	0x3d059442	0.032612093
220	0x3f068fb1	0.52563006
221	0xbe8ace3a	-0.27110463
222	0xbdfa7044	-0.12228444
223	0x3dc229cd	0.09480629
224	0x3e636695	0.222071
225	0xbd88db52	-0.06682457
226	0xbe449976	-0.19199166
227	0x3e4ed93d	0.20200057
228	0xbd4fddf1	-0.05074877
229	0x3e63b99c	0.22238773
230	0xbeff9455	-0.49917856
231	0x3de605a1	0.112315424
232	0x3e637037	0.22210775
233	0x3ea1a121	0.31568244
234	0xbf24425b	-0.6416375
235	0xbf54fc15	-0.83197147
236	0x3e28201f	0.16418503
237	0xbf9d378c	-1.2282577
238	0xbe019b83	-0.1265698
239	0xbe20a939	-0.15689553
240	0x3d66188d	0.056175757
241	0x3e845643	0.25847062
242	0xbe134076	-0.14380059
243	0xbd7759a0	-0.060388207
244	0x3e5e0255	0.21680577
245	0xbe115834	-0.14193803
246	0xbe3f993b	-0.18710797
247	0x3e60945d	0.21931596
248	0xbe3c80e0	-0.18408537
249	0xbbb4cdd8	-0.0055177025
250	0x3eadf52a	0.33976108
251	0xbd4507ab	-0.048103016
252	0xbd9afa6b	-0.07567295
253	0x3d8114db	0.06302806
254	0x3df0d4a6	0.117593095
255	0x3f38d181	0.7219468

conv3.bias f4 [32]
0	0xbe2e6def	-0.17034124
1	0xbeb3f336	-0.35146493
2	0xbdb952c0	-0.090489864
3	0xbd85679d	-0.06513903
4	0x3d2ddcbf	0.042446848
5	0xbe693402	-0.22773746
6	0xbebd5a39	-0.36982897
7	0xbe8ab1ad	-0.2708868
8	0xbe0de764	-0.138578
9	0xbe8cb378	-0.27480674
10	0xbf24da7c	-0.6439588
11	0xbf7d8f8e	-0.9904717
12	0xbef63aff	-0.48091885
13	0xbf273530	-0.6531553
14	0xbed179c1	-0.40913203
15	0xbdd2585e	-0.10270761
16	0xbf1460ef	-0.5796041
17	0xbf2d0574	-0.67586446
18	0xbf18cae3	-0.5968458
19	0xbedd6937	-0.43244335
20	0xbeb05401	-0.3443909
21	0xbe21117c	-0.15729326
22	0xbda0324b	-0.078220926
23	0xbe598b79	-0.21244611
24	0xbf01bd3a	-0.5067936
25	0xbd857338	-0.06516117
26	0xbdc891e9	-0.09793455
27	0xbeb33b4b	-0.35006174
28	0xbeb37e04	-0.3505708
29	0x3be8dab1	0.007106148
30	0xbf49c2b1	-0.788127
31	0xbe7fe42b	-0.24989383

MLP1.weight f4 [50, 1344]
0	0xbca48409	-0.02008249
1	0xbe5b4cec	-0.21416062
2	0x3ee48eb9	0.4464014
3	0xbee015ec	-0.43766725
4	0x3efc1e0f	0.49241683
5	0x3d00c27f	0.031435486
6	0x3f0f7413	0.5603649
7	0xbe86cf32	-0.26329952
8	0xbcccc6a6	-0.024997067
9	0xbbc7f5fb	-0.006102321
10	0xbe5a93b9	-0.21345414
11	0xbdf51b3f	-0.119680874
12	0xbe37c06a	-0.17944494
13	0xbf065c80	-0.52484894
14	0x3db79c93	0.08965411
15	0xbeb65d83	-0.3561822
16	0xbcb137c9	-0.021633046
17	0xbda9e5f3	-0.082958125
18	0x3e1cd841	0.1531687
19	0x3b5089a9	0.0031820333
20	0xbf32aef2	-0.69798195
21	0xbec8faf7	-0.3925397
22	0xbcc9e8bd	-0.024647111
23	0xbed11903	-0.40839395
24	0x3ec921b7	0.39283535
25	0x3e0718b3	0.13193016
26	0x3bd93107	0.006628159
27	0xbe8fdd81	-0.28098682
28	0x3e231ed1	0.15929724
29	0x3d18ac7d	0.037273873
30	0x3d323ff4	0.04351802
31	0xbdcfae8a	-0.101407126
32	0xbe0faa33	-0.1402977
33	0x3e80ea1f	0.2517862
34	0xbe1c04ce	-0.15236208
35	0x3cb2d03d	0.021827811
36	0xbe4ff22d	-0.20307226
37	0xbe81f43c	-0.2538165
38	0x3e249316	0.16071734
39	0xbdacabb5	-0.08431188
40	0xbd807167	-0.0627163
41	0x3d97d7b0	0.07414186
42	0x3e7cc42e	0.24684212
43	0xbe2a409c	-0.16626209
44	0xbdbe75e0	-0.092998266
45	0x3eacc424	0.33743393
46	0xbf81c16c	-1.0137153
47	0xbcba0f60	-0.02271241
48	0xbd271e31	-0.040800277
49	0x3f3e8312	0.7441875
50	0xbe6950e8	-0.2278477
51	0xbe0c17bc	-0.13680929
52	0xbe83d4f2	-0.25748402
53	0xbde3fb8f	-0.11131965
54	0x3e1ec027	0.15502988
55	0x3df22447	0.118233256
56	0xbed1d42a	-0.4098218
57	0x3e837f75	0.2568318
58	0x3c52e8ec	0.012872916
59	0x3ec567f2	0.38555866
60	0xbe8ecf46	-0.27892512
61	0x3e6eef72	0.23333529
62	0x3e4245dd	0.18971963
63	0xbe8ad619	-0.2711647
64	0xbf053cd2	-0.5204593
65	0xbda2c955	-0.07948557
66	0x3e07f9c6	0.13278875
67	0xbe500acb	-0.20316617
68	0x3d9dab8d	0.07698736
69	0xbe8b3f5b	-0.27196774
70	0x3e58f430	0.211869
71	0xbf2cc80a	-0.67492735
72	0xbe2acadb	-0.16678946
73	0x3edaa278	0.4270208
74	0x3e0db624	0.13839012
75	0x3e69d562	0.22835305
76	0xbe5764ee	-0.21034595
77	0xbf153e11	-0.5829783
78	0xbe4d131d	-0.20026822
79	0xbe61b07a	-0.22039977
80	0x3e80ca08	0.25154138
81	0x3e3a0f84	0.18169981
82	0xbde9ebdb	-0.11421939
83	0xbdd88a55	-0.1057326
84	0xbefcae59	-0.49351767
85	0xbe06b933	-0.13156585
86	0xbd35da6c	-0.044397756
87	0x3e90013d	0.28125945
88	0xbe9bcb49	-0.30428532
89	0x3d12b1e6	0.03581419
90	0xbe3c3c52	-0.18382385
91	0xbf044833	-0.5167267
92	0x3e84c3f2	0.25930744
93	0x3d41c5e0	0.04730785
94	0xbc5a6ba7	-0.01333133
95	0xbe7d66a2	-0.24746183
96	0x3e54a46d	0.20765848
97	0x3df2f761	0.1186359
98	0xbe02da4a	-0.12778583
99	0x3e849ab3	0.25899276
100	0xbea57b5c	-0.32320678
101	0xbdcda6f7	-0.10041612
102	0xbe6c0f16	-0.2305263
103	0xbeeb860c	-0.46000707
104	0xbd98be38	-0.07458156
105	0x3eb82d9b	0.35972294
106	0xbe123858	-0.14279306
107	0xbd405f00	-0.0469656
108	0xbf110dcc	-0.5666168
109	0x3da40554	0.08008829
110	0xbf50f9f6	-0.8163141
111	0xbdb535a9	-0.088481255
112	0x3ee04857	0.4380519
113	0x3e9be214	0.3044592
114	0xbe724748	-0.23660004
115	0xbe7db4b0	-0.24775958
116	0xbe08cad6	-0.13358626
117	0xbcb6a8b5	-0.022297243
118	0xbc161c56	-0.009162029
119	0x3dcf2514	0.10114494
120	0x3e19587f	0.14975165
121	0x3e88263f	0.2659168
122	0xbf2b2fe8	-0.66869974
123	0x3da5a037	0.08087199
124	0x3ca005b9	0.019533979
125	0x3dcd2739	0.10017247
126	0xbdd46fce	-0.103728876
127	0x3e3b5068	0.18292391
128	0xbdce6f6a	-0.10079844
129	0xbf01a8fd	-0.5064848
130	0x3e2d9398	0.16950834
131	0xbeefe655	-0.46855417
132	0xbe40a65f	-0.18813466
133	0xbeb7ce61	-0.35899642
134	0x3e8ac5ca	0.27104026
135	0xbe04d1a3	-0.12970595
136	0xb9250621	-0.0001573791
137	0x3e0e9f77	0.13928019
138	0xbe1bc0da	-0.15210286
139	0x3e0ead7a	0.13933364
140	0xbd3487f4	-0.044074968
141	0x3c722726	0.0147798415
142	0x3dd98d1b	0.10622617
143	0x3e5f74de	0.21821925
144	0xbe64ff91	-0.22363116
145	0x3cc6b659	0.024256872
146	0xbe1d533d	-0.15363784
147	0xbe6b8309	-0.22999205
148	0xbe0c7d30	-0.1371963
149	0x3da5a96b	0.080889545
150	0xbd38c3d5	-0.045108635
151	0x3d8bda40	0.06828737
152	0x3dcdcbdc	0.10048649
153	0x3da9aaa8	0.08284503
154	0x3dcb0751	0.09913505
155	0xbd6289ca	-0.055307187
156	0x3d25bb2a	0.040461697
157	0xbe368e4f	-0.17827724
158	0x3d53d5c1	0.051717523
159	0xbd4d7cb1	-0.050167743
160	0xbccfbeb9	-0.025359498
161	0xbcf2b14f	-0.029625563
162	0x3e88b5e6	0.26701277
163	0x3eb25364	0.34829247
164	0xbe7d28e4	-0.2472263
165	0xbeb8a9e9	-0.3606713
166	0xbd937fe5	-0.07202128
167	0xbe8c64fb	-0.27420792
168	0xbf191451	-0.59796625
169	0xbd91764e	-0.07102643
170	0xbed7a2f5	-0.42116514
171	0xbed9bd0d	-0.42527047
172	0xbe7678d0	-0.24069524
173	0x3c7d6849	0.015466758
174	0x3e9b5800	0.30340576
175	0xbed2cf02	-0.4117356
176	0x3a530fdc	0.00080513745
177	0xbeb97c05	-0.36227432
178	0x3defda24	0.11711529
179	0x3d6cd2cc	0.05781822
180	0x3e1818a0	0.14853144
181	0x3d454f13	0.048171114
182	0xbebb2d10	-0.36557817
183	0x3ef07595	0.46964708
184	0xbec5b12a	-0.38611728
185	0x3e756b29	0.2396666
186	0x3c209e73	0.009803402
187	0xbef8e116	-0.48609227
188	0x3e14a347	0.1451541
189	0xbb96c135	-0.004600669
190	0x3e16f619	0.14742316
191	0x3e0bbf51	0.136472
192	0xbbaa20de	-0.0051919064
193	0xbd123dfd	-0.035703648
194	0xbe83d210	-0.25746202
195	0x3d988cb3	0.07448711
196	0xbdf01ed3	-0.11724629
197	0x3e0ec2aa	0.13941446
198	0xbe016429	-0.12635864
199	0xbdbd8038	-0.092529714
200	0xbde4b364	-0.111670285
201	0x3d28d70b	0.041220706
202	0x3d5ea064	0.05435218
203	0x3cf2bd5d	0.029631311
204	0xbe4105a5	-0.1884981
205	0xbeae9815	-0.34100404
206	0xbdcf43b3	-0.101203345
207	0xbdcd660b	-0.10029229
208	0x3d01effa	0.031723
209	0x3e2834d4	0.16426402
210	0xbf58c5dc	-0.8467691
211	0x3bab2f6b	0.0052241585
212	0x3eb1658a	0.3464778
213	0x3e575b30	0.21030879
214	0x3e99597d	0.29951087
215	0xbcc69170	-0.024239272
216	0x3d58147e	0.052753918
217	0xbe5257de	-0.20541331
218	0x3cfa1c1c	0.030530982
219	0x3e1faf7f	0.1559429
220	0xbc15e9c5	-0.009149973
221	0x3de1161c	0.10990545
222	0xbda2116b	-0.079134785
223	0x3e1e78e2	0.154758
224	0xbcb881bd	-0.022522802
225	0xbe106279	-0.14100064
226	0x3e9f6e08	0.31138635
227	0xbe6ab6d6	-0.22921309
228	0x3ac1865a	0.0014764771
229	0x3d3c290f	0.045937594
230	0x3e5421a4	0.20715958
231	0x3e0e2ac9	0.13883509
232	0x3e67443f	0.22584628
233	0x3df2b9e3	0.11851861
234	0x3ea2b1ef	0.31776378
235	0x3e9300be	0.28711504
236	0xbecf3837	-0.40472576
237	0x3e30ac79	0.17253293
238	0x3e0787f0	0.1323545
239	0x3ea97ab5	0.3310143
240	0x3ec7b316	0.3900382
241	0x3bf3b8ee	0.007437817
242	0xbcfed011	-0.031105073
243	0xbea64312	-0.32473046
244	0xbdcb059d	-0.0991318
245	0x3ed7617f	0.4206657
246	0x3e8f5bce	0.2799973
247	0xbd5c6a66	-0.053812407
248	0x3df115db	0.11771747
249	0x3a70bf6b	0.0009183797
250	0xbc9fecf1	-0.019522162
251	0xbdb2b1fd	-0.08725355
252	0x3ed17b0d	0.40914193
253	0x3e97e7c9	0.29669026
254	0xbebf004a	-0.37304908
255	0xbf66adab	-0.90108746

MLP1.bias f4 [50]
0	0xbe315050	-0.17315793
1	0xbe3cac56	-0.18425116
2	0xbdde1aaf	-0.10844933
3	0xbf1cda8e	-0.6127099
4	0xbe7e82c5	-0.24854572
5	0xbe92290e	-0.28546947
6	0xbec04b99	-0.37557676
7	0x3d33c4ea	0.043888964
8	0xbcb91f29	-0.022597866
9	0xbe2a19e4	-0.16611439
10	0xbe634b65	-0.2219673
11	0xbd3b878f	-0.045783576
12	0x3e3db6fc	0.18526834
13	0xbe9ec2e2	-0.3100806
14	0xbe8014b1	-0.25015786
15	0xbeb8b0d4	-0.3607241
16	0xbe93dae2	-0.28877932
17	0xbe9cc570	-0.30619383
18	0x3d6d583b	0.05794547
19	0x3d9d478a	0.076796606
20	0xbdcc86b4	-0.0998663
21	0x3dbf1afe	0.0933132
22	0xbe6a3f36	-0.22875676
23	0xbe2a8d1f	-0.16655396
24	0x3e0b6a2b	0.13614719
25	0xbed8859c	-0.42289436
26	0x3d872ad2	0.06599964
27	0xbe2213ac	-0.15827817
28	0xbe08edd6	-0.13371977
29	0xbe98290c	-0.29718816
30	0xbe81bc83	-0.25339136
31	0x3e14ad09	0.14519133
32	0xbe8426ad	-0.25810757
33	0xbed70bb2	-0.4200111
34	0xbdd24f8d	-0.10269079
35	0x3e584d73	0.21123295
36	0xbe2df1b5	-0.16986735
37	0xbdbd8849	-0.0925451
38	0xbe698341	-0.22803976
39	0xbeaea899	-0.34113005
40	0xbc9bb54a	-0.019007344
41	0xbde03821	-0.10948206
42	0xbd164187	-0.036683585
43	0x3c51015c	0.012756672
44	0xbebef75b	-0.37298092
45	0x3ea8928f	0.32924315
46	0xbeb7fbae	-0.35934204
47	0xbea1877f	-0.31548688
48	0xbe82dc2e	-0.2555861
49	0xbdbc02cc	-0.09180221

to_quantum_input.weight f4 [4, 50]
0	0x3d405b97	0.046962347
1	0xbd04c157	-0.032410946
2	0xbce1210f	-0.027481584
3	0xbe0ec489	-0.1394216
4	0x3d4b6b01	0.049662594
5	0xbde22e3f	-0.11043977
6	0x3c77e19b	0.015129472
7	0x3d96e2a6	0.073674485
8	0x3e048b3f	0.12943743
9	0x3c69b5a7	0.014264501
10	0x3e109c0a	0.14122024
11	0x3d172d00	0.03690815
12	0x3ddafa2a	0.10692246
13	0xbe1028b1	-0.14078023
14	0xbdbab974	-0.091174036
15	0x3dc14915	0.094377674
16	0x3da4aabb	0.08040377
17	0xbe0ff991	-0.14060046
18	0xbdf16ae5	-0.11787967
19	0x3ccc53f2	0.024942372
20	0x3c841e79	0.016127812
21	0xbbd217ad	-0.006411514
22	0x3d843e79	0.06457228
23	0x3c942674	0.018084742
24	0xbe07796e	-0.13229915
25	0x3aa5ec30	0.001265889
26	0x3e0825f9	0.13295735
27	0x3dfc6cc9	0.123254366
28	0x3ded9900	0.11601448
29	0xbd604f7e	-0.05476331
30	0xbdd65064	-0.10464552
31	0x3dc5f7c2	0.09666397
32	0x3dbd0fcd	0.092315294
33	0xbda4e740	-0.0805192
34	0x3dff8024	0.12475613
35	0x3e0c2156	0.13684592
36	0xbdd830ca	-0.10556181
37	0xbde845c5	-0.113414325
38	0x3d396d91	0.045270506
39	0xbd152e7c	-0.036421284
40	0xbc6ed215	-0.014576455
41	0x3d83574d	0.06413136
42	0x3d096f32	0.03355331
43	0xbd844d0e	-0.064600095
44	0x3ccc7fae	0.024963226
45	0x3cf484f3	0.029848551
46	0x3d3f61f2	0.046724267
47	0x3de5328a	0.1119128
48	0x3da64c07	0.0811997
49	0x3dad2d71	0.08455933
50	0xbdf822ad	-0.12115989
51	0xbd422279	-0.047396157
52	0x3ded3417	0.11582201
53	0xbd8817a4	-0.06645134
54	0x3b80af42	0.0039271424
55	0x3d4d2fb6	0.05009433
56	0x3c30ac09	0.010783204
57	0x3df26803	0.11836245
58	0xbc8839c4	-0.016629107
59	0xbe005e60	-0.12536001
60	0xbdd18709	-0.10230834
61	0xbd526ccb	-0.051373284
62	0x3ce958a2	0.028484646
63	0xbd6ba258	-0.05752787
64	0xbe0d7cf8	-0.13817203
65	0x3d6b2292	0.057406016
66	0x3c914acf	0.017735867
67	0xbe00f0e9	-0.125919
68	0x3c8c0129	0.017090397
69	0x3d554e6e	0.05207675
70	0x3d0e21b4	0.03470011
71	0x3d920ab3	0.07130947
72	0xbe052fc3	-0.13006501
73	0x3c43e0c3	0.011955443
74	0xbbbc8a8c	-0.0057538208
75	0xbdea076b	-0.11427196
76	0x3e09066c	0.13381356
77	0x3dd5bc25	0.10436276
78	0xbd44b877	-0.048027482
79	0x3cf34d39	0.029699909
80	0x3c59a40f	0.0132837435
81	0x3e0b700c	0.13616961
82	0xbdd866c3	-0.10566475
83	0x3d9f6b4e	0.077841386
84	0x3d82c935	0.063860334
85	0xbb26d6aa	-0.002545754
86	0x3d4b3f57	0.049620952
87	0xbdb50767	-0.088393025
88	0x3da1e6d4	0.07905355
89	0x3d59621a	0.053072073
90	0xbbec69fb	-0.0072147823
91	0x3dfeaffa	0.124359086
92	0x3dcd2593	0.10016932
93	0x3d788c32	0.060680576
94	0x3e104caf	0.14091752
95	0x3d5eabf2	0.0543632
96	0xbd927543	-0.07151272
97	0xbd539ba1	-0.05166209
98	0xbd2eb45d	-0.042652477
99	0x3df9cd71	0.12197388
100	0x3d562982	0.05228568
101	0x3e0bd5fe	0.1365585
102	0xbd9f055a	-0.077646926
103	0x3dbb7779	0.09153647
104	0xbd1686d0	-0.03674966
105	0x3d88d241	0.06680728
106	0x3df59006	0.11990361
107	0xbde4d74c	-0.11173877
108	0x3d1d1a07	0.0383549
109	0x3c2fe740	0.010736287
110	0xbda83bd1	-0.08214534
111	0x3de5f3e8	0.11228162
112	0x3d53dc74	0.051723912
113	0xba7118cf	-0.0009197117
114	0x3d61a5b6	0.055089675
115	0x3cc182cf	0.023621945
116	0x3e089b76	0.13340554
117	0xbca3ee70	-0.020011157
118	0x3e020581	0.12697412
119	0x3e07f57d	0.1327724
120	0x39af1fb4	0.00033402222
121	0x3de6f7a3	0.11277702
122	0xbd9ac803	-0.075576805
123	0x3e0529b6	0.13004193
124	0x3d7c7f72	0.06164498
125	0x3e03f612	0.12886837
126	0x3c4cb06f	0.012493237
127	0xbdda318a	-0.1065398
128	0x3d943b8b	0.072379194
129	0xbdf955ad	-0.121745445
130	0x3dee53ef	0.11637103
131	0xbdd70246	-0.104984805
132	0x3d8708d6	0.06593482
133	0xbd96a3eb	-0.073554836
134	0x3dd5490e	0.10414325
135	0xbdd88f52	-0.10574211
136	0xbe082d62	-0.13298562
137	0xbd1f93ce	-0.038959317
138	0xbdbe632d	-0.0929626
139	0xbdec2610	-0.11530697
140	0x3cee73c1	0.02910793
141	0x3dab2c66	0.08358078
142	0xbd2eb744	-0.042655244
143	0xbe04b7c5	-0.12960728
144	0x3deaad75	0.114588656
145	0xbd8e73d9	-0.0695569
146	0x3d69c6c8	0.05707434
147	0x3e087d6b	0.13329093
148	0x3d3ffb63	0.0468706
149	0x3dce1e95	0.10064427
150	0x3d6467cb	0.055763047
151	0x3d164105	0.0366831
152	0x3df47e9a	0.1193821
153	0xbd533c2c	-0.051571056
154	0xbdc0a363	-0.094061635
155	0x3d850758	0.06495541
156	0xbd41d5ce	-0.04732304
157	0xbc96fbcd	-0.018430615
158	0x3d011cca	0.031521596
159	0x3cf5bd7d	0.029997582
160	0xbe0b6ee2	-0.13616517
161	0xbd1f2b43	-0.038859617
162	0xbdabbacd	-0.08385239
163	0x3d43e7e8	0.047828585
164	0x3d8eec5c	0.06978676
165	0xbc01cfe6	-0.007923102
166	0x3bf1a4d1	0.007374384
167	0x3dbb5b91	0.09148324
168	0xbe009412	-0.12556484
169	0xbcbb9321	-0.022897305
170	0xbd38e839	-0.04514334
171	0x3d123b3a	0.035701014
172	0xbd4ba5b6	-0.04971858
173	0xbc7f95a7	-0.015599645
174	0xbd8bba3f	-0.06822633
175	0xbb7ebe33	-0.0038870692
176	0x3d669f6c	0.05630438
177	0xbdddbdb9	-0.10827202
178	0x3d10438d	0.03522067
179	0x3d306ce4	0.043072596
180	0x3d667fad	0.056274105
181	0xbd651f77	-0.05593821
182	0x3c8ff260	0.017571628
183	0xbdba3224	-0.09091595
184	0x3e083852	0.13302734
185	0xbbcefb0d	-0.0063165487
186	0x3bd8eacc	0.006619787
187	0xbe03eeb7	-0.12884031
188	0xbd466b64	-0.04844226
189	0x3da8826a	0.082279995
190	0xbcebcdac	-0.028784595
191	0xbde228cf	-0.1104294
192	0xbbd1dd21	-0.0064045344
193	0xbe090e88	-0.1338445
194	0xbdc48aaa	-0.095967606
195	0xbd9bf992	-0.07615961
196	0xbc4caeaa	-0.012492815
197	0xbd7fe741	-0.0624764
198	0xbdfa5206	-0.12222676
199	0xbcc3cc78	-0.02390121

to_quantum_input.bias f4 [4]
0	0x3d89abfb	0.06722256
1	0x3dd698c6	0.10478358
2	0x3deea854	0.116532
3	0x3de09889	0.10966594

quantum_layer.q_params f4 [1, 4, 3]
0	0xbf0df150	-0.5544634
1	0x3f9586d9	1.1681777
2	0x3f2171f6	0.63064516
3	0x3f34c7ed	0.7061756
4	0x3ebef9b7	0.37299892
5	0xbf10c9c6	-0.5655788
6	0xbeb7a23f	-0.3586597
7	0xbfda7767	-1.7067689
8	0xbe639b48	-0.22227204
9	0x3fe660f6	1.799834
10	0x404247d0	3.035633
11	0xbff83e7b	-1.9394068

from_quantum_output.weight f4 [50, 4]
0	0xbec465c0	-0.3835888
1	0x3e0eb2a4	0.13935333
2	0xbec711f0	-0.38880873
3	0xbed5cc9a	-0.4175766
4	0x3ee6f5be	0.4510936
5	0xbebe6228	-0.37184262
6	0xbd8a8bd0	-0.06764948
7	0x3e7f9650	0.24959683
8	0xbe32b10c	-0.1745035
9	0xbefdac7c	-0.49545658
10	0xbc56fe80	-0.013122201
11	0x3eb14d3e	0.34629244
12	0x3b9f4980	0.004861057
13	0x3e996d80	0.29966354
14	0xbef8cc46	-0.48593348
15	0x3ed0a2c0	0.40749168
16	0x3e35bd48	0.17747986
17	0x3e713d88	0.23558629
18	0xbef0c152	-0.47022492
19	0x3ec75e88	0.3893931
20	0x3e544d50	0.20732617
21	0x3e8c5b4a	0.27413398
22	0xbe95e32a	-0.29274875
23	0xbef9818e	-0.48731655
24	0xbe39052c	-0.18068379
25	0x3e6585e0	0.2241435
26	0xbed9849e	-0.4248399
27	0xbef5a13c	-0.47974575
28	0xbcf6b7c0	-0.030116916
29	0x3e13647c	0.143938
30	0xbe7df068	-0.24798739
31	0xbefb49cc	-0.4907974
32	0xbdee7850	-0.116440415
33	0x3d6d3150	0.057908356
34	0x3d38f450	0.04515487
35	0xbee6b13e	-0.450571
36	0x3dfac6b8	0.12244934
37	0x3eb1b8ec	0.34711397
38	0x3ec54374	0.38528025
39	0x3eb7ab20	0.35872746
40	0x3e4de628	0.20107329
41	0x3e85b3bc	0.2611369
42	0xbe875e46	-0.26439112
43	0xbe89a172	-0.26880985
44	0x3ead187a	0.33807737
45	0xbebd5f9a	-0.36987
46	0x3ef4a46a	0.47781688
47	0xbdbff770	-0.09373367
48	0xbe08dd34	-0.13365632
49	0x3e88c6f0	0.26714277
50	0xbe19af6c	-0.15008324
51	0xbe0ab850	-0.13546872
52	0x3ef4a7a8	0.47784162
53	0x3eda7cfa	0.42673475
54	0x3e4d443c	0.2004556
55	0xbeaf1ccc	-0.34201658
56	0x3e77ff3c	0.24218458
57	0xbd34f990	-0.044183314
58	0x3ee582fe	0.44826502
59	0xbeed20e8	-0.46314168
60	0x3ccd0da0	0.025030911
61	0xbd1eebf0	-0.038799226
62	0xbdb8a108	-0.09015089
63	0x3e6fcbc4	0.23417574
64	0xbee7bb22	-0.45259959
65	0xbee31d5e	-0.44358343
66	0xbed92ed0	-0.42418528
67	0xbe4c5fbc	-0.19958395
68	0x3e85e458	0.26150775
69	0x3e8bf682	0.27336508
70	0x3d9020e8	0.07037526
71	0xbe8bee50	-0.27330256
72	0xbebe13e0	-0.37124538
73	0xbef9ac9e	-0.4876451
74	0xbee81c9a	-0.4533432
75	0x3eb37278	0.3504827
76	0xbe37c820	-0.17947435
77	0xbe612fe8	-0.21990931
78	0x3e341ca0	0.17589045
79	0x3ee6c088	0.45068765
80	0x3d9ecbb8	0.077537
81	0xbd281370	-0.041034162
82	0x3ebe602e	0.37182754
83	0x3e49ad54	0.19695026
84	0xbec3a48a	-0.3821147
85	0xbef9271c	-0.4866265
86	0x3efa678a	0.4890712
87	0x3e4bb9c0	0.19895077
88	0x3e871df4	0.2639004
89	0x3e3e0d68	0.18559802
90	0x3d220f00	0.039565086
91	0x3db960a8	0.09051639
92	0xbe8b0d08	-0.2715838
93	0x3e2ef904	0.1708718
94	0x3ceb01c0	0.028687358
95	0x3ead3972	0.3383289
96	0x3eb601b2	0.35548168
97	0x3e6dac64	0.23210293
98	0x3ecafb9c	0.39645088
99	0x3eda461c	0.42631614
100	0xbd44a140	-0.048005342
101	0x3ef3f178	0.47645164
102	0xbec6d2fc	-0.38832843
103	0xbd4bba10	-0.04973799
104	0x3e9fe892	0.31232125
105	0x3e2016e8	0.15633738
106	0x3eca32c6	0.39491862
107	0xbe42feac	-0.19042462
108	0xbed23cbc	-0.41061962
109	0x3e221db8	0.1583165
110	0xbedba4f0	-0.42899275
111	0xbe7ccb78	-0.24686992
112	0x3c236540	0.00997287
113	0xbe0e5094	-0.13897926
114	0x3d70e0f0	0.058808267
115	0xbe858f56	-0.2608592
116	0x3edef048	0.43542695
117	0x3e4496ac	0.19198102
118	0x3ea58d86	0.32334536
119	0xbe00f77c	-0.12594408
120	0x3e081d34	0.1329239
121	0xbd82d240	-0.06387758
122	0x3ec7de72	0.390369
123	0x3ec6fa9a	0.3886307
124	0xbeecb282	-0.4622994
125	0xbe941c60	-0.28927898
126	0xbd9a89c0	-0.07545805
127	0xbc95d3c0	-0.018289447
128	0xbe8efea6	-0.27928656
129	0xbd92d230	-0.07168996
130	0xbe1365b4	-0.14394265
131	0xbe3e766c	-0.18599862
132	0xbe2167d8	-0.1576227
133	0xbe8013be	-0.25015062
134	0x3eaf3036	0.3421647
135	0xbe5d28f0	-0.21597648
136	0x3e8b74e2	0.27237612
137	0x3e45833c	0.19288343
138	0x3d9a9de8	0.075496495
139	0x3d5fb0d0	0.05461198
140	0xbed85bf0	-0.42257643
141	0xbecc9ac2	-0.3996182
142	0xbefbf92a	-0.49213535
143	0x3e0f6ba8	0.14005911
144	0xbece48a0	-0.40289783
145	0xbe1f7a4c	-0.15573996
146	0xbe1b8310	-0.15186715
147	0x3e826344	0.2546636
148	0xbeca2d4e	-0.3948769
149	0xbd1838b0	-0.037163436
150	0x3d981e20	0.07427621
151	0xbed464e6	-0.4148323
152	0xbd961598	-0.073283374
153	0xbec11158	-0.37708545
154	0xbebccf42	-0.36876875
155	0x3ecdabd2	0.4017015
156	0x3c4e8900	0.0126059055
157	0x3e3ad560	0.18245459
158	0x3ef5b278	0.47987723
159	0xbcc0a3a0	-0.023515522
160	0x3e7eb12c	0.24872273
161	0x3ee9ea6e	0.45686668
162	0xbd95afc0	-0.07308912
163	0xbe11466c	-0.1418702
164	0xbefaa0ca	-0.48950797
165	0xbc6dd680	-0.014516473
166	0xbe77df14	-0.24206191
167	0xbee1bb8c	-0.440884
168	0xbe0b9034	-0.13629228
169	0x3e34b3b0	0.1764667
170	0x3ed06cba	0.40707952
171	0xbec12908	-0.37726617
172	0xbedb4bc4	-0.42831242
173	0x3eab2b9c	0.3343171
174	0xbefcce2e	-0.49376053
175	0xbd0bd710	-0.034140646
176	0xbd919c58	-0.07109898
177	0xbdbb3090	-0.09140122
178	0x3dc7ab70	0.09749496
179	0x3e34b18c	0.17645854
180	0xbd770280	-0.06030512
181	0xbd523980	-0.051324368
182	0x3ebc8dce	0.36826938
183	0xbe848f10	-0.25890398
184	0xbe9e3636	-0.30900735
185	0xbe4c79dc	-0.1996836
186	0x3b841d00	0.0040317774
187	0xbefefb24	-0.4980098
188	0xbe931fec	-0.28735292
189	0xbeb291bc	-0.34876812
190	0x3eba0a98	0.36336207
191	0x3e65b88c	0.2243368
192	0xbe969182	-0.2940789
193	0x3e90b662	0.28264147
194	0x3eb5f9ae	0.35542053
195	0xbee718e2	-0.45136172
196	0x3ecc6ab2	0.39925152
197	0x3e264708	0.16238034
198	0x3e68da10	0.22739434
199	0xbef6740e	-0.48135418

from_quantum_output.bias f4 [50]
0	0x3eaaf15e	0.33387274
1	0x3e958760	0.29204845
2	0x3efb91d4	0.49134696
3	0xbe8485f0	-0.25883436
4	0xbee6b866	-0.4506256
5	0xbef09d6e	-0.4699511
6	0xbd7d8160	-0.06189096
7	0x3ed69e54	0.4191767
8	0xbc701540	-0.014653504
9	0xbd2a6740	-0.041602373
10	0x3ed2a2a6	0.41139716
11	0xbeadb944	-0.3393041
12	0x3e96e696	0.29472798
13	0xbe13a1bc	-0.14417166
14	0xbed5bd5a	-0.41746026
15	0x3b472c00	0.0030391216
16	0xbeebf830	-0.4608779
17	0xbe5e24b8	-0.21693695
18	0xbe9e6b54	-0.3094126
19	0x3dc195d0	0.094524026
20	0xbc12ad00	-0.008952379
21	0xbb7be500	-0.0038436055
22	0x3e10d314	0.1414302
23	0x3d241d30	0.040066898
24	0xbe305674	-0.17220479
25	0x3e7d0e48	0.24712479
26	0x3ebb415e	0.3657331
27	0x3edec06e	0.43506187
28	0xbe57b020	-0.2106328
29	0xbe3346c0	-0.17507458
30	0xbe4411b8	-0.19147384
31	0xbec9b7e4	-0.3939811
32	0x3ecadcd2	0.39621598
33	0xbd866db8	-0.06563896
34	0xbe2bec18	-0.16789281
35	0xbc4ab3c0	-0.012371957
36	0x3e0405f4	0.12892896
37	0xbeb7b0ae	-0.35876983
38	0x3e815798	0.2526214
39	0xbe4e0b90	-0.20121598
40	0xbdb68f28	-0.08914024
41	0xbc8f08c0	-0.017460227
42	0x3d258510	0.0404101
43	0xbee8142a	-0.45327884
44	0xbea0ff98	-0.31445003
45	0xbeb4317a	-0.35193998
46	0xbe968c48	-0.294039
47	0x3e06b8f4	0.13156492
48	0x3d1ebc00	0.03875351
49	0x3ea5c620	0.3237772

MLP3.weight f4 [50, 50]
0	0xbe09c379	-0.13453473
1	0x3e2440c3	0.1604033
2	0xbeb4e0a2	-0.3532763
3	0xbe252da3	-0.1613069
4	0xbf60c86a	-0.8780581
5	0x3e5cd316	0.21564898
6	0x3b9200c8	0.0044556595
7	0xbe0aa2b5	-0.1353863
8	0xbe399a6d	-0.18125315
9	0xbf0915dc	-0.5354898
10	0xbd206970	-0.039163053
11	0xbe9d3b73	-0.3070942
12	0xbe6bcf22	-0.23028234
13	0xbed866d1	-0.42265943
14	0x3d13c2c8	0.03607443
15	0x3e861dfb	0.26194748
16	0xbde1e731	-0.110304244
17	0xbc445824	-0.011983905
18	0xbea6769b	-0.32512364
19	0xbea87641	-0.3290272
20	0x3e2e84e3	0.1704288
21	0xbdb93975	-0.09044162
22	0x3dd5d80a	0.10441597
23	0xbeb5e259	-0.35524252
24	0xbf1af0fa	-0.6052395
25	0x3eb51e81	0.35374835
26	0xbe669bab	-0.2252032
27	0x3e32029d	0.1738381
28	0xbe030862	-0.12796167
29	0xbbaa8cb7	-0.005204763
30	0x3d3995dd	0.045308936
31	0xbe107cbb	-0.14110081
32	0xbeb20c52	-0.34775025
33	0xbd7579da	-0.05993066
34	0x3e399ea0	0.18126917
35	0x3eab41f2	0.3344875
36	0x3d722669	0.059118662
37	0xbdc3f519	-0.09568233
38	0x3db33cea	0.08751853
39	0x3eec55f1	0.46159318
40	0xbe98fa69	-0.29878548
41	0x3dea59ff	0.11442947
42	0xbe3a7e9b	-0.18212359
43	0x3edc5fc4	0.43041813
44	0x3da11ab1	0.07866419
45	0xbe763546	-0.2404376
46	0xbee9e5b7	-0.4568307
47	0x3c95d90b	0.01829197
48	0xbd88b6fd	-0.06675527
49	0xbef33d8c	-0.47507894
50	0x3e438573	0.19093876
51	0xbe6712bc	-0.2256574
52	0xbe23ac2f	-0.15983652
53	0xbde6f5f5	-0.11277381
54	0x3e57c5a5	0.21071489
55	0xbeebd3b9	-0.4605997
56	0xbe4d285a	-0.20034924
57	0x3e2f4379	0.17115583
58	0x3d762149	0.060090337
59	0x3e34134e	0.17585489
60	0x3d202b59	0.03910384
61	0xbe6eacd7	-0.2330812
62	0xbe66db86	-0.22544679
63	0xbeba9e74	-0.36449015
64	0x3ed86e60	0.4227171
65	0xbef18e9a	-0.4717911
66	0x3e5e2277	0.21692835
67	0xbf8b4ee9	-1.0883456
68	0xbe559d72	-0.20860842
69	0x3df93689	0.12168605
70	0xbe014439	-0.12623681
71	0xbe067f68	-0.13134539
72	0xbd87c38e	-0.06629096
73	0xbeab274d	-0.33428422
74	0x3e4706b7	0.19436155
75	0xbf504526	-0.8135551
76	0x3d7aac1c	0.061199293
77	0x3c843d27	0.016142441
78	0xbf714041	-0.9423867
79	0x3d9162f2	0.070989504
80	0xbe7b3104	-0.24530417
81	0x3d4585b2	0.048223205
82	0x3e2a495b	0.16629545
83	0xbc65f75b	-0.014036025
84	0xbdf5b35a	-0.11997099
85	0x3b3f2f93	0.0029172644
86	0x3eb4eaa7	0.35335276
87	0xbeac5285	-0.33656707
88	0x3f0b9227	0.54519886
89	0x3f13f353	0.5779316
90	0x3ec02015	0.37524477
91	0x3e1f42b4	0.15552789
92	0xbe335694	-0.17513496
93	0xbe12d92c	-0.14340657
94	0xbdb94e06	-0.09048085
95	0x3d652d00	0.05595112
96	0x3e17a980	0.14810753
97	0x3db46f23	0.0881026
98	0xbd959af0	-0.073049426
99	0x3d72b6b8	0.059256285
100	0x3d9adc7f	0.075615875
101	0x3dbe5f57	0.092955284
102	0x3eb3c61e	0.3511209
103	0x3de02ba9	0.109458275
104	0x3ef27675	0.47356
105	0x3ed47681	0.4149666
106	0x3ea9ce90	0.33165407
107	0xbf3b109d	-0.73072225
108	0x3e174a35	0.14774401
109	0xbf14e388	-0.58159685
110	0x3e7d6176	0.2474421
111	0xbeed146a	-0.46304637
112	0x3e1edafa	0.1551322
113	0xbdcaba01	-0.09898759
114	0x3ee59420	0.44839573
115	0x3cd393ec	0.02582737
116	0xbe8c4e5a	-0.27403527
117	0xbeb20010	-0.34765673
118	0xbd63b0e1	-0.055588607
119	0x3d4ab270	0.049486578
120	0xbd2cfcc7	-0.042233255
121	0xbe97eaa4	-0.29671204
122	0xbd3414b2	-0.04396505
123	0xbf1fb864	-0.6239073
124	0xbe2fcc4d	-0.17167778
125	0x3d4a8dba	0.049451567
126	0xbdad9106	-0.08474927
127	0xbe0f76a1	-0.14010097
128	0x3ea517a4	0.322446
129	0x3f00f290	0.5037012
130	0xbd62b9af	-0.055352863
131	0x3e1197e6	0.14218101
132	0xbe993d93	-0.2992979
133	0xbf063667	-0.5242676
134	0xbee13648	-0.43986726
135	0xbbaf9834	-0.00535872
136	0xbf119b8a	-0.5687796
137	0xbe92051f	-0.28519532
138	0xbdcb8d85	-0.09939102
139	0xbe5b8da9	-0.21440758
140	0xbe50d9cd	-0.20395584
141	0xbdf3f914	-0.11912742
142	0x3bba4672	0.0056846673
143	0x3de391f7	0.11111825
144	0x3e67cdc9	0.22637095
145	0xbe9c32ce	-0.3050751
146	0xbcff8562	-0.031191532
147	0xbe2ef47d	-0.17085452
148	0xbec557db	-0.3854359
149	0xbf18b202	-0.5964662
150	0xbc9144f5	-0.017733077
151	0xbc890bb7	-0.016729219
152	0x3cf0d938	0.029400453
153	0xbe84d7d4	-0.25945914
154	0xbe9011bf	-0.2813854
155	0xbf07bb7b	-0.5302045
156	0x3d5b9e96	0.053618036
157	0x3d103a24	0.035211697
158	0x3e65b372	0.22431734
159	0x3bbd1244	0.0057699997
160	0x3eb17499	0.3465927
161	0xbddd57a9	-0.108077355
162	0x3ea7d464	0.3277923
163	0xbdfd8057	-0.123779945
164	0x3ec24e89	0.37950543
165	0xbeac68a8	-0.33673596
166	0x3e263ec2	0.16234878
167	0xbd8400e8	-0.06445485
168	0xbe58097d	-0.2109737
169	0x3da3d17e	0.07998942
170	0x3ebf22e5	0.3733131
171	0x3df1605f	0.117859595
172	0xbdabf5a5	-0.08396462
173	0xbe33c941	-0.17557241
174	0x3e0165fc	0.1263656
175	0xbf0120f7	-0.50440925
176	0x3eba2f2d	0.36364117
177	0xbda5bbae	-0.08092438
178	0x3d4f58c3	0.05062176
179	0xbd534799	-0.051581953
180	0xbd154526	-0.0364429
181	0x3a407317	0.00073413685
182	0x3e86186a	0.261905
183	0xbd3324da	-0.043736316
184	0xbd1aa3ce	-0.037753873
185	0x3bcdf7bd	0.006285636
186	0x3f060df6	0.5236505
187	0xbd91bbd1	-0.07115901
188	0x3ef6fc2f	0.48239276
189	0x3f08a596	0.53377664
190	0x3e8de345	0.27712455
191	0x3dc3de8a	0.0956393
192	0xbcd2588d	-0.02567699
193	0x3e38859d	0.1801972
194	0x3f1aae1a	0.6042191
195	0x3dbf3bac	0.093375534
196	0xbd065acc	-0.032801434
197	0x3e78d0f9	0.24298467
198	0xbe452aea	-0.19254652
199	0x3e21e1a2	0.15808728
200	0xbe9b8aa1	-0.30379203
201	0x3d95eaff	0.073202126
202	0xbdd5a563	-0.10431936
203	0x3ed66d8f	0.41880462
204	0x3e8e0432	0.27737576
205	0x3f26a035	0.65088207
206	0x3defdbff	0.11711883
207	0xbea400b4	-0.32031786
208	0xbd8c3c84	-0.0684748
209	0xbe871ee3	-0.26390752
210	0xbd90d9a9	-0.070727654
211	0x3d75e9e0	0.060037494
212	0xbdffe11a	-0.124941066
213	0xbe99e685	-0.30058685
214	0xbbd0baba	-0.006369916
215	0x3e011035	0.12603839
216	0xbeb8d208	-0.3609774
217	0x3ec7406c	0.38916337
218	0xbf0d43e4	-0.5518172
219	0x3d4cc122	0.049988873
220	0x3dbd0f26	0.09231405
221	0xbe47dc35	-0.19517596
222	0x3ecf4648	0.40483308
223	0xbec0d444	-0.37661946
224	0xbf04a5b6	-0.51815355
225	0x3f6072cd	0.8767517
226	0x3e399428	0.18122923
227	0x3eccdeae	0.4001364
228	0x3ecd1def	0.400619
229	0x3f41defd	0.7573088
230	0xbf034acf	-0.51286024
231	0x3e2167b7	0.1576222
232	0xbec0cdb1	-0.3765693
233	0x3e1f7a57	0.15574013
234	0xbeb79299	-0.35854033
235	0x3deeb0af	0.116547935
236	0xbe5bcb20	-0.21464205
237	0xbdd7cf9c	-0.10537645
238	0x3e017e61	0.12645866
239	0xbdd7fee1	-0.10546661
240	0xbe9688d7	-0.29401276
241	0x3cb271e5	0.021782825
242	0xbe52f281	-0.2060032
243	0xbda88688	-0.08228785
244	0x3edadaf2	0.42745167
245	0xbe1b71bd	-0.15180106
246	0xbe3466af	-0.17617296
247	0xbdef35a8	-0.11680156
248	0x3b11ce55	0.0022248228
249	0xbe595bcb	-0.21226422
250	0xbd7fa2e5	-0.062411208
251	0xbea59caa	-0.32346088
252	0x3e9b8b0f	0.3037953
253	0x3ef0f9ea	0.4706567
254	0xbec3dc51	-0.38254026
255	0xbf4c0dfd	-0.79708844
