models/DQN_hard_fit_heur.pth (torch, 916760 bytes, 22 tensors)

conv1.weight f4 [32, 1, 5, 5]
000000 0f fc 9e bd cb dd 07 3e bb fa fa 3d 51 7b 01 3e
       -0.0776292 0.13268201 0.12254854 0.12644698
000010 65 54 52 3e 71 65 83 be 8c 29 db 3d 9e fe 6f bd
       0.20540006 -0.2566333 0.10701284 -0.05859243
000020 10 ee 83 bd ce 27 43 bc 05 2b 5d bd ef 8c dc 3d
       -0.06441891 -0.011911346 -0.053996105 0.107690684
000030 d0 fa f3 bc 7b 90 d4 ba 0a ae 93 bd ec 47 21 be
       -0.029782683 -0.0016217375 -0.0721093 -0.15750092
000040 1b 40 0a be 32 44 06 be ce ec d2 3d 73 7f 15 be
       -0.13501017 -0.13111952 0.10299073 -0.145994
000050 72 60 2a 3e fe 96 96 bc f5 65 de bd 27 4f 87 bd
       0.16638353 -0.018382546 -0.108592905 -0.06606894
000060 67 58 1a be 99 84 b3 3d 5f cd e5 be 7a 06 a3 be
       -0.15072785 0.08765525 -0.44883248 -0.3184088
000070 ab 08 eb 3d 8b 05 7c 3d 36 79 a0 bd da a9 0f 3e
       0.11476263 0.061528724 -0.07835619 0.14029637
000080 bf 9e 25 3e 56 a8 83 be 62 7e ad 3c 6c d5 07 be
       0.16173838 -0.25714368 0.021178428 -0.13265008
000090 55 a7 03 3e 40 d3 fc bc a5 b3 ae 3d de 9c 32 3e
       0.12856801 -0.03086245 0.08530358 0.17442653
0000a0 d2 4b 20 be f0 dd a2 bc dd 32 2a 3e a5 a6 6e be
       -0.15653923 -0.019881219 0.16620965 -0.23305757
0000b0 fb 52 32 3d d9 a0 33 3e 58 c1 9c bd 5b 0b 2d be
       0.043536168 0.17541827 -0.07654065 -0.16898863
0000c0 c5 a3 c2 3d a8 43 ca 3c 5e 22 08 3e b4 c6 3c bd
       0.09503893 0.024690464 0.1329436 -0.046087936
0000d0 1d 26 23 3d db 45 cb be d4 22 d1 3d f3 12 22 be
       0.03983127 -0.39701733 0.10211721 -0.15827541
0000e0 7b dd 18 be da 53 e8 3d c4 ad f8 3d 4b 75 a7 bd
       -0.14928238 0.113441184 0.12142518 -0.08176669
0000f0 0e 90 cd 3a f6 3c 9e bd 58 c7 c7 3c 46 2a a3 3d
       0.001568319 -0.07726471 0.024387047 0.079670474
000100 2a 08 1a 3c d2 2b d2 3d 73 ae e6 bd 26 36 cc bd
       0.0094013605 0.10262264 -0.11263742 -0.099712655
000110 7b 7c a8 bd e1 7e 54 3d 06 4c a1 bd 9d 31 22 be
       -0.08226868 0.051878814 -0.078758284 -0.15839238
000120 da f6 21 bd c7 12 52 3d 04 1b a8 3d c0 6f cc bd
       -0.039542057 0.05128744 0.08208278 -0.09982252
000130 80 9d 33 be f6 eb 99 3e f5 af 80 3e c8 5c 46 3d
       -0.1754055 0.30062836 0.25134245 0.048428327
000140 d7 98 50 3e b6 71 34 bd e5 f9 48 be d5 95 57 be
       0.20370804 -0.044053756 -0.19626577 -0.2105325
000150 08 a4 53 be 50 29 4f 3e 60 54 2b 3e 88 2f 54 ba
       -0.20668042 0.20230603 0.16731405 -0.0008094241
000160 24 d7 3d bd 10 cc bd 3d 03 77 96 bd 7e 9d 00 3e
       -0.046347752 0.092674375 -0.073469184 0.12560079
000170 46 40 f2 3d 27 65 1b be 4d b8 59 bb c7 04 44 3e
       0.118286654 -0.15175305 -0.0033221424 0.19142447
000180 43 ab 2d be 55 d0 45 be e7 52 18 3e 0b e8 11 3d
       -0.16959862 -0.19317754 0.14875375 0.035621684
000190 85 3a 12 bd 1d b5 93 3d 49 0d d9 bc 01 b1 44 3d
       -0.03570034 0.07212279 -0.026495593 0.048020367
0001a0 cc 66 90 3d ff 08 6b 3e e9 a2 91 be f0 19 96 be
       0.07050857 0.2295265 -0.28444603 -0.29316664
0001b0 2e 80 d2 3c ff 75 b8 bd 6d b5 5d be 14 06 b3 bd
       0.025695886 -0.09006881 -0.2165124 -0.08741394
0001c0 1d 22 da 3d 39 b9 1c ba d5 40 1b 3e 2d bf e8 3d
       0.10651038 -0.0005978528 0.1516145 0.11364589
0001d0 19 75 b4 bd e2 39 d9 3c c3 cf 8d bd 33 09 55 be
       -0.08811397 0.026516858 -0.06924393 -0.2080429
0001e0 f7 a9 b9 bd 92 1c 52 3d bf 6f 1f be 6b 93 06 3e
       -0.09065621 0.051296778 -0.15569972 0.13142173
0001f0 28 e7 ef bd ff 5e d2 3c 54 3e 81 bd 77 1a 07 bf
       -0.117140114 0.025680063 -0.06310716 -0.5277476
000200 7e 64 3a bd ac 1d 91 be 1d b1 de bd eb c3 c4 be
       -0.045505993 -0.2834295 -0.108736254 -0.38430724
000210 97 44 47 3e 2c 2d 17 3e 57 cd f4 3d cf a2 11 bc
       0.19459759 0.14763325 0.11953228 -0.008888914
000220 1d df 3c be 0f 6a da bd 78 08 4d be 93 1d 11 3e
       -0.18444486 -0.1066476 -0.20022762 0.14171438
000230 1b cc 95 3e 97 27 30 3d 61 b7 83 bd 4d a4 44 bd
       0.29257283 0.043006506 -0.06431461 -0.048008252
000240 6c de 9b be 53 80 cd be 2c cd a7 bc 8f d9 ef 3d
       -0.30443132 -0.40136966 -0.020483576 0.11711418
000250 1a f7 0c bd fa e5 0c 3e 2b 60 a8 bd e1 67 92 3e
       -0.034415342 0.13759604 -0.082214676 0.28594878
000260 f6 51 64 be b0 28 07 3d c9 ab c2 3e 63 1e c0 be
       -0.2229689 0.032997787 0.38021687 -0.37523183
000270 a8 eb 30 bc cf 04 59 be 3a 01 81 3e a9 a4 1c 3e
       -0.010798372 -0.2119324 0.25196248 0.15297188
000280 36 15 91 bd a7 1f 01 be 46 f8 8b bd a6 20 54 be
       -0.07084124 -0.1260973 -0.06834464 -0.2071558
000290 32 40 18 bd 24 ed 84 bc 6f f8 3a bd b4 c4 9c 3e
       -0.037170596 -0.016226359 -0.04564708 0.30618823
0002a0 07 ab 71 bd c0 f5 97 be 85 1f c7 be 31 46 9f 3b
       -0.059000995 -0.2967968 -0.38891235 0.0048606624
0002b0 ee 6f f9 3c 10 83 68 be 91 b1 cd be fe 39 ae 3d
       0.03044888 -0.22706246 -0.40174535 0.08507155
0002c0 83 36 c4 3d 35 7f 53 be 78 71 8b 3e 61 58 40 be
       0.0958071 -0.20653994 0.27235007 -0.18783714
0002d0 8f 10 3e be 08 49 0e be dc f9 7e be b3 2a 53 3e
       -0.18561004 -0.13895047 -0.24900001 0.20621757
0002e0 ba 9c dd be e9 db a4 3e 7b 7f aa be 05 1c 12 3e
       -0.43283635 0.32199028 -0.33300385 0.14268501
0002f0 e0 2d 15 3e 13 b1 13 3e 00 db 66 bd 46 19 99 3d
       0.14568281 0.14423017 -0.0563612 0.07475524
000300 36 aa 1a be 75 f6 bd be 74 85 6c bd ac 13 6a be
       -0.15103993 -0.37102094 -0.05774446 -0.22859067
000310 cd 5e a0 be 61 06 5e be e1 8d 94 bc 14 4e c4 3e
       -0.31322327 -0.21682121 -0.01813406 0.3834082
000320 62 d9 76 be 3a 6f ff 3d fd 9d 26 be a8 b9 f3 3d
       -0.24106362 0.12472387 -0.16271205 0.119006455
000330 59 51 80 bd ac 8b 98 be c8 fd c0 be e4 e0 aa be
       -0.06265516 -0.2979406 -0.3769362 -0.33374703
000340 c3 75 dc 3d b1 51 d9 be dc 8a cd be a4 62 f2 3d
       0.10764649 -0.42445138 -0.40145004 0.118352205
000350 62 ab e8 bd 70 1e d8 3d 5c 6d f4 bc 60 8a b1 be
       -0.11360814 0.105526805 -0.029837303 -0.34675884
000360 47 10 53 be ab 1c 19 be b8 ab 0a bd 8e ac b0 3e
       -0.20611678 -0.14952342 -0.03385517 0.3450665
000370 18 38 17 be 47 0f 92 ba 09 f8 b2 bd 30 ed af bd
       -0.14767492 -0.0011143469 -0.08738715 -0.08590162
000380 2f 25 6f be e2 db ce 3d ce 28 4d 3e b6 c0 7d 3d
       -0.23354028 0.10100533 0.20035097 0.06195136
000390 43 53 73 3e 56 4e 01 bf 2e 33 2f bc 54 90 36 bd
       0.2376223 -0.50510156 -0.0106933545 -0.044571236
0003a0 92 dc 9f be b2 bf b0 be a9 b0 23 3e f9 9d 7e be
       -0.3122297 -0.34521252 0.15985359 -0.2486495
0003b0 be 94 5e be e7 5e e5 3c 53 08 b3 3c d8 0c 05 3e
       -0.21736428 0.027999355 0.021854555 0.12993181
0003c0 66 84 3e 3e e0 62 21 bc 6d dd f6 3d 8a c0 a0 3d
       0.18605193 -0.009850234 0.12053952 0.07849224
0003d0 70 9e 33 3e 53 1c d4 bd 9c 51 07 be 25 f8 66 3e
       0.17540908 -0.10356965 -0.13214725 0.22555597
0003e0 95 63 30 be 61 78 0c bd 0a 0d 0d be fe 1a 9a 3e
       -0.17225488 -0.03429449 -0.13774505 0.30098718
0003f0 40 82 e1 bc 43 00 4d bd e5 4b a7 bd 20 8e 9e 3d
       -0.027527928 -0.050049078 -0.081687726 0.07741952

conv1.bias f4 [32]
000000 2c 7c dd 3c 64 1d 68 be 44 a0 6b bd e8 16 a5 be
       0.027036749 -0.22667462 -0.057525888 -0.3224404
000010 b8 28 11 3d 99 ec 35 3d 98 01 22 bd 3b 85 b1 bc
       0.035439223 0.04441509 -0.0395523 -0.021669975
000020 18 f1 05 3e de 22 4e be 50 2d 23 bd ff df 93 be
       0.13080251 -0.20130488 -0.039838135 -0.28881833
000030 43 71 8a be 20 de b1 bd e0 08 6c be 8c 8d a2 3d
       -0.27039537 -0.08684945 -0.2305026 0.07937154
000040 40 12 dd bd 41 8b 29 be d0 a4 97 be 96 68 4b 3d
       -0.107944965 -0.16557027 -0.2961793 0.049660288
000050 3b d2 02 3c d6 62 ef bc ea 74 d5 3d 7f 6b 3d be
       0.007984693 -0.029221933 0.1042269 -0.18498038
000060 84 56 89 bd 2d b3 08 3d 85 40 63 3d 2f bd c5 bd
       -0.06705955 0.033374 0.055481452 -0.096552245
000070 b8 c9 ac bd 09 f1 f0 bd 8f 62 58 be 9d 8b 39 be
       -0.08436912 -0.11764724 -0.21131347 -0.18119664

conv2.weight f4 [32, 32, 5, 5]
000000 c4 23 f4 bd b7 d2 ea 3c d7 50 47 bc f7 fc be bc
       -0.11920884 0.02866493 -0.01216527 -0.023313982
000010 61 27 ca bd b1 57 95 bd a7 c3 98 3c 92 1c 2d 3d
       -0.09870792 -0.072921164 0.018647982 0.042263575
000020 8e b4 f7 3d cc 63 fc ba 44 8e b5 bd e4 ce 88 bd
       0.12094985 -0.0019255816 -0.08865026 -0.06680086
000030 d7 40 6a 3d 22 97 df bd b0 0d 0a bd 91 d7 ee bc
       0.057190742 -0.10917498 -0.03370446 -0.029155524
000040 aa 96 28 bc dc 60 b7 3c 99 ac 79 bd 7c df 23 be
       -0.010289827 0.022385053 -0.060955618 -0.16003221
000050 6f d8 db 3d df e2 4a 3e ce 49 e0 bc 4c a1 0a 3d
       0.10734641 0.19813107 -0.027378943 0.03384523
000060 89 b7 00 be a4 06 1d be 63 41 a2 3d 05 cc 15 bd
       -0.12570013 -0.15334564 0.07922628 -0.03657152
000070 76 57 2c 3d 5d a6 ff bd 30 e1 26 bf 0d a8 1d 3e
       0.042075597 -0.12482903 -0.6518736 0.15396138
000080 e8 32 4e ba ed fe f8 ba e8 d3 91 be ee 1a 6f be
       -0.0007865862 -0.0018996872 -0.28481984 -0.23350117
000090 67 6d 6e 3d 95 00 f7 3c 5f bb 70 bd 04 82 55 be
       0.058209803 0.030151645 -0.05877244 -0.20850378
0000a0 77 df 92 3d 64 23 64 be a0 79 bb bb 1e f3 22 be
       0.07171529 -0.22279125 -0.005721286 -0.15913054
0000b0 de 74 8b be 5a f3 d1 bd 92 53 80 3d 02 71 81 be
       -0.272376 -0.10251494 0.0626594 -0.2528153
0000c0 9a 0d 9f 3d bd 7c c5 bd 51 84 66 3c bd 34 4e 3d
       0.07766266 -0.096429326 0.014069633 0.050343264
0000d0 72 75 58 3a 9d 41 72 bd 8b 81 fd 3d 53 c3 38 3d
       0.0008257247 -0.059144605 0.12378224 0.04510815
0000e0 ae cf 9c bd d6 2c a7 bd 70 ed 63 bd ae 86 b2 3d
       -0.07656799 -0.08162849 -0.05564636 0.08717094
0000f0 2c 18 1b be 29 34 63 3d 86 b8 03 3d d6 b8 1c bd
       -0.1514594 0.055469666 0.032158397 -0.03826221
000100 87 64 8c bc a9 77 45 bd 55 e2 82 be 5a 7c fd bd
       -0.017137779 -0.04820982 -0.25563303 -0.12377234
000110 e3 69 1d be 21 21 dd 3d b6 1e 28 be 99 3a 41 be
       -0.15372424 0.107973345 -0.16417965 -0.1887001
000120 8b 7e d2 bd bb 6e 79 bd 0e dd 15 bd 88 a1 ee be
       -0.102780424 -0.060896616 -0.036587767 -0.46607614
000130 36 56 1e 3d 33 08 12 be e4 71 c4 be 9f 7d 9c bd
       0.038656436 -0.1426094 -0.38368142 -0.07641148
000140 bb 9b 66 3e 9b 0b 15 3d fc 68 16 bd e7 1b ce bd
       0.22520344 0.03638802 -0.036721215 -0.10063916
000150 ab 39 00 3d 4c c6 91 3e 04 c4 ae bd 87 91 7d bd
       0.031304996 0.284716 -0.08533481 -0.061906364
000160 51 73 9c be a1 ad 60 bd 90 8f 70 3d 96 84 33 bc
       -0.3055673 -0.054853085 0.058730662 -0.010956904
000170 e8 b6 b5 3d 8a 81 a5 bc e6 2f 53 bd 45 4c 7b be
       0.08872777 -0.02020337 -0.05155935 -0.24540813
000180 26 a4 18 3e 67 7d 97 bd d4 ef 6d 3e 30 33 ba 3c
       0.14906368 -0.073969655 0.23236018 0.022729486
000190 5e 73 37 3d 4a e5 0a be 39 1e 3a bd 02 ca c2 bd
       0.044787757 -0.1356403 -0.04543898 -0.09511186
0001a0 b2 e5 dd 3d e9 36 e5 bd 29 2d 08 3c b6 af 33 bd
       0.108348265 -0.11192114 0.008311548 -0.043868743
0001b0 1c b4 8b 3d da c6 0b be d2 46 ce bc fd df 7a 3a
       0.068214625 -0.13650075 -0.025180254 0.000957012
0001c0 ac 05 ce 3c 07 0d 32 be 09 c1 a7 bd a3 2d c9 3c
       0.025149189 -0.17387782 -0.081911154 0.024557894
0001d0 72 1f 8f bd a9 bf 0d 3e 4d f5 07 3e 77 3b ff bd
       -0.069884196 0.13842644 0.13277169 -0.12462514
0001e0 3e 4b d2 bd 34 05 c5 bd 8b 3b 53 bb 86 ef c3 bb
       -0.102682576 -0.09620133 -0.0032231535 -0.005979481
0001f0 82 e9 2a 3d f5 e7 2c 3e e6 0e 06 be a4 2b cc bd
       0.041726597 0.1688536 -0.13091621 -0.09969261
000200 34 30 83 bd 38 4f 0e be 1b 49 86 bd c8 05 47 3d
       -0.064056784 -0.13897407 -0.065569125 0.048589498
000210 35 34 80 3d 4a 98 6b be dc 4e 7f 3d af 00 9a 3d
       0.06259958 -0.23007312 0.062331066 0.07519662
000220 3e e7 8e 3c b8 69 e2 bd c4 04 1e 3e b3 2c a7 bd
       0.01744425 -0.110553205 0.15431505 -0.081628226
000230 fc bf 10 3d f0 13 c2 bd 46 a4 7e bd 1d bb 50 be
       0.03533934 -0.09476459 -0.062168382 -0.20383878
000240 6c 73 9a 3c c1 48 33 be b1 92 00 be 01 75 f5 3b
       0.018853866 -0.17508222 -0.12555958 0.0074907546
000250 f9 d5 a9 3d a5 0d 2c be 92 70 ce 3d 92 c9 8f 3e
       0.08292765 -0.1680208 0.10080065 0.28083473
000260 12 cf 3f 3d f1 84 fa 3c ca 5a 7b bd c4 1e 0d 3c
       0.046828337 0.03058097 -0.06136588 0.008613292
000270 68 9a cb bd c5 f5 7a be 8d 69 6c 3e d5 9d b0 bd
       -0.0994156 -0.24507816 0.2308714 -0.08623854
000280 6c b1 a4 3e 11 dd 2e 3d 34 9d 35 bd a4 d9 e2 bc
       0.32166612 0.042691294 -0.044339374 -0.02769167
000290 ba 8a e7 bc 53 51 07 bf c2 dc d1 be 1c d7 2a 3e
       -0.028264392 -0.52858466 -0.40988737 0.1668362
0002a0 74 5f cc ba 55 b0 77 bd 3a 3a a6 3c b1 40 dd 3d
       -0.0015592412 -0.060470898 0.020291436 0.108033545
0002b0 29 91 8d 3d c7 8e 5c be 1d 62 2a 3d 4c 77 4e 3c
       0.06912453 -0.2153884 0.041597474 0.012601685
0002c0 a6 24 c9 bd 31 f8 fd be 5f 1e ca bd a0 3a 6c be
       -0.09821443 -0.49603418 -0.09869074 -0.23069239
0002d0 ce a2 cb 3c e8 43 3f be 2e 6e a1 bd 65 6f 21 bf
       0.024857905 -0.18678248 -0.07882343 -0.630606
0002e0 55 55 da 3e 7d 87 29 be bc 4b 80 3d 3e a9 e2 bd
       0.42643228 -0.16555591 0.06264445 -0.11067437
0002f0 8a ae 25 bd 76 80 1b bd d9 86 6a bd 43 73 4c 3d
       -0.040449657 -0.037964307 -0.057257507 0.04991461
000300 46 94 1d bf 5d 2a a1 3d 6e f1 90 3e ff e4 9f be
       -0.6155437 0.07869408 0.28309196 -0.31229398
000310 b5 ad 34 be f4 d3 6a 3e 50 45 74 be 16 3a d3 bc
       -0.17644389 0.22932416 -0.23854566 -0.025784533
000320 28 be be bd 6a b6 35 be 01 c0 3d 3d fc 3c ba 3c
       -0.09313613 -0.17745367 0.046325687 0.022734158
000330 59 00 f8 bc 00 8a 02 be 4d b2 27 bd 7d 20 1e 3e
       -0.030273603 -0.12747955 -0.040941525 0.15442081
000340 ba c9 bb 3b 43 8c 2e be da 2a 7a be 98 51 6a bd
       0.005730835 -0.17045693 -0.24430409 -0.05720672
000350 36 4e 87 bd 95 f3 d2 bd e1 7b 1f be 19 2b 94 bd
       -0.066067144 -0.10300366 -0.155746 -0.07234783
000360 3c 56 9b bc 13 d2 8b bd 8b e9 5f be 62 3f 10 be
       -0.018962018 -0.06827178 -0.21866433 -0.14086679
000370 ad b3 d9 be 85 b1 59 bd 8f de 8b 3e e3 6c 41 3e
       -0.42519894 -0.05314781 0.27318236 0.18889193
000380 6e c3 10 3e 47 29 16 3e 1a bc dc bc 19 c2 a1 bd
       0.1413705 0.14664184 -0.026945163 -0.07898349
000390 2c d9 38 bc 94 09 e2 bd b3 2c a0 bd 8a 5a 44 3d
       -0.011282247 -0.11036983 -0.07821026 0.047937907
0003a0 21 99 34 be 1c 92 cb be a2 15 9d 3d 72 8e ec 3d
       -0.17636539 -0.3975991 0.07670142 0.11550607
0003b0 af 07 9b bd 9b d1 9b be cf 2e 78 bd c7 a1 4a be
       -0.07569825 -0.30433354 -0.060591515 -0.19788276
0003c0 26 21 88 bd 87 a6 ab be eb 8c 66 3d 54 d3 62 ba
       -0.066469476 -0.33525488 0.056286734 -0.0008652706
0003d0 be 4e 0b 3c a2 ac 48 bd d3 a1 40 3c 45 56 4e 3c
       0.00850266 -0.04899276 0.011757332 0.01259381
0003e0 75 1a ed 3d 40 ea 95 bc 57 ec a2 3d ce ea 5c 3d
       0.11577312 -0.018300176 0.079552345 0.053934865
0003f0 39 23 e5 bd a3 2d 14 be 34 b1 b1 bd 6f 9a ac bd
       -0.11188359 -0.14470534 -0.08676377 -0.08427893

conv2.bias f4 [32]
000000 cc bb 5c bd d6 46 37 3d 44 67 3f 3b a5 98 2c bd
       -0.053890035 0.04474529 0.0029205838 -0.04213776
000010 4d 9b 90 bd e0 b8 52 bc b7 a5 15 bc 8c 4f 8e bc
       -0.07060871 -0.01286146 -0.009133748 -0.017371915
000020 56 c9 02 3c 63 4e f8 bc b9 50 7b 3d 00 df 03 bd
       0.007982573 -0.030310815 0.06135628 -0.03219509
000030 12 b2 91 bc e5 85 d0 bc 3d 2e 74 bd 74 ae 5b bc
       -0.017785106 -0.02545447 -0.05961441 -0.013408292
000040 8e 7d 11 be 3f 9f 90 bd f3 3a c5 bd 2f 40 f6 bb
       -0.14208052 -0.07061624 -0.09630384 -0.0075149755
000050 ec bc 47 bc 9a 8a a5 3c 8c 53 90 bd bc 8b 47 3d
       -0.012191039 0.020207692 -0.07047185 0.048717245
000060 07 58 da bc a3 5e 6d bd de 6d 5a bc 3a c6 82 bd
       -0.026653303 -0.05795158 -0.013331858 -0.06385465
000070 bb 3f 5e bd 49 e1 d0 bd 90 ba 12 3c e1 d7 cd bc
       -0.054259997 -0.1019922 0.008955613 -0.025127353

conv3.weight f4 [32, 32, 5, 5]
000000 a2 fe b8 3d 48 e6 04 3e 6d b9 8c 3e e5 ba b8 bc
       0.09032942 0.1297847 0.2748522 -0.022550056
000010 90 b5 ca bd 15 e0 79 3e c3 3b b0 bd 02 d6 e2 bd
       -0.098979115 0.24401887 -0.08605149 -0.11075975
000020 54 a4 33 3e 30 fe a3 bd 1d 3a 11 be c6 86 17 3e
       0.17543155 -0.08007467 -0.14182325 0.14797506
000030 19 db 01 3e ce 0b 19 3c 48 7a 2f 3d 87 29 49 be
       0.12681235 0.009341193 0.042841226 -0.19644748
000040 bc be 8e be db 9e a8 3d 06 6b a5 3d 4e f7 71 3e
       -0.27879894 0.08233424 0.08077054 0.23629496
000050 46 3e fc 3d aa c5 b7 3d a0 b9 3b be 48 1e a2 3e
       0.12316565 0.08973248 -0.18332529 0.31663728
000060 59 73 ac 3d 42 e5 a1 bc f9 3f 2a 3d fe a2 49 bd
       0.08420438 -0.019762639 0.041564915 -0.049227707
000070 92 f7 85 3e 9a c1 1c 3e 8e ec d5 bd a8 28 fb bb
       0.26165444 0.15308228 -0.1044551 -0.0076647587
000080 e4 e5 ad be 22 8e 5e 3d f1 e1 58 3c 0d 43 48 bc
       -0.33964455 0.054334767 0.013237462 -0.012223017
000090 67 44 dc bd 06 d8 3b bd 28 f4 29 bc 86 7c dc bc
       -0.10755234 -0.045860313 -0.010373153 -0.026914846
0000a0 e5 b3 86 bd c3 3f 2d be 28 d7 98 bd d5 4f 7e 3d
       -0.06577281 -0.16918854 -0.07462913 0.062087853
0000b0 a9 a5 99 3d 81 85 7b be 50 e4 9c be 3f f3 45 3e
       0.075023 -0.24562646 -0.3064294 0.19331072
0000c0 31 f9 64 be 9e ec 36 3e e2 24 93 3e 78 04 22 be
       -0.22360684 0.178637 0.28739077 -0.15822017
0000d0 78 c4 87 3d fc b1 2a 3e 4c 33 d8 3d 5f 5c d0 bd
       0.0662927 0.16669458 0.10556659 -0.101738684
0000e0 0f 12 08 be 4f 6f 5b 3d 9f 79 79 bd a6 5a 86 3c
       -0.13288139 0.05357295 -0.060907003 0.016400646
0000f0 7e be 13 3e 00 b1 5c bd 11 a8 92 bd e4 0b 30 3e
       0.14428136 -0.053879738 -0.071609624 0.17192036
000100 a0 a5 16 3e a0 55 20 bc 17 89 3b be a1 da 46 bd
       0.14711618 -0.00978604 -0.18314014 -0.048548345
000110 bb bc 85 3c f8 b8 19 3e 67 a8 78 be 39 b3 5a bc
       0.016325345 0.15011966 -0.2428299 -0.013348394
000120 b1 76 c4 be c4 0c dd bd 93 e7 ca 3d c6 d5 31 be
       -0.38371804 -0.107934505 0.099074505 -0.17366704
000130 13 98 7d 3d 38 70 8a be 93 bf 35 bd d5 39 1f 3e
       0.061912607 -0.2703874 -0.044372153 0.15549405
000140 1f 38 7e bd e7 7d 66 be 77 90 3a be 96 d3 42 be
       -0.06206524 -0.22508965 -0.18219171 -0.19026026
000150 dd 3f 28 3e f6 27 13 3e 24 54 ab bc 07 6d 3c be
       0.16430612 0.14370713 -0.020914145 -0.18400966
000160 00 18 97 bd 90 21 9f 3d cc 77 19 be 0a 37 0d 3e
       -0.073776245 0.077700734 -0.14987105 0.13790527
000170 3d c1 a4 bd 33 8e a3 bd 72 2b 34 3d 87 38 ae 3d
       -0.0804467 -0.07986107 0.043986745 0.085068755
000180 9b bc 64 3c 5a 39 6b bd e6 21 e7 bd b4 e0 b0 bd
       0.013960983 -0.05742774 -0.112857625 -0.08636609
000190 6a 1d fa bd fa 81 77 be ad 20 a6 3c 95 ec 05 be
       -0.122126415 -0.24170676 0.020279253 -0.1307853
0001a0 e0 0e d7 3d 21 c0 f7 bc ac 65 38 be ed 23 a8 3d
       0.10500884 -0.030242981 -0.18007535 0.08209977
0001b0 88 24 c2 3c 88 9a 41 bd ab e8 7d bc 5c db bf 3d
       0.02369906 -0.047266513 -0.015497367 0.09368011
0001c0 30 17 ef 3d cd 10 e1 3c 40 db 1c be 5a e8 b1 bd
       0.116743445 0.027473832 -0.15318012 -0.08686896
0001d0 36 73 74 3d b2 40 4f 3e 38 27 04 3e 7d 6a 55 3d
       0.059680186 0.20239523 0.12905586 0.05210351
0001e0 ea d9 04 be ec e7 af bd d4 c6 89 3d c2 c8 be bd
       -0.12973753 -0.085891575 0.067273766 -0.09315635
0001f0 a8 04 5a bd 26 5e e0 be aa ea 75 be 77 bf 02 3e
       -0.053227097 -0.4382183 -0.24015298 0.1276835
000200 21 30 b0 bd 5d 95 5f be 97 c3 0f 3e 58 75 bc bd
       -0.0860293 -0.21834321 0.14039455 -0.09202069
000210 32 99 92 be 02 31 60 bc 29 b4 cd 3d ee fc 80 bd
       -0.28632504 -0.013683559 0.100441284 -0.062982425
000220 c9 92 f0 3c 70 3e 66 be 63 7d 2c 3e b1 1a c6 3d
       0.029366868 -0.22484756 0.16844706 0.0967306
000230 a0 e0 d7 bd 0c 48 27 be e9 64 59 bd 32 71 17 3d
       -0.10540891 -0.16336077 -0.05307475 0.036973186
000240 0c 5e 10 3c f1 1c 2f bd 44 60 b0 be c7 0d 34 3e
       0.008811485 -0.04275221 -0.34448445 0.1758338
000250 a7 c0 c1 be 05 bb 50 be 75 dd 51 be 76 b3 09 3d
       -0.37842295 -0.20383842 -0.20494635 0.033618413
000260 86 a4 2f 3d a4 be cc bd 85 d6 ff bd a7 82 8e be
       0.04288151 -0.09997299 -0.12492088 -0.27834055
000270 51 37 93 3c 8f 96 93 3d b7 63 09 3d c9 01 e2 bc
       0.017970713 0.07206451 0.03354236 -0.027588742
000280 2e 3c d0 bd 80 fc 72 3d a3 53 18 3d 10 c5 7f bd
       -0.10167728 0.059322834 0.037189137 -0.062443793
000290 75 a7 9d 3d bb ed 67 bc db dd d2 3c 8e e5 8d bb
       0.076979555 -0.0141558 0.025740555 -0.0043303436
0002a0 bc 40 2e be ac c7 8a 3d 7c df 5d bd 25 f9 a6 3d
       -0.17016882 0.06776366 -0.05416821 0.08152989
0002b0 d7 2f a0 be 63 3b b5 be 9e 34 15 3e 83 77 bf 3d
       -0.312865 -0.3539687 0.14570853 0.09348967
0002c0 af 80 15 3e d4 7c ce bd 6b 0f c8 bc 7b 73 9b 3c
       0.1459987 -0.10082403 -0.024421414 0.018975964
0002d0 2e ab d3 bd 95 c8 08 be 2d 79 f5 3d 59 99 07 be
       -0.10335384 -0.13357766 0.11986003 -0.13242091
0002e0 97 a0 e9 3d 74 09 47 bb 34 6b 1c 3e 57 15 4a be
       0.11407583 -0.0030370625 0.1527527 -0.19734703
0002f0 73 05 4e 3d 14 a0 13 be a9 66 0a 3e 88 3f 3d be
       0.050298166 -0.14416534 0.13515724 -0.18481266
000300 1d b8 3a be a7 64 33 bd d6 60 27 be d6 88 8a 3d
       -0.18234296 -0.04379716 -0.16345534 0.06764381
000310 c0 bb cd be e8 f1 d9 3d c3 78 26 3e 41 2c b3 be
       -0.40182304 0.10641843 0.16257004 -0.349947
000320 f8 5d 49 3e a9 e7 36 bb 44 40 8a 3d f7 5a 89 be
       0.19664752 -0.0027909076 0.06750539 -0.26827213
000330 2c b6 07 bd 8d 5d 5b bd 68 f4 e2 bd 25 0d e6 3c
       -0.033132717 -0.053556014 -0.11081773 0.02808244
000340 3f 16 d0 bd 27 ca 1d 3e b9 1a ab 3d 1f 6b 14 3d
       -0.10160493 0.15409146 0.08354706 0.03623497
000350 ff b3 48 3e 23 9c f6 bc f1 63 46 be 18 99 4c 3e
       0.19599913 -0.030103749 -0.19374062 0.19980276
000360 a8 97 d0 bd 65 0e f0 bd 57 8b 06 3e 34 37 cd 3c
       -0.10185176 -0.117214955 0.13139091 0.025050737
000370 d9 71 67 3e b5 2b 64 be 29 0c 0f be 46 aa 58 3a
       0.22602023 -0.22282298 -0.13969482 0.0008265119
000380 3c 62 65 be 4b ac 8f be 64 7e 80 3d c3 64 f8 bd
       -0.22400755 -0.28061137 0.06274107 -0.12128594
000390 12 c4 14 bd 08 ca b9 3d c9 84 92 3d c4 ef 44 bb
       -0.0363198 0.090717375 0.07154233 -0.0030050138
0003a0 62 bc 24 be 68 fe 0c 3c b9 3a 01 3e 39 fd 9e bc
       -0.16087487 0.008605577 0.12620057 -0.019407855
0003b0 c6 68 9f bc a4 d6 e5 bd 90 d5 f2 3c 01 2b b1 3c
       -0.01945914 -0.1122258 0.02964285 0.021626951
0003c0 4b cb 2b 3e 74 c8 3f be 30 09 de bd e5 ee 38 be
       0.16776769 -0.1872881 -0.10841596 -0.18059881
0003d0 21 28 90 be df f0 9c 3c ef ab a7 3e 0d 31 84 bd
       -0.28155616 0.019157825 0.32748362 -0.06454668
0003e0 81 09 a6 3b f8 90 40 be b9 22 5a be 56 b2 33 bd
       0.005067051 -0.18805301 -0.21302308 -0.043871246
0003f0 fb f0 b6 bd 44 48 82 3e e9 3a 9e 3c b6 35 67 be
       -0.08932682 0.2544576 0.0193152 -0.22579083

conv3.bias f4 [32]
000000 2e 84 b7 bd 9d 54 a0 bd 81 6c df bd 45 77 fe bc
       -0.08960758 -0.07828639 -0.10909367 -0.031062732
000010 ec 72 6c bd 9a e4 0c be 34 02 5c bd 5a 3b e8 bd
       -0.057726786 -0.1375908 -0.05371304 -0.113394454
000020 d1 41 1f bd f6 51 86 bd 4e 73 1a be 01 e1 c6 bd
       -0.038881127 -0.065586016 -0.15083048 -0.09710885
000030 d6 46 e2 bd 19 1c 44 be ea 9b 2e be 2a 3d b6 bc
       -0.11048667 -0.19151343 -0.17051664 -0.022245962
000040 30 dc 99 bd 03 e0 ea bd ad 91 10 be 26 b8 d8 bd
       -0.075127006 -0.11468508 -0.14118071 -0.105819985
000050 18 74 7b bd 81 d0 d5 bc 7a 54 35 be 84 28 10 be
       -0.061390013 -0.026100399 -0.17708007 -0.14077955
000060 59 f1 e1 39 23 97 d6 bd 4d da 39 bd 2b 9e b3 bc
       0.00043095162 -0.10478046 -0.045374203 -0.021926006
000070 0c 4e 1e be 57 fe e1 bd a9 5d 05 be fa 24 e2 bd
       -0.1545946 -0.110348396 -0.1302401 -0.11042209

conv4.weight f4 [32, 32, 5, 5]
000000 74 55 82 3d 5c 6c 86 bd e2 45 12 3d 3f 9a b5 3c
       0.06363955 -0.06563637 0.035711177 0.022168277
000010 fd a8 11 be 7b 32 ca bd e0 cc 4f be 16 1b 35 3e
       -0.1422462 -0.0987291 -0.20292997 0.17686114
000020 34 a5 1c 3d 72 43 e7 bd 55 ee a5 bd 31 28 05 be
       0.038243487 -0.11292161 -0.08102099 -0.13003613
000030 72 5c af 3d ea c7 ba bc d0 30 9c 3e 11 78 5b 3e
       0.085625544 -0.022800405 0.3050599 0.2143252
000040 aa ab 35 bd b8 a7 13 3d e6 de b0 bd 75 65 c0 3d
       -0.044353165 0.03604862 -0.086362645 0.093943514
000050 67 c1 20 3e 83 7b 78 3e 2d 60 e6 bc c3 e0 92 bd
       0.15698777 0.24265866 -0.028122032 -0.07171776
000060 b0 dd 45 be 5d a1 54 bd 90 1e 73 be 2f 29 19 bc
       -0.19322848 -0.0519117 -0.23742127 -0.009348198
000070 70 42 b8 bd 11 b6 1e be 2d bb c2 3d 41 75 4d bd
       -0.08997047 -0.1549914 0.09508357 -0.05016065
000080 0c b9 05 3e ad e0 a9 be 31 f7 16 bc 94 6f d9 bc
       0.13058871 -0.33179227 -0.009214208 -0.026542462
000090 bd f4 86 bc 3f b3 a1 bc 5c a5 30 bd f9 38 dd bd
       -0.016474122 -0.019738792 -0.04312645 -0.10801882
0000a0 1f be 73 be b7 44 86 bc 8e 28 59 3e a5 2a 57 be
       -0.23802994 -0.016390188 0.21206877 -0.21012361
0000b0 cf f4 78 3d e9 83 3f bd 45 65 8b be 94 16 b7 3c
       0.060780343 -0.04675666 -0.272257 0.022349633
0000c0 5c d0 44 3e a7 65 5f be 8b b0 69 be 43 d6 4e 3d
       0.19220108 -0.21816121 -0.22821252 0.050497305
0000d0 12 97 57 bc a2 0b ce 3d 27 8f f0 3d 99 80 f6 bd
       -0.013158577 0.100608125 0.11746054 -0.12036247
0000e0 86 fe 16 be ac 84 e4 3c df fc 88 3d 11 8d b8 3d
       -0.1474553 0.027895294 0.06688856 0.09011281
0000f0 68 0d 07 be f1 81 c2 bd ba 73 27 be 26 42 a9 bd
       -0.13188708 -0.094974406 -0.1635274 -0.0826457
000100 c7 0f 09 3e 29 70 33 bc 19 9d bb be f1 aa ae be
       0.13384925 -0.010952034 -0.36643293 -0.34114793
000110 61 08 15 be a4 34 ab 3b 77 fb 05 3d 86 a7 0e 3d
       -0.14553978 0.005224781 0.03271052 0.03482773
000120 60 35 a0 3c 16 c8 01 be e5 9d 47 be ec 83 71 3d
       0.019556701 -0.12673983 -0.19493826 0.0589637
000130 d1 6d 60 3e 50 be 71 3d 61 13 c1 bb ca d7 a9 3d
       0.21916892 0.059019387 -0.0058922027 0.082931116
000140 b8 f1 cd 3d cf 93 5b be 2c ea a3 3d 9c 87 46 bd
       0.1005587 -0.21443103 0.08003649 -0.04846917
000150 da f5 86 3e 64 16 34 be e9 cb ba bd f4 08 31 3e
       0.26359445 -0.17586666 -0.09120924 0.17288572
000160 e1 8a e4 bc b8 9c c5 3d 18 d9 37 bb 8e 62 41 bd
       -0.027898254 0.09649032 -0.0028052982 -0.04721313
000170 4e 85 ba bd ae 63 db 3d 44 37 6f be fb 45 a8 3d
       -0.09107457 0.10712372 -0.23360926 0.08216473
000180 85 5e 38 3d a7 03 6d be ea a1 12 3d 0e 89 25 be
       0.045012016 -0.23145925 0.035798945 -0.16165563
000190 ca 51 3d be d6 cd 96 be 3e 18 3d be 2f 30 32 be
       -0.18488231 -0.29453915 -0.18466279 -0.17401193
0001a0 7b 73 96 bd 4d e9 05 3e 69 81 fc bd 57 71 3d 3d
       -0.07346245 0.13077278 -0.123293705 0.046250667
0001b0 22 e9 3a bd fe e5 36 3e d7 80 2a 3e e6 08 47 be
       -0.04563249 0.17861173 0.16650711 -0.19436988
0001c0 82 6d 23 bb d1 c8 81 3d 9d fc 8a 3d 1a 82 f6 bd
       -0.0024937098 0.06337131 0.067864634 -0.12036534
0001d0 2e 7a 9a bd 60 6b 54 3d a6 9a 01 bd c5 18 b0 bd
       -0.07542835 0.051860213 -0.031641625 -0.085984744
0001e0 00 b5 3b bd c7 8d ac bd 0e 81 17 bd 81 00 4b 3d
       -0.045826912 -0.084254794 -0.03698831 0.049561027
0001f0 ec 5a 3e be 16 41 bd bd 13 f3 56 3d d3 02 9b bd
       -0.18589371 -0.0924093 0.052477907 -0.07568898
000200 15 33 d0 be 95 4a 90 be 8a b5 71 bd 1b c4 6f be
       -0.40663972 -0.28181902 -0.05901102 -0.23414652
000210 14 ec b7 3d 6f 79 d1 3d 1c ce 79 bd e3 b9 08 3e
       0.08980575 0.1022824 -0.060987577 0.1335216
000220 6c 64 92 bd 55 29 69 3e fa e9 c3 3b 60 2c 71 3d
       -0.0714806 0.22769673 0.00597882 0.05888021
000230 ac 0e b9 bd 34 1c b1 39 0b a2 ba bd 5b 7b b5 bd
       -0.090360016 0.00033781084 -0.091129385 -0.08861419
000240 78 93 90 be 30 47 d2 bc 3c 1d 1d be 1a 70 0f be
       -0.2823751 -0.02566871 -0.15343183 -0.14007607
000250 b0 27 d4 bc 31 c2 8c 3d 06 aa 4b 3d ca 8b c9 bd
       -0.02589783 0.068729766 0.049722694 -0.09841116
000260 5f 18 89 3d 7f 2e ff bd 2c ad 0a 3e 05 48 1e be
       0.066941015 -0.1246004 0.13542622 -0.15457161
000270 d0 2d 79 3d fd 9d 1a 3e 37 45 6b 3e 98 50 fe 3e
       0.060834706 0.1509933 0.22975622 0.49670863
000280 83 89 e7 3d b4 17 53 3d c6 cb 10 be 8b b2 bd bc
       0.11305525 0.051536277 -0.14140233 -0.023156425
000290 da 59 55 3e e9 81 57 3e a5 bb 4a be 43 b6 76 be
       0.20835057 0.2104565 -0.19798143 -0.24092965
0002a0 6b 20 90 bd 76 04 b6 3c eb ea 8e 3d b3 8d aa be
       -0.07037433 0.022218924 0.06978401 -0.33311233
0002b0 84 0a 79 bd a0 6d a7 be 15 0c 9e 3d 58 f7 b5 bd
       -0.060801044 -0.32700825 0.07717148 -0.08885068
0002c0 a3 2e c0 3d 84 20 13 bf 3a f4 fe 3d 5a ce e0 bc
       0.09383895 -0.5747149 0.12448926 -0.027442146
0002d0 a8 92 15 bd 44 c0 a9 bd 86 29 87 bd 0e 5e f6 3d
       -0.036516815 -0.08288625 -0.06599717 0.12029658
0002e0 34 dd 58 be 77 f1 d0 3d 3c 2d a0 3d 2a ef 0d bd
       -0.21178132 0.10202306 0.07821128 -0.034651913
0002f0 70 58 a3 3d 66 aa 8b 3d 7c 91 60 3d 1f 05 b1 bc
       0.079758525 0.0681961 0.054826245 -0.021608887
000300 99 0c 42 3e 08 f9 ac 3b 8f d2 a4 bd f9 52 3b 3d
       0.18950118 0.0052787103 -0.08047973 0.045733426
000310 e7 0e a8 3e 8c 1d 42 3b ef 87 55 3c 60 25 46 bd
       0.3282387 0.0029619662 0.013032897 -0.048375487
000320 0a 8a df 3c 0e 21 cb bd 69 66 ce 3d 43 57 07 3e
       0.027287502 -0.09918414 0.10078127 0.13216881
000330 e9 f1 bd bc c9 f0 da be 97 3b a8 be 4a 5a a7 3d
       -0.02318664 -0.4276183 -0.32857963 0.08171518
000340 b8 ed 41 3e f9 f4 85 be f7 2b 60 bc 79 ba 27 be
       0.18938339 -0.26163462 -0.013682357 -0.16379727
000350 71 74 04 3e 21 88 f6 3c 88 0c 30 be 67 65 e3 3b
       0.12935044 0.030094208 -0.1719228 0.0069395783
000360 8f fc 15 be 9c 8b a4 bc c0 bf 1c be 33 1f 66 bd
       -0.14647125 -0.020086102 -0.15307522 -0.056182098
000370 b0 bb 75 bb 07 a9 46 be 0b eb 5a 3d 45 d4 33 3d
       -0.0037495904 -0.19400416 0.05344681 0.043903608
000380 ab 1e e7 bc c4 1a 91 3b 34 cc ce bd b4 be 45 be
       -0.028212866 0.0044282395 -0.100975424 -0.19311029
000390 d3 39 e2 3d 8e 18 9a be ac b7 96 3c d4 d1 2e 3d
       0.11046185 -0.3009686 0.018398128 0.042680576
0003a0 da 19 0f 3d 0a 93 51 3d ad 50 a5 be 7f ed 2f bd
       0.034936763 0.051165618 -0.32288113 -0.042951103
0003b0 1e 5d 0d be 3b dc 98 3b 89 72 af 3d 22 87 36 bd
       -0.13805053 0.0046649254 0.08566768 -0.044562466
0003c0 22 10 ba be 06 c4 dc 3c 89 38 e4 3d 63 6e b2 3b
       -0.36340433 0.02694894 0.11143596 0.005445288
0003d0 6d 73 e8 bd 1c 39 91 bd 9b 60 0a be 73 f0 06 3e
       -0.11350141 -0.07090971 -0.13513415 0.13177662
0003e0 2a ca 67 bd fc aa 36 be 1b 88 fd 3d cd eb 1b be
       -0.056589283 -0.17838663 0.12379476 -0.1522667
0003f0 52 47 fc 3d 03 eb 13 be a4 de 5f bd 10 a8 21 3d
       0.12318291 -0.14445119 -0.054655686 0.039466918

conv4.bias f4 [32]
000000 1f ab 0e bd f0 69 75 bd b5 b8 a5 bc a9 a3 ba bc
       -0.034831163 -0.059915483 -0.020229677 -0.022783117
000010 a0 81 1a bd d4 c8 1d 3d c7 a8 57 ba 2c 7a 77 bd
       -0.037721276 0.038521603 -0.0008226749 -0.060419247
000020 43 61 0d bd 3b f1 48 bd ca a2 d1 bd 45 60 e2 3b
       -0.034516584 -0.04905818 -0.10236128 0.006908449
000030 02 51 28 be f6 da 84 bd 07 9b 40 3d 88 8e 9f bc
       -0.16437152 -0.06487076 0.047022846 -0.019477144
000040 7a 54 73 bd b8 e9 e7 bb 58 eb cc bd c2 89 a6 bd
       -0.059406735 -0.007077422 -0.10005826 -0.08131744
000050 0e 2b 25 bc 4c 55 e2 bd 56 f3 da bc f1 c4 63 3d
       -0.010081066 -0.11051425 -0.02672736 0.05560774
000060 9f 8b fb bd b6 bd 27 bd 75 cf a3 bb 79 5a b5 bd
       -0.1228249 -0.040952407 -0.004999096 -0.08855147
000070 7f 9f 94 3b 6c ac fc ba a0 b6 97 bd ef 67 53 bc
       0.004535615 -0.001927746 -0.0740788 -0.012903198

conv5.weight f4 [32, 32, 5, 5]
000000 2a 89 a5 3d 06 81 68 bd 1a e6 cd 3d 4c 46 00 3d
       0.080828026 -0.05676367 0.10053654 0.03131704
000010 56 19 2c be ff e7 fc 3d 5f c4 1f 3d b2 35 39 bd
       -0.1680654 0.12348937 0.039005633 -0.045217223
000020 59 f9 a4 bd 12 a3 01 bd 45 d9 ff bd a4 eb 01 be
       -0.08055372 -0.031649657 -0.12492613 -0.12687546
000030 5c 6e 42 be 26 29 8b be 8f b1 96 be d9 64 e2 bd
       -0.18987411 -0.2717983 -0.2943234 -0.110543914
000040 80 d8 c6 bd 80 8d 66 bd 3a f8 98 be 75 94 37 be
       -0.09709263 -0.05628729 -0.29876882 -0.17927726
000050 58 a3 61 be 76 98 c4 bd 36 1b af bd e2 53 91 3a
       -0.22034967 -0.09599392 -0.08550112 0.0011087621
000060 0a 65 3b bc f0 05 dc 3c 6d 98 82 3c 6d 62 5f bd
       -0.011437664 0.0268583 0.015941823 -0.054537226
000070 9b 2f 96 3c 0f 0c 1d bd 0d 41 64 3d b5 e5 2d 3b
       0.018333247 -0.038341578 0.0557261 0.002653462
000080 91 2e 0f be 2a d5 1f bd dd e0 08 bc 3c ee 26 bd
       -0.13982607 -0.03902165 -0.008354393 -0.04075454
000090 09 b8 54 bd 11 3c b3 bd 38 d2 4d be ef 04 25 3e
       -0.051933322 -0.08751691 -0.20099723 0.16115163
0000a0 fd 2f 19 be 44 82 6c be 4b 62 06 be 5e 7c 36 bd
       -0.14959712 -0.23096567 -0.13123433 -0.0445522
0000b0 08 ce c8 ba a5 67 2f 3d 44 76 02 be 77 1c 0f be
       -0.0015320191 0.042823453 -0.12740427 -0.13975702
0000c0 c3 95 b3 3d a6 5a e0 bc 09 67 12 bd bc 9f 81 bd
       0.08768799 -0.027386975 -0.035742793 -0.06329295
0000d0 cf b9 69 bd 5a ba 62 3d 46 27 3d be 99 dc a3 3d
       -0.057061967 0.0553535 -0.18472013 0.0800106
0000e0 39 e7 2b bd 20 9e 87 bc 40 ad 3c 3d db 5e 9d bd
       -0.041968558 -0.016554892 0.04606366 -0.07684108
0000f0 93 a4 f2 3d cb 31 c3 bd 55 aa 02 3d c0 53 47 be
       0.11847796 -0.09530982 0.031900723 -0.19465542
000100 5b 64 26 bd 52 3e 98 3d 2a 77 0d 3e e7 73 e5 bd
       -0.04062305 0.07433762 0.13814989 -0.11203747
000110 78 11 61 bc fc f3 77 3d 99 77 e1 3b 6f 26 59 3e
       -0.013737075 0.060535416 0.006880712 0.21206068
000120 91 e8 c4 bd 27 3d 45 3d fe e5 96 bc 24 7a 87 3e
       -0.09614671 0.048154023 -0.018420216 0.26460373
000130 98 39 62 3e 91 e6 89 bd 73 01 b2 3d 54 20 c6 bc
       0.22092283 -0.0673343 0.08691683 -0.024185337
000140 b9 87 f6 3d f9 8d 36 3d f6 90 65 3c 29 a3 be bd
       0.12037606 0.04456899 0.014011612 -0.09308464
000150 8e 2f 52 be 20 d2 82 3d 0b be b6 3c b1 fd da 3d
       -0.20525953 0.063877344 0.022307416 0.10692919
000160 bc c6 0f be 37 7f 2d bd 5f 7e 1e be 8a 66 5b 3c
       -0.14040655 -0.04235765 -0.15477894 0.013391146
000170 da 58 8e 3d 8f 01 04 be 93 c8 01 3e 9d e0 2f bd
       0.06950541 -0.1289122 0.12674169 -0.042938817
000180 3d d9 2d 3e 87 0a 24 3e fa 3f 4f 3d 1e e5 b4 3d
       0.16977401 0.16019641 0.050598122 0.08832763
000190 16 70 ba bd fb b7 f4 bc ee 2b a6 bc ef f3 44 bd
       -0.0910341 -0.029872885 -0.02028462 -0.048084196
0001a0 ea 19 43 bd 58 5f ac bd 28 ae 80 bc b7 a8 96 bc
       -0.047632135 -0.08416623 -0.015708044 -0.018390996
0001b0 92 49 b5 bd 2c 36 1a be 46 ef 41 bc 7f c1 90 3d
       -0.08851923 -0.15059727 -0.011836832 0.070681565
0001c0 fc cf 3d 3d 3e 6e 1f be 98 d6 8d be 5d 17 e0 ba
       0.046340927 -0.15569398 -0.27702785 -0.0017096807
0001d0 47 24 17 be ff e8 ec bd b5 ce 4f be cb 39 89 be
       -0.14759932 -0.11567878 -0.20293696 -0.26801905
0001e0 1d 5c f9 bc f9 34 22 be 2d 7a cf bd 5d 3b 0e 3d
       -0.03043943 -0.1584052 -0.10130725 0.034724582
0001f0 ba 40 cb bb 8e dd 27 3e ad e6 a9 bd ec 66 d0 bd
       -0.0062027844 0.1639311 -0.08295951 -0.10175881
000200 52 0c 42 be 84 31 62 be 9d f5 24 3e fc 37 1e 3d
       -0.18950012 -0.22089201 0.16109319 0.03862761
000210 41 58 40 be aa e2 55 be 99 0a 79 be 25 1d 98 3d
       -0.18783666 -0.20887247 -0.24320449 0.07427434
000220 ce 58 a9 bc 4e bd 48 be 00 fe 9c bd 94 a4 52 be
       -0.020672228 -0.19603464 -0.07665634 -0.20570594
000230 42 ab f8 3d c0 c4 a9 3d c5 a5 6c 3d 87 4c 09 3d
       0.1214204 0.0828948 0.057775278 0.033520248
000240 ba 98 68 bd 8a c9 8b 3c f3 49 8c 3e 04 46 40 3d
       -0.056786276 0.017063875 0.2740017 0.046941772
000250 bd 2e 8c bd 20 d9 6d be 9b 34 1f be be 03 83 be
       -0.06844852 -0.23227358 -0.15547411 -0.25588793
000260 1a 64 28 3d 2f 0d 8c bc 49 62 12 bc b5 38 36 be
       0.04111109 -0.01709613 -0.008934566 -0.1779507
000270 e0 a7 43 be d0 3e 96 3c 97 ec 16 3e 5c 3a 2c 3c
       -0.19107008 0.018340498 0.1473869 0.010511961
000280 7e 02 0c be 5b c7 6e be b3 a2 d4 3c 06 7b a0 3d
       -0.13672826 -0.23318236 0.025956487 0.07835965
000290 d9 5c bb bb 59 0b 6a bd 69 ea 77 be ea 19 4e 3e
       -0.0057178554 -0.05713973 -0.24210514 0.20127073
0002a0 c5 37 12 3e df ef 01 bd 91 b5 f5 bd b2 76 7d be
       0.14279087 -0.0317229 -0.11997522 -0.2475231
0002b0 0e 6e 80 3d 39 da fc 3d 12 5d 4d bd d5 d4 f5 3d
       0.06270991 0.1234631 -0.050137587 0.12003485
0002c0 9b ba 49 3d eb 1b 4e be f2 72 91 bc 86 44 87 3d
       0.049250226 -0.20127837 -0.017755006 0.06604867
0002d0 97 ee 4e bb a1 5a 87 bd 91 31 6a be da 4f 6a bd
       -0.0031575316 -0.06609083 -0.2287047 -0.05720506
0002e0 8a 78 56 bc c2 42 f2 bd b8 c9 66 be f5 a2 2a be
       -0.013090262 -0.11829139 -0.22537887 -0.16663726
0002f0 47 b1 e0 bd 87 f5 61 3c 34 92 db bd 06 c9 d4 bc
       -0.10971313 0.013791448 -0.107212454 -0.025974762
000300 c0 a9 75 be c1 a8 17 3e 47 9a b3 3c 24 4d d7 3d
       -0.23990536 0.14810468 0.021924151 0.1051276
000310 9e 66 fa bd ff 53 ee bb 12 04 01 3d 24 8b 03 be
       -0.12226604 -0.0072731967 0.031498022 -0.12846047
000320 15 95 2a bc 81 e1 9c bb 71 b4 49 3d a2 31 45 3d
       -0.0104115205 -0.0047876243 0.049244348 0.048143037
000330 3d 78 61 be d8 ce 89 bd 26 52 af 3c 5d 42 28 3e
       -0.22018524 -0.067289054 0.021401476 0.16431566
000340 01 5c 02 3e d4 d9 ca 3c e4 0c cf bd 1e 70 4b 3d
       0.12730409 0.024762072 -0.101098806 0.04966747
000350 71 90 23 3d 62 d9 75 3d 63 63 e7 bd df 5f 3f bd
       0.039932672 0.060021766 -0.112982534 -0.04672229
000360 65 d0 d6 3c 17 75 c9 3d b7 06 35 3d 0a 66 74 3c
       0.026222417 0.09836786 0.044195857 0.014916906
000370 33 5f d4 bd 81 fb 50 be 2d 1d 9c bd af 70 6f be
       -0.1036972 -0.20408441 -0.07622752 -0.23382829
000380 53 6a 2d be f8 bc e5 be 41 c7 27 be 59 39 df be
       -0.1693509 -0.44870734 -0.16384603 -0.4359844
000390 b7 5f 77 be 89 96 2a bd eb 9c bc be d8 dc c1 be
       -0.24157606 -0.041647468 -0.3683847 -0.37863803
0003a0 8f 08 c6 be 5c 8d bf be 19 61 d1 bd c8 b0 e6 be
       -0.38678405 -0.37412536 -0.10223598 -0.45056748
0003b0 4a e6 96 be e6 b9 a3 be 4f be 37 be f9 6f 51 bc
       -0.29472572 -0.31977767 -0.1794369 -0.012783044
0003c0 91 95 9e be 7a ba e2 be f8 a4 be be 13 9b ba be
       -0.30973485 -0.44282895 -0.37235236 -0.36446437
0003d0 38 aa 4a be 28 d2 92 bc 00 f9 b2 be 6d 01 9a be
       -0.19791496 -0.017922476 -0.34955597 -0.30079213
0003e0 8a da 83 be 6d b6 ae be 40 bc 00 bd 4e fa a8 bd
       -0.2575267 -0.34123555 -0.03142953 -0.08250867
0003f0 87 5a 2e 3d f6 79 9a 3d 56 96 4f bd 76 77 c3 bd
       0.042566802 0.075427935 -0.05068048 -0.0954427

conv5.bias f4 [32]
000000 f8 e7 07 bc 2e 33 cb 3d 42 c6 13 be 03 9c 7f be
       -0.008295052 0.09921871 -0.14431098 -0.24961857
000010 19 24 29 3c 16 7f 65 3c 8f 6d 96 3d ec 76 9b bd
       0.010323548 0.01400735 0.073451154 -0.07591042
000020 f7 aa ac bd 6f 16 bf 3d 5b bc 2e be f0 9f 43 be
       -0.084310465 0.09330451 -0.1706404 -0.1910398
000030 b1 eb 5b 3c 78 ca 8e bc b2 59 3d be f0 ad 62 3c
       0.013422892 -0.017430529 -0.18491247 0.013835415
000040 5a 2e b8 3c 99 7a 93 3d 1b 2f 16 be 55 48 e2 3c
       0.02248304 0.07201118 -0.14666407 0.027622381
000050 19 5b 85 3c fb bb bc bd ee a4 1e 3d c6 ae 52 3c
       0.01627879 -0.09215542 0.038731508 0.012859052
000060 84 4a 80 3a 2e 22 c5 3b fc 34 04 bc d9 cf 94 3d
       0.0009787832 0.0060160374 -0.008069273 0.07266206
000070 ed 6e 7e be b5 ae 7d be 78 a9 d9 3d 57 5d ec bd
       -0.24847002 -0.24773677 0.10628027 -0.11541241

conv6.weight f4 [32, 32, 5, 5]
000000 7d 75 1c 3e 8a 5c 4b 3e 2a 22 ad bc d8 39 f6 bd
       0.15279193 0.1985952 -0.021134455 -0.120227516
000010 b4 48 d9 3d f5 e5 16 bc 8d 15 5c 3e d0 54 ad bd
       0.1060957 -0.0092100995 0.21492596 -0.08463442
000020 6c 83 09 be de 3f 88 3c 36 eb f9 bc 8d e3 dd 3d
       -0.1342904 0.016632017 -0.030507665 0.108344175
000030 3a d7 ad bd 94 ea 04 be 7c ee 46 bc c6 d9 8c be
       -0.08488317 -0.1298011 -0.01214182 -0.27509898
000040 70 dd fc 3d 71 ac b0 bd 8d f0 d5 bd 3a 33 83 3c
       0.12346923 -0.086266406 -0.10446272 0.016015638
000050 76 f4 88 be 2d fb a9 3c 60 21 28 be cd e9 cf bd
       -0.2674901 0.020749653 -0.16418982 -0.10152016
000060 8c cf ba bc e0 ea 78 be c2 14 21 be ee 10 04 bc
       -0.022804044 -0.24308348 -0.15730575 -0.008060677
000070 71 2f 52 3e 29 b3 77 3e c4 3c 90 be 3f 4c c0 bd
       0.2052591 0.24189438 -0.2817136 -0.09389543
000080 57 7a 83 bc 13 5f 7d 3e 1b 6b ad 3e b8 59 a8 be
       -0.016049547 0.24743299 0.33870777 -0.3288095
000090 1c ed a5 bd a8 14 56 bd a1 0d 70 3e 58 ce 88 3e
       -0.08101866 -0.052265793 0.23442699 0.26719928
0000a0 fb b3 ce be 33 d3 36 be 2f b6 62 bd 55 28 6a 3e
       -0.4037169 -0.17854004 -0.055349525 0.22866948
0000b0 60 bd 9a 3e 69 de f5 be d8 63 74 be fd 93 74 bd
       0.30222607 -0.48021248 -0.23866212 -0.059711445
0000c0 1b bb 51 3e f9 74 83 3e 68 68 f2 be d8 96 8a bd
       0.20481531 0.2567518 -0.4734528 -0.067670524
0000d0 7f 7f 5b be 77 c8 34 bd 16 96 b0 be c6 d4 14 be
       -0.21435355 -0.04413649 -0.34489506 -0.14534292
0000e0 2f 9e 03 bc eb f3 f4 bd f1 ca ac bd 0a 27 d9 be
       -0.008033319 -0.11960586 -0.084371455 -0.42412597
0000f0 c7 1d ce bd 5b 0f e4 3d f0 41 6f bd 61 5c 93 bd
       -0.10064273 0.11135741 -0.058412492 -0.07195354
000100 41 b2 eb be e6 bc 6a bd ca a2 59 3e fa 18 ba 3d
       -0.46034434 -0.057309054 0.21253505 0.09086795
000110 fa ba ce 3c 94 b3 aa be 0d 9e 1c bd d2 18 c5 3d
       0.025235642 -0.33340132 -0.038236666 0.09623875
000120 83 d7 08 3e 64 30 9c 3d bf 85 83 be fa eb a2 be
       0.13363461 0.07626417 -0.25687978 -0.3182066
000130 18 41 b0 3d 55 af 9d bb dd c7 8e bd 95 fb 2c bd
       0.08606166 -0.004812161 -0.06971715 -0.042232115
000140 0b 19 47 be e5 ab 42 3e e7 5d a4 3d eb 31 be bd
       -0.19443147 0.19010885 0.08025723 -0.09286865
000150 5c d1 c6 bd 86 46 ff bc d0 72 68 3e 9f bd 5a 3e
       -0.09707901 -0.031161558 0.22700047 0.21361397
000160 c3 7a 25 3d fa 3e 47 bd 96 2c 52 3d 8a 2e 46 3e
       0.040400278 -0.048644044 0.05131205 0.1935369
000170 4a e7 5f 3e c3 a2 87 3d 14 47 73 bc 13 92 17 bd
       0.21865574 0.06622841 -0.014848489 -0.03700454
000180 6c de 06 3e 38 3b cd 3d 6b 8b a0 3b da a1 ba 3d
       0.13170785 0.10021061 0.0048994324 0.09112902
000190 14 2f c7 3d 0a 07 ec 3d f8 44 c1 3d 5b 7b e3 bb
       0.09725776 0.1152478 0.09436983 -0.0069421954
0001a0 b6 f0 93 be 9f 38 0d 3e 49 f8 05 3e 6d 45 0e 3e
       -0.28894585 0.1379113 0.13082995 0.13893671
0001b0 a3 b2 29 bc 9e 83 84 be 80 70 c7 3d 28 77 c2 3d
       -0.010357532 -0.25881666 0.097382545 0.094953835
0001c0 55 da a7 3d 76 2f 5b bd 33 0b a6 be ff b4 0a 3e
       0.081959404 -0.05351206 -0.3243042 0.13545607
0001d0 9d ef 0c 3e 06 3d 2b 3e e0 b6 1b 3e 88 28 83 bc
       0.1376328 0.16722497 0.1520648 -0.016010538
0001e0 65 72 6a 3e 96 44 26 3e 52 bf 4a 3e f3 a6 68 3e
       0.228952 0.16237101 0.19799545 0.22719936
0001f0 fd b0 0a 3e 70 f5 99 3d 2b 4d 1d 3e 1e a8 08 bd
       0.13544078 0.075175166 0.15361468 -0.033363454
000200 a9 50 ef bd 59 31 4d bb e8 3f 1e 3d 77 82 ef 3d
       -0.116853066 -0.003130993 0.038635164 0.11694806
000210 bd 5a d7 bd 8b e8 a6 bd 8a 71 ef bc d5 d0 d0 bd
       -0.10515354 -0.08149823 -0.029228944 -0.101960815
000220 11 cb 60 bd a6 3e 5a be d9 8f e3 bd 15 cd 82 bd
       -0.05488116 -0.21312961 -0.11111421 -0.063867725
000230 65 5b 73 be 43 77 84 bd 0d 80 b4 bd 2a 02 62 bd
       -0.23765333 -0.0646806 -0.08813486 -0.055177845
000240 95 35 32 bd c4 c9 b1 be ec f0 5f be 54 5f 9a bc
       -0.04350813 -0.34724247 -0.21869248 -0.018844284
000250 c9 e2 ad bd 8b 5b 15 bc 41 d2 60 3d df e0 74 3d
       -0.084905215 -0.009116064 0.054888014 0.059784766
000260 d8 09 03 bc 65 26 60 bd 2c 17 71 3c 25 79 58 3c
       -0.007997952 -0.054724116 0.014714997 0.013212477
000270 b2 31 60 3d df 45 aa bc b1 df a8 bd 9b 15 66 bc
       0.054734893 -0.02078527 -0.08245791 -0.014043237
000280 93 59 43 bd f7 b4 22 3d 2f 1b 77 bd 5b 11 d4 bd
       -0.047692847 0.039723363 -0.06032866 -0.10354873
000290 b1 9e cc bc 1d 61 a5 bd b4 b1 81 bd 57 68 4c bd
       -0.024978014 -0.080751635 -0.06332722 -0.049904194
0002a0 49 89 c3 bd e8 d8 6e bd f9 00 02 be 64 20 b5 bd
       -0.095476694 -0.058312327 -0.12695684 -0.08844069
0002b0 07 3d e9 bd 26 53 f3 bd f5 fd f2 bd 2b 40 7c 3d
       -0.11388593 -0.11881094 -0.11864845 0.061584633
0002c0 62 a6 00 bd 0e a6 be bd 27 43 1b 3e ba 97 ed 3d
       -0.031408675 -0.09309016 0.15162335 0.11601205
0002d0 ba 91 1f 3e 89 ca f4 3d 68 07 6e bb 2e 6b be 3d
       0.15582934 0.11952693 -0.0036320332 0.09297787
0002e0 e0 d5 ad bd 97 81 ac bc f9 1f 8b bd 80 06 1c be
       -0.08488059 -0.021057887 -0.06793208 -0.15236855
0002f0 0d 40 b0 bc fa 53 50 bd a2 3d 48 be 04 7d 28 be
       -0.021514917 -0.050861336 -0.19554761 -0.1645394
000300 fb 10 ce be a7 6c 89 bd ba a0 b9 3c ee 15 1c be
       -0.4024733 -0.06710177 0.022659648 -0.1524274
000310 89 e1 7b bd c2 26 a5 be 45 f0 e1 bd 22 49 05 3e
       -0.061494384 -0.32256132 -0.11032156 0.13016179
000320 5b d4 58 be 22 e1 af 3c ff 05 b2 3d 12 3b eb bd
       -0.21174757 0.021469656 0.0869255 -0.11485876
000330 4c 27 b4 bd 70 4d 3e be 98 26 b6 3d 78 c9 b4 3d
       -0.08796558 -0.18584228 0.0889408 0.088274896
000340 6c c4 02 be 71 1b 6a be 67 38 86 bd d2 9c 84 3e
       -0.12770241 -0.2286203 -0.06553727 0.25900894
000350 db c2 46 3e 60 58 80 bd 46 81 a7 be bb 2f 67 3d
       0.19410269 -0.06266856 -0.32715815 0.056442004
000360 61 aa 8d 3e 7a ba 84 3e 79 8e ef bd 08 f6 a6 be
       0.2766905 0.2592352 -0.116970964 -0.32609582
000370 03 44 0c 3e 39 cf 52 3e 77 50 94 3e 06 01 13 be
       0.1369782 0.20586862 0.2896764 -0.14355859
000380 73 f8 8a be 43 6e 9a 3d 06 aa 81 3e ca e5 dc 3e
       -0.27142677 0.07540562 0.2532503 0.43144065
000390 ac 43 a8 3e 8f 03 7b 3e c0 3a 87 bd 7a 5d 8c 3e
       0.3286413 0.24513076 -0.066030025 0.27415067
0003a0 2c 24 be 3e 15 ee aa 3e b7 e2 92 3e 21 86 55 be
       0.37136972 0.33384767 0.28688595 -0.20851947
0003b0 bb 2e 86 3e 1b 30 8e 3e c4 2b 5d 3e b7 bf 59 3e
       0.26207528 0.27771077 0.21598727 0.2126454
0003c0 82 4e 20 be 16 f9 5b 3e 07 eb 65 3e e8 ed a3 3e
       -0.15654948 0.21481737 0.22452937 0.32017446
0003d0 3a 47 87 3e cb 69 27 be a9 45 07 3e c6 fe e8 3d
       0.2642153 -0.1634895 0.13210167 0.11376719
0003e0 02 f1 81 3e 0a 1b a9 3e a7 3f 65 bd 10 c0 19 be
       0.25379187 0.33028442 -0.055968907 -0.15014672
0003f0 72 89 aa bd 69 f8 0b be 14 1e de bd 4e 89 2d bd
       -0.08326997 -0.1366898 -0.10845581 -0.042367272

conv6.bias f4 [32]
000000 f6 b7 13 be 52 2e b9 be 34 fc 4a 3e 41 f8 91 3e
       -0.14425644 -0.36168152 0.1982277 0.28509715
000010 2a e8 46 be 89 dd 8f 3d 5b 35 23 3e 40 c2 8b be
       -0.19424501 0.07024676 0.15938322 -0.27296638
000020 28 b7 7f 3e 96 45 84 3e 4b 82 e3 be 80 76 5f 3d
       0.24972212 0.2583434 -0.44435343 0.05455637
000030 51 46 0e bf a4 be 86 3d 53 43 ea 3d 2f 80 28 3e
       -0.55576044 0.065793306 0.11438622 0.16455148
000040 49 af 98 be 35 f1 a5 be ee fb 81 3d 66 49 c3 be
       -0.29821232 -0.3241059 0.0634688 -0.38141936
000050 7b 83 4f be 9c 73 3e be 5e 08 c2 bd 5d ad 47 3d
       -0.20265 -0.18598789 -0.09474252 0.048749316
000060 31 24 03 be 5e f8 09 3e 2b 6b aa be 4d e0 0c 3e
       -0.12806775 0.13473651 -0.33284888 0.13757439
000070 7e 14 30 3e 93 13 ed 3d 05 3b 91 be 12 7f 44 3e
       0.17195317 0.11575999 -0.2836534 0.19189098
