models/DQN_minimaxd2_kaggle.pth (torch, 916582 bytes, 22 tensors)

conv1.weight f4 [32, 1, 5, 5]
00000000: 4c0b 123c 322a 073e 4e48 96bd 58f6 bbbe
00000010: 77ac f2bb f80d 14bd 1813 ca3d 825e 47be
00000020: 2c7b f9be f144 5a3e fd80 7fbe e9e1 2bbe
00000030: d4be 35bc 85f2 943d 6624 1f3d a757 c33c
00000040: a8fc 403e 504f 683d fced 663e d80a f73d
00000050: 0f9f 243e bcc5 98be a5bb c63d 7373 9abe
00000060: 2fa1 483e 2ce1 e2bd c8e3 80be 8077 9d3e
00000070: a860 a93d ae41 7c3e 5063 24be c782 3bbe
00000080: 8b25 823d daf1 523d 8a72 8ebd 2610 b2be
00000090: 9cf5 813e 37b1 c8bd fdbf 99be 0a4b 94bd
000000a0: 7daf 6bbd bf4d 4dbe 65d5 75be 5e89 263c
000000b0: 5ec0 3ebe 999f dd3c 4e75 193e 3ad5 8cbe
000000c0: dac7 363d 3b0b 91bd 6c3b 533d a8f5 03be
000000d0: 26f1 293e 2dfd 943d 2f87 683e 9385 4cba
000000e0: 8bf2 6bbe d09b 9f3b 6676 cfbc 0f56 86bd
000000f0: 05ce 55be 7adc 493e 07ad 97bd 4f47 f2bd
00000100: be7f 7d3e 77bf 6d3d f94c 84be 9eb4 49be
00000110: 5f33 0d3d 6825 6cbe 35d7 3bbe 3080 cf3c
00000120: 1bf6 323c bcd4 ddbd dee7 6ebd 2bb0 833e
00000130: 07b2 64be ae1d be3e 7c7b 7cbe 0339 383d
00000140: c370 473e 370b 5dbe 9b71 c7bc df23 9b3e
00000150: 5682 a2be d5da b6bd e7fb 8e3e ad2d 373d
00000160: 2429 14be 99b3 51bd 90b8 4fbe c884 3ebe
00000170: 01a7 85bd ed79 003f 5fc4 fcbe a3b7 c3bd
00000180: 92b2 013e fdc6 37be 5710 67be afc4 cfbd
00000190: 037b 8b3e b59d 373d 0172 07bd e17d 0dbe
000001a0: 6723 603d 4ed6 acbd dccf 9abc 5429 a13c
000001b0: 8731 293d 4b60 9e3e c671 f93e aa99 11bd
000001c0: 16ab e23d 5008 c13d 6f3e ddbd 8bf6 97be
000001d0: 0d0f dcbe 1bbb 593d 52bd 80be 1d1a 2cbe
000001e0: 5d3b 29be 4c7f dcbd 9a42 be3b 3cd0 d1be
000001f0: b83b da3e cb87 9e3c f5fa 293c c88d 11be
00000200: d804 2f3e 83c1 a93e 2c71 a73d 869b 6d3d
00000210: aaa8 1f3e 9265 a33d 1153 383e 788a 053e
00000220: 0e93 2c3c c8dd 5cbe 642b b3bd d41d 00be
00000230: 7df7 35be 0aca 40bd fa83 993c 9f85 4f3d
00000240: 46eb 7d3e 5b00 863c 09c1 dabd 244c a0bc
00000250: 8192 09be 6f30 5ebe 3f39 253e 209c db3d
00000260: 53d1 e2bb c30a ef3d f7fd ccbc f292 753d
00000270: d4a5 503e 4d22 473e 7833 0c3e ca9c 853e
00000280: 83ac abbe 45e5 833e 3540 adbe 64a1 9abe
00000290: 2a03 a4bd a175 1cbe ed68 33be fed6 64be
000002a0: 73f0 9fbe 8976 79bd 1483 1f3d 328c 3bbe
000002b0: bc26 01be e21e ba3d 39fc a73c fb7d fcbd
000002c0: 6d3d 723e 8d3d 8d3c db4e f83d 1ec4 a13e
000002d0: 8193 92be a8e4 993e dac9 a03d e350 893d
000002e0: a98f d73d 3d20 c73d b37a 4dbe 6749 543e
000002f0: 3b7d 7fbc f8bf 9c3d 1b06 f33e c3bd 9bbc
00000300: 9af4 0f3e 3ca1 6dbe 947c 50be 56ac bbbe
00000310: 239e 75be cfe7 06bd 234a a1be d380 793e
00000320: 6559 973d 51ea 063e 0bac 63bd 5cdc 1ebe
00000330: e7f3 183e 497b 52be 783b 153e 9a01 723b
00000340: 33d4 4b3d 71d0 5c3c 7bf3 423e 5144 9b3d
00000350: 4558 0dbf d199 a53e 3bd4 88bd 2d52 21bd
00000360: 7b79 903c 44e5 2cbf 8bb9 c9bd 3f37 d5be
00000370: 564b 17be 87a1 9dbd 3eec b8be 71b1 0cbd
00000380: 7d83 46be 4514 833e 324a 673e 016b fc3d
00000390: 10e9 b1bd f04e 283e 06ee eb3d eac2 85bc
000003a0: bd67 dc3d c775 393e 4cf7 65bb 9b29 8a3d
000003b0: 5dcc a53d 29c2 cabe f0a2 c53e 89b7 983e
000003c0: 86b9 a53d 702a ae3d a68e 17bf 19eb 043d
000003d0: 66cd 50be 2fd8 fd3d 2078 aa3c 3ef4 43bd
000003e0: 3002 81be a0ad 843c 2e7f 0a3e d5bb b63e
000003f0: d907 a83d 93ea 3b3c 7dc5 89bd a3ce 80be
0.008913826 0.1319969 -0.0733801 -0.36711383 -0.0074058133 -0.036146134 0.09866923 -0.19469646
-0.48726785 0.21315362 -0.24951549 -0.16785397 -0.01109286 0.072728194 0.03885307 0.023845507
0.1884638 0.056716263 0.22551721 0.12062615 0.16076301 -0.2983836 0.09703759 -0.30166206
0.19592737 -0.110781044 -0.25173783 0.30755234 0.08270389 0.2463443 -0.1605351 -0.18311606
0.06354817 0.05150018 -0.0695544 -0.34777945 0.25382698 -0.09799426 -0.30029288 -0.07240875
-0.057540406 -0.20049189 -0.24007185 0.010164587 -0.1862807 0.027053641 0.14986154 -0.2750643
0.044624187 -0.0708222 0.05157034 -0.12886679 0.16595897 0.07274852 0.22707818 -0.00078018865
-0.23041742 0.004870869 -0.025325011 -0.06559383 -0.20879371 0.19713011 -0.07406049 -0.11830007
0.24755761 0.058043923 -0.25839975 -0.19697806 0.03447282 -0.23061144 -0.18343814 0.02532968
0.010922934 -0.108315915 -0.058326595 0.25720343 -0.22333537 0.3713202 -0.2465648 0.044976246
0.19476609 -0.2158631 -0.024346163 0.30300805 -0.31740063 -0.08928458 0.2792656 0.044721294
-0.14468819 -0.05119667 -0.20285249 -0.1860534 -0.06525994 0.50186044 -0.4936857 -0.0955651
0.12665775 -0.17947002 -0.22564827 -0.10144936 0.27242288 0.044828136 -0.033067707 -0.1381755
0.054721262 -0.08439313 -0.018897943 0.019673027 0.041307 0.3093284 0.48719615 -0.035546936
0.11067788 0.094254136 -0.10802924 -0.29680285 -0.42980233 0.053156953 -0.2514444 -0.16806836
-0.16526552 -0.107664675 0.0058062794 -0.40979183 0.42623687 0.01935186 0.010374774 -0.14214242
0.17091691 0.3315545 0.08175883 0.058009647 0.15591684 0.079783574 0.18000437 0.13041103
0.010533107 -0.21568978 -0.087485105 -0.12511379 -0.1777019 -0.04706768 0.01873969 0.05066454
0.24796781 0.016357591 -0.1068135 -0.019567557 -0.13434793 -0.21698163 0.16135119 0.10723138
-0.006921926 0.116719745 -0.025023444 0.05995459 0.20375758 0.19446678 0.13691509 0.26096183
-0.33530053 0.25760856 -0.3383805 -0.30201256 -0.08008416 -0.15279247 -0.17520495 -0.22347638
-0.31238136 -0.06090406 0.038943365 -0.18315199 -0.12612432 0.09087922 0.020506011 -0.12328716
0.23656245 0.017241264 0.121244155 0.31594938 -0.28628162 0.30057263 0.07851 0.06704881
0.10525448 0.09722946 -0.20066337 0.20731126 -0.015593822 0.07653803 0.47465596 -0.019011384
0.14058152 -0.23206037 -0.20360023 -0.3665492 -0.23986106 -0.032935914 -0.31501874 0.24365549
0.073900975 0.13175322 -0.055583995 -0.15513748 0.14936791 -0.20554842 0.14573467 0.0036927224
0.049762916 0.013477431 0.19038193 0.0758139 -0.55212814 0.32343915 -0.06681105 -0.03938501
0.017636051 -0.6753733 -0.09849843 -0.41643712 -0.14774832 -0.076968245 -0.36117738 -0.03434891
-0.19386096 0.25601402 0.22586897 0.12325097 -0.08687031 0.16436362 0.11520009 -0.016328294
0.10761974 0.18111335 -0.0035090027 0.06746217 0.0809562 -0.39601257 0.38600874 0.29827526
0.080920264 0.08504188 -0.5920204 0.03245077 -0.20390853 0.123947494 0.020809233 -0.04784035
-0.2519698 0.016196072 0.13525078 0.3569018 0.08204622 0.011469501 -0.06727121 -0.2515765

conv1.bias f4 [32]
00000000: 95d2 e6be 3f7e 41be 694c 2dbe 40c9 cebe
00000010: 5af2 35be a289 81be 614e 23bc 5607 c7be
00000020: 73ba 2dbe 25e6 a8be 12c4 85be 27a5 d4bc
00000030: 6735 4abe a037 793d cca1 5abe c320 8abe
00000040: eae3 bebe 8c02 00be af50 9cbe e967 3abe
00000050: 143d 103e 87f7 a9be 35f6 24be 840d 4abe
00000060: fbe6 e9be bb1b f6bc d889 b0be 77b6 43be
00000070: ffe2 debe b5d1 28be b611 b7bc fcfa ccbd
-0.45082536 -0.18895815 -0.1692368 -0.40387917 -0.17768231 -0.25300318 -0.009967417 -0.38872784
-0.16965656 -0.32988086 -0.26126152 -0.025957657 -0.19746934 0.060844064 -0.21350783 -0.2697812
-0.3728326 -0.12500972 -0.30530307 -0.18203701 0.140858 -0.3319666 -0.16109546 -0.19731718
-0.45684037 -0.03004252 -0.34480166 -0.19112574 -0.4353256 -0.16486247 -0.022347312 -0.10008809

conv2.weight f4 [32, 32, 5, 5]
00000000: 05cd c5bd 2edb 1dbd a143 a3bd f80a 2cbe
00000010: faf7 82be 730d d93d 963e 58be 54f5 06be
00000020: 22f1 643e 2c03 1dbe abc7 8cbe 7806 d63c
00000030: 6ecc e53c e796 77be 6dd6 1cbe 990f 163e
00000040: 1a99 1cbe b39a cdbd da1c 983c abeb 89bb
00000050: 14ca 0cbe 1ce3 36bd d0ba 1e3d cc4a 4fbe
00000060: 715c 7e3e 1ebd b83c 3cf8 a13d 48c8 2f3e
00000070: f447 8c3d b2ac 43bc e9c5 853e cd5c bd3d
00000080: e8e6 373e 7229 b83d 89d9 463e 181d 89be
00000090: 28bc debc e727 003f 9c72 96bd e8c0 d1bd
000000a0: e208 92bd 2f0f a13c 0fa6 a53d 7487 db3c
000000b0: 09e6 653c 3a7a b33b 7996 d3bd 2acc 1cbe
000000c0: 88dd d33d c60b 4cbe 62a7 26bc d19c 763e
000000d0: 0c6a 6c3e ff9e 7e3e c2f5 4e3d b245 733e
000000e0: 4082 90bd b6d2 22bc 3d2b c33d 56c4 b4bd
000000f0: 66e8 4bbd 7dcb 90bd a44b 963e a3f7 67bd
00000100: d822 10be 3a88 b7bd ca62 e5bd e4b1 9bbd
00000110: 881b 0dbd 2638 753d 9180 2dbd 1395 f8bd
00000120: 53f7 53bd c54f 38bd 86b5 abbc ecde 48be
00000130: 9633 cebd 4fa2 393e 7b92 cabd 6215 a13a
00000140: 830e 163e 6d02 e2bd 694e e23d 727a 98be
00000150: 09fc c2bd 76a1 c53b c525 fdbe fcda bbbd
00000160: da35 11be b0ab 81b9 7b1b 19be 5923 28be
00000170: be72 ccbe 1d9b bdbd 0021 adbc d963 6c3d
00000180: 513d 50be 919b 7fbe 99a4 383e 8588 b3be
00000190: f8bc dcbc ddbf 413e a6fe a3bd 6c1e b33d
000001a0: 844e 643c b4fb 3d3e 86a9 e03e 35c9 8ebe
000001b0: a228 18bc fe8b d1bd e38a bfbd 9c90 c5be
000001c0: ba26 79be 3777 b1be fdc1 313d 09a5 cebe
000001d0: f56d 37be 5ee1 9fbd 1daf 3d3d 0386 22be
000001e0: cd71 97be 9bb2 123d 722d b7bc f815 2fbe
000001f0: d5eb dfbc b488 493c 863a 5dbd e6ed 273e
00000200: 584e 933d 87db 043e 1da4 cd3d 4cf0 643d
00000210: 674b 1b3e 8e20 9e3e ff1f 17bb c9f7 99bc
00000220: 895b a7bd 046b 703d eaf4 f13d 4822 ee3d
00000230: 9311 c83c c429 143d 5be4 d23e 0f56 d83d
00000240: c7bc c53d fe57 9eba 8a36 4c3e 143d 6b3d
00000250: f635 18bd b8df 4c3d 62b4 e03d 49ed 743d
00000260: 7808 b7bd 25de 9d3d 937c ff3d 1a2c 0fbe
00000270: 47c9 e6bd 72e7 c0bd 5ab8 c13d af56 963c
00000280: d6ca 8dbe d44e 7fbd d404 e43d 1fe9 8e3b
00000290: ea9e 4abe 805e 923d e111 0ebe be4a 81bc
000002a0: 7310 f3bc d4d0 643c 9a8f adbd f92f 0abd
000002b0: 55b3 7fbe a5a5 5ebd c075 55be ccb0 7bbe
000002c0: dac1 d33e 44bd 48be e062 82bc 3d6c d53d
000002d0: 6b60 aabd 495f 773e a21d 4dbd 55f5 72be
000002e0: 2265 febd 6062 8fbe 39f6 5bbd 33d5 e8be
000002f0: b3ef 5a3d 387d 2ebe f509 87bd a16a 33be
00000300: 860f 45be 72de c0bd 707d a83d 2072 62be
00000310: b3a5 e2bc f5da 4f3e 3a78 063e 7906 84bb
00000320: 3661 20be 39b9 f6bc b4d2 8c3d 189e aa3d
00000330: af72 7d3e dd9d 6d3e 931e 373e e4bf 073d
00000340: b777 6cbd 7693 bfbd cb2b 013e 4ed6 c6be
00000350: 0d32 87be 6f52 f039 e0ae 363d b82f 24be
00000360: eb97 49be 627b 083e d1c1 83bd 29ef b3bd
00000370: 7036 87be 69e2 563e ead7 8a3c 69d3 993c
00000380: 3168 51bd a031 cb3e 6d7e 8e3d 23dc 813e
00000390: 1fd6 553e 1f5a b03e cf4c d2bd db48 2abe
000003a0: 1c0f c63c 08a8 adbc 3c52 d43d a954 17be
000003b0: 2c85 24bf 31e1 09be 460f bfbd 3a73 a43c
000003c0: 63f0 af3d e893 f0bb af18 86bc 7d28 70bd
000003d0: 384a 1cbb 3573 2bbe 0c63 713d 2711 33be
000003e0: 83a6 58bd 53bb 94be 43f5 afbd f1a9 cfbe
000003f0: a687 4cbe b1b6 46bd 403e 923e 65e3 753e
-0.09658245 -0.038539104 -0.079718836 -0.16801059 -0.25579816 0.10598268 -0.21117625 -0.13179523
0.2235761 -0.15333241 -0.27496085 0.026126131 0.028051581 -0.24178658 -0.15316172 0.14654388
-0.15292779 -0.10039272 0.018568445 -0.004209002 -0.13748962 -0.044650182 0.038752377 -0.20243376
0.24839951 0.022551116 0.07908675 0.17166245 0.068496615 -0.011943029 0.26127556 0.09246216
0.17959177 0.0899228 0.1941892 -0.2678001 -0.02718933 0.50060886 -0.07346079 -0.10241872
-0.071306005 0.01966056 0.08088314 0.026797988 0.014031895 0.005477217 -0.10331435 -0.15312257
0.10344988 -0.19926366 -0.010171743 0.24083258 0.23087329 0.2486534 0.05052734 0.23757055
-0.07056093 -0.009937933 0.095297314 -0.088265106 -0.04978218 -0.07070062 0.29354584 -0.05663265
-0.14075792 -0.0896153 -0.11200483 -0.07602289 -0.034450084 0.059868 -0.04235894 -0.12137809
-0.05174954 -0.04499795 -0.02096058 -0.19616288 -0.10068433 0.18128322 -0.0989122 0.0012289698
0.14653973 -0.11035619 0.11050112 -0.29780918 -0.09520728 0.0060312105 -0.49442878 -0.09172627
-0.14180699 -0.00024732715 -0.14951889 -0.16419734 -0.3993129 -0.09258101 -0.0211339 0.05771241
-0.2033589 -0.24961688 0.18031539 -0.35065094 -0.026945576 0.18920846 -0.08007555 0.08746037
0.013934735 0.18553048 0.43879336 -0.27887884 -0.009287031 -0.102317795 -0.093526624 -0.3858689
-0.2433118 -0.34661266 0.043397892 -0.40360287 -0.17913039 -0.07806657 0.04630958 -0.15871434
-0.2957901 0.035814863 -0.022360537 -0.17098224 -0.027334133 0.012300659 -0.05401089 0.16399345
0.07192677 0.12974368 0.10041068 0.055893227 0.15165482 0.30884212 -0.0023059843 -0.018794911
-0.08171756 0.058695808 0.11814292 0.116276324 0.024422443 0.036172643 0.41189846 0.105632894
0.09655147 -0.0012080667 0.1994268 0.057431296 -0.037160836 0.050018042 0.10971905 0.059796605
-0.08937162 0.07708386 0.124749325 -0.13981667 -0.11268859 -0.09419145 0.094589904 0.01835188
-0.27693814 -0.062331036 0.111337334 0.0043612863 -0.19787183 0.07146931 -0.13874008 -0.01578271
-0.02967093 0.013965804 -0.084746554 -0.033737157 -0.24970753 -0.05435719 -0.208457 -0.24579161
0.41358835 -0.19603449 -0.015916288 0.104210354 -0.083191715 0.24157442 -0.05007709 -0.23726399
-0.12421633 -0.28004742 -0.053701613 -0.45475158 0.05345125 -0.17039955 -0.06593696 -0.17521144
-0.19244203 -0.09417428 0.0822705 -0.22113848 -0.027666902 0.20298369 0.131318 -0.004029092
-0.15662083 -0.030117618 0.06876126 0.08330935 0.2475078 0.23204751 0.17882757 0.033141986
-0.057731356 -0.09354298 0.12614362 -0.38835377 -0.26405373 0.00045837785 0.044600368 -0.16033828
-0.19686858 0.13328317 -0.06433452 -0.087858506 -0.2640872 0.20984806 0.016948659 0.018777566
-0.051124755 0.39686298 0.069577076 0.25363263 0.20882462 0.34443757 -0.10268556 -0.16629355
0.024177127 -0.021198288 0.103672475 -0.14778389 -0.64265704 -0.1346481 -0.09329085 0.020074476
0.08590772 -0.0073418505 -0.016369192 -0.058632363 -0.0023847949 -0.16743167 0.05893235 -0.17487012
-0.052893173 -0.29049167 -0.08591702 -0.40559343 -0.19973621 -0.04851407 0.28563118 0.24012525

conv2.bias f4 [32]
00000000: 56ce 90be ce7e f5bd 0340 80be 6458 3bbe
00000010: 9aba a5be 47cc 9bbe 04bc 20be bb40 44be
00000020: 8e28 f7bc cde5 55bd 9f1d 55be 1b4c 24be
00000030: 68be 6cbe 5e37 84be c8a4 a4be cdcc 05be
00000040: e834 94bd b6ee 61bd 90a0 c0bd 5a1f 16be
00000050: 641e 40be 75a1 66be d4a8 5fbe fc41 e83c
00000060: 31c1 71be ae42 a1be a0a7 e0bd d2bb 5abe
00000070: 5d6e 94bb 648f 76be 7467 9abe c038 7bbe
-0.28282422 -0.11987077 -0.25048837 -0.18295437 -0.32368928 -0.3042929 -0.15696722 -0.19165318
-0.030170705 -0.05222111 -0.20812081 -0.16044657 -0.23119509 -0.25823492 -0.32156968 -0.13066407
-0.072366536 -0.055159293 -0.09405625 -0.14660397 -0.18761593 -0.22522528 -0.21841747 0.028351776
-0.23608853 -0.31496185 -0.10969472 -0.2136071 -0.004529758 -0.24078137 -0.30157053 -0.24533367

conv3.weight f4 [32, 32, 5, 5]
00000000: 65ce 883e d401 893e 34bc a43c 6434 c23e
00000010: e58d 6f3e f3ac 0e3d 16af 973d f86a 8f3e
00000020: faf1 873e 6e31 673d 4109 883d 7e51 173e
00000030: 49ad 5a3e 2d94 d63d e4b0 d53d 7f67 dc3b
00000040: fc47 913e 0d1f 16bd 8611 493e c522 0b3e
00000050: 3850 bbbd 2517 d7bb c0c6 473e f4a0 633e
00000060: 2118 5fbd fd39 30bd 8dde d7bd 3817 9f3d
00000070: 9436 1fbe 5ca2 813d 6a78 b1bd 3d06 bd3b
00000080: 797c d2bd f251 60be 162e acbe ead6 01be
00000090: 1382 64be 380f 2fbe 54be 55bd 90b6 cdbd
000000a0: 9dd4 21be e320 febc 5380 e43d afbc a43d
000000b0: 090f 01be ea3c 36be b2a2 87be b864 33bd
000000c0: b078 0bbd af1b abbe d8fb 403e db04 6a3e
000000d0: 0925 043e 33fb e93d e528 683e c110 363e
000000e0: 566d 933e c924 923d 0a0d a73e d9e5 4a3e
000000f0: 78a6 963b ea10 fa3d 8117 703d 9775 953c
00000100: 9e5a 893d 0a4f 443d 3bee 873c 13c1 68bc
00000110: 1ffe ba3d 8a86 233c 5131 ab3d 5787 8bbc
00000120: 57c6 863e 6d09 2c3d ba22 ed3d 6fec 38bc
00000130: 96dc 523d 1421 85bd ccce 1abe d4c3 693d
00000140: c9ef fe3d 6570 edbd a136 4cbe 759e 25bd
00000150: 7708 be3d da6c 9c3d 7891 d33c f9da 19be
00000160: 03da 7ebe f5f6 393e 4fed e83d e06b 01bd
00000170: 3f8a 8d3d 3804 b73c 6ff4 693e 7537 d0bd
00000180: 8460 d13c 88b4 79be 8065 963d a618 413e
00000190: b29e 903e a565 e13d b06d 963e c63c a33e
000001a0: 13b6 1f3e 4f24 3b3e eaa8 793e 37c3 373e
000001b0: 9f72 c3bd d102 3c3e 509b 64bd bfe0 adbd
000001c0: 9ecd 503e 948c bc3e 2a43 4c3e 7e4e c1bd
000001d0: a2aa a4bd bf93 ac3d 430a 8ebd 0b4a a23d
000001e0: e4b6 acbd b746 163e fa0f 623e d023 083e
000001f0: 6a35 c33d 8801 033e a3b7 763e d4d7 453d
00000200: a3b6 0f3e d988 baba 91b6 cd3d ba8f 8dbb
00000210: 35c1 2b3e d1bb ab3e c827 30bb 9455 9c3d
00000220: a242 853d 43de da3d de38 373e 9b89 803d
00000230: b7ab ac3d 793b 193e b1e1 f3bc 3c8b 003e
00000240: 73d0 1f3e 30ca 823e 7fdb a0bd 59b2 c6bd
00000250: 0d05 603e 5d26 e8bd 0151 483e e154 aa3e
00000260: cab0 a63e d8f9 8f3e d42d 3f3e 617d 03be
00000270: a330 87bd cfe3 803e 0bd2 d83d 888f 9d3c
00000280: a8b1 373e fc12 023d fa8d a2bd 2557 cabb
00000290: 496d a8bd 4415 923e ddbf e33d a6a9 fdbd
000002a0: 90d9 35bd 5ac4 ffbd cec9 373e 17f2 88be
000002b0: 8b80 523e 18ef ff3d 9a52 bcbb 4bc7 1e3e
000002c0: 303c 36be d9d1 763d 7fb0 dabc 04c3 4abd
000002d0: a215 173d 9b0c 69be e9e3 b13d a98b 0abe
000002e0: c0b9 9fbd b82f 9b3d 8693 95be f8f9 dbbc
000002f0: 8dc2 b3be c002 9b3b f36e a2bc 469e 9a3b
00000300: 881e 7fbc 62e1 883e 812c b33e 0a80 37bb
00000310: 43bf 153c 8557 4fbe 90eb 21bd 0582 e03c
00000320: ad82 9f3c 8fc1 4c3e edae 443d bad0 54be
00000330: 0123 f83d 95bd efbd d6b7 2c3e 3639 bdbe
00000340: e90c 64be 8aa3 9dbc 6528 0a3e 146a 11be
00000350: 963e 40bd ad1c 64be 6d6d 14be d1a6 453e
00000360: 7dd8 02be 6517 a3bd 102f 103e 8372 87be
00000370: 0dfd 963c b322 3fbe 713f aa3d 6c9c 01be
00000380: d27b 52ba ef91 7fbb b55f 8bbe fde7 31be
00000390: 9edc f0bd 6623 90be 7901 493e 0500 00be
000003a0: 3aaa 57be 2bb6 6d3e 7cf8 bfbd ee26 1c3d
000003b0: cd1e 113d 36e8 c03d 0c48 febd 7433 dcbd
000003c0: d3ae 4b3e 5138 bcbd d426 89bd fb94 4dbd
000003d0: 2c80 05bb e461 abbd 0284 24bd 3bd6 94bd
000003e0: ae55 803d c43f 68be 482d 13bd 0556 a9bd
000003f0: df6c 6bbe 36e3 01bf 7c66 c3bd 9e8d acbb
0.26719967 0.26759207 0.020109273 0.37930596 0.23393972 0.034832906 0.07406442 0.28011298
0.265518 0.056443624 0.0664239 0.1477718 0.21355166 0.10477481 0.1043413 0.006726205
0.28375232 -0.036650706 0.19635591 0.13587482 -0.0914616 -0.0065640383 0.19509411 0.22229367
-0.05446637 -0.043024052 -0.10540495 0.077681005 -0.15548164 0.06329796 -0.08665545 0.005768566
-0.102776475 -0.2190626 -0.3362891 -0.1267964 -0.22315244 -0.17095649 -0.052183464 -0.10044587
-0.15803762 -0.031021541 0.111572884 0.08043801 -0.12603392 -0.17796674 -0.26491314 -0.043797225
-0.034050643 -0.33419558 0.18846071 0.22853415 0.12904753 0.114248656 0.2267185 0.17779829
0.28794354 0.071359225 0.32627136 0.19814242 0.0045974813 0.12210257 0.058616165 0.018244548
0.06706737 0.04792694 0.01659309 -0.014206189 0.09130501 0.009980807 0.08359016 -0.017032309
0.26323196 0.042001177 0.11578889 -0.011286839 0.0514799 -0.0650045 -0.15117949 0.057071522
0.12448079 -0.11593703 -0.19942714 -0.04043432 0.09278958 0.07637949 0.0258262 -0.15024938
-0.24887852 0.18160613 0.11373388 -0.03159702 0.06911134 0.022340879 0.2284715 -0.101668276
0.025558718 -0.24385273 0.07343578 0.18857059 0.28246075 0.11005715 0.2938056 0.31882304
0.155968 0.1827557 0.24380842 0.17945562 -0.095433466 0.1836045 -0.05581218 -0.084901325
0.20390937 0.36826003 0.19947496 -0.09438799 -0.08040358 0.08426618 -0.06935551 0.07924279
-0.08433321 0.14675413 0.22076407 0.13294911 0.09531672 0.12793553 0.2409349 0.048301533
0.14034514 -0.0014231458 0.100445874 -0.004320112 0.16772921 0.3354173 -0.002687918 0.0763351
0.0650685 0.10686924 0.17892787 0.06276246 0.084311895 0.14964093 -0.029770704 0.12553114
0.15606861 0.25544882 -0.078543656 -0.09701986 0.21876927 -0.11335442 0.1956215 0.33267882
0.32556754 0.28120303 0.18669826 -0.12840797 -0.066010736 0.25173804 0.105869375 0.01923348
0.17938864 0.031756386 -0.07937236 -0.006174939 -0.082239695 0.2853185 0.111205794 -0.123858735
-0.044396937 -0.12488623 0.17948076 -0.267472 0.20556848 0.124967754 -0.0057471516 0.15505712
-0.17796397 0.06025872 -0.026695488 -0.049502388 0.036885865 -0.22758715 0.086860485 -0.13529839
-0.07799101 0.07577461 -0.29214114 -0.026852593 -0.35109368 0.0047305524 -0.019828295 0.0047185747
-0.015571244 0.26734453 0.3499489 -0.0027999901 0.009139839 -0.2024823 -0.03953129 0.027405748
0.01947149 0.19995712 0.048018385 -0.20782748 0.121160515 -0.11706082 0.16867003 -0.3695771
-0.2227055 -0.01924302 0.13491972 -0.14200622 -0.046934687 -0.22276564 -0.14494868 0.19301917
-0.12777896 -0.079634465 0.14080453 -0.26454553 0.01843121 -0.1866558 0.08312882 -0.12657326
-0.0008029315 -0.0038996895 -0.27221456 -0.17373653 -0.117608294 -0.28152007 0.19629468 -0.12500007
-0.2106103 0.23214023 -0.093735665 0.038123064 0.035429765 0.09419291 -0.124160856 -0.107520014
0.19890909 -0.09190429 -0.06696859 -0.050190907 -0.0020370586 -0.083682805 -0.040164955 -0.07267424
0.06266342 -0.22680575 -0.035931855 -0.0826836 -0.2299075 -0.5073732 -0.09541032 -0.0052659055

conv3.bias f4 [32]
00000000: 746c 64be ae74 24bd eb6b d0bd 4ac1 adbe
00000010: ccfc f2bd 01e7 58bd 477c a1be e130 1abe
00000020: f329 90be bc8e adbe 062f 92bc 606d 963d
00000030: 15e9 e6be f378 c2be e23f d3be aafa 75be
00000040: 6e61 04be 4c62 9dbe 07f5 bcbe 6445 9abe
00000050: 8728 33be cc15 fbbd e60d 0f3d 5eda 67be
00000060: 4ea3 82be 01c7 08be c6a9 7fbd 03b9 523c
00000070: 128f 5fbe 8798 d43d f284 87bd 52df 48be
-0.22306997 -0.040150337 -0.10176834 -0.3393653 -0.118646234 -0.052954677 -0.3154013 -0.15057708
-0.28157005 -0.3389796 -0.017844688 0.073450804 -0.45099702 -0.37982902 -0.41259676 -0.24021402
-0.12927791 -0.30739057 -0.3690569 -0.30131066 -0.17495929 -0.12260017 0.034925364 -0.22641894
-0.25515217 -0.13357164 -0.062417768 0.012861493 -0.2183192 0.10380655 -0.06617154 -0.1961644

conv4.weight f4 [32, 32, 5, 5]
00000000: 88a1 073e 059f c7bd 3f54 1a3d e5fa 6a3d
00000010: 68bf e13c 0321 0ebe 1203 103e 45fe 75bd
00000020: 7175 04be 31e2 4a3d 4f1d 30be 3a46 973c
00000030: de59 3e3e 902e 953c a986 ea3d 6719 413e
00000040: 2038 fcbc 2cd4 dd3c e9f7 e03c 7e92 093e
00000050: 5048 ab3c e11a 833c 087c de3d 5811 0c3d
00000060: 3961 003e 6c00 043d d0df eb3b 0da8 73be
00000070: 0e56 febd 5dd5 fa3d 61db e3bd a14d b33d
00000080: f5ad 1c3e 8388 21be c8b1 653c 494c 5b3e
00000090: e399 b13c b79e 05be 9334 b7bd 2751 39be
000000a0: 1a4f 70bd efcb bbbd 9ff5 98be d6e4 3dbe
000000b0: 0f17 15be 29cc 74bd f462 0a3d 00ab 053d
000000c0: f179 99be 9f35 96bd 8179 143e 9a78 c7bd
000000d0: a88d 1cbd 3733 073e e4a4 c83d 7b14 9e3d
000000e0: 1daa 87bd 84b3 c3bd 9efb dfbd c58d 05bc
000000f0: 636c a63d cb4f 003c a9eb a2bd dc9b 083e
00000100: 1dfa 14be 9f05 8d3d cd38 453d 618f 553c
00000110: 594b c63e 32e6 143d 6def d13d 83bc 99bd
00000120: 8b37 86bd 55f2 08bd ae3c dc3c bc8b b73d
00000130: 3ac6 983c 7bc6 2ebb fcca 33be 135d 76bd
00000140: 729d 11bd bb12 d03d 994b 2cbd ce02 e6bd
00000150: 640d adbd c52a 4fbe c4b1 253e ac60 1b3e
00000160: f44c 9dbe ecb9 35be c26c efbd 32ca 3abe
00000170: c10b 3cbe 11ed a5bc 0b0d a83d f375 293e
00000180: e54d db3d ca16 23be b596 703e 46a1 c13d
00000190: 4b8b 98be 3fdc a83b 1eb0 67be 3220 333d
000001a0: 0808 323e 8dda a5be 3ce5 7ebe ec70 9fbc
000001b0: f4d9 903d abc1 533d 0c6c 7ebe 6f55 9bbd
000001c0: d96b 44be 4d5b 83be 9ae9 07be 7d17 853b
000001d0: 883d 803c f15a 3cbd 876f ddbd 19ea c83b
000001e0: dba3 073a 2c90 5bbd cb4f 74be d68b 0dbd
000001f0: 71d6 4ebd 2e88 24be 9e2d d83b 5b18 28be
00000200: c86a c63c 4809 a73c 7f5a f0bd a261 ccbd
00000210: 614b 12be af57 b63d 7505 1bbe d9b6 e03d
00000220: 5e88 c7bd a904 e0bb 66fc f8bd 57c8 45be
00000230: 99a4 88bd 86c6 d63c 48a1 923b 9eab 81bd
00000240: bf75 80bd 9480 08bd 8280 04be 7cf5 92bd
00000250: a9df d1bd da31 3fbc 812f d43d 2a01 cabd
00000260: 3718 e0bd 6e98 a23c d467 f73c c5f9 70bd
00000270: fead b43d 2561 333e 988c c1bd 87b2 0f3c
00000280: 2067 1c3d 83d6 04be 4f8a babd 0db5 2fbe
00000290: 1785 adbc c8f8 13ba a8e8 c8bd 0870 e6bd
000002a0: b479 473d c261 ab3c c2db aebe 7ea1 773d
000002b0: 36db eb3d b993 53bd a1f6 6d3c 2ab3 25be
000002c0: 2510 dcbd e1ff afbc 420e 3e3d 2b36 8abd
000002d0: 58ac d5ba 12b8 17be 31cb 26be b462 f2bd
000002e0: df99 ddbc d83a b9bc 698a 91bc 8763 02bd
000002f0: 0847 0bbc 0271 56be 67a3 a8be 466a 1c3d
00000300: 85f0 99bd 5a6f 143d 7fb1 7cbd ce75 5fbe
00000310: 5efa 64bd e900 553d 6355 8abd d54a 57be
00000320: ef99 d23c 61b8 d73d 5cf5 5f3c 878d 2abd
00000330: 5ec6 e0bd 2b9a a03d 6aed 2abe b613 fc3c
00000340: d7ba 89ba 80f8 1d3d 026b c0bd e88c f93d
00000350: ee06 0dbe 7c06 19bd 5457 353d 1d69 3cbe
00000360: ffdb cf3d 2798 1d3e 3070 b6bd 6b77 173e
00000370: 6a86 38bd ac58 1dbe 0f42 01be 2c25 10be
00000380: 95fc ed3d ff2a 913e 44f6 dd3e 93a7 2bbc
00000390: 6cde b7bd 5fc7 c1bd aca5 1a3e a746 013e
000003a0: 322e 163e c3c2 783e 8bea 24be 0b19 00be
000003b0: 7914 0e3d 1e27 0cbd c77a d23d 0d94 2ebe
000003c0: 5f7d 58bc 45b3 153e 8804 5c3d 6627 323e
000003d0: 8490 1e3e 1140 71bc 248c 35bd dace 153c
000003e0: 407b 453e d94c eebd 4f2b 8f3e 5dd7 1b3d
000003f0: cfa8 853e d17d 22be 0089 40bc 046d ab3e
0.13245213 -0.097471274 0.037678 0.057368178 0.02755709 -0.1387978 0.14063671 -0.060056943
-0.12935425 0.04953212 -0.1719868 0.018466104 0.18588969 0.01821068 0.11451466 0.18857346
-0.030788481 0.02707871 0.027461963 0.13434789 0.020908505 0.016004028 0.10863501 0.034196228
0.12537088 0.032226965 0.0071983114 -0.23794575 -0.124187574 0.12247727 -0.111258276 0.08755041
0.15300734 -0.15774731 0.014019437 0.21415819 0.021679824 -0.13048826 -0.089455746 -0.18097363
-0.058669187 -0.091697566 -0.29874894 -0.18544325 -0.14559577 -0.059765015 0.033785775 0.03263378
-0.29975846 -0.07334446 0.14499475 -0.097398 -0.03822103 0.1320313 0.097970754 0.0771875
-0.066242434 -0.09555724 -0.10936664 -0.008151476 0.08126142 0.007831524 -0.07955105 0.13340706
-0.14548536 0.06885838 0.048149873 0.0130346725 0.3872936 0.036352344 0.10250745 -0.07506659
-0.06553563 -0.03343423 0.026884403 0.08962199 0.01864921 -0.0026668597 -0.17557901 -0.060147356
-0.035550542 0.101598226 -0.042064283 -0.11231004 -0.0844982 -0.20231159 0.16181093 0.15173596
-0.30722773 -0.17746705 -0.11690666 -0.18241194 -0.18363859 -0.020254644 0.08205613 0.165489
0.107082166 -0.15926662 0.2349499 0.094545886 -0.29793772 0.0051532085 -0.22625777 0.043731876
0.17385876 -0.32393304 -0.24892133 -0.019463025 0.07072821 0.051698368 -0.24845904 -0.075846545
-0.19181766 -0.25655594 -0.13272706 0.004061638 0.01565434 -0.045985166 -0.10812288 0.0061314222
0.00051742577 -0.05360429 -0.23858564 -0.034557186 -0.050497476 -0.16067573 0.006597235 -0.16415541
0.02422084 0.020390168 -0.11736011 -0.099795595 -0.14286567 0.08903443 -0.151388 0.109723754
-0.09742807 -0.006836493 -0.12157516 -0.19314705 -0.066720195 0.02621771 0.0044747926 -0.063315615
-0.06272458 -0.033325747 -0.12939647 -0.07175729 -0.10247738 -0.0116696 0.10360623 -0.09863503
-0.109421186 0.019848075 0.030200876 -0.05883195 0.08822249 0.17517526 -0.09450644 0.008770592
0.038184285 -0.12972455 -0.091084115 -0.17158909 -0.021181626 -0.0005644676 -0.09810001 -0.11251837
0.04870005 0.020920638 -0.34152037 0.060456745 0.115164205 -0.05165455 0.014524133 -0.16181627
-0.10745267 -0.021484317 0.046400316 -0.06748613 -0.0016301973 -0.14816311 -0.16288449 -0.118352324
-0.02705091 -0.022611067 -0.017766194 -0.031833198 -0.008500822 -0.20941547 -0.32937166 0.038187288
-0.075165786 0.036239006 -0.06169271 -0.21822283 -0.05590283 0.05200282 -0.067545675 -0.2102464
0.025708167 0.10533214 0.013669338 -0.041638877 -0.109753355 0.07841905 -0.16692129 0.030771118
-0.0010507953 0.038567066 -0.0939541 0.12185079 -0.13772175 -0.0373597 0.044272736 -0.18399473
0.10149383 0.15390073 -0.08908117 0.14791648 -0.045050062 -0.15365857 -0.12622856 -0.1407668
0.11620442 0.28353116 0.43351948 -0.0104769645 -0.089779705 -0.09461855 0.15102261 0.12624608
0.1466606 0.24293046 -0.16105096 -0.12509553 0.034687493 -0.034216993 0.10277324 -0.17048664
-0.013213485 0.14619167 0.05371526 0.17397842 0.15484816 -0.014724747 -0.0443231 0.009143556
0.19285297 -0.11635751 0.2796273 0.038047183 0.26105353 -0.15868308 -0.011751413 0.3348161

conv4.bias f4 [32]
00000000: 6181 ebbd 624e 7dbe 7d55 09bd 843a 7d3e
00000010: 2381 a2be d3e5 9dbe d356 59be 2b5a 06bf
00000020: b17d b23d 72a0 e53d 9c78 38be 8d39 51be
00000030: f616 9cbe d7be e5bc 8477 233e e1fd 60be
00000040: 6e30 4fbd e339 f1bd a34d 0fbc 9110 12be
00000050: 2397 9bbe 6c59 d13c 0466 92be 008b 85be
00000060: 14e3 f63c 817b 3ebe 6fa8 18bc fc34 d8bd
00000070: 7645 8bbe cea9 95bd b204 4d3d 6a29 9ebe
-0.114992864 -0.24736932 -0.033528794 0.24729353 -0.31739148 -0.30839404 -0.21224527 -0.52481335
0.0871538 0.11212243 -0.18014759 -0.2043211 -0.30486268 -0.028045101 0.1596356 -0.21971847
-0.050583296 -0.11778619 -0.008746537 -0.14264132 -0.30388746 0.025555335 -0.28593457 -0.2608261
0.030137576 -0.186018 -0.009317501 -0.10556981 -0.27201432 -0.07307778 0.050053306 -0.3089097

conv5.weight f4 [32, 32, 5, 5]
00000000: 9c9a 813d 0155 52bd 84f5 48bd a0c1 f43d
00000010: eb27 393d 0c29 743c a6b2 2a3e 23d6 c93d
00000020: 8c73 b53d 686a b63c fbab 063e 4bc6 893e
00000030: 0b3b 1f3e 4086 c13d d09e cfbd 6f41 313d
00000040: b91c 3d3e a2d2 1e3d f48e c33d be70 74be
00000050: fa97 74bc cfcd ec3d dbfe 14be f5af c23d
00000060: 6704 013d 9e3f 0c3d 7838 993d 49af b73d
00000070: 8c56 d73d b44c f23d 820f 503e d25f 383e
00000080: c82c 393e e67c 693e c573 2f3e dc5c 2b3e
00000090: aa71 2a3e 5886 013e aa2f 693e de10 453e
000000a0: 01c6 3f3e 5329 713e 1600 5c3e 8473 933e
000000b0: e382 8a3e 547c 573e cefd 893e bd20 533e
000000c0: 63c2 683e 87d2 623e 2d80 7fbd 17e2 7d3d
000000d0: 55a2 d1bb 0345 353d d4ce 8a3d 462c f1bd
000000e0: f196 403e 1a79 ebbc d19a dd3d 704a cf3d
000000f0: 9213 393d 9760 753e 0078 37bd 8081 a73d
00000100: 2048 23bd 1094 213d a443 f83d 7b91 743d
00000110: ccea 103e 2f29 b7bc b54f d13b 036b 3d3e
00000120: a33e 0e3e af57 7f3e ee34 693e f9fc b33d
00000130: 7c38 3b3e 6fba 28be afe7 6b3d 4fcc 85bd
00000140: 989d 933d e336 e53d 94f1 48be 38f8 0abe
00000150: 6422 933a f810 163e 3733 1ebe 4d60 0abe
00000160: eabd 1dbe 67ef 0bbe 8c6e 3f3e 52a8 68be
00000170: 070a d8bd a11c dcbd 9b15 2fbe 56ec 083e
00000180: 795e 61be dd61 69be 8e67 953d 9456 cdbd
00000190: aa6e 2f3e 42a6 bd3d 558e d7bd 6e22 633c
000001a0: dd13 323e 8bda 033d 31a1 60bd 993f 0b3e
000001b0: 5721 bd3d 0653 23bd 0921 7f3d 366c ad3a
000001c0: 3436 18be 95f1 2ebd ee62 943d ed9a 613d
000001d0: f46d 72be a6dd f7bb 2a2b 3b3c 1d3c 983d
000001e0: 98b7 25be 5a7a ecbc 1cc4 363e 265b d03d
000001f0: 9734 033e a1ed 82be 8bfa 703d 8928 503d
00000200: 1850 803c bc55 2f3e 03cd c4bd 7daa 2c3e
00000210: 3265 893e e73e 35bd e75b 9d3d 0b84 2ebc
00000220: b821 bd3d 748a a0bc 2477 9e3b 17e0 b03d
00000230: 5c51 43be 4628 8fbe 39b1 a23d 4e44 6b3d
00000240: 449f 4cbe a2f2 4a3c 5935 b7bd 6e11 3f3e
00000250: 1c20 f4bc 3466 54be 31c6 283e 8ce6 683e
00000260: 553e 903d e561 173e 6891 cd3d d51b a5bc
00000270: 1fa2 6e3d d215 e1bd b5b7 f23c 6225 013c
00000280: b61a 03bb 4a2b d63d 1c33 593d 62c7 2c3d
00000290: fc31 f63c 7a86 7abd 0903 5f3d fe34 a93d
000002a0: 553a 363d 3ee0 9f3d 68d9 a13d 7fba 043e
000002b0: 203c 873d 954a 8abd 707d dc3d 600d dc3c
000002c0: d5c7 a83d 5d4a a73c 60b6 f73d 8be8 333e
000002d0: 22b5 4b3d 552d e73d 18e4 9a3d c883 053e
000002e0: c21b f53d e9da 36bd 2af4 c03c 10d2 05be
000002f0: 00bb 84bc 51b6 c03c 8fd9 cfbd f11b acbd
00000300: dec1 acbc c92d 78bd 1498 bf3d 4e91 a23d
00000310: 0ca5 a8bd 438c dcbc d191 493e 6aa6 6c3e
00000320: 9ba4 8c3e f11b cebc ca4f e9bd 5061 a23b
00000330: 5256 363e a7ac 6a3e 25fc ad3e 19fb 1abe
00000340: 68b0 84bd 7c64 fabd d2ef 98bd 2e74 04be
00000350: 465f 6bbe dcff 3dbb 2656 293d 9ab1 41be
00000360: eac4 82be 18d4 75be cce7 cdbd e41f 22be
00000370: 6738 81bd 2580 03be bcb5 44be 33da 05bd
00000380: b588 9cbe 3d43 4abe 1b06 d3bd be72 9bbe
00000390: 5e66 2dbe 2891 eabd 4a9c 5ebe 8942 83be
000003a0: edf3 57be 8b71 12be 2684 35be a60a 2ebe
000003b0: af75 debd 62b9 1dbe 6c5d cbbd 58b5 08be
000003c0: 0dba 7ebe f35c 9fbe be40 85be b0ee 54be
000003d0: 379b 86be 6456 9dbe 5917 bcbe c1b2 8ebe
000003e0: 77cf 9abe 1749 47be b77e 083e 1bbb 453e
000003f0: 2a57 e03d 2b16 c73d 5de4 463e 271d d23d
0.063283175 -0.051350597 -0.049062267 0.119509935 0.045204084 0.014902364 0.16669711 0.098552965
0.088599294 0.022267535 0.13151543 0.26909098 0.15549867 0.09449434 -0.10137713 0.043275293
0.18467988 0.038775094 0.095487505 -0.23871133 -0.014928812 0.115626924 -0.14550345 0.095062174
0.03149834 0.034240358 0.07481474 0.0896898 0.105145544 0.11831036 0.20318416 0.18005303
0.18083489 0.22801551 0.17134006 0.16734642 0.16644922 0.12648904 0.22772089 0.19244716
0.18727876 0.2355092 0.21484408 0.2879907 0.27052984 0.21043521 0.2695145 0.20617957
0.22730403 0.22150622 -0.062378097 0.061983194 -0.0063975253 0.044255268 0.067777306 -0.117760226
0.1880758 -0.02874427 0.108205445 0.1012162 0.04518468 0.23962627 -0.044792175 0.08178997
-0.039863706 0.039447844 0.121222764 0.059709053 0.14152068 -0.022358505 0.0063876756 0.18497853
0.13891082 0.24935792 0.22774097 0.08788485 0.18283266 -0.16477369 0.057593998 -0.065331094
0.07207793 0.111921094 -0.19623405 -0.1357125 0.0011225459 0.1465491 -0.15449224 -0.13513298
-0.15404478 -0.13665543 0.18694514 -0.22720459 -0.105487876 -0.10747648 -0.17098086 0.13371405
-0.22008695 -0.22791238 0.07295142 -0.10026279 0.17132059 0.09260227 -0.105251946 0.013863189
0.1739039 0.03219084 -0.054841224 0.1359848 0.09234875 -0.0398741 0.062287364 0.0013231102
-0.14864427 -0.04271086 0.07245432 0.05507939 -0.23674756 -0.0075642643 0.011423865 0.07433341
-0.16183317 -0.028866936 0.17848247 0.10173635 0.1281303 -0.2557192 0.058832686 0.050819907
0.015663192 0.17122549 -0.096094154 0.16861911 0.26835018 -0.04424944 0.076835446 -0.010651599
0.09234947 -0.01959727 0.00483598 0.08636492 -0.19074005 -0.27960414 0.07943959 0.057438187
-0.1998263 0.01238695 -0.08945722 0.18658993 -0.029800467 -0.20742112 0.16481854 0.22744197
0.07043139 0.14783438 0.100375 -0.020154873 0.05826008 -0.1099049 0.029628614 0.007882448
-0.0020004935 0.104574755 0.053027257 0.042182334 0.030053131 -0.061163403 0.054446254 0.082620606
0.044489224 0.07806443 0.07902795 0.12961768 0.06603265 -0.06752507 0.10766113 0.026861846
0.0824124 0.020421201 0.12095332 0.17569177 0.04973329 0.11287943 0.07563037 0.13038552
0.11968185 -0.044642363 0.023553926 -0.13068414 -0.01620245 0.023524435 -0.10148918 -0.08403767
-0.021088537 -0.06059054 0.093551785 0.07937871 -0.08234605 -0.02692235 0.19684531 0.23110357
0.27469334 -0.025159808 -0.11392172 0.004955448 0.17806366 0.22917424 0.33981434 -0.15134849
-0.06478959 -0.12226197 -0.07467617 -0.12934944 -0.22985563 -0.0028991615 0.041341923 -0.18915406
-0.25540859 -0.24006689 -0.10053977 -0.15832478 -0.06309586 -0.12841852 -0.19209951 -0.032678794
-0.3057305 -0.19752212 -0.10303899 -0.3036098 -0.16933581 -0.114534676 -0.21739307 -0.256367
-0.21089144 -0.14301126 -0.17726192 -0.1699625 -0.1086229 -0.15402749 -0.09929928 -0.13350427
-0.2487566 -0.31125602 -0.26025957 -0.20794177 -0.26290295 -0.30729973 -0.36736563 -0.27870753
-0.30236408 -0.19461475 0.13329588 0.19309656 0.10954125 0.09721025 0.19423051 0.102594666

conv5.bias f4 [32]
00000000: 2d23 c43c 5758 f2be c3e1 dfbe 096a d7be
00000010: 23d0 babd d7a6 893e 9461 2bbe 0e95 6dbe
00000020: aca9 0abf 28e9 46be 35d2 9bbe 703c edbe
00000030: 0d50 23be ea19 9f3d 38e5 65be 10be 81be
00000040: 20da a3be 0022 c8be 9f70 d0be 1a59 ae3c
00000050: 309f f1be effc 16ba 0750 abbe 1f07 473e
00000060: e06b 46be 7917 1a3e 2508 73be 0230 1cbb
00000070: fc87 1fbd 750d 36be 82ab 193e 1208 da3d
0.023942554 -0.47333023 -0.4372693 -0.42073086 -0.0912173 0.268851 -0.16736442 -0.23201391
-0.5416515 -0.1942488 -0.30433813 -0.46335173 -0.15948506 0.077686146 -0.22450721 -0.2534032
-0.32002354 -0.3908844 -0.40710923 0.021282721 -0.47191763 -0.0005759736 -0.33459494 0.1943631
-0.19377089 0.15048017 -0.23733576 -0.0023832326 -0.038948044 -0.17778571 0.15006831 0.106460705

conv6.weight f4 [32, 32, 5, 5]
00000000: 27cf 3ebd 3bb5 00be 7455 3a3d b97b 4a3e
00000010: 4445 013e 0acc 9f3c 4bf1 5abd dabc 8fbc
00000020: b359 163e f1d6 943d b7ae 453e 31b5 833e
00000030: 6555 043e 66c1 d83d 34e2 a83c 7bde 1d3e
00000040: 5022 ed3d b610 d83d 51d5 c43d 5d0c 96bd
00000050: 85c4 bc3d 22d5 63b9 7915 e9bd 0320 17bc
00000060: 2b7e c9bc 7221 0a3e 9754 bbbd 8d31 cfbd
00000070: ab38 d9bc 5e9b febc 447b 19bc 9688 0fbe
00000080: 8d72 9dbd 38b3 ba3c 6292 473d f958 9f3c
00000090: c872 043d 017c d23c 1ccb f23d 232a 9a3d
000000a0: 96ec 023c 8493 f4bc 932e b4bd 413a babd
000000b0: e6dd 98bc c493 3dbd 4adf 843d e57f a93d
000000c0: 98da f53d bfb8 bdbd db99 123e b4ed 1d3d
000000d0: 64e9 eabd 829b a6bd c4df bf3c f196 143d
000000e0: 5709 8bbd 7df4 bfbd 79d0 853c 6272 9d3e
000000f0: 6500 653b 59f9 76bc afd3 6cbc 373e eb3c
00000100: 5ee3 2cba cec0 ac3a e5f5 8bbc b91b eebc
00000110: c8ac cbbd b668 1ebe 0cba d03d aff9 983d
00000120: 179e f5bd f086 39be e6a3 c5bd 68d8 5e3d
00000130: fbd4 3e3d e9ce 483a 3b55 b03c 0e6d 173d
00000140: 68f9 c23d 164f 7abd c44d 16be ea00 d4bd
00000150: 584a 633d 56a1 283d 628b 22bd 88c7 7abc
00000160: c3cc ad3c f67e cd3d 4956 05bc 4117 b4bc
00000170: cd65 bcbd db59 bebd 1429 1d3d a1f0 9f3c
00000180: e94e 4a3d d632 6fbd 3ed1 89bd 94fd 3e3a
00000190: b7e4 78bd a84e 84bd dcf8 fb3c 3381 b33d
000001a0: 46cd d3bd e77c 5ebe 3b90 6ebe 9d59 f23c
000001b0: bd8c 663d 58b7 07be 201a b2bb d025 b8bd
000001c0: bb28 4dbe d20a 38be 462d 38be f090 e13c
000001d0: 0e6d 75bc 4f34 3ebe 5557 23be 87fd 2bbe
000001e0: 0830 a2bd af4a 3ebd 2cc4 b3bd ff3c 7ebd
000001f0: e233 a3bd 986e efbd 8f3b a7bd 775b 0cbe
00000200: 0cfa 9a3d 6479 823e 386c f8bc 5374 bfbd
00000210: 1097 10be 2659 983d 4e74 fa3c 1dce cebc
00000220: ca2b 1d3d fa6a 0bbc 2a57 d0bd 8494 18bd
00000230: b856 e73d afba 55bd a245 c23d 51a5 753d
00000240: 68e1 8fbd 8ae7 f53c 2fad 623d e78a e9ba
00000250: 9610 40bd 67da adbd 9fbb cd3d 94cd 013e
00000260: 5f3c 133e 04ef bb3d 632f 9b3d 3496 223d
00000270: 172e 863d 5aca 1e3e aecf c43d a0d8 0c3e
00000280: 2b23 6e3d 15cc 2b3e bf57 0c3e 2443 193d
00000290: fcdd 953a 0c58 fc3c 83ed 473c bbaf 0d3d
000002a0: bd9a e23c f41d 06bd 32c2 7f3c 4ffd 263c
000002b0: b1c9 b73c e880 8ebd 6a96 a1bd 2a62 e2bd
000002c0: ce9f 3d3d 55fd 80bb d991 20be 537e 0abe
000002d0: f6e3 1cbe 2d91 d2b9 5b0e e6bd d45b 6fbe
000002e0: 6f4d e4bd 2ca2 f8bd 1157 723d 59e0 7ebd
000002f0: d3d0 df3c d634 18bd c52e 12be ace5 8abd
00000300: 5e9a 14be fec3 653c a528 383d 9c08 17bd
00000310: d672 7f3d 4b34 89bd 89a8 a2bd e96c 8dbd
00000320: 330f 523e 0c47 0a3e 0d38 a93d e289 6b3c
00000330: 187d e53d a10b 5c3d 864a 0d3d d656 e53d
00000340: 40f9 da3d 7501 a33e 084b 983d addd 40bd
00000350: 68d4 8fbd 97ff 333d dd3a 843d f467 4e3e
00000360: d564 0abd 582e 9cbe 4cc0 5fbd f5be 7a3d
00000370: 39d6 5e3d 22a4 0f3d 6234 eebc 73d1 59bd
00000380: c6e2 b3bd 8819 093b 024e 30bd 90c1 263b
00000390: 97e7 e63d 132e 9c3c d630 6dbe 6d2c cabd
000003a0: 5e07 7a3b a758 c43d 34f1 64bc 5134 0fbe
000003b0: fc6f 37bd 049e 02be 2194 a9bd d82a 2fbd
000003c0: 0408 cb3d babf 33bc 5472 2cbe 60d4 babd
000003d0: 6681 1abe 7f0d ba3d a24b 843c b7f6 fabd
000003e0: 2dd6 e3bd 41b3 25be 61a1 e43d c77e 403e
000003f0: 851e ea3d 4eb9 403c d5cc 273e d7bf f93c
-0.046584275 -0.12569134 0.04549165 0.19773759 0.12624079 0.019506473 -0.05345277 -0.017546106
0.14682655 0.07267559 0.1930493 0.25724176 0.129232 0.10583763 0.020615675 0.15416901
0.1157881 0.10550062 0.096109994 -0.07326577 0.092171706 -0.00021727805 -0.11381049 -0.009223941
-0.024596294 0.13489321 -0.091469936 -0.10116873 -0.02651628 -0.031079944 -0.009367768 -0.14016947
-0.076878645 0.022790536 0.048723586 0.019451605 0.032336026 0.025693895 0.11855146 0.07527568
0.007990977 -0.029855497 -0.08797946 -0.09093142 -0.018660497 -0.0462835 0.064879015 0.08276347
0.12004584 -0.09263753 0.14316504 0.03855677 -0.11470297 -0.081351295 0.02342213 0.03627676
-0.06788891 -0.09372804 0.01633476 0.3075133 0.0034942862 -0.015074098 -0.014454766 0.02871619
-0.00065951596 0.0013180019 -0.017085025 -0.029065954 -0.09945065 -0.15469632 0.101917356 0.07469498
-0.11993044 -0.18117881 -0.09650402 0.0544056 0.046589833 0.00076602265 0.021525016 0.036969237
0.09520227 -0.06111058 -0.14678103 -0.10351737 0.05549082 0.041169487 -0.039683707 -0.015306361
0.021215802 0.100339815 -0.008138248 -0.021983745 -0.091991045 -0.09294482 0.038369253 0.01952392
0.04939166 -0.05839809 -0.06729363 0.0007285711 -0.060764994 -0.06460315 0.030758314 0.08764877
-0.10341887 -0.21727334 -0.23297207 0.029583747 0.056286562 -0.13253534 -0.0054352432 -0.08991587
-0.20035069 -0.17972878 -0.1798602 0.027534932 -0.014979614 -0.18574642 -0.15951283 -0.16795932
-0.079193175 -0.046457943 -0.08777651 -0.06206989 -0.0796888 -0.11691016 -0.08165657 -0.13706766
0.07567224 0.2548324 -0.03032504 -0.09348359 -0.14120126 0.07438879 0.030573037 -0.025244767
0.03837184 -0.008509392 -0.10172875 -0.03725101 0.11295837 -0.05217999 0.09485938 0.05997211
-0.07025415 0.030017633 0.055340942 -0.0017817885 -0.046890818 -0.084889226 0.100455515 0.12676078
0.14378498 0.09176448 0.07577398 0.039694026 0.0655176 0.15506878 0.09609924 0.13754511
0.058139008 0.1677707 0.13705347 0.037417546 0.0011433954 0.030803703 0.012202623 0.034591418
0.027661676 -0.03274341 0.015610265 0.010192229 0.022435041 -0.06958181 -0.07890017 -0.110538796
0.04629498 -0.0039364495 -0.15680636 -0.13524751 -0.15321335 -0.00040162486 -0.11233207 -0.23374873
-0.11147582 -0.12140307 0.059165064 -0.062225673 0.027321255 -0.037159763 -0.14275654 -0.06782088
-0.14512011 0.014023779 0.044960637 -0.036873445 0.062365375 -0.06699427 -0.07942302 -0.069055386
0.2051361 0.13503665 0.08262644 0.014376136 0.112055 0.053722028 0.0344949 0.11198203
0.10692072 0.3183705 0.07436186 -0.047086406 -0.07022935 0.04394492 0.0645654 0.20156842
-0.033787567 -0.30504107 -0.054626748 0.061217267 0.054403517 0.03506864 -0.029077712 -0.053178262
-0.08783488 0.0020919759 -0.043043144 0.0025444962 0.11274641 0.019064939 -0.2316316 -0.09871755
0.0038151364 0.095872216 -0.013973523 -0.13984801 -0.04478453 -0.1275559 -0.082802065 -0.04276547
0.09913638 -0.010971004 -0.16840488 -0.091225386 -0.15088424 0.090846054 0.016149346 -0.12254088
-0.11124835 -0.16181661 0.11163593 0.18798362 0.114316024 0.01176293 0.16386731 0.030486984

conv6.bias f4 [32]
00000000: 7709 1bbe de24 77be 0152 c1bc 1d9c e4bd
00000010: c8a0 e1be e28b 05be ea72 5ebe 7028 dc3c
00000020: 6942 373e 2cc4 80bd b43d 8e3e 807b ffbd
00000030: 4588 543d 9622 e8be 8544 a2be e84d bcbe
00000040: 2ebb 5dbe 0fd0 91be d97a 11be de39 413e
00000050: 1cb2 5fbe 7c64 0a3d a3f2 473e c976 6e3e
00000060: 9ba3 333e 4d33 d0be 8b84 7abe a09d a4be
00000070: 65e4 733c c03f 883e 3f9e 3dbe 1475 a93d
-0.1514033 -0.24135157 -0.023598673 -0.11162589 -0.4406798 -0.13041642 -0.21723524 0.02687475
0.17896427 -0.06287417 0.2778145 -0.12474728 0.05188777 -0.45338887 -0.316929 -0.36778188
-0.21653435 -0.2847905 -0.14207019 0.18869731 -0.21845287 0.033787236 0.19526152 0.232875
0.1754288 -0.4066414 -0.24464624 -0.32151508 0.0148859965 0.26611137 -0.18517397 0.08274284

conv7.weight f4 [32, 32, 5, 5]
00000000: 6858 92bd d292 d9bd 154b 59bd 0165 dfbd
00000010: 7a20 a9bd 6e37 5cbe 6732 9ebd 26cd a13c
00000020: 64d2 8abd a0ea 5a3d a80a efbd 325c 3b3b
00000030: 46e0 463e 2110 2d3d eeb7 923c a616 9cbd
00000040: 4958 193d 9c0f 0c3c ddb3 04be 916e 9abd
00000050: eecd cbbd 1970 df3c 5474 14be 4d4d 67be
00000060: a108 84be 1d6b 743d b561 62bb 0af9 65bd
00000070: 7aab 90bc 8d7c 69bd 1c87 033e be30 143e
00000080: 4362 e43a c33c afbd d1f5 9dbd 3d03 183d
00000090: 060d 053e fe99 c7bd 56b1 7cbd 62ee 77bd
000000a0: 5b24 ec3d 750e 4cbd 108b 3dbe a166 03be
000000b0: 1143 9abd df87 223e 2e61 a5bd 42b0 69be
000000c0: 894a 01be e1ac 70bd bb68 08be 0e72 e3bc
000000d0: 9af5 af3c 2305 fcbd a801 b2bd 1007 febc
000000e0: 683f 9e3d 3d51 7a3d f1f4 1abe 5b48 b2bd
000000f0: 4681 ebbc 25c4 493c e28a 233d 7ee9 e5bd
00000100: 52b5 a0bd a95e 0bbe 7f97 963c a05a a5bd
00000110: b45a ebbd c3ba 94bd 1581 5cbc d432 b13a
00000120: e2fe 54be 68f6 5abe a9cc 20bd 448f 19bd
00000130: 1c11 1bbd af05 61be ea82 c7bd d26c 59bd
00000140: 756c a9bd 2e62 46bd d73c f9bd b65b e3bd
00000150: b40e 6abd 660a c1bd b003 85bd 5106 45bd
00000160: d4c1 d1bd 3d5a f8bd cb03 95bd 7f56 8ebd
00000170: 8f09 d4bd fd74 adbd edd9 0ebe 1c49 d7bd
00000180: 4812 ca3d 8e1a 0ebe f4a1 35be e193 abbe
00000190: 72aa a93d f95e 3f3c 456a d4bd 63a7 bcbd
000001a0: e849 aabc 9edb b93d 9bc2 87bc be9b 12be
000001b0: d4c2 b2bd 9d79 21be 4541 343e 4655 843d
000001c0: d8a3 b8bd a6a0 24be c282 39be b0be 3b3e
000001d0: a06e b63d e98f 90bd 3d8e 26be b37f 6abe
000001e0: 8094 093e b66c 0a3e 4560 1abe 3182 f8bd
000001f0: 0191 41be 6bf9 bf3c 9a9f a63c a881 de3d
00000200: 3f2c 01bc 5d2e 35bd 9672 293e db08 683d
00000210: 92e4 de3d 135b 063d c4c8 5a3d ac32 873d
00000220: 7f09 d63c b543 553d dd71 b5bc 1a00 d8bc
00000230: 4008 873d f3e5 07bd 7a70 b4bb 0e6b 48bd
00000240: b49c 44bd 29d3 2e3d ba3e f2bb 9e34 aa3c
00000250: b5cc 85bd 3d43 1cbd 6653 303c 26b2 d23c
00000260: 5e6c 67bd ea8c b63b b142 b83c 843e 7d3d
00000270: e91a 283d 0227 e73b a61d eb3a dc16 ddbd
00000280: 1f0b 5c3d cdb4 a1bd 7cd1 30bd 61e2 d0ba
00000290: d49b 92bd b560 b13d 10b3 763d 347f d8bd
000002a0: 440a 24be dabf c2bd dd45 773d 784c 16bd
000002b0: 8a80 42be 044b 67be d6f3 25be 3acb 8d3c
000002c0: 6701 06b9 54d4 f63c da4b b5bd 83f4 a6bd
000002d0: e3c8 1fbd 05c1 bbbc 9e27 723c 05f1 e63c
000002e0: 8e40 48bd 6140 0abd f64d cc3c ee57 29bc
000002f0: 7d83 ab3c 5f33 423c d37d d3bc cd33 bf3b
00000300: 25ce 73bd 08d8 07bd d5af b6bd dd18 0dbb
00000310: dc14 0b3d 63cf 6ebe 8970 abbc f996 233d
00000320: 70e3 753e ea88 b73d 6e4b 103e 7756 d0bd
00000330: 0f3e 34be 486b ee3d ce82 573e b058 1a3e
00000340: 7f55 833d 9add 26be 1650 04bd c76e 51bd
00000350: 1792 9cbd de5b f9bd bf82 e3bc ce96 8f3d
00000360: 7944 223c 835c 8dbd 1727 d0bd 9d39 8bbd
00000370: ac54 c23d 5ca7 e83d a982 46be 4d81 6cbe
00000380: b012 9fbd 2544 6f3d e5c6 d2bd b45e 75bc
00000390: 9ab8 8bbd 13f5 0dbe 1172 febd 3e0f ca3c
000003a0: 1130 6e3c 1d33 d4bc ddd0 48bc 6ca2 abbd
000003b0: 1547 a63d ce0a 1e3d c534 8bbc 3905 ddbd
000003c0: 05f7 0f3d 6b04 ea3c 3007 cabc 1440 ebbc
000003d0: c206 54bd 1156 3c3d e7f2 5f3d 9f53 b5bd
000003e0: 1f53 a4bd 713d 8dbd 42d0 4dbe 3303 09bd
000003f0: fead 953d 2d77 203d aa23 d3bd d1c9 25be
-0.071457684 -0.10623707 -0.05305012 -0.10907937 -0.082581475 -0.2150552 -0.07724457 0.019751143
-0.0677841 0.053446412 -0.116719544 0.0028588888 0.19421491 0.04225171 0.01790997 -0.07621507
0.03743771 0.008548643 -0.12959237 -0.0754062 -0.09951387 0.027275132 -0.144975 -0.22588082
-0.25787833 0.059672464 -0.0034543101 -0.056145705 -0.017659891 -0.057003547 0.12844509 0.14471719
0.0017424304 -0.08556511 -0.077129014 0.037112463 0.1299325 -0.097461686 -0.06169256 -0.060530074
0.11530372 -0.049818475 -0.1851008 -0.12832119 -0.07532323 0.15872143 -0.08075176 -0.22821143
-0.12626089 -0.05875862 -0.13321202 -0.027764346 0.021479417 -0.12305667 -0.08691722 -0.031009227
0.077269375 0.06111263 -0.151325 -0.08705207 -0.028748166 0.012314831 0.03992737 -0.11226176
-0.07847084 -0.13610329 0.018382786 -0.08073926 -0.114919096 -0.072621845 -0.01345851 0.0013519176
-0.20800355 -0.21383059 -0.03925768 -0.037490144 -0.037858114 -0.21974824 -0.09741767 -0.053082295
-0.0827264 -0.048433475 -0.121698074 -0.11101477 -0.05714293 -0.094258115 -0.06494844 -0.048101727
-0.10242048 -0.121265866 -0.07276114 -0.069500916 -0.10353386 -0.08469579 -0.1395032 -0.105119914
0.09866768 -0.13877317 -0.17737561 -0.3351126 0.08284463 0.011680358 -0.10371832 -0.09211614
-0.020787194 0.09075092 -0.016572287 -0.14317223 -0.08728567 -0.15769048 0.17603023 0.06461577
-0.09015626 -0.16076908 -0.18116286 0.1833446 0.08907819 -0.07058699 -0.16265197 -0.22900276
0.13435555 0.13518032 -0.15075786 -0.12134207 -0.18902971 0.023434361 0.020339776 0.10864574
-0.007884084 -0.04423367 0.16547617 0.05664907 0.1088344 0.0328017 0.05341412 0.06601462
0.026127575 0.052066524 -0.02214902 -0.026367236 0.065933704 -0.03317828 -0.0055065723 -0.04893022
-0.048001006 0.042681847 -0.0073927315 0.020777043 -0.065331854 -0.03815006 0.010762071 0.025719713
-0.05649983 0.0055709975 0.022492738 0.061827198 0.04104129 0.0070542106 0.0017937913 -0.10795376
0.053721543 -0.07895813 -0.04316853 -0.0015936607 -0.07158628 0.086610235 0.06022936 -0.10571137
-0.16019541 -0.09509249 0.06036936 -0.03669402 -0.18994346 -0.2258721 -0.16206297 0.01730882
-0.00012779758 0.030130543 -0.08852358 -0.08152106 -0.03900994 -0.022919187 0.014779953 0.028191099
-0.04888969 -0.033752803 0.024939518 -0.0103359055 0.020936722 0.011853068 -0.025816834 0.0058350326
-0.059522767 -0.033165008 -0.08920256 -0.0021529712 0.03395544 -0.23321299 -0.020927684 0.0399389
0.24012542 0.08961661 0.14091274 -0.10172742 -0.17601798 0.11641556 0.21045992 0.15072894
0.064127915 -0.16295472 -0.03230294 -0.051131036 -0.07645052 -0.121757254 -0.027772306 0.070111856
0.0099040205 -0.06902411 -0.10163706 -0.06798098 0.09488806 0.11360046 -0.1938578 -0.230962
-0.07767236 0.058414597 -0.10291842 -0.014976192 -0.06822319 -0.1386302 -0.124241 0.024665471
0.014537827 -0.025903279 -0.012256828 -0.08380589 0.081190266 0.038584523 -0.016992936 -0.10792012
0.035147686 0.02856656 -0.02466163 -0.028717078 -0.051764257 0.045980517 0.05467501 -0.0885384
-0.080236666 -0.06896485 -0.20098975 -0.033450317 0.07308577 0.039176155 -0.10309537 -0.16190268

conv7.bias f4 [32]
00000000: 592e a8be 9e8c ad3e 8c5d bb3e 3a27 a63e
00000010: 0142 d6bd dfe4 a93e 76e5 46be 362a af3e
00000020: 004f 32be e44e 59be 16fe 87be 0142 973e
00000030: dfcc 963e 6378 0cbf d80d 9e3e 3f76 24bd
00000040: 22ff 743e 9d3e 9b3e 2f3b a13e fbf8 953e
00000050: f51a a63e 8f40 9c3e e1da a93e 327d 9ebe
00000060: 2b3f 993e b986 953e 79de 2cbe bd9b 82be
00000070: 0d61 cebd e267 a0be b01e 993e 77d5 78be
-0.3284786 0.33896345 0.36594808 0.32451802 -0.10461808 0.33182427 -0.1942347 0.34211892
-0.17412949 -0.212215 -0.2656104 0.29542544 0.2945318 -0.54871196 0.30869937 -0.04015183
0.2392545 0.30321208 0.31490466 0.2929152 0.32442442 0.30518004 0.33174804 -0.3095489
0.29931006 0.29204348 -0.16881742 -0.25509444 -0.10077105 -0.31329256 0.29906225 -0.2430018
